models/patient28/ppo_model_for_patient_28_Critic.pth (torch, 22684 bytes, 15 tensors)

FeatureExtractor.LSTM.weight_ih_l0 f4 [64, 2]
00000000: 9af1 053e 1e3f d9bd ad4d 89bd d71f 09be
00000010: 0884 b0be 548f be3b 2426 a7be d4ec 953d
00000020: 542f f8be 9f60 173e f62d a9be 3cbf 99bd
00000030: 2792 e4bd 1859 2bbd 9441 67be 48e2 233e
00000040: bc1f 96be 601f 8abe 1175 8cbe 8d6e 1abe
00000050: ba37 ecbd e092 a03c 41c1 8ebe 1dc2 e4bc
00000060: cbb5 a7be ed0e 033e e20b 05bf affe 2e3e
00000070: f708 b7be 88a8 13be 0180 54be a67a 89bd
00000080: d1a4 b3be 5161 a0be 2ca4 c1bd 654a 72be
00000090: 93a0 c9be c88c 8f3d 694e ccbd 48f5 1b3e
000000a0: 8a5e 44be c630 7cbe 2f7d cabe abe2 d03d
000000b0: 5050 82be b507 b83d 1595 8bbe c90f b8bd
000000c0: 297a e6be 1763 6bbe 09ac 2cbe e472 6fbe
000000d0: ad54 babe 882b 44be cdd3 85be d8a0 6cbd
000000e0: 3a40 8ebe 8af4 15be 7050 99be b2fb e53d
000000f0: 236e d3bd 39f1 0fbe d34c 883d 0806 ecbd
00000100: da5f 8c3e ce2f 493c 3223 253e 7608 88be
00000110: a549 ab3e ac60 34be d0d5 6abe 84cd dcbc
00000120: b986 493e 58a7 86be bbc1 863e 1877 4c3e
00000130: 4d74 d4be 7d6c d23d 132e 3dbe 7ff9 49bd
00000140: cba0 e4be 829b 803b e764 2f3e e479 3bbc
00000150: 2a1e a1bd 28e2 9fbe fd6d bb3e 42a0 bf3d
00000160: 7975 77be 403d e33c c523 21be 2e50 abbd
00000170: 6e58 3cbe bfbd 413e 69c6 b2be 8ffd 3a3e
00000180: 2dec 08be d35e 8a3c 3c8a d6be 4d53 cc3d
00000190: 5fd4 9dbe 5eca cd3c 8cb4 8cbe 3c79 0b3e
000001a0: 6ea6 f3be 9f10 d2bd ec4d d6be b12b f43d
000001b0: 3950 febe e144 323d 500e 64bd 68f5 423c
000001c0: fc14 90be 6862 5fbe 14ca 06bf b2d5 8fbe
000001d0: ff12 67be c039 3abe 694f c0be 1341 94be
000001e0: db21 aabb 8bcf e43d e884 7bbe 1541 4ebe
000001f0: 006c 99be dcfb 473d 24fd 9dbe b4b7 91be
0.13080445 -0.10607742 -0.067042686 -0.13391052 -0.34475732 0.005815426 -0.32646286 0.07320562
-0.48473608 0.14782952 -0.33042878 -0.07507178 -0.11160689 -0.041833013 -0.2258361 0.16004288
-0.29321086 -0.26977062 -0.27433065 -0.15081234 -0.115340665 0.019601285 -0.27881816 -0.027924592
-0.32755885 0.12798662 -0.51971257 0.17089342 -0.35749027 -0.14419758 -0.20751955 -0.067128465
-0.35086682 -0.31324247 -0.094551414 -0.23661192 -0.3938032 0.07009274 -0.09975893 0.15230286
-0.19176689 -0.2462798 -0.39548633 0.101994835 -0.254519 0.08985845 -0.27262178 -0.08987386
-0.45015076 -0.22987019 -0.16862501 -0.23383671 -0.36392727 -0.19157231 -0.26138154 -0.05777058
-0.27783376 -0.14644065 -0.2994418 0.11229648 -0.10323741 -0.14056863 0.06655278 -0.11524588
0.2741688 0.012279464 0.16126707 -0.26568955 0.33454624 -0.17615002 -0.22933125 -0.026953466
0.19680299 -0.26299548 0.2631968 0.19967306 -0.4149498 0.10274599 -0.18474607 -0.049310204
-0.44653925 0.003924788 0.17128335 -0.011442635 -0.078670815 -0.3122723 0.36607352 0.093567386
-0.24165906 0.027739167 -0.15736301 -0.083649024 -0.18393108 0.18920039 -0.34917 0.18260787
-0.13371344 0.016890919 -0.4190234 0.09976826 -0.3082609 0.02512091 -0.27481496 0.13620466
-0.47587913 -0.102570765 -0.41856325 0.11922396 -0.4967058 0.04352272 -0.055677712 0.01189933
-0.2814101 -0.21814883 -0.52652097 -0.28092724 -0.2256584 -0.18186092 -0.37560585 -0.28955898
-0.005192024 0.11172398 -0.24562418 -0.20142014 -0.2996521 0.048824176 -0.30857193 -0.28460467

FeatureExtractor.LSTM.weight_hh_l0 f4 [64, 16]
00000000: 3190 c6bd 5307 863e 901b 2bbe 5e05 1c3e
00000010: a749 0a3e 8375 ba3c a6a6 943d 91f5 05be
00000020: b609 773e 823e b6bd 397d 4bbe 17e4 37be
00000030: a8db 6a3d 19ae e4bb 0b8c 9cbc 0c90 27bd
00000040: 231e 3dbe b678 ab3e 08cf 5abe d14f c23d
00000050: 7e1e 523e 2919 97be d67f 203d 9091 f53d
00000060: 3da7 ae3c 2a20 2f3e 9a6b 373e cc81 e7bc
00000070: eabd 1dbe f76a ae3e f2d3 983b d01a 893d
00000080: 5af2 3d3e 9752 003e 5183 91be 8465 ed3c
00000090: 0a3a 1b3e 3350 86bd 5db4 b1bd 208c db3c
000000a0: 4e6f 873e 7926 b6bc 5e37 85be 6c27 19bd
000000b0: a483 39bd d2b4 2abd 2020 ad3d 0b1f 3e3c
000000c0: ef9d 28be 3387 163e 94c3 a0bd dad3 c83b
000000d0: bcd1 653e 048a b03d 5b63 f0ba 6007 4f3e
000000e0: 3b19 3d3e c067 243e 5470 14be f190 073d
000000f0: 6172 9fbb e489 533e 2794 ab3e abe0 4b3e
00000100: 551a 193e 1514 11bd 96f7 a3be 8096 cfbd
00000110: d867 6cbe 209f fe3d ee74 b83d edd5 113e
00000120: 2fc4 a43e e4ec b93d e349 0f3e f2a7 93bd
00000130: 2cd9 b6bd fd75 8ebd 4ea1 973d 4fc8 233e
00000140: e65b aa3d 417d 283e f61b 42be f240 3fbe
00000150: a7c5 b6bd f5ad c53d c06c e33c 4c95 2f3e
00000160: 7393 283e e8ad 723e ee25 e53d 0241 18be
00000170: 33b3 24bd 50bf d93d 2e4e 8a3e 9576 833e
00000180: 75db 6b3e af26 43bd cb71 153e 2583 2c3d
00000190: 9aa5 acbd 7f0b 9abe c8a8 033e b97b 8d3e
000001a0: 8ac8 c03e e6bd a03d 8b0c d13b 57f4 e8bc
000001b0: 405e 7a3e a725 613d 12dd fd3d 590b 633d
000001c0: 335f 18be 5512 6a3d d8fa d6bd 6ea2 183e
000001d0: 8fed 8cbe 9bff 08be e5ef 9f3d 1fc0 55bd
000001e0: 379c abbd 76fe 3c3c 740b b13d bfec 293e
000001f0: c542 f03c e4bc 22bd e8fa 01be 03f6 ffbd
00000200: 8dab 80be 5631 a13e 7476 db3d 2696 623e
00000210: 46d2 31bd e6df 53be 8c4b 313d b507 7cbe
00000220: 7ca9 893d 6196 ae3d 4136 09bd 7b21 2ebd
00000230: d4c3 23be c2d6 1abe bce8 1a3d df38 61bd
00000240: 8acd 273e 1b72 2abe cca7 60be cb5c 213c
00000250: 4b43 203e e838 8cbe d112 7a3d 1f48 e4bd
00000260: 1433 1fbe 3863 5d3a b6fa 6a3c 9967 fcbb
00000270: 9700 3fbe 95a5 053d f744 683e 8264 dbbd
00000280: ab38 723e 22c3 603e 51a8 9abc 9039 583e
00000290: 7c5c 24be 3486 4ebe fcf6 023d a58c 9e3e
000002a0: 9047 463d fbc3 b73c af27 ae3c 8694 203d
000002b0: 62d9 d7bc 94b5 373d c3d2 953d 26e3 113e
000002c0: c6b6 4b3e 3ed3 8fbc 0113 433e 9d56 2cbe
000002d0: e61b d13d 15eb 9f3d a1be 53bd 0859 94bd
000002e0: becc 553d c022 b03d 7a3f 123d 8a0d a4bd
000002f0: 4e70 833e 7936 15be c62f 733e 6a89 8bbd
00000300: 7b94 0bbe bb8a 2dbe ba6f 83be c48c b23d
00000310: b4b2 aebe 490f 96be de2c ab3d ba1d d7bd
00000320: 4f4b 0ebd a85a 243e ed57 af3c 950f 9dbe
00000330: f4ed 2d3e 14bd 723d 0e5f 77bd e21c e9bd
00000340: 49b2 72bd 55ad c63d 25aa 2d3c 23f4 363e
00000350: 60bd 853e 82e6 623d 7873 17be 3605 18be
00000360: 0ac5 1b3d ee2c 2f3e ef3a 71be 4fe6 203e
00000370: b794 33be 8c1e 253d 46c7 fc3d 23cf b43e
00000380: bd3f 733d 1a8e 9c3e bc3e 263d c92f 543e
00000390: 47a2 6abe 05fd 9cbe 835d dcbc 05fd a23e
000003a0: defa a73e 6097 b4be 793a 43be 0a9d 96be
000003b0: 156c a2bd 8651 16be 529e 9ebc 4b61 b03e
000003c0: 10c2 b73d 6eaf aabd 4f0c 85b8 d298 2e3e
000003d0: 6bbc 3bbe ed85 8dbe 9126 41bd 92e4 e1bd
000003e0: 6efa a63e 54a8 9cbd 994d 203e dcd0 2abe
000003f0: 7a69 683e ddef 6f3c c037 b93d 9bbc c1bd
-0.09695471 0.26177463 -0.16709733 0.15236422 0.13504659 0.022761112 0.07258348 -0.13081957
0.24124798 -0.08898641 -0.19871987 -0.17958103 0.057338387 -0.006978762 -0.019109746 -0.04090886
-0.18468527 0.33490533 -0.21368039 0.0948788 0.20519444 -0.29511383 0.039184414 0.119906545
0.02131998 0.17102113 0.1791214 -0.028260134 -0.15404478 0.34065983 0.0046639377 0.06694567
0.18549481 0.12531506 -0.284205 0.02897907 0.15158859 -0.065582655 -0.0867698 0.026800215
0.26452106 -0.022235142 -0.26018804 -0.03739111 -0.045291558 -0.04167635 0.08453393 0.011604081
-0.16466497 0.14700012 -0.078498036 0.0061287703 0.22443289 0.086200744 -0.0018340157 0.20217657
0.18466656 0.16055202 -0.14495975 0.03309721 -0.00486593 0.2065807 0.3351147 0.19909923
0.14951451 -0.035419542 -0.3202483 -0.101361275 -0.23086488 0.124326944 0.090066776 0.14241762
0.32180926 0.090783864 0.1399303 -0.072097674 -0.08928141 -0.06956098 0.07403813 0.1599438
0.083183095 0.1645403 -0.18955979 -0.18677118 -0.08924418 0.0965232 0.027761817 0.17146796
0.16462497 0.23699152 0.11188875 -0.14868549 -0.04020996 0.10632193 0.2701277 0.25676408
0.23032935 -0.047644313 0.1459419 0.042117257 -0.084300235 -0.30086896 0.12857354 0.27633455
0.37653 0.0784872 0.006379669 -0.028436823 0.24450016 0.05496755 0.123956814 0.055430744
-0.14880066 0.05714639 -0.104970634 0.14905712 -0.27524993 -0.13378756 0.07809428 -0.052185174
-0.08379405 0.011535278 0.08644763 0.16594218 0.029328713 -0.03973092 -0.1269337 -0.12498095
-0.25130883 0.31482953 0.107159525 0.2212759 -0.043413423 -0.20690879 0.043284938 -0.24612315
0.0672178 0.08524776 -0.033499006 -0.0425124 -0.15992671 -0.15120986 0.03781961 -0.054985877
0.16387 -0.1664509 -0.2193901 0.009848784 0.1565067 -0.27387166 0.0610531 -0.111465685
-0.15546829 0.00084452657 0.014342001 -0.0077027795 -0.18652569 0.032628614 0.22682558 -0.1071253
0.2365443 0.21949437 -0.018879088 0.21115708 -0.16050905 -0.20168382 0.031973824 0.30966678
0.04840809 0.022432318 0.021259157 0.039204143 -0.026348773 0.0448509 0.0731559 0.14246807
0.19893941 -0.017556783 0.19050218 -0.16829915 0.10210399 0.0780851 -0.05169547 -0.07243544
0.05219721 0.08600378 0.035705067 -0.08010395 0.2567162 -0.14571561 0.23748693 -0.06813319
-0.1363086 -0.16947453 -0.25671178 0.08718255 -0.34120715 -0.29308537 0.08358167 -0.10503717
-0.03473979 0.16050208 0.021404231 -0.3067595 0.16985303 0.05926235 -0.060393386 -0.11382462
-0.059252057 0.09701029 0.010599648 0.17866568 0.26121044 0.05539561 -0.14790142 -0.14845738
0.038029708 0.17106983 -0.23557638 0.15712856 -0.17537199 0.040312335 0.12342696 0.35314283
0.059386957 0.30577165 0.040587172 0.20721354 -0.22913466 -0.3066179 -0.026900059 0.31833664
0.32808584 -0.3527174 -0.19065274 -0.29416686 -0.07930771 -0.14679536 -0.019362602 0.3444923
0.08972561 -0.08334242 -6.344227e-05 0.17050484 -0.18333595 -0.2764124 -0.04715592 -0.110299245
0.32612938 -0.076492935 0.15654601 -0.16681236 0.22696486 0.01464459 0.090438366 -0.09459802

FeatureExtractor.LSTM.bias_ih_l0 f4 [64]
00000000: 8cea 873e 42be 1bbd 4fff 4a3e f863 5b3e
00000010: 8c41 06be 307a f8bd 4d59 7a3e 7eb8 543d
00000020: aa3c cabc 32ed 05be 436c 963e 70a4 863e
00000030: ccf5 3fbe 950e ed3d 391d 863c 4e41 c13d
00000040: 0cff 8c3e 1609 3e3c 181c d23e 505b e1bd
00000050: aa19 ac3e b0e1 843c b005 a4bd f8d9 46be
00000060: 19cc fa3d 973c 0c3c 5167 983d 78e9 8b3e
00000070: 963e d7b8 d55d 5fbe 015e 873b 46ab 213b
00000080: 6bfe 643e 961e b73e 6d53 27bc bdf9 aa3d
00000090: 5f66 3abe 3f46 343e c9e4 823d 69c4 0d3e
000000a0: 09e9 7dbc 353f 1c3d 80bb b5bd ac7e 8dbe
000000b0: 0df5 34be 0e8f 793e eac8 f63d 2d22 ff3d
000000c0: 1d06 b63e 4135 373d bb5e 013e 4e80 4e3e
000000d0: ba84 e3bd 5fb8 29bb 7ee5 513e f4b3 4dbd
000000e0: d93f ad3d 97fe 5bbd 0c75 293e c227 683e
000000f0: d38f 8e3e 8b61 cfbd f0b8 723e 5872 7c3e
0.26546133 -0.03802324 0.19823955 0.21424854 -0.13110942 -0.121326804 0.24448128 0.051933758
-0.02468713 -0.13078764 0.29379472 0.2629733 -0.18746108 0.11575047 0.016371356 0.09436284
0.27538335 0.011598846 0.4103706 -0.110037446 0.3361333 0.016220897 -0.08008897 -0.19419086
0.1224596 0.008559368 0.07441581 0.2732656 -0.000102636564 -0.21813138 0.004131079 0.0024668737
0.22362678 0.35765523 -0.010212761 0.08348415 -0.18203114 0.17604922 0.063912936 0.13844456
-0.015497454 0.038146216 -0.088736534 -0.27635705 -0.17671604 0.24370977 0.1205004 0.124576904
0.3555154 0.04472852 0.12633793 0.20166132 -0.111093 -0.0025897247 0.204977 -0.050220445
0.084594436 -0.053709593 0.16548556 0.22671416 0.27844104 -0.10126027 0.2370336 0.24652994

FeatureExtractor.LSTM.bias_hh_l0 f4 [64]
00000000: 6a18 e1bd 226b ad3d 3439 923e b678 4dbd
00000010: 744e a73e d76f 0f3e 446b a23e 55a2 acbd
00000020: 0b66 943d ce24 233e 2ae3 753d 17d3 ac3e
00000030: 3f54 cd3c b651 60bd 4880 363d 9a03 25be
00000040: 3742 9abd aee2 d03e d82b 46bd cfd9 053e
00000050: e1be 203e 48ba 563e 7de7 143e 43df 573e
00000060: efc3 95bd 2cd0 0ebe ad8d ec3d ed20 8d3e
00000070: 2dd5 ed3d 8963 f33b bfa5 10bd 0bc2 8f3d
00000080: 0ff5 413e 779f 3c3d d0be 463e a382 29bb
00000090: b194 683d d437 4cbd cad9 873e 789a 65bc
000000a0: 277e 273e ba9b 53bd 175d 06be 7416 0d3e
000000b0: 84a5 8c3d 18d9 aa3d 5b4b 38bd cd1b 2cbe
000000c0: 5ff1 893e ba60 72bc 4d83 4e3c d65a d4bd
000000d0: bed0 3b3e fe9a 7e3e 722b 35bd 2533 743e
000000e0: a79a 9a3e 5371 8c3e 1e99 32bd 0a1e 3e3e
000000f0: 05eb 113e 6602 07bc a1c6 9f3e 086d 4b3e
-0.10990985 0.084676996 0.28559268 -0.050163947 0.32677042 0.14007507 0.31722462 -0.084294
0.07246026 0.15932009 0.060031094 0.337548 0.025064586 -0.054765426 0.044555932 -0.16114655
-0.07532161 0.40797943 -0.048381656 0.13071369 0.15697815 0.20969498 0.14541431 0.21081261
-0.07312762 -0.13946599 0.1155046 0.27564183 0.11612926 0.007427637 -0.035314318 0.07019433
0.18941139 0.046050515 0.19408727 -0.002586522 0.05678243 -0.04985793 0.26533347 -0.014013879
0.16356717 -0.051662184 -0.13121448 0.13778096 0.06867507 0.083421886 -0.04499374 -0.1680748
0.26941964 -0.014793569 0.012604547 -0.10368888 0.18341348 0.24863812 -0.044230886 0.23847635
0.30196115 0.2743021 -0.043603055 0.18566146 0.14249809 -0.008240318 0.3120623 0.19865811

GlucoseModel.fc_layer1.weight f4 [16, 17]
00000000: 190b 59be 3d72 f83c 9c6f 5dbc 2665 7ebd
00000010: f081 d8bd 5c8e 5a3d b2c1 1abe 96b3 a9bd
00000020: 0e36 69bd bd89 303e 0e4e 313d c23f b63d
00000030: 0fc3 d03d aed2 073e c9e2 223c bb4f 02be
00000040: c1a3 bc3d 0d5c 833d efe1 573e 09e6 653e
00000050: da3d 56bd 5ecb bb3d e659 8bbd bd2b 0d3e
00000060: 21d9 05be f6bc 2d3e bdb7 99bd 08a5 02be
00000070: c340 40be 0411 0b3e eb6e 25be 3da5 343b
00000080: d16d 263e 0895 413d 73ee e33d 0cc9 183e
00000090: a415 fb3d 111c ea3c eced 38be 22f4 ca3d
000000a0: 3cda 763d a034 a73c 7506 033e 9725 37bd
000000b0: f1eb 68be 7b0e 42be cb4e f13c c9d8 19be
000000c0: a114 5cbd 5eae 96bd 296c 04be 1384 5ebe
000000d0: cae2 4f3e f888 723d d6a6 15bd 9b9c 5b3c
000000e0: 3b77 ee3d f068 0abd 8a4b 653e fe39 403e
000000f0: f43b 433e e950 e2bc 529c 583e 118d 063e
00000100: 72cf 59be 9479 a4bc 7bdc 3fbe b5fb 09be
00000110: 055d fb3d 9eb2 d63d b911 b6bd b5b6 36be
00000120: 4c8f 4a3d 1637 563e 68a5 2b3e c729 683e
00000130: 30a5 a53d cb84 67bc df5c 9b3d a510 2abe
00000140: 0db3 26be 0fba 29be d145 353e 173a c63c
00000150: 134f 4dbe c6c4 70be 0882 09be b25e 1e3e
00000160: f8b6 8b3c 79f5 4c3e 09d1 d03b 9568 3abe
00000170: fcd9 f7bb 755b 01be 1c17 32be 3b44 aa3d
00000180: 9dda 2b3e 5c4b 943d d7f4 953d ac78 55bd
00000190: 7872 1c3e e065 b0bd dfbe 463e 2947 5e3d
000001a0: 0813 43be 6f71 babc 35d6 643d aff8 643e
000001b0: c07d 593e b163 cdbd 90f8 9f3d 00a6 0dbe
000001c0: 7b56 02be 4c39 0e3d ec40 5d3d 88d5 723e
000001d0: 468c 67be a094 403e 10a6 57be 66bc 2c3e
000001e0: cec6 043e 2caa 57be 972a 27be 750e 923d
000001f0: 15d6 58be 2607 493d 974a 42be 0089 1ebe
00000200: c823 2ebe e1b3 3d3d cfce bebd 7465 1c3e
00000210: dff7 953d fb4e 61be ab08 1e3d 1118 343e
00000220: 060f 72be 5381 ef3d 5aa3 3abe b9ba 603d
00000230: 9967 3a3e c17b 603d 23dc e33d cebd f33d
00000240: 0853 413d 2023 babd 2ba8 4dbe 0482 413e
00000250: e476 643e 09e4 73be feab 533e fac7 563e
00000260: 9796 25be 063b 0ebc dedb 8fbd bf8e 58be
00000270: 8192 1a3e de60 f4bd cb72 29be 386c 6a3e
00000280: d9b2 ff3d 2443 a53d 653a 3c3e 6003 2e3e
00000290: 2e28 bc3d 3813 27bd ced4 dd3c 03b7 e33c
000002a0: 11ff 003e 4042 50be 731f 2bbd 2f3b 033c
000002b0: 9b64 1e3e 0aa6 b83d 8dda fa3d bd3b 093e
000002c0: 526e 59be e03f 9ebc 9cd0 4abe 238c 96bd
000002d0: 1967 cebd 6c7b 283e 7e7f 7f3d 9d3a abbd
000002e0: 5cbb 583e 9089 fdbd 4409 693e 9e29 4ebe
000002f0: c428 0cbe dea1 cebc 4b7e 09be 0858 d23d
00000300: 6921 13be d688 51be ee60 2abe 5151 9cbd
00000310: 757a 20be 2b67 58bd 4a0d 04be be37 d238
00000320: fbc4 bc3c 35b8 72be dcf8 4b3e c5c6 863d
00000330: 9d17 27be 5155 35be f395 c33d 79e5 3abe
00000340: 1d63 313e a3a2 003e 03ae 223e c304 21be
00000350: 682c ebbd 4fe3 733e 4a4c e5bd d8fa 363e
00000360: 4bcf 05be 9244 433e b306 e93d 6889 623e
00000370: 4298 14bd 064b d73d 0874 01be dd9a d2bd
00000380: e631 533e b028 603d e4f6 d7bd f8d5 563e
00000390: 3805 b63c a4db 493e f949 713e dd8d 72be
000003a0: 39b1 fc3d 0a0a b6bd f39d 46be e407 6abe
000003b0: 2586 183d 577d 11be 1815 17bd db7e 57be
000003c0: 9bc4 1ebc ba63 f5bd c55a 71bd 15e6 adbc
000003d0: 04fe 3c3e 0bcb 3abe df47 2f3e a955 11be
000003e0: c96a 45bd de70 613d 70ea 0abe 789a 3ebe
000003f0: bf29 68bd b198 683e 3522 82bb 4567 293e
-0.2119564 0.03032791 -0.013515379 -0.06210818 -0.105716586 0.05335842 -0.15112951 -0.082862064
-0.056936316 0.17240043 0.04328733 0.088988796 0.101934545 0.13263962 0.009941765 -0.12725727
0.09210921 0.06414042 0.2108228 0.22451033 -0.05230508 0.091696486 -0.06804256 0.13786216
-0.1307111 0.16966614 -0.075057484 -0.12758267 -0.18774705 0.1358071 -0.16155593 0.002756431
0.16252829 0.047261268 0.11129465 0.14920443 0.12259987 0.028577836 -0.1805951 0.09909846
0.06026672 0.020410836 0.12795432 -0.044713583 -0.22746255 -0.18950836 0.029456517 -0.15024103
-0.05373061 -0.07357477 -0.12931885 -0.2173007 0.20301357 0.059212655 -0.03653606 0.013404037
0.11643835 -0.033791482 0.22392097 0.18772122 0.19065839 -0.027626472 0.21153381 0.1313975
-0.2127054 -0.020077504 -0.1873645 -0.13474925 0.122736014 0.10483287 -0.08890099 -0.17843135
0.049453065 0.20919451 0.16762316 0.22672187 0.08088148 -0.014130781 0.07586073 -0.16607912
-0.1627924 -0.16574882 0.17702414 0.024197621 -0.20049696 -0.23512563 -0.13428509 0.15465811
0.01705502 0.20015515 0.006372575 -0.18203957 -0.0075638276 -0.12632544 -0.17391628 0.08313795
0.16782613 0.07240936 0.0732209 -0.052117035 0.15278041 -0.08613181 0.19408749 0.054267082
-0.19050229 -0.022759167 0.055868346 0.2236049 0.21239376 -0.1002878 0.078110814 -0.13832855
-0.12728302 0.03472261 0.054016992 0.23714268 -0.22612104 0.18806696 -0.21059442 0.16868743
0.12966463 -0.21061009 -0.1632484 0.07131664 -0.21175416 0.049079083 -0.18973766 -0.15481949
-0.17005837 0.046314124 -0.09316789 0.15273076 0.07322668 -0.22002785 0.038582485 0.17587306
-0.23638543 0.116945885 -0.18226376 0.054865573 0.18203582 0.05480552 0.11125972 0.11901437
0.047198325 -0.09088731 -0.20083682 0.18897253 0.22310978 -0.23817457 0.20671079 0.20974723
-0.16170727 -0.0086810645 -0.07024358 -0.21148203 0.1509495 -0.119325384 -0.16547696 0.22892845
0.12485284 0.08069447 0.18381651 0.16993475 0.09187351 -0.040789813 0.027079012 0.027797228
0.125973 -0.20337772 -0.04177804 0.008009716 0.15468065 0.090160444 0.122487165 0.13401695
-0.2123349 -0.019317567 -0.1980614 -0.07350948 -0.10078258 0.16453332 0.062377445 -0.08360789
0.21165222 -0.123797536 0.22757441 -0.20133063 -0.13687426 -0.025223669 -0.13427083 0.10270697
-0.14368214 -0.20462355 -0.16638538 -0.076326974 -0.15671714 -0.052832764 -0.12895694 0.00010023963
0.023043146 -0.23703082 0.19919151 0.06580881 -0.16317602 -0.17708327 0.09550085 -0.182516
0.17322965 0.12562041 0.15886693 -0.15724473 -0.11483079 0.2381718 -0.111961916 0.17869127
-0.13067357 0.19069126 0.11378231 0.22122729 -0.036278017 0.105123565 -0.12641919 -0.10283444
0.20624503 0.054726303 -0.105451375 0.2098006 0.022219285 0.19712692 0.23563375 -0.23686929
0.1233849 -0.088886335 -0.1939619 -0.22854573 0.037237305 -0.1420797 -0.03688535 -0.21044485
-0.009690429 -0.11981912 -0.058924455 -0.021227876 0.18456274 -0.18241517 0.1711726 -0.14192833
-0.04819754 0.05503928 -0.13565993 -0.18613613 -0.056680437 0.22714497 -0.003971363 0.165433

GlucoseModel.fc_layer1.bias f4 [16]
00000000: f905 e0bc c7ea 2cbe 7514 43be f1b1 653e
00000010: 81e4 2fbe 1b64 053e 0c90 423e 94ef 103e
00000020: e5dd 1c3e 2f19 10bb 3158 bf3d 7296 14be
00000030: 9f86 2d3e dbfb d4bd e8ee ea3d 99f9 543e
-0.027346598 -0.16886435 -0.19050772 0.2243116 -0.17177011 0.13026468 0.19000262 0.14153892
0.15319021 -0.0021987667 0.09342993 -0.14510515 0.16945885 -0.103996 0.11471349 0.20798339

GlucoseModel.cgm_mu.weight f4 [1, 16]
00000000: 38b6 31bd e00a 083b d4aa a83c 044e 3b3c
00000010: 6596 b13c cccd f53a 74c4 23bd 6e59 2c3d
00000020: bd12 073b 6b6c 8fbc 658f 193d 78dc 003d
00000030: 4b04 35bb 5611 d03c 74b8 48bc e1df 6b3c
-0.043386668 0.0020758435 0.02058927 0.011432175 0.021678159 0.0018753349 -0.039982274 0.042077474
0.0020610534 -0.017507752 0.037490267 0.031460255 -0.0027620967 0.025398891 -0.012251008 0.014396639

GlucoseModel.cgm_sigma.weight f4 [1, 16]
00000000: 1fb0 253d da90 0c3d 6ccd 993c 6838 153d
00000010: 1eb4 18bd 42b5 29bc e0c7 0b3c 73a2 103d
00000020: e46d 63bc eee9 8dbb 1eca 053d 988a 08bc
00000030: d229 89bc 8b52 d63b 04ba cfbc a7c0 9ebc
0.040451165 0.03431783 0.01877471 0.036430746 -0.037281148 -0.010358157 0.008531541 0.035311174
-0.01388118 -0.004330865 0.032663457 -0.008333825 -0.016743574 0.0065406016 -0.025357254 -0.019378973

ValueModule.fc_layer1.weight f4 [32, 16]
00000000: cf43 14be d863 22be dd56 35be 908e 9f3e
00000010: 88c0 95be b570 1e3e c7a3 c73d 7012 9d3e
00000020: d9f7 b83c 0223 31bd 7995 0bbe 4ef4 033e
00000030: 0202 903e 90b6 c3bd aed1 b83d a579 693e
00000040: 5c11 8fbd dc6f 5abe ee66 45be 20cf 353e
00000050: d279 453e ba8f 613e 0a42 2b3e e098 5bbe
00000060: 049e c13d 94fa 1f3e 48b7 2bbd f8fe 073e
00000070: 183e 133d b83e 333d 883f ebbd d84f cdbd
00000080: 23ab 853e b374 af3e 4cbe 923e 1bff 143e
00000090: 25d5 b63e 6720 a0bc 3f55 903c 1b9d cb3d
000000a0: 20ec b83e 31a3 013e a907 c53c dead 6fbe
000000b0: 09da 81bc 6ccc cd3e 9a4a 51be 9629 46be
000000c0: d0df a33d 89bc a03c bc43 8e3e df28 823e
000000d0: 69c1 5f3e fefe 543d d970 ea3e 9b1d 4b3b
000000e0: 99f9 4d3e 4f8d 9e3e c2a0 783e 6c32 6fbe
000000f0: 4be5 c8be 6401 b83e 8055 7dbe 7157 063e
00000100: 4134 69be b59a 9d3e c1c4 95be fb91 053e
00000110: eb2f bbbe ddfb 213e 985d 153d 4aeb 823e
00000120: d473 793d 5897 b63b 1665 b6be a03f e33d
00000130: 713b 713e 0465 943e 477e 3b3e 6360 92bd
00000140: c66a 99be e22f ac3e 2013 bbbe 51da af3e
00000150: c140 9ebe c915 0cbe 1583 31bc 9ec1 dbbd
00000160: c331 0dbd 768c cd3d d238 1c3d 2f24 3dbe
00000170: 4ee8 b73d a839 243e 23fe 9d3e b6ed 963e
00000180: 49c1 b2be 3dc4 7e3e 7e3b 1e3d ab8e a23e
00000190: 7acc 76be 3b74 143e f6c9 863c 595b e83d
000001a0: 4541 a73d c3c8 acbe 5a9b c6bd e36f ebbb
000001b0: b70b 92bd 195c a2bd 2bcf 3f3e dd42 173e
000001c0: a474 943e b859 d33c 69a0 a43e 0ffd 5f3e
000001d0: 7401 ad3e c810 98be e314 813e e369 743e
000001e0: 9fbb 8f3e 5e87 c73e c22d 383d be7e 63be
000001f0: 923f 81be 3947 133e d573 ecbe 0e51 a03d
00000200: 5901 f83d 13a4 7a3e c9c6 1a3e 5cb4 9b3d
00000210: 1b4c b33d 8ccb 65be e2f2 853e a9dd 173d
00000220: 7b67 ee3b ed68 f43d ebf6 5cbd 8c0f b6be
00000230: ba8e e23d f340 c43e e112 a43e 20a1 af3e
00000240: 2b42 f53d 7d62 693b 4bd8 173e 1117 d33d
00000250: 0e6f 08bd 7bae acbe 1dfa d53e 194c 9abc
00000260: ec7d a63d f4e2 4f3d 1c8d 02bd 134c 97be
00000270: 1afb edbd 1b13 bf3e 1726 8f3e 5448 343e
00000280: bbe1 423e cca2 7f3d ee4e adbd 4db6 0cbe
00000290: 0917 4ebe a4bd 243e b167 0c3d 611b 0cbd
000002a0: a867 aabd c457 37be aea9 73bd 2dba 72b9
000002b0: 14e6 64be e199 e43d 200d acbc e9f2 25be
000002c0: aee6 51be 0269 083d 7d3f 64be a3f7 4e3e
000002d0: 179a 0b3d 186f 74be 2cc1 813c b8d4 4fbc
000002e0: d267 6c3e 949f a03b cc76 113e df6d 323d
000002f0: b22e 703e 02fe 973d e57d f73c a336 843e
00000300: 0c74 05be 1018 49be 8457 d73d ec5c 66be
00000310: 1062 a3bc 3c75 083e 18ec 723d ee29 22be
00000320: 203e 723e 00ad ce3d 6cb3 dfbd 0c52 3abe
00000330: 2017 62be 8056 ba3c 9af1 253e 928f 7ebe
00000340: c495 563c e6fd b2bd 1175 8abe 2eb8 743e
00000350: b98b a1ba 5c6d 8cbd d0ff 2f3e ff6b 8f3d
00000360: c5b9 873e 6843 0bbe 813c 123e 7f0b a1be
00000370: 9754 763d 2c7a 85ba 66fa d13d 2e21 ed3d
00000380: 7e6c 2abd 52a8 d13d 33fb 393d 4c1b 1a3e
00000390: 4e4e 543d bb36 20be 9710 433e 16e2 8a3e
000003a0: afef 753d 4402 43bd 81bf 8f3b b1f2 3ebe
000003b0: 4167 e8bd d3f7 533e 3d9f ac3e e178 7d3e
000003c0: 9f4a 633e 00fe 1dbe c06f 5bbd 08f0 4d3e
000003d0: 6895 4a3e 4ecb 623e 1091 233d 5e31 35be
000003e0: 3bba 133e 87fd 2abe ce93 423d 4a8c 4f3e
000003f0: ef94 2f3d 8f36 053e 59c6 483e c14c 973c
-0.14478992 -0.158584 -0.17708917 0.31163454 -0.29248452 0.15472682 0.09748035 0.3067813
0.02257912 -0.043246277 -0.13631238 0.12886164 0.28126532 -0.095563054 0.09024368 0.2280031
-0.06985733 -0.21331733 -0.19277546 0.17754793 0.19284752 0.22027484 0.1672441 -0.21445036
0.09453967 0.15622932 -0.041922837 0.13280857 0.03594789 0.043760985 -0.11486727 -0.100249946
0.2610713 0.34268722 0.2866081 0.1455044 0.3570949 -0.0195467 0.017618774 0.09942075
0.3611765 0.12659909 0.024051504 -0.23406169 -0.015851038 0.40195024 -0.20438614 -0.19351801
0.08001673 0.01962115 0.27786052 0.25421807 0.21851124 0.052000992 0.4578922 0.0030992988
0.20114745 0.30967185 0.24280074 -0.23359078 -0.39237437 0.3593856 -0.24739647 0.13119294
-0.2277384 0.30782095 -0.29251674 0.13043968 -0.36559996 0.15818734 0.03646621 0.25570136
0.060901478 0.005572241 -0.35623997 0.1109612 0.23557831 0.2898332 0.1830989 -0.071472906
-0.29964274 0.33630282 -0.3653803 0.3434625 -0.30908778 -0.13680185 -0.010834475 -0.10730289
-0.034471285 0.100365564 0.038140126 -0.18470834 0.089798555 0.16037619 0.30857953 0.29478234
-0.3491309 0.24879546 0.038630955 0.31749472 -0.24101439 0.14497463 0.016453724 0.11345548
0.08166746 -0.3374692 -0.096976 -0.007184969 -0.07131141 -0.079277225 0.18731372 0.147716
0.2899524 0.025799617 0.32153633 0.21873878 0.3379017 -0.29700303 0.25211248 0.23868518
0.2807283 0.38970464 0.044965513 -0.22216317 -0.25243813 0.14382638 -0.46182123 0.0782796
0.12109632 0.24476652 0.15114893 0.0760276 0.0875475 -0.22440928 0.26161867 0.037076626
0.0072755194 0.119340755 -0.053946417 -0.35558736 0.11062379 0.38330802 0.32045653 0.34302616
0.11975511 0.0035611682 0.14828603 0.10307134 -0.033309035 -0.33726868 0.41792384 -0.018835114
0.081294864 0.05075355 -0.031872854 -0.29550228 -0.116201594 0.37319264 0.27958748 0.17605716
0.19031422 0.062411115 -0.0846232 -0.13741417 -0.20125975 0.16087967 0.034278575 -0.034205798
-0.08320552 -0.17904574 -0.05948799 -0.00023148274 -0.22353393 0.111621626 -0.021002352 -0.16205944
-0.20498154 0.03330327 -0.22289844 0.20211653 0.0340825 -0.23870504 0.015839182 -0.012684993
0.2308648 0.0049018357 0.14205474 0.043561812 0.23455313 0.07421495 0.030211398 0.25822935
-0.1303255 -0.19638085 0.10514739 -0.22496384 -0.01994422 0.13325971 0.059307188 -0.15836307
0.23656511 0.10091591 -0.10922894 -0.18195361 -0.22079134 0.022746325 0.16205445 -0.24859455
0.01309723 -0.087398335 -0.2704244 0.23898384 -0.0012324966 -0.06856796 0.17187428 0.070030205
0.26508918 -0.13599932 0.14280893 -0.31454083 0.060139265 -0.0010183505 0.10252838 0.11578594
-0.041607372 0.10237183 0.045405578 0.15049475 0.05183249 -0.15645878 0.19049297 0.27125615
0.060043033 -0.047609583 0.0043868427 -0.18647267 -0.11347819 0.20700006 0.3371524 0.24753143
0.22196434 -0.15428925 -0.05357337 0.20111096 0.19783556 0.22147867 0.039933264 -0.17694613
0.1442651 -0.16698276 0.04750424 0.2026836 0.042866644 0.13009094 0.19606914 0.018469216

ValueModule.fc_layer1.bias f4 [32]
00000000: 8ac4 3b3e a460 90bd 6b23 ab3d eece 9c3e
00000010: 7e87 333e f1ee 1abe 062d a1bc d885 373e
00000020: 1d22 0b3e 3849 e23d a1df 3abe 0ac3 5d3c
00000030: 10ac 56be 3dea 6c3e ea86 48bd dfcb 9abd
00000040: 682d 853e 2ade 883e 32a2 40be 6e0b 22be
00000050: 4179 86bd 21f1 a23d 1f6d 85bd 55d9 4a3e
00000060: 28b0 693e 4c7e cc3c 5cd4 583e 709a 6ebe
00000070: 0230 813c da36 6e3e 1abc 7dbe 843b a23e
0.18336692 -0.07049683 0.08356365 0.30626625 0.17532155 -0.15130211 -0.01967479 0.17922151
0.13587232 0.110491216 -0.1824937 0.0135352705 -0.20964074 0.2313623 -0.04895679 -0.075584166
0.26011205 0.26731998 -0.18811873 -0.15824673 -0.06566096 0.07956148 -0.06514954 0.19809468
0.22821105 0.024962567 0.21174759 -0.233011 0.015769962 0.23263112 -0.24778786 0.31686032

ValueModule.fc_layer2.weight f4 [32, 32]
00000000: 114b 743e b221 1e3e a22f 07be d188 64be
00000010: e5b9 213e 3223 4b3e d407 d13d 59a2 2cbd
00000020: 3994 b5bc ecac 3d3e 985f 5b3d 27bd 213d
00000030: 1dde acbd 3fe8 bc3d ec1a 073d c923 bdbc
00000040: 2aa1 cfbd 2913 4a3e 3659 493e 0a09 cebb
00000050: 2731 0dbd 1f1f d03d 0c9d 223d a637 443d
00000060: f308 193e bf53 933e 962b 4a3e f6c9 b43d
00000070: d95c 8c3e c306 703d 91fe 813a 3006 a63d
00000080: 8718 303d 44df 2fbe 4686 da3d a7a5 dc3e
00000090: e637 1eba 4ded 84be 22ac b1bd 3cf0 ce3e
000000a0: 61df b63e cd5b bb3e ec69 fa3d c5e8 d33d
000000b0: ab96 cebd 75fa 523e c86b 363e 149d 43bd
000000c0: 7dde 1e3e 3959 513e 0b2c 083d 21f5 2ebe
000000d0: ed9f fcbc c78f 75bd a3f1 b63d 81f9 953e
000000e0: c055 6abc 055f 35be a37c 02be c90b 2cbe
000000f0: b6c6 75bd 6f8b 06be de16 a93c 71f6 2f3e
00000100: 3a1f cabd eeff febd dacb a43e f993 793e
00000110: 523f 1ebd 8dcc 4e3d 24c7 da3d 1dbb aa3e
00000120: 08a0 933c 4b9c 6f3e 72ba 853d a204 e53d
00000130: 9c4a a03d 8bd1 413e fcda 923e 82d2 8e3d
00000140: 63a6 8e3e 2fa9 243e 5cc8 37be 0414 283e
00000150: 4e5b 2e3e f65e 1bbd 3c40 a23e 8501 b63e
00000160: bddf 78bd bd7b 3cbe 0122 153e 6bb7 823d
00000170: 40ec 65be 1265 1ebe 4672 8d3d 4c3f 863e
00000180: be35 223e 3182 cf3c 6ab5 25be f06c adbd
00000190: 2cb8 733e bde9 6b3e 2961 903e beee 603c
000001a0: b69f 523e c366 a6bd e355 dcbd e5a9 5dbd
000001b0: 1e39 07bc 4713 373d 6f25 adbc a5a9 dabd
000001c0: 0916 0abd b31a 043e 3203 a63d c5af 1e3d
000001d0: 6031 2abe ab52 033d aaa5 59be 71bc 423d
000001e0: 6938 2c3e 84ee 053e 9e20 b13c 4418 b0bd
000001f0: b981 653e 74c7 243d 967a 263e 112e d4bb
00000200: 5274 52bc d2ae 723d 8bb5 f2bd 845f 34be
00000210: 8614 1e3d 9c19 6ebd 78f6 763e eff5 46be
00000220: 514f c6bd 46eb 01be 418e ebbd 09bc 893d
00000230: c3ec d03c 624a e7bc 6efc 9a3d cf92 98bb
00000240: 6bef 29bd f25e e93d 9b61 f03d c142 303e
00000250: 63fb 71be 2b66 673e 7d14 d8bd 8896 7abe
00000260: e099 ca3d b1f4 22bb 4de9 6f3d 105c c93d
00000270: 864e 353e d8b5 633e 57da 46bd 9dc5 20be
00000280: c1f3 da3d 3c3b fabc 90f6 72be 1cd9 ac3d
00000290: c4ef 803e 614e 6f3c 2a1d b03d 95e9 7cbe
000002a0: a83f 4bbd cfff 353e 4602 d53d 5dbe 533e
000002b0: ecab 203e ce10 623e be15 d6ba a91c 113e
000002c0: be9b 45be 9e5e 573d 768e 373e 3594 163e
000002d0: ac46 06be b187 18bd a383 aebd 7963 3cbe
000002e0: 9116 c0bd d6f4 2e3e 12bc e83a 3542 99bd
000002f0: 7bb5 313e bd4b 123b d38c 09be 0c48 9a3d
00000300: bfb6 a2bd 091a b8bd 2be5 543c 2285 a6bd
00000310: 3151 4b3e 8cdf c93d aa0d 803e a657 b2bd
00000320: b6db 243e fac1 003e e057 b43d d72b ef3d
00000330: a74a 833d 41bc c0bc 0528 f73d 1761 a3bd
00000340: 6eb0 bfbd 3fbb d33c ec9f 863e bcb5 fbbd
00000350: 7a33 bf3d e8f8 6abd b0f0 0ebe a68f 58be
00000360: 1be9 593e ad1e 7b3e acd9 093c 535e c1bd
00000370: f24e e03c 0b38 6f3e 6a0a b63d e96b f7bd
00000380: 8045 9f3d 3702 24be 8495 3cbe 8df1 df3d
00000390: 8d97 f13d bc60 063e eca1 d1bc 1d29 c33d
000003a0: a6ab 36bd 3f19 6abd b5c2 ff3d a6f8 d73d
000003b0: da04 2c3e 5f7a d33d 05f3 cb3d 7296 943d
000003c0: be22 80bc d936 0dbc 5b10 1abe 936b 2a3e
000003d0: cb62 2ebe a0e6 973b e842 aabd 13da 19be
000003e0: f5b8 5abe a6a7 debc ac02 a1bd df16 283e
000003f0: b659 c23d a954 1fbe a841 7b3d 1087 cc3d
0.2385676 0.15442541 -0.13201764 -0.22317816 0.1579357 0.19837645 0.10206571 -0.042147014
-0.022165405 0.18522996 0.053557962 0.03948703 -0.08440802 0.09223985 0.03298466 -0.023088353
-0.101381615 0.19733872 0.19662938 -0.0062876986 -0.034470703 0.10162186 0.039700553 0.047904633
0.1494482 0.2877483 0.19743189 0.088275835 0.27414587 0.0586002 0.0009917786 0.08106649
0.04299214 -0.17175013 0.10670142 0.43095133 -0.0006035551 -0.25962296 -0.0867541 0.4041766
0.357173 0.36593476 0.12227234 0.10347132 -0.100873314 0.20603354 0.17814553 -0.047757223
0.1551456 0.20444192 0.033245128 -0.17085697 -0.030837977 -0.05995157 0.08932807 0.2929192
-0.014302671 -0.17712028 -0.12742858 -0.1680137 -0.06000396 -0.13139127 0.020640787 0.17183854
-0.09869237 -0.124511585 0.32186776 0.24372853 -0.038634606 0.050488044 0.10682514 0.3334588
0.018020645 0.23399465 0.06529702 0.11182524 0.078267306 0.1892759 0.28682697 0.06973745
0.27861318 0.16080163 -0.17947525 0.16413885 0.17027017 -0.03793236 0.31689632 0.35548034
-0.06076025 -0.18406577 0.14563753 0.063826405 -0.22453403 -0.15468243 0.069065616 0.26220167
0.15840814 0.025330635 -0.16182485 -0.08468044 0.23800725 0.23038383 0.28199127 0.013728796
0.20568737 -0.08125069 -0.10758569 -0.054117102 -0.008253364 0.04469612 -0.021136014 -0.106768884
-0.03371242 0.1290081 0.08106078 0.038741846 -0.16620398 0.03206126 -0.21254602 0.047542993
0.16818394 0.13079268 0.021621998 -0.08598378 0.22412767 0.040229276 0.162577 -0.006475218
-0.012845116 0.059248753 -0.11851033 -0.17614561 0.03859379 -0.05812989 0.24117458 -0.19429754
-0.09683097 -0.12687406 -0.11501742 0.06725318 0.025503522 -0.02823371 0.075676784 -0.004656173
-0.041488092 0.113950625 0.11737367 0.17212965 -0.23631053 0.22597568 -0.10550783 -0.24471486
0.098926306 -0.0024865086 0.058572102 0.09832013 0.17705736 0.22237337 -0.04854807 -0.15700383
0.106910236 -0.030545823 -0.23726869 0.08439848 0.25182927 0.014606089 0.085993126 -0.2469848
-0.049621254 0.17773364 0.10400824 0.20678087 0.15690583 0.22076723 -0.0016333384 0.14171089
-0.19297692 0.05258047 0.17925438 0.14704974 -0.13112897 -0.03723878 -0.085212015 -0.18397321
-0.09379304 0.17085585 0.0017756245 -0.07483331 0.17354386 0.0022322976 -0.13432626 0.07533273
-0.07945012 -0.08989341 0.012994091 -0.08130862 0.19855191 0.09857091 0.25010425 -0.08708124
0.16099438 0.12573996 0.08805823 0.11678284 0.06410723 -0.023527266 0.1206818 -0.07977503
-0.09359823 0.025846122 0.26293886 -0.122905225 0.0933599 -0.05736628 -0.13959002 -0.21148548
0.21280329 0.2452342 0.008413713 -0.09441819 0.027381394 0.23361222 0.08888705 -0.12081129
0.07776928 -0.1601647 -0.1841641 0.10934744 0.11796484 0.13122839 -0.025589906 0.09529326
-0.04459729 -0.057152983 0.12488309 0.10545473 0.16798726 0.10326075 0.09958462 0.07255258
-0.015641566 -0.008619034 -0.15045302 0.16642599 -0.17029874 0.004635647 -0.083135426 -0.15024595
-0.21359618 -0.02717955 -0.07861838 0.16414975 0.09489767 -0.15559639 0.06134191 0.09986699

ValueModule.fc_layer2.bias f4 [32]
00000000: 2794 ab3d aebc 2d3e 2c37 7f3e ffe3 2abe
00000010: c04c fbbd 7b39 c63d 5cdd 39be dd0b 393d
00000020: a8f3 16bd dd09 92bd 6f83 ef3d 3e67 5b3e
00000030: 4563 8abd 9148 a5bd cd42 39bd 9de4 23bd
00000040: f506 663d 288c 8cbd 030d c83d e38f 11be
00000050: deee 06be 96a4 e2bb 0e98 253e 495c e6bd
00000060: f168 18be 25e7 b03a 62d7 0bbe 0e5f 423d
00000070: ab19 9c3b 3e95 08be cc52 4dbd 77ce 5cbc
0.08377867 0.16966507 0.2492339 -0.16688536 -0.12270498 0.09678932 -0.18150848 0.04517733
-0.036853462 -0.071307875 0.11694991 0.21426103 -0.067572154 -0.080704816 -0.04522972 -0.040012944
0.05615898 -0.0686267 0.09768107 -0.14215045 -0.13177058 -0.006916593 0.16171286 -0.11248071
-0.14883782 0.0013496621 -0.13656381 0.047453932 0.004763802 -0.13338181 -0.05012779 -0.013476959

ValueModule.fc_layer3.weight f4 [32, 32]
00000000: 4879 083e 8ac8 07be 315f 4cbe 2301 453e
00000010: 046e 193d 2977 873e 2d4e 273e 3346 1c3e
00000020: 9f85 093d 2421 2abe 65d2 093e 75ec 83be
00000030: 18c5 f23d 8b18 22be 850f 44bd 9ba1 9ebc
00000040: 9515 d93c 2320 473e 752a 12bd df91 3c3d
00000050: 4511 503d dc42 c5bd a2ac cb3d bfcc f9bd
00000060: af7f 023e cba0 803e 40ad 6e3e 1663 493e
00000070: 9e70 5e3e e82a 71bc c639 fa3c 17b5 9ebc
00000080: 3fb6 393e 8caf 0abe a757 e2bd e2f8 60bd
00000090: da7e 243e d3be 513e 3df0 e73d ad3c 83bd
000000a0: d74a 7f3d dabe a43b c30d d9bd 40ec 2c3d
000000b0: 2430 083e c330 a2bd 6b68 87bd 67fd 61bb
000000c0: 95ee 0d3e b630 0c3e e1b5 2a3e 653d 2fbd
000000d0: 9670 d6bc 5327 503d bb98 03be 26ca 863d
000000e0: e99c 4e3e ccee 1bbc 8eec 84bc c0f4 453e
000000f0: 88fa ed3d fde1 c1bd 6f4a 4c3d b8d9 1d3e
00000100: b342 bbbd ad47 f3bd 8de6 d0bd 25c1 9d3d
00000110: cd50 7ebd 10e2 d5bd 4202 183e 2bee 1f3d
00000120: 210d aabd fd50 323e d2a2 c8bd 2457 e1bc
00000130: 7602 a9bd 109f b83c e232 23be 415a 1a3e
00000140: afde fabd 71d6 3b3c c686 1b3d 3d22 223d
00000150: ce07 edbd bee8 c33c 75bc aebc 578b 263e
00000160: cf45 1fbd b5fb a23d 26cf 5dbd f3d9 8c3d
00000170: 1d3a 03bd fac6 86bd a1bf 283e 98a6 6bbd
00000180: dd04 1c3e e8ac 86be ed24 1c3d f837 bebc
00000190: e012 853e 7c76 063d da43 4dbd afd2 013e
000001a0: 91e9 233e a44e 873d f264 cdbb e5ab 78be
000001b0: 05bb 1dbe 302c bebd 0758 203e 4bb4 2bbe
000001c0: b34b 223e 6f5d e5bd f201 0d3e 51f1 94bb
000001d0: 5762 d33d abf9 82bd 6e62 b53d 3ba5 8dbc
000001e0: d600 443e 793f 2e3e 9c20 f83c cb32 7cbd
000001f0: 7f97 d5bd 7e0d 2ebe d4a0 20be b3d9 803d
00000200: 029c bdbc d284 36bd 4b22 04be 1e6e d9bc
00000210: ff3e 1a3e b5c7 103b 8760 013e 3679 143e
00000220: e2b8 033e 24fc 1bbe fc1a 2cbd b244 4bbb
00000230: 33e3 1e3e 7f3e 293e 44e4 06bb 33f3 a43d
00000240: d295 f8bd 627e 22bb 41a2 02be 6eb9 e73d
00000250: 50c2 2ebd e059 26be 2347 733a 8590 1bbc
00000260: 8ce0 17be 795d 2cbd 12d0 383d 7a66 113e
00000270: dc1e 11be 97a9 943d 100f 08bd ee23 39bd
00000280: 250f 77bd 5be2 83bd c11a c3bd 8b9e eb3d
00000290: d4a9 5abb 87ad bebc 16a7 22bd 4639 fa3d
000002a0: 295d c7bd e432 a6bd 8288 c73d f055 50bb
000002b0: 0db1 ab3a d70c bdbd d72f 4abd 0063 eebd
000002c0: f85d b13c 8aa3 073d 9cd1 253e c140 83bd
000002d0: 8630 ecbb f194 11be 7613 4abe db66 b63d
000002e0: 5f22 87bb 6226 dd3c c50a 563e 2688 5e3e
000002f0: 6513 b3bc 8a96 c3bc 4677 8a3d 8c5e 093e
00000300: 0ea3 2bbe 57d2 31be 03a3 e2bd 52a9 613d
00000310: 9043 3bbd 8cd6 10be 220b 36bd 8aa9 a43c
00000320: 4420 81bd bd3d d7bc 59e3 f2bd 643e 30be
00000330: 8644 c8bd f8d4 e4bd 6d3c 04be 7fd1 2e3c
00000340: 820f 8e3d 2762 30bd 7baa 173e 3ed0 203e
00000350: aa41 ebbd fcde fcbd f77e a93d 26f1 1e3e
00000360: 8994 20bd 7e7d dc3c d306 ba3d 4f35 5f3b
00000370: e3db 073d 462d e83c 6f30 923d dccd 423d
00000380: dd43 7e3a fc77 8bbc 3d67 92bd 37d5 553d
00000390: 5931 5c3e af8f 3fbc a17f 57bd 5f79 873d
000003a0: bc95 15be 0b23 c03d 5e60 90b9 6092 6fbd
000003b0: 8314 01ba cd39 4dbd 6c57 f73c a4a9 bf3d
000003c0: 9dc2 473e 43ed 1f3e 423c 503e aa6f af3c
000003d0: b033 e5bd fd2f 75bd a547 2bbd 48f2 c23d
000003e0: 4924 7fbd 63eb 2e3e dd1c 8c3d b8ca 583d
000003f0: e47c aebc 71e6 29be ed4f 0bbe e78e 2c3d
0.13327515 -0.13260093 -0.19958188 0.19238715 0.037458435 0.264581 0.16338415 0.15261154
0.033574697 -0.16614205 0.13459165 -0.2576634 0.11853999 -0.15829675 -0.047866363 -0.019364169
0.026499549 0.19445853 -0.03568502 0.04603755 0.05079772 -0.09631893 0.099450365 -0.12197255
0.1274402 0.25122675 0.23308277 0.19666705 0.21722648 -0.014719702 0.030545127 -0.01937346
0.18135928 -0.13543528 -0.110518746 -0.054924853 0.16064015 0.2048295 0.11325119 -0.06408057
0.062327232 0.005027634 -0.10598328 0.042217493 0.13299614 -0.07919457 -0.06611713 -0.0034483315
0.13860543 0.13690457 0.16670944 -0.04278316 -0.026176732 0.050818752 -0.12851231 0.065815255
0.20177044 -0.009517383 -0.01622608 0.19331646 0.11620051 -0.09466932 0.049875673 0.15415084
-0.09143581 -0.118789054 -0.10200224 0.07702855 -0.062088776 -0.104435086 0.14844611 0.039045494
-0.083032854 0.17413707 -0.097966805 -0.027507372 -0.082524225 0.022536784 -0.15937379 0.15073492
-0.12249505 0.011464701 0.037970327 0.039583433 -0.11573754 0.023914691 -0.021330098 0.16264091
-0.038884934 0.079581656 -0.05415263 0.06877508 -0.032037843 -0.065809205 0.1647935 -0.057531923
0.1523623 -0.26303792 0.038121153 -0.023220047 0.25990963 0.03282784 -0.050113536 0.12678026
0.16007067 0.066067964 -0.006268137 -0.24284323 -0.15403374 -0.09285772 0.1565858 -0.16767995
0.1584919 -0.11199462 0.13770273 -0.0045453687 0.10321491 -0.06395277 0.088566646 -0.017290702
0.19140944 0.170164 0.030288987 -0.061571877 -0.10429286 -0.16997334 -0.15686351 0.06291523
-0.02314568 -0.04456026 -0.12903707 -0.026541766 0.15063094 0.002209169 0.12634479 0.14499363
0.12863496 -0.15232903 -0.04201792 -0.0031016287 0.15516357 0.16527747 -0.0020582834 0.08054199
-0.12137951 -0.0024794568 -0.12757207 0.11314665 -0.04266578 -0.16245222 0.00092803146 -0.009494905
-0.14831752 -0.04208133 0.045120306 0.14199248 -0.14171928 0.07258909 -0.03321749 -0.04520028
-0.060317177 -0.06439658 -0.09526587 0.11504849 -0.0033365386 -0.023276104 -0.039710127 0.12217955
-0.09734566 -0.08115175 0.09742834 -0.0031789504 0.001309903 -0.09230965 -0.04936203 -0.116399765
0.021651253 0.033114947 0.16193241 -0.06408835 -0.007207933 -0.14216973 -0.19733986 0.08906337
-0.0041239704 0.026995841 0.20902546 0.21731624 -0.021859834 -0.023875494 0.06761031 0.13414973
-0.16761419 -0.17365395 -0.11066248 0.055093117 -0.04571873 -0.14144343 -0.04444421 0.020100374
-0.06304982 -0.026274556 -0.118597694 -0.172113 -0.09778695 -0.11173433 -0.12913676 0.010670065
0.06936552 -0.043062355 0.14811127 0.15704438 -0.11487134 -0.123472184 0.0827617 0.15521678
-0.039204154 0.026915308 0.09083333 0.0034058874 0.033168685 0.0283419 0.07138144 0.047559604
0.00096994435 -0.017024986 -0.071485974 0.05220529 0.215032 -0.011691972 -0.05261195 0.066149466
-0.146079 0.09381684 -0.0002753762 -0.058489203 -0.0004924016 -0.05010395 0.030193053 0.09358528
0.19507833 0.15617852 0.20335487 0.02141555 -0.11191499 -0.05986022 -0.041816372 0.09518868
-0.062290464 0.1708198 0.06841443 0.052927703 -0.021299787 -0.16591813 -0.13604708 0.04212847

ValueModule.fc_layer3.bias f4 [32]
00000000: d83e 50bc cab0 8a3c 555d 9d3c 917b ef3d
00000010: 753a e3bd a1e7 ff3a fb65 a93c dd44 6ebd
00000020: 2262 d8bd bd2c b43d b3b0 40be 59a6 cc3d
00000030: a90b db3b 1eec 363e 5613 9ebd d354 353e
00000040: 11e6 e5bd 62e6 26bd 48bc 233e 000e fc3c
00000050: d7f4 9b3b b11e 15be ca06 f73d 6c53 a1bd
00000060: 5ddd 223e 49b4 40be 8d90 493c 4057 0abd
00000070: 0233 7abd 59bd a23d 59c1 563d 2457 a53d
-0.012710296 0.016930003 0.019209543 0.1169349 -0.11095134 0.0019523987 0.02067851 -0.058171142
-0.10565592 0.08797596 -0.18817405 0.09992666 0.0066847396 0.17863509 -0.07718532 0.17708139
-0.11225522 -0.040747054 0.15989792 0.030768394 0.004759412 -0.14562489 0.12061842 -0.078772396
0.15904756 -0.18818773 0.01230253 -0.033774614 -0.0610838 0.079462714 0.052430484 0.080732614

ValueModule.value.weight f4 [1, 32]
00000000: 7104 d2bd 1ddb c7bd eaf2 853c beed 86bb
00000010: 9d99 8bbb 991d 75bd 1196 b23c 9ee9 cabd
00000020: 27bc fc3b ce5d c3bd 7ad2 abbd 3272 3dbd
00000030: bcc2 9abd 83c5 883e d384 c3bd cb51 903e
00000040: 42e2 dbbc 5248 babd 7956 b2bd 68e5 a2bd
00000050: 6799 d33c a238 cfbd ef5f c4bd 27f0 513c
00000060: fe92 95bd 0053 9e3b d9b5 f3bd 6a8e 033c
00000070: 1d1b c4bd 10e7 a5bd 2572 bfbd 148f adbd
-0.102547534 -0.097585894 0.016351182 -0.0041176965 -0.0042602555 -0.05984268 0.021800073 -0.0990784
0.007712859 -0.09539376 -0.083897546 -0.046251483 -0.07556674 0.2671319 -0.095468186 0.28187403
-0.026841287 -0.09095825 -0.087078996 -0.07953912 0.025829984 -0.10118224 -0.095886104 0.012813604
-0.07303427 0.0048316717 -0.11899919 0.00802956 -0.09575484 -0.08100712 -0.09347943 -0.084745556
