models/patient28/ppo_model_for_patient_28_Critic.pth (torch, 22738 bytes, 11 tensors)

weight_ih_l0 f4 [64, 2]
-0.060199875 0.06424849 -0.06499614 -0.058070417 -0.011386908 -0.16138922 -0.16155577 0.026810514
-0.08598764 -0.07053939 -0.14623255 -0.15699123 -0.1794248 -0.11086838 0.015518083 0.124971814
-0.03798551 -0.29518944 -0.09016475 0.13588673 -0.3025359 -0.050944123 0.093510166 0.12454436
-0.25125587 -0.18179293 0.03746573 0.10658986 0.10801368 0.16441259 -0.06631844 0.103267044
-0.14330241 -0.19099444 -0.105998516 -0.03347554 -0.14361538 0.057416975 -0.17959915 0.16038749
0.13673145 -0.015472866 0.12595639 0.05232748 -0.0062978826 -0.017081622 -0.23289871 -0.23830321
-0.083292715 0.15972485 -0.26469713 -0.08400192 -0.025983285 -0.09835273 -0.1553674 -0.065528765
0.11003999 0.008100346 -0.25722218 0.19984253 -0.29077423 0.09784092 0.16509683 0.1292927
-0.15111125 -0.1133269 -0.29289487 -0.07452561 -0.14582618 0.05695349 -0.00011815265 0.22901738
0.024745895 -0.2787102 0.14121456 -0.17446378 -0.33496678 -0.026585236 0.15144426 0.04784935
0.05039205 0.27729642 -0.25656068 0.22548257 -0.15950198 0.004549572 -0.22510733 0.07511023
-0.07250327 -0.114929296 0.27533835 -0.18731295 -0.17844762 0.2583507 -0.022628684 0.061969183
-0.2185821 0.09472087 -0.16024885 -0.23542061 -0.29320285 -0.13012391 -0.12848493 -0.12900697
-0.06317105 -0.11227535 -0.007817013 -0.29694578 -0.22133891 -0.24207646 -0.2378651 -0.19177406
-0.08596488 -0.07000234 0.13595492 -0.11723266 -0.26019815 -0.12997827 -0.2817059 -0.08188027
-0.20883162 -0.2602238 -0.2788618 -0.14197655 0.033228625 0.097236745 -0.18640795 -0.11608791
00000000: 2594 76bd b694 833d b21c 85bd 3fdb 6dbd
00000010: 2790 3abc 3743 25be e06e 25be b9a1 db3c
00000020: 4a1a b0bd f576 90bd fcbd 15be 4fc2 20be
00000030: 23bb 37be f60e e3bd 8f3f 7e3c 39f1 ff3d
00000040: b296 1bbd 1223 97be 4ca8 b8bd e425 0b3e
00000050: fce5 9abe c9aa 50bd 4282 bf3d 1d11 ff3d
00000060: 9ca4 80be ed27 3abe aa75 193d c94b da3d
00000070: 4736 dd3d c65b 283e f6d1 87bd ac7d d33d
00000080: debd 12be 0c94 43be c015 d9bd a61d 09bd
00000090: e90f 13be 102e 6b3d d7e8 37be 9e3c 243e
000000a0: 5403 0c3e e781 7dbc b6fa 003e 5755 563d
000000b0: 785e cebb c2ee 8bbc 007d 6ebe c205 74be
000000c0: 5f95 aabd e98e 233e 6286 87be 3309 acbd
000000d0: e6da d4bc 286d c9bd a218 1fbe f233 86bd
000000e0: a55c e13d 50b7 043c a0b2 83be 85a3 4c3e
000000f0: 5ce0 94be d260 c83d 250f 293e 4e65 043e
00000100: e8bc 1abe ef17 e8bd 51f6 95be e2a0 98bd
00000110: 7553 15be 1048 693d b9c8 f7b8 8883 6a3e
00000120: e7b7 ca3c 1ab3 8ebe 8d9a 103e a2a6 32be
00000130: c480 abbe 48c9 d9bc 3414 1b3e aefd 433d
00000140: e567 4e3d ccf9 8d3e ec5b 83be e7e4 663e
00000150: 7d54 23be 9314 953b 8982 66be 64d3 993d
00000160: 987c 94bd 0d60 ebbd 26f9 8c3e f7ce 3fbe
00000170: f9ba 36be 8b46 843e ca5f b9bc 66d3 7d3d
00000180: fcd3 5fbe 04fd c13d 4618 24be 1a12 71be
00000190: af1e 96be 343f 05be 8e91 03be 671a 04be
000001a0: d35f 81bd 9ef0 e5bd ee12 00bc 4709 98be
000001b0: aba6 62be e4e2 77be e992 73be 6b60 44be
000001c0: 5b0e b0bd 635d 8fbd c437 0b3e ad17 f0bd
000001d0: b138 85be 0619 05be c13b 90be d8b0 a7bd
000001e0: f5d7 55be 0e3c 85be f9c6 8ebe 4d62 11be
000001f0: bd1a 083d 0f24 c73d bae1 3ebe 80bf edbd

weight_hh_l0 f4 [64, 16]
-0.0036003983 0.33634388 0.2750228 -0.30067575 0.09702875 -0.11078322 -0.10892078 -0.013065949
-0.14501928 -0.11239434 0.08645629 0.15057544 -0.124783225 0.029295249 0.058226403 0.12481111
-0.15657225 0.061648965 -0.065543376 -0.29101175 -0.010044904 0.013334991 0.34271294 0.1330721
-0.101878926 0.09704378 0.0013369054 -0.053932667 -0.14944495 -0.23945525 -0.026193893 -0.037530392
-0.19454345 0.2532419 0.18412665 0.13883594 -0.026172344 -0.02881435 -0.09198378 -0.15920275
-0.11779254 0.08763658 0.27788773 0.086738706 0.09304217 -0.15158795 -0.098425485 0.10251718
-0.08099046 -0.11056272 0.30548733 -0.3247207 0.23563904 -0.18043266 0.3339585 -0.031194698
0.09698107 -0.06503317 0.016837472 0.1685223 0.100503616 -0.24158564 -0.15834998 0.013217826
0.063458 0.3124174 -0.13163641 0.026219448 0.32962358 0.17897825 -0.013144813 -0.2680488
0.109022565 0.086302295 -0.098377794 0.11318094 -0.27839234 -0.08700187 -0.3283782 -0.07647668
-0.12465114 0.084890544 -0.016044999 0.083727196 -0.14249891 0.061239135 -0.08272144 -0.16280617
-0.32273123 0.04919301 0.080363564 0.18604353 -0.29636002 -0.20310819 0.09247232 -0.20110022
-0.031627014 -0.051867876 0.15889704 -0.15106988 0.1622021 -0.18067953 0.17082122 -0.032085806
0.07071183 0.30043128 0.32013822 0.0460673 -0.16468507 -0.1399931 0.03346486 -0.090381846
-0.016632061 0.18944286 -0.16803104 -0.09046389 0.222788 -0.13954148 0.13684504 -0.24073732
-0.27604082 0.18615721 0.12305041 0.040037714 0.13649184 0.13255379 -0.16625866 -0.035231665
-0.28960747 0.26933974 0.15557773 -0.21365975 0.22312865 -0.18230784 0.16594249 -0.25971287
0.13266581 -0.07727653 0.27960894 -0.11493067 -0.01828197 0.034080777 0.17025894 -0.11951248
-0.1480726 0.30723763 0.11751768 -0.047576316 -0.14003591 0.05025104 -0.13290079 0.019823318
-0.22943424 0.21117505 0.27842775 0.15306096 -0.085892655 0.1852704 -0.12523213 -0.1269938
-0.2812051 0.06808154 0.0017163843 -0.31119367 -0.038406722 -0.11355411 0.08981552 -0.04776275
0.025890563 -0.16498312 -0.062305745 -0.013977644 -0.26024008 0.07003793 -0.09085137 -0.06281923
0.1462284 0.030694 0.22886264 -0.2011893 0.16354005 -0.21335958 0.15042384 -0.02709851
-0.2823922 -0.12929411 0.27803895 -0.12966284 0.12289595 -0.20043752 -0.15225485 -0.19166285
-0.15536527 -0.09690092 -0.17923383 -0.23454516 -0.0635512 -0.07720329 -0.11999498 -0.1351589
0.19111186 0.22390081 0.23469837 -0.15519796 0.1532322 -0.20143548 -0.042779814 0.26840153
-0.059992936 -0.0026627332 0.14514865 -0.18045238 0.008705458 -0.15240115 -0.10612986 -0.056288056
-0.0040578307 -0.07965779 0.21153685 0.10948847 -0.035076044 -0.053003106 -0.16929127 0.23672472
-0.081256494 0.10743469 0.08338738 -0.08027264 -0.13723949 -0.16613622 0.08990885 -0.2291521
0.005294456 0.28017685 -0.09195619 -0.0336811 0.16804558 0.1893521 -0.3248159 -0.068777524
-0.057735994 0.08895564 0.27160197 -0.12547506 0.18208493 0.013043805 0.065442696 -0.17254885
-0.014383546 0.15739691 0.25632814 0.19902915 0.20730133 0.22489022 0.17481257 0.079659015
00000000: a9f4 6bbb 4435 ac3e cacf 8c3e 2cf2 99be
00000010: 02b7 c63d 50e2 e2bd dc11 dfbd 9012 56bc
00000020: ef7f 14be 012f e6bd ff0f b13d 7330 1a3e
00000030: 598e ffbd 97fc ef3c cf7e 6e3d f89c ff3d
00000040: 7a54 20be a083 7c3d 9b3b 86bd 7eff 94be
00000050: 6293 24bc 027b 5a3c 1278 af3e 0d44 083e
00000060: e6a5 d0bd e4be c63d 1a3b af3a 80e8 5cbd
00000070: 1908 19be c233 75be 9394 d6bc 78b9 19bd
00000080: 6636 47be eca8 813e b28b 3c3e 022b 0e3e
00000090: 6267 d6bc 120c ecbc fe61 bcbd 0c06 23be
000000a0: 373d f1bd cf7a b33d 4d47 8e3e 10a4 b13d
000000b0: e58c be3d df39 1bbe 4d93 c9bd 87f4 d13d
000000c0: 54de a5bd b56e e2bd d668 9c3e cb41 a6be
000000d0: 5c4b 713e 57c3 38be 9cfc aa3e 068c ffbc
000000e0: 039e c63d 1c30 85bd bdee 893c 1c91 2c3e
000000f0: d7d4 cd3d 3a62 77be 7f26 22be 958f 583c
00000100: 45f6 813d 2cf5 9f3e b2cb 06be 2bca d63c
00000110: 6cc4 a83e 1346 373e 575d 57bc b13d 89be
00000120: 3947 df3d 42bf b03d 4c7a c9bd 69cb e73d
00000130: 7189 8ebe 092e b2bd 3021 a8be ce9f 9cbd
00000140: 1949 ffbd 18db ad3d cd70 83bc 2a79 ab3d
00000150: 3ceb 11be e3d5 7a3d dc69 a9bd a9b6 26be
00000160: 073d a5be 9c7e 493d a795 a43d 3282 3e3e
00000170: 80bc 97be 98fb 4fbe 2162 bd3d 37ed 4dbe
00000180: 548b 01bd 6973 54bd e8b5 223e 10b2 1abe
00000190: 4f18 263e 0e04 39be c2eb 2e3e 686c 03bd
000001a0: 5dd1 903d 21d2 993e 28e9 a33e 11b1 3c3d
000001b0: 34a3 28be 5a5a 0fbe 7312 093d 1e1a b9bd
000001c0: f63f 88bc 4ffd 413e 5410 2cbe 2245 b9bd
000001d0: 8a22 643e f6e3 0ebe 1b21 0c3e d883 76be
000001e0: 3955 8dbe ff9f 3e3e da01 fc3d 96fe 233d
000001f0: 84c4 0b3e 2ebc 073e b63f 2abe 144f 10bd
00000200: 6e47 94be e6e6 893e c54f 1f3e 9fc9 5abe
00000210: d67b 643e e8ae 3abe d4ec 293e 16f9 84be
00000220: 8cd9 073e 2843 9ebd e728 8f3e c560 ebbd
00000230: 12c4 95bc 4998 0b3d 5c58 2e3e f6c2 f4bd
00000240: 58a0 17be 404e 9d3e 1cad f03d 62df 42bd
00000250: 9365 0fbe 09d4 4d3d 2517 08be 8364 a23c
00000260: cff0 6abe 463e 583e 158e 8e3e 03bc 1c3e
00000270: 7de8 afbd 86b7 3d3e da3c 00be aa0a 02be
00000280: 1dfa 8fbe 566e 8b3d 4df8 e03a c754 9fbe
00000290: 5e50 1dbd 0f8f e8bd 33f1 b73d e0a2 43bd
000002a0: 7218 d43c 56f1 28be 4f34 7fbd 7d02 65bc
000002b0: 303e 85be 0c70 8f3d 4810 babd 5ea7 80bd
000002c0: e6bc 153e fc71 fb3c f85a 6a3e 9104 4ebe
000002d0: 0b77 273e ef7a 5abe b508 1a3e b2fd ddbc
000002e0: b695 90be ad65 04be 1f5b 8e3e 56c6 04be
000002f0: dfb0 fb3d 7e3f 4dbe b2e8 1bbe 4443 44be
00000300: 1318 1fbe fd73 c6bd 1389 37be 9b2c 70be
00000310: 2227 82bd c21c 9ebd eebf f5bd 1867 0abe
00000320: d4b2 433e 4146 653e c554 703e 37ec 1ebe
00000330: e7e8 1c3e 1a45 4ebe e339 2fbd ed6b 893e
00000340: 27bb 75bd 4081 2ebb d9a1 143e 82c8 38be
00000350: 56a1 0e3c 0c0f 1cbe 9d5a d9bd 4e8e 66bd
00000360: 8df7 84bb a023 a3bd 1e9d 583e 7e3b e03d
00000370: e6ab 0fbd c919 59bd b15a 2dbe f767 723e
00000380: ce69 a6bd b806 dc3d 01c7 aa3d fb65 a4bd
00000390: 8288 0cbe 9d1f 2abe 2222 b83d d9a6 6abe
000003a0: 1e7d ad3b 5773 8f3e 8753 bcbd 31f5 09bd
000003b0: 2414 2c3e 84e5 413e 454e a6be 3bdb 8cbd
000003c0: 947c 6cbd 602e b63d 6a0f 8b3e 897c 00be
000003d0: 7974 3a3e afb5 553c d206 863d a5b0 30be
000003e0: f7a8 6bbc a82c 213e 713d 833e 4cce 4b3e
000003f0: cd46 543e 9f49 663e 1102 333e 4424 a33d

bias_ih_l0 f4 [64]
-0.02846971 0.31194896 -0.13379653 0.05217788 0.115735464 -0.06842668 -0.07748885 -0.015963374
-0.09749079 0.072724655 0.3343405 -0.19685185 -0.17284918 0.07675602 -0.16391861 -0.10433828
0.2705152 -0.12577052 0.0538214 0.022795903 0.06694802 -0.017717415 0.12899622 -0.013963561
-0.09404963 0.09390098 0.16660222 0.0019763869 -0.19099496 -0.09773128 0.013542399 0.10680974
-0.23898521 0.27812046 0.045837168 -0.10625367 0.032237943 -0.1147849 0.031001896 0.00028090793
-0.15045784 0.1741781 0.1454388 0.14050373 -0.08760043 -0.14824702 -0.12586623 -0.26067606
0.06553523 0.16340339 0.014592257 0.26472166 0.28639948 0.28066218 0.079497494 0.113594465
0.26957366 0.0841393 0.29323176 0.29146135 -0.12214786 -0.04679455 0.062808275 -0.0076476894
00000000: 4f39 e9bc c6b7 9f3e f501 09be 79b8 553d
00000010: b706 ed3d 4a23 8cbd 79b2 9ebd 9fc5 82bc
00000020: 40a9 c7bd aaf0 943d ae2e ab3e 8893 49be
00000030: 60ff 30be 4332 9d3d 48da 27be 4faf d5bd
00000040: f880 8a3e fdc9 00be d473 5c3d 79be ba3c
00000050: 0b1c 893d 1d24 91bc 9617 043e 6bc7 64bc
00000060: 189d c0bd 284f c03d c699 2a3e 4586 013b
00000070: 2f94 43be 5627 c8bd f0e0 5d3c 11bf da3d
00000080: 8ab8 74be ce65 8e3e c1bf 3b3d 869b d9bd
00000090: ef0b 043d 5814 ebbd b0f7 fd3c d346 9339
000000a0: 9f11 1abe be5b 323e e9ed 143e 36e0 0f3e
000000b0: db67 b3bd 11ce 17be 14e3 00be 5577 85be
000000c0: 5637 863d 3853 273e 5d14 6f3c 9989 873e
000000d0: f4a2 923e f4b2 8f3e 95cf a23d 37a4 e83d
000000e0: 8f05 8a3e 3a51 ac3d 7922 963e 6c3a 953e
000000f0: a828 fabd a4ab 3fbd a0a1 803d 7899 fabb

bias_hh_l0 f4 [64]
0.20614399 0.05342859 0.25172645 0.043281894 0.25391585 0.20211507 0.0015581102 0.16277823
0.097479485 -0.022385513 0.30304962 -0.09773644 -0.1787774 0.25384974 -0.11898601 0.0058695404
0.042744257 0.011323615 0.17259891 0.023926863 0.14838812 0.33764073 0.32371685 0.082550265
0.22110336 -0.040018726 0.034527797 -0.11389976 -0.038695868 0.15133438 0.19495134 0.14780168
-0.27102214 0.12655383 0.26841003 0.10877384 0.3072286 0.17808412 0.23225012 -0.24038236
-0.2805628 0.052431826 -0.059319347 0.13470331 -0.1217516 -0.2568503 -0.004922543 -0.12676111
-0.07965106 0.20756991 -0.14646548 0.083109766 0.23511165 0.020467013 0.23956873 0.19556582
0.3024747 0.14727367 0.10117742 0.060688544 -0.006842531 -0.13431467 0.06787262 0.036209818
00000000: 6917 533e f0d7 5a3d 4ae2 803e 5b48 313d
00000010: 4201 823e 41f7 4e3e 8139 cc3a 56af 263e
00000020: 53a3 c73d d361 b7bc 5229 9b3e 0b2a c8bd
00000030: 6c11 37be 98f8 813e f0ae f3bd 4655 c03b
00000040: 9a14 2f3d af86 393c c5bd 303e 4502 c43c
00000050: 0ef3 173e 3fdf ac3e 37be a53e 1d10 a93d
00000060: eb68 623e adea 23bd 056d 0d3d 4744 e9bd
00000070: 8f7f 1ebd 66f7 1a3e 53a1 473e 5359 173e
00000080: 6ac3 8abe 5497 013e 0a6d 893e d2c4 de3d
00000090: 114d 9d3e af5b 363e fad2 6d3e cb26 76be
000000a0: eda5 8fbe c1c2 563d d8f8 72bd aaef 093e
000000b0: e758 f9bd e281 83be 494d a1bb aacd 01be
000000c0: 1820 a3bd 358d 543e 0cfb 15be 7435 aa3d
000000d0: 1cc1 703e 70aa a73c 8151 753e 6842 483e
000000e0: f7dd 9a3e e9ce 163e 1b36 cf3d 8d94 783d
000000f0: 4f37 e0bb c989 09be cd00 8b3d bf50 143d

weight f4 [32, 16]
0.13506386 0.20543246 0.34228784 -0.2218225 -0.045288287 0.010862059 0.26874462 -0.3343364
0.10377243 0.12321846 0.17442647 -0.16398358 -0.11455831 -0.09605891 -0.12044896 0.025475588
0.22994196 0.040274948 0.07288113 -0.044321984 0.027185857 -0.22215289 0.1353009 -0.10021919
0.24017891 -0.21954891 0.17529765 -0.2340472 0.23291755 -0.06446841 -0.08837581 -0.07644287
-0.083505765 0.17054869 0.10183226 -0.22904088 0.33737233 0.44433907 0.028290134 -0.031534858
-0.3468644 0.15476121 0.041104544 0.1571132 0.082431175 0.064322494 -0.08225875 -0.2552857
-0.07226897 0.28047886 0.1327808 0.03249634 0.1263071 -0.067013726 0.10918758 -0.22831099
-0.2167776 0.13739486 0.1766495 0.272846 0.15619342 0.2174255 -0.14006118 -0.074810885
-0.11622087 -0.18130371 0.2740864 -0.25322023 0.102319226 -0.22236204 0.09457359 0.15699017
-0.06340393 0.27691883 -0.087997355 0.2736 0.03374367 -0.2262778 -0.18463911 0.027456228
-0.24788108 -0.08124326 -0.09746101 -0.122699425 0.18651488 0.13668714 -0.057292994 -0.07069938
-0.05815183 0.21910785 0.087004825 0.18754254 -0.0014605107 -0.08300286 -0.17422524 -0.18018408
-0.23673081 0.017625341 0.29298383 -0.20750415 -0.11701066 -0.08561519 0.2881532 0.12629193
-0.0467948 0.24406226 0.2538843 0.117600344 0.105480745 -0.2246694 -0.2673281 -0.01985015
-0.28980246 0.06388528 0.037103683 -0.2798252 0.02428809 0.27155757 0.2991434 0.0948152
-0.32029477 0.17392264 0.2551059 -0.08458773 0.20947886 0.090484835 0.077829845 0.12524022
0.18648876 0.078654364 0.10687076 -0.16705884 -0.01948765 -0.215072 -0.14188275 -0.13890328
-0.21809644 0.03359061 -0.15003468 -0.23724535 -0.09522303 -0.18925275 -0.06539952 -0.12666859
-0.33938333 0.13034707 0.28691074 -0.12670796 0.20818035 -0.14561184 0.30270183 -0.22109681
0.11959769 -0.089850925 0.2661355 0.20150535 0.021997923 0.13364603 -0.25520402 0.1008633
0.23106882 -0.1703868 -0.13186629 -0.16576919 0.21856982 -0.05341088 -0.15794656 0.19355519
0.11434759 -0.09701455 0.048425287 0.10434908 -0.21004198 0.00083453424 -0.17244227 0.20586063
-0.32194906 -0.089782 -0.023359813 0.03493798 0.30145937 0.019907532 0.30630553 -0.07576332
-0.10935229 0.27252856 0.26872087 -0.0137176 -0.16862397 -0.067521915 -0.3176425 -0.13142318
0.21716315 -0.23885006 -0.023275971 -0.15576062 -0.16984293 0.000108361244 0.23940173 0.13805583
-0.038445413 -0.06738976 -0.03990671 -0.06148231 0.18876514 0.16989768 0.14280552 0.049385995
-0.27665517 0.25636044 -0.024983501 0.07041341 0.010221181 0.20465785 0.37483656 0.04568261
-0.19744216 0.099346794 0.40415403 0.0787916 -0.139178 -0.078689486 0.023367297 -0.22887386
0.09436068 -0.18778387 0.20497489 0.23335242 -0.06347492 -0.13933823 -0.22126094 0.033590972
-0.04091558 0.007825822 0.07782313 0.004840225 -0.04216668 -0.10013938 0.026637673 0.14144456
0.15139776 0.014208525 0.18686646 0.051659852 0.0042413473 0.20580557 -0.08316001 0.14662781
0.01562637 0.12807032 -0.17291176 0.24468368 0.12285474 -0.065300345 -0.02773574 0.19837612
00000000: 2e4e 0a3e e35c 523e 5a40 af3e 7025 63be
00000010: 3680 39bd c7f6 313c e598 893e 242e abbe
00000020: a486 d43d f659 fc3d da9c 323e 50eb 27be
00000030: 8c9d eabd 89ba c4bd f2ad f6bd 2eb2 d03c
00000040: e875 6b3e 58f7 243d b442 953d f88a 35bd
00000050: e0b4 de3c 0c7c 63be 528c 0a3e b83f cdbd
00000060: 76f1 753e 6ed1 60be 3a81 333e 12aa 6fbe
00000070: f081 6e3e 0408 84bd 60fe b4bd 148e 9cbd
00000080: 1205 abbd 51a4 2e3e 6f8d d03d b189 6abe
00000090: 11bc ac3e 6980 e33e b6c0 e73c b22a 01bd
000000a0: 3698 b1be b979 1e3e 3d5d 283d 48e2 203e
000000b0: add1 a83d 83bb 833d 4777 a8bd cfb4 82be
000000c0: c101 94bd ed9a 8f3e b1f7 073e e21a 053d
000000d0: a656 013e 7e3e 89bd bd9d df3d 5bca 69be
000000e0: f2fa 5dbe 3db1 0c3e 9be3 343e 79b2 8b3e
000000f0: 2bf1 1f3e caa4 5e3e 336c 0fbe 7336 99bd
00000100: 3505 eebd aea7 39be 0d55 8c3e 15a6 81be
00000110: be8c d13d e0b2 63be ccaf c13d 08c2 203e
00000120: ebd9 81bd 4ec8 8d3e f537 b4bd 4d15 8c3e
00000130: cd36 0a3d 5eb5 67be 0912 3dbe e2eb e03c
00000140: 8ad4 7dbe de62 a6bd a399 c7bd d649 fbbd
00000150: c2fd 3e3e b7f7 0b3e 0fac 6abd d6ca 90bd
00000160: 9d30 6ebd cf5d 603e 962f b23d 270b 403e
00000170: 9b6e bfba 67fd a9bd 1a68 32be 2d82 38be
00000180: 9069 72be 0563 903c fa01 963e f87b 54be
00000190: 49a3 efbd 0457 afbd d188 933e ac52 013e
000001a0: e7ab 3fbd 75eb 793e 1ffd 813e 73d8 f03d
000001b0: 4a06 d83d bc0f 66be 3bdf 88be c89c a2bc
000001c0: fd60 94be 49d6 823d 08fa 173d 4045 8fbe
000001d0: d1f7 c63c 9809 8b3e 5329 993e 792e c23d
000001e0: adfd a3be c718 323e 3e9d 823e 553c adbd
000001f0: a081 563e 1d50 b93d 4165 9f3d f93e 003e
00000200: e9f6 3e3e 8a15 a13d 0fdf da3d 7911 2bbe
00000210: 90a4 9fbc d63b 5cbe b649 11be a93c 0ebe
00000220: ac54 5fbe 4f96 093d b1a2 19be 72f0 72be
00000230: 4b04 c3bd 79cb 41be 2ff0 85bd 69b5 01be
00000240: a7c3 adbe b479 053e f7e5 923e bbbf 01be
00000250: 3b2d 553e 451b 15be bcfb 9a3e 3467 62be
00000260: a2ef f43d c303 b8bd ea42 883e 6b57 4e3e
00000270: fd34 b43c 81da 083e 1aaa 82be 6b91 ce3d
00000280: 4e9d 6c3e e179 2ebe f507 07be 66bf 29be
00000290: c4d0 5f3e 5ec5 5abd bebc 21be 5533 463e
000002a0: 122f ea3d 90af c6bd 9859 463d f8b4 d53d
000002b0: 3f15 57be a5c4 5a3a b594 30be 21cd 523e
000002c0: 82d6 a4be a0df b7bd 145d bfbc 211b 0f3d
000002d0: e258 9a3e 1f15 a33c 14d4 9c3e cd29 9bbd
000002e0: 18f4 dfbd dd88 8b3e c895 893e c9bf 60bc
000002f0: c3ab 2cbe ee48 8abd 0aa2 a2be cc93 06be
00000300: 0460 5e3e 1c95 74be 40ad bebc b67f 1fbe
00000310: 4eeb 2dbe 0040 e338 ba25 753e 825e 0d3e
00000320: f078 1dbd a403 8abd 3875 23bd e0d4 7bbd
00000330: a64b 413e a8f9 2d3e 9c3b 123e f848 4a3d
00000340: bfa5 8dbe ad41 833e 33aa ccbc e834 903d
00000350: be76 273c d491 513e 94ea bf3e b01d 3b3d
00000360: 472e 4abe 5576 cb3d 47ed ce3e 7e5d a13d
00000370: ad84 0ebe f427 a1bd c66c bf3c e95d 6abe
00000380: 2c40 c13d 6a4a 40be f0e4 513e f0f3 6e3e
00000390: 24ff 81bd aeae 0ebe 3a92 62be b096 093d
000003a0: 1897 27bd e037 003c bc61 9f3d c09a 9e3b
000003b0: f8b6 2cbd e015 cdbd 4037 da3c d8d6 103e
000003c0: 0408 1b3e e0ca 683c ec59 3f3e 4899 533d
000003d0: 00fb 8a3b b2be 523e cc4f aabd 9a25 163e
000003e0: e002 803c de24 033e c80f 31be 5c8e 7a3e
000003f0: 449b fb3d 30bc 85bd 1036 e3bc 1c23 4b3e

bias f4 [32]
0.28216654 -0.15590948 0.1970479 0.17604616 0.09707123 0.15071748 0.24601252 -0.064911805
-0.20061055 0.23710887 -0.034065336 0.069974214 -0.05337423 0.32061705 -0.15413839 -0.2017385
0.3081653 0.21278903 -0.06743303 -0.11410821 0.18453972 -0.10802269 0.26802093 0.120980486
0.27840602 0.019500833 0.293362 -0.14072427 -0.05197925 0.3317961 0.19116557 -0.15545852
00000000: 2278 903e bca6 1fbe edc6 493e 7245 343e
00000010: 48cd c63d af55 1a3e b5ea 7b3e 7bf0 84bd
00000020: da6c 4dbe abcc 723e 1888 0bbd a44e 8f3d
00000030: f09e 5abd eb27 a43e 74d6 1dbe 8a94 4ebe
00000040: d8c7 9d3e 5ee5 593e 541a 8abd 91b1 e9bd
00000050: fbf7 3c3e 003b ddbd 0a3a 893e 9ec4 f73d
00000060: 3c8b 8e3e 36c0 9f3c 8b33 963e 061a 10be
00000070: 32e8 54bd 2ee1 a93e e8c0 433e 8530 1fbe

weight f4 [32, 32]
-0.12712055 -0.051586036 0.01731532 0.18044668 -0.01142759 0.1448623 0.08790429 0.042939417
0.06626159 0.16183154 -0.008141346 -0.10320596 -0.15117043 -0.032508504 -0.06925237 0.023985898
-0.09575876 0.09670101 -0.15228578 0.13982008 0.18474777 -0.06252078 0.10094514 0.07665471
-0.19994004 0.07843179 -0.19165808 -0.06828858 0.21542245 -0.1511551 -0.2214424 -0.13095467
-0.008204236 0.1499526 0.24968979 -0.008746658 0.02569904 0.21610035 0.029579153 0.039513297
-0.118900746 0.27613905 0.15670203 0.08762785 -0.07125814 0.2750328 -0.12998292 -0.16469666
0.13102292 -0.020382607 -0.073569834 -0.022192854 0.017389165 0.08250705 0.16895364 0.032141205
0.2330817 0.29591036 0.3225787 0.13136154 0.24212092 0.224319 0.1587085 0.1379987
0.14172016 -0.048603702 -0.13970394 0.13334194 0.11378446 -0.09474036 0.033532444 0.13681376
0.042076144 -0.05877057 0.16760448 0.09330334 -0.0055957106 -0.05649237 0.16766503 0.16767171
-0.077546515 -0.0834446 -0.08264864 0.13066426 -0.0057491087 0.15933928 0.02525553 -0.067362756
-0.012875529 -0.018493718 -0.18507214 0.10016476 -0.021588925 -0.07110878 -0.11178077 0.12712991
0.18069668 -0.1208052 0.0040450855 -0.0101402225 0.059246797 0.2082887 0.14870663 0.23219933
0.0862681 0.1500182 -0.09586035 0.16258588 0.02403601 0.013607359 0.07690257 -0.09243402
0.006053773 -0.030788098 0.07716546 -0.058988217 0.024553733 -0.17466274 0.10799811 0.10661776
-0.09413826 -0.005895454 -0.042431016 0.066284455 0.23402435 0.20900851 -0.062046047 0.19450796
0.08391051 0.09803311 0.08808854 -0.047131762 0.16575973 0.074370354 0.15618436 0.16952169
0.12864043 0.15916692 -0.069501705 -0.021476602 0.07334603 0.013856125 -0.14318886 -0.12506217
-0.092345566 0.1606167 0.015399637 0.10665153 -0.09229081 0.12685294 0.20654267 -0.08854057
-0.15049067 -0.039187204 -0.013911301 0.0446989 0.21935904 0.06576653 -0.0629352 0.13993813
0.17211196 0.023375379 0.034382116 0.033907983 0.16386968 0.10357271 0.09944051 0.1351292
-0.007840116 0.04702735 0.011068622 0.1487588 0.029550694 0.07782699 -0.16933498 -0.07558809
-0.12204891 0.045390416 0.06897508 0.1797083 0.16942103 -0.17130502 -0.068875074 0.01847486
-0.11505133 0.15380658 -0.1523384 -0.053322148 -0.10277309 -0.13210614 -0.22917698 0.062465698
0.07148823 -0.095491245 -0.22490202 -0.13560545 0.17875244 0.15374511 0.058338437 0.18366067
-0.12527333 0.09893486 -0.071422815 0.1142839 -0.09850389 -0.1172823 0.08028593 0.08604195
-0.094801664 -0.12758192 0.06722138 0.03090038 0.078508414 0.013543026 -0.12551849 -0.043253392
-0.24771321 0.062180307 -0.109417 0.060240153 0.017465506 -0.011272581 0.087316476 -0.11778348
0.084617004 0.16709906 -0.17085612 0.16141024 -0.15574361 -0.034504067 -0.0712697 0.10303575
-0.009812903 0.039676685 -0.04320412 0.12410859 0.14284034 0.061430145 -0.15998892 0.003376342
-0.030699264 -0.08458431 -0.11716225 -0.015147936 -0.10799892 0.0011059123 -0.113731846 -0.059224177
-0.1635302 0.056503862 0.118254706 -0.00283937 0.089129 0.06854788 -0.15306947 -0.025911948
00000000: e42b 02be e14b 53bd dcd8 8d3c 04c7 383e
00000010: c93a 3bbc c856 143e 2a07 b43d 3ee1 2f3d
00000020: 28b4 873d 2bb7 253e 4863 05bc a55d d3bd
00000030: 6ccc 1abe a327 05bd 30d4 8dbd 137e c43c
00000040: 2b1d c4bd 2e0b c63d cef0 1bbe ff2c 0f3e
00000050: 852e 3d3e e50a 80bd 53bc ce3d 25fd 9c3d
00000060: 15bd 4cbe d9a0 a03d 0442 44be e2da 8bbd
00000070: b497 5c3e 67c8 1abe ccc1 62be fb18 06be
00000080: 0f6b 06bc 2d8d 193e aeae 7f3e 254e 0fbc
00000090: cb86 d23c 6949 5d3e fb4f f23c b2d8 213d
000000a0: 3c82 f3bd 1962 8d3e 7f76 203e 3b76 b33d
000000b0: caef 91bd 19d1 8c3e 3e1a 05be 3ea6 28be
000000c0: df2a 063e 6df9 a6bc c8ab 96bd cacd b5bc
000000d0: b973 8e3c 75f9 a83d 2f02 2d3e 7fa6 033d
000000e0: f8ac 6e3e 9081 973e 0929 a53e a483 063e
000000f0: 8cee 773e e1b3 653e 7b84 223e 884f 0d3e
00000100: 171f 113e ad14 47bd 8d0e 0fbe ca8a 083e
00000110: d407 e93d 3c07 c2bd 5159 093d e818 0c3e
00000120: 0958 2c3d 69b9 70bd 82a0 2b3e d215 bf3d
00000130: 395c b7bb 8b64 67bd 62b0 2b3e 22b2 2b3e
00000140: b5d0 9ebd 01e5 aabd b143 a9bd dacc 053e
00000150: 0563 bcbb d629 233e afe4 ce3c 7cf5 89bd
00000160: e2f3 52bc 2380 97bc 8d83 3dbe 2f23 cd3d
00000170: 42db b0bc 7ba1 91bd 51ed e4bd 582e 023e
00000180: 8d08 393e b768 f7bd a38c 843b 2d23 26bc
00000190: c5ac 723d a249 553e 8d46 183e a9c5 6d3e
000001a0: 54ad b03d 5f9e 193e 6e52 c4bd ea7c 263e
000001b0: 2be7 c43c 66f1 5e3c 187f 9d3d 0c4e bdbd
000001c0: bb5e c63b 5237 fcbc ed08 9e3d a19d 71bd
000001d0: e924 c93c cada 32be 1d2e dd3d 6a5a da3d
000001e0: 8fcb c0bd a72e c1bb 25cc 2dbd 25c0 873d
000001f0: 14a4 6f3e 5406 563e ff23 7ebd 182d 473e
00000200: 46d9 ab3d 95c5 c83d c467 b43d 3c0d 41bd
00000210: ebbc 293e 7c4f 983d cbee 1f3e 1897 2d3e
00000220: 51ba 033e a7fc 223e e956 8ebd b3ef afbc
00000230: 7236 963d cd04 633c 1aa0 12be 4c10 00be
00000240: ac1f bdbd b478 243e c24e 7c3c 1e6c da3d
00000250: f702 bdbd bde5 013e ec7f 533e c254 b5bd
00000260: 3a1a 1abe c382 20bd 3aec 63bc 3216 373d
00000270: a89f 603e 9ab0 863d 2ce4 80bd f14b 0f3e
00000280: 1e3e 303e b97d bf3c 43d4 0c3d 19e3 0a3d
00000290: 74cd 273e ee1d d43d 77a7 cb3d 4f5f 0a3e
000002a0: d473 00bc c09f 403d 2a59 353c 3a54 183e
000002b0: 4c14 f23c c263 9f3d 2666 2dbe eecd 9abd
000002c0: c7f4 f9bd 4deb 393d cf42 8d3d 7405 383e
000002d0: b57c 2d3e 956a 2fbe 600e 8dbd 9758 973c
000002e0: 08a0 ebbd 797f 1d3e 99fe 1bbe 5368 5abd
000002f0: b37a d2bd d546 07be 5fad 6abe 08dc 7f3d
00000300: 6c68 923d ea90 c3bd b74c 66be 28dc 0abe
00000310: e10a 373e 5c6f 1d3e 49f4 6e3d 8b11 3c3e
00000320: a747 00be 5c9e ca3d 2046 92bd ad0d ea3d
00000330: 68bc c9bd b431 f0bd f36c a43d c336 b03d
00000340: 6027 c2bd d6a4 02be 5dab 893d cb22 fd3c
00000350: 05c9 a03d 91e3 5d3c eb87 00be 782a 31bd
00000360: 88a8 7dbe c7b0 7e3d 0516 e0bd 61be 763d
00000370: d213 8f3c a2b0 38bc fbd2 b23d 7738 f1bd
00000380: ae4b ad3d 041c 2b3e e8f4 2ebe ba48 253e
00000390: 417b 1fbe 2354 0dbd d9f5 91bd 6804 d33d
000003a0: 4cc6 20bc 0584 223d cef6 30bd a52c fe3d
000003b0: bd44 123e 2d9e 7b3d 23d4 23be 9e45 5d3b
000003c0: 067d fbbc 8a3a adbd c3f2 efbd 0c2f 78bc
000003d0: 8a2e ddbd 42f4 903a 3eec e8bd 0d95 72bd
000003e0: 7674 27be 9870 673d 862f f23d b914 3abb
000003f0: 4489 b63d d562 8c3d 3ebe 1cbe 4b45 d4bc

bias f4 [32]
-0.005136194 0.21635924 0.15016778 0.17012928 -0.046113223 0.033268377 0.12971966 -0.0019999363
-0.10562248 0.20490071 0.22721015 0.011736969 0.024226215 -0.10947306 0.2676908 0.14990675
0.07950733 0.022207333 0.0004826566 -0.07424405 0.24859172 0.17011522 0.046223648 0.026559778
-0.120146014 0.16916096 0.098967835 -0.024446415 0.07443716 0.10335903 -0.12364469 0.096890785
00000000: 854d a8bb 478d 5d3e 95c5 193e 5f36 2e3e
00000010: 38e1 3cbd 6c44 083d 3bd5 043e 5d11 03bb
00000020: 9950 d8bd 7ed1 513e c7a9 683e 6b4c 403c
00000030: 0e76 c63c 6933 e0bd c50e 893e 2881 193e
00000040: bdd4 a23d 27ec b53c 120d fd39 440d 98bd
00000050: d48e 7e3e af32 2e3e 0255 3d3d e493 d93c
00000060: 1d0f f6bd 8838 2d3e a6af ca3d d943 c8bc
00000070: 8272 983d e6ad d33d 6d39 fdbd ad6e c63d

weight f4 [32, 32]
0.10124482 0.119907446 -0.08511525 0.10260349 0.11804329 -0.12696388 -0.13346042 0.069652766
0.09886272 0.10196345 0.12108635 0.01693532 -0.15453234 -0.116270654 -0.056312643 0.14482592
-0.04926922 -0.1214615 -0.13323617 0.1696542 -0.08166504 -0.130628 -0.12296642 -0.14331354
0.13675421 -0.13353151 0.07133632 0.15878475 0.037229616 -0.15786922 0.17510085 -0.054715596
-0.05283733 -0.10031321 0.034885474 -0.107929476 0.11281786 -0.076330766 0.050227728 0.07335206
-0.04409456 -0.11295433 -0.1214544 -0.16042706 -0.12671693 0.16739605 0.027864588 0.0030105282
0.17268883 -0.06766493 -0.10261615 -0.001471199 -0.056086224 0.016092509 -0.092161395 -0.15861249
-0.025223244 0.16315243 0.07569991 0.16495627 0.119321495 0.031861775 0.15579878 0.038006343
0.15240377 0.13121468 0.13856757 -0.023339462 0.008762838 0.18932962 -0.07438748 -0.05934782
-0.14680459 -0.0029955863 0.13617973 -0.009301367 -0.045531947 -0.17276148 0.0545629 0.090247855
0.057429485 0.16174895 0.23574486 -0.043566734 0.08762853 -0.028046759 -0.13024844 0.1220426
-0.03905855 0.059829272 -0.079870045 -0.13257545 0.15821879 -0.013170762 0.01357925 0.10967553
0.043783218 0.027096722 0.07873207 0.06660875 0.18897717 0.098103516 -0.10937772 0.01443293
0.17402983 -0.122509986 -0.012430924 -0.1717406 0.14219573 -0.030550733 -0.15535392 -0.16521597
-0.043810006 -0.092318244 0.13787584 -0.12919305 -0.14273119 -0.1076595 0.12599164 0.17989716
0.047512814 -0.1401645 0.17298102 0.121533915 0.071578726 -0.064223565 -0.13078009 0.059623744
-0.09828275 0.25217384 -0.03278158 0.07394035 -0.044354737 0.060512748 0.006774837 0.021199562
0.0022166069 0.06821292 0.2879933 0.0074887574 0.16782734 -0.01641786 0.25843444 0.2573708
0.051480837 0.18649492 0.2778127 0.15503815 0.25186244 0.07524645 -0.15619586 0.0216446
-0.12885325 0.18439125 0.20946674 -0.16539633 -0.035389706 -0.08140254 0.0965199 0.17277703
-0.020213502 -0.17819303 0.090498656 0.079954565 0.17662272 0.1685301 0.086278595 -0.0032760054
0.1137081 -0.019306745 0.12849438 0.09856481 0.058602847 0.11935229 -0.13965483 -0.21300611
0.005391109 0.17306665 -0.008429117 -0.10001002 0.048300292 -0.13326007 -0.11363711 0.07508512
0.13291977 -0.1488894 -0.08812002 0.10380151 -0.16050014 -0.011361531 0.06904754 -0.05067812
-0.103609435 0.14577909 0.12741624 0.075438574 0.10346184 -0.052689824 0.02625206 0.16399516
0.09969128 0.3055504 0.31516305 -0.04699464 -0.054624707 -0.09802029 0.1688955 0.3237124
-0.0847383 0.09313477 0.1224552 -0.12652586 0.00814632 0.02487389 -0.06322822 0.2613363
0.0183093 0.28546286 0.11269215 -0.044173036 -0.17937134 -0.01622717 -0.08205884 0.32145613
-0.155411 0.0018912134 -0.12567297 -0.030949285 0.06915704 -0.073670775 -0.05624359 0.15734537
-0.13538897 0.0070216227 -0.0101936795 -0.0069651036 0.1764006 -0.06493931 -0.012793625 -0.08636928
-0.107677124 0.028771168 0.029230462 0.06316643 0.11565419 0.11850418 -0.17379984 0.016560864
0.16503249 0.05392178 0.052734096 -0.12978296 0.025903095 0.06849595 0.15889265 -0.11928127
00000000: 7259 cf3d 0992 f53d e750 aebd c721 d23d
00000010: aec0 f13d d202 02be d9a9 08be 1ca6 8e3d
00000020: 8a78 ca3d 37d2 d03d 1ffc f73d f1bb 8a3c
00000030: ba3d 1ebe 4f1f eebd 16a8 66bd 3f4d 143e
00000040: 86ce 49bd cfc0 f8bd 106f 08be d5b9 2d3e
00000050: 0040 a7bd 59c3 05be d2d5 fbbd c9c0 12be
00000060: 4c09 0c3e 7cbc 08be c718 923d 7898 223e
00000070: 157e 183d 78a8 21be a34d 333e 761d 60bd
00000080: f56b 58bd 0371 cdbd 12e4 0e3d 210a ddbd
00000090: 0d0d e73d 4e53 9cbd 97bb 4d3d 9b39 963d
000000a0: 7f9c 34bd 9a54 e7bd 16bd f8bd fe46 24be
000000b0: 15c2 01be df69 2b3e 4744 e43c 484c 453b
000000c0: 57d5 303e e993 8abd 6b28 d2bd 3fd5 c0ba
000000d0: abba 65bd 70d4 833c 1dbf bcbd 506b 22be
000000e0: faa0 cebc 6e11 273e 8e08 9b3d 4cea 283e
000000f0: d45e f43d 7e81 023d b789 1f3e 8aac 1b3d
00000100: bc0f 1c3e 245d 063e a8e4 0d3e 6632 bfbc
00000110: 0292 0f3c a0df 413e 7758 98bd b316 73bd
00000120: f153 16be 9951 44bb b372 0b3e c364 18bc
00000130: b57f 3abd 63e8 30be 597d 5f3d ded3 b83d
00000140: 2e3b 6b3d 84a1 253e 1a67 713e 0873 32bd
00000150: 9676 b33d 51c2 e5bc d95f 05be 78f1 f93d
00000160: dcfb 1fbd 8a0f 753d e892 a3bd dcc1 07be
00000170: 1b04 223e 2eca 57bc 817b 5e3c 909d e03d
00000180: 0856 333d f2f9 dd3c 483e a13d 2b6a 883d
00000190: 3b83 413e 7fea c83d 6d01 e0bd 1978 6c3c
000001a0: e034 323e 84e6 fabd 13ab 4bbc c5dc 2fbe
000001b0: c29b 113e 8845 fabc 1915 1fbe 602e 29be
000001c0: 1f72 33bd 5911 bdbd 532f 0d3e 2f4b 04be
000001d0: 2028 12be 957c dcbd f403 013e f636 383e
000001e0: cc9c 423d 4887 0fbe f021 313e c6e6 f83d
000001f0: de97 923d a587 83bd 37eb 05be 0738 743d
00000200: 7748 c9bd ee1c 813e fa45 06bd 0a6e 973d
00000210: 50ad 35bd 37dc 773d 74ff dd3b b4aa ad3c
00000220: 7e44 113b 37b3 8b3d dc73 933e 4064 f53b
00000230: eeda 2b3e bf7e 86bc 8551 843e 1bc6 833e
00000240: 92dd 523d 86f8 3e3e 773d 8e3e 52c2 1e3e
00000250: 1df4 803e d01a 9a3d cff1 1fbe 0450 b13c
00000260: 1bf2 03be 0fd1 3c3e 737e 563e a85d 29be
00000270: ccf4 10bd 60b6 a6bd 3aac c53d 76ec 303e
00000280: c996 a5bc 3c78 36be 5c57 b93d 38bf a33d
00000290: 96dc 343e 2893 2c3e d5b2 b03d 40b2 56bb
000002a0: cbdf e83d 2e29 9ebc 0894 033e 59dc c93d
000002b0: 8a09 703d f96e f43d ad01 0fbe 461e 5abe
000002c0: e6a7 b03b 6238 313e 471a 0abc 0ed2 ccbd
000002d0: 87d6 453d 5475 08be 93ba e8bd 3ac6 993d
000002e0: 1f1c 083e 7676 18be 4578 b4bd e395 d43d
000002f0: 265a 24be b725 3abc cc68 8d3d dc93 4fbd
00000300: 2f31 d4bd 1d47 153e 6779 023e 8a7f 9a3d
00000310: cde3 d33d 49d1 57bd 8f0e d73c 59ee 273e
00000320: f12a cc3d 1a71 9c3e 0d5d a13e 747d 40bd
00000330: 28be 5fbd ddbe c8bd f1f2 2c3e a2bd a53e
00000340: 468b adbd 71bd be3d cbc9 fa3d ff8f 01be
00000350: 2478 053c 54c4 cb3c cc7d 81bd dfcd 853e
00000360: 63fd 953c 3028 923e 24cb e63d c9ee 34bd
00000370: 1fad 37be d8ee 84bc 770e a8bd e695 a43e
00000380: 1024 1fbe 97e2 f73a 6ab0 00be 5b89 fdbc
00000390: 35a2 8d3d b4e0 96bd ae5f 66bd 251f 213e
000003a0: 68a3 0abe a415 e63b 6403 27bc 863b e4bb
000003b0: 5ca2 343e e7fe 84bd 5a9c 51bc 61e2 b0bd
000003c0: d385 dcbd 83b1 eb3c b974 ef3c 675d 813d
000003d0: 1bdc ec3d 52b2 f23d 96f8 31be a6aa 873c
000003e0: 47fe 283e 16dd 5c3d b5ff 573d d3e5 04be
000003f0: ba32 d43c 9b47 8c3d c1b4 223e bd49 f4bd

bias f4 [32]
-0.09952937 0.005690794 0.007320755 0.09219236 0.29338506 0.07363926 0.1398567 -0.083611034
-0.026504615 -0.103462376 0.032766704 0.18889633 0.19064832 0.023259178 0.0462252 0.094311535
0.028334223 -0.06372068 0.03954812 0.09892426 0.111237265 0.12543178 0.26166952 -0.04348609
-0.09351588 0.15508121 0.085214235 0.115102544 0.14165245 0.1545098 0.25821972 0.05871166
00000000: 0ed6 cbbd d779 ba3b f2e2 ef3b 59cf bc3d
00000010: 9136 963e 2ed0 963d 9836 0f3e 433c abbd
00000020: 3520 d9bc 15e4 d3bd 6136 063d 0a6e 413e
00000030: 5039 433e 088a be3c a356 3d3d 6826 c13d
00000040: 2c1d e83c fd7f 82bd 36fd 213d cd98 ca3d
00000050: 5dd0 e33d 3071 003e 8cf9 853e 781e 32bd
00000060: 4185 bfbd 9ccd 1e3e cd84 ae3d e2ba eb3d
00000070: 570d 113e d137 1e3e 6035 843e a37b 703d

weight f4 [1, 32]
-0.015499302 0.0034419526 0.110085145 -0.0507807 0.13903847 -0.040350363 0.17171274 -0.0215672
-0.04957628 -0.05762209 -0.0019942864 0.056752127 0.027571587 -0.003386937 -0.015278029 -0.014471521
0.19397938 0.13526444 -0.033606797 -0.03174115 -0.01717773 0.019828027 0.15106946 -0.020884987
-0.015353426 0.16750202 -0.0014942845 -0.030469485 0.13835539 0.17786711 0.098586254 0.013807546
00000000: c9f0 7dbc 6292 613b 5274 e13d 6cff 4fbd
00000010: 1a60 0e3e 6c46 25bd 77d5 2f3e b2ad b0bc
00000020: 7f10 4bbd 2405 6cbd 93b2 02bb eb74 683d
00000030: cfdd e13c 60f7 5dbb b350 7abc f519 6dbc
00000040: 88a2 463e c382 0a3e 48a7 09bd 0203 02bd
00000050: 50b8 8cbc 636e a23c f4b1 1a3e fe16 abbc
00000060: f08c 7bbc a685 2b3e dedb c3ba 249b f9bc
00000070: 09ad 0d3e cc22 363e 97e7 c93d 0c39 623c
