models/patient20/ppo_model_for_patient_20_Critic.pth (torch, 22738 bytes, 11 tensors)

weight_ih_l0 f4 [64, 2]
000000 31 03 44 be 68 f8 44 be f9 da 48 be a1 41 84 3d
       -0.19141842 -0.19235384 -0.19614781 0.0645783
000010 8c 15 3b be c6 34 29 3e c7 c4 1e 3e 64 7a 35 3e
       -0.18269938 0.16524038 0.15504752 0.1772247
000020 49 32 c9 bd b1 31 1d be 55 0b 04 3e c3 d4 b2 3c
       -0.09824044 -0.15350987 0.12894948 0.021829968
000030 aa 00 63 3d 8e 72 50 bd 89 42 f7 3d 44 6d 6f be
       0.055420555 -0.050890498 0.120732374 -0.23381525
000040 5d 8a 80 3d 2b d0 cc 3c 19 02 8e be 4e 82 22 bd
       0.06276391 0.025001606 -0.27735975 -0.03967505
000050 0f 6b 3f 3d 84 25 14 bc 12 a1 8c be 5c fc 53 3e
       0.04673296 -0.009042148 -0.27466637 0.20701736
000060 3c 8e 33 be 10 90 8a 3d dc 86 06 be d2 49 c2 3d
       -0.17534727 0.06765759 -0.13137382 0.09486736
000070 3a 6d 2b be 41 3b 35 3d b4 95 f6 3d 58 1f bc 3d
       -0.16740885 0.044245962 0.12040272 0.09185666
000080 7e 96 cb bd 52 94 34 3d d5 46 30 3d 24 ec da 3c
       -0.099408135 0.04408676 0.0430363 0.026723929
000090 61 17 26 bd 6b da bb 3d a0 3c 53 be fb ae 99 bc
       -0.04054964 0.09172519 -0.20628595 -0.018760195
0000a0 83 86 0c 3e d8 98 53 be 83 c5 6a be 26 ce e3 bc
       0.13723187 -0.20663774 -0.22926907 -0.02780826
0000b0 c2 0d 40 bd 86 5c 13 3e 81 04 80 bc 29 b1 9c be
       -0.04688812 0.14390764 -0.015627148 -0.30603912
0000c0 bd 26 ab bd 8f e7 87 be dc c6 98 3c 76 b9 0d be
       -0.08356998 -0.26543853 0.018649511 -0.13840279
0000d0 22 88 81 bb 45 06 61 be a3 62 91 3d fd 5d ec 3d
       -0.003952996 -0.21975048 0.070988916 0.11541364
0000e0 4d d8 bb 3d b1 c5 83 bd 2e 42 4c 3d cf e4 c9 bd
       0.091721155 -0.06434191 0.0498678 -0.09858095
0000f0 63 d4 93 be 88 42 93 be 42 98 a6 be 8b 88 ba 3d
       -0.28872976 -0.28761697 -0.32538038 0.09108075
000100 3d ce f8 3d 43 c7 08 be f8 af 70 be 2a 49 86 bd
       0.12148712 -0.13357262 -0.23504627 -0.06556924
000110 f9 79 92 3e 3a 61 e3 bd 05 39 9d be df 59 11 3d
       0.28608683 -0.11102529 -0.30707565 0.0354861
000120 68 0f e8 3d 1b ab 86 3d 20 ee 7e 3e 78 28 2b be
       0.113310635 0.065756045 0.24895525 -0.16714656
000130 af 8c 62 3e 4c d8 db bd 83 12 30 3e c9 15 52 3c
       0.22123979 -0.10734615 0.17194562 0.012822577
000140 cf 39 81 3e b8 df 02 be af 62 80 3e d8 d7 aa bd
       0.25239417 -0.12780654 0.2507529 -0.0834195
000150 0c 8e 59 3e fb 2d f9 3d 26 24 aa bc 23 1a ec 3d
       0.21245593 0.12166973 -0.02076919 0.11528423
000160 26 8f 7d 3d 1f df a8 bd 34 b7 82 be 04 a9 57 bd
       0.061904095 -0.08245682 -0.25530398 -0.05265142
000170 26 40 22 be 6d 0b 26 be 29 bb b7 3d 84 7e 41 bd
       -0.15844783 -0.16215296 0.08971245 -0.047239795
000180 0c b0 71 be d9 ff 6c be 3a 2c 03 bd 44 71 b8 be
       -0.23602313 -0.23144473 -0.0320246 -0.36023915
000190 68 60 f2 bd b3 0c 9e bd 81 0b 82 be 4e eb a4 3d
       -0.11834794 -0.07717266 -0.25399402 0.08052693
0001a0 0f 2f f5 bd b9 61 67 3d 25 37 f9 3d dc 94 ab 3d
       -0.11971866 0.05648968 0.12168721 0.08378002
0001b0 49 22 41 be 21 7f 9b 3d 4f 2f fc bc b5 c5 a6 3d
       -0.18860735 0.07592607 -0.030784277 0.081431784
0001c0 37 21 17 be ab 4c a9 be 41 4b 8b bd 63 37 9f 3d
       -0.14758764 -0.33066306 -0.06801463 0.07774236
0001d0 eb 44 65 3d 8c 4d ac be 8c c3 e8 3d 5e 14 38 be
       0.05597393 -0.33652914 0.113654226 -0.1797652
0001e0 0f 31 ef bd 5e 11 03 be e1 30 a4 bd 9e e8 ab be
       -0.11679279 -0.12799594 -0.080171354 -0.3357591
0001f0 46 8c 43 bd 16 03 0b be 2a 44 24 be 80 66 3a 3d
       -0.047741197 -0.13575396 -0.16041628 0.045507908

weight_hh_l0 f4 [64, 16]
000000 bf 1e b1 3e fe 26 8b 3e 63 25 a0 3d 38 8e 65 3e
       0.3459377 0.27178186 0.07819631 0.22417533
000010 71 eb 57 3e 2f 2b 84 be 65 0c 4a be e9 be bf 3c
       0.21085908 -0.25814196 -0.1973129 0.023406463
000020 73 c3 4c be 3c 81 5e be 15 20 b3 be a3 09 28 be
       -0.19996433 -0.21728987 -0.34985414 -0.16409926
000030 04 d1 c3 bd 5b f8 f1 3d 54 88 9a 3e 93 12 70 3d
       -0.09561351 0.11814948 0.30182135 0.058611464
000040 e9 34 a9 3c 33 29 06 3e 5a 10 b0 3d 47 75 28 be
       0.020655112 0.13101654 0.08596869 -0.16450988
000050 86 8f 34 be 75 6f bd be 21 3b 77 3d 7e 71 e3 3d
       -0.17632875 -0.36999097 0.060359124 0.11105631
000060 1c 3f e6 bd b8 4f 0f 3d 0c c1 6c 3d b9 9b 15 3e
       -0.11242506 0.034988135 0.05780129 0.14610185
000070 15 ee ad 3e 4e d4 18 bc b6 31 31 3e 0a bb 56 be
       0.33970705 -0.009327961 0.1730412 -0.20969787
000080 b1 23 ed bc 22 1a 18 3e 50 53 af be f2 2c 4d be
       -0.028947683 0.14853719 -0.3424325 -0.20036677
000090 f0 c5 ea bd f0 91 93 be 62 b1 65 bd b6 f3 07 3e
       -0.11463535 -0.2882228 -0.05607737 0.13276562
0000a0 67 01 a9 be 5f f2 85 3d 56 cb 7d bd a8 ad 81 be
       -0.33008882 0.06540369 -0.061961494 -0.25327802
0000b0 73 ad 43 3e ee a1 0d be b4 69 96 3e 3f 66 b8 3c
       0.19109134 -0.13831303 0.2937752 0.022509692
0000c0 08 27 36 be c9 58 e0 bd cb e8 c7 3d 79 4d 72 3e
       -0.17788327 -0.109544344 0.097611986 0.23662366
0000d0 23 c5 98 bd 0d 0c 0c be 98 6a 72 3d 29 af 05 3e
       -0.07459476 -0.13676472 0.059183687 0.130551
0000e0 a8 bd 8c be 73 84 f4 bd c5 c9 b9 be 4e f2 e5 bc
       -0.27488446 -0.11939325 -0.3628675 -0.028069641
0000f0 8a 88 18 be 74 3a 52 be ad 9a 5d 3e 33 4a a2 3d
       -0.14895836 -0.2053011 0.21641035 0.07924309
000100 e9 ea 1c bc ac a3 ae bd d5 d5 ca bd 5e f6 84 3e
       -0.009577491 -0.08527312 -0.099040665 0.25969213
000110 4d 0f 54 be f7 ae 6f be a9 5d f8 3c 43 b3 34 bd
       -0.20708962 -0.23406588 0.030318098 -0.04411627
000120 87 11 74 be a0 2e 0e be c6 ee 6e be 02 e0 cc bd
       -0.23834811 -0.13884974 -0.23333272 -0.100036636
000130 d1 82 d7 3d f5 fe 85 bc 37 e0 ff bd 98 62 21 3e
       0.10522998 -0.016356925 -0.124939375 0.15760267
000140 18 f6 38 3d 5b 08 90 3e ca 32 0e be 7a 6e 0f 3e
       0.04515657 0.28131375 -0.13886562 0.14006987
000150 65 e5 12 bd cd 6c a1 be e7 42 aa be d3 2b c9 bd
       -0.0358633 -0.3152832 -0.33254167 -0.09822812
000160 ab 71 4b be 8f 26 fc 3d b1 98 4a be ab d1 46 3e
       -0.1986758 0.12312042 -0.1978481 0.1941592
000170 eb 88 59 3e 5e 6c 2a bd 46 3e 93 3e 52 bb 39 be
       0.21243636 -0.041607253 0.28758448 -0.18137863
000180 55 bd a6 3e ef 44 62 3e 95 9c 01 3e b1 21 8a 3e
       0.32566324 0.22096609 0.12657388 0.2697883
000190 01 26 64 3b 49 cf 87 3c f1 9b 10 be 96 a3 02 3e
       0.003481269 0.016578333 -0.14121987 0.12757716
0001a0 fe c0 f8 bd 0b 9f 68 be 10 f0 88 be 27 59 2c bd
       -0.12146185 -0.2271692 -0.26745653 -0.04207721
0001b0 10 ed fa 3d fb 92 83 3d 31 11 88 bd 0f 1a b6 bd
       0.12252247 0.06424519 -0.06643904 -0.08891689
0001c0 e1 63 68 3e 31 e5 b9 bd 51 a1 62 3c ae c8 30 3e
       0.22694351 -0.09076918 0.013832406 0.17264053
0001d0 76 15 04 bd de 0e 65 bd 27 c6 24 bd dc 79 21 3e
       -0.03224703 -0.05592238 -0.040228035 0.15769142
0001e0 21 d2 f9 3d 71 bf 0a be 21 6f f7 3c f7 b2 3c be
       0.12198282 -0.13549592 0.030204358 -0.18427645
0001f0 05 20 95 3e 18 33 8d 3e 44 c0 4e 3e 0d d5 15 be
       0.2912599 0.27578044 0.20190531 -0.14632054
000200 62 d9 79 3d 0f c1 28 3e 72 e7 97 3d 98 3d dc 3d
       0.060998328 0.16479896 0.074171916 0.107539356
000210 02 fb 0b be 33 fb 2f be 9f 14 8a be 1b b1 89 be
       -0.1366997 -0.17185669 -0.26968858 -0.26892933
000220 a9 2a 2e be 17 61 65 be 83 7e e6 bd 94 8b 8b bd
       -0.17008461 -0.22400318 -0.11254599 -0.06813732
000230 97 d8 4c 3e e2 2b 4e 3e f7 03 a2 3e b0 c5 89 3d
       0.20004497 0.20133927 0.3164365 0.06727159
000240 2c 7e d7 bd 51 c4 8e 3e e3 45 b3 bd d8 66 03 3e
       -0.10522112 0.27884153 -0.08753564 0.128322
000250 63 7c 83 bd af fc a1 be 63 e9 cb bd f6 42 04 3e
       -0.06420209 -0.31638095 -0.09956624 0.12916169
000260 6d 75 20 bd 22 ce 0e 3e 04 ee ed bd 10 39 1b 3e
       -0.039174486 0.13945821 -0.116176635 0.15158486
000270 8a cd 8a 3e 60 9a 19 3e 2b c1 9f 3e 18 5a 7b be
       0.2710994 0.15000296 0.31202063 -0.24546087
000280 28 75 95 3e 10 5b 2d 3d 41 63 b5 3d a2 1e 1a 3e
       0.29190946 0.042323172 0.08856822 0.15050748
000290 91 59 f0 3d 80 93 48 be 3a bf 56 be 18 92 a2 be
       0.117358334 -0.19587517 -0.20971385 -0.31752086
0002a0 12 20 fd bd a2 0d d0 bd d6 04 24 be 67 e6 8c bd
       -0.123596326 -0.1015885 -0.1601747 -0.06879883
0002b0 81 34 0b 3e c5 53 a3 3e 71 cc 32 3e 32 5c 12 be
       0.13594247 0.3189985 0.174608 -0.14292982
0002c0 93 9c 65 3d b6 75 49 3e aa a5 2f be 38 4f 23 bd
       0.056057524 0.1967381 -0.1715304 -0.03987047
0002d0 b3 63 0d 3c 7a c7 82 be 63 f9 18 be 8c ed 99 be
       0.008629727 -0.25542814 -0.14938883 -0.30064046
0002e0 3a 1f 98 be 39 18 24 bd f7 f8 b5 bd eb 50 ed bd
       -0.29711324 -0.040062163 -0.08885377 -0.115876995
0002f0 24 18 fd bc 46 df 01 be 1e 79 de 3d c8 9a 32 bb
       -0.0308953 -0.12682828 0.10862945 -0.0027252901
000300 4e 2c 8c 3e a8 39 64 3e f7 9e d3 bd f4 62 44 bd
       0.27377552 0.22287619 -0.103330545 -0.04794593
000310 cc 5b 26 be b4 38 f2 3c 01 bc 24 be af b8 87 be
       -0.16245955 0.029568054 -0.16087343 -0.2650809
000320 84 be 6f bc 33 79 c0 3d 7f 55 c8 3c 51 e3 5f bd
       -0.014632825 0.09398117 0.02445483 -0.054660145
000330 62 62 46 3e 87 10 ae 3b 65 41 11 3d 3c 22 31 be
       0.19373468 0.005312029 0.035462756 -0.17298216
000340 1c 19 3d 3d 24 20 39 3d 5c 96 88 be 67 ae e4 3d
       0.046166524 0.045196667 -0.26677215 0.11166077
000350 e7 76 43 be f7 a4 15 be 84 d2 fe 3d 70 50 84 3d
       -0.19088326 -0.1461371 0.124424964 0.06460655
000360 3a af 41 be 32 78 e7 bd dd 97 01 3d 90 d1 3d bd
       -0.189145 -0.11302222 0.03163897 -0.046342432
000370 ae 0e 79 bb 66 24 eb 3d d0 42 92 3d 90 a6 ab bd
       -0.0038003135 0.11481552 0.0714165 -0.08381379
000380 09 3d 70 3e bf da 76 3e 79 d0 e6 bd 61 2c 93 3e
       0.23460783 0.24106883 -0.11270232 0.28744796
000390 d6 6a 86 bc f2 07 76 3d 91 71 9a be 6d ba a6 3d
       -0.016408365 0.06006617 -0.3016477 0.08141027
0003a0 fe 96 30 be d3 df bf bd 58 bb 85 be ca a2 c0 bb
       -0.17245099 -0.09368863 -0.26119494 -0.005878781
0003b0 c9 c7 56 bd ee b6 6a 3e 18 f7 72 3e 36 fc a2 be
       -0.052436624 0.22921345 0.23727071 -0.31833047
0003c0 ad fe b2 bd e2 1f a2 3e 62 c4 9d be cf e6 1d be
       -0.08739982 0.3166495 -0.3081389 -0.15420078
0003d0 79 77 53 be 04 f3 f1 bc ac f0 9c be 70 16 b3 3d
       -0.20651044 -0.029534824 -0.30652368 0.08744514
0003e0 9e 8e 7d be 6d 32 31 be e0 b6 60 be ff 85 2d 3e
       -0.24761435 -0.17304392 -0.21944761 0.16945647
0003f0 9f 24 87 3e f9 94 28 3c 72 d2 85 3e 64 7c f5 bb
       0.26395127 0.010289424 0.2613712 -0.007491635

bias_ih_l0 f4 [64]
000000 23 21 4e 3e 10 f5 65 3e d4 07 9b 3e 1f 25 b5 3d
       0.20129828 0.22456765 0.3027941 0.08844971
000010 6f 50 37 be c7 e0 21 be fd 4b 8f 3e 61 c1 88 bd
       -0.17901777 -0.15808402 0.27987662 -0.06677509
000020 b9 41 46 3e 3b f1 1d be 7e 34 1c bd eb a1 41 bd
       0.19361009 -0.15424053 -0.038135998 -0.047273558
000030 4f 9f 51 3e c9 53 db 3d 8c 41 3c 3e 2f 63 82 3e
       0.20470928 0.1070934 0.18384379 0.25466296
000040 5b 25 35 3e fd 08 83 3e cf b1 98 bd 7c 01 59 3e
       0.17690031 0.25592795 -0.07455789 0.21191972
000050 49 6f 30 bd eb 9d 92 bd 70 06 9c 3e 4a 98 61 3e
       -0.04307488 -0.07159027 0.3047366 0.2203075
000060 20 33 9b 3d 67 3f 4a bd 59 94 c8 3d b0 c0 16 be
       0.07578111 -0.04937687 0.0979392 -0.14721942
000070 f8 3f 2d 39 8d de a3 3e 89 c9 a7 bd 1c e6 82 bd
       0.00016522396 0.3200573 -0.08192737 -0.06391546
000080 61 fa 89 3d 02 3f 76 3e 63 53 a7 bd 1c d8 95 3e
       0.06737209 0.24047473 -0.08170202 0.2926644
000090 94 f0 ca 3d 87 5f 32 be 0a e0 d9 3c 89 b5 08 bc
       0.09909168 -0.17419253 0.026596088 -0.008344063
0000a0 02 0c 52 be ac 51 46 be ea ab 29 3e c8 b4 a8 3b
       -0.20512393 -0.19367093 0.16569486 0.005148504
0000b0 56 d8 46 3e 5e c1 8d bd a3 4f 43 be 5a ac c9 bd
       0.19418463 -0.069216475 -0.19073348 -0.098473266
0000c0 b0 6b 1a bd 0f b0 a4 3b c9 17 64 bc 72 c1 7c bb
       -0.037700355 0.0050258706 -0.013921686 -0.003856745
0000d0 22 5a 40 3e 63 b2 ee 3d 39 97 40 3e bf 2d f3 bd
       0.18784383 0.11655118 0.18807687 -0.1187396
0000e0 c4 5d af 3d 6f 61 95 3e a5 0a bc bd b8 91 62 bb
       0.08562806 0.29175898 -0.09181718 -0.0034571718
0000f0 3a 6b 3c bd 02 97 a4 3e 40 0e b1 3e 31 ed 72 3e
       -0.046000697 0.3214646 0.34581184 0.23723294

bias_hh_l0 f4 [64]
000000 6e b1 13 be 3f e9 f5 bd 98 fd 32 3d a4 bb 34 3e
       -0.14423153 -0.12007379 0.043698877 0.17649704
000010 0d 5a 81 3d de 59 fd bd 3a 47 1d 3e 98 65 15 3d
       0.06316004 -0.123706564 0.15359202 0.03647384
000020 92 37 b3 bd c5 d1 3e 3e 82 27 86 bb 55 53 44 bd
       -0.087508336 0.18634708 -0.004094065 -0.047931034
000030 2b e7 0c be 39 5f 95 3d 1e 2d 73 3e d9 6b 4c bd
       -0.13760059 0.07293553 0.2374768 -0.04990754
000040 a4 c2 c6 3d 51 00 97 bd f7 52 ff bd b4 2b 8b 3c
       0.097050935 -0.07373107 -0.12466996 0.016988613
000050 3e d7 81 3e 85 88 2d bd 75 ff 10 be cc 20 25 be
       0.2535953 -0.042366523 -0.14159949 -0.16125792
000060 27 50 6f 3e cf 82 3b 3e 43 f2 8b 3e 26 c6 dd bd
       0.2337042 0.18311618 0.2733327 -0.108288094
000070 9d 32 59 bd ba 34 91 3e 2e ec 85 bd 33 44 3c 3e
       -0.053026784 0.2836054 -0.06539188 0.18385391
000080 27 cc 56 3e 05 2a 51 3d b5 0c c1 3d 03 aa 10 be
       0.20976315 0.051065464 0.09426252 -0.14127354
000090 70 4f 1f 3e 30 db a4 bd 19 23 27 bc 8c a0 67 be
       0.15557647 -0.08049619 -0.010201239 -0.22619838
0000a0 bf d9 8b 3b 8c 91 df bd 7b de 80 be 63 aa 61 be
       0.0042679007 -0.10916433 -0.2516974 -0.22037654
0000b0 50 ce 43 3e 37 02 45 3e bb ac 88 3e 72 67 46 be
       0.1912167 0.19239126 0.26694283 -0.19375399
0000c0 76 da f4 3b f8 71 bd 3d ea f0 44 3e fb 1b 23 3e
       0.0074723316 0.092502534 0.19232526 0.15928642
0000d0 2f 03 34 be 9d e2 85 3e e4 7e b1 3d 85 ba 90 3e
       -0.1757934 0.26149455 0.086667806 0.28267303
0000e0 f4 15 98 bd a0 d4 30 3e e1 63 39 3e 41 43 2e 3e
       -0.07426062 0.1726861 0.18104507 0.17017843
0000f0 a0 96 85 3e 16 5d 7b 3e 0c 6e a2 bc 1e aa 4f bd
       0.2609148 0.24547228 -0.019827865 -0.050699346

weight f4 [32, 16]
000000 c4 d1 8d 3d a0 59 13 3c 82 28 05 3e 88 e0 78 be
       0.06924775 0.008993536 0.13003734 -0.24304402
000010 dc 85 f9 bd 8c 8a ba 3d c8 72 38 3d 70 3c 5d 3e
       -0.12183735 0.09108457 0.04503134 0.21605086
000020 1c b3 55 3e 40 be 68 3c c8 19 bf bd 0c 0e 1c 3e
       0.20869106 0.014205515 -0.09331089 0.15239733
000030 66 27 6f be c0 4e b0 bb 18 17 cc 3d 80 10 2d 3d
       -0.23354873 -0.0053804815 0.09965342 0.042252064
000040 1f 9e 34 3d 42 20 6f 3e de 32 ae be aa ca 98 3d
       0.04409611 0.23352149 -0.34023184 0.0746053
000050 c8 7d 8b be e0 21 ad be 7f 41 24 be 50 79 ae 3d
       -0.272444 -0.33814907 -0.1604061 0.08519232
000060 7f 85 06 bc 3e 26 55 be 31 f7 90 be bc 50 87 be
       -0.008210539 -0.2081537 -0.28313592 -0.26428783
000070 50 cc 35 3d 27 d9 a0 3e a6 44 00 3e 6e e5 86 bd
       0.0443843 0.31415674 0.12526187 -0.06586729
000080 81 d6 b0 3e c7 e4 6e 3d 20 f3 6b be 70 dd 94 3e
       0.34538653 0.058323648 -0.23041964 0.29075193
000090 c7 18 78 be 48 ad 00 3e cb 81 01 3e eb 51 8a bd
       -0.24228202 0.12566102 0.12647168 -0.06753906
0000a0 0c 8e aa be 55 9f 63 be 1a 33 66 be f2 51 80 bd
       -0.33311498 -0.22228749 -0.22480431 -0.0626563
0000b0 37 5d 0b be c2 4f 88 3e e4 37 10 3d bd eb a4 be
       -0.13609777 0.2662335 0.03520955 -0.32211104
0000c0 c9 d4 03 be fa 19 49 3e 46 3c 71 be e9 74 11 3c
       -0.1287414 0.19638816 -0.23558149 0.008877971
0000d0 66 d2 58 bb 0d 77 98 be 65 40 8d be 7c cc 39 be
       -0.0033084392 -0.2977833 -0.27588192 -0.18144411
0000e0 7e 58 81 be 8e 5f 2e be 5c bb fe bd 62 d5 9a 3d
       -0.25262827 -0.17028639 -0.1243808 0.07560231
0000f0 1a 1c a2 bc 27 fc 00 be a1 89 45 3d ee b6 92 3d
       -0.01978879 -0.12596188 0.048226956 0.07163797
000100 b9 8d b9 3e 08 30 7c 3e 89 61 c2 be f8 09 ec 3d
       0.36240938 0.24627697 -0.37965038 0.11525339
000110 74 bc 12 3e 31 85 c2 be 33 63 52 be 6d 7f 9b be
       0.14329702 -0.37992242 -0.20545654 -0.30370656
000120 80 0f 90 be 7a e8 bc 3d 05 7d a6 3c 0e d8 cd bd
       -0.28136826 0.09224029 0.020323286 -0.10050975
000130 29 f0 b9 bd d6 89 63 3e b3 a8 07 ba 9c cd bd be
       -0.0907901 0.22220549 -0.00051749795 -0.3707093
000140 50 1b 8b bc 20 69 fc 3d 9a 57 6d 3e e0 02 bf 3d
       -0.016980797 0.123247385 0.23177949 0.0932672
000150 9c 1c 48 3e 10 ba 8e bc 00 88 30 3e 00 5b a5 3c
       0.19542164 -0.017422706 0.1723938 0.020184994
000160 6c e7 4f 3e b8 36 f9 3d e8 fb 04 bd 7c f3 3f be
       0.20303124 0.1216864 -0.0324668 -0.18745226
000170 f0 90 57 3d 98 e6 6d 3d 68 77 fd bd 50 65 4f be
       0.052628458 0.05808124 -0.123762906 -0.20253491
000180 b4 8c 15 be ea 95 3f 3e f0 f7 b1 3d b8 29 3f 3e
       -0.14604455 0.18709531 0.086898685 0.18668258
000190 56 f7 4d be 08 f8 a1 3d 9c 0c e6 3d d4 13 e1 bd
       -0.20113882 0.07908636 0.11232874 -0.1099011
0001a0 06 78 7b 3e a8 c4 38 3e c0 22 2b 3d 4a 3f 2f 3e
       0.24557504 0.18043768 0.041781187 0.17113987
0001b0 b8 4b 40 be a0 80 16 bd 98 8c 10 bd 4c 51 87 bd
       -0.18778884 -0.03674376 -0.03529033 -0.06607303
0001c0 35 d3 c9 bd 58 84 9f 3e ae e0 66 be 9d cf 58 3e
       -0.09854738 0.31155658 -0.22546646 0.21172948
0001d0 22 34 50 be c5 48 86 be 0d 38 44 3d 36 86 a7 be
       -0.20332387 -0.26227394 0.047905017 -0.32719582
0001e0 d4 d1 f4 bd 6c 64 84 bd 8d ce 76 be 25 ca 53 bd
       -0.11954084 -0.064644665 -0.2410223 -0.051706452
0001f0 10 d7 8c bd 97 d0 e1 3d 5b 82 43 3e 5d a2 61 be
       -0.068769574 0.110261135 0.19092695 -0.22034593
000200 10 8f 10 be 94 10 25 3e 1c 71 0f 3e d0 a6 a2 bd
       -0.14117074 0.16119605 0.14007992 -0.07941973
000210 30 17 3d 3d 9a 04 11 3e 66 eb 34 be e6 ef 75 3e
       0.04616469 0.14161912 -0.17667922 0.24017295
000220 a0 fc 18 3d 20 31 44 be 40 d7 48 be dc 8a 09 3e
       0.037350297 -0.19159365 -0.19613361 0.13431877
000230 50 26 a9 3c bc a4 e3 3d 2c 8b 1f 3e c2 f4 68 3e
       0.020648152 0.11115405 0.15580434 0.22749618
000240 79 00 4a 3e 0b 34 ac 3e 6c 06 9c bd d9 3d 62 be
       0.19726743 0.33633456 -0.076184124 -0.22093906
000250 dc 74 77 be 72 8a 20 3d b0 0b ee bd e8 4e 51 3d
       -0.24165672 0.03919453 -0.11623323 0.05110064
000260 75 d3 ce 3b 79 41 b2 bd 57 89 78 be 2e 81 2a 3c
       0.0063118287 -0.08703894 -0.24271141 0.010406775
000270 a7 ab e9 3d 77 53 a4 3e 99 8c 9c 3d 6c bc 98 be
       0.11409693 0.3209493 0.076440044 -0.29831254
000280 91 6f 56 3e a0 1a 0f 3e 1b 0c a2 be 53 c5 93 bd
       0.20940997 0.13975 -0.3164986 -0.07215371
000290 d7 bb d7 bd 4e 00 0c be 3d c4 83 3b 53 9a f5 3c
       -0.105338745 -0.13671991 0.004021196 0.029980814
0002a0 ae de 4a be 29 7f 82 be 0a 5e ce be db d8 ed 3c
       -0.19811508 -0.2548764 -0.4030612 0.029034069
0002b0 10 3c 94 bd 39 d6 2b 3e 1a df 08 3c ad 33 ae be
       -0.072380185 0.16780938 0.008353973 -0.340238
0002c0 60 e7 b4 bd 70 2e 84 3c 40 ce 56 3d fc 4e 7c be
       -0.08833194 0.016135424 0.05244279 -0.24639505
0002d0 36 8a 75 be b0 1c 21 3d 40 3c 8c 3c e4 88 07 3e
       -0.23978505 0.039334 0.017118573 0.13235813
0002e0 a0 00 0c 3c 66 93 5d be 74 ef 83 bd 4c b4 f6 bd
       0.008545071 -0.2163826 -0.064421564 -0.12046108
0002f0 28 0e 95 bd 80 e3 14 3d 54 30 8e 3d b8 44 4a 3d
       -0.07278091 0.036349773 0.069428116 0.04938194
000300 3a c0 7e 3e 97 a8 50 bd e7 b8 54 be fa 03 3b 3e
       0.24878016 -0.05094203 -0.2077366 0.18263236
000310 3a 35 28 bd 7f 2f 28 be d5 2f 12 bd 7a f7 1b be
       -0.041066386 -0.16424368 -0.035690147 -0.15231124
000320 4f 06 9e be 4a 64 e1 3d 33 80 b3 be 83 93 8c be
       -0.30864188 0.11005457 -0.35058746 -0.27456293
000330 a7 9d aa 3e 74 6c 7d 3e ca d7 30 3e f4 9e af be
       0.33323404 0.24748403 0.17269817 -0.3430096
000340 ec 0f 4b 3d b6 98 b2 3e 9b f3 9a be 16 16 76 3e
       0.04957573 0.34882134 -0.3026398 0.24031863
000350 16 15 86 be be 83 09 bd 24 fd 8c be 78 ab b7 bd
       -0.26187962 -0.033572905 -0.2753688 -0.08968252
000360 f0 a3 e2 3d a7 d2 2f be c0 04 8e be b8 3a cf 3d
       0.11066425 -0.17170201 -0.27738 0.101186216
000370 8a 54 46 bb dd 66 f1 3d 2e da a2 bd 56 b5 be bd
       -0.0030262792 0.11787198 -0.07951771 -0.09311931
000380 ac f5 22 3e 91 d9 9f 3c 36 dc 78 bc d7 e2 31 bd
       0.15914029 0.019512923 -0.015189221 -0.043429222
000390 de 2d 26 be a6 02 80 3c 69 1a 24 3d 16 23 b5 be
       -0.16228434 0.015626263 0.04006425 -0.3537833
0003a0 68 d5 b6 be fe 56 81 bd 62 32 b6 be a3 77 74 be
       -0.3570969 -0.063154206 -0.35585314 -0.23873763
0003b0 d6 90 d4 3b 4a 32 87 3d 12 c2 f6 bc de c7 c6 be
       0.0064869924 0.06601389 -0.030121837 -0.38824362
0003c0 f9 71 a8 3e 95 45 aa 3e 5b 5d bd be b3 b4 2e 3e
       0.32899454 0.33256212 -0.36985287 0.17061119
0003d0 45 25 d2 3c f2 ce 11 be b2 6f 89 bd cf 28 ad be
       0.025652537 -0.142391 -0.06710757 -0.33820197
0003e0 4d 69 bd 3d 23 c4 e5 3d af 7d d1 be 69 97 08 be
       0.092486 0.11219051 -0.409162 -0.13339008
0003f0 8f 12 1d 3e 5f d9 64 3e 48 87 a3 3e c5 e4 99 be
       0.15339111 0.22348545 0.3193915 -0.3005735

bias f4 [32]
000000 c6 60 61 be 2d 99 8d 3e 7b 58 a9 3d 80 28 53 3c
       -0.22009572 0.27655926 0.082688294 0.012888074
000010 6f 8e 93 3e 78 eb 55 be 3e 14 3b be d7 9e 96 3e
       0.28819606 -0.20890605 -0.1826944 0.2941806
000020 b0 95 2f be 6a 84 30 3e dc 4e ab 3d 04 d4 61 be
       -0.17146945 0.17238012 0.083646506 -0.22053534
000030 0a 30 94 3e 65 66 74 3e da 3e 62 3e 23 76 0f 3e
       0.289429 0.23867185 0.22094288 0.1400991
000040 23 e3 f6 3d b7 ba 6d 3e 86 1a 06 3e 25 9c 2a 3e
       0.12055042 0.23215757 0.13096055 0.16661127
000050 e6 33 23 be 66 ea 5e 3e a4 13 42 be b0 18 28 3e
       -0.15937766 0.21769103 -0.18952805 0.16415668
000060 94 07 54 bd cd d9 d2 3d f7 0c fe bd 00 34 7d bd
       -0.05176504 0.102954485 -0.124048166 -0.06181717
000070 1f a7 d4 3d b7 59 25 3e f3 4e 07 3e 09 62 8d bd
       0.10383438 0.16147505 0.1321371 -0.06903464

weight f4 [32, 32]
000000 e1 a4 2a 3d 9c 93 49 3e d1 54 3e 3e 7b e4 a4 3d
       0.041661147 0.19685215 0.18587042 0.08051392
000010 de fa e5 bd 1e 09 ac 3d 09 30 2d bd e7 94 96 bd
       -0.1122949 0.084001765 -0.042282138 -0.073526196
000020 92 0f 04 3d 2e a0 24 3e 0b 7a 0a 3e 09 e7 85 3d
       0.03224141 0.16076729 0.13523118 0.06538207
000030 24 22 e3 3d 6a 3e dc 3d b7 c6 00 be db 35 9d bd
       0.11090496 0.10754092 -0.12575804 -0.07676288
000040 75 fa 12 3e 73 36 5b 3e ac 3a 8e 3e 43 1f 2e 3d
       0.14353354 0.2140749 0.27779138 0.042510282
000050 26 55 2f 3d 51 39 fe ba 4f c5 e9 3d e0 da 52 3d
       0.042805813 -0.0019395744 0.11414587 0.051478267
000060 1f b6 3a 3e 49 38 4f 3e c1 29 56 bb 82 a5 02 bd
       0.18233536 0.20236315 -0.0032678696 -0.03189612
000070 0a 7d 8c bc 7f 55 36 3e ba c3 34 bd 6e 50 01 be
       -0.017149467 0.17806052 -0.044131972 -0.12628338
000080 21 f6 f2 3d 50 24 e2 3d 82 76 68 bd 1c f3 2b 3e
       0.118633516 0.11042082 -0.056753643 0.16791958
000090 a2 0d cd bd 17 ce fa 3c ce 1e 03 be 99 b4 14 be
       -0.10012366 0.03061585 -0.1280472 -0.14522018
0000a0 32 2b e0 bd f9 8a 8c bc 15 06 49 bc f5 53 76 bc
       -0.10945739 -0.017156111 -0.0122695165 -0.015034665
0000b0 7c 87 1e be 8e 0d 13 be 89 1c 25 3d 43 19 f3 bd
       -0.1548137 -0.1436064 0.040310416 -0.11870053
0000c0 c6 81 b6 3d 31 ca d2 bd 77 3e 2d be 39 03 6f 3d
       0.08911471 -0.10292471 -0.1691836 0.058352683
0000d0 26 13 e7 bd 43 b6 26 be 5e 38 2f 3e 1f 0d 5d 3d
       -0.11282949 -0.16280465 0.17111346 0.05396759
0000e0 55 6a 0f bd 01 27 29 3e 72 c3 19 be 89 97 a1 bd
       -0.035013516 0.16518785 -0.15015963 -0.07890231
0000f0 79 c1 6a bd a4 f6 01 3e 28 cf a8 bd 8b c6 82 bd
       -0.057313416 0.12691742 -0.08242637 -0.06385525
000100 2e 5c 14 3e 7e 7d 7e 3e 8b aa 06 3e 9b 11 54 bd
       0.14488289 0.24852559 0.13150994 -0.051774602
000110 d5 b0 31 3c 70 0d 2a be 8e 9e 51 bd e0 ea 6a 3e
       0.010845383 -0.16606688 -0.0511766 0.2294116
000120 da 86 3f bd e8 32 c1 bc 4b 16 39 3e b7 99 1a 3e
       -0.046759464 -0.023583844 0.1807491 0.150977
000130 6f 19 ac 3d 15 99 e8 3b 1b 93 7e 3e 8c 46 5b 3e
       0.084032886 0.007098327 0.24860804 0.2141363
000140 01 ce 6e 3e c1 a0 b8 3d 2a ac 84 3e 21 a4 e7 3c
       0.23320772 0.090150364 0.259126 0.028276505
000150 1c e7 01 3e b8 12 18 3e ba d0 89 3d 3d 9b 0d 3d
       0.12685817 0.1485089 0.067292646 0.034571875
000160 e0 f3 6c 3e 7f 43 46 3e 3f a9 46 3e 20 22 8e bc
       0.23139906 0.19361685 0.194005 -0.017350256
000170 9c 11 4b 3e ec d2 26 3e 95 95 8b bd 5b 5e e8 3c
       0.19830936 0.16291398 -0.0681564 0.028365305
000180 1b 7e 53 3c 2a da 60 3d cd 83 09 3e 49 54 4e 3d
       0.012908484 0.054895557 0.13429184 0.05037335
000190 e2 2d 57 3e 7d 1d 6e bd ed 26 22 bd e2 3a 34 3e
       0.21013597 -0.05813359 -0.039587904 0.17600587
0001a0 76 05 82 3b 4d ec 45 3e 34 40 9e 3e be 71 f9 bd
       0.003967936 0.19328423 0.30908358 -0.12179898
0001b0 ae 09 ec bc 68 1e 74 3e cd 05 03 3e f3 96 34 3e
       -0.02881321 0.23839724 0.12795182 0.17635708
0001c0 62 bc 16 3e 33 69 90 3d c8 b3 9c 3e 67 5e 78 3e
       0.147203 0.07051315 0.30605912 0.24254762
0001d0 1c cb e9 bb 92 db 1b 3e 43 cc 16 3e 84 43 6a 3e
       -0.007134808 0.15220478 0.14726357 0.22877318
0001e0 8e 3c 8a 3e f2 86 98 3e e5 97 0f 3e 16 44 34 be
       0.26999325 0.29790455 0.14022787 -0.17604098
0001f0 f0 a6 5c 3e a3 c6 2d 3e 5e 41 dd bc 56 cc ed 3b
       0.21548057 0.16970305 -0.027008709 0.0072570248
000200 2e cc 7c bc 26 ba 3b bc 01 07 91 bd ba 23 e4 3d
       -0.01542954 -0.011457955 -0.07081414 0.11139627
000210 76 ad 20 be da d7 38 3d ea cc ee 3d 82 32 2c bd
       -0.1569117 0.045127727 0.11660178 -0.042040356
000220 68 c2 bc 3d 9a 67 27 be 61 b1 13 be 9a e8 24 3e
       0.092167675 -0.16348115 -0.14423133 0.16104355
000230 71 5a 2e bb 32 98 c3 3c 84 ff 49 3d 78 98 a4 3d
       -0.00266042 0.023876283 0.049315944 0.080368936
000240 15 b8 27 3e 0b 90 bd bd 93 60 ec bd a8 e4 30 be
       0.16378815 -0.0925599 -0.115418576 -0.17274725
000250 c5 31 ff 3d 6a d5 02 be 20 04 58 3d 49 75 84 3d
       0.12460665 -0.12776724 0.05273831 0.06467683
000260 1a 02 2b 3e 6c cb 94 3d dd 45 2a 3c 29 bd 96 3d
       0.1670002 0.07265362 0.010392633 0.07360298
000270 85 5e 70 3d 4b 29 92 bd 6e ab 24 bb 35 69 bd bd
       0.05868389 -0.07136782 -0.0025126594 -0.09248582
000280 f9 b3 ac bd 61 2b 76 3e 4d f8 6e 3e da b4 88 3e
       -0.084327646 0.24039985 0.23336907 0.2670048
000290 cc 25 88 3e b3 67 83 3d 83 19 28 3e d7 29 47 3e
       0.26591337 0.064162634 0.16415982 0.19449554
0002a0 d8 4f e2 3d 5d 6d 81 bd e0 e0 46 3d 38 0d c5 bc
       0.11050385 -0.063196875 0.0485543 -0.024054155
0002b0 6d f0 8e 3a 15 bf 1a 3e 74 43 84 3e 3f 03 1e 3e
       0.0010905393 0.15111955 0.25832713 0.15430926
0002c0 62 7f 61 3e 46 0a 82 3e 5f c4 8c 3e 90 95 21 3e
       0.22021249 0.25398463 0.2749357 0.1577971
0002d0 3e 4d ce 3d 23 d6 95 3e f6 ed af 3d f9 ec 29 3e
       0.100733265 0.29264936 0.08590309 0.16594304
0002e0 94 88 f5 3d 4f ae f7 bc 9a 8e 42 3e 22 33 31 bd
       0.11988941 -0.030234484 0.1899971 -0.043261655
0002f0 38 61 85 3e 92 f4 8b 3e bc ce 8a 3d c5 92 05 3e
       0.26050735 0.2733503 0.06777713 0.1304427
000300 5c 61 f2 bd 14 c7 c6 3d 35 2d ab 3d 8e 04 a5 3d
       -0.11834976 0.0970594 0.08358232 0.08057509
000310 d5 fd 64 bd 60 bc 2b be 71 8b c0 3d d0 07 c4 bd
       -0.055906136 -0.16771078 0.09401596 -0.095718026
000320 e7 46 d8 3c 47 bd 38 bd 80 05 3b bd 27 af 0d be
       0.026400996 -0.045102384 -0.045659542 -0.13836347
000330 a7 6e c9 bc d4 ad 2d bd ea 97 3f 3d 8f 37 06 3e
       -0.024588896 -0.042402104 0.046775736 0.13107131
000340 2f 36 13 3e 6d 98 e0 bd 8a 59 3c 3d 88 ce 37 3d
       0.14376138 -0.10966573 0.04598383 0.044874698
000350 6a c7 f6 3d a7 42 08 be f5 0d 5c bc e1 c6 b2 bd
       0.12049754 -0.13306676 -0.013431062 -0.087293394
000360 f7 a0 04 bd 1a be d6 bd 82 9e 62 3d 60 65 0d 3e
       -0.03238007 -0.10485478 0.055326946 0.13808203
000370 7f c1 63 3d 9f 49 b3 bd 7c b7 8f 3d 6b 48 15 be
       0.055604454 -0.087542765 0.07017419 -0.14578407
000380 26 46 3f bd a1 ad 50 3d 7f 2c 29 bc 0b bd b5 3e
       -0.04669776 0.050946835 -0.01032555 0.3549579
000390 9a c0 a2 3e 03 b9 0b 3e 82 aa cf bd 33 9a 8e 3e
       0.31787568 0.13644795 -0.10139944 0.2785202
0003a0 65 1a 10 be ed 19 6c 3e 5a 6f b2 3e 8b 0e 0c be
       -0.14072569 0.23056765 0.3485058 -0.13677423
0003b0 5b 64 e6 3d 96 5c 56 3e b7 04 a4 3d c7 5a 45 3e
       0.1124961 0.20933756 0.08008712 0.1927291
0003c0 ff a3 f8 3d 5a 86 97 3d d5 b0 d7 3d 8a 15 82 3c
       0.12140655 0.073986724 0.10531775 0.015879411
0003d0 dd 6e 03 be 7f 2d 3d 3e f9 7e 31 be c5 03 d8 3d
       -0.1283526 0.18474387 -0.17333592 0.10547594
0003e0 9a d5 34 3e 49 ed aa 3e 6c 42 38 bd c4 a9 75 3d
       0.17659608 0.3338416 -0.04498522 0.059976354
0003f0 1b 73 55 3e 58 56 3a 3e 63 77 1a 3e fe 28 da 3d
       0.2084469 0.18197 0.15084605 0.1065235

bias f4 [32]
000000 bd ff e6 3d 7b 17 96 3d 0c f5 5f 3e 39 73 37 3e
       0.11279247 0.07328697 0.21870822 0.17915048
000010 b2 14 92 3d 6e 96 44 3d 30 d9 a5 bc e6 05 04 3e
       0.071328536 0.047995023 -0.020245165 0.12892875
000020 46 eb 1d be bc 4b 77 bd 5a 45 87 bd 68 7a 1a be
       -0.15421781 -0.06037496 -0.06605025 -0.15085757
000030 e4 ca 0f 3e e4 4e 91 bd d3 7d 95 3e 6a 6e 33 3e
       0.1404224 -0.07095125 0.2919756 0.17522588
000040 45 e1 5a 3c 04 d8 a7 bd 39 8f ba 3d 10 23 4a 3e
       0.0133593725 -0.081954986 0.09109349 0.19739938
000050 e9 66 ed bd 5b 79 ed 3c 5b 6b 30 3e 66 a6 8a 3e
       -0.11591894 0.02898853 0.17228453 0.27080077
000060 20 a4 0d be de 31 45 3e b5 68 22 bd 1e 07 b5 3d
       -0.1383214 0.19257304 -0.039650638 0.08839248
000070 fc 63 b6 bd bd 8e 87 bc a2 d1 a1 3d dc 01 bf 3d
       -0.08905789 -0.016547555 0.079013124 0.093265265

weight f4 [32, 32]
000000 ce d8 b9 bd 76 8c 93 bd 08 f7 15 be ba 88 80 bc
       -0.09074555 -0.07204525 -0.14645016 -0.015690196
000010 b3 0a e9 3d 8f f9 b6 3d d1 11 23 be 49 31 9e 3c
       0.11378994 0.08934318 -0.15924765 0.01931061
000020 06 15 d9 3d 1a be a4 bd c8 80 30 be 58 75 c2 3d
       0.10599713 -0.080440715 -0.17236626 0.09495038
000030 53 38 b1 bb 67 97 04 bd 12 b5 13 be 74 6a 00 3c
       -0.0054083257 -0.03237095 -0.14424542 0.00783788
000040 87 60 fd 3d ee 72 ef 3d 02 b2 92 3d 3a ff 25 be
       0.12371927 0.11691843 0.071628585 -0.16210642
000050 4b c9 9e 3d db b5 ad 3d f1 4e 26 bd ad 61 b6 bd
       0.07753237 0.08481952 -0.04060263 -0.08905349
000060 9d 3e a2 3c 25 0c 95 bc 7b 3f 24 3e 84 bd fa bd
       0.019805247 -0.018194268 0.16039841 -0.122431785
000070 5b 19 7f 3d 46 86 13 3e dd 8f 01 3e 19 4f 69 bc
       0.06228004 0.1440669 0.12652536 -0.01424005
000080 52 58 72 3d 08 f1 1a 3e 0a aa 85 3e fa ee b8 3d
       0.05916626 0.15131009 0.26106292 0.09029956
000090 99 a4 e0 3d 39 0b b3 3d be e4 b4 bd 29 74 a2 3e
       0.109688945 0.08742375 -0.088326916 0.31729248
0000a0 b0 92 16 3d 22 aa 1b 3e a4 11 04 3e f1 9e c6 3d
       0.036760986 0.1520162 0.12897354 0.096982844
0000b0 d3 97 dd 3c a7 59 de bc 8e 70 82 3e ca 4c bf 3d
       0.027049934 -0.027142359 0.25476497 0.09340818
0000c0 e7 85 02 3d 1e 1b c8 3d 66 e5 1c 3e 77 58 39 3e
       0.03186598 0.09770797 0.15321884 0.18100153
0000d0 62 2d dc bd 12 38 8c 3e 60 2d 8e 3e a8 e8 10 3e
       -0.107508436 0.27386528 0.27768993 0.14151251
0000e0 eb ea 5b 3e 2b a6 0e 3e 9a d4 0f be b9 b5 4f 3e
       0.21476333 0.13930576 -0.14045945 0.20284165
0000f0 48 6a f7 3d 46 b5 0e 3e c1 c5 b0 3d 22 c7 67 3e
       0.120808184 0.13936338 0.086314686 0.22634557
000100 8c 53 d9 bd 31 b3 8a bb f8 cb a2 3d 66 97 24 be
       -0.106116384 -0.004232787 0.0794906 -0.16073379
000110 4c 6a 5d 3d 00 af 02 3e c4 46 0a be 70 2c a4 3d
       0.05405645 0.1276207 -0.13503557 0.08016288
000120 98 b0 d8 3d 70 41 f9 bd 92 51 c6 bd 50 fd 88 3d
       0.105805576 -0.12170684 -0.09683527 0.066889405
000130 7c 32 e9 bd e0 ef 0f 3e fb 19 24 be 82 da b5 bd
       -0.11386582 0.14056349 -0.16025536 -0.08879568
000140 b5 46 75 3d b4 96 bb bd 0b 3e a5 3d 54 34 e7 3d
       0.059881885 -0.09159604 0.080684744 0.11289278
000150 28 96 a3 bd 8c 74 25 be d2 d5 1e bd 80 cb 6e 3d
       -0.079876244 -0.1615774 -0.038778134 0.05829954
000160 4f 7b ab 3c c9 4a c4 bd 57 c6 1a be 68 06 03 3e
       0.020932822 -0.09584577 -0.15114723 0.12795413
000170 63 2a de 3d 6c 83 1c 3e 75 3a 9a bc 80 0b 05 bd
       0.108479284 0.15284508 -0.018826703 -0.03248167
000180 a2 81 87 3d c1 d8 a1 bd 18 88 8d 3c c4 bd a7 3d
       0.06616522 -0.07902671 0.017276809 0.08190492
000190 5c 43 c4 3d c5 1f 00 3e 7e 69 e9 bd 5b db c0 3c
       0.0958316 0.12512119 -0.11397074 0.023542097
0001a0 0c 8c f1 bd 7c 63 8a bd 61 d7 c6 bc 90 be 1c 3e
       -0.1179429 -0.067572564 -0.024272623 0.15307069
0001b0 e4 6f 92 bd 9c 81 a1 bd d1 60 c6 bd 5d 56 1a 3d
       -0.07150248 -0.07886049 -0.09686435 0.03768002
0001c0 b7 e0 85 bd 58 13 e6 bd 30 d9 2f be 45 aa d7 3d
       -0.065370016 -0.11234158 -0.17172694 0.10530523
0001d0 d6 b3 22 3d e1 ab 38 bc b0 c9 63 3d 6e 8f 94 bd
       0.039722286 -0.011271448 0.055612266 -0.072539195
0001e0 54 19 83 bd 35 43 c3 3d 17 d1 2f 3d dc e7 0c bd
       -0.06401315 0.09534303 0.042924013 -0.034400806
0001f0 4f c8 19 be 96 3d 91 bd 58 40 5c 3d c2 8a 93 3d
       -0.15017818 -0.07091825 0.0537723 0.072042
000200 70 8f 2f 3e 42 43 25 bb 2d f7 1d 3e 5e 68 92 3e
       0.17144561 -0.002521709 0.15426321 0.2859525
000210 31 e2 05 3e 1a 29 5c 3e e5 e6 21 3e 92 26 82 3e
       0.13074566 0.21500054 0.15810736 0.25420052
000220 ae a0 4c bc 88 51 0f 3e 9d 1a ea 3d 29 e2 87 bc
       -0.012489481 0.13995945 0.11430857 -0.016587334
000230 38 00 97 bc fd c6 e7 b9 b0 cf 20 bd 6d 8f 91 3e
       -0.018432721 -0.0004420801 -0.039260566 0.28429738
000240 6c ea f2 3d b1 14 83 3e e8 1d bb bc 75 b2 dd 3d
       0.11861119 0.25601724 -0.022841409 0.108250536
000250 6e 85 13 be 15 2f 69 3e 9f 38 03 3e 43 e0 26 3e
       -0.14406368 0.22771867 0.12814568 0.16296487
000260 a2 58 4d bd ba b9 3c 3e 44 cf 29 bd 8d 78 35 3e
       -0.050133355 0.18430224 -0.04145743 0.17721768
000270 f2 25 84 3d 86 e9 17 3e 0d 65 5d 3e 98 07 38 3c
       0.0645255 0.14835176 0.21620579 0.011232279
000280 81 b6 8d bc fc b6 da 3d f2 ff 92 3e 2c fb 9f 3e
       -0.017298939 0.10679433 0.28710896 0.31246316
000290 10 b3 1e bd e9 e9 7d 3e fa 0a f1 bd f1 33 88 3e
       -0.038744986 0.24796261 -0.11769672 0.26602128
0002a0 49 ef 75 3d 1d eb 95 bd 65 6c 96 bd 37 55 09 3d
       0.060042653 -0.07320235 -0.07344893 0.033528533
0002b0 71 0a d8 3d fb 00 ba bc 1d 26 19 bb 81 ad 8a 3e
       0.105488665 -0.022705546 -0.0023368665 0.27085498
0002c0 88 76 a8 bd 04 e7 28 3e 98 7e 2a 3e 89 61 16 3e
       -0.08225733 0.16494375 0.16649854 0.14685644
0002d0 df f0 19 be 6b 54 03 bd 25 c6 36 bc fb 05 37 3e
       -0.15033291 -0.03206293 -0.01115564 0.17873375
0002e0 43 a4 f9 3d 09 29 d4 3d d9 1e b7 3d 18 be cd 3c
       0.121895336 0.10359389 0.089414306 0.025115058
0002f0 97 5c bd 3c 6c c6 86 3d ba f3 9d 3d 6f 06 38 3e
       0.02311544 0.06580815 0.07712503 0.17971204
000300 af 7a 10 be 16 3e 1d 3d f2 d9 2e be 94 7b 17 3d
       -0.141093 0.038389288 -0.17075327 0.036983088
000310 a6 16 08 3e da 2a c5 3d 16 2e 1d bd 30 aa 0e bd
       0.1328989 0.09627314 -0.03837403 -0.034830272
000320 c8 2a 78 bd b9 b3 ff bd dd 65 fd bd 74 87 d9 3d
       -0.060587674 -0.12485451 -0.123729445 0.10621539
000330 8b 28 be 3d 49 82 78 3d 18 03 ff 3d 4a 60 2b be
       0.09285077 0.060671125 0.12451762 -0.1673595
000340 cc f1 cb 3d 4a 12 e7 3d 41 76 30 3e 19 8f bc bb
       0.099582285 0.11282785 0.1723261 -0.0057543633
000350 93 c1 2d 3e 37 41 32 be a9 5f d8 3d f4 e0 ec bd
       0.16968374 -0.1740769 0.10565121 -0.11566344
000360 3f 82 a5 3d a9 3d 79 3d 1a 4b 6d 3c ca 3c 23 3e
       0.08081483 0.06084982 0.014483238 0.15941158
000370 38 9c 06 3e b9 f4 2c be c8 da 03 be e9 7f 85 bc
       0.1314553 -0.1689023 -0.12876427 -0.016296344
000380 02 8a 4d 3d 55 a3 17 3e 8a d8 01 3e 25 ae 8e bd
       0.050180443 0.148084 0.1268026 -0.06966809
000390 d7 bc d0 bd e2 bc dd 3d e5 3f e9 bd 5b d0 e9 bd
       -0.10192268 0.10827042 -0.1138914 -0.11416694
0003a0 b9 b1 be bc 96 51 01 3e 22 65 30 be ff 76 e9 bd
       -0.023278104 0.12628779 -0.17226079 -0.1139965
0003b0 68 33 64 bc c6 05 c1 bd a2 fb 3d be 6f 47 bf 3c
       -0.013928272 -0.09424929 -0.18553022 0.023349492
0003c0 bb cf 9b bd f4 5a cd bd 3d 7a 0b 3e b0 23 07 3e
       -0.07607981 -0.100271136 0.13620849 0.13197207
0003d0 97 c1 87 3d 12 d7 48 bd c9 b0 d5 3d 8d 89 7a be
       0.06628721 -0.049033232 0.1043411 -0.24466534
0003e0 1a 8f c6 3d 03 5d 25 bd 4f d4 93 bd db 68 a6 3d
       0.09695263 -0.040371906 -0.07218229 0.08125468
0003f0 90 84 67 3d a7 04 ca 3d 3e 6e c9 3c f3 18 0a 3e
       0.056522906 0.098641686 0.0245887 0.1348608

bias f4 [32]
000000 19 fe 1f bc 2a 97 34 3c e6 56 f8 bd 15 24 4d be
       -0.009765171 0.011022368 -0.121259496 -0.20033295
000010 d2 09 07 3c 8d 01 6b 3e 95 58 16 be 82 72 4f 3d
       0.008242087 0.2294981 -0.14682229 0.050646313
000020 69 d7 d6 3d de 7a 9d bc 76 58 20 3e 52 61 4d bd
       0.10490305 -0.019223627 0.15658745 -0.05014164
000030 9b 83 3a bd 83 7e eb 3d 41 f8 2d be b0 76 44 3e
       -0.045535665 0.114987396 -0.16989233 0.191859
000040 21 2d 00 be bf 1a 95 3d fb fe 99 bd ef bc ed bd
       -0.12517215 0.07280492 -0.07519337 -0.11608302
000050 0c b4 70 3d 4d e0 36 bc 25 2d 7a bd 64 2a 05 3e
       0.058765456 -0.011161876 -0.06107821 0.13004452
000060 aa b5 06 bd 6c 35 d7 bd 32 04 23 3e 8f fc b9 bc
       -0.032888092 -0.10508236 0.15919569 -0.022703437
000070 cf 59 85 3e c4 9f 52 bd b9 03 2f 3d 1c 46 be 3c
       0.2604508 -0.051421896 0.04272816 0.02322679

weight f4 [1, 32]
000000 fa d6 c5 bc 60 dd 1b 3e 6a a9 c1 bc d7 c9 29 bd
       -0.02415036 0.15221167 -0.023640353 -0.041452255
000010 ae 39 1b 3e 6f 02 10 3e e5 53 e3 bc 20 aa 97 bc
       0.15158722 0.14063428 -0.027749965 -0.01851374
000020 26 f5 4a 3e fc 02 17 3d bc 91 63 bc 33 9d 48 3c
       0.19820079 0.03686808 -0.013889726 0.01224451
000030 f0 f0 93 3c 1d 38 80 bc 37 ac 9d bc 9a bc 18 3e
       0.018059224 -0.015651757 -0.019247157 0.14915696
000040 a8 4e e4 bc 36 b4 8e 3b 7a 35 0b 3e de d3 07 bc
       -0.027869537 0.004354979 0.13594618 -0.008290259
000050 4a 1f 2b 3e c9 7f 3a bc 9f a1 1b bc 2b df 4d bc
       0.16711155 -0.011383005 -0.009498983 -0.012565414
000060 1a c5 8d 3c 64 80 29 bd 3f ce 88 3d 5f 53 8c bc
       0.0173059 -0.04138221 0.06679963 -0.017129598
000070 13 07 fd 3d f5 a3 f0 3c 6d e2 b5 3c 6e e5 ad 3c
       0.12354865 0.029375056 0.022202695 0.021227565
