models/patient20/ppo_model_for_patient_20_Actor.pth (torch, 24020 bytes, 12 tensors)

weight_ih_l0 f4 [64, 2]
00000000: b66e 01be 1edc 32be 7ad7 08bd cdac 61be
00000010: 2389 9ebe 7f37 853c 0e1a 3f3e fb4e 8dbe
00000020: 3414 92bd 9baf 243e 50df 38be 1839 c63d
00000030: d2a7 15be f3a4 5b3c e082 d13d bb8d 56be
00000040: bd2d 6a3c edd9 19bd 46bd 033d b73a f93d
00000050: 26cd 7abe 28bc 59bd 3964 4cbe 3a39 3fbe
00000060: ce9e 8a3d 90f0 9abe ddf7 6cbe d1da 86be
00000070: aff9 47bd 4f2c 91bd 6755 62be a17b 95be
00000080: a432 fa3d fffa 18be f0a9 d0bc 1903 5f3e
00000090: a588 b8bc f239 c6bc ce9e a03d f19f 97be
000000a0: f2ba 77be 24be 303e 5ddc 103e e9f6 5dbe
000000b0: eadd 82be cb2c 62be 089f 4dbe 7d07 47bd
000000c0: a65a 1abd 40cb d7bd ebb7 03bb d392 d53d
000000d0: bd41 a7bd 7b8e 9dbd ea4e 2e3e fd23 20be
000000e0: 0bdf 90be ed3b cb3c df76 8cbd edda a1be
000000f0: ca87 393e 2672 07bd 53c2 11be edb4 113e
00000100: 3b79 e2bb df47 b53b 9504 79bb 5bb1 0ebd
00000110: 7584 253e 3a15 77be 5e50 443e dcb9 433c
00000120: d47f fbbd 5694 7c3d f6fa e73d 3eea 2e3e
00000130: da0d 643e f325 88bd d9d9 1abe 75d6 23be
00000140: 6e2d 933e f344 953d b46a 6f3d 3994 05bd
00000150: d92e 82bd 1e07 cabd 10ed e63b 4cd2 6fbe
00000160: 36d7 d73a 6da0 2e3e bd4d d1bc 33be e9bd
00000170: 8cb3 88be 5657 eb3d 7465 853e 178f 7e3e
00000180: a9fe 963c cd74 483e fe46 52be 4ce4 0e3d
00000190: b836 45bd 453f 0ebe 1b51 81be d0ae 0fbe
000001a0: 2d4f eabc a831 8abd 932f 43be 6b9e e8bd
000001b0: d2a4 fd3d e4c7 cd3d c314 a3bb c72f bd3d
000001c0: 03f2 40bd fc89 56bd 169b 45be 3485 5e3d
000001d0: 7b88 f63d c52b 86be 7069 b63c 9c2e 41be
000001e0: 0280 41be 638f 833d 9211 233e 3249 ca3a
000001f0: 9cbf 953d f5ab 0d3d 8825 6ebe 5346 89be
-0.12639889 -0.1746678 -0.03340862 -0.22038575 -0.30964002 0.016261814 0.18662283 -0.2759932
-0.0713276 0.16082613 -0.18053937 0.096788585 -0.146148 0.013406026 0.102300406 -0.20952503
0.014293131 -0.037561346 0.032162927 0.12169402 -0.2449232 -0.053157955 -0.19960107 -0.18674174
0.06768571 -0.3026166 -0.23141427 -0.2633882 -0.0488221 -0.07088529 -0.22102891 -0.29195884
0.1221669 -0.14939497 -0.025471658 0.21778525 -0.022526095 -0.024197552 0.078427896 -0.29614213
-0.24192408 0.17260033 0.14146562 -0.2167622 -0.25559932 -0.220874 -0.20080197 -0.048591126
-0.037684105 -0.10536814 -0.0020098637 0.10428395 -0.081668355 -0.076931916 0.17022291 -0.15638728
-0.28295168 0.024808848 -0.0685861 -0.3161234 0.18118206 -0.033067845 -0.14234285 0.14229174
-0.0069114245 0.0055322493 -0.0037997116 -0.034837108 0.1616381 -0.24129191 0.19171283 0.011946168
-0.12280241 0.0616649 0.11327164 0.17081544 0.22270909 -0.06647863 -0.15122165 -0.15999778
0.28745598 0.07288542 0.05845137 -0.03261206 -0.06356592 -0.09864639 0.007047303 -0.23420066
0.0016467336 0.17053385 -0.025549764 -0.11413231 -0.26699483 0.114912674 0.26053965 0.24859272
0.018431978 0.19575806 -0.20534894 0.03488569 -0.048147887 -0.13891323 -0.2525719 -0.1403153
-0.028602207 -0.067477524 -0.19061117 -0.11358341 0.123849526 0.10047892 -0.00497684 0.092376284
-0.0471058 -0.052377686 -0.19297442 0.05432625 0.1203775 -0.26205269 0.022267073 -0.18865436
-0.18896487 0.06423833 0.15924671 0.0015433191 0.07311937 0.03458782 -0.23256505 -0.26811466

weight_hh_l0 f4 [64, 16]
00000000: eb60 323c d3b9 5bbd 8411 9c3e bf6b f5bd
00000010: 2057 9bbe 8fa1 2cbe 228d 463e 3273 0cbe
00000020: c53e 3abd b1c3 583c 6681 3fbe 8f72 503d
00000030: 7f48 3abe 4415 a6bc 0604 d13d e268 0fbe
00000040: f59b ea3d de0a 3b3e d721 62be 12d2 1ebe
00000050: 747a 42be 3b97 b2bc c434 1c3e 886c 19be
00000060: d622 6c3e ac08 7abd d174 a23d 5b33 bb3d
00000070: d07f 393e b548 c33d 152d 563e 1a7d 86be
00000080: e9e2 d93d 277b a5bd 3dee b5bb bdce de3d
00000090: cfd2 5e3d d940 893d 8321 54be 52de 9a3e
000000a0: 4ca4 66bc 9300 223d 8afa 1abe 026f 723e
000000b0: d19f b7bc 5870 7a3e 875b 2abd 191e 41bb
000000c0: f4a2 783e be36 1d3e d7e8 903d 8612 52be
000000d0: ce9c d5bd c2c3 46be 1f3c ee3d 544d 923d
000000e0: 79b9 32be b2e0 cb3c 4375 92bb e884 30be
000000f0: a53f 513e a2b9 d93d 69ce ab3c 9593 2b3d
00000100: d7fe 34be 48c5 82bd 4063 073e 1c86 94be
00000110: ecaf d9bd d41c 3ebd cfc5 61bd e767 b8bd
00000120: dc97 483e 6d6a 93be 6c67 803e 5656 ea3d
00000130: f047 21bd e19c 4cbc 69f7 64bd 6482 88be
00000140: d347 473e ca45 0dbe 63a8 fcbd 818d 643d
00000150: 9c95 00be 0eeb 62be 257c e53d b512 0fbe
00000160: 7b29 7bbe 5f5e 9a3d a3f1 433e 062e 213e
00000170: 3d71 14be 9d42 0abe 684f fd3d 499b 00bd
00000180: d6ce eabd 893d 583e f9bb 193d 3ed5 353c
00000190: fe49 a1bd 7232 83be 104e e63d 3630 c83d
000001a0: c9e4 90be 1445 0dbd 1f83 29bd 8376 8ebc
000001b0: 0f79 a33d 7621 f73d a2de edbd 926a 48bd
000001c0: baea 903e 0863 0f3e 886a c43d 82d9 1f3e
000001d0: 83d1 22be 0db2 debd 6290 293e 82dc e2bd
000001e0: 3862 57be e0ad a73a f3c4 513e 383c 863e
000001f0: 65a3 803e fb1d 0b3e 43d7 29be 81d2 8bbd
00000200: 01cf f0bd 1ad9 cc3d ed7a 27be d0cc 053e
00000210: 04ff 06be e3dc e3bd d779 e83b 2353 353d
00000220: 737d 2cbe 9451 53be 7839 f5bd be43 973d
00000230: 42cd 1a3e d6f5 393e 0ba0 10be f6d1 07be
00000240: 38da 9a3d f8c0 bdbc 1c93 9f3e 23ab 0f3e
00000250: 774e 093e 0cd9 07be ad5c bdbd 5b40 5c3e
00000260: 40f9 a7bd 3f67 91bd 53ef 023e 6369 163e
00000270: 0f97 833e 30f2 6e3d 0c34 03be 9276 93be
00000280: 95ac 2b3d a3b1 c73d 885a 613e a6f1 523e
00000290: 4231 51bd 47ad 103e 6f52 4cbe 1869 6ebd
000002a0: 0dd9 03be 9006 e4bd 25a1 593e 8d87 883e
000002b0: dae0 e83c 9357 7d3e cd17 fcbd c93b 7bbe
000002c0: e480 1bbe f0b7 3dbd a5b1 81bc c95c 143e
000002d0: 909c 31be a16e 0a3e b526 57be 2de6 25be
000002e0: d51e 90be ccd4 37bc cde1 08be ed31 34be
000002f0: da99 2f3e f6eb 353e ca34 e73c f84a 72be
00000300: b244 243d e6f2 6e3e a0e9 393e 3384 d73d
00000310: 5b18 3d3e b791 2b3d c7ae aa3d 8c9d 713e
00000320: a1a1 8f3d b09b 1ebe 9745 fc3d cb4f 033e
00000330: da80 723e 9351 2abe d438 2fbe b5ab 223e
00000340: ba38 0dbe 66c3 983e 9223 f7bd 6c88 0abd
00000350: ae6c 95bd 56f1 23be ed4f 97bd 63bb 963d
00000360: e678 dfbd 8a16 47be 0a3e 263e ef6c a53d
00000370: cc98 963b 24ca c53a 5dc0 9c3e 649f 5abe
00000380: 0195 33bd 9aca 1fbd c404 263e 7695 253e
00000390: d8bc adbd bd3a 1abb beaa 18be 620c 0ebe
000003a0: 7a16 8b3c 9a53 23be 6306 4b3d 6eb7 0a3d
000003b0: 93c0 d53d 25f1 593e 3f6f 973e 6eeb f5ba
000003c0: f059 2abe 92ac 643e 3e32 823e 041a 9dbe
000003d0: f8d7 8ebe fd65 0a3e 713c d3bd 33b2 95bc
000003e0: 5d37 f03d d711 8fbd e7b8 153e 8bc6 0f3d
000003f0: 3555 053e 2c2c c7bc cf6b 0b3e 7659 023e
0.010887365 -0.053644013 0.30482113 -0.119834416 -0.3033991 -0.16858505 0.19389775 -0.13715819
-0.045470018 0.01323025 -0.18701705 0.0508905 -0.18191718 -0.020273812 0.102058455 -0.14004853
0.11455528 0.18265864 -0.22083221 -0.15509823 -0.18992025 -0.021800628 0.15254503 -0.14982808
0.23060164 -0.061043426 0.07932437 0.09140655 0.18115163 0.09535352 0.20915635 -0.2626732
0.10638983 -0.0808013 -0.005552082 0.10879276 0.05440026 0.06701822 -0.20715909 0.30247742
-0.014077257 0.03955133 -0.15134636 0.23675159 -0.022415074 0.24456918 -0.041591194 -0.0029467402
0.24280912 0.15352914 0.07075661 -0.20514879 -0.10430299 -0.19410613 0.11632561 0.071436554
-0.17453565 0.024887417 -0.004469545 -0.172382 0.20434435 0.1063111 0.020972447 0.041888792
-0.17675339 -0.06385285 0.13221455 -0.29008567 -0.106292576 -0.04641421 -0.055120286 -0.09004193
0.1958918 -0.28792134 0.25078905 0.114422485 -0.039375246 -0.012488575 -0.05590001 -0.2666198
0.19460993 -0.13796154 -0.12336805 0.05579901 -0.12557071 -0.22159979 0.11205319 -0.1397198
-0.24527542 0.07537531 0.19135146 0.15740213 -0.14496322 -0.13501973 0.12368661 -0.03139809
-0.11465232 0.21117224 0.03753278 0.011098204 -0.07875441 -0.25624424 0.11245358 0.097748205
-0.2829955 -0.034489706 -0.041384812 -0.017390495 0.079820745 0.12066929 -0.116147295 -0.04892976
0.28304082 0.14002621 0.09590632 0.15610316 -0.15900235 -0.10873804 0.16558984 -0.11077215
-0.21033561 0.0012792908 0.20485286 0.26217818 0.2512466 0.13585655 -0.16586022 -0.0682726
-0.11758233 0.10002346 -0.16355486 0.13066411 -0.13183218 -0.11126115 0.0070946026 0.04426874
-0.1684473 -0.20636588 -0.11973852 0.07385968 0.15117362 0.18160185 -0.14123552 -0.13263687
0.07561153 -0.023163304 0.31166923 0.14030127 0.13408838 -0.1326639 -0.09246192 0.21508925
-0.082018375 -0.07099771 0.12786607 0.1468864 0.25701186 0.058336437 -0.12812823 -0.288014
0.041912634 0.097506784 0.22007191 0.20599994 -0.051072367 0.141286 -0.19953321 -0.058205694
-0.12875767 -0.11134064 0.21252878 0.26665917 0.02842753 0.24740438 -0.12309227 -0.24534525
-0.15185887 -0.046317995 -0.015831778 0.1448852 -0.1734488 0.13518764 -0.2101086 -0.16201086
-0.28148523 -0.011220168 -0.13367386 -0.1759717 0.17148533 0.17765793 0.028223414 -0.23661411
0.040104575 0.23334846 0.18155527 0.10523262 0.18466322 0.04188701 0.083341174 0.23595256
0.0701325 -0.15489078 0.12317961 0.12823407 0.23681965 -0.1663268 -0.17111522 0.15885814
-0.1379117 0.29836577 -0.120673314 -0.03382151 -0.0729612 -0.16010031 -0.073882915 0.0735996
-0.109117314 -0.19442192 0.16234604 0.08077418 0.0045958515 0.001509015 0.30615512 -0.21349865
-0.043843273 -0.039011575 0.16212755 0.16170296 -0.08483285 -0.0023533546 -0.14908883 -0.13871911
0.016978491 -0.1594986 0.049566638 0.03386634 0.10437121 0.21283396 0.29577062 -0.001876218
-0.16635871 0.22331455 0.25428957 -0.3068391 -0.27899146 0.13515468 -0.10314263 -0.018273449
0.1172931 -0.069858246 0.14621316 0.035101455 0.13020785 -0.024313055 0.13615344 0.12729439

bias_ih_l0 f4 [64]
00000000: 8908 08be 88ea 7d3e 4356 1cbe 0f9f 793e
00000010: 3def c9bd 5f17 b2bd c08e b9bc b733 8e3e
00000020: e666 fa3d 2d83 5abd 537e 11be d2c4 d1bd
00000030: b609 4d3c ad6b 2d3e a6d3 77bd 4bbb f5bd
00000040: 2232 573e 0755 85bd a972 f8bc c03b c2bd
00000050: fc4a dabd 1e26 e6bd 9cec 4ebd 5257 f2bd
00000060: 7325 183e eea1 ef3d aa8c 553c f039 933c
00000070: 87dc 353e 45e5 983e 2652 563e 3f9c 353c
00000080: 00f1 28bd df91 023e 147f af3d 88f3 ffbd
00000090: 161f 353e 9264 b4bd 4dc8 82be a7dc 9a3e
000000a0: e46a 8cbe 60dc 03be 2708 32be 225a 9d3e
000000b0: d4d5 813e 2073 8d3e d51e 803e 2ba0 9bbe
000000c0: e1cd e6bd e4ce 513e b0b7 78bd 3839 ed3d
000000d0: e1ed 1cbe d4f0 653d 79d9 9a3e db46 f2bc
000000e0: 7424 a5bd 3893 783e 4caa 23be 0c16 0c3e
000000f0: 7914 b23d 3e78 34be a7f6 733e 7763 033e
-0.13284506 0.24796498 -0.15267281 0.24377082 -0.09860084 -0.08695864 -0.022651076 0.2777383
0.122266576 -0.053347755 -0.14208345 -0.102426186 0.012514522 0.16935606 -0.060504578 -0.11998614
0.21015218 -0.06510358 -0.030328112 -0.09484053 -0.106588334 -0.11237739 -0.050518617 -0.11833061
0.14858036 0.117008075 0.013034025 0.017971963 0.17759906 0.2986242 0.20929775 0.011084615
-0.04124546 0.12750958 0.0856916 -0.12497622 0.1768764 -0.08808245 -0.25543442 0.3024647
-0.274253 -0.12877035 -0.17385922 0.30732828 0.2535845 0.27626896 0.25023523 -0.30395636
-0.11269737 0.20489079 -0.060722053 0.11583179 -0.15325119 0.056137875 0.30244043 -0.029574802
-0.080635935 0.2427491 -0.15982932 0.13680285 0.08695311 -0.17623994 0.23824559 0.12830912

bias_hh_l0 f4 [64]
00000000: 2fe8 683e ae07 d1bd 8fa0 d53d 7b67 193e
00000010: b899 b6bd 1e0b bbbd 695b 34be 117d 973e
00000020: 286e ccbd b044 423c 67c0 05be 26ca 4abd
00000030: 0fee 5dbd a70b 6f3e 087c 2cbe 63c7 0b3e
00000040: c89d 5abd 1423 51be ab5f 563e 80e9 98bd
00000050: 9757 f7bd 2ec7 b2bd e40d 433e 0b68 393e
00000060: a59a 153e 7007 c93d 8c26 063e 0559 a7bc
00000070: 02a9 40bd 5dbf 95bc d02a 853e 8b53 16bd
00000080: 4f52 063e 48fa 693c 379f 1d3e be92 45be
00000090: ccd8 61be 0437 27be aa50 a9bd 5f0b 013e
000000a0: e447 05be e435 26be 21da 6b3e 931f e53d
000000b0: fbab d5bc aaac e93c 160b 953e f8f4 cbbc
000000c0: 34b0 fe3d 834d 803e 48f6 813e 1ede 4b3d
000000d0: 1929 c23d 8223 2b3d 3bd9 8e3d 5e4b 52bd
000000e0: 007b 273e ab18 10bd 1ee7 733e 0fde 513e
000000f0: 78e3 07be 3914 af3d 13bd 0bbe 9ca9 a4bd
0.22744821 -0.10206543 0.10431015 0.14980881 -0.08916038 -0.0913298 -0.17612995 0.29587606
-0.09981948 0.011857197 -0.13061677 -0.04950919 -0.05418211 0.23344289 -0.16844189 0.13650279
-0.05337313 -0.20423537 0.20934932 -0.074664116 -0.12077253 -0.08729397 0.19048268 0.18106095
0.14609773 0.09815872 0.13100642 -0.02042819 -0.04703618 -0.018279726 0.26009226 -0.036700767
0.13117336 0.014280863 0.15392767 -0.19294259 -0.22055358 -0.1632958 -0.082673386 0.12601994
-0.13015705 -0.16231495 0.23032428 0.11187663 -0.026082983 0.028524715 0.2911002 -0.024897084
0.12435952 0.25059137 0.2538321 0.049772374 0.09480495 0.04178191 0.06975027 -0.051341407
0.16355515 -0.035179775 0.23818633 0.20494865 -0.13270366 0.08548779 -0.13646345 -0.08040163

weight f4 [32, 16]
00000000: b630 763d 3e47 08be 99cc fcbd 4273 f93d
00000010: 98d4 7bbe 0c97 5fbe cb23 96be bda3 7b3e
00000020: fdb5 85bd 7cef 7dbe 50ef 753e b811 153e
00000030: d935 6b3e ba09 30be f206 28be 084c 44bd
00000040: a556 f33d b5b1 363e 333c 283e a656 0dbe
00000050: 60e8 c4bc 9c1b 4cbe 6f36 f5bd 0ea5 153e
00000060: 00f3 dcbd c414 10be 2849 54bd 6e8e 0abe
00000070: f8f9 383e 734a 923e 1f2b 623d 0c7e abbc
00000080: 424e e43d 46d9 193e 990d 583e b420 853d
00000090: e9c7 fabd 8599 e8bd 58bd 573c 03ef f73c
000000a0: 3de3 713c 93eb 1cbd 6f36 b1bd ed7b 0e3d
000000b0: f685 843e eb35 debd 4831 02be 5d90 83bd
000000c0: 4058 20bd 540e 87bd 4859 4fbe e035 adbd
000000d0: 00a4 69bb 8032 8bbb 0084 b43a 948e 443e
000000e0: bc82 c53d 8492 3c3e 24d5 903d 9049 e3bc
000000f0: d821 04bd 329e 543e 20f2 67bd 82cc 733e
00000100: 36f0 d5bd 9d1b fa3c a350 08be 94be 5dbe
00000110: 0487 e63d a991 a9bd 86f2 12be 42da 4f3d
00000120: 21d4 5fbe fd7b f8bd 1e89 4ebd 1682 b9bd
00000130: 2dd2 cebd 086f 933e 3210 39be 9fbd 8bbe
00000140: eba1 10be f3db c3bd d2bb 84bd a063 87be
00000150: 2de0 71bc b736 7939 daca 08be 6d4f c43d
00000160: 7d62 233c e36e 67be 8551 993c 9e18 d33c
00000170: bfda 57bd c599 753e a021 5ebe 3224 83bd
00000180: 7fe4 713e fa5f 453e 17f7 5d3e 0b04 1bbe
00000190: 7f28 95bc 011d f4bc 45e2 0fbe bd3c d33d
000001a0: 20df 333d 953c e4bd 249a d2bd 9193 6d3e
000001b0: 1386 1e3d 0029 9e3c 9628 1d3d 4d65 51be
000001c0: 23ec c53d b0af 9abd bbd6 febd b41b 96be
000001d0: 3f80 76be 8469 ee3d f5b3 5cbe 898f 693e
000001e0: 2280 2cbe 1103 88be 390b 8d3e c9ce d93d
000001f0: 0f16 cc3c fcfd 963e 86f7 1d3d 18d3 ce3c
00000200: a0e6 a33c b8ed 0a3e e0d7 6abc c8b2 9c3d
00000210: b8c9 383d 6ab4 523e ec3f 073e da7d 1c3e
00000220: 2afb 223e 2018 e53d c0f1 853c 50a8 4abe
00000230: 08f1 0cbd f256 0f3e 48e1 18bd 7aee 5abe
00000240: 74e0 10bd 3ee1 423e 3bde 7d3e 327f 60bd
00000250: dbc2 143e 2042 4c3e ed04 163e c406 4a3e
00000260: 9af6 96be bbe6 4c3c 9c59 203e d293 913c
00000270: 23a8 903e 4ec9 843e 232c 953e fff7 6bbd
00000280: 3388 513d 3381 04be 1d74 873e fab9 ee3d
00000290: 0b9e 82be 1d64 59be 1a27 80be 74c7 643d
000002a0: 7953 083e 7968 0a3e 329b 993b b615 19be
000002b0: 339e 1a3e faeb 963d ebb9 8d3e 0410 9cbc
000002c0: 4704 983e 14a0 37bd 53df 363e 8b94 26be
000002d0: 73ff 80be d87c 1d3c 2b32 65bd dab9 533e
000002e0: db54 d63d d6a9 86bd 9c53 0e3e 05fd 1abe
000002f0: 4075 643e d99b cb3d a418 023e 9f84 9ebe
00000300: 1f5e 1dbd e796 30bc fd20 8c3d f437 01be
00000310: 51b1 2a3e c482 34be 3a13 60be 5e8e 2e3e
00000320: 3ae3 373d 15c7 3abe 2ab0 743e 72ae 33be
00000330: 993b a03c 4b62 54be 5ebf 653e d277 4a3e
00000340: fc24 7fbe 701d 91bd f4ae 2d3e 6052 883d
00000350: 7890 6dbd aa3a 0b3e 9815 633e c0d2 0fbe
00000360: 0054 fcbd 70bc 9e3c 2050 853c 8eee 61be
00000370: a0c4 d83c 1eaf 5f3e 2c3e 9a3d 6ef4 4b3e
00000380: eb8f ab3c 1a95 f7bd c4d7 86bc 8461 aa3c
00000390: 8a7d 25be 216f 53be bc71 62bd c2ca 563e
000003a0: 6708 8e3d 5d5d 883d f3b0 f93d b282 7c3e
000003b0: 6fc9 273e 6ce4 8a3e 517d 2f3e c6eb babd
000003c0: 073b 783d 3054 16bc 83ee 6b3e 04b3 bebd
000003d0: 3f73 b3bb b6b5 5e3e 3d61 903d e6ca 32be
000003e0: 4474 013e 2183 d53d 4d5f 6b3e 8466 22be
000003f0: 9852 183e 678b dc3c e32d 3bbc dcd7 29bd
0.060105048 -0.13308427 -0.123437114 0.12180187 -0.24592817 -0.21834964 -0.29324183 0.2457418
-0.06528852 -0.24798387 0.24017072 0.1455754 0.2296976 -0.1719121 -0.164089 -0.04792407
0.118817605 0.17841227 0.16429214 -0.13802585 -0.024036586 -0.19932407 -0.11973273 0.14613745
-0.10788536 -0.14070421 -0.05182758 -0.13530895 0.18064106 0.28572425 0.055216905 -0.020934127
0.11147739 0.1502429 0.21098937 0.06500378 -0.12245161 -0.113574065 0.013167702 0.030265337
0.0147636505 -0.0383106 -0.086529605 0.034786154 0.25883454 -0.10850128 -0.12714112 -0.064240195
-0.03914666 -0.0659453 -0.20248902 -0.084575415 -0.003565073 -0.0042479634 0.0013772249 0.19195014
0.09644076 0.18415266 0.07071903 -0.027745038 -0.03225884 0.20763472 -0.056627393 0.23808482
-0.10446207 0.030530745 -0.1331201 -0.21654731 0.11256221 -0.082797356 -0.14350328 0.050745256
-0.21858265 -0.12133024 -0.050423734 -0.09058015 -0.100986816 0.28795648 -0.18072584 -0.27293107
-0.14124267 -0.09563436 -0.064811364 -0.26443195 -0.01476292 0.00023766873 -0.13358632 0.09585462
0.009972212 -0.22600894 0.01871563 0.025768574 -0.052698847 0.2398444 -0.21692514 -0.06403388
0.2362232 0.19274893 0.21676289 -0.15138261 -0.018207787 -0.029798986 -0.14051159 0.10314319
0.04391396 -0.111443676 -0.10283306 0.23200823 0.038702082 0.01930666 0.038368784 -0.204488
0.0966418 -0.07553041 -0.124433 -0.2931801 -0.2407236 0.11641219 -0.21553023 0.2280866
-0.16845754 -0.2656484 0.27547625 0.10635144 0.024912862 0.2949065 0.038566135 0.025247142
0.020007432 0.13567245 -0.014333695 0.07651287 0.04511425 0.20576635 0.13207978 0.15282384
0.15916124 0.11186242 0.016350627 -0.19790769 -0.034409553 0.13998011 -0.03732422 -0.21380034
-0.035370305 0.19031236 0.24791805 -0.054808803 0.14527456 0.199471 0.14650317 0.19729143
-0.29485017 0.012506182 0.15659183 0.017770682 0.28253278 0.25934833 0.29135236 -0.057609554
0.05115528 -0.1293991 0.26455775 0.11656566 -0.25511202 -0.21229596 -0.25029832 0.055854276
0.13313092 0.13516416 0.00468769 -0.14949688 0.1509941 0.07369228 0.27680907 -0.019050606
0.29690763 -0.044830397 0.17858629 -0.16267602 -0.25194892 0.009612285 -0.055956047 0.20676365
0.10465404 -0.065753624 0.13899082 -0.15135582 0.22310352 0.09941835 0.12704712 -0.30960557
-0.03841984 -0.010778165 0.068422295 -0.12619 0.16669203 -0.17628008 -0.21882334 0.17046496
0.044894435 -0.18240006 0.23895326 -0.17547014 0.019559668 -0.20740621 0.22436282 0.1977227
-0.24916452 -0.07085693 0.1696127 0.06656337 -0.057999104 0.13596597 0.22176206 -0.14045238
-0.12320709 0.019376963 0.016273558 -0.22063658 0.026460946 0.21844146 0.075313896 0.19917461
0.020942649 -0.12088986 -0.016460307 0.020798452 -0.1616117 -0.20647861 -0.055284247 0.20975783
0.06935196 0.06658433 0.121919535 0.24659231 0.16385435 0.27127397 0.17137648 -0.091270015
0.060603168 -0.009175345 0.23040204 -0.09311488 -0.005476385 0.21749005 0.07049797 -0.17460212
0.12642008 0.104254015 0.22985573 -0.15859419 0.14875257 0.026921941 -0.011424514 -0.041465625

bias f4 [32]
00000000: 7928 333e 288b 533e 393e 2f3e c4e4 4dbe
00000010: 0a9a 803e 1b00 d1bd 72a8 f23d a53f d93d
00000020: 28a7 69bd 14e2 20bd e4fc 9b3d 8234 e43c
00000030: bb87 6a3d a448 0cbe ddff cc3c 727c 1bbd
00000040: 3057 83bc 0c31 973e 75c9 053e 2feb 6cb9
00000050: 1534 363e 6d67 53be f2ff fc3d ed9f d23b
00000060: b245 913e 7055 69be 0c84 20be 13d1 40be
00000070: d9f4 6cbe 648f 223d 807f bf3b 38e0 a0bd
0.17495908 0.20658553 0.1711358 -0.20106798 0.25117522 -0.10205098 0.11848535 0.10607842
-0.05704418 -0.039278105 0.076165944 0.027857069 0.05725835 -0.13699585 0.025024349 -0.037960477
-0.016032785 0.29529607 0.13065131 -0.00022594327 0.17793305 -0.20644923 0.12353505 0.006427756
0.28373486 -0.22786498 -0.15675372 -0.18829755 -0.23140277 0.03968753 0.0058440566 -0.07855266

weight f4 [32, 32]
00000000: a421 743e b372 2ebd 85e0 193e acd2 e83d
00000010: e228 c9bd 67fb 0a3d 98f1 4abd 80ab 133e
00000020: 809f 523d 7b97 733e 60b4 283e 79c5 643e
00000030: 6064 93bd 3ffc 893d 08ec 9abb ba24 8dbd
00000040: 19a2 0a3e 792e 8f3d 0637 343e 4a69 a0bd
00000050: 27fc 4c3e 073f d73d 1802 d73d 5b50 a3bd
00000060: 875f 003e cade 01bd bf8e 05be d879 15be
00000070: 055b 303d f21a 623d 6be3 213d 91a2 fd3c
00000080: 5510 80bd 60c0 1ebe 0780 2fbe a22f 193e
00000090: d6eb e4bd 2982 cf3d 7bb3 1e3d 22a8 60bd
000000a0: 0543 b73d 01a7 103d 467d 31be 95a8 31be
000000b0: e65b a9bc ee33 003e a859 323e 9c22 ba3d
000000c0: 38ec f43d 20d7 25be fa2e 05be b5e0 b03d
000000d0: 93d6 0bbe 87e5 32be 81c1 14be 7c8a cebc
000000e0: c033 c2bd cb43 ff3d cb40 c5bb bde8 50bd
000000f0: d3d3 23be 5851 193e 7cbd cc3d d120 123e
00000100: 1646 34be f991 f43d 2157 c63c 2c8f 56bd
00000110: e66d 2ebe e949 903d a2b5 cfbd 8983 2ebc
00000120: 5479 8cba 8660 29be 8911 19bd 0959 f3bd
00000130: 301e f13d 495b cebc 9a30 0bbe 63a2 333e
00000140: 54dd 52bd 46e4 f0bd f65d 82bd e1e0 1bbe
00000150: 8021 20be 84dc 343e 55ef 9c3d 10a0 32bd
00000160: 13a3 35bc d57f 7cbd 5f1e 32be 19da 39bd
00000170: 6d87 ae3d 2003 d93c c859 df3d b8c8 803d
00000180: 65d9 c73d a0e8 04be 0f50 033e e236 a53d
00000190: e859 d43d 54e2 8d3d dbd7 10be 8059 17be
000001a0: fdec 42bd 0204 1ebd 4220 24be 88b0 be3a
000001b0: a13d d0bd ba9c e5bb 79da f4bd 5ebf 49bd
000001c0: 7515 ac3b 692a c9bb 244b 72bc e9d3 873d
000001d0: ca96 5f3d b639 21bd d885 d8bd 49a4 b83d
000001e0: eeca e9bd 6edf 21be bbde 823d 8e71 94bc
000001f0: 2605 263e 81a8 2b3e 8e57 123e 1701 923c
00000200: 9890 3f3e a1d2 5d3e ad4b d33d 095d a33d
00000210: afcf fd3c c6c9 383e 3088 1c3d 807e 553d
00000220: 1956 81bc 3ac3 b23d 8f87 3abd 546a a1bd
00000230: 9845 54bd 175f 17be 5256 07bd 34be ecbd
00000240: 6a6c 333e f47f 2e3e 512d 5e3e cad0 1cbe
00000250: fcb0 663e 568e f0bd 6ab5 19bb 2b86 5b3e
00000260: 7e73 6d3e d9d5 3fbd a5b7 2cbd a4b9 16be
00000270: 2edf 75bd 8383 d9bd ce0c 6ebd 30c7 a3bd
00000280: ee2c 6f3d 17b1 373d 27de 15be b610 88bd
00000290: 15ea 06be ac79 053c c077 113e a158 b53d
000002a0: be01 303e 8882 283e a1df cc3d e094 f53d
000002b0: bcdf 8f3c 3639 cebc 4b3f 00be 98a0 2abd
000002c0: c4cc 7abc 20df 20be e63d 3f3d 5aa0 313e
000002d0: d78d 3ebc 0ba0 723d f28f 9cbd bb98 2fbe
000002e0: 8b8d dabd 9e7c 653d 8391 9b3c 7e84 1fbe
000002f0: 8077 083e 1f43 7ebc dea9 3c3d f237 e43d
00000300: 7d0f f2bc 4e8f e13d fe85 0bbb 9275 fabd
00000310: b53f 0f3e 43bf 9e3d 4a61 d8bd 2cc6 e2bd
00000320: 1018 c63c 34e9 183d 69ac b6bd a562 4bbc
00000330: 7e32 213e 1bb9 dbbd dc2e 313d 107a fc3d
00000340: cb9a 133e 7ed2 c4bd 62de 013e 863a b3bd
00000350: f904 193e b225 36be 9ef6 863d 39ef 67bd
00000360: 9c5d 503d 7a41 843d a2db f7bc af34 0b3e
00000370: 66d8 1d3e 8b2a 0bbe 2467 153e 5619 223d
00000380: 073c e3bc 8d90 573e fe1d 053e 038c 0bbe
00000390: 4dba d73d 7cf9 20be 6b49 593e 4eb8 4e3d
000003a0: 2717 1c3e 9553 dc3d 9df8 70bc b43b 433e
000003b0: 92d4 483e 05aa 23bd 4417 eabb d02c 1f3e
000003c0: 4f12 8dbd 74b6 dc3d a9ff 14bd 0b77 d73d
000003d0: 8c7e 093e accd c4bc 438f c73c eefd e5bd
000003e0: 13c3 2c3e c0bb c3bd 59c4 cf3d b376 2e3e
000003f0: 1b77 903d 8c82 403c a6a0 28bd 8483 f13d
0.23840958 -0.042589854 0.15027054 0.113683075 -0.09822251 0.033931162 -0.049546808 0.14420891
0.051421642 0.23788254 0.16475058 0.22340955 -0.071968794 0.06737565 -0.004727844 -0.06891771
0.13538398 0.06991286 0.17599115 -0.07832582 0.20018063 0.105100684 0.10498446 -0.07974311
0.12536441 -0.03170661 -0.13042735 -0.14597261 0.043055553 0.05520148 0.039523523 0.030961307
-0.06253115 -0.15503073 -0.17138682 0.14959577 -0.11177795 0.10132248 0.038745385 -0.054847844
0.0894833 0.035315517 -0.17332944 -0.17349465 -0.020673703 0.1251981 0.17417014 0.090886325
0.11959118 -0.16195345 -0.13006201 0.086366095 -0.13656072 -0.1747037 -0.14526941 -0.025212519
-0.09482527 0.12464102 -0.006019687 -0.051003207 -0.15998773 0.14972436 0.09997079 0.14270331
-0.1760486 0.119419046 0.024211468 -0.052382633 -0.1703411 0.07045347 -0.101420656 -0.010651478
-0.0010717311 -0.16540727 -0.03737024 -0.118822165 0.11773336 -0.025190013 -0.13592759 0.17542414
-0.051480606 -0.1176229 -0.06365578 -0.15222503 -0.15637779 0.17662245 0.076628365 -0.04360968
-0.011086243 -0.061645348 -0.17394398 -0.04537401 0.08521924 0.026490748 0.10905796 0.06288284
0.097582616 -0.12979364 0.12823509 0.08067109 0.10368711 0.06927934 -0.14144842 -0.14780235
-0.04758929 -0.03857804 -0.1602793 0.001454846 -0.10168005 -0.0070072087 -0.11955733 -0.049254768
0.0052515813 -0.006139089 -0.014788423 0.066322155 0.054587163 -0.039361678 -0.10572404 0.0901571
-0.11415659 -0.15807888 0.06390139 -0.018120553 0.16212901 0.16763498 0.14291212 0.017822785
0.18707502 0.2166238 0.103171684 0.079767294 0.03098282 0.1804572 0.038215816 0.052122593
-0.015788125 0.08728643 -0.045539435 -0.078816086 -0.051824182 -0.14782368 -0.033041306 -0.11559716
0.17521825 0.17040998 0.21696974 -0.15314022 0.22528452 -0.117458984 -0.0023454078 0.214379
0.23188588 -0.0468348 -0.042167325 -0.14719254 -0.060027294 -0.10620787 -0.05811768 -0.079969764
0.058392458 0.04484662 -0.14635526 -0.06643812 -0.13175233 0.008146685 0.14205837 0.08854795
0.17188165 0.16456044 0.10003591 0.11991286 0.01756274 -0.025173765 -0.12524144 -0.04165706
-0.015307609 -0.15710115 0.04668989 0.17346326 -0.011630497 0.05923466 -0.07644643 -0.17148106
-0.106715284 0.056027047 0.018990284 -0.15577886 0.13326836 -0.015518933 0.046060435 0.11143483
-0.029548401 0.11013661 -0.0021289582 -0.12229456 0.13989146 0.07751324 -0.105654314 -0.110729545
0.024181396 0.037331775 -0.089196034 -0.012413655 0.15741917 -0.107286654 0.04325758 0.12327969
0.14414518 -0.09610461 0.12682489 -0.08751397 0.14943303 -0.17787817 0.06590007 -0.056624625
0.050870523 0.06457801 -0.030256096 0.13594316 0.1541458 -0.13590448 0.14590126 0.039574943
-0.027738584 0.21051235 0.12999722 -0.13627629 0.10533581 -0.1572017 0.21219413 0.050468735
0.15243207 0.107581295 -0.0147077115 0.19065744 0.19612339 -0.039957065 -0.0071438868 0.15544438
-0.06888258 0.10776988 -0.03637663 0.105207525 0.1342718 -0.024023853 0.024360305 -0.11230074
0.1687129 -0.09557295 0.10144872 0.17037468 0.070539676 0.011749875 -0.04116883 0.11792663

bias f4 [32]
00000000: 9878 ac3d 54eb ba39 dbcc b4bd 5f9b 9f3d
00000010: 22dc 513e 3ead 44bd b2a6 1abe fa4e 1a3e
00000020: 3914 93bd f39c a5bd 3a0f 25be 4616 adbd
00000030: 7116 30bc 4250 273e 2134 56bb 8427 55bc
00000040: 1fe5 afbd fd5a b23d 0fff 12be bc2a a0bd
00000050: 52d2 24be 67d8 073e c495 c33d e6da cc3d
00000060: 9710 8cbd ab0d 003d ae52 2a3e 9e62 b3bd
00000070: 6b92 d33c cea0 203e 1845 913d 24b1 93bd
0.08421439 0.00035652018 -0.088281356 0.077933066 0.2049413 -0.04801678 -0.15102652 0.1506919
-0.071815915 -0.08086576 -0.1611909 -0.08451514 -0.010747538 0.1633921 -0.003268488 -0.01300991
-0.08588623 0.08708761 -0.1435511 -0.07820651 -0.16095856 0.13266145 0.0955005 0.10002689
-0.06839102 0.031263035 0.16633102 -0.08759044 0.025826653 0.15686342 0.07093257 -0.07211521

weight f4 [32, 32]
00000000: bce2 8b3d f300 573d 4b29 993c a692 7a3d
00000010: 41a1 e73d a7ea 283e e53c 353e 69ec fd3c
00000020: 4c52 55bd 0515 343d 307e 15be 7bd9 f83d
00000030: 686d 153e 35bc b6bd 4f4d 3bbd 3593 debc
00000040: e611 783d 45ad 943d 7b11 a7bc 90ea 10be
00000050: 43c2 c73d 50a7 2d3e 0f59 1bbe 4ca8 fd3c
00000060: 6041 f83d c805 953c 3301 2b3e f498 ad3d
00000070: 450c e0bc ecc0 123e 6d74 60bc 271d bc3d
00000080: ca44 8d3d a769 de3c 9b00 1a3e c505 9b3d
00000090: 33c1 12bd 0bef c53d 242e 27be 8d95 fe3c
000000a0: fd1f afbc 6c52 c4bd 8411 293e 0a55 08be
000000b0: b447 f2bd a116 b3bc f301 0d3e 046b 243e
000000c0: 0266 66bd 9719 113e 9414 e9bd 829f b33d
000000d0: e8c4 adbd 66a3 983d 44dd 373e cf3e e5bd
000000e0: de1f fabd a4d6 343e e707 15be bd8b 943d
000000f0: d340 ba3d f989 8d3d bd76 fbbd 82e0 f43d
00000100: d0cd 503c b93a 9e3d 116b 66bd f9e7 adbc
00000110: 621a 9abd 0e18 1cbe 9c27 183e 18fd a6bc
00000120: a723 eabd 4240 d73d 63c9 64bc d68d 773d
00000130: 80c1 9abd 3829 273e 356b d03d d19c bb3d
00000140: e28f bc3c f7e3 003e 428f f83d 0e86 d4bd
00000150: 3df5 c93d 380f 20bb fea2 1bbe 07c2 3ebe
00000160: d68a 263e 71d3 5bbc da9a 713c 3e38 9dbd
00000170: 4f1d 2e3d e169 b0bc c7dd 04bd 6be1 7b3d
00000180: cfd1 d9bd 6335 df3c 0349 973d 374b 193e
00000190: 1f63 363d add8 7e3d bfa3 243e f68d 1a3d
000001a0: 3f6e 17be 61ec 98bd c101 05bd 496c c8bd
000001b0: d8d3 39bd bb40 923c d74b b0bd cbad 10be
000001c0: 345d 16be ae2f 36bd 9b4c f53d d25c fabc
000001d0: d794 4f3d 8a1d 16be 8bf4 093e 66ea 083d
000001e0: 592e 20be 8295 5fbd ecef 6d3d 8707 993d
000001f0: ce79 383c fc2e 81bc 45a7 a33d b21b 6e3c
00000200: ac12 3dbd 59ec abbd 831c b83c f433 1d3e
00000210: 7151 d43c a4b4 073d c16d 533c d6bd dfbd
00000220: e366 ef3c 6984 21be 05dd debd ed8f cdbd
00000230: 2356 273e a2f5 00be d200 26be 3556 92bd
00000240: 0926 383d ad60 19be ac9b b13c fba8 82b9
00000250: e806 e53c cae0 94bd 0bbd c13c c951 1ebe
00000260: 1122 0abe b156 b43c 821a 9dbc d40c 483d
00000270: cca8 3abd aa55 323d 2d6a 1cbe 528f 203e
00000280: 5e10 853c 0d99 0b3e 8f8d c13d 18fb b43c
00000290: 9970 0fbe 9ee0 8b3d 0a15 b2bd 82ab 37be
000002a0: 677f 80bd dd95 df3d ca83 17be 2b82 14be
000002b0: 4548 043e 14de d33d 6ea4 923c 5862 ae3d
000002c0: 1c48 223e ef47 9bbb 5619 e93d 0ee7 26be
000002d0: b38f 023c 6ad1 77bd 9978 113e c15f e4bd
000002e0: 2233 a0bb dea4 b8bc 617e 023e 4981 2c3e
000002f0: afe4 0ebc 2ed0 c6bd f1dc 9dbc 8e37 043e
00000300: a66b 323c 0f38 1a3e 6fb8 0fbe 330c 063d
00000310: 0ff6 773d 7828 a03d da7f 05be ff46 22be
00000320: 0d71 1b3e 040a cbbd 8c64 2f3e fcce 2cbc
00000330: feee ccbc 73b6 8cbd af74 933d f3c7 32be
00000340: e274 0a3e 7f02 26be 2473 edbb 6035 f03d
00000350: d82b 2cbd b601 1fbe 155b 1c3d e0c8 17be
00000360: 2574 a43d 9c6b 903b 4218 e6bd 8666 dc3b
00000370: d413 e6bd 75b2 0d3e 83f2 f5bd 8f17 ef3d
00000380: bdbc 063e 7dc2 953d f5a5 a53d 0068 48bd
00000390: 790d 4c3e f194 b7bb aa5a 083d c04a a3bd
000003a0: cc7d 32be e64f 1f3e 92d5 28be ed26 a63d
000003b0: 8cb6 24bd 88b6 1dbe bf50 c93d 126c f33d
000003c0: e457 1e3d b050 bf3d b91c b3bd 6667 b6bd
000003d0: 7c88 a43d 8d50 643e 17a8 cb3d 03a9 e03c
000003e0: 3254 0cbe 4980 26be 65f0 df3a 90d2 893d
000003f0: 8fed 623e a15d aa3d d6f4 c93c 2238 49bd
0.068303555 0.05249114 0.018696448 0.06117501 0.113100536 0.16495763 0.1769901 0.030996518
-0.052080438 0.04396536 -0.14598918 0.12150856 0.14592516 -0.089226164 -0.045728024 -0.027169803
0.060563944 0.07259611 -0.020394078 -0.14151978 0.09753849 0.16958356 -0.15170692 0.03096404
0.12121844 0.018191233 0.16699676 0.08476439 -0.0273496 0.14331406 -0.013699633 0.09185248
0.06897886 0.027149988 0.15039293 0.0756946 -0.03582878 0.096647345 -0.16326195 0.03107717
-0.021377558 -0.09586033 0.16510588 -0.1331369 -0.118300825 -0.021861376 0.13770275 0.16056448
-0.056249626 0.14169918 -0.11380878 0.08770658 -0.084848225 0.07453041 0.179555 -0.111936204
-0.122131094 0.17660004 -0.14553796 0.072532155 0.090943955 0.06911082 -0.12278507 0.11956884
0.012744382 0.07726044 -0.05625445 -0.021228777 -0.07524563 -0.15243551 0.1485886 -0.020384356
-0.114325814 0.10510303 -0.01396403 0.060438 -0.075564384 0.16324317 0.10176698 0.0916077
0.023017827 0.12586962 0.12136699 -0.103771314 0.098612286 -0.0024423134 -0.15198895 -0.18628703
0.16263899 -0.013417111 0.014746392 -0.07676743 0.04250842 -0.021534862 -0.032438066 0.061494272
-0.10635721 0.027247136 0.07386973 0.14970098 0.044528123 0.062218357 0.16078089 0.03773304
-0.1478815 -0.07466961 -0.032472376 -0.09786279 -0.045368046 0.017853132 -0.08608215 -0.14128797
-0.14683992 -0.044479065 0.11977502 -0.030561838 0.050679054 -0.14659706 0.13472192 0.033426665
-0.1564268 -0.05458594 0.058090135 0.07472139 0.011259509 -0.015769474 0.079908885 0.01453297
-0.046160385 -0.08394689 0.022474533 0.1535185 0.02591774 0.033131257 0.012904585 -0.1092488
0.029223865 -0.15773167 -0.10882 -0.10037217 0.16341452 -0.12593701 -0.1621125 -0.07145349
0.04495815 -0.14978285 0.021680675 -0.00024921432 0.027957395 -0.072694376 0.023649713 -0.15460886
-0.13489558 0.022013994 -0.019177679 0.04884036 -0.045571133 0.043538727 -0.15274878 0.15679672
0.016243156 0.13632603 0.09450828 0.022092387 -0.14007796 0.06829952 -0.08695419 -0.17936519
-0.062743 0.10917256 -0.14796367 -0.1450278 0.12918194 0.103450924 0.017900672 0.08514851
0.1584782 -0.0047387998 0.113817856 -0.16299078 0.007968831 -0.060502447 0.1420616 -0.11151076
-0.004888908 -0.022539552 0.12743522 0.16846193 -0.008721515 -0.09707676 -0.019270392 0.12911817
0.010889923 0.15060447 -0.140352 0.032726478 0.060537394 0.07820219 -0.13037053 -0.15847395
0.15179844 -0.0991402 0.171282 -0.010547396 -0.025016304 -0.06870737 0.0719999 -0.17459087
0.1352115 -0.1621189 -0.007246392 0.117289305 -0.042034 -0.15527996 0.0381728 -0.14822721
0.08029965 0.0044073593 -0.112350956 0.006726089 -0.11234251 0.13837607 -0.12009146 0.11674415
0.13157935 0.07312486 0.080882944 -0.048927307 0.19927014 -0.005602472 0.03328959 -0.07973242
-0.174308 0.15557823 -0.1648772 0.08112893 -0.040213153 -0.15401661 0.09829854 0.11885847
0.038658038 0.09341562 -0.08745713 -0.089064404 0.08033845 0.22296353 0.0994417 0.027424341
-0.13703993 -0.16259874 0.0017085193 0.06729615 0.22160934 0.083186395 0.02465288 -0.049125798

bias f4 [32]
00000000: 53dc 06be 08f8 e63d c489 db3d 3ba1 ccbd
00000010: c57d dcbd 2b9f af3d 7017 04bc ce16 e63d
00000020: d932 ee3d 83c9 d1bd 01cb 82bc 6129 2b3e
00000030: 466f 753b 5520 1e3e ef77 fe3d f954 17bc
00000040: fd44 17be 72a8 8fbd 8628 8f3d 17bd debd
00000050: 984e cbbc 571b acbd c087 ccbb 4133 a6bd
00000060: a29a 5a3e 39b8 2e3e c295 3a3e eb27 8bbd
00000070: b65f 28be 12f0 b53d b268 5f3e 9309 8ebd
-0.13169985 0.11277777 0.10719636 -0.0999169 -0.10766176 0.08575281 -0.008062229 0.112348184
0.11630792 -0.102435134 -0.01596594 0.16715004 0.0037450357 0.15442021 0.12425219 -0.009236568
-0.1477241 -0.0701455 0.06990151 -0.1087591 -0.02481775 -0.08403652 -0.0062417686 -0.08115245
0.2134805 0.17062463 0.1822119 -0.06794723 -0.16442761 0.088836804 0.21817282 -0.0693542

weight f4 [1, 32]
00000000: 0ae2 9dbc 6575 88bd 4a76 723c 1a92 853c
00000010: e16e 663b eef3 b63c 455c eb3c 756c 53bd
00000020: af9e 9dbd 5e2d 583c 01d1 c43b ea60 87bd
00000030: 11b2 acbc 8155 c3bc 722a 5fbd 58c8 93bd
00000040: f141 163c ece7 0abb d7df 8a3c c274 eabc
00000050: 3a64 0fbc f537 bbbd 3b76 6dbd e590 bf3b
00000060: abde 96bd f8f2 55bd 4a9f 92bd 6e93 c03c
00000070: d43b 63bc 2abf 84bd 9dcf 73bd 7042 2d3c
-0.019272823 -0.06663016 0.01479871 0.016305018 0.0035161304 0.022333112 0.028730521 -0.051617105
-0.07696282 0.01319441 0.0060063605 -0.06610282 -0.021081002 -0.023844482 -0.05448384 -0.07215947
0.009170995 -0.0021195365 0.016952438 -0.028620128 -0.008751923 -0.09141532 -0.05797408 0.00584613
-0.07366689 -0.052233666 -0.07159288 0.0235078 -0.013869245 -0.06481774 -0.059524167 0.010574922

weight f4 [1, 32]
00000000: e11c 383d 8c4d 2fbd 4411 aebb 4099 b3bb
00000010: fc8b e3bc 8d06 12bc 6de9 ec3c 7805 34bd
00000020: 49fb 19bd ce69 7f3c 0ecc 433d 6aaf 9ebb
00000030: 9731 0a3c e971 a0ba c953 d7bc 00cd d83b
00000040: 20e9 70bc cd34 643b bb10 ba3c e84a 8f3c
00000050: 97e2 ecbb 9587 16bd bb3f 33bd e8bb 9dbc
00000060: 3c8d 213c eca9 b53c c60c 96bb 49fc 563c
00000070: 5d5e 69bb 6909 6d3c 7e9e c3bb 4316 2e3c
0.044949416 -0.042798564 -0.005312117 -0.0054809153 -0.02777671 -0.008912695 0.0289199 -0.043950528
-0.03759316 0.015589191 0.047802024 -0.0048426883 0.008434675 -0.0012240979 -0.026285069 0.006616235
-0.014704019 0.003482151 0.022713056 0.017491773 -0.00722916 -0.036750395 -0.04376195 -0.01925464
0.009860333 0.022175752 -0.0045791594 0.013121673 -0.0035609223 0.014467576 -0.0059698215 0.010625425
