models/patient23/ppo_model_for_patient_23_Actor.pth (torch, 23458 bytes, 16 tensors)

FeatureExtractor.LSTM.weight_ih_l0 f4 [64, 2]
-0.2732348 0.11089919 0.0778978 -0.05875356 -0.017623825 -0.15809506 -0.2332247 -0.22251153
0.10752707 0.17718385 0.073896825 0.12664813 -0.102094404 -0.10786787 -0.18502046 -0.06713297
-0.02767967 -0.016127331 -0.1958737 0.023775509 -0.07875213 0.19500452 -0.019143015 -0.028357958
-0.19812937 0.17429328 -0.32646945 0.08819371 0.0477585 -0.11342149 0.16294572 -0.24329063
-0.10321184 0.14956178 -0.15084445 -0.28847313 -0.07607316 -0.2587823 -0.24289612 -0.1707071
-0.0764295 -0.056669742 0.1802646 -0.11650618 -0.13287017 -0.22593674 -0.104236044 0.17727357
-0.056405324 0.08510075 -0.20133059 0.18913756 0.003621182 -0.15719101 -0.08899637 -0.29386204
-0.31361267 -0.14604053 -0.11823419 -0.0064398814 0.11165536 0.17171966 -0.25831962 -0.06754807
0.097098865 -0.020173458 0.080663346 0.15278612 0.25791565 0.10330381 -0.037127644 0.030916933
0.31494048 0.12642317 0.08325471 -0.044840172 0.14289103 0.08104835 -0.062467407 0.01834198
-0.0006913966 0.22669435 0.0007234403 0.29044512 0.19978863 -0.18028106 0.1650727 0.016427387
0.11745172 -0.21153761 -0.12565711 -0.10546131 0.29952416 0.046894882 -0.3296872 -0.09378619
-0.09516149 0.14664133 -0.014302561 -0.20812826 0.13181515 -0.015501698 -0.08930727 0.1341797
-0.29919785 0.14875272 0.04207463 0.14003162 -0.25474226 0.03813636 0.13410835 -0.32119358
-0.15761536 -0.13563716 -0.062714964 -0.011874735 -0.24848303 -0.24110113 0.15497893 0.0023326434
-0.24054182 -0.30908483 -0.29661092 -0.23382884 0.18211488 0.13044022 0.027461143 -0.1009517
00000000: 6fe5 8bbe 1d1f e33d e288 9f3d 93a7 70bd
00000010: d75f 90bc ace3 21be 75d2 6ebe 10da 63be
00000020: 2737 dc3d af6f 353e 3857 973d 0cb0 013e
00000030: df16 d1bd d4e9 dcbd 0176 3dbe 037d 89bd
00000040: 7ac0 e2bc 771d 84bc 1d93 48be dbc4 c23c
00000050: cc48 a1bd 44af 473e d0d1 9cbc f34e e8bc
00000060: 6de2 4abe f079 323e 0127 a7be e79e b43d
00000070: 6b9e 433d 8749 e8bd 3edb 263e 2e21 79be
00000080: bb60 d3bd b926 193e f876 1abe c0b2 93be
00000090: 3fcc 9bbd 1d7f 84be c3b9 78be d8cd 2ebe
000000a0: 1287 9cbd 881e 68bd 4997 383e cb9a eebd
000000b0: 1e0f 08be f65b 67be b579 d5bd 3487 353e
000000c0: 4509 67bd 4d49 ae3d 9b29 4ebe 47ad 413e
000000d0: 5a51 6d3b aef6 20be bb43 b6bd 1675 96be
000000e0: d791 a0be a68b 15be c424 f2bd a405 d3bb
000000f0: 91ab e43d 47d7 2f3e 7842 84be a456 8abd
00000100: c5db c63d cf42 a5bc d332 a53d f773 1c3e
00000110: 850d 843e f390 d33d 2813 18bd 8245 fd3c
00000120: e13f a13e 1375 013e 7281 aa3d 54aa 37bd
00000130: 0752 123e adfc a53d d3dd 7fbd ec41 963c
00000140: d73e 35ba 9022 683e 42a5 3d3a 39b5 943e
00000150: 6495 4c3e 999b 38be d108 293e ba92 863c
00000160: 878a f03d 519d 58be 42ac 00be 19fc d7bd
00000170: 3b5b 993e d914 403d c3cc a8be f912 c0bd
00000180: 07e4 c2bd 2529 163e 4a55 6abc 931f 55be
00000190: 8dfa 063e d5fa 7dbc bbe6 b6bd 6766 093e
000001a0: 7630 99be a252 183e 7256 2c3d 7364 0f3e
000001b0: 946d 82be df34 1c3d b353 093e 7c73 a4be
000001c0: ec65 21be 78e4 0abe b470 80bd 408e 42bc
000001d0: 5672 7ebe 37e3 76be ccb2 1e3e 43df 183b
000001e0: 9850 76be 5e40 9ebe 63dd 97be d470 6fbe
000001f0: 537c 3a3e 1f92 053e 31f6 e03c c4bf cebd

FeatureExtractor.LSTM.weight_hh_l0 f4 [64, 16]
0.13415584 -0.17284667 -0.09899139 -0.028628001 0.03354113 -0.048943438 -0.10149545 -0.17047364
-0.12667975 0.06003519 0.028287703 -0.18154202 -0.18509257 0.16671193 0.17809123 -0.15509386
-0.08716632 0.052414954 0.18692152 -0.12736435 0.017832624 -0.12590834 0.30093053 -0.31330043
-0.099760935 0.033286422 0.036316928 -0.0920411 0.16715418 0.22103432 -0.11060763 0.2812212
-0.24593833 0.033474308 -0.14207569 0.20563617 0.089077495 0.20623578 0.196963 -0.1613167
-0.108598396 -0.20077592 -0.2389613 0.10830307 0.059530787 0.17430303 -0.088277064 -0.17006302
0.15647069 -0.1135359 0.053597905 0.036578782 -0.24572657 0.26716962 -0.07601767 0.14391273
0.01767326 -0.0068716304 -0.081313685 0.1513737 0.083334155 -0.14077283 -0.033617895 0.24799387
-0.2617502 -0.08463187 0.010269672 -0.19872278 0.07191363 0.14407437 0.027156677 -0.090865426
-0.16224694 0.06894716 -0.02912441 0.07080149 0.15140417 -0.29142597 -0.15239589 0.004928447
-0.05161647 -0.09898492 0.11696614 -0.094141535 0.027055595 -0.17987119 0.22918262 0.08090274
-0.006797447 0.1563176 0.183209 -0.17043346 -0.17526986 0.077169746 0.18640594 -0.1853243
0.111745626 -0.029353846 -0.27381063 -0.21932077 -0.03340275 -0.11723822 0.13451828 0.043288216
-0.17334968 -0.04421015 -0.12403732 -0.056149464 0.26403475 -0.09808364 0.05776118 -0.02888844
-0.3094192 -0.30578482 0.050713535 -0.1396254 0.050672747 0.05937745 0.2622964 0.020004353
-0.2597342 0.0011671856 -0.16386299 0.12523682 -0.022950316 0.20303789 -0.042774793 0.17072935
0.07889741 -0.09187164 -0.20112424 -0.19957833 -0.17455144 0.17194916 -0.108461425 0.0537595
-0.10796306 -0.144505 -0.09215663 -0.09528931 0.003646776 -0.16896163 0.086775705 0.057464626
-0.21647009 -0.10627771 -0.05450369 -0.17905602 0.14581364 -0.19052468 0.2830359 -0.053515017
-0.26302215 0.15922914 -0.101077184 -0.042294893 0.08621089 -0.1513885 0.071792014 -0.09857226
0.1706496 0.0378766 -0.27338412 -0.17816702 0.16017677 0.097346336 0.26045918 -0.30267856
-0.06848224 0.19335996 0.08591082 -0.12248783 -0.1452133 0.04517689 0.06537795 0.10088352
0.13601552 -0.24041618 -0.17668176 -0.17361414 0.15364902 -0.16613565 -0.017657932 0.1335638
0.17760995 0.13297816 -0.13427356 0.08061131 -0.10218278 0.018170975 -0.213585 -0.117629476
-0.2579115 0.01921954 -0.09229152 0.08765046 -0.10968339 -0.056078885 -0.13021019 -0.26521254
-0.068971574 -0.04592318 -0.28154057 0.108897224 -0.15584654 -0.15229714 -0.13263273 0.002859166
-0.08845042 -0.0798606 0.171189 -0.037618868 0.14350495 -0.06191204 0.21317734 -0.08490872
-0.13353015 -0.27009052 0.10921122 -0.2991492 -0.08755439 -0.19667658 -0.21260439 -0.06685591
-0.24021956 -0.19281945 -0.23861149 0.03633659 -0.08614921 0.06849469 -0.103750326 0.056039684
0.16614956 0.15430138 -0.016989563 -0.16016902 -0.19006124 -0.13162684 0.0031693713 0.27931178
-0.005394004 0.20112272 -0.023279862 0.08333082 -0.12356742 0.07664629 0.019498594 0.077707335
-0.057287518 0.057032943 -0.24987207 0.09713981 0.12209225 0.19278836 -0.073374085 0.08065573
00000000: 2660 093e b8fe 30be ffbb cabd 4585 eabc
00000010: 6d62 093d ea78 48bd d9dc cfbd a490 2ebe
00000020: 56b8 01be 76e7 753d 9dbb e73c 27e6 39be
00000030: e888 3dbe 88b6 2a3e 8c5d 363e edd0 1ebe
00000040: 4184 b2bd 10b1 563d 5b68 3f3e cd6b 02be
00000050: b915 923c 1eee 00be 9113 9a3e ea68 a0be
00000060: 764f ccbd 5857 083d 0fc1 143d 0b80 bcbd
00000070: 772a 2b3e d256 623e 4186 e2bd 3afc 8f3e
00000080: 42d7 7bbe 5b1c 093d 4a7c 11be 4a92 523e
00000090: 436e b63d 792f 533e abb0 493e 3430 25be
000000a0: d668 debd 3498 4dbe 45b2 74be 00ce dd3d
000000b0: 8ed6 733d 7e7c 323e 9bca b4bd 0025 2ebe
000000c0: da39 203e 8385 e8bd 7a89 5b3d a2d3 153d
000000d0: bf9f 7bbe 75ca 883e 27af 9bbd dc5d 133e
000000e0: 83c7 903c 6a2b e1bb ca87 a6bd b501 1b3e
000000f0: 19ab aa3d c126 10be ebb2 09bd 1bf2 7d3e
00000100: 1f04 86be 7953 adbd 2042 283c fc7d 4bbe
00000110: 7447 933d 3b88 133e ae77 de3c a717 babd
00000120: 1024 26be 2b34 8d3d 5196 eebc 5f00 913d
00000130: b209 1b3e c935 95be ab0d 1cbe cf7e a13b
00000140: cb6b 53bd 9bb8 cabd f28b ef3d 47cd c0bd
00000150: b2a3 dd3c 2730 38be d9ae 6a3e 56b0 a53d
00000160: 1ebd debb b911 203e 249b 3b3e 1c86 2ebe
00000170: f179 33be 2c0b 9e3d 33e1 3e3e a7c5 3dbe
00000180: e4da e43d 7a77 f0bc e830 8cbe a095 60be
00000190: 52d1 08bd 981a f0bd 29bf 093e fc4e 313d
000001a0: 9482 31be b415 35bd 4707 febd fbfc 65bd
000001b0: 902f 873e 13e0 c8bd fd96 6c3d 73a7 ecbc
000001c0: 326c 9ebe d48f 9cbe ffb8 4f3d f6f9 0ebe
000001d0: 3a8e 4f3d c535 733d b74b 863e 2be0 a33c
000001e0: e2fb 84be 40fc 983a b3cb 27be 153e 003e
000001f0: 4d02 bcbc 2ae9 4f3e 9f34 2fbd add3 2e3e
00000200: f794 a13d 3327 bcbd 83f3 4dbe 435e 4cbe
00000210: 9dbd 32be 7113 303e 0621 debd ec32 5c3d
00000220: bd1b ddbd 1ef9 13be 9dbc bcbd 0b27 c3bd
00000230: c0fe 6e3b 4704 2dbe 76b7 b13d 0760 6b3d
00000240: 56aa 5dbe 21a8 d9bd 433f 5fbd 765a 37be
00000250: 2c50 153e e718 43be 15ea 903e 9032 5bbd
00000260: d7aa 86be f70c 233e 8e01 cfbd 693d 2dbd
00000270: 568f b03d 9605 1bbe b107 933d 41e0 c9bd
00000280: c5be 2e3e 7e24 1b3d 01f9 8bbe 6a71 36be
00000290: 6105 243e 845d c73d e85a 853e aff8 9abe
000002a0: 6b40 8cbd 2700 463e 03f2 af3d e6da fabd
000002b0: ccb2 14be 670b 393d e0e4 853d 059c ce3d
000002c0: a747 0b3e a92f 76be 10ec 34be e8c7 31be
000002d0: 2b56 1d3e 771f 2abe 5ea7 90bc f3c4 083e
000002e0: 62df 353e 6d2b 083e 027f 09be 8b17 a53d
000002f0: 3545 d1bd 4cdb 943c 07b6 5abe b9e7 f0bd
00000300: fa0c 84be 4c72 9d3c 5603 bdbd 1682 b33d
00000310: afa1 e0bd f9b2 65bd d255 05be f0c9 87be
00000320: f840 8dbd f219 3cbd 1626 90be 8205 df3d
00000330: 3c96 1fbe c8f3 1bbe e0d0 07be d860 3b3b
00000340: 7e25 b5bd f48d a3bd 2b4c 2f3e 3e16 1abd
00000350: f6f2 123e 7b97 7dbd 294b 5a3e 9fe4 adbd
00000360: 21bc 08be 4e49 8abe 22aa df3d 152a 99be
00000370: b74f b3bd 9665 49be f7b4 59be c0eb 88bd
00000380: 1efc 75be 7672 45be 9256 74be add5 143d
00000390: ff6e b0bd f246 8c3d 0d7b d4bd de89 653d
000003a0: 1c23 2a3e 2e01 1e3e b22d 8bbc 5903 24be
000003b0: 6a9f 42be 30c9 06be 3ab5 4f3b f401 8f3e
000003c0: 2fc0 b0bb 1df3 4d3e 69b5 bebc 59a9 aa3d
000003d0: ea10 fdbd bbf8 9c3d 84bb 9f3c 0625 9f3d
000003e0: 51a6 6abd 609b 693d 77de 7fbe 3df1 c63d
000003f0: 800b fa3d 506a 453e 2745 96bd d52e a53d

FeatureExtractor.LSTM.bias_ih_l0 f4 [64]
0.10019932 0.21279554 0.2516956 0.21993515 0.0080095865 0.13057639 0.0409702 0.024988925
-0.1549786 -0.14592898 -0.053768765 -0.14436086 -0.037278067 0.068190716 -0.059256952 -0.06919665
0.27497268 -0.13413543 0.098922126 -0.12460277 -0.08122808 -0.14869423 0.24731755 0.17299375
0.12560105 0.1259346 0.07402703 0.18130332 0.06912916 0.28183135 0.11403296 -0.20504452
-0.20438923 -0.065022804 0.21486782 -0.061513007 0.037998557 0.28089947 0.23472498 -0.25106707
-0.052388366 -0.21036966 -0.08503474 -0.25512356 0.064536214 -0.20030467 -0.029497793 -0.029242061
-0.110149845 -0.12014309 0.008797499 0.27647233 0.08524534 -0.06341874 -0.03404429 -0.0771034
0.17471121 -0.12227767 0.00792602 0.12011101 0.26809287 -0.17611064 -0.11950775 -0.0030571327
00000000: 4d35 cd3d 13e7 593e 3fde 803e ae36 613e
00000010: a43a 033c d1b5 053e 5ed0 273d 93b5 cc3c
00000020: b6b2 1ebe 686e 15be a33c 5cbd 55d3 13be
00000030: e3b0 18bd 93a7 8b3d 6bb7 72bd f9b6 8dbd
00000040: 38c9 8c3e cc5a 09be af97 ca3d bd2f ffbd
00000050: e85a a6bd 4d43 18be d040 7d3e 4625 313e
00000060: 909d 003e 00f5 003e 7c9b 973d 94a7 393e
00000070: 9793 8d3d 334c 903e 1d8a e93d 31f7 51be
00000080: 694b 51be ad2a 85bd 4f06 5c3e 10f5 7bbd
00000090: 60a4 1b3d 0ed2 8f3e bf5b 703e dd8b 80be
000000a0: 2f95 56bd 256b 57be b226 aebd 8e9f 82be
000000b0: 902b 843d ab1c 4dbe 5ba5 f1bc 0c8d efbc
000000c0: 3e96 e1bd 950d f6bd 6323 103c c88d 8d3e
000000d0: 1c95 ae3d afe1 81bd 0772 0bbd 63e8 9dbd
000000e0: 7fe7 323e b76c fabd 23dc 013c c3fc f53d
000000f0: 7843 893e 5956 34be 7bc0 f4bd 2d5a 48bb

FeatureExtractor.LSTM.bias_hh_l0 f4 [64]
0.27957717 -0.096175194 0.17631902 0.19854689 0.025298288 0.082195394 0.23947164 -0.029783033
0.13445358 -0.1261342 0.24164727 0.11650423 -0.14729892 0.113632716 0.16506118 0.08689614
0.08337497 -0.027161786 0.1710203 -0.08352733 0.18292832 -0.062254652 0.14755715 0.051286105
0.04742095 0.0656545 0.2677487 0.19269669 0.20118241 0.10606326 0.17423856 -0.20301722
0.030938538 0.045192346 -0.08225512 -0.08770699 0.14332947 0.14572589 0.08331492 -0.120896146
-0.12014268 -0.1286273 -0.13898972 -0.035825063 0.19433863 0.0007277053 -0.16789158 -0.06157726
0.05358516 -0.018368606 0.2209294 -0.15919524 0.24215792 -0.06341695 0.17821407 0.2808781
0.07474188 0.0436471 0.2055359 -0.037745476 0.30366865 0.19910945 -0.039974295 -0.020679051
00000000: bd24 8f3e 80f7 c4bd f98c 343e e04f 4b3e
00000010: 5b3e cf3c 0f56 a83d 0e38 753e 8cfb f3bc
00000020: 33ae 093e 5329 01be 6272 773e c599 ee3d
00000030: 87d5 16be 45b8 e83d cc05 293e 9af6 b13d
00000040: 7fc0 aa3d 6582 debc f21f 2f3e 6010 abbd
00000050: 9051 3b3e bcfe 7ebd 3919 173e 6111 523d
00000060: 783c 423d de75 863d 5c16 893e 4852 453e
00000070: c302 4e3e b237 d93d 986b 323e bfe3 4fbe
00000080: d172 fd3c 9c1b 393d 5f75 a8bd b99f b3bd
00000090: f6c4 123e 2b39 153e 03a1 aa3d 6698 f7bd
000000a0: 5e0d f6bd e0b6 03be 5253 0ebe 4dbd 12bd
000000b0: b500 473e 7ac3 3e3a c5eb 2bbe 7038 7cbd
000000c0: 1d7c 5b3d c279 96bc 513b 623e 1404 23be
000000d0: 3ff8 773e bfe0 81bd c07d 363e 41cf 8f3e
000000e0: 4512 993d 4dc7 323d 0178 523e 009b 1abd
000000f0: 757a 9b3e 59e3 4b3e 16bc 23bd 1d67 a9bc

GlucoseModel.fc_layer1.weight f4 [16, 17]
-0.01039786 0.08946672 0.13887 0.18887249 0.12035814 -0.13431443 0.1536961 0.12055376
-0.045709476 -0.075571954 -0.115827866 0.21678063 0.121534236 -0.0021003485 0.12925099 -0.16401921
0.19615324 0.11271046 -0.21986894 -0.10900469 0.2087429 -0.14293538 0.18645208 0.055964828
0.13079058 0.19758207 0.08424871 0.11696427 -0.015440951 0.08993262 -0.10988901 -0.20910193
-0.15794004 0.087870575 0.1007234 -0.051639948 0.045016125 -0.052855924 -0.07996937 -0.008884753
-0.19209595 0.00412139 0.06953294 -0.17170084 -0.07371612 -0.1485785 0.1203782 0.1864437
0.227553 -0.014449195 -0.054529812 0.17488092 -0.050499093 -0.17086801 -0.15608832 0.023620414
-0.055122837 0.15053718 -0.1982915 0.038166147 -0.024068644 -0.12997651 0.2419404 -0.16389415
0.12704527 -0.024815483 -0.13222823 0.0852921 -0.062477134 -0.08309611 -0.24130519 0.15099189
-0.11957044 -0.041613325 -0.04403923 -0.031124305 0.0046792277 -0.08182694 0.20558533 0.17965038
-0.21948282 0.05657037 0.0027770745 -0.06984748 0.13201283 0.23021887 -0.0041020475 -0.032129824
0.14919297 0.2075074 0.21596721 0.112651885 0.20967841 0.035793994 -0.217508 0.021072933
-0.059991933 -0.23899624 0.040613648 -0.09926873 0.21639201 -0.016730882 0.087843634 -0.18105637
0.18720447 -0.10268569 -0.20858674 -0.070165895 -0.106239066 -0.09573556 0.04378214 0.19286175
0.01158333 -0.07218754 -0.099649556 -0.24204703 -0.030970288 -0.081844 -0.081486985 0.1429763
0.016589442 0.18623431 0.007907799 0.21010973 -0.049716286 0.15289757 -0.01438021 -0.10878114
-0.15273996 0.19663633 0.071234934 0.12075265 0.08472814 -0.09425038 -0.0674766 -0.0105796615
0.17405237 0.12894665 -0.1164954 -0.19588007 0.0348053 -0.14783739 -0.19367084 0.06357031
-0.072188325 0.062932275 -0.20018664 -0.21120942 -0.23871249 -0.02242147 0.1618086 0.009911147
0.098661475 -0.04389834 -0.020599578 -0.02339932 -0.11974311 -0.16649494 0.049933072 0.026802784
-0.10465093 -0.16605237 0.15391357 -0.1686842 0.015208581 0.05853032 0.04838339 0.23342998
-0.20913026 -0.074521765 -0.17095964 0.17221288 -0.046122406 -0.15647806 0.15797919 -0.05751867
0.16141802 0.004119077 0.17649381 0.22414307 0.16640149 -0.06984531 0.06612208 0.038402796
-0.098655604 -0.011350903 -0.065314 -0.09199443 0.16706845 -0.052955672 0.051190678 -0.21770181
-0.10454722 0.16824284 0.16561542 -0.046604868 -0.20658088 0.10443429 0.0815593 -0.08927356
-0.06676405 -0.0594103 0.15298913 -0.068135805 0.1851427 -0.022734564 -0.09030235 -0.1742353
-0.0670702 -0.18831836 -0.23327044 0.16560252 -0.026402576 0.13539457 -0.20089023 0.06801593
0.05928051 -0.127307 0.17122844 -0.23360033 0.045734484 0.17370942 0.11204681 -0.045128334
-0.17507784 0.12169985 0.07333239 0.07051866 0.1822788 -0.18285316 0.10584745 0.06520937
0.046575606 -0.1027964 -0.1261863 0.010473784 -0.091866225 0.14009595 -0.20457324 0.06387543
-0.03745623 0.17640962 -0.17961738 0.13848865 0.08428156 -0.08500775 -0.0023861197 0.059592158
-0.14034781 -0.1607687 -0.120670624 -0.088782534 0.12159458 -0.068493135 0.19627735 -0.064862415
00000000: c95b 2abc 543a b73d f033 0e3e ca67 413e
00000010: 547e f63d b989 09be 8362 1d3e e4e4 f63d
00000020: dc39 3bbd 78c5 9abd 2937 edbd befb 5d3e
00000030: f1e6 f83d 00a6 09bb 5f5a 043e a7f4 27be
00000040: 65dc 483e bed4 e63d 5325 61be da3d dfbd
00000050: b3c0 553e a75d 12be 4bed 3e3e 603b 653d
00000060: f7ed 053e f452 4a3e 968a ac3d f78a ef3d
00000070: 0bfc 7cbc 982e b83d 7d0d e1bd d11e 56be
00000080: 09bb 21be 7df5 b33d 1248 ce3d 6984 53bd
00000090: d462 383d 747f 58bd fbc6 a3bd 5b91 11bc
000000a0: cdb4 44be ba0c 873b 4967 8e3d 58d2 2fbe
000000b0: 7af8 96bd f624 18be d988 f63d 19eb 3e3e
000000c0: a703 693e 51bc 6cbc a75a 5fbd fc13 333e
000000d0: 23d8 4ebd 06f8 2ebe 9ed5 1fbe 997f c13c
000000e0: 7cc8 61bd 6b26 1a3e ed0c 4bbe 1b54 1c3d
000000f0: 9b2b c5bc 9018 05be 39bf 773e ded3 27be
00000100: 2818 023e d749 cbbc d666 07be a0ad ae3d
00000110: 06e8 7fbd 4b2e aabd b518 77be 9e9d 1a3e
00000120: 59e1 f4bd bc72 2abd 7b62 34bd 66f8 febc
00000130: 3554 993b e294 a7bd f684 523e 45f6 373e
00000140: 1bc0 60be 55b6 673d 94ff 353b 320c 8fbd
00000150: 5f2e 073e 7fbe 6b3e 786a 86bb 909a 03bd
00000160: 0bc6 183e d27c 543e 8226 5d3e 08b6 e63d
00000170: f0b5 563e b99c 123d 6bba 5ebe 25a1 ac3c
00000180: 1aba 75bd 6ebb 74be 7f5a 263d 674d cbbd
00000190: de95 5d3e 340f 89bc 5de7 b33d d766 39be
000001a0: 87b2 3f3e e04c d2bd c397 55be 23b3 8fbd
000001b0: de93 d9bd 0111 c4bd e754 333d 8d7d 453e
000001c0: 02c8 3d3c 10d7 93bd 1115 ccbd 2ddb 77be
000001d0: 67b5 fdbc d49d a7bd a6e2 a6bd 6168 123e
000001e0: 95e6 873c 35b4 3e3e b78f 013c 0127 573e
000001f0: 4ea3 4bbd 2e91 1c3e f99a 6bbc a5c8 debd
00000200: dd67 1cbe 095b 493e 9fe3 913d 2a4d f73d
00000210: f285 ad3d 5806 c1bd 2c31 8abd 5156 2dbc
00000220: c93a 323e 970a 043e 2495 eebd c994 48be
00000230: 0190 0e3d af62 17be a651 46be 2731 823d
00000240: 79d7 93bd a3e2 803d bafd 4cbe 4847 58be
00000250: 0c71 74be 3bad b7bc 27b1 253e 5d62 223c
00000260: 070f ca3d bfce 33bd 72c0 a8bc eeaf bfbc
00000270: e03b f5bd a67d 2abe 9f86 4c3d 8391 db3c
00000280: 3a53 d6bd a209 2abe 859b 1d3e 8dbb 2cbe
00000290: 6a2d 793c 7dbd 6f3d a92d 463d 4508 6f3e
000002a0: 3e26 56be de9e 98bd 0b10 2fbe 9358 303e
000002b0: d9ea 3cbd c93b 20be 4cc5 213e b298 6bbd
000002c0: c44a 253e 53f9 863b cbba 343e c385 653e
000002d0: 2765 2a3e 0f0b 8fbd 036b 873d 404c 1d3d
000002e0: f30b cabd 23f9 39bc 59c3 85bd 9367 bcbd
000002f0: fe13 2b3e 0ce8 58bd 51ad 513d 39ed 5ebe
00000300: da1c d6bd da47 2c3e 1797 293e bfe4 3ebd
00000310: f089 53be a5e1 d53d 9008 a73d 0ed5 b6bd
00000320: 97bb 88bd 3758 73bd 2fa9 1c3e c98a 8bbd
00000330: 0c96 3d3e d63d babc 70f0 b8bd bd6a 32be
00000340: 1a5c 89bd 87d6 40be 72de 6ebe b593 293e
00000350: 374a d8bc e0a4 0a3e 2bb6 4dbe f04b 8b3d
00000360: 1fd0 723d c45c 02be 8256 2f3e ed34 6fbe
00000370: 1554 3b3d e2e0 313e cc78 e53d 7dd8 38bd
00000380: 9b47 33be c53d f93d 4b2f 963d 166c 903d
00000390: 4ba7 3a3e dc3d 3bbe 8cc6 d83d 7d8c 853d
000003a0: 10c6 3e3d eb86 d2bd fb36 01be 3c9a 2b3c
000003b0: 5c24 bcbd 5075 0f3e a67b 51be 1fd1 823d
000003c0: b46b 19bd b9a4 343e 9eed 37be f8cf 0d3e
000003d0: cf9b ac3d 8b18 aebd 7260 1cbb e816 743d
000003e0: 56b7 0fbe 8da0 24be 2922 f7bd 9ed3 b5bd
000003f0: 9406 f93d 2146 8cbd eefc 483e 96d6 84bd

GlucoseModel.fc_layer1.bias f4 [16]
-0.20373604 -0.027521346 0.0799884 -0.23921427 0.12990068 -0.111645095 0.18241812 0.17097606
-0.022377696 -0.18521398 -0.19160253 0.034938645 -0.18753713 0.056881584 -0.043585967 0.025057826
00000000: 2ea0 50be 7274 e1bc f5d0 a33d 96f4 74be
00000010: af04 053e 2fa6 e4bd d1cb 3a3e 5914 2f3e
00000020: 6e51 b7bc bca8 3dbe 7433 44be d31b 0f3d
00000030: bc09 40be aafc 683d 3387 32bd 1246 cd3c

GlucoseModel.cgm_mu.weight f4 [1, 16]
-0.008754934 0.029427942 0.012378305 -0.030442173 0.0014549383 -0.035166785 -0.031495407 -0.02855334
0.012576785 -0.014773409 -0.011396108 0.027374689 -0.012391565 -0.03396381 -0.031947255 -0.03671422
00000000: db70 0fbc de12 f13c 60ce 4a3c dd61 f9bc
00000010: a1b3 be3a 0c0b 10bd 5401 01bd b2e8 e9bc
00000020: dc0e 4e3c 2b0c 72bc beb6 3abc e240 e03c
00000030: fe05 4bbc a31d 0bbd 20db 02bd a661 16bd

GlucoseModel.cgm_sigma.weight f4 [1, 16]
0.012793139 -0.001968773 0.01604778 -0.033089273 0.00023102632 0.022815734 0.014223888 0.008256782
-0.029064251 -0.03720326 -0.037154246 0.0338384 -0.03952562 0.005784088 0.036547355 0.0017880991
00000000: 509a 513c 8806 01bb a276 833c 9e88 07bd
00000010: a83f 7239 10e8 ba3c 4f0b 693c 7447 073c
00000020: 2718 eebc 7262 18bd 0d2f 18bd 229a 0a3d
00000030: 9ee5 21bd 7288 bd3b aeb2 153d a65e ea3a

ActionModule.fc_layer1.weight f4 [32, 16]
0.105689645 0.22461584 0.24675533 0.13505861 -0.07647264 -0.099384636 -0.19120869 -0.00040626526
0.16033891 0.19439584 0.24337465 0.058333874 -0.22688133 0.23479128 0.045877248 0.095424116
0.24489537 -0.12519339 -0.12175279 0.17731567 -0.12810545 0.012403324 0.12555934 0.061574545
0.23410095 -0.19182473 -0.137379 0.0073373504 -0.24925065 -0.057551116 0.16971561 0.13472484
0.07330299 0.017152337 -0.13019343 0.14579938 -0.05092691 -0.21886352 0.20156579 -0.21046987
-0.2049437 -0.18205439 0.0057037296 0.14276263 -0.032343615 0.06377285 -0.031010928 -0.160444
0.0401895 -0.19627537 -0.1878512 -0.18019076 0.06357354 -0.018486207 -0.06561251 0.0702674
-0.26578844 0.04769341 -0.17309824 0.14040576 -0.24972613 -0.2521382 0.1662852 -0.12394936
-0.0734274 -0.0022543855 -0.17971678 -0.00746459 -0.15913786 -0.12059757 -0.16026637 -0.17002496
-0.14625353 -0.26937217 -0.08050223 -0.113701805 0.075495966 0.01958591 0.14345248 -0.0930029
-0.0066708857 -0.23629719 0.20670104 0.046342757 0.16577983 0.15991147 -0.17777249 -0.16143619
0.012273216 0.14255604 0.19858216 -0.08310757 -0.031553168 -0.17125838 -0.21107261 0.16455778
-0.20659368 -0.17185417 0.22592585 -0.084936514 -0.05128321 0.017715355 0.019435078 0.16423123
-0.20422837 0.07361389 -0.067814454 0.05760428 0.21260366 -0.14198634 -0.0074769147 0.030873904
0.09180331 -0.10406239 0.028424483 0.13075367 0.013316725 0.14326191 0.19687755 -0.19366334
0.19730729 -0.19702972 0.14677532 0.19735561 0.2554358 -0.24402308 0.124558404 0.05260173
0.14206187 -0.0003964682 -0.19105454 0.15313388 -0.28088096 0.19427024 0.11882384 -0.16918036
-0.269008 0.14910005 -0.18522832 0.097996235 0.19093908 0.14500187 -0.23982996 -0.09639378
-0.040830493 -0.23179208 -0.18676944 -0.14619447 -0.028951582 -0.03488307 -0.20585404 -0.08689664
0.023485513 -0.18617482 0.19095209 -0.02830921 -0.07906045 -0.12837365 0.0022837932 -0.0537671
-0.061324604 -0.26718193 -0.29271796 -0.10651405 -0.17978147 -0.12638281 -0.10861745 -0.049786188
0.03128268 -0.3028327 -0.29579997 -0.13796169 -0.071577094 -0.069351465 -0.0019502544 0.03802309
-0.057041958 0.01660332 -0.11539809 0.041716695 -0.24503331 0.2782644 0.24247953 -0.08093777
-0.1746973 -0.13614027 -0.23848255 -0.25096017 0.1287025 -0.1605944 0.05861148 -0.007828085
0.20373103 -0.102240875 -0.1567655 0.2316207 0.08643737 -0.19847187 -0.12116999 0.102026105
0.12111871 -0.20678155 0.0020515984 -0.0799993 -0.06288244 0.2539114 -0.061867904 0.11873607
-0.022488393 -0.15964426 0.22104403 -0.20876628 0.04746449 0.014443913 -0.11444351 -0.12790741
-0.20995727 -0.13716142 0.22300859 0.08498231 0.012002592 -0.045604717 -0.13261406 -0.0836351
-0.19697344 -0.11628176 -0.20479979 -0.25790444 -0.12103187 0.15520638 0.055237036 -0.21802159
0.006373191 -0.03805633 -0.18653283 -0.086369276 0.18093537 0.11201391 0.11794448 0.08806517
-0.11792753 -0.24670112 -0.09535666 -0.10700939 0.053585123 0.12500025 -0.025810447 -0.1391332
0.17065854 -0.26780498 -0.060908336 -0.06768477 0.2588589 -0.20068617 -0.07023296 0.14017925
00000000: d073 d83d b201 663e 6ead 7c3e ce4c 0a3e
00000010: b09d 9cbd 2c8a cbbd 36cc 43be 0000 d5b9
00000020: e22f 243e b40f 473e 3437 793e 80ef 6e3d
00000030: 9453 68be 206d 703e c8e9 3b3d b86d c33d
00000040: dac5 7a3e b232 00be 8759 f9bd 3d92 353e
00000050: 132e 03be 5037 4b3c a192 003e 9735 7c3d
00000060: 29b8 6f3e b46d 44be 15ad 0cbe 286e f03b
00000070: 903b 7fbe b8ba 6bbd eec9 2d3e 4ff5 093e
00000080: e11f 963d 0f83 8c3c 6d51 05be 6f4c 153e
00000090: bc98 50bd c21d 60be 4367 4e3e 6a85 57be
000000a0: c3dc 51be 776c 3abe 5ae6 ba3b 5e30 123e
000000b0: bd7a 04bd 579b 823d a10a febc 6f4b 24be
000000c0: bf9d 243d 69fc 48be 115c 40be ed83 38be
000000d0: d832 823d 6370 97bc da5f 86bd 5be8 8f3d
000000e0: 6c15 88be 2a5a 433d aa40 31be 87c6 0f3e
000000f0: 35b8 7fbe 4218 81be ab46 2a3e 29d9 fdbd
00000100: 1b61 96bd 50be 13bb ad07 38be 8599 f4bb
00000110: 09f5 22be dcfb f6bd de1c 24be 061b 2ebe
00000120: 7cc3 15be 26eb 89be 5ade a4bd 7edc e8bd
00000130: a19d 9a3d a172 a03c 35e5 123e 4e78 bebd
00000140: 7297 dabb e4f7 71be 70a9 533e e7d1 3d3d
00000150: 30c2 293e d5bf 233e fe09 36be 874f 25be
00000160: 9915 493c 36fa 113e 1f59 4b3e 4d34 aabd
00000170: e53d 01bd 5b5e 2fbe 6b23 58be d681 283e
00000180: 4b8d 53be 8afa 2fbe 1b59 673e 32f3 adbd
00000190: 580e 52bd cb1f 913c 5036 9f3c 3b2c 283e
000001a0: 3e21 51be e1c2 963d 4ee2 8abd 77f2 6b3d
000001b0: c6b4 593e de64 11be e800 f5bb 45eb fc3c
000001c0: 6003 bc3d aa1e d5bd 76da e83c 4ae4 053e
000001d0: 652e 5a3c 40b3 123e 459a 493e af4f 46be
000001e0: ec0a 4a3e 29c2 49be 454c 163e 9717 4a3e
000001f0: 7bc8 823e 30e1 79be 7a18 ff3d e974 573d
00000200: ab78 113e 10dd cfb9 cda3 43be 21cf 1c3e
00000210: a1cf 8fbe c7ee 463e ea59 f33d 9e3d 2dbe
00000220: 6bbb 89be afad 183e 7eac 3dbe 40b2 c83d
00000230: 8985 433e 5f7b 143e fc95 75be 1a6a c5bd
00000240: e03d 27bd e75a 6dbe 7d40 3fbe 01b4 15be
00000250: de2b edbc 8de1 0ebd 67cb 52be def6 b1bd
00000260: b164 c03c 9da4 3ebe f288 433e b7e8 e7bc
00000270: 72ea a1bd 6274 03be b1ab 153b e43a 5cbd
00000280: 822f 7bbd 12cc 88be 21df 95be 0a24 dabd
00000290: a218 38be 7f6a 01be d372 debd 9aec 4bbd
000002a0: 4422 003d e30c 9bbe 1873 97be d445 0dbe
000002b0: 0397 92bd 2408 8ebd ae9f ffba 1abe 1b3d
000002c0: d4a4 69bd b003 883c d555 ecbd 20df 2a3d
000002d0: 03ea 7abe ac78 8e3e 8e4c 783e b4c2 a5bd
000002e0: d9e3 32be 5b68 0bbe c534 74be da7d 80be
000002f0: 97ca 033e dc72 24be 9712 703d 5e41 00bc
00000300: de9e 503e aa63 d1bd 2387 20be fa2d 6d3e
00000310: 1306 b13d 363c 4bbe f927 f8bd 10f3 d03d
00000320: 160d f83d 8bbe 53be 1c74 063b acd6 a3bd
00000330: 82c8 80bd ad00 823e 3369 7dbd e62b f33d
00000340: 9439 b8bc c979 23be 5e59 623e d4c6 55be
00000350: 206a 423d 29a6 6c3c 5c61 eabd 29fa 02be
00000360: 0aff 56be 0b74 0cbe 5d5c 643e 350b ae3d
00000370: 85a6 443c 03cc 3abd fbcb 07be e148 abbd
00000380: 68b3 49be 2225 eebd 09b7 51be 0d0c 84be
00000390: 8fdf f7bd 6cee 1e3e 3b40 623d 0d41 5fbe
000003a0: 33d6 d03b f4e0 1bbd 7602 3fbe 60e2 b0bd
000003b0: 1f47 393e 8d67 e53d e08c f13d 835b b43d
000003c0: fd83 f1bd 389f 7cbe 5a4a c3bd bd27 dbbd
000003d0: 137c 5b3d 1100 003e 6e70 d3bc ef78 0ebe
000003e0: 1dc1 2e3e bc1d 89be 057b 79bd 509e 8abd
000003f0: 2789 843e ad80 4dbe 4cd6 8fbd 268b 0f3e

ActionModule.fc_layer1.bias f4 [32]
0.010651737 -0.06326981 0.15706144 -0.09063513 0.08317196 -0.04528856 -0.19468121 0.18095434
0.19186233 -0.2453159 0.06502017 0.26962256 0.064877704 -0.21714078 0.10196211 0.1276052
-0.117293924 0.1172236 0.11458352 0.14874607 -0.24543655 -0.14112169 0.12633243 -0.16080868
-0.07792206 0.05652553 -0.24657089 0.034079585 -0.20246407 0.17362982 -0.1352014 0.11216419
00000000: a084 2e3c 9a93 81bd b7d4 203e e99e b9bd
00000010: 1056 aa3d 7f80 39bd 835a 47be 184c 393e
00000020: 8f77 443e 1734 7bbe 4b29 853d f80b 8a3e
00000030: 9ade 843d 275a 5ebe 83d1 d03d f0aa 023e
00000040: cc37 f0bd ed12 f03d c4aa ea3d e450 183e
00000050: b853 7bbe 3482 10be 4a5d 013e 08ab 24be
00000060: 9a95 9fbd 5087 673d 147d 7cbe 0997 0b3d
00000070: be52 4fbe 04cc 313e 3c72 0abe 57b6 e53d

ActionModule.fc_layer2.weight f4 [32, 32]
-0.1407772 0.052869447 0.029293029 -0.04402514 -0.086398445 -0.16222613 -0.023119485 -0.16153622
-0.10724219 0.02651296 -0.17624505 -0.057358067 0.0229918 -0.06861126 -0.020547051 0.107274875
-0.02637318 0.009145318 -0.0013082171 -0.16814922 -0.012913878 0.106212586 -0.06533644 -0.08235237
0.15194748 -0.15708213 0.13331246 0.106609374 -0.052689943 -0.16391718 0.0758486 0.013397851
-0.1591374 0.017442094 0.0907394 0.029863192 0.04813665 0.08237593 0.16740884 -0.12189155
-0.115857385 0.028644452 0.1452492 -0.17070718 0.013812744 0.1618696 0.043055132 -0.10802606
0.064033516 -0.1600975 -0.1417893 -0.173587 -0.11443061 -0.07368352 0.06752239 0.17368531
-0.1468032 0.083867125 0.1048987 0.10031603 -0.018542169 -0.101171635 0.035120126 0.061338414
0.12219562 0.044113483 0.20074782 -0.18208125 0.17706996 -0.19943914 -0.077124454 0.18855456
0.19520436 -0.13626438 0.16738385 0.08079558 -0.03686461 -0.07595824 0.12384729 0.02468083
0.09492773 -0.14863506 -0.04580546 0.18877862 -0.14485708 -0.076254524 0.042035792 -0.17197637
-0.038124323 0.14533263 -0.027575945 0.022991132 -0.015184456 0.103430435 0.09555293 0.2202551
0.00095696526 -0.017519124 -0.04722679 -0.19425255 0.18414617 -0.108031504 0.124620155 -0.06294512
-0.006717195 -0.05473634 0.16646092 0.046381187 0.01892083 0.09751807 0.046445753 0.04617562
0.10839322 0.14639331 0.11113514 -0.10802402 0.058479235 -0.17385954 -0.1449881 0.034046963
0.1866114 0.10391256 0.13293514 -0.11887094 0.05336379 -0.029730981 0.14130163 0.0340162
-0.1645242 0.08849923 0.14584295 0.059002154 -0.118291974 -0.020740295 0.1107617 -0.07673352
-0.06398376 0.014410155 -0.049045973 -0.061435416 0.063384116 0.05998434 0.09952051 0.054811556
-0.09271571 -0.074309506 -0.060984697 -0.17586398 0.07544383 -0.030999744 -0.011287726 -0.12336132
-0.1068851 -0.009285604 -0.08222159 0.053539604 -0.0038769199 -0.09771875 -0.09589647 -0.12967913
-0.04488949 -0.0974489 -0.011511737 -0.018378416 -0.06711552 -0.10055241 -0.07887265 0.22031584
0.07790171 0.114401504 -0.08200102 -0.08198489 -0.12458884 -0.13718091 0.025603788 0.09837193
-0.07871183 0.02631655 -0.07604198 0.18854116 -0.16020894 0.03354284 -0.014569627 -0.03219288
0.11109091 -0.037974603 0.1043219 -0.15210354 0.01489653 0.1093031 -0.035142716 0.1642877
0.014810592 -0.060326256 -0.07503689 0.08396034 0.08516898 -0.04246267 0.13965842 -0.07190402
0.086343616 -0.1630525 0.13777657 0.17074226 0.10697123 -0.10035156 0.16374019 0.18410891
-0.08490681 0.0018762494 -0.12406365 -0.07886871 0.024409495 -0.00986409 -0.08373298 0.16765207
0.0039444063 -0.10611776 0.037458412 -0.00037864954 0.11981131 -0.006659149 -0.023004804 0.16323009
-0.016725365 -0.07543727 -0.024834897 -0.18012288 0.0011670403 -0.19966234 -0.10144776 0.024011604
0.07131072 0.08491098 0.06273648 0.12169518 0.054224666 0.027603693 -0.06609799 0.01921319
0.025906593 -0.070320345 -0.1626713 0.15980454 0.046844747 0.042179953 0.15269743 0.079910085
-0.090052836 0.08220046 -0.11015591 0.09565847 0.07763523 -0.00422643 -0.0891687 -0.11172977
00000000: e627 10be a28d 583d eff7 ef3c b553 34bd
00000010: abf1 b0bd 9b1e 26be 1365 bdbc c069 25be
00000020: cba1 dbbd b531 d93c 9579 34be 4bf0 6abd
00000030: 4d59 bc3c 0f84 8cbd 4a52 a8bc eeb2 db3d
00000040: 910c d8bc 3ed6 153c 7b78 abba 4f2f 2cbe
00000050: bb94 53bc fc85 d93d 1dcf 85bd 5ca8 a8bd
00000060: 1f98 1b3e 23da 20be 1083 083e 0456 da3d
00000070: 69d1 57bd e8d9 27be 8356 9b3d a982 5b3c
00000080: eaf4 22be b9e2 8e3c 94d5 b93d a7a3 f43c
00000090: f02a 453d b6b4 a83d 396d 2b3e 47a2 f9bd
000000a0: a346 edbd c5a7 ea3c 35bc 143e ddcd 2ebe
000000b0: d94e 623c 25c1 253e 945a 303d c43c ddbd
000000c0: 0124 833d 99f0 23be 3731 11be cac0 31be
000000d0: 985a eabd 63e7 96bd 2e49 8a3d 90da 313e
000000e0: 9453 16be 87c2 ab3d 21d5 d63d 7e72 cd3d
000000f0: bfe5 97bc 1333 cfbd 1fda 0f3d fd3d 7b3d
00000100: b241 fa3d 57b0 343d d690 4d3e 8273 3abe
00000110: d451 353e c639 4cbe 6df3 9dbd 7214 413e
00000120: a7e3 473e e488 0bbe ac66 2b3e 2778 a53d
00000130: 58ff 16bd fe8f 9bbd a6a3 fd3d 742f ca3c
00000140: 7869 c23d ca33 18be 829e 3bbd 2f4f 413e
00000150: 6a55 14be 552b 9cbd b92d 2c3d 931a 30be
00000160: 4028 1cbd 14d2 143e f3e6 e1bc e657 bc3c
00000170: 39c8 78bc 56d3 d33d 41b1 c33d 8e8a 613e
00000180: dadc 7a3a 4484 8fbc e170 41bd 24ea 46be
00000190: d090 3c3e 9f3f ddbd da38 ff3d 5fe9 80bd
000001a0: ea1b dcbb 3633 60bd bb74 2a3e 33fa 3d3d
000001b0: dbff 9a3c 8eb7 c73d e73d 3e3d a622 3d3d
000001c0: 44fd dd3d 21e8 153e d29a e33d b33b ddbd
000001d0: ec87 6f3d 3c08 32be c377 14be d474 0b3d
000001e0: 0f17 3f3e 1cd0 d43d 2620 083e 9b72 f3bd
000001f0: fd93 5a3d 638e f3bc 60b1 103e 9254 0b3d
00000200: 0879 28be 163f b53d db57 153e 3eac 713d
00000210: 1043 f2bd 8de7 a9bc 08d7 e23d 7726 9dbd
00000220: eb09 83bd 9218 6c3c 6ee4 48bd b4a3 7bbd
00000230: 88cf 813d 24b2 753d 69d1 cb3d 1582 603d
00000240: bce1 bdbd 952f 98bd 17cb 79bd b015 34be
00000250: 4b82 9a3d 2df3 fdbc 28f0 38bc dca4 fcbd
00000260: 93e6 dabd a522 18bc cb63 a8bd 584c 5b3d
00000270: ec13 7ebb c520 c8bd 5e65 c4bd 9bca 04be
00000280: 0bde 37bd 4a93 c7bd b99b 3cbc 558e 96bc
00000290: dd73 89bd 6cee cdbd fc87 a1bd 7a9a 613e
000002a0: ef8a 9f3d 564b ea3d 27f0 a7bd b2e7 a7bd
000002b0: 6f28 ffbd 2779 0cbe 09bf d13c 3977 c93d
000002c0: ab33 a1bd ce95 d73c e6bb 9bbd ef10 413e
000002d0: d00d 24be 3864 093d 72b5 6ebc aedc 03bd
000002e0: a283 e33d 428b 1bbd b8a6 d53d 08c1 1bbe
000002f0: 9310 743c 4eda df3d cff1 0fbd 093b 283e
00000300: 20a8 723c aa18 77bd f1ac 99bd 66f3 ab3d
00000310: 136d ae3d 56ed 2dbd 9e02 0f3e 6a42 93bd
00000320: ecd4 b03d 3cf7 26be 4d15 0d3e 0fd7 2e3e
00000330: bb13 db3d 1e85 cdbd 82ab 273e 0c87 3c3e
00000340: 9fe3 adbd 7cec f53a 1515 febd eb85 a1bd
00000350: 6cf6 c73c fe9c 21bc 327c abbd fcac 2b3e
00000360: 1440 813b 4554 d9bd fe6d 193d 7b85 c6b9
00000370: a25f f53d fe34 dabb 9274 bcbc ca25 273e
00000380: a203 89bc db7e 9abd 8e72 cbbc 2272 38be
00000390: 60f7 983a 4974 4cbe d8c3 cfbd fcb3 c43c
000003a0: 5b0b 923d cfe5 ad3d fc7b 803d 533b f93d
000003b0: af1a 5e3d 2421 e23c 625e 87bd fb64 9d3c
000003c0: 103a d43c 1d04 90bd 4e93 26be cda3 233e
000003d0: 47e0 3f3d e3c4 2c3d b75c 1c3e e6a7 a33d
000003e0: 9f6d b8bd b758 a83d 6c99 e1bd 97e8 c33d
000003f0: 38ff 9e3d dd7d 8abb 149e b6bd 94d2 e4bd

ActionModule.fc_layer2.bias f4 [32]
-0.09358981 -0.1059565 0.21097837 0.15958184 -0.059203066 0.22702254 0.074909426 0.121702194
0.19331206 -0.016819438 0.118121296 0.071259245 -0.12050865 0.17320603 0.17573215 0.18690799
-0.12296933 -0.04731696 -0.03375324 -0.14944533 0.019666439 -0.041875035 0.16647027 -0.110509835
-0.13347176 -0.10924832 -0.15416136 0.10708967 -0.07868941 0.14067346 0.14244741 0.012445356
00000000: 04ac bfbd b9ff d8bd b70a 583e 6c69 233e
00000010: ea7e 72bd 9978 683e 1d6a 993d 003f f93d
00000020: 99f3 453e ebc8 89bc 94e9 f13d 5ef0 913d
00000030: 3dcd f6bd ec5c 313e 21f3 333e cf64 3f3e
00000040: 58d7 fbbd 6ecf 41bd d640 0abd 3208 19be
00000050: 831b a13c 2885 2bbd 2f77 2a3e fb52 e2bd
00000060: d2ac 08be 95bd dfbd 7adc 1dbe d451 db3d
00000070: ea27 a1bd b40c 103e bcdd 113e 9be7 4b3c

ActionModule.fc_layer3.weight f4 [32, 32]
0.10004271 0.08348033 -0.1327133 -0.15169129 -0.06094472 -0.11490434 0.0646269 -0.15213059
-0.06937057 -0.0029607317 0.11449495 0.1321119 -0.16151062 0.024087556 0.150353 0.11958864
-0.17188068 -0.033965196 0.090186566 -0.04305471 -0.12100482 0.08599171 0.10835122 -0.14774643
0.13182154 -0.1565019 -0.053794634 -0.019019417 -0.061529383 0.08749782 -0.14223845 0.0034962285
0.0005733025 0.05339894 -0.026071962 0.15599085 0.1337959 0.12963904 0.09945012 -0.1266437
0.07284406 -0.15547813 -0.15835847 -0.030455714 0.10549999 0.034951188 -0.0021004605 -0.012877109
0.048265476 -0.09523175 -0.0132614 -0.16149738 0.055451736 0.102693945 0.03561368 0.028824482
0.10626594 -0.015721016 -0.07571698 -0.01971774 0.08743012 0.1777899 0.15507953 -0.06546108
-0.166811 0.048215065 0.041617736 -0.07067886 0.013451208 0.1765847 0.078414194 0.020115457
0.04314867 0.06775991 -0.014072532 -0.07910184 0.034185372 -0.08386992 0.15616503 0.13074788
-0.1153315 0.07464251 -0.17475174 -0.13941954 -0.008966883 -0.09434944 -0.0049379207 0.081168525
0.13997136 0.19190948 0.10485601 0.22180559 0.05769248 0.121922426 0.19591178 -0.09203585
-0.117387466 -0.1313357 0.14118108 0.14727534 -0.14609385 0.13574207 0.012670375 0.21640413
-0.010827592 0.15278496 -0.07824287 0.12594819 0.07248497 0.21595174 0.018564148 0.23143668
-0.08457384 -0.037299287 -0.10737192 -0.018110227 0.033344634 -0.14077827 0.04573579 -0.1378949
0.0010270554 -0.010393013 0.055884507 -0.040968068 -0.12380388 -0.02157632 0.046493802 -0.019566601
-0.15499689 -0.029657178 -0.11030437 -0.16406254 0.16985413 -0.16797909 0.032996304 -0.08574464
0.07128418 0.1090889 0.009274961 0.09315741 -0.15904868 -0.010700557 0.01321466 0.14488141
0.10418587 -0.15505932 -0.039659277 0.012537634 -0.116548255 0.15904741 -0.090114556 -0.09287336
0.0022004026 0.055812415 0.11635737 0.079224885 -0.027080404 -0.034832492 -0.013870191 0.13022593
-0.029087184 -0.05505434 -0.07234241 0.108029306 -0.13960737 0.045790903 0.13306074 0.012583797
0.10211651 -0.103984766 -0.051589314 0.19498037 0.05714295 -0.041153096 0.2427342 0.09099274
-0.1612159 -0.004632423 0.027223175 0.14722525 -0.047295395 0.044727884 0.16603838 0.069635466
0.03292316 0.07018824 0.06949499 0.21641487 0.05391334 0.1560383 0.19918384 -0.04085149
0.11306682 0.13957238 -0.041183434 -0.086143166 -0.07960926 0.12151256 0.0150020225 0.007375888
0.16463083 0.10294364 0.15917459 -0.08338332 0.05458179 -0.15889393 0.16739623 0.057073575
0.11740091 0.02045551 0.047938835 0.0036811267 -0.010606992 0.04299442 -0.120748065 -0.111741535
0.06327757 -0.041043315 -0.07800644 -0.15305708 0.03215425 -0.03101184 0.14684701 -0.009850751
-0.17584653 -0.11323132 -0.09225973 0.1127727 -0.033118654 -0.024187528 -0.07134584 0.027934615
-0.12454549 -0.07003849 -0.08799971 -0.042997245 0.15654472 -0.12427915 0.07365349 -0.117115594
0.13668321 -0.16930191 -0.16471267 0.15131909 0.08232371 -0.08123531 0.15676105 0.035899293
-0.15025038 -0.061566282 0.049771044 0.12341177 -0.12138073 -0.09906399 -0.1434858 0.015149705
00000000: 31e3 cc3d bcf7 aa3d ffe5 07be f654 1bbe
00000010: 2ca1 79bd f752 ebbd 1c5b 843d 1fc8 1bbe
00000020: 2812 8ebd d608 42bb 547c ea3d 5848 073e
00000030: 0a63 25be 4453 c53c 23f6 193e e4ea f43d
00000040: 7d01 30be 171f 0bbd bcb3 b83d 235a 30bd
00000050: 60d1 f7bd 6c1c b03d 3fe7 dd3d d74a 17be
00000060: 3afc 063e 0942 20be c357 5cbd 9cce 9bbc
00000070: 3c06 7cbd 0f32 b33d f5a6 11be fb20 653b
00000080: ae49 163a d9b8 5a3d de94 d5bc 11bc 1f3e
00000090: cb01 093e 19c0 043e 81ac cb3d e3ae 01be
000000a0: 442f 953d a935 1fbe b928 22be 437e f9bc
000000b0: 6110 d83d fa28 0f3d e1a7 09bb 83fa 52bc
000000c0: 05b2 453d dd08 c3bd 5846 59bc 925f 25be
000000d0: 5c21 633d 3451 d23d a6df 113d 5221 ec3c
000000e0: f5a1 d93d 5cc9 80bc 8111 9bbd 1987 a1bc
000000f0: 900e b33d 8e0e 363e 2bcd 1e3e 7510 86bd
00000100: 81d0 2abe 297d 453d 5c77 2a3d 14c0 90bd
00000110: 7562 5c3c 9fd2 343e 9f97 a03d 2cc9 a43c
00000120: a9bc 303d b5c5 8a3d 7a90 66bc 2500 a2bd
00000130: f605 0c3d fec3 abbd bae9 1f3e c6e2 053e
00000140: ec32 ecbd 2cde 983d 1ff2 32be ffc3 0ebe
00000150: d5e9 12bc 473a c1bd 48ce a1bb af3b a63d
00000160: a754 0f3e eb83 443e bfbe d63d 0121 633e
00000170: f34e 6c3d 77b2 f93d 199d 483e 4b7d bcbd
00000180: d768 f0bd de7c 06be c691 103e 59cf 163e
00000190: a099 15be f8ff 0a3e 6897 4f3c 0b99 5d3e
000001a0: 3666 31bc a973 1c3e cc3d a0bd 90f8 003e
000001b0: 0073 943d 7422 5d3e d713 983c bdfd 6c3e
000001c0: 0d35 adbd 23c7 18bd cfe5 dbbd e65b 94bc
000001d0: 6294 083d 2e28 10be 7455 3b3d 5234 0dbe
000001e0: 439e 863a 7547 2abc 27e7 643d 22ce 27bd
000001f0: e38c fdbd d3c0 b0bc 4970 3e3d 234a a0bc
00000200: 81b7 1ebe 9cf3 f2bc 42e7 e1bd 0300 28be
00000210: 3eee 2d3e b602 2cbe 2227 073d e39a afbd
00000220: 71fd 913d 006a df3d 02f6 173c 50c9 be3d
00000230: a8dd 22be 6451 2fbc 4d82 583c cb5b 143e
00000240: 675f d53d dfc7 1ebe c471 22bd a66a 4d3c
00000250: dab0 eebd 53dd 223e fb8d b8bd 6334 bebd
00000260: a134 103b 8f9b 643d c64c ee3d a840 a23d
00000270: b9d7 ddbc 84ac 0ebd cc3f 63bc f259 053e
00000280: 3f48 eebc a980 61bd 4228 94bd 783e dd3d
00000290: 3cf5 0ebe 3e8f 3b3d 1341 083e 452c 4e3c
000002a0: 7622 d13d f7f5 d4bd 514f 53bd efa8 473e
000002b0: ba0e 6a3d 2690 28bd 508f 783e 675a ba3d
000002c0: c815 25be 95cb 97bb 2303 df3c 37c2 163e
000002d0: d1b8 41bd 9634 373d f705 2a3e 0a9d 8e3d
000002e0: 6fda 063d dabe 8f3d 6453 8e3d dc9b 5d3e
000002f0: 3cd4 5c3d 81c8 1f3e d9f6 4b3e e453 27bd
00000300: 948f e73d 10ec 0e3e f6af 28bd d46b b0bd
00000310: 2e0a a3bd 94db f83d 0bcb 753c 6fb1 f13b
00000320: fc94 283e 1dd4 d23d aafe 223e e0c4 aabd
00000330: 2891 5f3d 17b5 22be eb69 2b3e fbc5 693d
00000340: e36f f03d 5092 a73c 835b 443d 0f3f 713b
00000350: f3c8 2dbc eb1a 303d c34a f7bd bfd8 e4bd
00000360: ac97 813d 091d 28bd d7c1 9fbd ffba 1cbe
00000370: 2db4 033d 8b0c febc 105f 163e 0b65 21bc
00000380: 1d11 34be d3e5 e7bd abf2 bcbd 60f5 e63d
00000390: 6da7 07bd ec24 c6bc c51d 92bd 22d7 e43c
000003a0: b511 ffbd 5770 8fbd 3139 b4bd e11d 30bd
000003b0: 424d 203e 1186 febd a4d7 963d 4dda efbd
000003c0: aff6 0b3e 7b5d 2dbe 70aa 28be 64f3 1a3e
000003d0: 5599 a83d b35e a6bd f885 203e 230b 133d
000003e0: 3cdb 19be ed2c 7cbd b9dc 4b3d 4fbf fc3d
000003f0: 7696 f8bd 10e2 cabd f1ed 12be 7836 783c

ActionModule.fc_layer3.bias f4 [32]
-0.030976627 0.09729905 0.22279051 0.19581498 -0.019953202 0.10205034 -0.025364205 -0.14122608
0.067745924 0.17403862 0.14357941 -0.068540335 0.12071462 0.077577695 -0.021657402 -0.15252388
0.21354891 0.11838366 0.13200004 -0.0059542325 -0.10342661 -0.070698515 0.10601244 0.16656724
0.027445639 -0.1533282 0.15575904 -0.07165086 -0.12905818 0.015419668 0.060296565 0.117258355
00000000: b2c2 fdbc b944 c73d 3223 643e b983 483e
00000010: e674 a3bc c5ff d03d 98c8 cfbc 929d 10be
00000020: 60be 8a3d 2e37 323e 7b06 133e e05e 8cbd
00000030: 3a39 f73d 0ee1 9e3d dd6a b1bc 382f 1cbe
00000040: 91ac 5a3e 2273 f23d 052b 073e b91b c3bb
00000050: 55d1 d3bd 62ca 90bd 0d1d d93d 9a90 2a3e
00000060: add5 e03c 1102 1dbe 4c7f 1f3e b0bd 92bd
00000070: d427 04be c6a2 7c3c 88f9 763d 2625 f03d

ActionModule.mu.weight f4 [1, 32]
-0.029772539 -0.05321836 -0.045485448 -0.0349406 0.009429314 -0.038159914 0.024286134 -0.01314053
-0.06748739 0.0075669573 -0.044888508 0.010131492 -0.058598224 -0.042399015 0.0010723816 0.0048670773
-0.035336982 -0.046592537 -0.017076025 -0.027546352 0.006044062 -0.012153555 0.021096816 -0.028037034
0.0030555448 0.0006682697 -0.04896064 -0.026216228 -0.021810882 0.023131756 -0.06830054 0.0009781942
00000000: 8ae5 f3bc 7ffb 59bd f34e 3abd e01d 0fbd
00000010: 697d 1a3c 924d 1cbd b7f3 c63c 614b 57bc
00000020: d436 8abd 3df4 f73b 03dd 37bd 8ffe 253c
00000030: b104 70bd 97aa 2dbd 288f 8c3a 017c 9f3b
00000040: 83bd 10bd d1d7 3ebd 05e3 8bbc e3a8 e1bc
00000050: 440d c63b b41f 47bc 3bd3 ac3c ecad e5bc
00000060: 893f 483b d22e 2f3a f48a 48bd 6ac3 d6bc
00000070: bcac b2bc cf7e bd3c 27e1 8bbd c036 803a

ActionModule.sigma.weight f4 [1, 32]
0.008884327 -0.07515879 -0.1097763 -0.09071138 -0.02607166 -0.11480644 0.015437004 -0.009263406
-0.06966017 -0.06863277 -0.06474044 0.0129073365 -0.11065214 -0.100604236 0.0111322515 -0.02795302
-0.11224311 -0.06963446 -0.0789253 0.010956313 0.019670336 0.015804546 0.019331256 -0.090839334
-0.020069726 0.0016131345 -0.055854548 0.006623451 -0.0006378323 -0.0042970655 -0.09041879 -0.03740055
00000000: 918f 113c daec 99bd 66d2 e0bd e3c6 b9bd
00000010: 3c94 d5bc a41f ebbd 7deb 7c3c 8ac5 17bc
00000020: fea9 8ebd 568f 8cbd a396 84bd 4b79 533c
00000030: 979d e2bd 9809 cebd 0c64 363c bbfd e4bc
00000040: b7df e5bd 839c 8ebd 96a3 a1bd 1c82 333c
00000050: af23 a13c 8978 813c 955c 9e3c f909 babd
00000060: 4469 a4bc d06f d33a bdc7 64bd 8909 d93b
00000070: 3334 27ba 66ce 8cbb 7d2d b9bd 5231 19bd
