models/patient23/ppo_model_for_patient_23_Actor.pth (torch, 24020 bytes, 12 tensors)

weight_ih_l0 f4 [64, 2]
00000000: fce5 5ebe 9eaa 1c3e 814d 50be 5245 71be
00000010: 2066 c3bd 3d09 2bbe a05b 193e c740 3bbe
00000020: d66e 73be 907d 983d fb0a 02be 17db 3ebd
00000030: 725f 50be 8c2a 5e3e cb24 8fbd 2894 bb3d
00000040: 3a8c d3bc 3759 37be d471 dc3c a7b4 10be
00000050: 8b0c a3bd 11bd a0be 759c cdbd 1dcc c93c
00000060: 25d8 cf3d 0fc4 7abe f60c 163e 040b 43bd
00000070: 5c71 103e a3ff 643d 3349 153e bb42 003e
00000080: d7ac 9bbd 8242 b5bd a7ff 8b3d 7e40 5bbe
00000090: f0b3 a23d af73 97bd 60b7 3fbe 76ce 53bc
000000a0: 5952 923d 4348 293e 9f3b 57be 7d7b 5b3d
000000b0: 63e0 02be 732e febb 7742 80bd 4d7e b73c
000000c0: f967 9d3d c51a 9bbd e725 05be 213a 233e
000000d0: 8689 873d 3f9c 91bc 150b 093e bade 8f3d
000000e0: f76a ee3d 7ca8 3c3e d036 9bbe 9123 2d3e
000000f0: c678 01be 3cf0 5b3b 0a0c 63be 9c3c 1c3e
00000100: 0527 4c3e 26be cd3d 86da 71be 3afa 8bbe
00000110: bdbc 7f3d 4ed9 313e 0080 0ebe 1c78 e939
00000120: 9154 43be 0e0e 813e 12d5 363e 423f 613e
00000130: 22a9 003d 81de 27be 7cda 103e 253e 54be
00000140: 4ea5 a73c cb11 4fbd 6ac1 c93c 38c1 f23c
00000150: d61c f5bc a121 a33d a7b4 173e ae5b da3d
00000160: efb9 16be 12f7 713e 8c79 5a3e 4ed9 543e
00000170: aa6a e83d 9cea c43c 3b2b 45be 2f83 7ebe
00000180: 78cc 60be fb84 d43d 6b30 a03d e16f 8a3d
00000190: eae5 a03d 3a71 12be 4d0e 99bd 1946 8ebe
000001a0: d367 583d 90fd f13d 28d0 28be 550b 2f3c
000001b0: a113 4abe 5539 3bbe fbce 08bd 157c 97be
000001c0: 372c 863d 4946 76be 2a4a 1fbd 93da 3ebe
000001d0: aec8 9cbe 2af2 14bc fda4 823d b132 3c3e
000001e0: 34a5 84be e150 fb3c 1c86 5bbe dc4e bb3d
000001f0: 96c0 e7bd 047d b6bc b954 90be 9125 f03a
-0.2176742 0.1529946 -0.20342065 -0.235616 -0.09540963 -0.16702743 0.14976358 -0.1828643
-0.2377275 0.07445824 -0.12699501 -0.04659566 -0.2034891 0.21695918 -0.069894396 0.09159118
-0.025823701 -0.17905127 0.026909746 -0.14131413 -0.07961377 -0.31394246 -0.100396074 0.024633462
0.10148648 -0.24488853 0.14653382 -0.047617927 0.14105743 0.055907857 0.14578705 0.12525456
-0.07601326 -0.08850576 0.06835871 -0.2141132 0.079444766 -0.07395112 -0.18722296 -0.012927642
0.07144613 0.16531472 -0.21018837 0.053584564 -0.12780909 -0.007757002 -0.06262677 0.022399092
0.07685847 -0.07573465 -0.1300274 0.15940143 0.066180274 -0.0177747 0.13383134 0.070249036
0.11641496 0.18423647 -0.30315256 0.16908099 -0.12643728 0.003355994 -0.22172561 0.15257496
0.1993676 0.100460336 -0.23618516 -0.27339345 0.062435854 0.17368051 -0.13916016 0.00044530712
-0.19075228 0.25206035 0.17854717 0.21996787 0.031411298 -0.16393472 0.14145845 -0.20726831
0.020464566 -0.050554078 0.02462836 0.02963315 -0.029920977 0.079653986 0.14815007 0.10662018
-0.14719366 0.23629406 0.21335429 0.2078602 0.113484696 0.024037652 -0.19254772 -0.2485473
-0.21952999 0.103769265 0.07821735 0.067596205 0.078563526 -0.14301005 -0.07473431 -0.27787855
0.05283339 0.11815941 -0.16485655 0.010683854 -0.1973405 -0.18283589 -0.033400517 -0.29586855
0.06551402 -0.24050249 -0.038889088 -0.18638067 -0.30621856 -0.00909094 0.06379125 0.18378712
-0.2590729 0.030678215 -0.21437877 0.091459006 -0.1131603 -0.022276409 -0.28189638 0.0018321743

weight_hh_l0 f4 [64, 16]
00000000: e023 79be e4ff 743e 1a8d 28be 27c2 17bd
00000010: 2a90 8abe a95c 24be 3826 4cbe f6c5 df3d
00000020: d64e 79bd 0fe4 15be 130d bc3d d6e4 aabd
00000030: 1f77 293d 2056 343e 1037 183e f6e8 ddbd
00000040: 1996 dfbd 646c 6ebb 4b2d 5d3d fca3 fb3d
00000050: b60c 2c3e dafe 19bd 8b39 163e 8fd5 8e3e
00000060: 9d5c 6bbe 7e52 1dbc 2784 5dbd 5073 1abd
00000070: ef60 52be d036 c9ba 8551 8bbe 737f 893e
00000080: 5650 d6bd 7d88 38bc 0fc5 c3bd 3f7e b33b
00000090: efba 2c3e 44fd 78bc ec30 3b3d 414d 173e
000000a0: a76d 673e bf4f 6fbe c9dc 7cbe 54d3 04be
000000b0: 67b3 823c 3420 a7bd dea9 1bbe 796e 3cbe
000000c0: c85f 393e 4bb5 4b3e 5fc7 463e b84b 783b
000000d0: eb91 15be 156e 44be 6bac 6f3e b389 923e
000000e0: 3d39 7cbe f39c 89be 274d 51bd 07f7 443e
000000f0: f70d 393e 7aed 2fbe 9f97 0e3e d464 9e3e
00000100: 2ac4 27bc 7b9f 4abd 976e d5bd 0b19 1cbe
00000110: 411e d2bd 2be5 d2bb 08e1 603e f8e9 07be
00000120: 6b97 f7bd c6dc 8abe 189a 183e 7b94 1e3e
00000130: 3e39 6dbd 6ff2 7fbe d1a9 1b3e dd4c 4fbd
00000140: 6356 dd3c 263c ccbd b61c 6cbd 85ad 3a3e
00000150: 5709 46be 51f6 fe3b 2dc1 733e 046c 19be
00000160: 86d0 a7bd 27bb 543e 1477 413e a877 d83c
00000170: ffc4 1a3e 49f7 85be 1b0f 653c 3c9d 9bbd
00000180: 6bb9 e93c 7cf3 a6bd 7ae2 84bd a651 33be
00000190: 8b23 7a3d d0b1 603e 4cf5 b1bd 2369 65be
000001a0: 030d 663b b01d f1bd 0bc1 6e3e 230d 7d3d
000001b0: 33cf 233e 3ea3 17be 8ca4 123e 0604 92bd
000001c0: 9004 0b3e cd59 803d ec24 d73c 8c9c b9bd
000001d0: 9d21 443e 3f4a 353e 5f73 103e 9bcc e7bc
000001e0: 226b b63d bb27 27be 78e4 96be 8c6e 933e
000001f0: 7b3d 583b a46e 643d bb92 57bc ba82 9fbd
00000200: c9a4 9abe 1ab4 f13c 89a4 b8bc e75b 56bd
00000210: 8cec 5f3d deda c5bd b42e 19be 3d5e 01bb
00000220: ce18 84be bc2c f33d 177b 81be 2995 8cbd
00000230: a1d4 8ebe b0a6 88be 3d9f 703d 63e2 d7bd
00000240: e365 043e 3271 083d d4fa 6cbe 908f 053e
00000250: 1cd4 89be d516 96be 13e9 1a39 9a7d bb3d
00000260: ae55 a6be 7c58 86be 6131 3ebe 2259 9abd
00000270: 0ead cebd 976c 6ebe 2402 82be dbf1 9c3e
00000280: 03a0 be3d dff8 cd3d 8c20 d5bd 5082 a13d
00000290: cbeb a5bd 37ec e8bc a542 05be 5605 6cbd
000002a0: 5af1 213e 3361 e3bd a0dd 39be 2206 3e3e
000002b0: 8d02 853d 3fec 4dbe 16ab a4be 48c7 03be
000002c0: 53ed ff3d 8fd5 b93d 5b96 143a 942e 75be
000002d0: d9eb d23d fb5a e53d 4596 bdbd bc3e 563e
000002e0: 3a5e 69be 310a c2bd f491 8bbc 8834 39be
000002f0: 3b71 f7bd ff2a d83d 785a b4bd 20f4 6cbd
00000300: 0ebb 93bd 2253 3e3d 16c4 db3c 59e5 06bc
00000310: fb79 c23d c827 8bbe 6e0b 103e ed07 82bd
00000320: 0832 923b 2028 e43d 4c98 b0bd ea4e 10be
00000330: 04f1 7ebc 8540 aebd 9f8d 67be eb7a 2f3e
00000340: 46c8 04bd 83cf 16be 49ba 8fbe eab6 e23d
00000350: ffb0 c4bd 5a54 c2bd 164c 31be c80b 933e
00000360: 4b8a 2abe aa0b 67be 65d2 70be 61ae 123d
00000370: f2cb 29be 6976 d53d b225 87be 4a2f 033e
00000380: 67c3 833d 4895 41bc 5935 743d 8dd3 34bd
00000390: 4e55 bd3c 5111 49be dfaf 1dbe 4330 803e
000003a0: 3735 70bc f9fc c4bc e4fb d03d f297 acbc
000003b0: dde1 a3bd fb73 89bc 7d19 633d 07f7 093e
000003c0: bdd3 81be 7dda 583e 12ba 313d 8687 67be
000003d0: da8c 88be 8c3b d9bb ad0c c0bc ef8e c43b
000003e0: 612d 63be 03fd d6bc a949 89bd 5e89 cdbd
000003f0: 256a 013e 7d2a 253b ffd6 4b3e c24f 0ebe
-0.24330091 0.2392574 -0.16460076 -0.037050392 -0.27063113 -0.16050972 -0.19936454 0.1092643
-0.0608662 -0.14637779 0.09182181 -0.08344428 0.04137337 0.17610979 0.14864755 -0.108354494
-0.10917301 -0.0036380524 0.053998273 0.12287137 0.16801724 -0.03759656 0.14670388 0.27897307
-0.22984548 -0.009602187 -0.05408111 -0.037707627 -0.2054479 -0.0015351418 -0.27210632 0.2685505
-0.104645416 -0.01126301 -0.0955907 0.005477696 0.16868185 -0.015197102 0.045700952 0.14775564
0.22600423 -0.23370264 -0.24693598 -0.1297124 0.015954686 -0.08160439 -0.15201518 -0.18401517
0.18102944 0.19893377 0.19411992 0.0037886929 -0.14606445 -0.19182618 0.23405616 0.2862068
-0.2463121 -0.26877555 -0.05109897 0.19234858 0.18071733 -0.17180434 0.13925026 0.309363
-0.01023964 -0.0494685 -0.10421484 -0.15243928 -0.10259677 -0.0064360104 0.21960843 -0.13272846
-0.120894276 -0.27121562 0.14902532 0.15486328 -0.05791592 -0.24994825 0.15201499 -0.050610412
0.027018731 -0.0997241 -0.05764457 0.18230255 -0.193395 0.007780828 0.2380416 -0.14982611
-0.081940696 0.20774518 0.18893081 0.026424244 0.1511421 -0.26165226 0.013980652 -0.075983495
0.028530797 -0.0815191 -0.064885095 -0.17511615 0.061069053 0.2194283 -0.08689365 -0.22403388
0.003510297 -0.117732406 0.23315828 0.061780106 0.15997009 -0.14808366 0.14320582 -0.07129674
0.13575959 0.06267128 0.026262723 -0.09063062 0.19153447 0.17704104 0.1410651 -0.028295806
0.08907153 -0.1632375 -0.29471183 0.28795278 0.003299563 0.055769578 -0.013157542 -0.07788606
-0.30203846 0.029504824 -0.022539394 -0.05233374 0.054668948 -0.09660886 -0.14959222 -0.0019740008
-0.25800174 0.11873767 -0.25289223 -0.068643875 -0.27896598 -0.26689672 0.05874561 -0.10541227
0.12929492 0.033311076 -0.23142558 0.13043046 -0.2691964 -0.29314294 0.00014773411 0.09154816
-0.32487243 -0.26239383 -0.18573524 -0.07536532 -0.10091601 -0.23283611 -0.25392258 0.3065327
0.093078636 0.10057234 -0.104065984 0.07886183 -0.081016146 -0.028432949 -0.13013704 -0.057622276
0.15814725 -0.11102524 -0.1815095 0.18557027 0.06494627 -0.20109652 -0.32161778 -0.12868989
0.12496438 0.09073936 0.00056681567 -0.2394355 0.102988906 0.11198994 -0.09257177 0.20922369
-0.22789851 -0.094746 -0.01703737 -0.18086445 -0.12082144 0.10555076 -0.08806318 -0.057850003
-0.07213412 0.046466 0.0268269 -0.008233392 0.09495922 -0.27178788 0.1406686 -0.06349168
0.0044615306 0.11140466 -0.08622798 -0.14092603 -0.015560392 -0.085084 -0.22612618 0.17136733
-0.032417558 -0.14727597 -0.28071812 0.11070044 -0.09604072 -0.09488745 -0.1731418 0.28719926
-0.16654317 -0.22563043 -0.23517759 0.035810832 -0.16581705 0.104229756 -0.26395947 0.12811008
0.064337544 -0.011815377 0.05962119 -0.044147063 0.023111966 -0.19635512 -0.15399121 0.2503682
-0.014661125 -0.024046408 0.10204294 -0.021068547 -0.080020644 -0.016778937 0.05544423 0.1347314
-0.25356856 0.21177097 0.04339034 -0.22610292 -0.2666996 -0.006629413 -0.023443544 0.0059984843
-0.2218528 -0.026243692 -0.06703503 -0.10035966 0.12638147 0.0025202327 0.19906233 -0.13897613

bias_ih_l0 f4 [64]
00000000: 58ef 793d 1200 83bd 2837 67bd 21f0 0ebe
00000010: d7d9 03be 2dac 833e e6b6 b2bd 18be 993d
00000020: 6e81 1fbd cf8a d53c e1c5 a03e 9f56 fa3d
00000030: ce72 38bd de34 99bc dd7a 773d e907 ca3d
00000040: 2e5f 1cbe d39d 343e 14c9 0e3e 3c6b ec3d
00000050: 6f94 ad3a 63af b1bd 6c5a be3c 93a6 b73d
00000060: ac40 14be 6e94 2cbe 470f 2f3e 113a 963e
00000070: be2f 8f3c 74b8 e7bd dcad e33d e5c2 09bd
00000080: 7552 fdbd a592 81ba e8d1 eebd d3fa c8bc
00000090: e2ba 2dbe 968b 26be 1c68 6ebd e083 513e
000000a0: 8a8c 92be c068 5d3d ce95 2bbe b7b8 333e
000000b0: 78d8 02bd 4b3f bb3c 46f6 6fbd c4bd ebbd
000000c0: 95f6 943d fff2 863e 21f6 84bd 0112 0abe
000000d0: 0bc6 553e da8b 143d 1516 07be 4bdf 8d3e
000000e0: f990 fa3d ad7c 93bc f50c cabd 3158 933e
000000f0: 5a17 493e ffed 723e 1003 903e 38c0 bdbd
0.06101927 -0.06396498 -0.056449085 -0.1395879 -0.12876068 0.25717297 -0.08726291 0.07506961
-0.038941793 0.026067166 0.3140097 0.12223553 -0.04503136 -0.018701967 0.060419906 0.0986479
-0.15270683 0.1763833 0.13943893 0.11543891 0.0013243089 -0.086760305 0.023236476 0.089673184
-0.14477795 -0.16853496 0.17095672 0.29341176 0.01747882 -0.113144785 0.111171454 -0.03363313
-0.12369243 -0.0009885622 -0.1166113 -0.024533665 -0.16965821 -0.16264185 -0.058204755 0.20460463
-0.28622848 0.054054976 -0.16756365 0.17550932 -0.031944722 0.022857329 -0.058584474 -0.11510804
0.07273594 0.26357266 -0.06492258 -0.1348343 0.20876329 0.036266185 -0.13192017 0.27709422
0.122346826 -0.018003786 -0.098657526 0.28778222 0.19637814 0.23723601 0.28127337 -0.092651784

bias_hh_l0 f4 [64]
00000000: 9d1b b33d e3f5 65bd f870 07be bde5 8fbd
00000010: 4aa2 eb3d 0264 37be 46c3 933d 3ec8 9c3d
00000020: ba6a 853c a427 163e 5496 723e 9b22 76bd
00000030: 8f39 76bd f813 183e 3e1d 293e 6d3c 723e
00000040: 7c3b 1ebc dbde a73b 2133 903d ab30 0f3d
00000050: 99b3 09be 89bd 58be 6594 83bd 09ed 873d
00000060: 247e 693e f563 d9bd dc7f 0cbe a76b 16be
00000070: 7061 dd3d 7b92 e1bd f735 01be cd2e 1c3e
00000080: 066f 66be d80b 2f3e ebc4 cf3c 7758 81be
00000090: 98cd 0f3e 58e5 073e f6c6 783e a7f3 4c3d
000000a0: b5d5 93be 053c 68be 79dc acbd 095d 8d3e
000000b0: 9da2 8ebe a93c 28be 0e9f f9bd 667b 433e
000000c0: d505 ff3d 6b97 703d e5e4 8d3d 183b 033e
000000d0: 405b b03b f66d ed3c 3217 073e 64c4 22be
000000e0: a94e 0d3e 9be6 06be 25a9 f2bd 4ca8 873e
000000f0: 8249 873d 8d5a 853e 9939 583e 5adf 2b3d
0.08745501 -0.0561427 -0.13226688 -0.07026241 0.115055636 -0.17909244 0.0721498 0.07655381
0.016286243 0.14663559 0.23690158 -0.060091596 -0.060113486 0.14851367 0.16515061 0.23655863
-0.009657737 0.005123002 0.07041002 0.034958523 -0.13447417 -0.21166052 -0.064247884 0.06637008
0.22802025 -0.106147684 -0.1372065 -0.14689504 0.108096 -0.11014267 -0.12618242 0.15252228
-0.2250329 0.17094362 0.025362452 -0.25262806 0.14043272 0.13271081 0.24294648 0.050037052
-0.28873983 -0.22679146 -0.08440489 0.27610043 -0.2785844 -0.1642939 -0.121885404 0.19090042
0.12452284 0.058738153 0.06928424 0.12815511 0.0053819716 0.028983098 0.13192442 -0.1589523
0.13799538 -0.13173907 -0.11848668 0.26495588 0.066058174 0.26045647 0.21115722 0.04196105

weight f4 [32, 16]
00000000: 0d4a 9b3d d036 2bbe bced 073e af3e 01be
00000010: dc36 5f3e 0949 b6bb 98aa bbbc 8e42 91bd
00000020: 8c07 473e 3017 0a3e 7b95 29be f451 293e
00000030: f262 3cbe 3866 cdbd 81f4 7c3c 5fb6 7ebe
00000040: b04e 95bc 081d 343d e081 76bc c22b 073e
00000050: b03e 4bbe 1026 153e 5a74 32be 308a a73d
00000060: 686f 26be 2c50 643e 84be fb3d 149c 4abe
00000070: 8065 92bb 40d2 33be 5c91 093e 9867 aa3d
00000080: 1a50 263d 55c0 84bb 4cff b2bd d74c 983d
00000090: b4fb 31be 93ad 47bd f5bb 123d 7245 883d
000000a0: 1152 283d 2686 22be fa8b 273c 978a cb3c
000000b0: e4cc 053e f6bc 9d3c 0e0a 65be bf4b 1bbe
000000c0: 6073 073e a0d8 8f3c d4e4 b4bd 3469 fe3d
000000d0: 0047 b9bc 2016 65bd c09d 33be c040 8abd
000000e0: 70df d2bd f4b7 41be ac4e 4d3e 9830 7ebe
000000f0: d8f8 e83d 3ccd 4f3e 1e60 19be e04a a4bd
00000100: 260f 97bd c093 0fbe f5fb 0fbe 663e 5cbe
00000110: 951c 19bd cdbb 1bbe b147 053e b198 a93d
00000120: 7f6b 24be 1d2e 553e 3ecc 77bd a1c7 1abd
00000130: 9974 533e c3be 833d 92e9 3e3e fd5c a73c
00000140: 0688 03be 9314 b53c cbd4 45be 7d03 e6bd
00000150: e627 2f3e ff1b da3d d3f7 e4bb d750 213e
00000160: 9af2 96be f9c1 113e 7d27 93be 4a12 793e
00000170: b38d 5fbe b944 ec3d 9b27 6a3d ec73 28bc
00000180: 012c 2ebe 9608 13be aa9b 473e 2440 91bc
00000190: 1237 b2bd 83ae 4f3e 7012 86be 3e1c d8bc
000001a0: 414e 22be ee7c 4dbe 4b2b 2ebe be67 69be
000001b0: 1332 263d 0571 fbbd 21a4 133d 1952 053e
000001c0: 62f4 70be b61b 42be d82f 303d 4271 4abe
000001d0: 48b5 da3d 30b9 40be 9204 073e 64d4 c9bd
000001e0: 1c16 f0bd 7047 dbbd fcdd 20be e82c 443e
000001f0: 1098 793e de7b 653e 7c61 d03d 7006 0c3d
00000200: 0026 bebb fe25 133e 0e05 2dbe 50eb 4abe
00000210: e2ba 433e d440 e73d 9001 75bd 601c 75be
00000220: 04b1 3cbe c4db d03d c096 b33d 404a 9c3b
00000230: 2477 aebd 16b8 683e eca2 65be e827 2cbe
00000240: 3a60 d43d c4ea 6e3e b48c 22be be6a 39be
00000250: cfa1 123e 3e10 db3d 4e7d 26bd 7806 e13d
00000260: 463a 01be 5453 2a3d 67a7 603e 6828 113d
00000270: 89c1 abbd 6205 4abe aeff 163e 8994 b8bd
00000280: 4a1c f7bd 4322 8f3c 1d2d 13be 9069 85be
00000290: 24b9 90bd 46c4 a33d 2215 ed3d 3990 e5bd
000002a0: c881 05be 95e8 1d3e 90ce 11bd 4275 58bd
000002b0: 5b8a 49be f8ac 5fbe 82df b3bc 984f 263d
000002c0: 6799 a23d dfb1 47bd 0508 e9bd 4ea3 493e
000002d0: 2e0d 21bd 9cc6 73be c688 a73d 1251 203e
000002e0: dbfa 3e3d f57b 2a3e 16f0 b73d ea52 c8bc
000002f0: 3aa4 083e 625f 07be f681 34bd 8672 0fbe
00000300: dd2b 0f3e ab0b 9a3e ba0f e53c 3cac f33d
00000310: 605a a3bd 1baa b4bd 6a57 37be ee0f b03c
00000320: 991f 6fbd 699a 61be e747 32bd 79a7 46bd
00000330: a6fb acbd 180f 58be c85b e3bd f0f7 083e
00000340: 3baf 193e 8bf4 3d3d 22f8 0f3d 82f7 f23d
00000350: d0a6 98be a944 fa3d b62b cbbd 87af 4f3e
00000360: b622 9bbe f0b9 8fbe be70 e23c e8d2 793e
00000370: 93a3 2fbe d45f 37be 4a84 f13d e840 063e
00000380: 0015 20bc 0029 92bd b099 a0bd 2843 a8bd
00000390: 78b1 6b3d 76d5 153e 6c3c 43be e00a 42bc
000003a0: a41b b8bd c0ff 91bd acba 14be c0cb 863c
000003b0: 0c91 cdbd 8062 ac3b 88a4 a03d f048 3d3e
000003c0: 6a70 a4bd 4527 5a3e 785b e6bc 2895 7abe
000003d0: 786b aabd 1c08 37be 80ea 3dbe ef22 283c
000003e0: 933a 9cbd 3883 91be 9a5a 2b3e 83c1 3b3e
000003f0: adb1 6bbe 42fb 02be 7066 7bbd db00 eebd
0.075824834 -0.16720128 0.13274282 -0.12621568 0.21798271 -0.0055629057 -0.022908494 -0.070927724
0.19436473 0.13485408 -0.16560929 0.16535169 -0.1839712 -0.10029262 0.015439154 -0.24874257
-0.018225998 0.043973 -0.015045613 0.13200286 -0.19848132 0.14565301 -0.17427197 0.08180654
-0.16253436 0.22296208 0.12292197 -0.19786102 -0.004467666 -0.17560673 0.13434356 0.0832054
0.040603735 -0.004051248 -0.087401 0.07436531 -0.17381173 -0.048749518 0.03582378 0.06653871
0.04109389 -0.15871486 0.010226244 0.024846358 0.13066441 0.019255143 -0.22367117 -0.15165614
0.13227606 0.01755935 -0.08832708 0.1242241 -0.022616863 -0.055929303 -0.17540646 -0.06750631
-0.102965236 -0.18917829 0.20049542 -0.24823225 0.11375588 0.20293134 -0.14978072 -0.08022094
-0.07375936 -0.14021206 -0.14060958 -0.21508178 -0.037380774 -0.15208359 0.1301563 0.08281077
-0.16056632 0.20818372 -0.060497515 -0.037788037 0.20649947 0.06432869 0.18643788 0.020430082
-0.12844858 0.022104537 -0.19319455 -0.11231134 0.17105064 0.10649871 -0.0069875508 0.15753494
-0.29481965 0.14234151 -0.28741065 0.24323383 -0.21831398 0.11536545 0.057166677 -0.010281544
-0.17008974 -0.14358744 0.19492975 -0.01773078 -0.0870191 0.20281415 -0.26185942 -0.026380654
-0.15850164 -0.20067188 -0.17008702 -0.22793481 0.0405751 -0.12277416 0.036045197 0.13019599
-0.23530725 -0.18955883 0.043014377 -0.19769767 0.10679108 -0.18820643 0.13185337 -0.098549634
-0.11722967 -0.10706985 -0.1570968 0.19157755 0.24374413 0.22410533 0.10174844 0.034185827
-0.00580287 0.14369962 -0.1689646 -0.19816327 0.19114259 0.11291662 -0.059815943 -0.23936605
-0.18426901 0.10198167 0.08768988 0.0047695935 -0.08518818 0.22726473 -0.22425431 -0.16812098
0.10369916 0.23331743 -0.15873986 -0.18107125 0.14319538 0.10696457 -0.040646844 0.10987562
-0.12619886 0.041583374 0.21938859 0.035438925 -0.08386523 -0.19728616 0.14745972 -0.09012706
-0.120659426 0.017472392 -0.14372678 -0.260571 -0.07066563 0.079964206 0.115762964 -0.11209149
-0.13037789 0.15420754 -0.035597384 -0.0528462 -0.19681685 -0.21843326 -0.021957163 0.04060325
0.079394154 -0.048753615 -0.11378483 0.19691202 -0.03931921 -0.23806232 0.08180384 0.15655926
0.046625953 0.16648848 0.0898134 -0.024453599 0.13343897 -0.1321998 -0.044069253 -0.14008531
0.13981576 0.30087027 0.0279616 0.118980855 -0.07976222 -0.088215075 -0.1790444 0.02149197
-0.058379743 -0.22031559 -0.043525603 -0.048499558 -0.08446436 -0.21099508 -0.1110149 0.1337583
0.15008251 0.046375792 0.035148747 0.118636146 -0.29814768 0.12220127 -0.099204466 0.20281802
-0.3029992 -0.28071547 0.02764165 0.2439686 -0.17152242 -0.1790765 0.1179281 0.13110697
-0.009770632 -0.071367264 -0.078418136 -0.08215934 0.057542294 0.1463221 -0.19066018 -0.011843413
-0.08989647 -0.071288586 -0.14524335 0.016454577 -0.10037431 0.0052607656 0.07843882 0.18484855
-0.08029254 0.21304043 -0.028119788 -0.24470961 -0.08321279 -0.17874187 -0.18546486 0.010262235
-0.0762836 -0.28420424 0.1673378 0.18335538 -0.23016997 -0.1279116 -0.06137699 -0.11621257

bias f4 [32]
00000000: dd11 6b3d cc0e 02be 759a ffbd 6694 15be
00000010: 444a a9bb 685b 883d 3347 0dbe 542d f6bd
00000020: 903e ecbd b265 4b3e 29d0 21be f052 e03a
00000030: e500 d03d bc6a bb3d 769c 3cbe d791 813e
00000040: 7601 c73d a7e6 023d 9a2e cdbd f63f 8f3e
00000050: 929a 7abe ef31 953e e044 93bd a68a 08be
00000060: fe48 1b3e 23b9 a7bd a830 a63d 7cf1 c4bc
00000070: eb4a 843d 1f88 01be eccd f93d 0666 45be
0.057390083 -0.12700957 -0.12480632 -0.14607391 -0.005166324 0.06658059 -0.13796692 -0.120203644
-0.1153537 0.19863012 -0.15802063 0.0017114561 0.101564206 0.09151217 -0.1841906 0.2530658
0.097170755 0.03195825 -0.10018654 0.27978486 -0.24473026 0.2913966 -0.07190871 -0.1333414
0.15164563 -0.08189609 0.08114749 -0.02404093 0.06459602 -0.12649582 0.121974796 -0.192772

weight f4 [32, 32]
00000000: 5377 26be f6c3 dabd c8c5 193e 45ed d0bd
00000010: 0a55 c8b8 3ee2 f4bc a2b4 07be 26ed c5bb
00000020: ce14 1ebe 26ba 923c 9ba4 573d dcc5 45bd
00000030: 7a28 293e 195d 333e ffae b5bd 6845 de3d
00000040: 4ec2 fc3d d365 833b a76a 8cbd 4901 bc3d
00000050: 53ae b93c a761 4cbd a17c 03bd 7d26 223e
00000060: 01df 77bc 07c3 cd3b e0bf b33b dfcd 493e
00000070: 6f84 eebd a8b2 14bd 2cb5 cabc 3660 673c
00000080: ebb7 dcbc 6dee f2bd cff9 2dbd 81c5 ca3c
00000090: 38bd adbd bc26 cdbd 01a4 f13d d218 733b
000000a0: 1868 10bd ae96 233e 614c 623d af76 783d
000000b0: 04a6 663e be2c 163e c3a8 38bd ed87 8cbd
000000c0: 9996 dcbd bb3c 453b 0ef6 f73c af27 283e
000000d0: 3e3b d03d 5b62 e13b bfc4 e23c 293a b93d
000000e0: 8180 6d3e 7dcb b33d 4c5f eb3c ecc8 293e
000000f0: 1870 06be 2b46 e63d 4647 d23c ca19 9b3d
00000100: 8add 2d3e d09c f8bd d7bc 303e b70e 1f3e
00000110: c9a0 5abc 80cd 743d 9906 293d 9411 a23c
00000120: 057c a8bd 1c18 21bd 5ac3 063e 95a4 ebbd
00000130: 19b7 283e 74a6 673e f7ec 213d 8844 26bd
00000140: f9fe ae3d 8639 d83d dab1 f03d a23a 703e
00000150: 8059 abbd a71c b43d 9c85 dd3d 21d7 273e
00000160: 97f2 423e c11f 39be d7f7 19bc a3d7 2a37
00000170: f4a7 f2bd b3c6 193e 5965 893d 6afd b83b
00000180: c14c 8a3d 6014 bdbd 0a4b 1d3e dbfa ea3c
00000190: 2818 e0bd bb6a 0bbd 35fe 26be f903 71bd
000001a0: 2364 ebbd a4bb ac3d 4bcd fab9 43bc 31be
000001b0: 4c1c b3bd a756 c53d e588 3dbd a22a 833b
000001c0: d08f 7cbd c570 0cbe 4909 2aba f123 bd3d
000001d0: 4b80 143e 3e6e 91bd 987b a53d 49ce b3bd
000001e0: b942 c83c 1bf7 9c3d bbaa eabc e81e 0bbe
000001f0: 3e60 3fbd 8808 11be 6a1d ebba 16bd 913d
00000200: d283 ee3d 495e c23d 895f 2b3e 67e9 583d
00000210: 8b3e 01be af88 2abe 9a8e e8bd eb7f 853d
00000220: f0fd 073d beea a73d 043f 163e 169d 9e3d
00000230: 7dfe 163e ad1e 903d 3a90 073d 479b 2c3c
00000240: 98e1 a5bd ceca f23d 2aed 03bd b7cf 1cbe
00000250: 029d 663d edf1 053d 2bd7 afbc 1b34 f8bd
00000260: d412 cebd 3e40 1e3e a5b9 e6bc b1fd 75bc
00000270: af71 0b3e b854 6cbd 6ac2 8abd a8a3 513d
00000280: b956 60b7 6f8a 3e3d ab14 14be 5857 06be
00000290: de62 c8bd 6098 05bd ea92 dbbd 51ce be3c
000002a0: 0063 a3bd 1083 2a3e f39e c0bd 30b6 87bd
000002b0: f6e7 0f3e 3e9f 1b3e a667 1d3d e1f6 413e
000002c0: 4734 1ebe 643c a5bd 2b21 cabd 6d48 313e
000002d0: bd4d 023e d98a 1d3d b301 14be 8732 50bb
000002e0: 067f 1b3e e76c a53c 080f e3bd c601 983d
000002f0: 539f bdbd 7aae 713c 8dec f53d f09e c1bd
00000300: 5275 8d3c d749 183e 1495 2b3d e3e8 8c3d
00000310: 64c8 54bd f734 6d3d 6790 2f3d 0264 d7bd
00000320: 0046 96bd 6008 0dbc 0a03 a5bd a5d9 263e
00000330: 8153 12bd 0708 0cbe ecf6 ff3c 56ca efbc
00000340: 7dc1 8dbd 5b52 313e 1f53 1abe 9aa2 363e
00000350: 93a1 2abe 32e8 18be b65f a0bd 002e da3d
00000360: ecc3 f3bd 50e9 2abd 7353 29bc 6b42 f63d
00000370: a2ff b43d d14c 8e3d 5f83 f0bd 97da 32be
00000380: e061 ac3d 26d3 1dbe dc64 7d3c b0df 2c3e
00000390: 8f86 2abe 2f3e 4a3e 16d3 41bd 7925 cdbd
000003a0: 36e9 a0b8 188f 90bd d5bb f4bd aa39 e4bd
000003b0: 30ef 733e c179 f03c 74e3 9a3d 60d3 75bd
000003c0: 7d0f cf3d 4701 023e 784c c1bd 0cf4 133e
000003d0: c5b6 0a3e 9a02 3c3d 97da 233e d909 54bc
000003e0: 1cdf d0bd 6d45 db3b a5d9 f4bc cf2c 653e
000003f0: 5f40 233e d06a c1bd 161d 9ebd 0366 a8bd
-0.16256456 -0.10681908 0.15016854 -0.102015056 -9.552583e-05 -0.029893037 -0.132525 -0.006040233
-0.15437624 0.017911028 0.052647214 -0.048284397 0.16519347 0.17515983 -0.088712685 0.10853082
0.12341748 0.004009941 -0.0685628 0.091799326 0.022666132 -0.049897816 -0.032101277 0.15834995
-0.015128852 0.0062793526 0.0054855198 0.1970744 -0.116463535 -0.036303192 -0.024744593 0.01412206
-0.026943168 -0.11861882 -0.042474564 0.02475238 -0.08483356 -0.100171536 0.117988594 0.0037093651
-0.03525552 0.15975448 0.05524862 0.06066006 0.22524267 0.14665505 -0.04508282 -0.06861863
-0.10770912 0.0030096013 0.030268695 0.16421388 0.101675496 0.00687818 0.027681706 0.09044296
0.23193552 0.08779047 0.028731965 0.16580552 -0.13128698 0.11243852 0.025668751 0.07573278
0.16979042 -0.121392846 0.17259537 0.15532957 -0.013343998 0.059766293 0.041266058 0.019783773
-0.0822678 -0.039329633 0.13160458 -0.11506001 0.16476096 0.2262209 0.039532628 -0.0405927
0.08544726 0.10557847 0.117526725 0.23459867 -0.0836668 0.087945275 0.108164996 0.16390659
0.19037853 -0.1807852 -0.0093974685 1.0182996e-05 -0.11848441 0.15017204 0.06708784 0.0056454437
0.06752921 -0.09232402 0.15360656 0.02868407 -0.109421074 -0.034037333 -0.1630791 -0.05884168
-0.11493709 0.08434227 -0.0004783667 -0.17356972 -0.087456316 0.09635668 -0.04627313 0.004002885
-0.061660588 -0.13714893 -0.0006486369 0.09235371 0.14502065 -0.07101105 0.08080214 -0.0877958
0.024445878 0.07664319 -0.028645864 -0.13586009 -0.046722643 -0.1416341 -0.0017937843 0.071161434
0.116462365 0.0949064 0.16735663 0.052956965 -0.12621514 -0.16653703 -0.11355324 0.06518539
0.033201158 0.081990704 0.14672476 0.077448055 0.14745517 0.07037101 0.03309653 0.010535068
-0.08099669 0.11855088 -0.0322086 -0.15313612 0.056302078 0.03270142 -0.021464905 -0.12119313
-0.10062185 0.15454194 -0.028164694 -0.015014098 0.13617586 -0.05769798 -0.06775363 0.051181465
-1.3371632e-05 0.04651874 -0.14461009 -0.13119256 -0.097844824 -0.03261602 -0.10721381 0.023291739
-0.07977867 0.16651559 -0.09405317 -0.066265464 0.1405333 0.15197465 0.038428925 0.18941833
-0.1544963 -0.08068159 -0.098696075 0.17312784 0.12724967 0.038462494 -0.14453773 -0.0031768398
0.15185174 0.02019353 -0.11086851 0.07422213 -0.09258904 0.014751071 0.12008009 -0.09454143
0.017267857 0.14871918 0.04189022 0.06880357 -0.05194892 0.05791184 0.042862322 -0.10517122
-0.0733757 -0.008607954 -0.0805722 0.16293962 -0.035724167 -0.13674937 0.031245671 -0.029271286
-0.069216706 0.17316572 -0.1507077 0.17835465 -0.16663198 -0.14932325 -0.078307554 0.10653305
-0.119026035 -0.04172641 -0.010334837 0.12024387 0.088378206 0.06948245 -0.11743807 -0.17466198
0.08417106 -0.15412578 0.015465941 0.16882205 -0.16652893 0.19750284 -0.047320448 -0.10016913
-7.6728335e-05 -0.07058543 -0.119498886 -0.11143811 0.23821712 0.029354932 0.075629145 -0.060016036
0.10110376 0.126958 -0.094384134 0.14448565 0.13546284 0.04590092 0.16001354 -0.012941801
-0.10198805 0.006691626 -0.029888937 0.22380374 0.15942524 -0.09444201 -0.077203915 -0.08222582

bias f4 [32]
00000000: 5a47 d0bc f535 ed3d f3fb 2b3e 3e8b 09bd
00000010: 16fe 2ebd 9b03 4d3e c2ff d33d cbbd d33d
00000020: 50ff 593e ea1f fb3d f47f f13d 3d3e 653e
00000030: db0c f63d fc97 e53d 2412 0abe 4386 93bc
00000040: 69e9 1dbe b88d afbc b8c3 f23d f9d7 da3d
00000050: 45c4 103e 60a0 22be 1361 c3ba 4181 853c
00000060: e0a1 c7bc bf7f 493e 710a f73d a891 243e
00000070: 3905 2a3e ee01 5a3e 805f 9ebd ff35 05be
-0.025424648 0.11582557 0.1679533 -0.033580057 -0.042722784 0.20020907 0.10351516 0.103389345
0.212888 0.122619465 0.11791983 0.22387023 0.12014171 0.11210629 -0.13483483 -0.018008357
-0.1542107 -0.021429881 0.11853737 0.10685725 0.14137371 -0.1588149 -0.001490625 0.016296985
-0.02436918 0.19677638 0.120625384 0.16071188 0.16603555 0.21289799 -0.07733059 -0.13008879

weight f4 [32, 32]
00000000: 2c6e 19ba 1c76 b83d 3629 e7bd 456b 08be
00000010: a509 243e 59b3 0c3e d3f4 10be 6c82 0c3e
00000020: d947 be3d a081 72bc 59c0 e93c 5224 823d
00000030: f6f2 523e ba2e 11bd 646a d83d 5fec 1dbe
00000040: 6535 9c3d 1067 fc3d 1a16 5b3e 31a1 bebd
00000050: 5bca a83d b85f 323d 14a1 8ebc 35dd b2bd
00000060: b2e1 4fbd 3631 1c3e 87f9 24ba 56ed 373d
00000070: b619 c1bd 3333 62bd 3d21 6fbd 9950 2b3e
00000080: 7fde 24bc 3804 21be 2e9e 093d 978c 983d
00000090: 3b8d 01bd 45b5 d7bd 46e5 1b3e 3a63 083e
000000a0: 7030 8b3c 34a6 21be f7b1 a93d e359 79bc
000000b0: 73c7 39bd 4b8c fd3d e296 5a3d b3dc 71bd
000000c0: b9c2 153e 950f 1fbe 26d6 cd3d 6dcd 31be
000000d0: f925 76bd d978 243e 4494 903d 07b0 bbbd
000000e0: dc39 81bc 23fd 6d3d 4db5 bcbd 602c e03d
000000f0: 4543 8abd 063a eabd f857 cebd 01c7 00be
00000100: a87d d2bd 87cf 203e 3b9e c83d b02c b9bd
00000110: 5637 863c 83ef bf3d db68 543e 7361 b8bd
00000120: 69dd 083e a174 cebd 9f2e 0abe ef85 373d
00000130: 7ee3 233e 8b41 763e b8d6 95bd abbb 19be
00000140: b679 273e 5acb 1d3e c9c2 aa3d bb1c f93d
00000150: cffe fa3d 97aa 8dbd 82f1 0bbe c163 16be
00000160: a522 a7bd f564 4d3d 7219 aabd da83 6c3e
00000170: d3df 233e 958f c3bd 9aec 2f3e 50f2 cf3d
00000180: 09ff 2cbe de23 ae3d 7555 053b 02de b1bd
00000190: a022 1cbc b0fe ecbd 945c 91bd aeff 9d3d
000001a0: 8c53 d9bd 0dc4 babd 214d 6abd b768 89bd
000001b0: f877 52bd 467e 763d dd7a 5a3d 682b 90bd
000001c0: 31bd 943d 4389 a73d 0eb5 acbd 05d0 85bd
000001d0: 1b05 023c 13ce 25be 8163 ca3d c592 633d
000001e0: ced5 883d 00da 4cbd a614 7fbd 042d da3d
000001f0: 03ce e73d 88ad 8a3c b2d4 763d d2b8 a0bc
00000200: 75c5 0b3e eb64 03be 0d33 26be 6026 b1bd
00000210: 31ec e8bb 338a b6bb 6c87 9e3b 1d8a 3a3c
00000220: 56b2 333e 8c80 a93d 2efb d83d 03d8 c73d
00000230: 105c e8bd 89ed cd3d 5e2f 263e bfb6 8c3d
00000240: 01db 143e 78b4 2abe 9ce7 3abc 14da 233e
00000250: c8f7 64bd 7fa5 283e 2a5c e13d 1fce 2e3e
00000260: 6e15 273e 3ff9 f03d ce1f 243e a905 62bb
00000270: e51b 103e 532c e5bd f2ec 19be 2215 92bd
00000280: a23b 84bd ffb3 713e a408 ad3c 3990 023e
00000290: 20fb 15bd 60be c53c 3b96 423c 0338 9ebd
000002a0: 898f ff3d 092f a4bb 7c79 07be 3c24 363d
000002b0: 7b06 123e 4d31 073e aff1 e83d a859 01bd
000002c0: 0720 063e d4a7 203e f8e5 b9bd 0e14 593e
000002d0: 183a a4bd bb45 1dbd aa02 6dbb 18da bcbd
000002e0: 7a82 1abe 2fa3 933d 61fa f83d 9e88 a5bd
000002f0: 7063 a33d 54d5 d33d 6123 3f3e 37b3 fd3d
00000300: 8955 013e ad91 3e3d 4d8d 5e3e 88ef f23d
00000310: d8d1 173e 8bab 233e 650b 313e 5256 54bd
00000320: f8f6 07bc 4a66 c63d 7772 81bd 2ef5 a639
00000330: 6acd e73d 6729 933d 2130 4abd f870 13be
00000340: 0005 e43d 2d85 c23d d035 8f3d 98c8 563e
00000350: 5bc1 553e 1fe9 57bb 54a4 4e3d 6351 0a3e
00000360: 83c2 113e f9ab 8ebd 483a 703d a870 4e3e
00000370: bc34 513e 9179 cbbd 85d5 77bc ac86 013e
00000380: a682 873c 10f2 523e 9bf3 1c3e 5462 5ebc
00000390: 506c f13d 7947 d43d 3931 46bd 3b2d 423e
000003a0: a9be aabd 5e9c 40bd d978 633d b716 80bd
000003b0: 14b8 eb3d 2f43 0c3e 83f9 fa3d 9ee5 0e3e
000003c0: e084 2fbe bf8e 21be af95 b03c 3097 583e
000003d0: db1d 8c3d e6a7 cfbd 57b0 113e 9d20 173e
000003e0: f8ab cabd cf5e 09be 63fb d5bd 6a97 b7bc
000003f0: e634 fbbd 6826 1bbd 9e27 2f3c d50f d93d
-0.00058529037 0.090069026 -0.11287157 -0.1332217 0.16019304 0.1374029 -0.14155893 0.13721627
0.092910476 -0.014801413 0.028534101 0.06354584 0.20600495 -0.035444953 0.105671674 -0.154222
0.07627372 0.12324345 0.2139515 -0.093080886 0.08241721 0.043548316 -0.017410792 -0.08733598
-0.05075235 0.15253147 -0.0006293286 0.044904076 -0.09428732 -0.05522461 -0.058381308 0.16729964
-0.010062813 -0.15724266 0.033598118 0.074486904 -0.03162883 -0.10532621 0.1522418 0.13319102
0.01699087 -0.15786058 0.08285897 -0.015219185 -0.045356225 0.123802744 0.05336655 -0.059048366
0.14625062 -0.15533288 0.10050611 -0.1736352 -0.060094807 0.16061725 0.070595294 -0.09164434
-0.01577466 0.058102738 -0.09214268 0.10945964 -0.06751112 -0.11436848 -0.100753725 -0.12575914
-0.10277873 0.15704165 0.09795805 -0.090417266 0.016383808 0.09371855 0.20743124 -0.09002962
0.13365711 -0.10080839 -0.13494347 0.044805463 0.1600475 0.2404844 -0.07316345 -0.15012996
0.16355023 0.15409604 0.083379336 0.12163683 0.12255632 -0.06917303 -0.13666347 -0.1468649
-0.08160905 0.05014511 -0.083056346 0.23097172 0.16003351 -0.095488705 0.171801 0.10153639
-0.16894163 0.08502935 0.0020345126 -0.08684923 -0.00952974 -0.11572015 -0.07097736 0.07714783
-0.106116384 -0.09119425 -0.057202462 -0.06709426 -0.051383942 0.060179017 0.053339828 -0.07039529
0.07262648 0.081804775 -0.08432971 -0.06533817 0.007935788 -0.16191892 0.0988226 0.055559892
0.06681405 -0.05001259 -0.06227555 0.10653117 0.113185905 0.01692845 0.060261436 -0.01961938
0.13649543 -0.12831466 -0.16230412 -0.086498976 -0.0071082343 -0.005570674 0.004837921 0.011385468
0.17548499 0.082764715 0.10594784 0.09757998 -0.113456845 0.10055072 0.16229007 0.068707936
0.14536668 -0.16670406 -0.011407759 0.16001159 -0.055900365 0.16469382 0.11003907 0.17070816
0.16316769 0.1176629 0.16027758 -0.0034488237 0.14073141 -0.11190095 -0.15031794 -0.07132937
-0.064566866 0.2360382 0.021122284 0.12750329 -0.036616445 0.02413863 0.011876638 -0.07725527
0.12478549 -0.00501049 -0.13229936 0.04446815 0.14260285 0.132024 0.113742225 -0.031579643
0.13098155 0.15689021 -0.09077066 0.21199057 -0.08018893 -0.03839658 -0.0036164918 -0.092212856
-0.15088835 0.07208859 0.12157131 -0.08082698 0.079779506 0.103434235 0.1866584 0.12387698
0.12630285 0.046525646 0.2173359 0.11862093 0.14826143 0.15983407 0.17289503 -0.051840134
-0.008298628 0.09687479 -0.063206606 0.0003184466 0.113184765 0.07185631 -0.049362306 -0.14398563
0.11133766 0.094980575 0.06992686 0.20974958 0.2087454 -0.0032945347 0.050449684 0.13507609
0.14234357 -0.06966395 0.05864933 0.20160162 0.20430273 -0.09935296 -0.015126591 0.1264903
0.01654179 0.20600152 0.15327303 -0.013573248 0.11788237 0.10365195 -0.048386786 0.18962567
-0.08337147 -0.047024123 0.05553517 -0.062543325 0.115097195 0.13697504 0.12254622 0.1395478
-0.17140532 -0.1577711 0.02155575 0.21151423 0.06841632 -0.10139446 0.14227425 0.14758535
-0.09896082 -0.13415073 -0.10448339 -0.022411067 -0.12265949 -0.037878424 0.010690598 0.10598723

bias f4 [32]
00000000: b141 363e 48b6 bbbd b0d0 b33d 2611 febd
00000010: 7f92 9dbd 2445 023e ecba 1cbd 3d76 803d
00000020: 7ecb 1d3d 726e c73d 64d3 dd3d fbae 8dbc
00000030: 9972 52bd c242 c1bc d2b1 1d3e 077d fc3d
00000040: 092a 7bbd bec9 473e 2e38 223e c977 eb3d
00000050: acfb 33bd d0f6 803d 6f75 153e 00c7 fcbd
00000060: 1099 db3a 08e9 18be 1ae5 31bd 1741 393e
00000070: d7fe 273e bb62 5fbc 9a28 073e ca46 f8bd
0.17798497 -0.09165627 0.08780038 -0.124056146 -0.076939575 0.12721688 -0.0382642 0.06272552
0.038524143 0.09737863 0.10831335 -0.017295351 -0.05137882 -0.023591403 0.15399864 0.123285346
-0.061319385 0.19510552 0.15841743 0.114974566 -0.043941185 0.06297076 0.14595579 -0.12342644
0.001675399 -0.14932644 -0.04343138 0.18091236 0.16405807 -0.013634379 0.13199082 -0.12122877

weight f4 [1, 32]
00000000: 3bcb 93bd 9944 c3bb 7b76 99bd 2e43 d5bc
00000010: 7d79 8f3c 9d35 65bd f3c0 92bd 346b 54bd
00000020: d5c7 9dbc 2bc4 bebc e600 1ebd 00de cf3c
00000030: 5a21 843c bbde 963b 450a ad3b f734 51bd
00000040: 878a 903c 3eb5 86bd acdc 9cbd e855 b1bd
00000050: 5a38 abbc 0795 33bd f33d 8cbc e895 80bc
00000060: 4ca3 5ebd a81d a7bb f94e b13c 9de2 5ebd
00000070: 4cc4 e038 cc54 f5bb 9da8 54bd e138 dcbc
-0.072164975 -0.005959105 -0.074933015 -0.02603301 0.017513985 -0.055959333 -0.071657084 -0.05186005
-0.019260326 -0.0232869 -0.038575076 0.025374413 0.016129185 0.0046041883 0.0052807652 -0.0510759
0.01764418 -0.06577538 -0.07659277 -0.086589634 -0.020900894 -0.043843295 -0.017119383 -0.01569648
-0.05435495 -0.005099971 0.021644102 -0.054415334 0.000107177155 -0.007486915 -0.051918615 -0.02688259

weight f4 [1, 32]
00000000: c260 92bc 0fbe c23c c05b 27bb 8e8f 47bc
00000010: 1b5d febb 8ad9 bfbc c31b c8bc 2d0f 9d3c
00000020: d18d 9bbb e8d6 64ba 4aae 0dbd 3103 a43c
00000030: 3c44 e53c 9760 06bc 5640 3bbd 773c 133c
00000040: ffb8 dbbc 4c6d 2fbc 9f13 90bc cc59 d3bb
00000050: c47e 92bc 5d53 b63b 9933 353c 1c85 a13b
00000060: a3b1 64bc abf3 8a3c a38d fc3b 9ea6 e13b
00000070: 9899 d0bc c43b d13c 8ba2 d6bc 998d dc3c
-0.017868403 0.023772268 -0.0025536865 -0.012180222 -0.007762564 -0.02341916 -0.0244273 0.019172275
-0.0047471304 -0.00087295333 -0.034590043 0.020021053 0.027986638 -0.00820174 -0.045715652 0.008986584
-0.026821611 -0.010707211 -0.017587481 -0.0064499136 -0.017882712 0.005564137 0.011059665 0.004929198
-0.0139583675 0.016961893 0.007707314 0.0068863174 -0.025463864 0.025541194 -0.026200553 0.026922988
