models/patient3/srpo_model_for_patient_3_Actor.pth (torch, 24039 bytes, 12 tensors)

weight_ih_l0 f4 [64, 2]
0	0xbe6ad6ee	-0.22933552
1	0x3d9e60d8	0.07733315
2	0xbe67bd87	-0.22630893
3	0x3e0570b0	0.13031268
4	0xbe23f7b0	-0.16012454
5	0x3e3f5680	0.18685341
6	0x3dcc7b8a	0.09984501
7	0xbded7614	-0.11594787
8	0xbeabe1e2	-0.33570772
9	0xbe973420	-0.29531956
10	0xbdcf05e2	-0.10108544
11	0x3e18338a	0.1486341
12	0xbe25f6fe	-0.16207501
13	0x3e069d87	0.1314603
14	0xbd7e493a	-0.062081553
15	0x3dcdaffc	0.10043332
16	0xbec695b4	-0.3878609
17	0xbe2e3614	-0.17012817
18	0xbdf6e36d	-0.12055097
19	0xbcd2f712	-0.025752578
20	0xbd449735	-0.047995765
21	0x3da0b74a	0.078474596
22	0xbcf54eff	-0.029944895
23	0xbe344bc3	-0.17607026
24	0x3e062ce0	0.13103056
25	0xbe5bf077	-0.21478449
26	0x3dd4a795	0.10383526
27	0x3d052278	0.032503575
28	0xbe7a579c	-0.24447483
29	0xbcd94986	-0.026524317
30	0xbeb13bbe	-0.34615892
31	0xbe3bb4f7	-0.18330751
32	0xbe9dc91a	-0.3081749
33	0xbe573b62	-0.21018746
34	0xbd6571c7	-0.05601671
35	0xbe646a48	-0.22306168
36	0xbe841cd1	-0.25803235
37	0x3e2478fc	0.16061777
38	0x3ded61d3	0.11590924
39	0x3e36952f	0.17830347
40	0xbe11d50c	-0.14241427
41	0xbe20c564	-0.15700299
42	0xbc04f0da	-0.008114064
43	0xbceb1496	-0.02869634
44	0xbe95f2dd	-0.29286852
45	0x3dba2869	0.09089739
46	0x3d3d07cc	0.046150014
47	0x3cd17187	0.02556683
48	0xbe5e1055	-0.21685918
49	0xbdf6f93b	-0.12059256
50	0x3c47a728	0.012185849
51	0xbe059303	-0.13044362
52	0xbe28bd2b	-0.16478412
53	0xbd0aee35	-0.03391858
54	0xbe872fc4	-0.2640363
55	0xbe78f89d	-0.24313588
56	0x3d28fcee	0.041256838
57	0xbdae5895	-0.085129894
58	0xbda90661	-0.0825317
59	0xbdfddec5	-0.123960055
60	0x3c3d8fd9	0.0115699405
61	0xbe48e919	-0.1962017
62	0xbeb22c17	-0.34799263
63	0xbe3f60e2	-0.18689302
64	0x3c6b337e	0.014355538
65	0x3e678403	0.22608952
66	0xbe1faed8	-0.15594041
67	0xbd3c91ad	-0.046037365
68	0x3d4f15e9	0.050558005
69	0x3e82498c	0.25446737
70	0x3dfe1e22	0.12408091
71	0x3e6f9d9d	0.23399968
72	0xbe5b4342	-0.21412376
73	0xbe794ce6	-0.2434574
74	0xbebe7f30	-0.3720641
75	0xbd898fca	-0.06716879
76	0x3e4937f4	0.1965025
77	0x3e196ee6	0.1498371
78	0xbe5fb622	-0.21846822
79	0xbd5a9193	-0.053361487
80	0xbe84e1e0	-0.2595358
81	0xbe4ad086	-0.19806108
82	0xbd55f444	-0.052234903
83	0x3e9005f5	0.28129545
84	0xbe09e13d	-0.13464828
85	0x3e27f207	0.1640092
86	0x3b28c5ba	0.002575262
87	0xbe5430e3	-0.20721774
88	0xbbb74c92	-0.0055938447
89	0xbc94a03b	-0.01814281
90	0xbdfb2516	-0.12262933
91	0xbc950513	-0.018190896
92	0x3ddf5f08	0.10906798
93	0xbda2a41e	-0.07941459
94	0xbead7042	-0.33874708
95	0x3d402452	0.046909638
96	0xbd8ea0a3	-0.06964233
97	0xbdbba0db	-0.0916154
98	0xbea2c814	-0.31793272
99	0xbcbeeca1	-0.023306193
100	0x3b973906	0.004614952
101	0x3decbf97	0.1155998
102	0xbe70caa6	-0.23514804
103	0xbcf48f0f	-0.029853372
104	0xbeb65aea	-0.35616237
105	0xbe6a3c58	-0.22874582
106	0x3b3413fe	0.0027477737
107	0xbdd0ffb4	-0.102050215
108	0xbd8a7c5b	-0.06762
109	0x3bf8ff53	0.0075987964
110	0x3e1afb0b	0.15134828
111	0xbe88763e	-0.26652712
112	0x3dd29369	0.102820225
113	0x3daa9f1e	0.083311304
114	0x3dcdc72a	0.10047753
115	0xbe316f91	-0.17327715
116	0xbea0d8f5	-0.31415525
117	0x3dce78ee	0.10081659
118	0xbca0b4ac	-0.019617401
119	0x3de8a711	0.113599904
120	0xbeace4b7	-0.33768246
121	0xbdeebc5d	-0.11657021
122	0xbe934e0b	-0.2877048
123	0x3dd4347c	0.10361573
124	0xbd81aee9	-0.063321896
125	0xbdc06906	-0.09395032
126	0xbe595329	-0.2122313
127	0xbe783509	-0.24238981

weight_hh_l0 f4 [64, 16]
0	0x3e2a0c58	0.16606271
1	0xbdf397ea	-0.1189421
2	0x3e22cc03	0.15898137
3	0x3dfb2713	0.12263312
4	0x3e0e5782	0.13900569
5	0x3e408506	0.18800744
6	0xbddc380f	-0.1075288
7	0xbd5e372c	-0.054251835
8	0x3dc7b1bf	0.09750699
9	0x3d7029e0	0.058633685
10	0xbe185bbd	-0.14878745
11	0x3e7c229d	0.24622579
12	0x3d9dfae6	0.07713871
13	0x3e832709	0.2561572
14	0xbd1db714	-0.038504675
15	0xbdc20bc3	-0.094748996
16	0xbd52fd4e	-0.0515111
17	0x3e7d03d3	0.2470849
18	0xbe691021	-0.22760059
19	0xbe6ba62c	-0.23012608
20	0xbe0ee93b	-0.13956158
21	0xbd02cef9	-0.031935666
22	0x3e0e1de1	0.13878585
23	0xbe0c4e86	-0.1370183
24	0xbda6b572	-0.08140077
25	0xbe4aa07a	-0.1978778
26	0x3dee4bef	0.11635577
27	0xbe475345	-0.19465359
28	0xbd1da066	-0.038483046
29	0xbda613f2	-0.08109273
30	0xbd4ceacb	-0.050028604
31	0x3daa26f2	0.083082095
32	0x3e37be7f	0.17943762
33	0xbe1cefa3	-0.15325789
34	0x3d7132ee	0.05888646
35	0xbe609bff	-0.21934508
36	0xbd942247	-0.072331004
37	0x3e5fe90c	0.21866244
38	0xbdf52fd0	-0.1197201
39	0x3e99d263	0.30043325
40	0x3de8cacb	0.11366805
41	0xbcf8dda0	-0.030379117
42	0xbe87394e	-0.26410908
43	0x3e48eb85	0.19621094
44	0xbda3036b	-0.07959636
45	0x3d807a8d	0.06273375
46	0xbd9fb6da	-0.07798548
47	0x3e464a52	0.19364288
48	0x3c08ad0b	0.008342038
49	0xbe03f082	-0.12884715
50	0x3d62bcd3	0.055355858
51	0xbe1825ce	-0.14858171
52	0x3de389fd	0.111103036
53	0x3e76d7ab	0.24105708
54	0xbdd77c7a	-0.10521789
55	0x38cc87e2	9.752788e-05
56	0xbd595772	-0.05306191
57	0xbc2cde87	-0.0105511015
58	0x3dadcb3e	0.08486031
59	0xbda64825	-0.08119229
60	0xbe008dd4	-0.12554103
61	0xbcb76625	-0.022387573
62	0xbe7d5ada	-0.24741688
63	0x3ddfcc58	0.10927647
64	0x3d833cfc	0.06408116
65	0x3dfee56f	0.12446105
66	0xbe1ea09b	-0.15490954
67	0x3c380661	0.01123199
68	0xbe3888b2	-0.18020895
69	0x3e9e8762	0.30962664
70	0x3dbc987c	0.092087716
71	0xbcadacb6	-0.021200519
72	0xbe343663	-0.17598872
73	0xbe446d37	-0.19182287
74	0xbe215d89	-0.15758337
75	0xbcf5efb2	-0.030021522
76	0x3e8c7cab	0.27438864
77	0x3df0d71c	0.11759779
78	0x3d600cfd	0.054699887
79	0xbcc4a94e	-0.024006512
80	0x3e36be08	0.17845929
81	0x3e4903ff	0.1963043
82	0xbe6b8abd	-0.23002143
83	0x3d2a7820	0.041618466
84	0xbd9bb4a8	-0.07602817
85	0xbdff1558	-0.12455243
86	0x3d4dbd61	0.050229434
87	0xbe123fe1	-0.1428218
88	0x3e0d6530	0.13808131
89	0x3d57aeec	0.052657053
90	0xbeada2d6	-0.33913296
91	0xbb2e839f	-0.0026628745
92	0xbd5a95c3	-0.05336548
93	0x3e02dbc4	0.12779146
94	0x3ce9763a	0.028498758
95	0x3e996820	0.29962254
96	0xbe44b0e2	-0.192081
97	0x3e1416d8	0.14461839
98	0xbe25e94b	-0.16202275
99	0x3df52ab7	0.11971038
100	0xbe374531	-0.17897488
101	0x3e5e5d75	0.21715339
102	0xbe6dbd6c	-0.2321679
103	0x3d410eef	0.047133382
104	0x3c270de9	0.0101961875
105	0x3e3f7396	0.18696436
106	0xbdfbdf9e	-0.12298511
107	0x3d82e2c8	0.06390911
108	0x3df643dd	0.12024663
109	0x3e406414	0.18788177
110	0x3db42d74	0.08797732
111	0x3e1bbb83	0.15208249
112	0xbd2fea73	-0.042948198
113	0x3e44d5ee	0.19222233
114	0xbda0a776	-0.07844441
115	0x3e362ea6	0.17791232
116	0x3d534972	0.051583715
117	0x3e3641cb	0.17798536
118	0xbe1ca00b	-0.15295427
119	0xbcee6ad9	-0.029103683
120	0x3c926a5d	0.017872984
121	0xbe4531ff	-0.19257353
122	0xbe64d950	-0.22348523
123	0xbd108384	-0.035281673
124	0xbe342133	-0.1759079
125	0xbe0c6025	-0.13708551
126	0x3e0878e3	0.13327365
127	0x3c881fe1	0.016616764
128	0xbcbd6e5c	-0.023123913
129	0xbe072a93	-0.13199835
130	0xbe36882e	-0.17825386
131	0xbe367128	-0.17816603
132	0x3e6ae6d2	0.22939613
133	0xbdb325f0	-0.087474704
134	0x3ddce30b	0.107854925
135	0x3e6e78a9	0.23288216
136	0x3d145a55	0.03621896
137	0xbd940385	-0.07227234
138	0x3e303e1d	0.17211194
139	0x3e5a692a	0.2132918
140	0x3e4778ef	0.19479726
141	0x3d803113	0.0625936
142	0x3e271ce6	0.16319618
143	0x3e10ecdc	0.14152855
144	0xbd4666d4	-0.04843791
145	0x3e67cd3a	0.22636881
146	0x3def8e39	0.11697049
147	0xbe9a509d	-0.30139628
148	0x3d3737ab	0.044730823
149	0x3e7f7c43	0.24949746
150	0xbe59a6b0	-0.21254992
151	0xbd2be650	-0.04196769
152	0xbdff72e4	-0.124730855
153	0xbc7b4c74	-0.015338052
154	0xbe8f5637	-0.27995464
155	0x3e8f0427	0.27932855
156	0x3e46271e	0.1935086
157	0xbdae8c00	-0.08522797
158	0x3e2c1739	0.16805734
159	0xbbfca274	-0.0077097956
160	0x3e172ff9	0.14764394
161	0x3d4acbb4	0.049510673
162	0xbd8a5ca1	-0.06755949
163	0xbe9fcd5e	-0.3121137
164	0x3d0f007e	0.03491258
165	0x3d45a9f6	0.04825779
166	0x3d303fb5	0.043029506
167	0x3e097fc7	0.1342765
168	0xbcb0bae1	-0.021573486
169	0xbdebb720	-0.11509538
170	0xbe17751a	-0.14790764
171	0x3dade8ec	0.08491692
172	0x3e563213	0.2091754
173	0x3e73386f	0.23751996
174	0x3c8d8ba0	0.017278492
175	0x3e0adb53	0.13560228
176	0x3e2f3e47	0.171136
177	0xbbe560f5	-0.0070000836
178	0x3d8c8552	0.06861366
179	0xbe0e006e	-0.13867351
180	0x3bedffb3	0.0072631477
181	0xbda27c63	-0.07933881
182	0xbe496b14	-0.19669753
183	0xbdda98da	-0.10673685
184	0x3d41567d	0.047201622
185	0xbe8c07d6	-0.27349728
186	0x3c9625e4	0.018328615
187	0x3e01ceac	0.12676495
188	0x3d3d896b	0.04627363
189	0xbe4f98be	-0.2027311
190	0xbe6f1a06	-0.23349771
191	0x3d557802	0.0521164
192	0x3e3718d1	0.1788056
193	0x3e8241d5	0.2544085
194	0x3d5aa5ed	0.053380895
195	0xbe50dfde	-0.20397899
196	0x3e4ebdc8	0.20189583
197	0x3cb4a665	0.022052
198	0xbe9a5814	-0.30145323
199	0x3bb3f9a9	0.0054924083
200	0xbd62867d	-0.05530404
201	0xbdbb3227	-0.09140425
202	0x3db2e201	0.08734513
203	0xbcaca9c8	-0.021077052
204	0xbdee2cf2	-0.116296664
205	0xbdaace2a	-0.08340104
206	0xbde3ebcc	-0.11128959
207	0x3ce41d5d	0.027846033
208	0x3e03a0f9	0.12854375
209	0x3e7956fc	0.24349588
210	0xbdfd30ab	-0.12362798
211	0x3d704986	0.058663867
212	0x3e283052	0.16424683
213	0x3e1f5f35	0.15563662
214	0xbe36f277	-0.1786593
215	0x3c860cc7	0.016363515
216	0x3ddffb1f	0.109365694
217	0xbe2539d5	-0.16135342
218	0xbe86b799	-0.2631195
219	0xbb823424	-0.003973501
220	0x3dabc87f	0.08387851
221	0x3dbc8671	0.0920533
222	0x3cb6e629	0.022326546
223	0xbe109d75	-0.14122565
224	0xbe5937a1	-0.21212627
225	0xbd9eee9f	-0.07760357
226	0x3d3d7618	0.0462552
227	0xbe91ce6c	-0.284778
228	0x3dee524c	0.11636791
229	0xbdbf38a4	-0.09336975
230	0xbb6e96c4	-0.0036405781
231	0xbe0d5e3f	-0.13805483
232	0x3d2fcf72	0.042922445
233	0xbe8dc3e5	-0.27688518
234	0x3e3a24d0	0.18178105
235	0x3e8e3fcb	0.27783045
236	0xbcce61f8	-0.0251932
237	0x3e6bfd57	0.2304586
238	0xbdeeac38	-0.11653942
239	0x3e33c10f	0.17554115
240	0xbe829dee	-0.25511116
241	0x3e8facc3	0.28061494
242	0xbd91fb95	-0.071280636
243	0xbe44325a	-0.19159833
244	0x3e37dd84	0.17955595
245	0x3dab4d68	0.083643734
246	0xbdd9d671	-0.106366046
247	0x3ebe20c2	0.37134367
248	0x3d1dd886	0.03853657
249	0x3e0b648c	0.13612574
250	0xbe589379	-0.21150006
251	0x3d8a4bd5	0.06752745
252	0xbe48fd57	-0.19627891
253	0x3d7c64b4	0.061619475
254	0xbe434ac1	-0.19071485
255	0x3c300783	0.010743978

bias_ih_l0 f4 [64]
0	0xbd92c343	-0.071661495
1	0x3e60dc58	0.21959054
2	0xbd9173c5	-0.071021594
3	0xbc1ea2f8	-0.009682409
4	0x3d90bc49	0.070671625
5	0x3d57545a	0.05257068
6	0x3e46d7bc	0.19418234
7	0xbde4424c	-0.111454576
8	0x3e404659	0.18776836
9	0xbe239b20	-0.15977144
10	0x3e93d593	0.28873882
11	0xbdf4f703	-0.11961176
12	0x3e904680	0.28178787
13	0xbe54bdd9	-0.20775546
14	0xbda28ad6	-0.07936637
15	0xbd6647e2	-0.056220897
16	0x3dcdb406	0.10044102
17	0x3b3e21a9	0.0029011762
18	0xbde54597	-0.11194914
19	0x3de2317c	0.11044595
20	0x3e54bf20	0.20776033
21	0xbd65a05f	-0.056061145
22	0x3dc94f20	0.09829545
23	0x3a01d0b5	0.0004952059
24	0x3e8b9e12	0.27269036
25	0x3cda7097	0.026665015
26	0xbe057286	-0.13031968
27	0x3e524744	0.20534998
28	0x3e921bf9	0.28536966
29	0xbd86eb3b	-0.065878354
30	0x3c60f1ff	0.013729571
31	0xbdc6bdc2	-0.09704162
32	0xbe233092	-0.15936497
33	0xbdfbf4b4	-0.12302533
34	0x3de97a40	0.114002705
35	0xbd9fe2f7	-0.07806962
36	0x3e041f77	0.12902628
37	0xbe684a45	-0.22684582
38	0xbd3c4601	-0.0459652
39	0xbce1f2a0	-0.027581513
40	0xbdd14aab	-0.1021932
41	0xbe5691c4	-0.20954043
42	0xbe522f34	-0.20525819
43	0x3ca8acea	0.020590264
44	0x3e5835f0	0.21114326
45	0x3e057bc2	0.13035491
46	0xbe4f9dbf	-0.20275019
47	0x3e5407dc	0.20706123
48	0x3e2df178	0.16986644
49	0xbda393c4	-0.079871684
50	0xbe217278	-0.15766323
51	0x3e8ad8ff	0.2711868
52	0x3e598ae3	0.21244387
53	0x3e8aece5	0.2713386
54	0xbddb2ae9	-0.10701544
55	0x3e12a2d6	0.1431993
56	0xbbcd7f38	-0.006271269
57	0x3d0c53fc	0.03425978
58	0x3e91eaa0	0.28499317
59	0xbca3c16e	-0.019989695
60	0x3e46ad42	0.1940203
61	0xbd63c28e	-0.055605464
62	0x3c0fdbc0	0.00878042
63	0x3e75895c	0.2397818

bias_hh_l0 f4 [64]
0	0x3e6d46af	0.23171495
1	0xbc16ffc5	-0.009216254
2	0xbb9b4b30	-0.0047391877
3	0x3d56a136	0.052399836
4	0xbe13f962	-0.144506
5	0xbcd61386	-0.026132356
6	0x3e202d60	0.15642309
7	0x3dadf93a	0.08494802
8	0xbcdbd83c	-0.026836507
9	0x3e2f3884	0.17111403
10	0xbdc184ab	-0.094491325
11	0x3e68ac6c	0.22722024
12	0x3e885f21	0.26635078
13	0x3c8ae056	0.016952675
14	0xbe4c1109	-0.19928373
15	0x3db86528	0.09003669
16	0x3e7fb678	0.2497195
17	0x3e77b68a	0.24190727
18	0x3e10549f	0.1409478
19	0xbd85a9d3	-0.06526532
20	0xbc1a7bfd	-0.009428975
21	0x3e15cc15	0.14628632
22	0xbdf02792	-0.117262974
23	0x3e1211ed	0.1426465
24	0x3c9c26d7	0.019061489
25	0x3e38b42d	0.18037482
26	0xbc53d9cb	-0.012930344
27	0x3d07cd7e	0.033154957
28	0x3db9fc38	0.0908131
29	0x3e734673	0.23757343
30	0x3e2ade2b	0.16686313
31	0xbdd94a9a	-0.10609932
32	0xbe7fe2c8	-0.24988854
33	0x3e8896fd	0.26677695
34	0x3dbf0924	0.09327915
35	0x3cd623c9	0.02614011
36	0x3c452d20	0.012034684
37	0x3e097e4c	0.13427085
38	0xbdfbee6f	-0.12301337
39	0xbda66fd5	-0.08126799
40	0x3e02b286	0.12763414
41	0xbe3d5084	-0.18487746
42	0xbd7896b4	-0.060690597
43	0xbe45efc2	-0.19329742
44	0x3d4c636f	0.049899515
45	0x3e8e34cf	0.27774665
46	0xbe54df89	-0.20788397
47	0x3e028b63	0.12748484
48	0x3e4f4c22	0.20243886
49	0x3ae978eb	0.0017812526
50	0xbe26cf20	-0.1628995
51	0x3dc45f0c	0.09588441
52	0x3db6e17c	0.089297265
53	0xbe2124c5	-0.15736683
54	0x3e2f47ce	0.17117235
55	0x3e90f9c5	0.2831556
56	0x3e88e5dc	0.2673787
57	0x3d843df6	0.064571306
58	0x3cc40dc0	0.023932338
59	0x3e2e4836	0.17019734
60	0xbb2d7c53	-0.0026471808
61	0xbe0f564e	-0.13997766
62	0xbddf9596	-0.10917203
63	0x3daf5317	0.0856077

weight f4 [32, 16]
0	0x3de815ee	0.11332308
1	0x3ea2c6df	0.31792352
2	0xbe36540d	-0.178055
3	0x3d9298db	0.07158061
4	0x3d21a622	0.039465077
5	0x3d13c14a	0.036073007
6	0x3e304e80	0.17217445
7	0xbd9dd422	-0.07706477
8	0x3e21dc2e	0.15806648
9	0xbe9b15e2	-0.30290133
10	0x3c8ea930	0.01741466
11	0x3d176f95	0.036971647
12	0x3e8e3256	0.27772778
13	0x3dd7aa52	0.10530533
14	0x3e1819f2	0.14853647
15	0x3e0285a7	0.12746297
16	0x3e23acf8	0.15983951
17	0xbe656afe	-0.22404096
18	0xbb502800	-0.0031762123
19	0x3cc90690	0.024539262
20	0xbe0f0b66	-0.13969192
21	0xbda04268	-0.07825166
22	0xbdc34e34	-0.095364004
23	0xbe4aedbe	-0.19817254
24	0xbdeb70d0	-0.11496127
25	0x3e29d41c	0.1658482
26	0x3e01474c	0.12624854
27	0xbe6a0e54	-0.22857028
28	0xbdfd1090	-0.12356675
29	0xbe12f536	-0.14351353
30	0xbdf977b8	-0.12181038
31	0xbd4f7e20	-0.05065739
32	0x3e11c4ca	0.14235225
33	0xbca08d9b	-0.019598773
34	0xbe1ccd5a	-0.1531271
35	0xbc902744	-0.017596848
36	0x3dc80b77	0.09767812
37	0x3e467f31	0.19384457
38	0xbb82ae07	-0.003988031
39	0xbdb23cdd	-0.08703015
40	0x3dc039c2	0.093860164
41	0x3dea1cd2	0.11431278
42	0x3e332199	0.17493285
43	0x3e1c7326	0.152783
44	0x3e288ed5	0.16460736
45	0x3cdd795e	0.027035411
46	0xbc16f25e	-0.009213058
47	0xbe5fef28	-0.21868575
48	0x3e753a56	0.23948035
49	0xbe353598	-0.17696226
50	0x3e1c1230	0.15241313
51	0xbe19147a	-0.14949217
52	0x3e32ab40	0.17448139
53	0xbd952558	-0.072825134
54	0x3e5ee454	0.21766788
55	0x3dbedc0c	0.09319314
56	0xbd67c920	-0.056588292
57	0xbe475f96	-0.19470057
58	0xbdd7d414	-0.105384976
59	0xbe5a1e1a	-0.21300545
60	0x3e13662c	0.14394444
61	0x3cf0df50	0.029403359
62	0x3db310b8	0.08743423
63	0x3d28f5c0	0.04124999
64	0x3d3a1671	0.045431558
65	0x3d2c8486	0.04211857
66	0xbe660294	-0.22461921
67	0xbcd4d814	-0.02598194
68	0x3d162e09	0.036664996
69	0xbddf5871	-0.10905541
70	0x3e479d54	0.1949361
71	0xbd573e4b	-0.05254964
72	0x3dd92887	0.10603433
73	0x3e3240e0	0.1740756
74	0xbe657747	-0.22408782
75	0x3e09da80	0.13462257
76	0x3c2e8822	0.010652574
77	0x3a9c7f87	0.0011939862
78	0x3e2055f2	0.15657786
79	0xbe889172	-0.26673466
80	0x3ddbf55b	0.10740157
81	0x3ea45662	0.32097155
82	0x3d8f65e7	0.07001858
83	0xbe1f0b31	-0.15531613
84	0x3cb95c6b	0.022627076
85	0x3dbdc2ec	0.09265694
86	0x3c100580	0.008790374
87	0xbb5126f3	-0.0031914085
88	0xbdd72efd	-0.10507009
89	0xbd4de6d3	-0.05026896
90	0x3d65869c	0.056036577
91	0x3e8f3e5b	0.2797726
92	0xbde828b3	-0.11335888
93	0x3df1c6ad	0.118054725
94	0xbdaae85d	-0.08345101
95	0x3e983999	0.29731444
96	0x3e5b0769	0.21389546
97	0xbce6aff3	-0.028160071
98	0x3d821df5	0.0635337
99	0x3e046dc9	0.12932505
100	0x3e19ac00	0.15007019
101	0x3e5cad22	0.2155042
102	0xbc9855c8	-0.018595591
103	0x3e219b0d	0.15781803
104	0xbccec41e	-0.02524
105	0x3e39c7ff	0.18142699
106	0x3e327544	0.17427546
107	0x3d96a864	0.07356337
108	0xbe82b1e0	-0.25526333
109	0xbdbb7da5	-0.09154824
110	0xbdf28359	-0.11841459
111	0x3e5bd8fc	0.21469492
112	0xbe95e6d3	-0.29277667
113	0x3e9fd6c9	0.31218556
114	0xbe1ba9c1	-0.15201475
115	0xbd85a028	-0.06524688
116	0x3caba3c7	0.020952119
117	0x3d7cfd81	0.061765198
118	0xbd7dc5e5	-0.061956305
119	0x3d4a125e	0.049333923
120	0x3e161c33	0.14659195
121	0xbd8f9ef2	-0.07012738
122	0xbe108397	-0.14112698
123	0x3d868e94	0.06570163
124	0x3d8b621b	0.068058215
125	0x3d4fa6df	0.05069625
126	0xbe912ba2	-0.28353602
127	0x3dea4a79	0.11439986
128	0x3e829a96	0.25508565
129	0x3e230043	0.15918069
130	0xbdd34591	-0.10316003
131	0x3e055db0	0.1302402
132	0xbdb3e35f	-0.08783602
133	0x3e4382d9	0.19092883
134	0x3c8d865a	0.017275978
135	0x3e5508bd	0.20804115
136	0xbe9050b8	-0.28186584
137	0xbde41126	-0.11136083
138	0xbd9e3a1e	-0.07725929
139	0xbe12b039	-0.14325036
140	0x3d1862ee	0.03720372
141	0x3e40e58d	0.18837567
142	0xbe50baeb	-0.20383804
143	0x3e218cca	0.15776363
144	0xbbb5ce00	-0.0055482388
145	0xbdda7670	-0.106671214
146	0xbe525188	-0.20538914
147	0xbd30ddf0	-0.043180406
148	0x3d3ef938	0.046624392
149	0xbd038e90	-0.03211838
150	0xbddfbe84	-0.1092501
151	0xbe3b5308	-0.18293393
152	0xbd83eb0c	-0.06441316
153	0xbe231d5a	-0.15929165
154	0xbd18f4c8	-0.037342817
155	0xbe2c2908	-0.16812527
156	0xbe2e0d4a	-0.16997257
157	0x3e062e52	0.13103607
158	0x3e352e36	0.1769341
159	0xbe71905a	-0.23590222
160	0x3e717cfe	0.23582837
161	0x3e295e93	0.16539983
162	0x3ddad403	0.10684969
163	0xbe6c8024	-0.23095757
164	0x3e7ae194	0.24500114
165	0xbe048c20	-0.12944078
166	0xbd993859	-0.074814506
167	0x3e6dc160	0.23218298
168	0x3cd62625	0.026141236
169	0x3d852998	0.06502074
170	0xbe26d98b	-0.16293924
171	0x3d33a0d2	0.043854542
172	0xbdb3779c	-0.08763048
173	0x3de1990b	0.11015519
174	0xbe115558	-0.14192712
175	0xbd9d1860	-0.07670665
176	0xbe9aa53c	-0.3020419
177	0x3e9157f1	0.28387406
178	0xbd525488	-0.051350147
179	0xbe942e7a	-0.2894171
180	0x3e70fb64	0.23533398
181	0x3e918fe8	0.28430104
182	0xbe576d31	-0.21037747
183	0x3e486872	0.19571093
184	0x3e1ad842	0.15121558
185	0xbe71c342	-0.23609641
186	0xbe1314fc	-0.14363474
187	0x3e87bf1a	0.26512986
188	0x3d20d06f	0.039261278
189	0x3de35b8c	0.111014456
190	0xbe1dfa23	-0.15427451
191	0xbe2e05d0	-0.16994405
192	0x3e1928bd	0.14956947
193	0x3e4c4041	0.19946386
194	0xbe559f16	-0.20861468
195	0x3d975947	0.07390075
196	0xbe0432f9	-0.1291007
197	0x3e530fb8	0.20611465
198	0x3d2a875e	0.041633002
199	0xbd7563d6	-0.059909664
200	0x3e8affb9	0.27148226
201	0xbdc1a068	-0.09454423
202	0xbdaaf697	-0.083478145
203	0x3e23418a	0.1594297
204	0x3e929809	0.2863162
205	0x3e901a6b	0.28145155
206	0x3e26293c	0.16226667
207	0xb9b2875a	-0.0003405165
208	0x3e3b9c9c	0.1832146
209	0x3daf419c	0.08557436
210	0xbe3f47d2	-0.18679741
211	0xbe51f24c	-0.20502585
212	0x3dea2b6c	0.11434063
213	0x3d0e3790	0.034720957
214	0x3e0aab4c	0.13541907
215	0xbe0cdc4e	-0.13755915
216	0xbde587f8	-0.112075746
217	0xbd06ef50	-0.03294307
218	0xbc8647b0	-0.016391605
219	0x3e1db052	0.15399292
220	0xbe504330	-0.2033813
221	0xbe33f1ec	-0.17572755
222	0x3e7126d6	0.23549971
223	0x3e159742	0.14608482
224	0xbe0463b8	-0.12928665
225	0x3e275bbd	0.16343589
226	0xbe52cd38	-0.20586097
227	0xbe0bb23d	-0.13642211
228	0xbe532a0c	-0.20621508
229	0xbdaa86e0	-0.083265066
230	0xbe0fdcf7	-0.14049135
231	0x3e03ca80	0.12870216
232	0x3dccc020	0.099975824
233	0x3e5867ae	0.211333
234	0xbd021ad4	-0.031763867
235	0xbe749c0a	-0.23887649
236	0xbe7f5839	-0.24935998
237	0xbe6ad194	-0.2293151
238	0xbe2d163e	-0.16903016
239	0xbd1a3823	-0.037651192
240	0xbe09dad9	-0.1346239
241	0x3dc8dbd5	0.09807555
242	0xbe60cddc	-0.21953529
243	0xbcabbb8b	-0.02096345
244	0xbe6cc1be	-0.23120782
245	0xbe721f5f	-0.2364478
246	0xbcac91c9	-0.02106561
247	0xbea4380f	-0.3207402
248	0x3e274f78	0.16338909
249	0xbc828e2b	-0.015936932
250	0xbdbb3801	-0.09141541
251	0xbc0b29a0	-0.008493811
252	0x3e1ad9ee	0.15122196
253	0xbcfbb27a	-0.030724753
254	0x3dacfe13	0.08446898
255	0xbd94662e	-0.07246052

bias f4 [32]
0	0x3e1691dd	0.1470408
1	0xbe7317a0	-0.23739481
2	0xbe29d968	-0.1658684
3	0xbd5ca640	-0.053869486
4	0x3dd8b2c2	0.1058097
5	0x3e98e177	0.29859516
6	0x3d32bc12	0.04363639
7	0x3e0cc462	0.13746789
8	0xbd6d96f2	-0.05800528
9	0xbe33b30e	-0.17548773
10	0x3ddf7bc6	0.1091228
11	0x3d51583b	0.051109534
12	0x3e4a517c	0.19757646
13	0xbdfeb9ac	-0.12437758
14	0xbc615f85	-0.013755684
15	0xbdd8bd79	-0.10583014
16	0x3cabe51b	0.02098327
17	0xbddd4477	-0.10804074
18	0x3e6e98cc	0.23300475
19	0x3da96c73	0.08272638
20	0x3b6f6a3e	0.003653183
21	0x3dc575d0	0.096416116
22	0xbcbcefd0	-0.02306357
23	0x3e691490	0.2276175
24	0xbd41e108	-0.047333747
25	0xbe1b8cec	-0.15190476
26	0x3e3f0a26	0.18656215
27	0x3d365a2b	0.044519585
28	0xbde23fff	-0.110473625
29	0x3c9a3720	0.018825114
30	0xbdd50eb8	-0.10403198
31	0xbe54f928	-0.2079817

weight f4 [32, 32]
0	0xbd2d9f67	-0.042388346
1	0xbca09adb	-0.01960509
2	0xbd2dd285	-0.042437095
3	0x3e098be1	0.13432266
4	0xbdf74c9f	-0.12075161
5	0x3e2fd365	0.17170484
6	0x3be6d608	0.0070445575
7	0x3dfed04a	0.12442072
8	0xbe22e632	-0.15908125
9	0xbdd49670	-0.10380256
10	0xbd9fc7ef	-0.07801806
11	0x3de799ba	0.11308618
12	0xbb1ba6ae	-0.0023750472
13	0xbd8a9c27	-0.06768065
14	0xbde2f5c4	-0.11082032
15	0xbcf6b18b	-0.030113956
16	0x3db08955	0.08619944
17	0xbcc23306	-0.02370597
18	0x3e481ca5	0.19542177
19	0xbb6987fc	-0.0035634032
20	0x3e0179f9	0.12644185
21	0x3de14c28	0.11000854
22	0x3bd5f642	0.0065296004
23	0x3ce6ef6b	0.028190335
24	0x3e10b462	0.1413131
25	0xbe348ba0	-0.17631388
26	0xbd436e08	-0.047712356
27	0x3d84ec46	0.06490378
28	0x3e3b05a8	0.18263876
29	0xbd51f97c	-0.051263317
30	0x3e170eda	0.14751759
31	0xbd88fefb	-0.06689259
32	0x3dc78096	0.09741323
33	0xba39e887	-0.0007091839
34	0xbdffc375	-0.12488452
35	0xbd825094	-0.06363025
36	0xbde2c533	-0.11072769
37	0xbe29bf91	-0.16576983
38	0xbdab5863	-0.08366468
39	0xbba7ad72	-0.005117112
40	0x3e08e0ae	0.13366958
41	0x3e1bb514	0.15205795
42	0xbd21bd6f	-0.0394873
43	0xbda139de	-0.078723654
44	0xbd490d5a	-0.049085
45	0xbdf194a7	-0.11795931
46	0xbde8adf2	-0.113613024
47	0x3dc27574	0.09495059
48	0xbd8f5e74	-0.070004374
49	0xbd585401	-0.052814487
50	0xbd948201	-0.07251359
51	0xbda7a75c	-0.08186218
52	0x3e07016b	0.13184135
53	0x3e2f3615	0.17110474
54	0xbd62343e	-0.055225603
55	0x3d0a1c0c	0.033718154
56	0x3e03cbd8	0.12870729
57	0x3d5dfa5f	0.05419385
58	0xbdb3dec8	-0.087827265
59	0xbbb3d4b7	-0.005488004
60	0xbd9de8d7	-0.07710426
61	0x3e210464	0.15724331
62	0x3e161122	0.14654973
63	0x3da304fa	0.079599336
64	0x3d83ca5e	0.06435083
65	0xbdbc2f7e	-0.09188746
66	0xbd2504be	-0.040287726
67	0xbaa21fa2	-0.0012369046
68	0x3cb9429a	0.022614766
69	0x3c4cbe13	0.012496489
70	0xbe2bcf17	-0.16778217
71	0x3b9a313d	0.0047055767
72	0xbdb9668c	-0.090527624
73	0x3e26aa88	0.1627599
74	0xbd398559	-0.045293186
75	0x3cdd42f9	0.027009474
76	0x3e5a83ae	0.21339294
77	0xbd096ace	-0.033549123
78	0xbd323c1a	-0.04351435
79	0xbe610bcc	-0.21977156
80	0x3dce5526	0.100748345
81	0x3abb8dd5	0.0014309237
82	0x3be80e43	0.0070817783
83	0x3e23058c	0.15920085
84	0x3d4ccf32	0.050002284
85	0xbd8f3a0d	-0.06993494
86	0x3d39a883	0.04532672
87	0xbdbbf413	-0.09177413
88	0x3dedc45f	0.116097204
89	0xbd8c00d3	-0.06836095
90	0x3c90dbaa	0.017682869
91	0x3e36e0a2	0.17859128
92	0x3e4a2116	0.19739184
93	0x3e000049	0.12500109
94	0xbdddbda6	-0.10827188
95	0x3dfeb0fa	0.12436099
96	0xbdbf461e	-0.09339546
97	0xbd1d4665	-0.03839721
98	0x3dacc637	0.08436244
99	0x3dd022a9	0.10162861
100	0x3d887516	0.06662957
101	0xbe00ade9	-0.12566341
102	0xbe2ee4c6	-0.17079458
103	0xbd751ceb	-0.05984203
104	0xbdf8f0c8	-0.121553004
105	0x3e33070c	0.17483157
106	0x3d68e08c	0.05685477
107	0x3d6f7d08	0.05846885
108	0xbe34ae21	-0.1764455
109	0x3e039704	0.12850577
110	0xbe285f08	-0.16442502
111	0xbd30ec2d	-0.043193985
112	0x3c8c45ee	0.017123189
113	0xbdc02f8a	-0.09384067
114	0x3dcc8799	0.09986801
115	0x3e10b894	0.14132911
116	0xba911dfa	-0.0011071556
117	0xbd7c389d	-0.061577428
118	0x3db69173	0.08914461
119	0xbdef7083	-0.11691382
120	0x3e047cf9	0.12938298
121	0xbe1379ae	-0.14401886
122	0x3dda8eaf	0.10671746
123	0xbd355c58	-0.04427752
124	0x3dd9c06b	0.10632404
125	0x3e22049b	0.1582207
126	0xbdd3dca3	-0.103448175
127	0xbd810273	-0.06299295
128	0x3cd75228	0.026284292
129	0x3e305482	0.17219737
130	0xbe1ae4ca	-0.15126339
131	0xbe150da6	-0.14555988
132	0xbd8845fd	-0.06653974
133	0x3d9af0f9	0.07565493
134	0xbdcdb0bf	-0.10043477
135	0xbdca0e07	-0.09865957
136	0xbdd310a3	-0.103059076
137	0xbe326412	-0.17420986
138	0x3d892007	0.06695562
139	0x3e487c94	0.19578773
140	0x3cd622d7	0.02613966
141	0xbd74635f	-0.05966508
142	0xbe206284	-0.1566258
143	0xbe423954	-0.18967181
144	0x3e66a0ab	0.22522227
145	0x3c8d8cce	0.017279055
146	0x3e336187	0.17517672
147	0xbcbf20f9	-0.023331152
148	0xbd390f88	-0.045180827
149	0x3e5049fc	0.20340723
150	0x3db3330e	0.08749972
151	0x3e13632b	0.14393298
152	0x3d9f65a7	0.077830605
153	0xbd786f59	-0.060653064
154	0x3e4ee672	0.20205095
155	0x3e257e10	0.1616137
156	0xbd8c0d0d	-0.06838427
157	0xbde3f1c7	-0.111301
158	0x3d879da6	0.06621866
159	0x3b9ff406	0.004881385
160	0xbcb1c31e	-0.021699484
161	0xbdb08a96	-0.08620183
162	0x3e05cbe4	0.1306606
163	0xbc4a51b7	-0.012348584
164	0xbd2edb33	-0.042689513
165	0x3e1d0294	0.15333015
166	0x3e09ae30	0.13445354
167	0x3df298c9	0.11845548
168	0x3ba8976b	0.0051450036
169	0xbe202302	-0.15638354
170	0x3db83653	0.089947365
171	0x3df940c0	0.12170553
172	0x3d2b48ab	0.04181735
173	0x3d43b010	0.04777533
174	0x3e2ef476	0.17085442
175	0xbe6097fe	-0.2193298
176	0xbdcb062a	-0.09913285
177	0x3d6203d5	0.055179436
178	0xbdc599f4	-0.09648505
179	0xbcfbd72c	-0.03074225
180	0x3e7cd7b0	0.24691653
181	0xbddaebe7	-0.10689526
182	0x3da01e1b	0.07818242
183	0x3e09406a	0.13403478
184	0xbd7c3454	-0.06157334
185	0xbd437899	-0.047722433
186	0x38ad7b37	8.2722334e-05
187	0xbd9d218c	-0.07672414
188	0xbc748a80	-0.014925599
189	0xbe0642ce	-0.13111421
190	0xbcc1d9e7	-0.023663474
191	0x3dc13870	0.09434593
192	0xbe06f498	-0.13179243
193	0x3df04fe1	0.11733986
194	0xbe0e3cdd	-0.13890405
195	0x3dcffa20	0.101551294
196	0xbde33729	-0.11094505
197	0xbdf000dc	-0.11718914
198	0x3d0b9593	0.034078192
199	0xbcd73dab	-0.026274523
200	0x3e06910e	0.13141271
201	0x3cf27f77	0.029601796
202	0xbdb5d2f1	-0.088781245
203	0x3ccd12f3	0.02503345
204	0xbe2125fb	-0.15737145
205	0xbe22612b	-0.15857379
206	0x3d3116b5	0.043234546
207	0xbdf41a21	-0.11919046
208	0x3d8a23ba	0.067450956
209	0xbd564551	-0.0523122
210	0x38c654e4	9.457188e-05
211	0xbdb755ac	-0.089518875
212	0xbdbfc5af	-0.09363877
213	0x3d843266	0.06454925
214	0xbdc21662	-0.094769254
215	0x3e1d119a	0.15338746
216	0x3d709f0e	0.058745436
217	0xbe32c490	-0.17457795
218	0x3c179f95	0.009254356
219	0xbc4a70ce	-0.012355996
220	0xba43e872	-0.0007473297
221	0xbd927a2e	-0.0715221
222	0x3d8ba2c4	0.068181545
223	0xbd7b17f6	-0.061302148
224	0x3e1daa13	0.1539691
225	0x3dcc0028	0.09960967
226	0xbe3bd09d	-0.18341298
227	0x3d911a4f	0.07085096
228	0xbd824a1b	-0.06361791
229	0xbc7f4633	-0.015580702
230	0x3dc97873	0.09837427
231	0xbd24fcd5	-0.040280182
232	0xbd757cb2	-0.05993337
233	0xbccc5970	-0.02494499
234	0x3e3b55b6	0.18294415
235	0xbe0b88ac	-0.13626355
236	0x3e1c88e9	0.15286602
237	0x3dbfc6b6	0.09364073
238	0x3de0db4d	0.10979328
239	0x3aab4c60	0.0013069026
240	0xbda2da4f	-0.07951795
241	0x3e07b5b3	0.13252907
242	0x3deb3559	0.11484785
243	0xbdb47fd5	-0.088134445
244	0xbc8c8fea	-0.017158467
245	0x3dadbaa7	0.08482867
246	0x3dba8b4c	0.091086
247	0x3e011378	0.12605083
248	0x3e20600d	0.1566164
249	0xbe158c4d	-0.14604302
250	0x39c67174	0.00037850032
251	0x3e0f643e	0.14003083
252	0xbd1c7089	-0.03819326
253	0xbccb22f9	-0.02479695
254	0xbddc71ea	-0.10763915
255	0x3cd2c877	0.025730355

bias f4 [32]
0	0x3e0b2dc9	0.13591684
1	0x3c9ac830	0.018894285
2	0x3dca9a0e	0.09892665
3	0xbd07df00	-0.033171654
4	0x3e664a26	0.22489223
5	0x3dd41530	0.10355604
6	0x3dbe5edd	0.092954375
7	0xbd29253c	-0.041295275
8	0x3dbba5f7	0.09162515
9	0xbe30b826	-0.17257747
10	0x3bfde34f	0.0077480446
11	0x3e4a1966	0.19736251
12	0xbe12dbeb	-0.14341705
13	0x3ca3f276	0.020013075
14	0xbd9101a8	-0.07080394
15	0xbdc74794	-0.09730449
16	0xbdcdad94	-0.10042873
17	0xbdf1b750	-0.11802542
18	0xbe196369	-0.14979328
19	0xbd46a4c7	-0.048496988
20	0xbde8c508	-0.11365706
21	0x3d5d7215	0.054063875
22	0xbdb36c4f	-0.087608926
23	0x3d996fbb	0.07492014
24	0x3e04fd97	0.12987362
25	0xbe29324d	-0.16523094
26	0x3e61b1b8	0.2204045
27	0xbe415435	-0.18879779
28	0xbaae369a	-0.0013291419
29	0xbcf21595	-0.029551307
30	0x3cfdb09c	0.030968003
31	0x3d08c24f	0.033388432

weight f4 [32, 32]
0	0x3e5f8c52	0.21830872
1	0x3d7d6178	0.06186053
2	0x3e1d474e	0.15359232
3	0x3d946191	0.07245172
4	0x3e1c066c	0.15236825
5	0x3dc1a9ef	0.094562404
6	0xbd6b801f	-0.057495233
7	0x3e0d317c	0.13788408
8	0xbd58e137	-0.052949157
9	0xbcb20aec	-0.021733724
10	0xbcc5b227	-0.024132801
11	0x3e3d7bca	0.18504253
12	0xbddb7d50	-0.10717261
13	0x3d472244	0.048616663
14	0x3e1a400a	0.15063491
15	0x3dcc156f	0.09965026
16	0x3e03b104	0.12860495
17	0xbe15b2d3	-0.14618997
18	0x3dcd9d45	0.100397624
19	0xbd0cb2e4	-0.03435029
20	0x3d79de3b	0.06100295
21	0x3cf4e43e	0.02989399
22	0xba215a59	-0.00061551254
23	0xbcb7ef55	-0.02245299
24	0xbdb0e625	-0.086376466
25	0x3e0162a8	0.1263529
26	0x3e17480e	0.1477358
27	0xbcebf71f	-0.02880436
28	0x3e68cfcb	0.22735517
29	0x3e2361f0	0.15955329
30	0xbdf4abcd	-0.11946831
31	0x3dbddc73	0.09270563
32	0xbc871466	-0.016489219
33	0xbdc1d779	-0.09464926
34	0xbe26598c	-0.16245097
35	0x3d90d377	0.07071584
36	0xbd30e1e2	-0.04318417
37	0x3e1a01d9	0.15039767
38	0x3e170c5b	0.14750807
39	0x3d93135c	0.07181427
40	0xbdc80dfb	-0.097682916
41	0x3e328e3a	0.17437068
42	0xbd0c3d12	-0.03423793
43	0x3e28deab	0.16491191
44	0xbc9718bb	-0.01844441
45	0x3d13fbb3	0.03612871
46	0xbe27c224	-0.16382653
47	0x3cc46b34	0.0239769
48	0xbdb56148	-0.088564456
49	0xbdfb97a6	-0.12284784
50	0xbdb98443	-0.0905843
51	0xbdd52056	-0.10406558
52	0x3e1f658f	0.15566085
53	0xbdfa1669	-0.12211306
54	0x3e2a94ed	0.16658373
55	0xbdd4496c	-0.103655666
56	0xbd6c9eda	-0.05776868
57	0x3c6627c3	0.014047566
58	0x3da5c00f	0.08093273
59	0xbe1a3243	-0.15058236
60	0xbe148de8	-0.14507258
61	0x3e1acfe7	0.15118371
62	0x3cca9466	0.024728965
63	0x3db050f6	0.08609192
64	0xbd3e53b3	-0.04646654
65	0xbd2e500d	-0.04255681
66	0x3de40ea0	0.11135602
67	0x3d3881b2	0.045045562
68	0x3db9be99	0.09069557
69	0x3e2340d7	0.15942703
70	0x3c97522e	0.018471804
71	0xbdab77f3	-0.08372488
72	0xbe0dee72	-0.13860491
73	0xbd75895a	-0.05994544
74	0xbdca57a6	-0.09879999
75	0x3c9d7883	0.019222504
76	0xbc337706	-0.01095367
77	0xbe33c9cd	-0.1755745
78	0x3de6dbbe	0.11272381
79	0x3e21ddce	0.15807268
80	0x3d597e02	0.053098686
81	0xbd70af51	-0.058760945
82	0x3df3d1ce	0.119052514
83	0xbe162338	-0.14661872
84	0xbb039dfe	-0.0020083184
85	0xbe12c3f8	-0.14332569
86	0x3d652178	0.05594012
87	0x3c5ff5fc	0.013669487
88	0xbda006ce	-0.07813798
89	0x3d9a7be5	0.07543162
90	0xbdb3d178	-0.08780187
91	0xbc2997a6	-0.010351097
92	0x3c89d4d9	0.016825126
93	0x3cc926a7	0.024554564
94	0xbddf7797	-0.10911482
95	0xbe00a587	-0.12563144
96	0xbdbe4d0b	-0.092920385
97	0x3c7b1f24	0.015327249
98	0x3b4a425a	0.0030862303
99	0x3dea04a6	0.11426668
100	0xbe0fc7d4	-0.14041072
101	0x3dde37cd	0.10850487
102	0x3e17c54f	0.14821361
103	0xbe0569eb	-0.13028686
104	0x3da5723d	0.0807843
105	0xbe013bff	-0.12620543
106	0x3cc480fd	0.023987288
107	0xbe1376af	-0.14400743
108	0xbb8cfc25	-0.004302519
109	0xbe0a5360	-0.13508368
110	0xbdf1e7ed	-0.118118145
111	0x3e041a6b	0.12900703
112	0x3d663055	0.056198437
113	0xbdda8e63	-0.10671689
114	0x3e266869	0.16250767
115	0x3cfc6fa3	0.030814951
116	0xbdfef2f6	-0.12448685
117	0x3e05f5d9	0.13082065
118	0x3c21dbd7	0.009879074
119	0x3b14b296	0.0022689453
120	0x3ddff0b4	0.10934582
121	0x3d23f7e4	0.04003133
122	0x3e1af067	0.15130769
123	0x3dcbfc8b	0.09960278
124	0x3c9e57f5	0.01932905
125	0xbe3798bf	-0.17929362
126	0xbe1d178f	-0.15341018
127	0x3d511fc9	0.051055703
128	0xbcbdddf7	-0.02317713
129	0x3e14c876	0.14529595
130	0x3dca4cae	0.09877907
131	0xbe0ad289	-0.13556875
132	0xbd63696b	-0.055520456
133	0x3e78aa2c	0.24283665
134	0xbd330b01	-0.043711666
135	0xbd135f20	-0.03597939
136	0x3e4af374	0.19819432
137	0xbdcdb906	-0.10045056
138	0xbe316104	-0.17322165
139	0x3e48664c	0.19570273
140	0xbde1c022	-0.110229746
141	0xbd196c4a	-0.037456788
142	0xbb1fa1d2	-0.0024357927
143	0xbd18c81c	-0.037300214
144	0x3d407c70	0.046993673
145	0x3d9bf471	0.07614983
146	0xbd888b05	-0.06667141
147	0xbd92030e	-0.07129489
148	0x3e240088	0.16015828
149	0x3d8a21e7	0.067447476
150	0xbd943e22	-0.072384134
151	0x3d5cac81	0.05387545
152	0x3e5af3fe	0.21382138
153	0xbe30e84f	-0.17276119
154	0x3d909010	0.07058728
155	0x3d890b72	0.06691636
156	0x3dc10f0a	0.094266966
157	0xbbc2d3c4	-0.0059456546
158	0xbe0b18e5	-0.13583715
159	0x3cac9dad	0.02107128
160	0x3def6ebc	0.11691043
161	0x3d503c07	0.050838497
162	0xbccf3d66	-0.025297832
163	0x3dbd5ce6	0.092462346
164	0x3e3c6355	0.18397267
165	0x3e393581	0.18086816
166	0x3c14832f	0.00906448
167	0x3e26c6f0	0.16286826
168	0x3dadfc00	0.08495331
169	0xba7a67e8	-0.00095522264
170	0xbe0817fc	-0.132904
171	0x3d8df7a9	0.06932003
172	0xbe1071ca	-0.14105907
173	0x3df869e3	0.12129571
174	0xbceeab5f	-0.02913445
175	0xbc31427d	-0.010819075
176	0xbe184f7a	-0.14874068
177	0x3ce3e7bc	0.02782046
178	0x3e0d6628	0.13808501
179	0x3da5ec9c	0.0810177
180	0xbdcd8647	-0.10035377
181	0x3d59da93	0.053186964
182	0xbc3624d4	-0.011117179
183	0x3cd201bc	0.025635593
184	0xbb871a61	-0.0041230177
185	0x3dfaa8e4	0.122392446
186	0x3e18bc30	0.14915538
187	0xbc6e88bf	-0.01455897
188	0x3d151fbd	0.03640722
189	0x3e0eae52	0.13933685
190	0x3d16d376	0.03682276
191	0x3a808199	0.0009804248
192	0x3e1bc8c4	0.15213305
193	0x3e012193	0.12610464
194	0x3e37e500	0.1795845
195	0x3d8444b1	0.06458414
196	0x3e089ba8	0.13340628
197	0x3e4180c5	0.18896778
198	0x3c874d0d	0.016516233
199	0x3dc18ae5	0.0945032
200	0x3e03b300	0.12861252
201	0xbc04fb9c	-0.008116629
202	0x3e1ac579	0.15114392
203	0x3e18d14b	0.14923589
204	0x3c293fb4	0.010330129
205	0x3e07860d	0.1323473
206	0x3d13c6b8	0.036078185
207	0x3e324896	0.17410502
208	0xbe055f41	-0.13024618
209	0xbdaff590	-0.08591759
210	0xbdc0579b	-0.093917094
211	0xbd1e0989	-0.038583312
212	0xbc6bba07	-0.014387614
213	0x3d7d5689	0.061850104
214	0x3de73476	0.11289303
215	0x3c68be93	0.014205593
216	0x3d7f864a	0.062383927
217	0xbad24755	-0.0016042987
218	0x3da2f0dd	0.07956097
219	0xbe014a66	-0.12626037
220	0xbddec59f	-0.10877537
221	0x3e4180fe	0.18896863
222	0xbdd08eb6	-0.1018347
223	0xbde61018	-0.112335384
224	0x3d9f325d	0.07773278
225	0xbd107f8a	-0.03527788
226	0xbdc33f44	-0.09533551
227	0x3d5ef088	0.054428607
228	0x3c02058c	0.007935893
229	0xbda33e41	-0.07970858
230	0xbd8da4cd	-0.06916199
231	0x3e0900d0	0.13379216
232	0xbda2fd22	-0.079584375
233	0xbd559546	-0.05214431
234	0x3d06bb8b	0.0328937
235	0xbdc24792	-0.09486307
236	0xbc89aae9	-0.01680513
237	0x3dcbd952	0.0995356
238	0xbdb5024c	-0.08838329
239	0xbcd57c54	-0.02606026
240	0xbe1406a3	-0.14455657
241	0x3dadf283	0.08493521
242	0x3e2a7211	0.16645075
243	0x3e154185	0.14575775
244	0xbd1d1c96	-0.03835734
245	0x3cfa9dc9	0.030592816
246	0xbd6a52f0	-0.057208
247	0x3dff5d07	0.124689154
248	0xbe13d202	-0.1443558
249	0x3dd7ecbc	0.105432004
250	0x3cb344f4	0.021883465
251	0x3e30df38	0.17272651
252	0xbe181f1c	-0.14855617
253	0x3d8f6f50	0.07003653
254	0xbdc1d003	-0.09463503
255	0xbd986484	-0.07441047

bias f4 [32]
0	0x3e29b56c	0.16573113
1	0xbb0f8f60	-0.0021905527
2	0xbd116099	-0.035492513
3	0xbd85f04f	-0.06539976
4	0x3dd8e90d	0.10591326
5	0x3e189c48	0.14903367
6	0x3c83268f	0.016009597
7	0xbc93b4d8	-0.018030569
8	0x3e10bf95	0.14135583
9	0xbdd22394	-0.10260692
10	0x3da721b9	0.08160729
11	0x3de4586c	0.11149678
12	0xbe283d45	-0.16429622
13	0xbe1ec058	-0.15503061
14	0xbdc34a73	-0.095356844
15	0xbe259593	-0.1617034
16	0x3e234ca5	0.15947206
17	0xbd4fdd3a	-0.050748087
18	0x3e240ce9	0.1602055
19	0x3b7e8250	0.0038834997
20	0xbdc5d834	-0.09660378
21	0x3c6826d2	0.014169412
22	0x3e1e5b6a	0.15464559
23	0xbe01def3	-0.12682705
24	0x3da704a4	0.08155182
25	0xbdee753c	-0.116434544
26	0xbd2ae4dd	-0.041722167
27	0x3e193b02	0.14963916
28	0xbde8ec53	-0.113732
29	0x3e4371d0	0.19086385
30	0xbde4353a	-0.11142965
31	0xbd1b4219	-0.037904833

weight f4 [1, 32]
0	0x3c737333	0.014859009
1	0x3c55bf9b	0.013046171
2	0x3c300309	0.010742911
3	0x3c914540	0.017733216
4	0xbc95246c	-0.018205844
5	0xbcd264ae	-0.025682773
6	0xbd1fb4f4	-0.03899093
7	0xbbd7b121	-0.0065823947
8	0xbcb535dc	-0.022120409
9	0xbd0dd16d	-0.034623552
10	0xbd3c9bc9	-0.046047006
11	0xbc741563	-0.014897677
12	0xbc34afdf	-0.011028259
13	0xbcb35894	-0.021892823
14	0x3cbc1ca6	0.02296288
15	0xbb96d014	-0.0046024416
16	0xbc505e44	-0.012717787
17	0xbcde4695	-0.027133266
18	0xbc4d2b94	-0.012522597
19	0xbceac63d	-0.02865898
20	0x3caa3d44	0.020781167
21	0x39932e0f	0.0002807234
22	0xbc031435	-0.008000423
23	0x3d079812	0.03310401
24	0xbd56dc5b	-0.05245624
25	0xbbbe4172	-0.0058061415
26	0x3c4fae8d	0.0126758935
27	0xbcc74fec	-0.024330102
28	0x3d047c91	0.03234536
29	0xbc3d4ed1	-0.011554436
30	0x3ce1d110	0.02756551
31	0xbc985903	-0.018597132

weight f4 [1, 32]
0	0xbddeeeed	-0.10885415
1	0x3c5c5b10	0.013449445
2	0xbbb4efbb	-0.005521742
3	0x3d475b68	0.048671156
4	0xbe14d038	-0.14532554
5	0xbe0c6b1c	-0.13712734
6	0xbde182d5	-0.11011282
7	0xbbde4819	-0.006783497
8	0xbdc010c1	-0.093781956
9	0x3caf6b9e	0.02141362
10	0xbdc5a1b0	-0.0964998
11	0xbe02c1a4	-0.1276918
12	0x3c657dec	0.014007073
13	0xbcb8d18b	-0.022560855
14	0xbe0c90e5	-0.13727148
15	0x3c26777a	0.010160321
16	0xbdfa8d9c	-0.12234041
17	0xbdcc58fa	-0.099779084
18	0xbe0f3218	-0.13983953
19	0xbdd9bb3c	-0.10631415
20	0xbcd9e23f	-0.02659714
21	0xbbb79741	-0.0056027477
22	0xbde3efca	-0.111297205
23	0xbdcbce79	-0.09951491
24	0xbdaf8081	-0.08569432
25	0xbc801422	-0.0156346
26	0x3cab3e15	0.020903626
27	0xbde15c73	-0.110039614
28	0xbbb12bc4	-0.0054068286
29	0xbe028e18	-0.12749517
30	0xbcea018d	-0.028565193
31	0x3c8c9d6d	0.01716491
