models/patient25/srpo_model_for_patient_25_Critic.pth (torch, 22754 bytes, 11 tensors)

weight_ih_l0 f4 [64, 2]
-0.07978567 0.1275035 -0.6512451 -0.07527872 -0.17779668 -0.077543065 -0.62273055 0.16065742
0.21100602 -0.36314276 -0.03322725 -0.22279768 -0.121160805 -0.15178348 0.3137561 -0.261821
-0.4132363 -0.07514186 0.037129726 -0.002714382 0.20722933 -0.31082353 -0.03242061 -0.4119993
-0.020183414 -0.056226242 0.17221831 -0.38967708 -0.1298863 -0.05084368 0.19024093 -0.21621424
0.11528489 -0.26717716 -0.5411825 0.1226198 -0.19690807 -0.15903859 -0.39474818 -0.3005065
-0.0007977653 -0.1993359 -0.09464821 -0.15019383 -0.10391808 -0.1538475 0.21834385 -0.20897366
-0.5880203 -0.10573687 -0.09969054 -0.29615203 0.1770663 -0.3556968 -0.1257727 -0.40286884
-0.35754266 -0.29968727 0.07968445 -0.24698256 -0.053268407 -0.21771985 0.038878 -0.090880156
-0.027925465 -0.22671382 -0.077299945 -0.048822444 0.18549202 0.12726812 -0.017824907 0.07760606
0.3946724 -0.15815727 -0.18934171 -0.23510028 -0.19030921 -0.31443653 -0.29092836 -0.109090075
0.3130399 0.09350387 -0.2895595 0.06570456 -0.5086885 -0.010439164 0.06439801 0.22773246
0.15181549 0.122285224 0.019538043 0.20113513 -0.30995733 0.12402905 0.23626333 0.12478143
-0.16078453 -0.40861592 -0.66857576 -0.19145474 0.06403551 -0.07153417 -0.7262313 -0.19052118
-0.34355107 -0.34682524 -0.3719125 0.0077855997 -0.2629726 -0.1993532 0.031613454 -0.37222216
-0.38867047 0.04229818 -0.26438466 0.043362338 0.0020516997 -0.023786936 -0.03811379 -0.19130616
-0.04719668 -0.33925933 -0.32744652 -0.33387083 -0.29016045 -0.1480715 0.12879527 -0.24667315
00000000: ab66 a3bd 4790 023e 00b8 26bf bb2b 9abd
00000010: 5510 36be e6ce 9ebd 456b 1fbf 6183 243e
00000020: f611 583e d9ed b9be 4c19 08bd 1325 64be
00000030: 2823 f8bd 216d 1bbe a4a4 a03e 670d 86be
00000040: b593 d3be fae3 99bd 5715 183d c6e3 31bb
00000050: ed33 543e 4324 9fbe 79cb 04bd 92f1 d2be
00000060: b057 a5bc 7d4d 66bd ff59 303e c183 c7be
00000070: ea00 05be 7641 50bd 85ce 423e 4467 5dbe
00000080: 7c1a ec3d 72cb 88be f08a 0abf 1720 fb3d
00000090: 45a2 49be 03db 22be 6f1c cabe fddb 99be
000000a0: 1f21 51ba b61e 4cbe ecd6 c1bd 69cc 19be
000000b0: 01d3 d4bd 338a 1dbe 8895 5f3e 31fd 55be
000000c0: 8088 16bf 928c d8bd 8e2a ccbd 3da1 97be
000000d0: de50 353e e41d b6be 8fca 00be d344 cebe
000000e0: d50f b7be 9c70 99be 9a31 a33d ffe8 7cbe
000000f0: f92f 5abd f4f1 5ebe 8a3e 1f3d 601f babd
00000100: f2c3 e4bc ab27 68be 6f4f 9ebd 0bfa 47bd
00000110: 9ff1 3d3e 9352 023e 8a05 92bc edef 9e3d
00000120: 8012 ca3e fbf3 21be cbe2 41be 21be 70be
00000130: 6be0 42be d3fd a0be 90f4 94be 9e6a dfbd
00000140: c446 a03e f57e bf3d 2541 94be 1d90 863d
00000150: 6939 02bf 0709 2bbc 1be3 833d b332 693e
00000160: 8575 1b3e ad70 fa3d 3f0e a03c 5ef6 4d3e
00000170: bab2 9ebe f102 fe3d 04ef 713e 688d ff3d
00000180: b3a4 24be 1b36 d1be c827 2bbf b60c 44be
00000190: 0d25 833d 8280 92bd 4bea 39bf fc17 43be
000001a0: ede5 afbe 1493 b1be 516b bebe 581e ff3b
000001b0: 58a4 86be 3f23 4cbe 1c7d 013d e793 bebe
000001c0: d1ff c6be db40 2d3d 6d5d 87be b59c 313d
000001d0: cf75 063b d2dc c2bc 351d 1cbd c3e5 43be
000001e0: 4e51 41bd 66b3 adbe 12a7 a7be 1ef1 aabe
000001f0: e98f 94be 0ea0 17be e8e2 033e e397 7cbe

weight_hh_l0 f4 [64, 16]
-0.10337406 0.08452495 -0.09027891 -0.17169353 -0.004268196 0.063747555 -0.06150781 0.056606725
-0.22691217 0.22333457 -0.255636 0.021955648 -0.14059635 -0.24314512 0.066743284 0.21711345
-0.25064206 -0.1566712 0.12767655 -0.21058483 0.053312615 0.0103067355 0.1594761 -0.129549
-0.33912247 -0.21764445 0.20276381 -0.18539655 -0.020531278 0.19487438 0.033365812 0.16060974
0.17833912 0.0059696143 -0.35732242 -0.057228252 -0.19797012 -0.027004208 0.18115526 -0.005934662
-0.0891626 -0.28506672 0.07182968 -0.110455245 -0.32498565 0.07722621 -0.14707284 0.13368134
-0.01658366 0.13231125 -0.08847253 0.13858902 -0.029930959 -0.043865178 0.23744293 -0.19860552
-0.4091291 0.15577328 0.13505878 -0.002597957 -0.18286756 -0.20530279 -0.047787733 -0.17441252
-0.06178737 0.25700986 -0.29119018 0.061582603 -0.09779021 -0.24350783 0.00810865 0.08425043
-0.17809162 -0.03937116 0.13297817 -0.39557818 -0.26905307 -0.12790325 -0.3037721 -0.03735956
0.06072815 0.069967024 -0.2569091 -0.3072918 0.2353438 0.14529192 -0.116823986 0.058745697
-0.012007315 -0.27441844 0.07818786 -0.23093472 0.06431085 -0.2014008 -0.20601036 -0.027449315
-0.06760208 0.2867597 -0.27408266 -0.07432845 -0.16284522 -0.17957118 -0.094498195 -0.21580255
-0.029842416 0.08956865 -0.033625145 0.080933176 -0.28704068 0.0476258 -0.14349668 -0.00029767482
0.31292635 -0.087821856 -0.26990563 0.17635871 -0.014965191 -0.18705505 0.10855567 -0.20423844
-0.20716333 -0.29225495 -0.013699542 -0.24181578 -0.046203446 -0.14192155 -0.28185174 0.22331952
-0.11684759 -0.043408215 -0.26843628 -0.14743829 0.0183867 0.054932788 -0.0037045663 -0.2246987
-0.089610115 -0.092992224 0.017979886 -0.23656853 0.19654311 0.021392427 -0.15478449 0.04153031
-0.07662164 0.17152354 -0.17778838 0.073345065 -0.037842706 -0.15719926 0.060780514 0.15000567
-0.027174667 -0.02044744 -0.24915679 -0.37994638 -0.36147836 -0.18692684 0.08988046 0.23655324
0.38440216 0.32208994 -0.0024250061 0.010972088 0.058307968 -0.16409975 0.18310462 0.10383426
-0.32429463 -0.15807997 -0.30613023 -0.1528722 -0.115739 -0.3377051 -0.22937444 -0.0062690354
0.18679455 0.15604031 -0.26355526 0.0049854484 0.07170807 -0.14457035 0.35239068 -0.20518324
0.10024101 -0.014395064 -0.015896713 -0.3051706 0.060272682 0.0023534147 -0.28120688 0.31808534
0.3227674 0.26177782 -0.09318362 -0.24522774 0.07268974 -0.2591953 -0.06397104 -0.08733791
-0.21276717 -0.26818264 0.2643012 -0.2739344 -0.2615432 -0.06341469 0.06083089 0.004476861
0.15714116 0.11138931 -0.34631574 -0.054065008 -0.15214911 0.010166899 0.2078154 -0.04822443
0.023782639 -0.1625704 -0.20810476 -0.36464337 -0.1358092 -0.35968035 -0.06446831 0.15502834
0.17639029 0.090227015 -0.006487129 -0.24063943 0.21747302 -0.13338284 0.30845237 -0.25326666
0.096937835 -0.13204996 0.2202769 -0.007037912 -0.20366229 -0.2912037 -0.1031221 0.28453287
-0.1942727 -0.0018164857 -0.26826403 0.27193835 0.1179433 -0.267193 0.20319062 0.05751305
-0.1301031 -0.12108966 -0.16414295 -0.27260792 0.053128034 -0.29278228 0.09288612 -0.056339312
00000000: c7b5 d3bd 6b1b ad3d 26e4 b8bd 6ed0 2fbe
00000010: 39dc 8bbb 148e 823d 9def 7bbd 74dc 673d
00000020: aa5b 68be d1b1 643e b9e2 82be 55dc b33c
00000030: 7df8 0fbe 09fb 78be b4b0 883d fd52 5e3e
00000040: 2854 80be 6a6e 20be a4bd 023e 8da3 57be
00000050: 545e 5a3d 95dd 283c b44d 233e 7ea8 04be
00000060: 76a1 adbe 30de 5ebe 51a1 4f3e 98d8 3dbe
00000070: 3631 a8bc 268d 473e 97aa 083d e176 243e
00000080: 889e 363e c19c c33b f7f2 b6be 2c68 6abd
00000090: aeb8 4abe ee37 ddbc c480 393e 8e77 c2bb
000000a0: e29a b6bd 44f4 91be 701b 933d 5c36 e2bd
000000b0: 8564 a6be c628 9e3d 439a 16be c3e3 083e
000000c0: 75da 87bc 9a7c 073e 1631 b5bd 48ea 0d3e
000000d0: c531 f5bc f9ab 33bd 3d24 733e 3f5f 4bbe
000000e0: 5f79 d1be 0883 1f3e d94c 0a3e 7c42 2abb
000000f0: a241 3bbe e53a 52be 12bd 43bd 3299 32be
00000100: c114 7dbd cc96 833e e116 95be 0a3e 7c3d
00000110: 3c46 c8bd 1e5a 79be 25da 043c 7d8b ac3d
00000120: a65d 36be a743 21bd 6e2b 083e 3989 cabe
00000130: 53c1 89be 12f9 02be 0488 9bbe 5706 19bd
00000140: 15be 783d df4a 8f3d 9789 83be 5a55 9dbe
00000150: f7fd 703e 68c7 143e 6a41 efbd 549f 703d
00000160: 54ba 44bc 9380 8cbe f520 a03d 277a 6cbe
00000170: 68b5 833d 033c 4ebe 61f4 52be 63dd e0bc
00000180: f672 8abd 2bd2 923e 9054 8cbe 8439 98bd
00000190: e6c0 26be 82e1 37be 4588 c1bd 58fb 5cbe
000001a0: 1578 f4bc c56f b73d 85ba 09bd 4bc0 a53d
000001b0: fff6 92be 4513 433d cbf0 12be 3d11 9cb9
000001c0: e237 a03e f2db b3bd 1231 8abe 6197 343e
000001d0: 8f30 75bc 5c8b 3fbe 6f52 de3d e223 51be
000001e0: a022 54be 71a2 95be 0b74 60bc 8e9e 77be
000001f0: d33f 3dbd e253 11be df4e 90be dfad 643e
00000200: ca4d efbd d0cc 31bd 7b70 89be 10fa 16be
00000210: b49f 963c 3401 613d 4fc8 72bb 6a17 66be
00000220: 8285 b7bd b572 bebd 8e4a 933c 053f 72be
00000230: 9942 493e 2c3f af3c d37f 1ebe b01b 2a3d
00000240: ceeb 9cbd dea3 2f3e 280e 36be f035 963d
00000250: f400 1bbd d8f8 20be fdf4 783d 169b 193e
00000260: 689d debc 6481 a7bc f522 7fbe 5588 c2be
00000270: b113 b9be c069 3fbe 3f13 b83d 033b 723e
00000280: 5cd0 c43e f9e8 a43e daec 1ebb 46c4 333c
00000290: 56d4 6e3d c409 28be c77f 3b3e 0ea7 d43d
000002a0: f209 a6be b7df 21be 1abd 9cbe 888a 1cbe
000002b0: 9208 edbd afe7 acbe 22e1 6abe 7b6c cdbb
000002c0: 1247 3f3e 08c9 1f3e b7f0 86be f95c a33b
000002d0: aedb 923d 400a 14be 8d6c b43e 8e1b 52be
000002e0: 294b cd3d 46d9 6bbc d339 82bc 523f 9cbe
000002f0: 7de0 763d bf3b 1a3b 59fa 8fbe 15dc a23e
00000300: c541 a53e be07 863e 0ed7 bebd fb1c 7bbe
00000310: 5cde 943d 3fb5 84be 4003 83bd 38de b2bd
00000320: a3df 59be 3c4f 89be 7d52 873e 2141 8cbe
00000330: fee8 85be 90df 81bd d029 793d a2b2 923b
00000340: 9de9 203e 1420 e43d 4c50 b1be 4573 5dbd
00000350: facc 1bbe 1193 263c 8fcd 543e fb86 45bd
00000360: cfd3 c23c db78 26be 6a19 55be 89b2 babe
00000370: 9111 0bbe 0628 b8be f607 84bd c0bf 1e3e
00000380: a89f 343e f1c8 b83d fb91 d4bb 2f6a 76be
00000390: 3fb1 5e3e 8395 08be 78ed 9d3e 2bac 81be
000003a0: 5887 c63d 1b38 07be 4590 613e 499e e6bb
000003b0: d98c 50be a718 95be ae31 d3bd 4bae 913e
000003c0: 6cef 46be 2517 eeba e759 89be 813b 8b3e
000003d0: 428c f13d 85cd 88be 3411 503e ce92 6b3d
000003e0: bf39 05be dbfd f7bd 1715 28be 4493 8bbe
000003f0: c89c 593d 8fe7 95be 143b be3d 0dc4 66bd

bias_ih_l0 f4 [64]
-0.07337685 -0.20438701 -0.09519366 -0.15920432 -0.042910095 -0.13430168 0.12666349 0.16482587
-0.119470105 -0.022713007 -0.03109388 0.37724796 0.022178717 0.12672429 0.03578696 0.27520883
0.27370182 0.1684922 0.23880719 -0.08147871 0.16587347 0.008504325 0.13808504 0.15988334
0.2989992 -0.012853674 0.05273233 0.13143301 -0.00048191985 0.016833793 0.32475105 0.04748196
0.33053544 -0.08724655 -0.10168055 -0.085641794 -0.045132402 -0.16227783 0.28538305 -0.2067297
-0.029873421 -0.085960574 -0.098050654 -0.1921105 0.041932985 -0.19156162 -0.25440913 0.14278083
0.12621318 0.15769494 0.32311118 0.19043611 0.2022864 -0.024013061 0.1710409 0.017798018
0.12018398 0.39957228 0.17984314 0.30075154 0.16070306 0.40295228 -0.036693 -0.03270153
00000000: 9a46 96bd d44a 51be e5f4 c2bd 7506 23be
00000010: 7fc2 2fbd 6186 09be 13b4 013e 1dc8 283e
00000020: beac f4bd a110 babc 98b8 febc a526 c13e
00000030: 24b0 b53c 03c4 013e 5995 123d 2ce8 8c3e
00000040: a522 8c3e 3889 2c3e df89 743e 4fde a6bd
00000050: bcda 293e b955 0b3c 2a66 0d3e 75b8 233e
00000060: 6c16 993e 3798 52bc dbfd 573d 6096 063e
00000070: 30aa fcb9 06e7 893c c545 a63e 727c 423d
00000080: f13b a93e 52ae b2bd e43d d0bd f764 afbd
00000090: c1dc 38bd 292c 26be ba1d 923e f3b0 53be
000000a0: 1bb9 f4bc 190c b0bd c8ce c8bd 9db8 44be
000000b0: ecc1 2b3d bb28 44be ea41 82be 2335 123e
000000c0: 073e 013e c87a 213e d46e a53e af01 433e
000000d0: 2b24 4f3e 0ab7 c4bc 5825 2f3e 26cd 913c
000000e0: 0523 f63d bd94 cc3e cd28 383e 1bfc 993e
000000f0: 588f 243e c34f ce3e 664b 16bd 0af2 05bd

bias_hh_l0 f4 [64]
0.35472605 0.03786984 0.32512793 -0.038574006 0.10634761 0.23108946 0.23830551 0.01239682
0.23076531 0.27510005 -0.06293845 0.35995296 -0.12833339 0.2563811 -0.024794782 -0.15883692
-0.07962266 0.18162349 0.1267054 0.030130181 0.067447945 0.17293012 0.26668978 0.055522118
-0.13237843 0.11854858 0.36990768 -0.07595496 0.2260067 0.042254124 -0.059670802 0.08793222
0.2549432 0.12127134 -0.20640078 -0.1979736 -0.0878217 -0.12577038 0.35540184 -0.037009273
-0.18824735 -0.020716483 0.17812899 -0.09255813 -0.28368255 -0.2572125 -0.06593927 0.14232425
0.1895465 0.10723443 0.41854608 0.16301359 0.011387011 0.14966093 0.34591156 0.2618519
-0.03750649 0.3612208 -0.027103405 0.48280987 -0.026437797 0.28490403 0.34846187 -0.046702046
00000000: a79e b53e 681d 1b3d 2b77 a63e c7ff 1dbd
00000010: c7cc d93d b7a2 6c3e 5c06 743e 081c 4b3c
00000020: be4d 6c3e ead9 8c3e e0e5 80bd c14b b83e
00000030: d469 03be 6244 833e 6d1e cbbc 25a6 22be
00000040: 3511 a3bd 82fb 393e 0fbf 013e 92d3 f63c
00000050: 2622 8a3d 9814 313e 908b 883e 296b 633d
00000060: 368e 07be 99c9 f23d 8a64 bd3e 468e 9bbd
00000070: 4d6e 673e a912 2d3d 5f69 74bd cf15 b43d
00000080: ea87 823e 1c5d f83d ba5a 53be 97b9 4abe
00000090: dddb b3bd f3c9 00be 3bf7 b53e 0997 17bd
000000a0: eac3 40be 9db5 a9bc 7267 363e 1e8f bdbd
000000b0: d73e 91be 5bb1 83be 2b0b 87bd 73bd 113e
000000c0: 7a18 423e ba9d db3d ac4b d63e 09ed 263e
000000d0: 9690 3a3c b740 193e 521b b13e 7411 863e
000000e0: 68a0 19bd eff1 b83e f607 debc db32 f73e
000000f0: 1494 d8bc f1de 913e 9869 b23e a54a 3fbd

weight f4 [32, 16]
0.12364487 0.21365863 -0.5333328 -0.3942114 -0.48077673 0.2857701 0.31349963 0.4724236
-0.15185197 0.26000988 0.5406117 -0.23512386 -0.23006803 -0.5039931 -0.11257425 -0.34397447
0.12075046 -0.024849802 0.07653245 0.15040973 0.1538218 -0.14910498 0.16446427 0.1543388
0.089016914 -0.009250969 -0.12266922 0.21793965 -0.020748794 0.18352044 0.040534854 -0.1040338
0.11882348 -0.07880952 0.10724671 0.29135466 0.04276969 0.18602432 0.14009517 -0.16415882
-0.19060527 0.08781549 -0.21690553 -0.006888439 0.041343194 0.14588901 0.13550574 -0.17844759
0.047424518 0.2002151 -0.3050102 -0.36717403 -0.40266597 0.557466 0.23167662 0.44202986
-0.2530995 0.24161954 0.52405983 -0.53873503 -0.26442316 -0.25734988 -0.13057579 -0.2151371
0.33809507 0.20894414 -0.34024024 -0.104339555 0.01874772 -0.025859125 0.33857143 -0.1243498
0.13097642 -0.1751226 -0.1663954 -0.042112865 0.04104337 -0.38442302 -0.29800624 0.035524383
-0.048423454 0.10832599 -0.20084327 0.03256418 -0.028975362 0.15147585 -0.007818359 -0.030101959
-0.28898013 0.22370355 -0.19621266 -0.42916563 -0.108879 -0.04428165 -0.092867054 0.09443662
-0.10475342 0.02167193 -0.2225058 0.1823746 0.35471776 -0.14872655 0.046180088 -0.34703735
-0.03514569 -0.19760545 -0.40534374 -0.1017136 -0.16638148 0.08078803 0.10238175 0.32868242
-0.26693532 -0.06188643 -0.15485904 0.095751055 -0.19934066 0.07689319 -0.17837323 0.014061662
0.015553187 -0.007090442 0.1332777 0.22028996 0.054801933 -0.0312912 0.20215014 -0.091405965
0.16809715 0.114641085 -0.23727389 0.25787935 0.17749974 -0.36266896 -0.1165091 -0.37394387
-0.08037225 -0.08701139 -0.075970724 0.14908557 0.12318492 -0.31296408 -0.34619907 0.10709021
-0.17024755 -0.27163967 -0.15836176 0.1506668 0.34687495 0.016916918 0.20482878 -0.14480762
-0.15822789 0.0029203913 -0.15520981 -0.19176698 -0.0041047875 0.012183257 -0.2151792 0.32937816
0.16448379 0.21492498 -0.16451806 -0.3475794 -0.1482909 0.09405392 0.30234906 -0.071879804
-0.03215412 0.2709795 -0.004083007 -0.117245354 -0.37187213 -0.0024498901 -0.06872477 0.05432862
-0.014149151 0.16841766 -0.106518835 0.18111724 0.04118245 -0.24300027 0.24962817 -0.06402883
0.056801204 -0.25098622 -0.29072312 -0.27706614 -0.07384156 0.088751785 -0.33174226 0.11621198
-0.14189854 -0.004970879 0.1769432 0.053700387 -0.13066813 -0.017008124 0.10444241 0.1465868
0.16732658 0.04504264 0.089553416 -0.19403249 -0.013505679 0.013282963 -0.07089346 0.23118931
0.27055618 -0.19178425 -0.21472752 0.11996644 0.2863098 -0.019791484 0.3378535 -0.0082986755
-0.26040393 0.1429834 -0.25359574 -0.23326097 -0.16539061 -0.09553167 -0.03612979 0.32293242
0.20302998 0.2923031 -0.45120972 -0.32413054 0.020440962 0.0697592 -0.02541211 0.14077629
-0.3144715 0.340021 0.48385933 -0.33706865 -0.405291 -0.12773873 -0.31706065 -0.2560817
-0.05689669 -0.18776791 -0.022031924 -0.18319705 -0.120519675 0.1400268 -0.090070635 -0.22093387
0.09727671 0.23230383 0.031924754 -0.15651391 -0.19473925 -0.10669293 -0.009955976 -0.022897001
00000000: 8639 fd3d 54c9 5a3e 8088 08bf 14d6 c9be
00000010: 5e28 f6be 7550 923e 0683 a03e 82e1 f13e
00000020: 157f 1bbe 0420 853e 8765 0a3f 4fc4 70be
00000030: f496 6bbe b105 01bf 548d e6bd 6c1d b0be
00000040: 044c f73d d091 cbbc 0cbd 9c3d 0205 1a3e
00000050: 7683 1d3e faae 18be 5269 283e fe0a 1e3e
00000060: 804e b63d 6091 17bc 003a fbbd 922b 5f3e
00000070: 60f9 a9bc c8ec 3b3e e007 263d ac0f d5bd
00000080: ba59 f33d e366 a1bd 2aa4 db3d 702c 953e
00000090: 452f 2f3d 297d 3e3e 1c75 0f3e 4019 28be
000000a0: 072e 43be 9cd8 b33d 7c1c 5ebe 6ab8 e1bb
000000b0: 7b57 293d ee63 153e 04c2 0a3e f7ba 36be
000000c0: 3640 423d 3005 4d3e 4c2a 9cbe 3cfe bbbe
000000d0: 3c2a cebe 17b6 0e3f a33c 6d3e bd51 e23e
000000e0: 4296 81be 1d6b 773e c928 063f 8aea 09bf
000000f0: 7962 87be 5dc3 83be a9b5 05be e64c 5cbe
00000100: cc1a ad3e 74f5 553e f833 aebe faaf d5bd
00000110: d294 993c 84d6 d3bc 3c59 ad3e 1cab febd
00000120: af1e 063e 5753 33be 8e63 2abe 8a7e 2cbd
00000130: 181d 283d 18d3 c4be 4694 98be 0482 113d
00000140: ac57 46bd 04da dd3d dca9 4dbe 0562 053d
00000150: bd5d edbc 7c1c 1b3e 9318 00bc 6298 f6bc
00000160: 34f5 93be 8b12 653e f9eb 48be 99bb dbbe
00000170: f4fb debd ad60 35bd 1531 bebd fd67 c13d
00000180: f688 d6bd 5589 b13c 8fd8 63be 68c0 3a3e
00000190: 919d b53e c64b 18be 5527 3d3d e1ae b1be
000001a0: edf4 0fbd 1559 4abe 3789 cfbe 384f d0bd
000001b0: e85f 2abe 3274 a53d 86ad d13d 1049 a83e
000001c0: bfab 88be a07c 7dbd 5e93 1ebe 2119 c43d
000001d0: f51f 4cbe 2d7a 9d3d 79a7 36be e362 663c
000001e0: cbd2 7e3c f056 e8bb f379 083e b193 613e
000001f0: fe77 603d 342b 00bd 7200 4f3e 0d33 bbbd
00000200: a921 2c3e f2c8 ea3d edf7 72be c308 843e
00000210: 7ec2 353e bfaf b9be 539c eebd 9275 bfbe
00000220: 359a a4bd 0733 b2bd 8a96 9bbd e3a9 183e
00000230: 6048 fc3d d43c a0be 0141 b1be 1d52 db3d
00000240: 6055 2ebe 5b14 8bbe 9629 22be 6648 1a3e
00000250: 9899 b13e 5995 8a3c a3be 513e 7348 14be
00000260: 7e06 22be 0964 3f3b 52ef 1ebe 905e 44be
00000270: 7481 86bb 499c 473c f057 5cbe 41a4 a83e
00000280: 706e 283e 4b15 5c3e 6c77 28be edf5 b1be
00000290: 92d9 17be 579f c03d 7fcd 9a3e b835 93bd
000002a0: 0ab4 03bd d3bd 8a3e bfca 85bb 551e f0bd
000002b0: 0666 bebe 568e 20bb 92bf 8cbd b087 5e3d
000002c0: d7d1 67bc ae75 2c3e 8c26 dabd cc76 393e
000002d0: eeae 283d 10d5 78be 879e 7f3e 8c21 83bd
000002e0: 61a8 683d 4481 80be a9d9 94be 9ddb 8dbe
000002f0: 3e3a 97bd 7fc3 b53d 1fda a9be 8c00 ee3d
00000300: da4d 11be c1e2 a2bb 9930 353e f0f4 5b3d
00000310: decd 05be 9f54 8bbc e7e5 d53d da1a 163e
00000320: a957 2b3e a27e 383d c867 b73d 74b0 46be
00000330: ec46 5dbc c9a0 593c 9730 91bd e4bc 6c3e
00000340: 5786 8a3e 1763 44be 88e1 5bbe f7b0 f53d
00000350: 3397 923e c021 a2bc 22fb ac3e 2bf7 07bc
00000360: aa53 85be 3e6a 123e 4dd7 81be f7db 6ebe
00000370: 285c 29be 1ca6 c3bd d5fc 13bd 6657 a53e
00000380: 17e7 4f3e c0a8 953e f604 e7be 70f4 a5be
00000390: ce73 a73c e9dd 8e3d 0f2d d0bc a927 103e
000003a0: 6902 a1be 3c17 ae3e 69bc f73e 4394 acbe
000003b0: 4d82 cfbe f1cd 02be c655 a2be 241d 83be
000003c0: 810c 69bd 3b46 40be 4b7c b4bc 0298 3bbe
000003d0: 05d3 f6bd 2f63 0f3e f476 b8bd 7d3c 62be
000003e0: 0339 c73d 0ee1 6d3e 88c3 023d 2f45 20be
000003f0: ba69 47be d381 dabd 641e 23bc 7e92 bbbc

bias f4 [32]
0.34028667 -0.13482216 -0.031048859 0.32870242 0.27827656 0.34267288 0.16323695 -0.0033312067
0.26872557 -0.033624288 0.098919116 0.18299924 -0.14924033 0.2579013 0.15601154 -0.039568022
-0.21876678 0.32231128 0.050980657 0.020659212 0.117996015 0.13429767 0.20515208 0.311187
-0.09365363 -0.1687331 0.32067552 0.16468954 0.26426587 0.008902096 0.46600994 0.24870706
00000000: 0e3a ae3e d20e 0abe 2d5a febc af4b a83e
00000010: 447a 8e3e d272 af3e 9627 273e 6050 5abb
00000020: 6696 893e 9fb9 09bd 1b96 ca3d 2764 3b3e
00000030: 75d2 18be a40b 843e 7dc1 1f3e 1412 22bd
00000040: 6604 60be fc05 a53e 18d1 503d 823d a93c
00000050: e5a7 f13d 5485 093e 6313 523e e753 9f3e
00000060: 79cd bfbd 5fc8 2cbe 952f a43e 60a4 283e
00000070: db4d 873e 19da 113c db98 ee3e 10ad 7e3e

weight f4 [32, 32]
0.05070365 0.07102334 -0.08744879 0.053620484 -0.10052643 -0.06728023 -0.0004277905 -0.1647864
0.045527764 -0.08594855 -0.12700196 0.10522148 0.057458207 0.12737314 -0.07506727 -0.035126384
-0.067513056 -0.117167264 0.050535187 -0.0052484204 0.07113859 0.03483932 -0.11831305 0.0049858247
-0.030453121 -0.11581585 0.084393226 -0.12688075 -0.13900807 -0.17434238 0.14626728 0.025104664
-0.16251603 -0.006320763 0.18194956 0.0070517748 0.09465034 -0.06762233 0.0024318453 0.07666254
0.25657344 0.13783126 -0.030166753 0.2634929 0.07500573 0.11561296 0.13157843 0.048448067
-0.0068828333 -0.040220063 -0.038392946 0.08424289 0.03496814 -0.10271966 0.3007636 -0.030432897
-0.04406797 0.14300452 0.33212683 -0.17990308 0.081428565 0.21201532 -0.030300075 0.23063883
0.1795998 0.14856817 -0.07253187 0.23507993 0.23051165 0.2376711 -0.02978175 0.08836729
0.16785525 0.20111032 0.38121763 0.07766336 -0.07559749 0.14788248 0.32878178 -0.008043061
-0.038322147 0.12789622 0.05566381 0.3865379 -0.17113985 0.024000766 -0.008373888 0.15652668
-0.092053056 0.16684316 0.32640636 0.39335915 0.096774615 0.2974028 0.25637385 0.30005684
-0.22445647 0.025217365 -0.02417449 -0.12289708 0.15036182 0.23054145 0.076334424 -0.18774569
0.20111457 0.099659294 0.0635275 0.17788938 0.15262064 0.24507016 0.044350974 0.15621543
0.0897912 -0.23407266 0.26744956 0.11520381 0.062260915 0.15536003 0.33421713 0.2500582
-0.066757165 -0.06326124 0.0041236826 0.095847465 0.069929786 0.08480442 -0.16680747 0.2684618
0.16897483 -0.11012293 -0.041056182 -0.023427157 0.0012367517 0.09009096 0.083359204 0.1533917
-0.06388708 -0.06799136 0.075137526 0.024667088 -0.06073544 0.12137318 0.027948944 -0.11844029
-0.13888794 -0.13268048 0.0128404405 0.1345753 -0.15054826 0.14334917 0.01276261 0.13585795
-0.06769751 -0.011883831 -0.10570178 -0.08082701 0.035189632 -0.17787248 -0.15987708 -0.109817795
-0.07228317 0.06743527 -0.003357406 -0.1812598 0.096019536 0.045787457 0.13487443 -0.13850108
0.14498787 0.043589164 -0.09046094 -0.023254707 0.027758125 0.14316091 -0.027635848 -0.204434
0.117200166 -0.26838976 0.12781948 0.07198565 0.18494697 -0.09833434 0.19532958 0.086732864
-0.008669776 0.15202847 0.06325668 0.018035447 0.053173862 0.04131103 -0.20935029 0.010162798
-0.0031421108 0.004176584 -0.15349579 -0.15624885 -0.08153173 -0.044125933 -0.073289596 0.046194926
0.11447316 -0.09635471 -0.09745616 0.022442894 0.04183313 -0.046442393 0.13240606 -0.08448628
0.037890647 -0.032003745 -0.09050827 -0.019762868 0.11282883 0.06966905 -0.14706352 0.1321286
-0.03155876 -0.13995151 0.019017017 0.04112344 -0.14496964 0.16399184 -0.13925727 0.02629755
0.1432319 0.1515668 -0.09458282 -0.15878685 -0.12343459 -0.030382134 -0.027160399 -0.083371036
0.022051103 -0.10135074 0.08280801 -0.15478587 0.024700645 0.0692069 0.18896037 -0.1551375
0.106424056 -0.086220585 0.11467702 0.15419023 -0.044771362 -0.08700233 -0.02507887 0.03670103
-0.08515983 -0.032102693 -0.101142325 0.010474557 -0.19880559 0.0965585 -0.19480148 0.1601816
00000000: a1ae 4f3d af74 913d 5a18 b3bd 27a1 5b3d
00000010: cde0 cdbd 38ca 89bd 1249 e0b9 c4bd 28be
00000020: 527b 3a3d cb05 b0bd cd0c 02be 5c7e d73d
00000030: 4c59 6b3d 1b6e 023e debc 99bd afe0 0fbd
00000040: 4944 8abd 64f5 efbd fcfd 4e3d f1fa abbb
00000050: 1cb1 913d adb3 0e3d 1d4e f2bd 2160 a33b
00000060: d378 f9bc dc30 edbd 5bd6 ac3d 07ed 01be
00000070: 2258 0ebe cf86 32be 17c7 153e 4ca8 cd3c
00000080: 9a6a 26be 671e cfbb fc50 3a3e 9312 e73b
00000090: 0ad8 c13d 937d 8abd 985f 1f3b 4001 9d3d
000000a0: 985d 833e a323 0d3e 4420 f7bc 8be8 863e
000000b0: 9b9c 993d 7dc6 ec3d 7fbc 063e 7b71 463d
000000c0: 6489 e1bb cbbd 24bd ec41 1dbd 8987 ac3d
000000d0: c13a 0f3d af5e d2bd b0fd 993e 694e f9bc
000000e0: 9e80 34bd c76f 123e 870c aa3e 8338 38be
000000f0: 05c4 a63d 8b1a 593e dd37 f8bc 962c 6c3e
00000100: 03e9 373e 4122 183e 978b 94bd cbb8 703e
00000110: 3f0b 6c3e 0e60 733e dbf8 f3bc e9f9 b43d
00000120: 3fe2 2b3e ddef 4d3e f52e c33e f80d 9f3d
00000130: dbd2 9abd 816e 173e 1656 a83e 0bc7 03bc
00000140: aff7 1cbd 3af7 023e bcff 633d 4ce8 c53e
00000150: 493f 2fbe 419d c43c a232 09bc 8848 203e
00000160: 5086 bcbd efd8 2a3e bc1e a73e 5f66 c93e
00000170: c531 c63d 2e45 983e 6f43 833e 0da1 993e
00000180: ebd7 65be a694 ce3c 9409 c6bc 77b1 fbbd
00000190: 73f8 193e 0f13 6c3e 3955 9c3d 6840 40be
000001a0: faf0 4d3e 2c1a cc3d b51a 823d a228 363e
000001b0: 9648 1c3e acf3 7a3e 5ea9 353d f0f6 1f3e
000001c0: 73e4 b73d beb0 6fbe 26ef 883e faef eb3d
000001d0: 4d05 7f3d b316 1f3e 821e ab3e a107 803e
000001e0: fbb7 88bd 1c8f 81bd f51f 873b ad4b c43d
000001f0: 5937 8f3d f1ad ad3d 94cf 2abe d373 893e
00000200: bd07 2d3e 2188 e1bd 872a 28bd 4fea bfbc
00000210: 801a a23a 9c81 b83d 3bb8 aa3d b712 1d3e
00000220: 3bd7 82bd 0e3f 8bbd b4e1 993d a212 ca3c
00000230: bac5 78bd 8092 f83d 2ff5 e43c d390 f2bd
00000240: a438 0ebe 64dd 07be b660 523c 1cce 093e
00000250: 5329 1abe 20ca 123e 441a 513c 591e 0b3e
00000260: fea4 8abd 66b4 42bc 2d7a d8bd a288 a5bd
00000270: 0123 103d 3424 36be d1b6 23be 27e8 e0bd
00000280: 3309 94bd 811b 8a3d ed07 5cbb 2b9c 39be
00000290: e4a5 c43d a18b 3b3d 861c 0a3e 3ad3 0dbe
000002a0: b377 143e 8d8a 323d 9643 b9bd a880 bebc
000002b0: 0265 e33c c698 123e 9364 e2bc 2657 51be
000002c0: a406 f03d 626a 89be 1ce3 023e 366d 933d
000002d0: bd62 3d3e 8463 c9bd 7a04 483e 00a1 b13d
000002e0: ad0b 0ebc 5aad 1b3e b88c 813d 13bf 933c
000002f0: d6cc 593d c135 293d ec5f 56be dd81 263c
00000300: dfeb 4dbb badb 883b 002e 1dbe b3ff 1fbe
00000310: 1cfa a6bd 65bd 34bd db18 96bd e436 3d3d
00000320: e770 ea3d 9e55 c5bd 1897 c7bd 29da b73c
00000330: 3759 2b3d 613a 3ebd 7495 073e 2507 adbd
00000340: 3933 1b3d 5c16 03bd 665c b9bd bde5 a1bc
00000350: cd12 e73d a6ae 8e3d d297 16be b84c 073e
00000360: c243 01bd 734f 0fbe 93c9 9b3c 0d71 283d
00000370: ec72 14be 7aed 273e 7599 0ebe f66d d73c
00000380: 62ab 123e 5434 1b3e a3b4 c1bd 0599 22be
00000390: 46cb fcbd f4e3 f8bc 7c7f debc 6fbe aabd
000003a0: 84a4 b43c fa90 cfbd 3f97 a93d 3080 1ebe
000003b0: 0259 ca3c 59bc 8d3d d47e 413e 5ddc 1ebe
000003c0: dbf4 d93d 6b94 b0bd c9db ea3d 0be4 1d3e
000003d0: 2d62 37bd 472e b2bd 3472 cdbc d253 163d
000003e0: 4768 aebd 1d7e 03bd b523 cfbd 7a9d 2b3c
000003f0: b193 4bbe 76c0 c53d 0a7a 47be a506 243e

bias f4 [32]
-0.1607777 0.05371268 0.032547235 0.21865271 -0.1858855 0.22275774 -0.12765883 -0.13124865
0.04469642 0.037409727 -0.10235003 0.24107996 -0.07413441 0.21139194 0.1681648 0.15745616
0.16021352 0.12463372 0.225977 -0.02305153 0.23928447 0.07963863 0.065046005 -0.023386043
0.15273146 0.024680262 -0.13777791 -0.14905868 -0.11101482 -0.026763797 -0.16374508 -0.032758553
00000000: e9a2 24be d401 5c3d 4050 053d 7fe6 5f3e
00000010: c558 3ebe 9b1a 643e ffb8 02be 0c66 06be
00000020: 9813 373d f13a 193d e49c d1bd aadd 763e
00000030: c8d3 97bd 2177 583e 6533 2c3e 303c 213e
00000040: 030f 243e f73f ff3d 8466 673e 90d6 bcbc
00000050: fd06 753e 9419 a33d d736 853d 1694 bfbc
00000060: a365 1c3e 432e ca3c a715 0dbe d7a2 18be
00000070: bd5b e3bd c03f dbbc caac 27be d52d 06bd

weight f4 [32, 32]
-0.12187326 0.2473672 0.052320767 -0.044958815 0.06522305 0.09186287 -0.14380446 -0.14743066
0.14318636 -0.010243567 0.16279137 0.040904563 0.17102696 0.21551634 -0.2261835 0.19408393
0.11064999 0.046031184 0.05221404 -0.046514466 0.13753988 0.28064597 0.23542693 0.034795996
-0.034442056 0.22422527 -0.010071268 -0.16344064 -0.13942392 -0.123711556 -0.0066582956 -0.122533046
-0.040471405 -0.026043408 -0.23418315 0.18250033 0.122969255 0.2587709 -0.08382188 -0.052423913
0.114802636 0.029611984 0.24670388 -0.17423567 0.10991542 0.030123612 -0.060996342 0.004287729
0.029905023 -0.0027530286 -0.05363574 0.2525309 0.26707497 0.25306574 -0.012958351 0.12018258
0.20187944 0.13939147 0.09598722 0.03269842 -0.029857755 -0.074891955 -0.087925024 0.106212944
0.069680266 0.16185623 0.09180923 -0.03958053 0.01869143 0.26486424 0.12529822 0.07402509
0.08744625 -0.071152665 0.09877227 -0.070489466 -0.08519226 0.12165477 -0.07520481 0.25487962
0.06851871 0.13090734 0.16985276 -0.0025277932 -0.0026203773 0.21398592 0.15674794 0.014601333
0.009970924 0.10284322 0.04679188 0.040046263 0.15829338 0.15941133 -0.011098803 0.13846932
0.13690053 0.12495033 -0.15771933 0.19204575 -0.10931092 0.0025701257 -0.08163977 -0.24587817
0.2326962 -0.15396364 0.20523623 -0.05400024 0.11738445 0.2151368 -0.08537019 0.2406915
0.059735667 0.15587667 0.21998456 0.13482931 -0.06642674 0.18301068 0.13877328 0.0622848
0.079866216 0.19388917 -0.10045567 0.09727364 -0.1087843 0.10888786 -0.15476969 0.145116
-0.13200678 -0.16848056 0.21516356 -0.035832547 0.017982606 -0.09340292 -0.12719665 -0.075154945
0.1281198 0.2935833 -0.1109716 0.36589316 -0.13079368 0.06664479 0.2908814 0.13659525
0.12485099 -0.047006104 0.06366548 -0.08910062 -0.10343423 0.08044429 0.21878588 -0.1683384
0.06268493 0.18138036 -0.08063284 0.1699888 -0.0831722 -0.13750632 -0.1615599 0.11072308
0.11732553 0.15273295 0.12491317 0.13475078 -0.13665174 0.1957999 -0.0793907 -0.19052432
0.1982455 -0.012953169 0.084834464 -0.06838607 -0.02962093 0.19076729 -0.13268991 0.2709437
0.22613522 -0.01619474 0.13254535 0.15464175 0.26057443 -0.05648218 0.20625702 -0.122436844
0.16980854 0.30016285 -0.00018134808 0.016786076 -0.1059364 -0.1198496 -0.11111477 -0.15553692
0.14010753 0.12116478 -0.21500547 0.007862326 0.17770141 0.050091222 -0.14095531 -0.13671342
0.11931142 0.025000457 0.10795549 -0.17277248 0.1388378 -0.09206008 0.053800955 0.14244837
0.07110792 -0.0833311 0.018887471 0.08457862 0.14038718 0.056112036 0.17945239 -0.030570457
-0.004827282 -0.020371621 0.16829775 -0.009045482 -0.17677659 0.170524 0.10357122 -0.047620606
0.059049714 0.10336618 0.40090704 -0.024149576 0.04018034 0.22387666 -0.16606857 -0.08820103
0.1542282 0.37675786 0.047700636 0.4230868 -0.09103791 0.19942468 0.19437863 0.18615648
-0.007509213 -0.11243826 -0.059686713 -0.061203074 0.029575568 0.092947304 0.076643735 0.124843135
0.014108898 -0.06506302 0.046464372 -0.07438754 -0.037987523 -0.17400467 0.107951246 0.1231082
00000000: b098 f9bd d44d 7d3e 4d4e 563d bc26 38bd
00000010: aa93 853d 9a22 bc3d 7a41 13be 10f8 16be
00000020: 729f 123e a2d4 27bc c8b2 263e 8b8b 273d
00000030: b121 2f3e 51b0 5c3e a69c 67be f0bd 463e
00000040: 769c e23d 328b 3c3d 64de 553d f485 3ebd
00000050: 41d7 0c3e d4b0 8f3e c213 713e 3f86 0e3d
00000060: 1d13 0dbd 4f9b 653e f601 25bc fc5c 27be
00000070: 25c5 0ebe 7c5c fdbd d52d dabb 9bf2 fabd
00000080: 58c5 25bd fc58 d5bc b5cd 6fbe 5ee1 3a3e
00000090: 4ed7 fb3d 9f7d 843e ceaa abbd 75ba 56bd
000000a0: a51d eb3d d594 f23c f19f 7c3e d66a 32be
000000b0: 561b e13d cbc5 f63c 4dd7 79bd 1480 8c3b
000000c0: 61fb f43c 286c 34bb 26b1 5bbd bb4b 813e
000000d0: 0dbe 883e d591 813e 434f 54bc 4922 f63d
000000e0: 7cb9 4e3e a3bc 0e3e f394 c43d c7ee 053d
000000f0: 4098 f4bc f460 99bd 0912 b4bd 2c86 d93d
00000100: 87b4 8e3d a4bd 253e 7a06 bc3d 321f 22bd
00000110: c51e 993c 499c 873e 2d4e 003e 779a 973d
00000120: 0517 b33d 7db8 91bd 1e49 ca3d c85c 90bd
00000130: 4879 aebd 2326 f93d fb04 9abd 957f 823e
00000140: 8a53 8c3d 930c 063e e2ed 2d3e 55a9 25bb
00000150: a3ba 2bbb 201f 5b3e 8882 203e 6e3a 6f3c
00000160: 165d 233c 779f d23d d8a8 3f3d 8d07 243d
00000170: a917 223e b93c 233e c1d7 35bc e7ca 0d3e
00000180: a72f 0c3e f5e5 ff3d 2d81 21be a4a7 443e
00000190: 67de dfbd 8e6f 283b c032 a7bd 7dc7 7bbe
000001a0: ea47 6e3e a5a8 1dbe 7229 523e 5b2f 5dbd
000001b0: 4267 f03d d24c 5c3e 91d6 aebd d577 763e
000001c0: 63ad 743d 229e 1f3e a243 613e b210 0a3e
000001d0: be0a 88bd 2767 3b3e 951a 0e3e 591e 7f3d
000001e0: e690 a33d e28a 463e b4bb cdbd 6737 c73d
000001f0: 4eca debd 9900 df3d f27b 1ebe 4a99 143e
00000200: c92c 07be 2b86 2cbe d653 5c3e 26c5 12bd
00000210: 4250 933c 084a bfbd d73f 02be d6ea 99bd
00000220: d631 033e 8d50 963e 1445 e3bd 5956 bb3e
00000230: c7ee 05be 107d 883d 68ee 943e a0df 0b3e
00000240: e0b1 ff3d 7989 40bd 0c63 823d 637a b6bd
00000250: 53d5 d3bd fabf a43d 6809 603e e760 2cbe
00000260: f560 803d c6bb 393e d522 a5bd 8b11 2e3e
00000270: 3056 aabd 75ce 0cbe f56f 25be c8c2 e23d
00000280: 5e48 f03d 0766 1c3e 7ad2 ff3d 1cfc 093e
00000290: 6fee 0bbe c57f 483e 9797 a2bd cf18 43be
000002a0: de00 4b3e 8739 54bc b1bd ad3d ff0d 8cbd
000002b0: 98a7 f2bc 8058 433e dddf 07be 22b9 8a3e
000002c0: fe8f 673e d5aa 84bc f8b9 073e 685a 1e3e
000002d0: 036a 853e dc59 67bd 0a35 533e 2bc0 fabd
000002e0: 4ae2 2d3e f2ae 993e 4128 3eb9 f482 893c
000002f0: 2ff5 d8bd b573 f5bd 2490 e3bd 1245 1fbe
00000300: 5978 0f3e 3d25 f83d 652a 5cbe fcd0 003c
00000310: 5cf7 353e 742c 4d3d 9756 10be 9afe 0bbe
00000320: 8c59 f43d c2cd cc3c c517 dd3d 45eb 30be
00000330: 7f2b 0e3e ff89 bcbd 645e 5c3d fcdd 113e
00000340: 07a1 913d 7fa9 aabd e6b9 9a3c 8e37 ad3d
00000350: a8c1 0f3e bcd5 653d 5ec2 373e e56e fabc
00000360: 2d2e 9ebb 63e2 a6bc 3f56 2c3e 8033 14bc
00000370: ec04 35be d89d 2e3e 261d d43d d30d 43bd
00000380: 1dde 713d a6b1 d33d b043 cd3e 55d5 c5bc
00000390: 2494 243d ec3f 653e e10d 2abe bea2 b4bd
000003a0: ffed 1d3e 68e6 c03e be61 433d d59e d83e
000003b0: 1572 babd fc35 4c3e 310b 473e ce9f 3e3e
000003c0: d80f f6bb 0846 e6bd 0e7a 74bd 13b0 7abd
000003d0: 7648 f23c 285b be3d 64f7 9c3d c2ad ff3d
000003e0: 0229 673c c33f 85bd 6d51 3e3d 7f58 98bd
000003f0: ce98 1bbd 482e 32be 8b15 dd3d 2720 fc3d

bias f4 [32]
0.07781934 0.053816214 0.12404194 -0.12463239 0.0113705965 0.028596714 -0.1004944 0.07020787
-0.105167605 0.13878676 -0.15081324 0.016494911 0.22674285 0.06737778 0.30501902 -0.104142375
0.1139612 -0.033471853 0.29754764 -0.008631674 0.011301109 0.1279314 0.02643919 0.31713346
-0.039534964 0.14790986 -0.072672606 0.13626522 0.03459392 -0.17421006 0.14579497 0.06832976
00000000: bf5f 9f3d 646e 5c3d b309 fe3d 443f ffbd
00000010: bd4b 3a3c a843 ea3c 02d0 cdbd 25c9 8f3d
00000020: 1d62 d7bd 1e1e 0e3e c96e 1abe 5620 873c
00000030: 472f 683e 5dfd 893d 742b 9c3e 9948 d5bd
00000040: 7d64 e93d c819 09bd 2a58 983e dd6b 0dbc
00000050: 4928 393c 7300 033e 0097 d83c 515f a23e
00000060: 6aef 21bd af75 173e 60d5 94bd 1c89 0b3e
00000070: 5bb2 0d3d 1f64 32be 474b 153e 79f0 8b3d

weight f4 [1, 32]
-0.09314568 -0.13083358 -0.09786452 -0.09625601 0.25715974 -0.11160675 -0.07409464 0.26904252
0.004996382 -0.083164066 -0.059410885 -0.08695041 0.22368474 0.2526797 0.27858174 -0.11924833
-0.10171557 -0.06837774 0.27411878 0.0145346 -0.01176401 0.2689943 -0.097303756 0.25514543
0.016309123 -0.08458436 -0.026856897 -0.07765256 -0.09537707 -0.014950143 0.31904685 -0.12767495
00000000: 2ac3 bebd 3df9 05be 326d c8bd df21 c5bd
00000010: 71aa 833e 1492 e4bd eebe 97bd f1bf 893e
00000020: b1b8 a33b ec51 aabd d458 73bd 0e13 b2bd
00000030: 9d0d 653e 3c5f 813e 44a2 8e3e 7838 f4bd
00000040: 4150 d0bd a109 8cbd 4c59 8c3e 8822 6e3c
00000050: d6bd 40bc 9fb9 893e 3147 c7bd 6ca2 823e
00000060: b69a 853c 913a adbd ff02 dcbc 4e08 9fbd
00000070: 0e55 c3bd 72f1 74bc 1c5a a33e 39bd 02be
