models/patient25/switching_model_for_patient_25_Critic.pth (torch, 22754 bytes, 11 tensors)

weight_ih_l0 f4 [64, 2]
000000 b5 9b 0a be 37 64 1b be d3 e7 ce be 20 d3 6c be
       -0.1353596 -0.15174948 -0.40411243 -0.23127413
000010 57 61 a3 3c d4 ba 25 be de fc b5 bd 9f ef d1 3d
       0.019943876 -0.1618455 -0.08886121 0.10250782
000020 f1 c0 10 3e 7e 3a 79 be 93 ae 8c 3e 30 c6 32 3d
       0.14136101 -0.24338719 0.2747694 0.043646038
000030 e7 8d 58 3e 06 81 82 be 79 1d 26 3e ef 36 52 be
       0.21147881 -0.25489062 0.1622218 -0.20528768
000040 ac 7b 04 3e e7 16 82 bc 5e d1 61 be 7f 0e 67 bd
       0.12937802 -0.015880061 -0.22052523 -0.05641031
000050 f4 34 40 be 46 26 60 be 56 7c 23 3c ca c0 29 3e
       -0.187702 -0.218896 0.0099783745 0.1657745
000060 38 2c 17 3e cf d2 3f be 1f c3 5b 3e 51 ce 05 3c
       0.14762962 -0.18732761 0.21461152 0.008166865
000070 35 c5 bb be 11 0c 06 3e 51 18 ab bd 18 96 1a be
       -0.36673895 0.1309054 -0.08354247 -0.15096319
000080 a0 7f 4f 3e c2 0f 57 be c1 dd b4 be b8 d1 2b be
       0.20263529 -0.21002105 -0.35325435 -0.1677922
000090 84 19 a2 3d 53 09 e8 bc 15 d9 58 3e c3 79 1d bc
       0.07915023 -0.028324759 0.2117656 -0.00961155
0000a0 52 80 2a bd 1e c0 6b bc 50 28 94 3e 60 3c 5e 3e
       -0.041626282 -0.014389066 0.28937006 0.21702719
0000b0 dd 5d b6 3e be 08 8c be 00 04 82 3d fd eb 23 bd
       0.35618487 -0.2735042 0.06348419 -0.040019978
0000c0 5c 88 88 bd 6b cc 8b 3d fa 04 54 be fd 60 c0 bd
       -0.066666335 0.06826099 -0.20705023 -0.09393499
0000d0 f8 bf 6b 3e 9d f3 37 be 0d 97 20 3e 60 62 1f 3d
       0.23022449 -0.17964025 0.15682621 0.038912177
0000e0 71 70 fd bd 59 6a d9 be db ca db bd cb 02 aa bd
       -0.12374962 -0.4246395 -0.10732051 -0.08301314
0000f0 02 fe 0b be 01 9e aa bd 87 84 1c 3e 60 00 7e 3d
       -0.13671115 -0.08330918 0.1528493 0.062012076
000100 46 69 46 be 3d f5 a5 bc 6a 75 18 3d 58 05 4f be
       -0.19376096 -0.02025854 0.03722135 -0.20216882
000110 cc 46 a6 be ef 10 c2 3d 8d 7d de be 0a 4a 8e bd
       -0.3247589 0.09475886 -0.43455163 -0.069477156
000120 4e d6 15 be 31 4d 7c 3e 8d 62 d0 be b9 be 49 bd
       -0.14632532 0.24638821 -0.40700188 -0.049254153
000130 0a ea 29 3e 30 81 44 be a8 ed 8a 3e b9 68 7f 3e
       0.16593185 -0.19189906 0.27134442 0.24942292
000140 b3 e3 04 bf 1c da 5f be 13 dd e6 be 03 60 2b 3e
       -0.5190994 -0.21860546 -0.4509054 0.16735844
000150 4a f1 83 be ff f1 24 bd 80 28 73 be 8e d8 3f be
       -0.25770026 -0.040269848 -0.23745918 -0.18734953
000160 ae 0d 8d be 4b ad 6d bd 88 1c 4e bd 7b 94 97 3e
       -0.275495 -0.058026593 -0.05032018 0.2960547
000170 6c 93 17 3e a7 c7 7a be 2f 07 54 3e 1c c5 14 bd
       0.1480233 -0.24490224 0.20705865 -0.03632079
000180 2e 5d 44 3e 9d 74 2e be 85 74 00 be 5e bd b4 be
       0.1917617 -0.17036672 -0.12544449 -0.35300726
000190 84 9f 0b be 2c 36 8d 3c f6 5a 26 3e a3 6c 3e 3c
       -0.13635069 0.017237745 0.16245636 0.011622581
0001a0 67 72 e5 bd 75 a4 1a bd 7b 36 c5 bd b3 43 80 be
       -0.11203461 -0.037754495 -0.09629532 -0.2505165
0001b0 43 d2 ba 3c 14 e1 aa bd f2 b5 38 3d ce 75 98 be
       0.022805339 -0.083437115 0.04509539 -0.29777378
0001c0 f6 fa 3c be a8 d3 65 be 89 a3 0c bf 6f 12 c5 be
       -0.18455109 -0.22444022 -0.54937035 -0.38490626
0001d0 93 93 3f 3e 84 67 f6 3d e6 d2 82 3e 4e 7f 4e 3b
       0.18708639 0.12031463 0.25551528 0.0031508985
0001e0 80 f3 81 3e 2e a9 a5 be 82 56 2c 3e 77 dd fa 3d
       0.25381088 -0.32355636 0.16829875 0.12249272
0001f0 fe d8 05 be 48 09 99 be 8f 38 e6 be d2 20 9c bd
       -0.13071057 -0.29889894 -0.44965026 -0.076234475

weight_hh_l0 f4 [64, 16]
000000 ad 6f 63 be f5 9f 80 3c 02 8e 1d be 02 67 62 be
       -0.2221057 0.015701273 -0.15386203 -0.22109607
000010 19 c0 ce bd 6d 0f 21 3e 8a 99 cc 3d 7c bf aa bd
       -0.100952335 0.1572854 0.09990223 -0.08337304
000020 ec 7e 92 3d 9a 53 a9 be 0a 16 8f be 5b 40 98 bc
       0.07153115 -0.33071595 -0.27946502 -0.018585375
000030 ea 15 a6 3e ed 54 e0 bd e5 93 46 3e ce ec 57 3e
       0.32438594 -0.10953698 0.19392355 0.21086428
000040 a9 e0 1c 3e 40 64 41 bd e1 86 ad 3d cd 20 85 be
       0.15320076 -0.047214746 0.08472992 -0.26001588
000050 1f 6f 05 3e 8f 4e 2a 3d 08 96 c3 bc 32 99 20 3e
       0.1303067 0.041578826 -0.023875251 0.1568344
000060 79 22 99 3e c3 88 3a bd c5 99 3c 3e c4 52 18 3e
       0.29909113 -0.045540582 0.18418033 0.14875323
000070 3a af ce bc ba aa 41 3e 38 b6 94 bd a9 18 af bc
       -0.025230039 0.18912783 -0.07261318 -0.021374064
000080 f9 21 1f be 5f 93 30 be 76 84 c5 bc 9a 8d 60 bd
       -0.15540303 -0.17243718 -0.024111014 -0.05482254
000090 34 1f e9 be 2d 01 2a 3c 4b 9d be 3d 63 66 ae be
       -0.4553162 0.010376257 0.09307345 -0.3406249
0000a0 42 e7 3d 3d 7d ee 91 3d 82 eb 1b 3d 95 65 7b 3e
       0.046363123 0.07125566 0.038066395 0.24550469
0000b0 b8 e9 d9 3e 0d 59 c3 be be ae 28 3e ce 37 07 3e
       0.42561126 -0.38153878 0.16472909 0.13204882
0000c0 70 0e b0 be cf 29 84 be 4d dc 79 3e be 7b 8a 3d
       -0.34386015 -0.25813147 0.24400444 0.06761883
0000d0 d9 bd bd be ba b2 cc 3d a1 e5 b8 3e 84 e8 53 be
       -0.37058905 0.09995027 0.36112693 -0.20694166
0000e0 47 38 d2 3e f4 10 44 3e ae 77 60 be fd 6c 5c be
       0.4105856 0.19147092 -0.21920654 -0.2152595
0000f0 c6 d2 56 3e 7f 87 43 be 26 66 a2 3e ba 45 08 3e
       0.20978841 -0.19094656 0.31718558 0.13307849
000100 3d 92 44 3c e5 45 82 be d5 ba 3a 3e 51 0e b8 be
       0.011997757 -0.2544395 0.18235333 -0.35948423
000110 bb ea b2 be 94 8d 69 3e 38 03 d5 3e a3 23 ad be
       -0.3494471 0.22807914 0.41604018 -0.3381625
000120 ae 5a bb 3e dd 04 87 bd aa 6a a6 be 58 1d 87 3e
       0.3659262 -0.065927245 -0.32503253 0.26389575
000130 3a 06 6d 3e 2e a2 df be f2 96 82 bd 02 a6 cb 3c
       0.23146906 -0.4367842 -0.06376447 0.024859432
000140 88 31 a9 be 7e cb dc bd 01 09 4c bd ae f0 09 bf
       -0.33045602 -0.107810006 -0.049813274 -0.53882873
000150 3a df 88 be 0e b5 92 3d 1e 39 7c 3d 1e 24 5e be
       -0.26732808 0.0716344 0.06157791 -0.21693465
000160 12 1d f0 bd 4e 00 1f bd 50 ba 49 be fc 66 d7 be
       -0.11724295 -0.03881865 -0.19699979 -0.42070758
000170 1c 1b 53 be 48 57 a2 be 68 eb cb 3e ca e5 76 3e
       -0.2061581 -0.31707215 0.39828038 0.24111095
000180 df 80 b0 3d c2 71 ca bc ae 29 76 3e c7 50 bd 3d
       0.0861833 -0.024712447 0.24039337 0.09243923
000190 95 55 03 3d 5d df 74 3c 39 25 25 3e ec 8a 9e be
       0.03206404 0.014945832 0.1612748 -0.30965364
0001a0 0a 54 2f be 96 bb 5a be 20 ca 81 3d 00 89 bc 3d
       -0.17121902 -0.21360621 0.063373804 0.09205818
0001b0 81 7a a1 bb 6e 52 2a 3e 2f 55 66 bc 0d bf 22 be
       -0.0049279337 0.16633007 -0.014058395 -0.15893193
0001c0 c0 2f 23 be 6a b0 96 3e 29 73 09 3a 14 88 50 be
       -0.15936184 0.29431468 0.00052432955 -0.2036441
0001d0 4e 35 9e be 9c 76 12 be bc 1b 82 3e 3c fe 08 be
       -0.30900043 -0.14303058 0.25411785 -0.13378233
0001e0 50 e7 8a 3d 71 c4 de bd 33 ad 2c 3e 5e 8d 34 3c
       0.067824006 -0.10877312 0.16862945 0.011020033
0001f0 3c 96 46 3e b6 d6 48 3e bc 12 b7 3e ec bd ed bc
       0.19393247 0.19613156 0.3575648 -0.029021226
000200 1b ec f4 be 62 7b 1c bf f1 e2 e3 be bd de 0f bf
       -0.47836384 -0.6112577 -0.4450908 -0.56199247
000210 66 78 ea bd ff 59 86 3d 13 be 06 3f bd 7f da bc
       -0.114487454 0.06560134 0.5263378 -0.026672238
000220 5a 9a 20 3e 7e ab 58 bc 15 08 5d be 36 8a 02 bf
       0.1568388 -0.013224481 -0.21585114 -0.50992143
000230 37 c5 2a 3e 74 de 03 bf e4 b4 fa 3e 3d 42 fb 3e
       0.16676794 -0.5151131 0.48966134 0.49073973
000240 cf 7a 47 be 92 02 11 bf c1 1b d8 3c 6b e8 79 bd
       -0.19480442 -0.56644547 0.026380422 -0.061012667
000250 4b 11 dd be 97 37 af 3d a6 28 91 3e 72 bd 0b be
       -0.43177256 0.08555525 0.28351325 -0.13646486
000260 99 e1 e6 3e fc 94 1d 3e 77 e4 14 bf bf 3f 28 bd
       0.45093992 0.15388864 -0.5816111 -0.041076418
000270 49 83 6a 3e a6 56 9c be 7a 2e 0e 3f d0 44 d0 3e
       0.22901644 -0.30534858 0.5553967 0.406775
000280 2b 01 2f be 48 a8 02 be 65 89 0a be 47 23 d2 bb
       -0.1709029 -0.12759507 -0.13528974 -0.006412897
000290 15 13 71 be f1 aa 7f bc 3b df 94 3e 43 a1 bc be
       -0.23542435 -0.01560472 0.2907656 -0.36841783
0002a0 4e 8c b6 3d 22 7a 9d 3d 08 ee b2 3b 3c d5 47 3e
       0.0891348 0.076893106 0.0054605044 0.19514936
0002b0 e3 30 d0 3e f2 c1 a9 bd 18 87 51 3e 47 16 09 bd
       0.40662298 -0.08288945 0.2046169 -0.03346851
0002c0 93 08 e5 bd c2 d9 71 be a9 a3 20 bd 2f 09 bc bd
       -0.11183276 -0.23618224 -0.03921858 -0.09181439
0002d0 9a 16 0e 3d aa 26 96 bd d4 2c 02 3e f1 16 8b 3c
       0.034689523 -0.07331593 0.12712413 0.016978713
0002e0 34 ad 5c 3d 21 58 70 be d8 07 66 bd 4d 57 10 3d
       0.053876117 -0.23471119 -0.056159824 0.035239507
0002f0 e8 ea 26 3e 7d 84 9f be 43 42 52 3e 21 54 02 3e
       0.16300547 -0.31155768 0.2053309 0.12727405
000300 70 c0 8b be dc 20 31 3d ef fc 08 bd 7a 7f a0 be
       -0.27295256 0.043244228 -0.03344434 -0.31347257
000310 ff 21 1f be ce cc c8 3d da f3 05 bd f3 87 61 3e
       -0.15540312 0.098046884 -0.032703258 0.22024517
000320 08 70 ce 3d 65 6e 38 be 2f be 07 bd 49 72 9f 3e
       0.10079962 -0.18010862 -0.033140358 0.3114188
000330 31 a0 86 3c 53 db 47 3d c4 dd 12 3d 19 11 09 3d
       0.016433807 0.04879315 0.035856023 0.03346357
000340 71 dd e1 3d a7 a0 d7 3d e9 61 29 be 56 37 de 3c
       0.11028565 0.10528689 -0.16541256 0.027125996
000350 0a 86 03 be 03 dd bd 3e 5a 10 7f 3e d0 3b e6 3a
       -0.128441 0.3708268 0.24908581 0.0017565433
000360 37 4a c2 3e d8 da 25 be c5 28 19 3e 8a 05 8d bd
       0.37947246 -0.16196764 0.14956959 -0.06885822
000370 fc be 35 3e 56 2f f7 3b 57 d8 6f 3e 8b 9d dd 3d
       0.17748636 0.0075434847 0.23422371 0.108210646
000380 14 ae 83 3e b0 99 5e be ba e2 c6 3e ae 4e 2c 3e
       0.2571875 -0.21738315 0.38844854 0.16826889
000390 94 27 5d 3e bf 24 7f 3e ce 13 74 be 57 26 7b bd
       0.21597129 0.24916361 -0.2383568 -0.06131586
0003a0 99 d4 a6 3e 62 d7 a7 3e 3c 5b 60 3e 5a ef 84 3c
       0.32584074 0.32781512 0.21909803 0.016227413
0003b0 63 55 0d be 1c 6a 1d be 58 7b 38 bc 4c 99 20 be
       -0.13802104 -0.15372509 -0.011259876 -0.15683478
0003c0 36 53 99 be 97 08 a1 3d 5f 4d dd 3c 15 f1 24 be
       -0.29946297 0.078629665 0.027014432 -0.1610759
0003d0 d6 c3 47 3c 16 b6 ae 3e f3 3b ac 3e 82 de a2 be
       0.012192687 0.34123296 0.33639488 -0.31810385
0003e0 90 5e 2f 3e 56 1f 2d 3d 82 b1 74 be 96 20 4f be
       0.17125916 0.042266212 -0.23895839 -0.20227274
0003f0 fc d4 fe 3c 87 c7 b5 be 3b 81 6a 3e 2a f5 26 3e
       0.031107418 -0.3550379 0.2290086 0.1630446

bias_ih_l0 f4 [64]
000000 a7 38 e7 3d 48 0d 4b 3a 45 42 ca 3e a3 0f 09 3d
       0.112901025 0.00077458145 0.39503685 0.033462178
000010 06 da b4 bb 66 9d b7 3e a9 b6 cd 3c c5 16 8f 3e
       -0.0055191545 0.35862273 0.025111513 0.2794706
000020 25 05 33 3e 4a 84 99 3d 56 2d be 3e e7 19 fd bd
       0.17482431 0.07495935 0.37143964 -0.12358456
000030 2c 04 49 3d 28 e7 a6 3e ff 06 c7 3d c1 21 a3 3e
       0.049076244 0.32598233 0.09718131 0.3186169
000040 d1 57 35 3e 95 4e 2a 3e 28 d8 f5 3d 11 f9 16 bd
       0.1770928 0.16631539 0.12004119 -0.036858622
000050 3d 72 5d 3e e6 a9 4b 3e 79 8e b9 bd fa 93 b5 3e
       0.2162561 0.1988903 -0.09060378 0.3546446
000060 24 f3 33 3c eb 12 6f 3e 2f 07 16 be f6 a2 06 3c
       0.010983262 0.2334706 -0.14651178 0.008217564
000070 02 73 64 3e 03 0e a0 bc 69 88 97 3e ef 96 b4 3e
       0.22309497 -0.019537931 0.2959626 0.35271403
000080 07 1f 2f be 20 ab ba bd 9c 83 5f 3e 96 48 97 3c
       -0.1710168 -0.09114671 0.21827549 0.018467229
000090 6a f3 a0 3d 7b a7 3b 3e 13 10 5d 3e ce dd fa bd
       0.078589275 0.18325607 0.21588163 -0.12249337
0000a0 02 8d 28 3e 6c 5a 28 3e 12 61 24 be 60 57 63 be
       0.1646004 0.16440743 -0.16052654 -0.222013
0000b0 c0 87 b4 3d 35 7b 4e be 44 3a 1f 3e 2e 69 34 bb
       0.08814955 -0.20164187 0.1554957 -0.0027528512
0000c0 12 19 a5 3e 4f cc 94 3c 1e 70 5a 3d c7 0c d2 3d
       0.3224569 0.018163828 0.05332958 0.10256343
0000d0 89 01 85 3e a6 fd e1 3d f2 af 8e 3e e2 66 12 be
       0.25977734 0.11034708 0.2786861 -0.14297059
0000e0 e9 a5 48 3d 8d c4 fc 3d 98 ee 63 bd 8b 7c 4a bd
       0.04898635 0.123421766 -0.055647463 -0.04943518
0000f0 4c 77 2d 3e 2f 01 dd bd f6 72 fe bd 05 06 86 3e
       0.1694004 -0.107912414 -0.12424271 0.26176468

bias_hh_l0 f4 [64]
000000 66 89 83 3e f7 84 05 3d 5b 79 a8 3e 69 bd 89 bd
       0.25690764 0.03259751 0.32905087 -0.0672558
000010 00 85 66 3e 36 ec 6f 3e a0 62 c6 3d 34 79 80 3e
       0.22511673 0.23429951 0.0968678 0.2509247
000020 45 a6 a6 3e d5 20 c3 3e 69 25 88 3d b3 6a b1 3d
       0.3254873 0.38110986 0.066477604 0.086629294
000030 b6 be fc 3b 37 05 b0 3c 59 c1 6b 3e a9 92 c1 3e
       0.007713164 0.021486862 0.23022975 0.37807205
000040 d9 07 6e 3e 04 ce b0 bd 8b 8d 43 3e 55 e7 43 be
       0.23245181 -0.08633044 0.19096963 -0.19131215
000050 bb d0 9f bd b2 4e b9 bd 11 d3 0d 3c a6 2b b1 3e
       -0.07803484 -0.09048213 0.008656279 0.34603614
000060 e4 d6 3f be e5 86 49 3e 35 cf 16 be 48 44 2e 3c
       -0.18734318 0.19680364 -0.1472748 0.010636397
000070 98 68 8d 3e f7 81 3b 3e a4 04 54 3e d0 60 8c bd
       0.2761886 0.18311296 0.20704895 -0.06854403
000080 cc bf 41 b9 b6 3a a3 bd 7b 2a ae 3b 39 07 3b be
       -0.00018477364 -0.079701826 0.0053151227 -0.18264474
000090 c9 40 a0 be b7 55 fb 3d 03 bd a9 3d 61 16 1a 3d
       -0.31299427 0.12272208 0.08288004 0.037619
0000a0 86 fb ef bd c8 db 51 be a4 9d 60 3d d4 7c 41 3e
       -0.11717896 -0.20493996 0.054837838 0.18895274
0000b0 a8 fd 14 3e 1f e6 8c be 7c 10 fb bd ca e1 4d bd
       0.14549887 -0.27519318 -0.122590035 -0.050264157
0000c0 7b 44 ff bd 3c 4f 2f 3e 88 95 1c 3e 9b 46 a3 3d
       -0.124642335 0.1712007 0.15291417 0.07972451
0000d0 25 29 69 3d 33 ca 3d 3e fa a0 93 3e 26 a8 13 3e
       0.056924004 0.18534164 0.28833753 0.14419612
0000e0 4b c4 74 3e 7a 7b b0 3d 3b 1a 4f 3e f6 d5 b4 3d
       0.23903005 0.08617301 0.2022485 0.08829872
0000f0 b0 fa 3c be 31 0d 2e be 9e d2 9c 3e ef ad ad 3e
       -0.18455005 -0.1699722 0.30629438 0.33921763

weight f4 [32, 16]
000000 1d 23 bf bc 9e a4 57 be be 43 35 be d0 a7 30 3e
       -0.023332173 -0.2105889 -0.17701623 0.17251515
000010 54 fd db 3d a3 cc 01 bf 98 03 24 3e 4c 32 03 bc
       0.10741678 -0.50702876 0.16016996 -0.008007597
000020 75 7a a7 be d4 7b 6b be 7d b1 3e bc 6e ad f8 3a
       -0.32710615 -0.22996455 -0.011638996 0.0018972585
000030 8b a1 48 be d3 ea 37 3d f8 fa 52 be 3f ac 75 be
       -0.19592874 0.04490168 -0.2060355 -0.23991488
000040 d6 a6 2f 3e 00 ba c4 bd 74 f2 62 be da db 44 be
       0.17153487 -0.09605789 -0.22162801 -0.19224492
000050 0c da 45 3e 5e 5a 14 be 90 1b ce 3d 08 09 84 bd
       0.1932146 -0.14487597 0.10063851 -0.06447035
000060 50 09 09 3d 88 e9 66 3d f4 d3 79 3e 04 86 80 bd
       0.033456147 0.056375057 0.2439726 -0.062755615
000070 c0 c2 c3 bb 1a 95 69 3e 64 da 3b 3e 5c 7d 96 bd
       -0.0059741437 0.22810784 0.18345028 -0.07348129
000080 53 9d 0d be 50 76 03 3c 63 33 87 be e2 be 48 bd
       -0.13829546 0.008023813 -0.26406392 -0.049010165
000090 d1 90 a3 be 5a c5 31 3e 3a 0a 92 3e 3b 2c 60 be
       -0.31946424 0.1736044 0.28523427 -0.21891873
0000a0 51 33 87 bc 90 34 5a be 2e d3 a0 3d ce 82 0f be
       -0.016503962 -0.21309114 0.07852779 -0.14014742
0000b0 a6 59 f1 bc 83 8b 45 be 58 62 1d 3d 77 be 0d 3d
       -0.029461693 -0.19291501 0.038423866 0.03460547
0000c0 0d 1a 0f bd a9 94 89 bd 57 a7 ea 3e 6d 4d 89 3e
       -0.034936953 -0.06717808 0.45830795 0.26816884
0000d0 f7 a0 95 3d dd a7 8d bb 75 e9 66 be a0 ba 39 be
       0.07306092 -0.0043229894 -0.22549994 -0.18137598
0000e0 1b bd 41 3e b7 6c 29 3f 69 53 87 3e 25 d7 b0 3d
       0.18919794 0.6618151 0.26430824 0.086347856
0000f0 df 9b 09 3e 96 c7 dd 3d dd 8a a1 3d ba 3e 2b be
       0.13438366 0.108290836 0.07887814 -0.16723147
000100 89 53 21 bd 7c a2 76 bd 7e 15 45 be 37 be ae 3d
       -0.039386306 -0.06021355 -0.1924648 0.08532374
000110 5b 3f ff bd 56 7f 34 3d d7 85 cd bd 7b f3 14 3e
       -0.12463256 0.04406675 -0.100352935 0.14546005
000120 bb 18 cc bd e5 a5 9f be a7 eb 53 bc d0 c4 0e 3e
       -0.099656545 -0.31181255 -0.012934602 0.13942266
000130 dc 05 54 3d 6d b1 32 3e 71 d9 af bd 91 59 40 3e
       0.0517634 0.17450495 -0.085863955 0.18784167
000140 e8 80 2e be f9 d0 fc bc 85 9c 86 be bc 8d 4a be
       -0.17041361 -0.030861365 -0.2629129 -0.1978063
000150 fa 73 0d 3e 0f f2 65 be 1c f7 84 3d 81 c1 92 3d
       0.13813773 -0.2245562 0.06492445 0.07165814
000160 cd 12 e1 be 45 86 cc bb 19 c6 98 be cd ce 1e be
       -0.43959656 -0.006241592 -0.29838637 -0.15508576
000170 ef af 03 bd 98 75 8a be 6e ea 24 be 7f 2b c3 bb
       -0.032150205 -0.27042842 -0.16105053 -0.005956113
000180 f3 11 8a 3d 86 09 79 be bf 2c 4e 3d 7c 05 8b be
       0.06741705 -0.24320039 0.050335642 -0.27152622
000190 21 16 44 be c0 b4 a8 3e 66 9c 43 be 02 b0 33 be
       -0.19149067 0.329504 -0.1910263 -0.1754761
0001a0 08 06 83 bd f8 2e 05 3d d1 f0 3c bd 4d b2 2f be
       -0.06397635 0.032515496 -0.046128098 -0.1715786
0001b0 15 40 cf 3d 2a d7 7f 3c 77 90 44 3e f9 8a b9 bc
       0.101196446 0.015615264 0.19195734 -0.022649275
0001c0 20 e7 85 3e 53 a8 ee bd d1 a3 0a 3f ef 3d cc 3e
       0.26152897 -0.11653199 0.54156214 0.39891002
0001d0 c3 da f8 bd f5 86 9f 3e 20 6d 73 bd 15 72 2e bd
       -0.121511005 0.31157652 -0.05943024 -0.042589266
0001e0 fc b8 7d 3e b9 15 4d 3f 4b 9d a9 3e 04 11 06 3f
       0.24777597 0.8011127 0.33127818 0.52369714
0001f0 3e ce 08 be c9 f2 dd bc dd 65 25 3d 91 30 13 be
       -0.13359925 -0.027093308 0.040380348 -0.14373995
000200 e6 b8 64 be 13 b8 32 bb 56 85 03 be 4d c4 16 be
       -0.22336158 -0.0027270361 -0.12843832 -0.1472332
000210 35 c3 e1 bd a3 37 37 be 93 62 c2 3d 9f 4a 97 3d
       -0.11023561 -0.17892317 0.09491458 0.0738728
000220 51 8c 49 bd 49 a0 c3 bd b3 63 37 be fb da 03 3c
       -0.04920608 -0.09552056 -0.17909126 0.0080478145
000230 ae e3 32 be 4e 1d f6 bd 8c 1f 8c 3e bf cc 05 be
       -0.17469665 -0.12017308 0.27367818 -0.13066386
000240 41 de f2 3d 6e ee 5a 3a bb 5b cf 3e b6 50 0e 3e
       0.11858798 0.0008351569 0.40499672 0.13897976
000250 53 05 23 be 3b 61 80 bc 7c 67 6f be 5b 4e c1 bd
       -0.1592 -0.015671363 -0.2337932 -0.09438773
000260 1b a2 b0 3e ba 52 13 3e 3a 65 6c 3e ab 13 83 3e
       0.34498677 0.14387026 0.2308549 0.25600943
000270 de 6f b9 bd f4 c4 0a be 49 0d 97 3d 88 86 1e bd
       -0.0905454 -0.13551694 0.07375581 -0.038702518
000280 02 9e b8 ba 67 88 8d be c5 a8 5a 3e 26 d1 11 3e
       -0.0014085176 -0.2764313 0.21353443 0.1423994
000290 01 bb bd 3c 22 be 49 bd 7e d3 b7 bc 1e cf 03 be
       0.02316046 -0.04925359 -0.022439715 -0.12871978
0002a0 28 90 0d 3d 85 0e ae 3d 4a f8 2d 3e d7 58 81 bd
       0.034561306 0.08498863 0.16989246 -0.06315773
0002b0 2c 9e ad 3d b3 95 31 3e 11 68 00 3e 34 09 17 3e
       0.084774345 0.17342262 0.12539698 0.14749604
0002c0 f1 2f ec bc 77 54 78 be 42 42 1b bd 16 48 d0 3c
       -0.028831454 -0.24250971 -0.037904985 0.025424998
0002d0 02 a6 1e be df 84 95 3e 9c 59 d0 3d 33 33 75 3d
       -0.15493014 0.29202935 0.10173342 0.05986328
0002e0 e7 ab 12 3e ef aa e4 bc e0 0d 2a bd fe db 6e be
       0.14323388 -0.027913539 -0.04151714 -0.23326108
0002f0 fb 07 cd bd 68 fa 2f bd dc 01 0f 3e 75 70 92 3e
       -0.10011288 -0.042963415 0.13965553 0.28601423
000300 7f 53 51 3c 5e b9 6b bd e5 6e 1a 3e c3 13 37 3c
       0.012776255 -0.057549827 0.15081365 0.011174145
000310 4b 34 31 be 62 de 3c 3e 69 15 2c 3e 06 fb 20 be
       -0.17305104 0.18444207 0.16805042 -0.15720758
000320 48 1f f5 3d 25 4c de 3d c8 8e 01 be e1 69 97 3d
       0.11968857 0.10854367 -0.12652123 0.07393242
000330 95 96 1c be d7 6a 9f bc 4b 56 26 be 88 4c bc 3e
       -0.15291817 -0.019460125 -0.16243856 0.3677714
000340 67 b8 7e 3d 68 23 64 be 2b 8f ed bc c9 9a 55 3c
       0.06218758 -0.22279131 -0.028998932 0.013037392
000350 98 31 28 be 2e 55 c2 bb ad 14 70 3e 1f ed 80 be
       -0.16425169 -0.0059305644 0.23445387 -0.2518091
000360 01 c4 6b 3c ea ec ac be 3b 00 8d bc 21 4b c0 3d
       0.014389993 -0.337745 -0.017212024 0.0938933
000370 92 35 24 be 58 89 da bd 0e 24 03 3e e0 23 ba bc
       -0.1603606 -0.106707275 0.12806723 -0.022722185
000380 c2 cb 20 3e 77 8d c9 3c 88 d7 32 bd f1 33 99 be
       0.15702727 0.024603589 -0.043662578 -0.2992244
000390 4c 4c b7 3d f7 6d a9 3e 7c 51 62 3e 05 7f 6b be
       0.08950099 0.3309171 0.22101396 -0.22997673
0003a0 73 3d ae 3e aa 43 ab be cb 40 2d 3d be 0f c7 bd
       0.34031257 -0.3345006 0.04229812 -0.097197995
0003b0 2f a0 4d bd 80 dc 6a bd 4b 51 06 3d 39 81 77 3e
       -0.05020159 -0.05733919 0.03279237 0.24170388
0003c0 20 81 10 be 02 bd e0 3d 2c 38 df 3c 16 00 bf 3c
       -0.14111757 0.109735504 0.027248465 0.02331547
0003d0 ed 14 4e be b7 6f 45 3d b2 b9 14 3e 5d 20 94 3d
       -0.2012517 0.048202243 0.14523962 0.07232735
0003e0 99 aa 30 3e b8 92 17 be a1 6b 4a 3e bd 92 6a bd
       0.17252578 -0.14802063 0.1976762 -0.057268847
0003f0 5b c4 f0 3d c9 30 30 be a1 32 5d 3e 5e 65 94 3e
       0.11756202 -0.1720611 0.21601345 0.28983587

bias f4 [32]
000000 0a f6 2c 3e 00 15 61 bd b8 b6 90 bd 07 9a a1 3d
       0.16890731 -0.054951668 -0.07066101 0.078907065
000010 1a 7d 7e 3d eb 57 26 be 2e 8f 29 3e 1e 20 81 3e
       0.062131025 -0.16244476 0.16558525 0.25219816
000020 ee 6c 3f 3e 30 80 7a 3c 08 f1 91 3e 1e fb 6c 3e
       0.18693897 0.015289351 0.28504205 0.23142669
000030 eb 91 0d 3e c2 7c 07 3d 27 b9 f9 3d c5 c4 33 be
       0.13825195 0.033077963 0.12193518 -0.1755553
000040 d6 c2 c7 bc ee b2 20 3e a2 cc 41 be 7b e5 23 be
       -0.024384897 0.15693256 -0.18925717 -0.16005509
000050 f4 c1 ce 3d af 7b 66 3e a1 6b 57 3e 45 5b 1e 3e
       0.100955874 0.22508119 0.21037151 0.15464504
000060 68 d1 ed 3c 76 40 02 be 8a 59 6f be b3 7a 42 3e
       0.029030517 -0.12719902 -0.23374 0.18992119
000070 46 58 5f be af 7b 25 3e 14 4b 30 bd e7 45 63 3d
       -0.21811017 0.16160463 -0.04304035 0.055486586

weight f4 [32, 32]
000000 d5 a8 37 3e e3 ed e7 3d 47 c7 13 be 19 e0 38 3d
       0.17935498 0.1132467 -0.14431487 0.04513559
000010 0f 16 da bd cc ec e0 bd 46 02 9d bd 16 5c c2 bd
       -0.106487386 -0.109826654 -0.07666449 -0.0949022
000020 55 02 e1 bb 37 4d 2b bd 90 a9 2f bd fb 19 80 3c
       -0.006866733 -0.041821685 -0.042886317 0.015637388
000030 9d 16 be bd 30 75 5c 3d ea 02 42 bd ae 4f 2c be
       -0.09281657 0.053822696 -0.04736606 -0.1682727
000040 35 c0 12 3e 65 6a 6d 3d 72 09 db bd 6e 29 f0 3d
       0.14331134 0.057962794 -0.10695161 0.11726652
000050 83 75 46 be e1 e7 3f 3e 53 ee ca bd c5 0d 0a be
       -0.19380765 0.18740799 -0.09908738 -0.13481815
000060 ce b2 3d 3d 23 d1 ce bd 0b 03 ba 3c 5b c1 04 be
       0.0463131 -0.100984834 0.02270653 -0.12964384
000070 2e 3c 02 3e 52 3f 33 bd 63 df 02 3e de 0a e1 bd
       0.12718269 -0.04376156 0.12780528 -0.10988401
000080 25 a6 38 3d ae 66 a3 bd 41 64 a7 bd fa 81 b8 be
       0.045080323 -0.07978569 -0.08173419 -0.36036664
000090 3f be 4b 3c 28 98 d8 bc 9f ca f0 3d 6f 97 79 be
       0.012435495 -0.026439741 0.11757397 -0.24374174
0000a0 80 28 54 3e 88 9f bd be 87 25 e6 bd 9d ef 7e 3e
       0.20718575 -0.37035775 -0.112376265 0.24896093
0000b0 43 0c 69 3e bc 00 06 bd b3 fb 08 3e ee ca ba 3c
       0.22758584 -0.032715544 0.13377266 0.022801843
0000c0 b5 2c 43 3e 74 bb 58 3e 04 17 2e bd f6 d8 05 bd
       0.19060023 0.21165258 -0.04250242 -0.032677613
0000d0 97 6d 27 3e e3 7a f7 be 9a 7b 83 3c a9 78 f2 3d
       0.16350399 -0.48335943 0.016050149 0.1183942
0000e0 f2 a6 87 3d 52 17 04 3e 12 11 3f 3d 51 35 4d bd
       0.06623639 0.12899521 0.04664714 -0.050099675
0000f0 9b 36 49 bc b3 a4 7b bd d1 01 1b 3e b7 15 a9 bd
       -0.012281085 -0.061436366 0.15137412 -0.08256095
000100 99 2b c5 3d 84 0a 46 bd 0b fc 0e 3e 96 4a 48 be
       0.09627456 -0.048349872 0.13963334 -0.19559702
000110 e3 32 cb bd 97 b9 9e bd 9d e7 2f 3e 28 ea 02 bf
       -0.09921815 -0.07750242 0.17178197 -0.51138544
000120 6c d7 46 3e d7 c4 b9 be 51 49 0a bd 4f 07 39 3e
       0.19418114 -0.3628299 -0.033761326 0.18069194
000130 2a 40 dd 3d f0 de ce 3d cf 0e 81 3e c3 d9 07 3d
       0.10803254 0.10101116 0.2520661 0.033166658
000140 47 a2 3e 3e f7 9e e0 bd 40 e4 03 3e f3 55 d6 bd
       0.18616591 -0.1096782 0.12880039 -0.10465612
000150 47 20 d8 3c dd 39 c5 be 4f 76 22 3c 8e 64 31 bd
       0.026382579 -0.3852071 0.009915902 -0.043308787
000160 f5 be 5d bd 90 1d 24 be 74 38 ab 3d 71 cf 5c 3e
       -0.05413719 -0.16026902 0.08360377 0.21563508
000170 3c 1a 06 3d 57 00 8f 3d 5f 92 0d 3e bf ca ff 3d
       0.032739863 0.06982487 0.13825367 0.124898426
000180 24 99 79 3e 7e 89 a3 bb 67 af c2 3c 27 70 d7 3e
       0.24374825 -0.0049907556 0.023765279 0.42077753
000190 51 21 41 3e 8e 8b 88 3e 76 77 00 3e 71 cc 10 3f
       0.18860365 0.26668972 0.1254557 0.5656195
0001a0 43 b0 45 3d bb 2b 56 3e a5 df c1 bd 55 96 be bd
       0.0482638 0.2091512 -0.09466485 -0.09306017
0001b0 f7 26 a6 bd 75 fa b9 bd 61 39 19 3e c7 1a 04 3d
       -0.08112901 -0.09080974 0.14963295 0.0322521
0001c0 b3 14 42 3d b0 1d c3 3d d3 8e c8 3d 95 11 17 3e
       0.04738302 0.09527147 0.097928666 0.14752801
0001d0 b2 06 1a be 11 c3 dc 3e 87 9f 86 3c 37 d8 3c 3e
       -0.15041617 0.43117574 0.01643349 0.18441854
0001e0 36 7a ca 3d 7d 9f 06 be 6d 8c d5 3d c1 73 fa 3d
       0.09886591 -0.13146777 0.10427175 0.122291096
0001f0 6c 58 00 3b 08 48 d0 3d 35 ef 96 bd 82 aa 0d 3e
       0.0019583954 0.10169989 -0.07369844 0.13834575
000200 d0 98 00 be 33 94 c3 3d 8e ac 5b bc 16 fe 1a be
       -0.12558293 0.09549751 -0.013407839 -0.15135989
000210 6d b1 03 3e 4c e4 dd 3d 85 7e 69 3d ef af 1b 3e
       0.12860651 0.1083456 0.057005424 0.15203832
000220 c6 3d 13 be f1 2c 92 3d 16 fb 31 be 7b 76 29 be
       -0.14379033 0.07137478 -0.17380938 -0.16549103
000230 cf 05 53 bd 9c d8 86 3d 62 79 03 be d8 46 4a 3a
       -0.05151921 0.06584284 -0.12839273 0.0007716245
000240 df d0 1c 3e 07 11 f4 bd bb c3 cf bd 99 1b c0 3d
       0.15314053 -0.1191731 -0.101447545 0.09380264
000250 49 e9 c7 bd ca f8 16 be c8 8a 22 3e 08 86 86 3d
       -0.097612925 -0.14743343 0.15873253 0.06568533
000260 8c 88 b1 3d 1b 70 22 be f5 1b 09 be 0d 9c 41 bd
       0.086686224 -0.15863077 -0.13389571 -0.047267962
000270 97 8c f9 3d 6a d5 df 3d 41 46 40 bd 0b 84 e7 bd
       0.121850185 0.109293774 -0.046942 -0.11304482
000280 94 11 8f bd 69 0a 56 bc e5 c4 70 3d e7 cb 6a 3c
       -0.06985775 -0.013064005 0.058781523 0.014330841
000290 3d d4 67 3d ae c8 70 3e d9 00 2a be 97 0f 52 3e
       0.05659889 0.23514053 -0.16601886 0.2051376
0002a0 07 af a5 3d ab 13 fc 3d 22 48 2f be 08 72 f3 3c
       0.080900244 0.12308439 -0.1711736 0.02971746
0002b0 b9 18 54 3d 15 6f 1d 3e e0 53 fb bd 1a 57 30 3a
       0.05178139 0.15374406 -0.12271857 0.00067268463
0002c0 e2 1c 4e 3d 37 f6 88 bd db 51 16 be a4 8d 5c bd
       0.050320514 -0.06687587 -0.14679663 -0.053846017
0002d0 4d f4 13 3e fb e8 0c 3e 35 fd 99 3c 3c 8b ee 3d
       0.14448662 0.1376075 0.018797496 0.116476506
0002e0 c5 19 2e be 1b 6d 00 3e 89 57 1e bd 30 44 26 be
       -0.17002018 0.1254162 -0.0386577 -0.16236949
0002f0 23 66 56 3d ac 28 36 3c 4b 15 a4 bc e5 05 00 3e
       0.0523435 0.011118095 -0.020029685 0.12502249
000300 f4 13 11 3e 04 18 10 3d e2 f0 86 bd 01 f3 1a 3e
       0.14167768 0.035179153 -0.065889135 0.15131761
000310 ca b5 a9 bc 9d 77 15 be 7b 17 03 be 1f d8 0c 3e
       -0.020716567 -0.1459641 -0.12801926 0.13754319
000320 ac c8 51 bd 46 e3 cd bd 56 ee 79 3d b3 ae 0f 3e
       -0.051216766 -0.100531146 0.06101831 0.14031486
000330 07 47 16 3c 7a 1a 08 be 1b a1 21 bd c4 6d 85 bd
       0.009172208 -0.1329135 -0.039460283 -0.06515077
000340 6e 06 bb bd 31 29 95 bd ee 11 2c be 4b a0 bd 3c
       -0.09132086 -0.07283247 -0.16803715 0.023147723
000350 77 6f b8 3d 14 cf 11 be ac 7e bb 3c 82 74 48 bd
       0.09005635 -0.1423915 0.02288755 -0.048939236
000360 4b 25 0b be 26 5f 2d bc 5c 77 2e bd d6 00 3e bd
       -0.13588445 -0.010581767 -0.0425943 -0.046387516
000370 25 20 10 be f0 65 17 3b 0f ac a4 bd df 77 12 be
       -0.14074762 0.002310153 -0.0804063 -0.1430354
000380 85 a6 83 bd 13 d6 c2 bb d2 42 ca bd 99 39 50 3d
       -0.064282455 -0.00594593 -0.09876026 0.05083618
000390 0b 46 23 be 1d d0 14 3e 28 72 ef bd 02 5a f5 3d
       -0.15944688 0.14532514 -0.116916955 0.11980058
0003a0 63 37 1e be 34 9a ad bd 8a 9c 1b 3d 03 3c 29 be
       -0.15450816 -0.084766775 0.037991084 -0.16526799
0003b0 8b 96 e6 bd 72 ff b0 bc 42 a9 13 3e 0d 70 1c be
       -0.112591825 -0.02160618 0.14420035 -0.15277119
0003c0 d0 a9 d1 bd 8b 25 b9 3d 67 ec 18 be b7 04 19 3e
       -0.10237467 0.09040364 -0.1493393 0.14943205
0003d0 e5 57 65 bd 44 6d 0d be 6a 15 eb bd 30 30 3a bd
       -0.055992026 -0.13811213 -0.11478694 -0.04545611
0003e0 67 13 02 3d b5 e5 2e 3e cb 59 76 3c 79 87 36 3c
       0.031756785 0.17079814 0.015036057 0.011140698
0003f0 d1 ae e2 bd e8 8e e0 bd 41 e0 37 3d 3d c8 a5 bc
       -0.110685 -0.10964757 0.0448916 -0.020237083

bias f4 [32]
000000 21 ff 95 3d c4 d8 aa 3d bb ac 3d 3c 9f eb 00 be
       0.073240526 0.08342126 0.011576827 -0.12589882
000010 4a ee 8c bd 2f fd da bd 48 42 fe bd 8a 5d 28 be
       -0.068813875 -0.10692822 -0.12414986 -0.16441932
000020 5e 57 31 3e d6 dd e8 3d d0 98 13 3e 1f 3b f0 bd
       0.17318484 0.11370437 0.14413762 -0.117300265
000030 49 d0 ca 3d b8 54 b3 bd 55 2f 8f bd eb a6 ad bc
       0.099030085 -0.08756393 -0.0699145 -0.021197757
000040 de ee a0 3d 39 4f 12 bd 77 45 32 3d 19 44 91 bd
       0.0785806 -0.035720084 0.043523278 -0.07093067
000050 e9 44 4d bd c9 f1 b5 3d 82 ae 3d 3e 49 9b a8 bd
       -0.050114546 0.088840075 0.185236 -0.08232743
000060 a3 af fe 3d 9c 15 9c 3d 2e 77 a0 ba 7b 06 3b 3e
       0.12435844 0.07621309 -0.001224255 0.18264191
000070 a4 c5 db 3d b9 58 d6 bd 78 79 4c bd 1c a2 08 be
       0.10731056 -0.10466141 -0.04992053 -0.1334309

weight f4 [32, 32]
000000 69 42 ae 3d c5 91 6f bd 0f 5a 88 bd f9 10 7e 3e
       0.085087605 -0.058488626 -0.06657802 0.24811162
000010 fc 25 87 bd bf 79 5b 3d 85 11 14 3b 10 90 aa bd
       -0.06599042 0.053582903 0.002259345 -0.08328259
000020 2b 08 39 3e a7 3c a7 3d 5b f6 0f bc 40 c2 32 3d
       0.18069522 0.081658654 -0.008786763 0.043642282
000030 85 00 1a be fe e6 bb bd 8b 69 2a 3e fc f2 11 be
       -0.1503926 -0.09174918 0.16641824 -0.14252847
000040 7b 63 02 3e 1a 9c 1a 3e 28 ce 21 be 91 a2 d0 bd
       0.12733261 0.1509861 -0.15801299 -0.10187257
000050 78 c6 27 3e e1 61 1b be d2 59 ea bd 68 86 e0 3e
       0.16384304 -0.15174057 -0.11442913 0.43852544
000060 41 51 12 3e a0 ee 21 bd a1 9c 02 be 48 cb 91 bc
       0.14288808 -0.03953421 -0.12755062 -0.017797127
000070 65 4f f1 bc 01 46 35 bc 38 7b 90 3d bd 4e ee 3d
       -0.029456804 -0.0110640535 0.07054752 0.11636112
000080 9a 0e c1 bd e5 48 b2 3d 33 08 87 3e 2f 66 1b be
       -0.09426613 0.0870531 0.26373443 -0.15175699
000090 70 13 2a 3e 56 1a 1c be 76 e2 b9 bd 07 b3 30 3e
       0.16608977 -0.15244421 -0.09076397 0.17255794
0000a0 02 f3 0c 3e 35 20 ce 3d 58 a1 97 3d 51 53 a6 3c
       0.13764575 0.10064737 0.07403821 0.0203034
0000b0 a4 f7 fa 3c 56 94 89 bc 17 98 dc 3d fb 6c 0c be
       0.030635662 -0.016794365 0.10771196 -0.13713448
0000c0 7f b5 ef bd 9f 9d 17 bd f8 23 31 3e 24 5a 28 3e
       -0.117045395 -0.037015554 0.17298877 0.16440636
0000d0 1b 32 f1 bd 19 89 53 3e 51 e0 82 3e af 15 b4 be
       -0.11777135 0.20657767 0.25561765 -0.35172793
0000e0 f5 9d ce be 2b ef 0c be 2c 0d 92 3d bb 81 ec 3d
       -0.40354887 -0.1376311 0.071314186 0.115481816
0000f0 89 54 8a 3d 60 15 d1 3c e8 28 81 3e 31 84 16 3e
       0.06754405 0.025522888 0.25226521 0.14698865
000100 3c 68 8a bc 66 c2 0a 3e 3e 11 27 3d 67 66 31 be
       -0.016895406 0.1355072 0.040787928 -0.1732422
000110 2f 1b b6 3d c7 71 d7 3d da 9f ce bd d3 76 09 3e
       0.088919036 0.10519748 -0.10089083 0.13424234
000120 b9 6f 07 bd 1e 15 b6 bd c9 b6 00 be 6a 2c 24 bd
       -0.03306553 -0.088907465 -0.12569727 -0.04008142
000130 a2 88 d3 3d 9f f5 2a be e6 55 92 3c 3f fc 90 bd
       0.10328795 -0.1669526 0.017863225 -0.07079362
000140 9b 8c 17 3e 83 b2 23 3e 58 b8 05 3d 71 56 e4 bc
       0.1479973 0.15986066 0.032646507 -0.02787325
000150 27 61 54 3d 49 7a 15 be 8d 09 1a be 33 a0 e0 bd
       0.051850464 -0.1459743 -0.15042706 -0.109680556
000160 ef 75 02 3d 73 ce 07 bd 09 2a 15 be 64 a7 f9 bd
       0.03185075 -0.03315587 -0.14566816 -0.1219013
000170 b6 fd 1a 3e 9e 2a 27 3e d4 08 82 3d f7 68 dc bd
       0.15135846 0.16324851 0.0634934 -0.10762208
000180 30 f9 c2 bd 72 6f af bd da 1e 21 3e b4 59 73 be
       -0.09520185 -0.085661784 0.15734425 -0.23764688
000190 6f 2d 29 3e d6 1d 08 be c7 90 18 be de f3 0e be
       0.16521238 -0.13292632 -0.14898978 -0.13960215
0001a0 b7 8a a3 bd 08 eb 37 3e cd 0d ea 3d 44 1a 00 bd
       -0.07985442 0.17960751 0.114284135 -0.03127505
0001b0 ed 04 1a 3e 84 34 4d 3e 39 62 bd bd 79 98 6f 3d
       0.15040942 0.20039564 -0.0924725 0.05849502
0001c0 d3 4b 9d bd a9 f9 27 3e 4c 3a 5e 3d 9a 0b 05 3e
       -0.07680478 0.16403832 0.054254815 0.12992707
0001d0 3b 02 fb be 5d 65 37 3d 01 12 c0 3d f8 f4 8d be
       -0.4902514 0.044774402 0.09378434 -0.2772596
0001e0 01 bb 06 bf 0e ee 75 3b c8 73 5a 3e 47 0e bf 3c
       -0.52629095 0.0037525925 0.2133323 0.023322238
0001f0 27 1c 00 3e 6c 05 62 bd 64 28 26 3e 84 00 84 3d
       0.1251074 -0.055180952 0.16226345 0.06445411
000200 7a 47 9d 3d 7c 24 be bd 8f e6 2f 3e 2d db aa be
       0.07679649 -0.092843026 0.17177795 -0.33370343
000210 d2 69 5b bc a7 80 dd bd 71 06 d9 3d 6f c0 8d bd
       -0.013391929 -0.10815554 0.10596932 -0.069214694
000220 38 92 2e be be 9d 5b 3e 74 6c 95 3d 4a da 19 3d
       -0.17047966 0.21446893 0.072960764 0.037561692
000230 df 3b fc 3c 4d 9b 85 3d 30 aa a8 3d d5 e0 0b 3e
       0.030790268 0.06523762 0.08235586 0.13659985
000240 e3 1c d8 bc 6a ed fc 3c f5 12 04 be cc 38 8d 3b
       -0.026380962 0.030874927 -0.12897857 0.004309749
000250 8d 9f c6 be 9d 25 3c 3e 5b 5f 80 3e 1b ee c8 be
       -0.38793603 0.18373723 0.2507275 -0.3924416
000260 65 80 0c bf 9d a9 27 bd 38 24 60 3d f7 19 89 3e
       -0.54883415 -0.04093324 0.05472204 0.26777622
000270 24 ab e3 3d 46 60 f7 3d 60 30 ee 3d 9c 6f 31 3d
       0.11116627 0.120789096 0.116303205 0.04331933
000280 54 73 97 3d 09 1e bc bd f7 9d 21 be ea 7a c6 bd
       0.07395044 -0.09185416 -0.15782915 -0.09691413
000290 40 1a 2d 3e ee ba b1 bd ac d0 33 3d 80 45 0a 3c
       0.16904545 -0.08678232 0.043900177 0.008439422
0002a0 fa 44 82 bd 49 e2 76 bd 9d a0 50 3d e7 39 02 3e
       -0.063608125 -0.060274396 0.050934423 0.127174
0002b0 2a 8a d8 3c 7a 9c 19 be 22 7c 00 3d 6f 2a 2c 3e
       0.02643307 -0.15001097 0.031368382 0.16813062
0002c0 d3 83 02 3e a2 39 34 be 22 a9 13 3d 7d 95 f8 3c
       0.127456 -0.1760011 0.03604997 0.030344719
0002d0 8d 1f 3a bd af 35 32 be 94 73 89 3d 7e cb 24 bc
       -0.045440245 -0.17403291 0.06711498 -0.010058282
0002e0 94 4a e3 bd ea 89 cf 3d 5c 77 f6 3d 9b 6b 15 be
       -0.11098209 0.10133727 0.12034485 -0.1459183
0002f0 18 12 87 bc 64 fa 09 3d 1c 60 08 3e b1 8e 2e be
       -0.01648812 0.033686057 0.13317913 -0.1704662
000300 bb 8c 92 39 de 6a 3c 3e ef fd 70 3e b4 49 ae bd
       0.00027952142 0.18400142 0.23534368 -0.085101515
000310 9b e4 9e bd d6 3d 42 bd 04 57 2f be bf 4c 2a be
       -0.07758447 -0.047422253 -0.17123038 -0.16630839
000320 1c 2f 58 bd c5 1e 84 3e 6b 58 00 be ed ee fa 3d
       -0.052779302 0.25804725 -0.12533729 0.12252603
000330 4f 65 12 3e 42 e4 8c 3e 03 e0 c3 3d c8 7c 0d 3e
       0.14296459 0.27517897 0.09564211 0.13817132
000340 0f ed 2e bd 18 92 ee bc 07 af a9 3d 71 9b 01 3e
       -0.042706545 -0.029122397 0.08285337 0.12656952
000350 cf e7 60 be ce 37 cf 3d e6 dd f9 3d 02 c6 04 bf
       -0.21963428 0.10118066 0.12200527 -0.51864636
000360 1b 3f c2 be 17 8a 00 3e 46 61 17 3e 91 51 bc bd
       -0.3793877 0.12552677 0.147832 -0.09195245
000370 cb b2 b1 3d 91 16 de bd d1 8f 66 3e bf c1 42 3d
       0.0867668 -0.10844148 0.22515799 0.047548052
000380 42 fb 13 be 1f 42 5d 3d c2 10 7f 3d 0d 0c 16 3e
       -0.14451316 0.054018136 0.06227184 0.14653035
000390 80 7e 94 bc d5 79 03 3e 55 21 24 be 02 af 18 bd
       -0.018126726 0.12839444 -0.1602834 -0.037276275
0003a0 6e f4 2b bd 3c 7e d9 3d d0 21 33 3e c5 b6 30 3e
       -0.041981153 0.106197804 0.17493367 0.17257221
0003b0 b8 59 07 bd d6 3d 3f 3c ee c6 21 3e 37 9a ce 3c
       -0.033044547 0.011672458 0.15798542 0.02522002
0003c0 85 e1 07 be d4 d4 0d 3e bf 60 07 3e 83 11 66 3d
       -0.13269623 0.13850719 0.132205 0.056169044
0003d0 d4 df 00 3e 7a 2f 16 be 2e 44 6f 3d 58 5b d3 bd
       0.12585384 -0.14666548 0.05841463 -0.10320157
0003e0 0d b5 90 3b 87 7f 4d 3d 31 c7 72 3d f7 7f dd bc
       0.004416114 0.050170448 0.059271995 -0.027038557
0003f0 19 2b b9 bd 3e 4e ad bd 2d f9 b4 3c 64 1f ff 3d
       -0.09041423 -0.08462189 0.022091473 0.12457159

bias f4 [32]
000000 26 5b 11 3e 42 f9 70 3d cc 72 26 be 18 53 c7 3d
       0.14194927 0.05883146 -0.16254729 0.09732646
000010 82 f5 1a 3e 01 84 64 3b 18 4d e7 3d 29 eb c5 bc
       0.15132716 0.003486872 0.11294001 -0.024159985
000020 71 bc 28 3d 1e 76 a2 3c 5d 2c 12 3e fc 9a 48 3e
       0.041195337 0.019831713 0.14274736 0.19590372
000030 a5 48 08 be c2 ab 1c 3d f3 c8 1e 3e 86 6d dc 3d
       -0.13308962 0.03824974 0.15506344 0.107630774
000040 cf 1a 40 3d 48 49 ac 3d f2 85 8d 3d fb 06 0e 3e
       0.046900567 0.08412415 0.06910314 0.1386985
000050 94 45 44 bd 16 83 12 bd 7d ce 05 be d8 80 83 3d
       -0.047917917 -0.035769545 -0.1306705 0.06421059
000060 0f 99 44 bd c6 75 f9 3d 95 1c e0 3d 0c 4c fc 3c
       -0.04799753 0.121806666 0.109429516 0.03079798
000070 9d e4 c5 bd f4 db 0b 3e fc 88 16 3d 11 c2 a8 3d
       -0.09662745 0.13658124 0.036751732 0.0824014

weight f4 [1, 32]
000000 4c 53 43 be e0 ed df 3d 2b e8 85 bc 15 d3 02 3e
       -0.19074744 0.10934043 -0.016346058 0.12775834
000010 36 ba ec 3d 63 b8 d4 3c ad 4b bc 3d 0d 5d 62 3c
       0.115589544 0.025966829 0.091941215 0.01381613
000020 ea bf 22 3e 5f bd f0 3d 14 fe d9 3d 9e e6 a6 3d
       0.15893522 0.1175487 0.10644165 0.081494555
000030 8d c0 2b bd bf 5a bc 3c 21 27 a7 ba 3f 0f fb 3d
       -0.041931678 0.02299249 -0.001275275 0.12258767
000040 94 54 c0 3d 0a 50 5a bd e2 40 a9 bc e1 03 07 3e
       0.09391132 -0.053298987 -0.020660821 0.13185073
000050 99 d7 10 3e 7a 6f cb 3b a6 83 57 bd 5a 3b 90 bd
       0.14144744 0.0062083574 -0.052615784 -0.070425704
000060 04 93 32 bb a0 ac 71 be a6 8e 04 3e 83 de 14 3e
       -0.0027248273 -0.23601007 0.12945041 0.14538006
000070 a2 5f 15 3e 5b 72 de 3d 6d de 17 3e 7e cc ff 3d
       0.14587262 0.10861655 0.14830942 0.12490176
