models/patient0/srpo_model_for_patient_0_Critic.pth (torch, 22754 bytes, 11 tensors)

weight_ih_l0 f4 [64, 2]
00000000: f89e 98be e946 a4bb 5bc2 6abd a05d 7dbd
00000010: 6006 4cbd 3d70 d63d 41d7 68be d051 57be
00000020: 5f59 f13c 6b9c 213e c9b2 89bd eeaa 89be
00000030: 91d4 b43d 2dc1 cd3d 1548 e9bd 2bbc 09be
00000040: 61d2 03be 8e67 f03d 8bd3 0ebe f916 16bd
00000050: 0edd 943c 1a3d 933d 66b5 efbd 26fb f63c
00000060: 885c f5b9 46ab 92b9 02e4 a6be 752a 5dbe
00000070: 15aa 88be d25b 36be c5d1 bebc 88bb 39be
00000080: 6b8b b63b ab98 4cbc 74fc 72be 5c77 5ebe
00000090: d593 0cbe f8ad 28be db14 92be eac9 283e
000000a0: 6fe5 74be 1078 e23d ec52 1bbe cf47 ccbd
000000b0: 3fcb 973d 42db 84bd eb61 c8be f261 283e
000000c0: 8d56 14be 2702 90be 263e 31be dc0b ca3d
000000d0: cee2 693c ed24 e6bd 3452 963a 80e2 5e3e
000000e0: d869 13bd 0d58 2ebe d33a b6be 30c4 523e
000000f0: eee9 a23d 9c8f 17be 47cd 68be 5b55 c8bd
00000100: 6d51 3b3e 2918 4fbd 5e6f 1a3e 1be9 243e
00000110: aad1 b2be 4f8f 3c3e 7fe9 a93e 7c69 c83d
00000120: 197f 103e d3ac 2d3e 936f 333e a1f4 683e
00000130: e87c 96be c691 3e3d 9801 0ebe a328 dc3c
00000140: 6759 e13d 0429 8a3d a4fb 8cbe b039 38be
00000150: 7ac7 483e 7496 5a3e 9d37 7fbe 41c4 0f3e
00000160: c0d9 673d a79e dfbd eeec 303e 934e 133e
00000170: 8314 b73e 60b2 453e 626a abbc 3ad4 563e
00000180: 9971 6cbd 017e b33d 4f13 89be 3087 a53d
00000190: 7413 d8be 30d3 0a3d 5988 9cbe 92b7 96be
000001a0: 1eb5 d3bd f64c 0abe d9a7 1cbd 5663 14be
000001b0: 7b81 a4bb 9508 4ebe 77b5 2cbe b26e 5bbe
000001c0: efab d0be 0598 07be be66 06be fd3c 5cbc
000001d0: bf05 e0be aad5 e23d 3066 a4be af18 34be
000001e0: 7f09 b0be 1647 3bbe 46e3 ee3b f34e dbbc
000001f0: 6d7c 13be 0264 0d3e 958f 06be 5593 5fbe
-0.29808784 -0.005013336 -0.057314258 -0.061856866 -0.049810767 0.104706265 -0.22738363 -0.21027303
0.02946156 0.15782325 -0.06723554 -0.26888222 0.08829606 0.10046611 -0.11390702 -0.13450687
-0.12873222 0.117385015 -0.13947885 -0.036643002 0.018171813 0.071893886 -0.11704521 0.030149054
-0.00046798983 -0.000279749 -0.3259583 -0.21598227 -0.26692262 -0.17808464 -0.023293385 -0.18137944
0.005570819 -0.012487571 -0.23729116 -0.2172522 -0.13728268 -0.16472614 -0.28531536 0.16483274
-0.23915647 0.11058056 -0.15168351 -0.09974634 0.07411813 -0.064871326 -0.39137205 0.16443613
-0.14486142 -0.28126642 -0.17308864 0.09865543 0.014275266 -0.11237512 0.001146859 0.2176609
-0.035989612 -0.17025776 -0.35591754 0.20582652 0.07954775 -0.14800876 -0.22734557 -0.09781905
0.1829278 -0.05056015 0.15081546 0.16104548 -0.34925586 0.18414043 0.33185956 0.097857445
0.14110984 0.16960458 0.17523031 0.22749569 -0.2939217 0.04652574 -0.13867795 0.026874846
0.1100338 0.06746104 -0.27535737 -0.17990756 0.19607344 0.21346456 -0.24923559 0.14039709
0.056604147 -0.109189324 0.17277882 0.14385442 0.35757837 0.19306326 -0.02092475 0.20979396
-0.057725523 0.08764268 -0.26772544 0.080824256 -0.42202342 0.03389281 -0.30572775 -0.29436928
-0.1033728 -0.13505921 -0.03824601 -0.14491019 -0.005020318 -0.20120461 -0.16866098 -0.21428946
-0.40756175 -0.13241585 -0.1312513 -0.013442275 -0.43754384 0.110759094 -0.32109213 -0.17587541
-0.34382245 -0.18288836 0.0072902767 -0.026771044 -0.14402933 0.13807681 -0.1314071 -0.21833546

weight_hh_l0 f4 [64, 16]
00000000: fbd6 693e e535 3f3e 342b 053e e478 e9bd
00000010: 3595 f53a ab6d 0d3d 62f3 0d3e 1861 863e
00000020: f415 783d 6a2a f73c 3faa f9bd 147e 133e
00000030: 9faa 3a3e 18b9 86be ddbf 32be 29d1 b5bd
00000040: 39da 4dbe 8eca e53c edb1 253e f49a a4bd
00000050: 8dbd 0fbe c809 0cbe 2397 16be 2e18 453e
00000060: 071f 80be 9d92 2b3e c7e4 9cbe 77bf 473e
00000070: 1499 853e 3d2b 03bd 9709 7ebc 4f34 7a3d
00000080: 0376 81bc 2efa 173e 09a4 07be 7183 383e
00000090: 1de5 f63d 63b2 063e 423b e63d e103 283e
000000a0: 9dd0 79be 6719 693e 9d96 133e 2eaf d1bd
000000b0: 9c91 703e ba32 7abc 25a0 84be ad62 8b3e
000000c0: fcbd 78be 15df 6fbd c399 22bd 61a8 883d
000000d0: 305c 95be 611e 40be 5053 863e 0ca1 febd
000000e0: d547 98be e2b2 983d 7a6c 673d 9371 88bd
000000f0: 5b0b 733e bb41 99be 724d d7bd dc62 1a3e
00000100: 460e 12be 97df 6dbe f9b9 df3d d7dd c83c
00000110: 93e8 0dbe 6cd2 8ebc 90b9 07bd 56c7 1dbd
00000120: bb69 83be 0536 ec3d ec4c 1cbe b09c 14bd
00000130: 2647 36be 8bf0 30be 7c9c 3d3d 0be6 0d3d
00000140: efe5 a8be beed 23be 9046 513d 3288 9bbe
00000150: 2a99 413e 0428 16be e2bb a13e 85a6 08be
00000160: 5bf8 a8bc 7935 7f3e 2483 10be 8a03 90bd
00000170: 1efe 9d3d 1dd2 df3d f5be 95bd f178 8c3d
00000180: b572 11bd b095 b2bd 5a3e 7a3e 0f05 c03d
00000190: 5919 98be e6bd b93d f163 903e 9f4e 123e
000001a0: 928d 71bc 4dcc 23bd e35a 073e cf5f 91bd
000001b0: ab56 8b3e 9096 47bd 4dd7 263e 967c a33d
000001c0: 378f 5b3e d9ae d6bd b805 04be bb14 acbe
000001d0: f7c4 713e 26da 313e 38dc 583d 3f17 803d
000001e0: 96c1 fcbd 327c e83d d19b c0bd 6411 97bd
000001f0: 887f 00bd e4cb d1bd ea50 343d d70d 6d3e
00000200: 033a cf3c 3ad3 86bd 57a9 023e 4e7e 1bbe
00000210: 727f 35be bf0e 8fbc 6302 2b3e c4b5 883e
00000220: 97fc 74be 12fc 1bbd 0065 8fbe 2a42 773e
00000230: 2133 5b3e 83b3 a3bd 1bbf 183d 1fdf 723e
00000240: 8b0a f3bb e758 f2bd 87b4 febd f179 aebe
00000250: ee07 bcbd 5bb8 3b3e ccd4 c13d 1ea7 7bbe
00000260: 1c09 6c3c da2b 43be ce78 88be fdb9 e93d
00000270: 775c 27be 1d5f 523e bd0d bb3d 0523 8c3d
00000280: 35f5 633b 80a1 52be 5413 fdbc 4528 ba3b
00000290: a37b 8ebe 69e6 85be c8c9 2f3e 02ef 93bd
000002a0: 8100 b53c 3272 74bd 5bbf c33d c4bb 9c3e
000002b0: a0ac a93e 19f6 b2be d68f 8cbe 3375 2f3e
000002c0: 1c8d 6bbe dd4d 31be ca4e 22be 74d1 7b3d
000002d0: 0acd 403e bbed dbbc 9ad4 dd3d 48b1 58be
000002e0: a4a0 3cbe 58b0 7a3e e83f 323d 60d6 2ebd
000002f0: e168 3a3e b982 4fbe e2a6 83be c3f7 22be
00000300: 0e8a 973c 79fe d7bd d65e 4c3e 46b6 00be
00000310: bff1 3b3e 8d14 8cbe 1521 b6bd 0ac8 28be
00000320: 328d 4cbe 0c0d a93e 7fb5 a7be 7ed7 ec3d
00000330: a7c8 573e 0649 95bd 6707 7cbe a151 f73d
00000340: a659 7e3d d808 dcbd 0c38 f6bd 9274 9c3d
00000350: 91ea 80bd 3143 17be 1498 5abe ad1c b5be
00000360: 2451 38bd e60c 7bbe 5cdc a33d 5249 873e
00000370: 04e5 2d3c cbd8 e7bd 0103 b53c 7457 2c3e
00000380: 2b28 46ba bc39 183e 8c55 eebd 3f8e d73d
00000390: a1ae 5d3c 1f72 1f3e a949 e63d 656b 53be
000003a0: 2c58 5f3c 33bb d4bd 1be4 06bd 605f 3a3e
000003b0: c737 823e 1749 053e af0e 4dbd 1c56 073e
000003c0: ad9d 8c3d ab09 693c 0f0f c73e 7f43 d83d
000003d0: 2378 ecbd 08fd af3d db53 94bd 4d5d 22be
000003e0: 5314 4e3e 6c99 24be 11ad 0b3d 6c0f 743e
000003f0: 4edc c0bd 61a5 3abe 1a3c 92be 043d 843e
0.22835915 0.18672903 0.13004762 -0.11400011 0.0018736484 0.034528416 0.13862374 0.26245952
0.06056781 0.030171592 -0.12190675 0.14403564 0.1822915 -0.2631309 -0.17456003 -0.08877785
-0.20102777 0.028050687 0.16181155 -0.080373675 -0.14037152 -0.13675606 -0.14706092 0.19247505
-0.25023672 0.16755147 -0.30643293 0.19506632 0.26093352 -0.032023657 -0.015505216 0.06108504
-0.015803343 0.1484153 -0.13246168 0.18018891 0.12055419 0.13153987 0.11241771 0.1640773
-0.24395986 0.22763596 0.14412923 -0.10238491 0.23493046 -0.015270883 -0.2590343 0.2722372
-0.24291223 -0.058562357 -0.03969742 0.06672741 -0.29171896 -0.18761589 0.26235437 -0.12433061
-0.29742303 0.07455994 0.056499936 -0.066622876 0.237348 -0.2993296 -0.105128184 0.15076774
-0.14263257 -0.23229824 0.10924143 0.024519844 -0.13858251 -0.017434321 -0.03313595 -0.03852018
-0.25666603 0.11533741 -0.15263718 -0.03628224 -0.17800578 -0.1727926 0.046291813 0.034643214
-0.32987925 -0.1600866 0.051092684 -0.30377346 0.18906084 -0.14663702 0.31588656 -0.13344772
-0.020626238 0.24922742 -0.14112526 -0.07031925 0.07714485 0.10928748 -0.07311813 0.06859005
-0.035509784 -0.08719957 0.24437848 0.09375965 -0.2970684 0.090694234 0.2820125 0.14287804
-0.014743226 -0.03998976 0.13218264 -0.07098352 0.2721456 -0.048727572 0.16293068 0.07982747
0.21441351 -0.10482568 -0.12892807 -0.33609566 0.23610292 0.17368373 0.052944392 0.06254434
-0.12341611 0.113518134 -0.094047196 -0.07376364 -0.031371623 -0.10243967 0.04402248 0.2314981
0.025296217 -0.06583257 0.1275991 -0.151849 -0.17724398 -0.017463086 0.16700129 0.26701176
-0.2392448 -0.03808219 -0.28006744 0.24146333 0.21406223 -0.079932235 0.037291627 0.23717926
-0.0074170283 -0.11833363 -0.124367766 -0.3407741 -0.091812 0.18332045 0.09464416 -0.24575469
0.014406469 -0.19059697 -0.26654667 0.114124276 -0.16343866 0.20544095 0.0913348 0.06842617
0.0034783606 -0.2056942 -0.030893005 0.00568107 -0.27828702 -0.26152351 0.17166817 -0.072233215
0.022094967 -0.059679218 0.095579825 0.30612004 0.33139515 -0.34953383 -0.27453488 0.17134552
-0.23003048 -0.17314859 -0.15850368 0.061479047 0.18828216 -0.026846757 0.10831566 -0.21161377
-0.18420655 0.24481332 0.043517977 -0.042684913 0.1820407 -0.2026471 -0.2571326 -0.15914826
0.018498447 -0.10546584 0.19958052 -0.12569532 0.18353938 -0.2735943 -0.08893029 -0.16482559
-0.19975737 0.33017766 -0.32755658 0.115645394 0.21072637 -0.07289319 -0.24612199 0.12076116
0.062097214 -0.10743874 -0.12022409 0.076394215 -0.0629474 -0.14771725 -0.21347076 -0.3537344
-0.044999257 -0.24516639 0.080010146 0.26423126 0.010613684 -0.11320647 0.022096159 0.16830236
-0.0007559086 0.14865774 -0.116374105 0.10525178 0.013530404 0.15570877 0.11244518 -0.20646437
0.013631862 -0.10387268 -0.032932382 0.18200445 0.2543318 0.13016163 -0.05006283 0.13216442
0.06866012 0.014223496 0.38878676 0.10559749 -0.11546352 0.08593184 -0.07242557 -0.15855904
0.2012494 -0.16074151 0.034100596 0.23834008 -0.0941702 -0.1822715 -0.2856148 0.258278

bias_ih_l0 f4 [64]
00000000: ab46 10be fab1 1cbe 2163 99bd 5934 3bbd
00000010: 09a0 673e f058 e2bd 3bba abbd 9845 53be
00000020: 2f07 8fbd 47d7 31be c045 223e d3db f63d
00000030: caa6 b63c 0042 1abe 2d19 933d 91b9 68be
00000040: 66af c63d 78b1 533e d043 14be 1554 953e
00000050: 6ee7 113e 8518 cebd f19c 18bd 4af6 53be
00000060: c596 983d 27df a13d 74e1 5b3e ff6c c53d
00000070: c900 803e 0ec9 fb3d ad0c 2b3e 92ca a23c
00000080: ed72 bcbc a110 47be a02e e9bd 3d3c 9fbd
00000090: 144a 823e 28cf febd cc0e 753e 0671 f33d
000000a0: 2310 42bd 44be 2d3e f5d9 eabd 99a2 113e
000000b0: 178e c43c 2e79 243e 098c 11be 7c15 123e
000000c0: 36cf 783e 50ab 2d3e 56f5 373e 0ff1 603e
000000d0: 8bac 003d 6b0a 33bd 3364 edbd 0071 35bd
000000e0: 26aa 0dbe 1498 7c3c 6070 1f3b 01d3 813d
000000f0: 0886 1e3d 1864 123e 6649 99bd e6a1 c33d
-0.14089458 -0.15302268 -0.074896105 -0.04570422 0.22619642 -0.1105212 -0.0838513 -0.20632017
-0.06983792 -0.17367278 0.1584692 0.12053647 0.022296328 -0.1506424 0.07182536 -0.22727038
0.09701423 0.20673168 -0.14478993 0.29165712 0.1424844 -0.100632705 -0.037259046 -0.2069942
0.07450632 0.07903891 0.21472722 0.0963993 0.250006 0.122942075 0.16704054 0.019871984
-0.02300402 -0.19439937 -0.11385846 -0.077751614 0.25447142 -0.12441856 0.23931426 0.11886792
-0.04737867 0.16967112 -0.11467353 0.14222182 0.023993535 0.16061851 -0.14213575 0.14266008
0.24297795 0.16959882 0.17964682 0.21966957 0.03141455 -0.043711107 -0.11591377 -0.04429722
-0.13834438 0.015417118 0.0024328455 0.06339074 0.03870204 0.14295995 -0.07484703 0.09552364

bias_hh_l0 f4 [64]
00000000: d93c 85bd bfce 973e 2a34 5f3e ead9 d43d
00000010: 75c0 153d 0dfa 783e 0508 a43d 6971 8a3d
00000020: 7db2 833d 917e 1d3d f0b4 593e d564 043e
00000030: 3235 6a3e 703e 663e 4101 8b3e 77ee 13be
00000040: 7c3b 243d aace d73a eba5 253e 9c54 39be
00000050: 5c8e 0f3e 3d19 653e e160 0cbe 2b19 d63d
00000060: a260 8a3e 3b0f 00be 1301 cabd c527 6c3e
00000070: 0610 aa3e b2aa 1ebe d7cc e03d 77cc 503e
00000080: 8720 20be 0b5d 50be 5578 3e3e e58c 43be
00000090: 1e96 273c 520f d7bd e790 653e 514b 16bd
000000a0: 316e 4cbe 5e2b f1bd 1d00 5fbe c0b6 d83d
000000b0: 1f3d 2d3e 2fd7 b3bc 364e 0d3e 4a27 533e
000000c0: 292d c33c 04ba 0ebe f431 1c3d 2529 ac3d
000000d0: 9529 013e 87c9 913e 79e6 aebd f8d3 913e
000000e0: 308e 6abd f779 c93d 6017 5d3d 7d45 9d3e
000000f0: 8d2b 113e 3619 543e 8af8 c9bd 9a6e 323e
-0.065057464 0.29649922 0.21797243 0.10393126 0.036560494 0.24314137 0.08009342 0.067599125
0.06430528 0.03845078 0.21260428 0.1292909 0.22871855 0.22484756 0.27149394 -0.14446436
0.04009579 0.0016464789 0.16176574 -0.18098682 0.1401915 0.22372909 -0.13708831 0.10454019
0.2702685 -0.1250581 -0.09863486 0.23062046 0.3321535 -0.15494803 0.1097657 0.20390497
-0.15637408 -0.20347993 0.1860059 -0.19096716 0.010228662 -0.10500969 0.22418557 -0.03669292
-0.1996391 -0.1177585 -0.21777387 0.10581732 0.16917847 -0.021953193 0.13799366 0.20620456
0.023825245 -0.13938147 0.038133577 0.08406285 0.12613519 0.28474066 -0.08540053 0.28482032
-0.057264507 0.09837716 0.05397737 0.30717078 0.1417677 0.20712742 -0.09861858 0.17425004

weight f4 [32, 16]
00000000: 6268 3cbd fab9 79bd f017 833e 82ec 5dbe
00000010: 9733 72be 0909 02be 2ad8 e1bd c7cf 7f3e
00000020: 8630 60be 3127 3e3e 38d5 ecbd 03b6 ec3d
00000030: 23b8 29be bc44 56be 8d89 e4bd 00fd 54bd
00000040: 30c2 9bbd 207f ea3d 5824 203e acba 83bd
00000050: 3c4b 813d f89f 0b3e a068 79bc 14f8 debd
00000060: 9a36 123e ec61 203e 0e2d 25be 34db 29be
00000070: 405f 743c 9c3f 543e 846a 68be 5068 ebbd
00000080: 88f1 72bb 6518 5dbe cd00 0e3e aef8 8abe
00000090: 866d 833d 487f bbbe 7b39 a43e b4ee 613e
000000a0: 8856 a9be ad50 093e 38a7 dd3b 0cb0 9b3e
000000b0: f744 a03e 0b99 3cbe ad7f 4fbe 22cb 4cbd
000000c0: 5e75 64be 9354 ad3c bd10 ce3d b050 05bd
000000d0: a98d fcbd 4895 1d3e 8c49 463e 5e5c a33e
000000e0: d829 94be 0a2b 7e3e 2439 22be 32cb 833e
000000f0: 4d0d c6bd face c5bd e1ac 73be de0c d2bd
00000100: 2ddf 18be c821 58be 384f af3d 6970 fcbd
00000110: bcb9 1fbe ca6b 50be 65b4 81bd 62cf 7d3b
00000120: 52d1 80bd 1b18 b33d f95a 3fbe a5e1 b83e
00000130: 428c 5e3e 4789 82be 1131 a3bd c88c 7f3e
00000140: ab1a 45be 32c2 5fbd 789e 4bbd c534 e83c
00000150: 5a55 57be 7928 2f3e aa51 5b3e dabb 133d
00000160: 0e28 54bd c8d8 873e 46a6 64be f711 433e
00000170: b116 0a3e 6b00 0e3e 37be 5bbe d0ac 23be
00000180: ce19 93be f363 70be e08d b43e b96a e7be
00000190: 7a2e 7c3d d1cc a0be 7761 14bd f2ee 833d
000001a0: 0472 9ebe 7c82 b33e 3248 49bd a68a 553e
000001b0: da1e 4bbd 9b9a bbbe 3a03 6dbe 1ca3 8b39
000001c0: 40d7 6d3d c4f2 bf3d ca4b 60be c4ec f9bd
000001d0: 5e38 6a3e 167c 22be 60fc 39bd f8b2 e1bd
000001e0: d6e9 723e 30f0 66bd 8c64 f03d b400 5e3e
000001f0: e81a 293e 7023 86bc a035 41be 68e4 2bbd
00000200: c8e7 10bd 48de 1f3d e06a 6a3c 80a4 233d
00000210: ead2 673e 1c7d ef3d c25f 483e 3069 cabd
00000220: 906a ffbc e60d 123e 78b7 3f3e d601 78be
00000230: c097 ddbc 00d4 e6bc da90 25be b0cd 3c3d
00000240: 660e 51be 69f1 153d 9c51 0b3e f42c 8bbe
00000250: f29a ba3c fdf6 a6bd 39c1 723e d730 263e
00000260: 548b 00be 357f e5bd a1ca 88be ddce 36bd
00000270: 9ccb 21be f723 1f3c aa69 81be 29ff 13bc
00000280: 7c38 ba3d 226b babd c739 cf3d 174d 92bd
00000290: 611a 95be 835e 8ebe b9f0 303d 827d d1bd
000002a0: ea39 57be 99ee a33e ba03 91be 6a93 8d3e
000002b0: 3f12 103e 0246 24bc f086 a3be ec36 c13d
000002c0: 4059 2b3d f0d4 8cbd ecac 693e d998 ffbd
000002d0: 5790 7ebe 847d 7bbd bfd1 863e 50a4 413e
000002e0: 43a9 64be e40f 923e fe84 b0be 3e54 a23e
000002f0: e07d b1bc e3a9 9dbe fba2 24be f4c5 633e
00000300: 3ccb cbbc 4724 56be 8ecc 27bd d18e 20bd
00000310: 9a40 6f3d ed6f 55be b16f 6e3e f5a5 873c
00000320: ffbd 683d f0e0 cc3d bd7f 5bbe 6d9d 1f3e
00000330: 8668 bf3e 0241 93bd e316 fcbd 4038 563e
00000340: 6052 0c3e 50ed cc3d 94bc cdbd 0097 52bd
00000350: 0c9a dd3d dc68 933d e060 53bc b85f f03d
00000360: b2a4 5cbe 5e20 41be 2437 8e3d d0db c13c
00000370: c822 25bd d062 013e 160c 333e d0ba eb3d
00000380: 8ebc 2f3d 4371 9f3d 8722 a33d b961 d3bd
00000390: f7b8 07be c47e 0ebd 5235 5a3e 7cc9 42be
000003a0: 9250 67bd 3e85 353d b0b3 b43c 8a65 5a3e
000003b0: a803 913e c44b ff3d 1ea9 91be 722d 8b3d
000003c0: 802d 043d c02d 1e3c e0e8 65bc 9438 383e
000003d0: de3a 203e 42c9 14be 00e3 a3bc 2247 28be
000003e0: c8e8 123d 40a4 473e e2ff 623e 883c 583d
000003f0: 082e 8cbd 828f 1abe 78e4 ae3d 841d 6b3e
-0.045997985 -0.060968377 0.256042 -0.21672252 -0.23652492 -0.12698759 -0.11027558 0.24981605
-0.2189351 0.18569638 -0.11564106 0.115581535 -0.16574149 -0.20924658 -0.11159048 -0.051999092
-0.07605398 0.114500284 0.15638864 -0.06432089 0.06313178 0.13635242 -0.015222698 -0.10887161
0.14278641 0.15662354 -0.16130468 -0.16587526 0.0149152875 0.2072739 -0.22696882 -0.114945054
-0.0037070233 -0.21591337 0.13867493 -0.27142853 0.06417374 -0.36620545 0.32075104 0.22063714
-0.3307383 0.13409682 0.006764319 0.3040775 0.31302616 -0.18417756 -0.20263548 -0.04999841
-0.22310397 0.021158492 0.10061786 -0.032547653 -0.12331707 0.15388978 0.19363993 0.31906408
-0.28938174 0.24821106 -0.1584211 0.25740963 -0.09670506 -0.09658618 -0.23796417 -0.102563605
-0.14928885 -0.21106637 0.08560032 -0.12326128 -0.15598196 -0.20353618 -0.06333236 0.0038728346
-0.06289925 0.08744832 -0.18687047 0.36109653 0.21733192 -0.2549536 -0.07968343 0.24956048
-0.19248454 -0.05462856 -0.049711674 0.028345475 -0.21028653 0.17105283 0.21417871 0.03606782
-0.05179601 0.26532578 -0.22329053 0.19049822 0.13485219 0.13867347 -0.2145928 -0.15983891
-0.28730625 -0.23475628 0.35264492 -0.4519861 0.06156776 -0.31406263 -0.036225762 0.064420596
-0.30946362 0.3506049 -0.049141116 0.20853671 -0.04958997 -0.36641392 -0.23145762 0.00026633672
0.058066607 0.09372476 -0.21903911 -0.122033626 0.22873065 -0.15867648 -0.0454067 -0.11020464
0.23722014 -0.056381404 0.11737928 0.21679956 0.1651417 -0.01637432 -0.18868113 -0.041965872
-0.035377294 0.039030343 0.014307708 0.0399518 0.22639051 0.116937846 0.19567779 -0.09883344
-0.031178743 0.14263114 0.18722332 -0.2421945 -0.0270499 -0.028177261 -0.16168538 0.046094596
-0.20415649 0.03660718 0.1360535 -0.27182734 0.022778962 -0.08152578 0.23706521 0.16229568
-0.1255315 -0.112059034 -0.26717094 -0.044630874 -0.15800327 0.0097131645 -0.25275928 -0.009033003
0.09092805 -0.09102465 0.10118442 -0.0714361 -0.29121688 -0.27806482 0.04319832 -0.10229017
-0.21018186 0.32017973 -0.28323156 0.2765153 0.1406946 -0.010026457 -0.31938887 0.09434304
0.041833162 -0.06876552 0.2281987 -0.12480325 -0.24859749 -0.061398998 0.263319 0.18910336
-0.22330193 0.2852775 -0.34476465 0.31704897 -0.021666467 -0.30793676 -0.16077797 0.22243482
-0.024877183 -0.20912276 -0.040966563 -0.0391987 0.05841122 -0.20843478 0.23284794 0.016558627
0.05682182 0.10003841 -0.21435447 0.15587397 0.37384433 -0.07190134 -0.12309053 0.20919895
0.13703299 0.10006201 -0.10045734 -0.051413536 0.10820398 0.07197735 -0.012901515 0.11737007
-0.21547201 -0.18860003 0.06944111 0.023664385 -0.040316373 0.1263535 0.17485079 0.11510241
0.04290443 0.07785275 0.0796557 -0.103213735 -0.13254152 -0.034788862 0.21309403 -0.19022173
-0.056473322 0.044316523 0.022058338 0.21327797 0.28323102 0.12465623 -0.2844934 0.067957774
0.032269955 0.009654462 -0.0140325725 0.17990333 0.15647456 -0.14529899 -0.020005703 -0.16433385
0.03586653 0.1949625 0.22167924 0.052792102 -0.06844717 -0.15093806 0.08539671 0.22960478

bias f4 [32]
00000000: 3112 7b3e 3ec5 0bbe 766a 4abd e61f 473d
00000010: 5400 663c 8f32 0ebe 5531 c63d 58a5 92bd
00000020: 7c6a 01be da7e 8fbc ae99 263e 617d 863e
00000030: 0e4d 8e3e 96c9 29be 513e 073e faac 45be
00000040: fd3d 50be a96b 573d d4de 733e 32c1 7c3d
00000050: f076 85bd dc3b 243e 3dc3 8d3e 3e25 b03d
00000060: 9ec2 2bbe 02b6 983e 60f9 8bbc f985 33bd
00000070: 92eb 36bd dfd9 ac3c a2b1 8c3e e053 3ebe
0.24518658 -0.1364946 -0.049417935 0.048614405 0.014038164 -0.13886474 0.09677378 -0.07160443
-0.12638277 -0.017516542 0.16269562 0.26267532 0.27793163 -0.16580805 0.13207366 -0.19304267
-0.20336147 0.052592907 0.23815471 0.061707683 -0.06516826 0.1603846 0.27688017 0.086008534
-0.1677346 0.2982636 -0.017086685 -0.04382894 -0.04465825 0.021099983 0.27479273 -0.18586683

weight f4 [32, 32]
00000000: 5106 953d 92d8 923d 85ac f2bd 44f1 463b
00000010: b0a1 0a3e 2518 3f3d 3513 dcbd 79db eb3d
00000020: f909 12bc 994a 80bd 288b 0bbe 6f7d e5bc
00000030: da80 253d 8e16 f1bd d6e3 323e 0859 ce3d
00000040: d701 d53c 986b e83d 2e89 0b3e ea69 f7bd
00000050: f2b2 e53d 4a81 5ebd 8384 f23d 9338 00be
00000060: 7f6f 1d3d 8613 043e 8462 ea3d 884c b2bd
00000070: f26f eebc 659d 9c3b 7b4a 223e 5e55 b4bd
00000080: 6d4f d3bd 5721 e0bc 5f2a c53d ed75 003e
00000090: f9aa d83d a677 e7bd 18c5 423e 333b 173e
000000a0: c84b eebc e467 343e 9f14 233e 9dd2 803e
000000b0: 3743 59bd ff6b 103e 1d3e c3bd 8662 363c
000000c0: ef58 f23d 1afe 9dbd 57bd 583e f5f3 713d
000000d0: 6250 32bd d7dc a43e cc45 2c3e 97ea 213e
000000e0: 08a3 2d3c c70d e33d 50ed 4cbb 54cc b8bd
000000f0: d05f 303e be20 bb3d 9d01 223e 418f 2fbe
00000100: 84a5 d5bd 5ad6 2f3d 8c33 edbd 0a92 a4bd
00000110: 1f5b b23c 1cbf 693d 4b7d d6bd f027 92bd
00000120: 9e3a f7bd e938 ee3d 864b 71bc 4557 143e
00000130: 6290 4abd 7064 e6bc 644f a1bd 9982 1cbe
00000140: 4495 4e3d 24d4 8b3d c9e7 dbbd dd84 c9bd
00000150: bdf2 07be dd6e 243d 4aec 4dbd b34f 21bd
00000160: 8028 2d3e 6698 4f3d 1feb 17be b14e 22be
00000170: 476d cbbd 1eab 19be 332e 603d 991c 23bd
00000180: bd16 c8bd 74a1 0bbe 889f 06be bfda d7bc
00000190: 9349 09bd b98a 92bd 31f9 d33d 14a6 b83d
000001a0: 3b48 a1bd 197c 1c3e d2f4 df3d 68d3 d63d
000001b0: 2c32 453d 5ba7 fabd 5f27 db3c 3b17 f3bc
000001c0: 863e 25bd 13df 27be a91a 0fbe c70d 82bd
000001d0: e8c5 ef3d 6be2 a73d 91bf debd 2b5a 543d
000001e0: e93e 0f3d 2f42 30be b3d8 203e 5b92 e43c
000001f0: 1335 d0bd 2d3c eb3d dd98 b33d 4d2e e2bd
00000200: 392a 92bd 8c36 e3bd 8853 33be d81d c33c
00000210: 8087 63bd b02c 2fbe dc5a d1bd f361 a33d
00000220: 9340 e43d 7d09 2a3e 815c 4d3d 9814 0fbe
00000230: 6ca6 fbbd 65bb d2bd 48cb 31be cd56 6f3d
00000240: 9c31 f2bd f014 f4bd 2d44 a9bd 92d0 53bd
00000250: aab9 8ebc 2987 9b3d 1340 9dbd ec8e 98ba
00000260: 6991 9ebc c42f bfbc cbf8 3dbd 26da 8e3d
00000270: 9542 de3c cd52 6b3d 2879 0bbe 509e d73d
00000280: 5eab edbd 1687 383d ba1a 9cbd 665f 263e
00000290: 187b 24be b677 ee3b 3d37 42bd d283 e13d
000002a0: 2e2e fd3d 04eb 18be 1eeb 243e 10c1 a8bd
000002b0: b1dc 25be 3642 273e 2201 8cbd 53cc fcbd
000002c0: 7d7c aebd eee9 d9bd ebfb 483a 804a e3bd
000002d0: a3a3 c23d 35e4 23be b667 18be 8876 ef3c
000002e0: 6830 ebbd 0c2c 66bd 3a28 dd3d 0706 683b
000002f0: 8a68 15be b5ca 373c 153c d93d 2d63 9bbb
00000300: 8ed6 1a3e 66a3 763d 23d3 9a3c 3bcd 793e
00000310: 5112 503d 4591 683e 8ab2 043d 4cc9 2a3c
00000320: c466 e5bc e895 9b3d 1abc 313e daa2 a83d
00000330: e681 8c3e 5e7d 1d3e db99 ba3c a707 113e
00000340: 0eac 59bc 4726 7d3c 352b 673d 17e0 e53d
00000350: 94cf 743d 9510 103d eb4d 2c3e 1f2c 153d
00000360: faa7 ed3d 409e 733d e1f5 12be 0e9a ad3a
00000370: c0c4 563d b7c4 823e b546 743e 96c7 30be
00000380: dcb4 e93d ca2a b33d bfad 9a3c 9eb4 e13d
00000390: e861 41be 070b b53d 91d1 e1bc 619c 5b3c
000003a0: df57 01be d932 013e 1940 eabb 1393 08bd
000003b0: 71b7 32be de68 233e 359d f33c 87e8 103e
000003c0: 7860 21bd 8493 c7bd a0f7 e2bc 439d f13c
000003d0: 126f b73d 2e25 673c 87a2 903d e2c1 27be
000003e0: 4a70 f8bd 7aa4 193e bd3c 213d dd92 1cbe
000003f0: fe2b dfbd 420f 043e 3728 bfbc d093 de3c
0.072765954 0.07170214 -0.11849312 0.0030356208 0.13538241 0.046653885 -0.10745851 0.115164705
-0.0089135105 -0.062642284 -0.13627303 -0.028013913 0.040406086 -0.1177188 0.17469725 0.10075575
0.026001854 0.11348647 0.13626549 -0.120807484 0.11215772 -0.05432252 0.11841681 -0.12521581
0.03843641 0.12898073 0.114445716 -0.087060034 -0.029106114 0.004779505 0.15848725 -0.08805345
-0.10317884 -0.027359648 0.09627222 0.12544985 0.105794854 -0.11302118 0.19020498 0.14768676
-0.02908887 0.17617756 0.15925835 0.25160685 -0.053042617 0.14103697 -0.095333315 0.011131888
0.11833369 -0.07714482 0.21165977 0.059070546 -0.04353369 0.32199737 0.168235 0.15812145
0.010597952 0.11086612 -0.003126938 -0.090233475 0.1722405 0.091371045 0.15820928 -0.17144491
-0.1043196 0.04292903 -0.115820974 -0.08035667 0.021771966 0.05706702 -0.104731165 -0.07136524
-0.12071727 0.116319485 -0.014727479 0.14486416 -0.0494541 -0.028124064 -0.07876471 -0.15284194
0.05043532 0.06827572 -0.10737569 -0.09839795 -0.13276191 0.04014479 -0.05027417 -0.039382648
0.16909981 0.050682448 -0.14835785 -0.15850331 -0.099329524 -0.15006682 0.05473156 -0.039822195
-0.09769962 -0.13635808 -0.13146794 -0.026349423 -0.03351743 -0.071553655 0.10350264 0.09016052
-0.07875105 0.15281714 0.10935368 0.10489541 0.04814355 -0.12238952 0.026752172 -0.029674163
-0.04034283 -0.1639369 -0.13975014 -0.06350284 0.117076695 0.08197483 -0.10876382 0.051843803
0.034972105 -0.17212747 0.15707664 0.027901819 -0.10166373 0.11486087 0.08769391 -0.110439874
-0.071369596 -0.11094388 -0.17512333 0.023817942 -0.055549145 -0.1710689 -0.10222408 0.07977667
0.11145129 0.16605182 0.050137047 -0.139727 -0.12287602 -0.10289649 -0.17362702 0.05843239
-0.118258685 -0.11918056 -0.082649566 -0.05171258 -0.017422516 0.07594139 -0.07678237 -0.0011639274
-0.019356446 -0.023338206 -0.046379846 0.06975202 0.027131358 0.05745201 -0.13620436 0.105282426
-0.11604951 0.045050703 -0.07622285 0.16247329 -0.16062582 0.0072774542 -0.04741596 0.11011471
0.12362324 -0.14933401 0.16105315 -0.08239949 -0.16197468 0.16333851 -0.068361536 -0.12343659
-0.08519838 -0.10640322 0.0007666933 -0.11098194 0.095038675 -0.16005023 -0.14883313 0.029231325
-0.11483842 -0.05619435 0.10798688 0.0035403983 -0.1459066 0.011217763 0.10607163 -0.0047420473
0.15120909 0.060214423 0.018899506 0.24394695 0.050798718 0.22711666 0.03239683 0.0104239695
-0.028003104 0.07596952 0.17356911 0.082341865 0.27442855 0.15379855 0.022778442 0.14163075
-0.01328565 0.015451021 0.05643769 0.11224382 0.059768274 0.035172064 0.16826598 0.03641903
0.116043046 0.05947709 -0.14351608 0.0013244764 0.05243373 0.25540707 0.23855098 -0.17263636
0.11411449 0.08748396 0.018881677 0.11020778 -0.18885005 0.08839994 -0.02756575 0.013403983
-0.12631176 0.12617053 -0.0071487543 -0.033343386 -0.1745279 0.15957972 0.029738048 0.14151202
-0.03939864 -0.09744933 -0.027705967 0.029493934 0.08956732 0.014107985 0.0706225 -0.16382554
-0.121307924 0.15004149 0.039364565 -0.15290399 -0.10897063 0.12896445 -0.023334606 0.027170092

bias f4 [32]
00000000: 2b64 d43d 3dca 5f3d 1981 c03a 2fc6 9abd
00000010: 928b 30bd 8964 babc 1c84 d43c a747 bdbc
00000020: 0654 813d a77f d3bd da55 003d f251 743e
00000030: 473c cbbd fdfc 1c3e 1425 57bc 8f4c 023e
00000040: d38e a13c c82d 1bbe 3af3 eebd ad7c fcbd
00000050: 6dc1 babc 78e0 c33d a6af 8fbd 7180 5c3e
00000060: 4c6b 703d 9a58 b0bd a9fc 97bd 035b fe3b
00000070: a63c 153e 71db af3d 72a1 e0bd d680 a4bd
0.10370668 0.05463623 0.0014686912 -0.07557332 -0.043101855 -0.022753017 0.0259419 -0.023105456
0.06314854 -0.10327082 0.031331874 0.23859385 -0.09923606 0.15330882 -0.013131399 0.12724517
0.019721424 -0.15154183 -0.116674855 -0.123284675 -0.02279731 0.095642984 -0.07015924 0.21533372
0.058696076 -0.086106494 -0.07421238 0.0077623143 0.14573917 0.08586777 -0.10968293 -0.08032386

weight f4 [32, 32]
00000000: 3142 673d 9e9f 0abd a909 023e 9ab8 333e
00000010: fad6 34be 9d43 183e 2b85 2abe a113 323e
00000020: ef4e 23be b823 723d 9252 973c 2a2a f23d
00000030: d10d a73a 95ad 313d a65c e03c fca1 f73d
00000040: 6e0c 27be 5870 133d 7552 80bd a792 a5bd
00000050: 903d 1c3e f091 303e f6d3 7bbd ee37 7d3d
00000060: f448 db3d 6620 f5bd d54d d1bd f870 f7bd
00000070: b8ee 90bb 27be 25be bb6e e53d e6d6 dcbd
00000080: 58a5 5bbd 09ce f33d 1c99 dbba ba4f bf3d
00000090: 795c a73d aba3 f53c ec03 1a3e e9a3 273c
000000a0: 148c 713d 3d2d 3b3e b42d 53bc dad8 b7ba
000000b0: 358b b3bd 4dff 033e c859 8dbd 5d31 e13d
000000c0: 98df 433d 9116 d1bc ec7a 19be cb99 19be
000000d0: 7bab 22be b375 01be 8f8a 2d3e 6f2f 033e
000000e0: 7018 a0bd a51e 273e 9847 eabd 692a 4a3d
000000f0: f7f6 2d3e 0aa5 dc3b 193a 2e3e 7788 70bc
00000100: 21df f33c e058 9fbd aecd 263e 51b4 0cbe
00000110: 98a6 49bc afe3 10bd e748 15be e3a9 b2bd
00000120: ea65 dbbc 7260 213e 4566 d93d 5b4d 70bd
00000130: 69ae 21bd e26d 88bd 56e7 2e3e f2b6 1c3e
00000140: a322 9fbd 4776 2ebd f5ed eb3d 48b1 75bd
00000150: e465 153e 9bac f9bd d9c3 05be d837 65bd
00000160: 33f3 13bd 9a8b 083e dc90 0f3e 4fc6 1abe
00000170: 9f50 3f3e 6c92 f23d 2f46 ebbd 3859 173d
00000180: 2063 f9bc 0dfc 283e 5115 1f3e af4b 10be
00000190: fb55 13bd 368f f03c 2cfb b03d 52b5 80bc
000001a0: 3f3b 8cbd 9e4a 213d 145c 5bbd 102e 01be
000001b0: a204 aa3d 50cc 06bc 5835 18be 4b1c 18be
000001c0: 1153 d63c 6360 8dbd b521 a0bd b7c9 bb3b
000001d0: 99fd a0bd 4fb9 9bbc b7cf 053e c916 02be
000001e0: d975 8a3b bc04 cf3d f0c1 43bd 220e 03be
000001f0: 9fad 03be a879 fcbd 4cfd 003e a375 863d
00000200: a289 15be 47a5 9d3c 7533 203e f769 62bd
00000210: ebd9 923d ca8d 2e3d 754c 0cbd d3af a7bd
00000220: 12ab 2ebe de30 0dbe caf6 273e fc2b 3cbb
00000230: 29c9 c6bd dd03 a6bd c3d6 0a3e e2b2 113c
00000240: de89 693d 96f8 07be 56ec 0cbe e782 1b3e
00000250: a1ec 9d3d 53fb a6bd c858 75bd 1f3a eb3d
00000260: 3f54 b43d 5882 34be 0fc9 c0bd e858 39be
00000270: 33fa 1a3e 5e5e 043e 8366 29be 6f79 5abe
00000280: 2097 003e 56b2 193d ade7 ddbd 9c1a b0bd
00000290: 74f1 ccbd fc9b f6bd 82d2 c4bd 3d79 09bd
000002a0: 3e92 0a3e 274e 21bd 9275 1b3e 4226 db3d
000002b0: cfdb fdbd 4d6c 003e 7858 e9bc f7ed bdbd
000002c0: f596 4cbe 01b8 8dbd 96f5 1f3d 2dd7 32bd
000002d0: f62a 0dbe 1297 463d de58 88bc 151b 1bbe
000002e0: 7873 a9bd 1265 35bd b746 41bd ee96 283e
000002f0: 6e1e 2e3d db03 debb fa96 0d3d 0711 f7bc
00000300: 2f05 a63d c4ac 263c 63f8 693d db9b 9fbc
00000310: fd62 47bd e120 8f3d fba2 c7bd 9df8 8b3d
00000320: 1a07 9a3a f15c 17be db39 1fbe 0f1b c83c
00000330: 5d18 19bd ea61 243d 28a7 2ebd a509 ca3d
00000340: 4348 cdbd 24f0 0d3e a54b 903d 5222 2d3e
00000350: 4b38 5dbd 4e6e d7bc 8e5c 003e 5003 9ebd
00000360: 6fe1 a2bd 995c 9e3d 827d 103e 49c6 043e
00000370: 53c1 253e 6af1 d4bd 81aa 31be 6276 c2bd
00000380: 2e61 0b3d 37b7 9e3e c9a9 06be bb49 a03d
00000390: 9ac7 dfbd 7e5e e2bc 648b 6e3e e5d8 e2bd
000003a0: cb76 a33e 51e6 bfbd 3655 ea3d 2b43 b03e
000003b0: faa3 bdbd a339 033e c976 c53d d0d8 a63e
000003c0: 4a09 d03e 6c98 be3d 3154 cebc 2700 d33d
000003d0: 9266 7e3e b44e 95bd c733 a33d 5dac 803e
000003e0: 8a22 ec3d 739c 673d 494c e43d f3db fbbd
000003f0: 23d5 953d bb55 943e 732b f7ba baea 283e
0.05645961 -0.03384363 0.12698998 0.17550889 -0.17660132 0.14869542 -0.16652362 0.173903
-0.1594808 0.059116095 0.01847199 0.118244484 0.0012745206 0.04337843 0.027387928 0.12091443
-0.16313335 0.03599581 -0.062657274 -0.08084612 0.15257859 0.1724317 -0.06148144 0.061820917
0.10707274 -0.1196907 -0.102199234 -0.12082094 -0.0044229887 -0.16185819 0.11202761 -0.10783176
-0.05362448 0.119045325 -0.0016754004 0.093413785 0.08171935 0.02998527 0.15040559 0.01023195
0.05897148 0.18278976 -0.012889314 -0.0014026419 -0.08766786 0.12890358 -0.0690189 0.109957434
0.047820657 -0.025523456 -0.14988297 -0.15000074 -0.15885727 -0.12642555 0.16947387 0.12811063
-0.07817161 0.16320284 -0.11439437 0.04935685 0.16988741 0.0067335414 0.1701435 -0.014680973
0.029769482 -0.077806234 0.16289398 -0.1374066 -0.012307785 -0.035373386 -0.14578591 -0.087238096
-0.026781995 0.15759447 0.106152095 -0.058667522 -0.03947297 -0.066615835 0.17080435 0.15304163
-0.07770278 -0.042593267 0.11519996 -0.05998352 0.1458965 -0.12191125 -0.13062991 -0.05596146
-0.036120605 0.13334504 0.14020103 -0.15114711 0.18683098 0.11844334 -0.11487996 0.03695032
-0.030442774 0.165024 0.15535475 -0.14091371 -0.03597067 0.029365163 0.08641657 -0.01571146
-0.06847238 0.0393778 -0.05355461 -0.12615228 0.08301665 -0.008227423 -0.14864099 -0.14854543
0.026162656 -0.0690315 -0.07818929 0.0057308334 -0.0786087 -0.01900926 0.13067518 -0.12704004
0.0042254743 0.10108325 -0.047792375 -0.1279836 -0.128592 -0.123278916 0.12596625 0.06565406
-0.14603284 0.01924385 0.1564463 -0.055276837 0.07170471 0.04261569 -0.034252603 -0.08187833
-0.17057446 -0.13788173 0.16402736 -0.002871274 -0.09706337 -0.081062056 0.13558488 0.008892747
0.057016246 -0.13278422 -0.1376203 0.15186654 0.07711149 -0.08153405 -0.05989912 0.11485695
0.08805131 -0.17627847 -0.09413349 -0.18100321 0.15134506 0.12926623 -0.16543011 -0.21335386
0.1255765 0.03752359 -0.10835204 -0.08598825 -0.10006991 -0.120414704 -0.09610464 -0.033562887
0.1353235 -0.039381173 0.15181568 0.107006565 -0.12395441 0.12541313 -0.028484568 -0.09273904
-0.1997946 -0.069198616 0.03905257 -0.04366224 -0.1378592 0.048483916 -0.016643938 -0.1514705
-0.08273977 -0.04428584 -0.04718658 0.16463825 0.04250949 -0.006775362 0.03456781 -0.030159486
0.081064574 0.0101730265 0.057121646 -0.019483497 -0.048678387 0.06988693 -0.09747883 0.068345286
0.0011751384 -0.14781548 -0.15549414 0.024426965 -0.03737675 0.04013244 -0.04263988 0.09865121
-0.100235485 0.13861138 0.07045678 0.16907623 -0.054008763 -0.026297715 0.12535307 -0.077154756
-0.07953154 0.07732505 0.14110377 0.12966265 0.16187029 -0.103976086 -0.17350198 -0.09495236
0.034028225 0.30999157 -0.13150705 0.07826563 -0.10926743 -0.027632948 0.23295361 -0.110765256
0.3192657 -0.09370101 0.11442034 0.34426245 -0.09259792 0.12814955 0.09641797 0.3258729
0.40632087 0.09306416 -0.02518663 0.103027634 0.24843815 -0.07290402 0.0796886 0.25131503
0.11530025 0.056545686 0.11147363 -0.12297811 0.07316043 0.28971657 -0.0018857553 0.16495791

bias f4 [32]
00000000: 8a5d 4fbe 6477 f13c 72c3 7b3d c691 8f3d
00000010: e042 023d 5f74 263e 1204 90bd 42a3 113e
00000020: f462 233e a357 dbbd 9e7e ddbd 660e 80bd
00000030: 0a6c 23be f7ee 0c3e f25c 8c3d 8450 063e
00000040: adf3 21be f82d eebd 134f 253d 34f3 183e
00000050: 25fb 54bd cf35 3a3e 57a5 ffbd 54b3 be3c
00000060: bfa6 22be b6c1 223e 8da2 3f3e 1dbc 103e
00000070: c6b1 2cbd c05c 1abe 5eea 8a3d 0acf 0abe
-0.20250526 0.029475875 0.061465688 0.07010226 0.03180206 0.1625533 -0.07032026 0.14222434
0.15955716 -0.10710075 -0.10815166 -0.06252746 -0.15959182 0.13763033 0.068536654 0.13116652
-0.15815611 -0.116298616 0.040358614 0.14936525 -0.051997323 0.18184589 -0.12482708 0.02327887
-0.15883921 0.15894207 0.18714352 0.1413426 -0.042161725 -0.15074444 0.06782983 -0.13555542

weight f4 [1, 32]
00000000: 8cdb 8ebc 6dc0 7f3b b946 9cb9 fda4 d83c
00000010: 5129 06bb 8857 afbc 530a c03c 03c6 773e
00000020: 3508 833b e719 413c ba83 2abd a3e8 a13b
00000030: f84f 9fbc 9009 98bb 1080 8d3c 90a7 1a3b
00000040: ed5b 14bc c72d d6bb 1702 a83c 5f98 003c
00000050: 6ef7 49ba 6fae 2d3d f4f8 f33c bc55 183e
00000060: a9dd 61bc a165 333d f80e 86bb 324e 1e3e
00000070: 3c26 6abc 36ed 41bc 6e41 0c3c acf2 543d
-0.017438672 0.0039024607 -0.0002980733 0.02644586 -0.0020471404 -0.021404043 0.023442423 0.24196629
0.003998781 0.011785961 -0.04162953 0.0049410625 -0.019447312 -0.004639812 0.017272979 0.002359841
-0.00905512 -0.006536219 0.020508809 0.007848828 -0.00077044114 0.04240268 0.029781796 0.14876455
-0.013785758 0.043798093 -0.00409114 0.15459517 -0.014291342 -0.011836341 0.0085605215 0.051989242
