models/patient0/srpo_model_for_patient_0_Actor.pth (torch, 24039 bytes, 12 tensors)

weight_ih_l0 f4 [64, 2]
00000000: 3dec 83be cde3 91be e154 2fbe 52bc 16be
00000010: b8d9 42be ef0b f2bd 4b74 c33d 4f86 1fbe
00000020: 7440 a3be 3814 f9bd db04 10be cb78 bcbc
00000030: 69a9 06be 9f81 b4bd 9386 0c3d 667d 94be
00000040: 680e d3bc d345 8e3d b036 a9bc cee4 413e
00000050: af33 a8be df8d f2bd ef0b c23c 1b67 89be
00000060: d452 03be 3e67 5ebe 55fc c2bd 7054 09bd
00000070: d76d e8bc 4975 efbd 8ae6 903d fe3f b2bc
00000080: ed58 443c a818 03bd b653 2cbe 3641 0cbe
00000090: 64ac 09be 6438 89bc 35dd b13d 20a7 f33c
000000a0: 0329 8dbe 7b7f 8fbe abbe 8dbd 35d5 95bc
000000b0: 9af3 42be 42ab 903d 042a 5dbe 28d6 d13d
000000c0: 675e 213e f7b5 243e a418 55be 4426 42be
000000d0: 9c77 a7bc c0f9 183e a3e5 34bd 7cc2 2d3e
000000e0: a010 883d e3a4 f13d bd91 3cbe ae2f e9bd
000000f0: d079 a5be c997 a13d 9170 60be 7c0a c6bd
00000100: cdde ab3e c8c8 f63d bc5b 88be 75ee e5bd
00000110: 74dc 32be ed16 2dbe 9572 e73d 6fe6 5c3e
00000120: 7025 41be e9ec 463e 772b 17be 5abf 47be
00000130: 7645 2abe 1209 50be 25ab 353e 10e0 803e
00000140: 1c60 bc3d 25b2 023e f725 89be 4b6f 82be
00000150: 9539 05be d7e4 8f3e 31db a23b ab47 66be
00000160: cfbe 9c3e fb92 163e 2081 943e 545a 133e
00000170: 2d77 25ba 148f 07be 0d85 b03d 89a2 903d
00000180: a8c2 4fbd 7184 31be 45e1 583b cae2 c2bd
00000190: f792 a6bd f226 9cbe 66dc 4cbe 6c3e c3bd
000001a0: cb19 a0be 4987 97be ede5 f53d 3fe3 7ebe
000001b0: 3b86 49be 342e 0e3e e3c7 4a3e 94ec 7b3d
000001c0: e7f0 98bd c105 86be 7135 84be 0ee8 85be
000001d0: 845b 9ebe 4e47 c63c 8654 f2bd 2ef1 b43d
000001e0: ac96 0bbe bd60 5bbc a979 89bc ae73 03be
000001f0: 3949 aabc fd90 b53d 11e2 b3bd 417b f1bd
-0.25766173 -0.2849411 -0.17122222 -0.14720276 -0.19028366 -0.118186824 0.095436655 -0.15578578
-0.3188511 -0.121620595 -0.14064352 -0.023006817 -0.13150562 -0.08813786 0.034308027 -0.2900192
-0.025763705 0.06946912 -0.02065596 0.18934938 -0.3285193 -0.11843466 0.023687331 -0.26836476
-0.12824565 -0.21719071 -0.09520785 -0.03352779 -0.028372688 -0.11692292 0.07075222 -0.02175903
0.011984092 -0.032005936 -0.16828808 -0.13696751 -0.13444668 -0.016750522 0.0868477 0.029742777
-0.27570352 -0.28026947 -0.06921133 -0.018290142 -0.19038239 0.07063915 -0.21598059 0.10245925
0.15758668 0.16085039 -0.20810181 -0.1895991 -0.020442776 0.14939022 -0.04416431 0.16968721
0.06643796 0.11799028 -0.1841497 -0.11386047 -0.32319498 0.07890279 -0.2191794 -0.096699685
0.3356842 0.12050015 -0.26632488 -0.11227123 -0.17466909 -0.16903277 0.11301152 0.21572278
-0.18861938 0.19426312 -0.14762674 -0.19506589 -0.1662806 -0.2031596 0.17741068 0.25170946
0.09198019 0.12763269 -0.26786777 -0.25475535 -0.13010247 0.28104278 0.0049699773 -0.22488277
0.30614325 0.14704506 0.29004765 0.14389926 -0.0006312009 -0.13238174 0.086191274 0.07062251
-0.050722748 -0.17335679 0.0033093255 -0.09515913 -0.081335 -0.30498463 -0.2000595 -0.095333904
-0.31269678 -0.29595402 0.120067455 -0.24891375 -0.19680111 0.13884813 0.19802813 0.061504915
-0.074678235 -0.26176265 -0.25822023 -0.26153606 -0.30929196 0.024203923 -0.11832528 0.08835064
-0.13631696 -0.013389763 -0.016781645 -0.12837097 -0.020786868 0.08865545 -0.08783353 -0.11791087

weight_hh_l0 f4 [64, 16]
00000000: 9403 97be 4c53 1fbe 46a1 9bbe e532 b8bc
00000010: e379 4b3d 2638 66bd 5a97 8e3d f824 81bd
00000020: 5d4b b0bc 2bad 2a3e 5ef3 f73d dfa0 9a3e
00000030: b1e9 813d a9c0 96be 0a10 7abe db68 77be
00000040: 0bd6 e0bc 4f56 a33d 9a4e 87be 407e 81be
00000050: 5258 f2bc 16b6 843d ecd7 adbd 32ed 463d
00000060: 4ea3 5abe 2b3e 673e e783 eabd b609 003d
00000070: 6a6b a5bb 0a6c 593d 058b 163d 3c77 ff3d
00000080: 822e 303e 445d 803e 60c7 f73d bf17 7fbe
00000090: ff40 383e 6274 8c3e 9a5a 91bd 3740 bfbc
000000a0: ac59 06bd 27d8 573e 9da1 cd3d efc3 853d
000000b0: f42c 593c b938 8dbe 61d1 133e e4ea 6cbe
000000c0: 3052 f53d 3130 903e 07d4 023e 4b09 163e
000000d0: 98b4 fabd d4fb 223e 2e6f 9fbd 82d5 1fbe
000000e0: 1e7d 943e 1e9a 3d3e 8e00 88be 8fd7 7cbd
000000f0: 54a6 2d3d 9476 58be d0a9 ef3d c968 9cbe
00000100: 56c5 20be 24e4 3cbe 7e33 03be 87d7 52bd
00000110: aa8d 29be b564 323d 0c04 483c 5e31 423e
00000120: 6886 2dbd c01f f8bd c541 fe3d 95b4 ebbd
00000130: b3d2 88be 39a5 07be 06bf f1bd 951a d23d
00000140: 9e8e 84be 9cb0 863e 2cb7 bebd 9af8 13be
00000150: aef4 8e3d 53f0 813c 4d06 183e 74ce 99be
00000160: b1cc 6e3e 01ea e3bc 7561 7a3d f729 313c
00000170: 3877 c03d 0099 d43d 0efa 3fbd 1b2c 1cbe
00000180: 1854 8fbe f369 29be d250 3ebe db3c 8dbe
00000190: b816 8cbd 2126 c83b 4a34 013d d5d5 433e
000001a0: 4023 d4bd 8eb2 26be 30ee 3cbe c52f 693e
000001b0: 69c1 6dbe 54af 89bc 936d 94be baec 4ebe
000001c0: bf1f 23be 337b 813e 0f4d 54be 77cf f7bd
000001d0: 5a2a 65bd 43ae 72bd 2700 9b3e d4f9 89bc
000001e0: d7ca 933d 6b99 f2bd 10e6 003d 18d0 40bd
000001f0: 57b4 523d 253a 873e 63c6 bd39 e9ce 7bbe
00000200: 4506 42be 355b fcbc 9545 1a3e 390d c93d
00000210: ab1a cb3d 320c 9e3c 514a 07bd 600b c23c
00000220: e6df 34be 7b78 813e 40e8 acbd c1f1 e1bd
00000230: b321 063e 7eeb 133e 5231 693e e86b 013d
00000240: d189 033e 3256 8d3e 1c9b 48be 6261 87bd
00000250: f784 5a3e e2ad 5e3e 9c79 59bd e69e de3d
00000260: 3e9f 593e 1d66 92bd 7de3 3bbe 9547 f43d
00000270: 224d 64be 098d 6b3b c03c 173e 6510 1abe
00000280: ff13 c9bd 2144 1fbe acb6 64be 5777 b9bc
00000290: d206 723d 4fd8 36be e6be 2abe 38b9 7ebd
000002a0: 2e99 7b3d 661c 323e 0dc1 45bd da10 4dbd
000002b0: a5df 68be cb3b 6bbe c2ba 15be b4ce 763d
000002c0: 9c4c 873d 3ad7 983e 520e 6fbe f78c 78be
000002d0: a779 e1bd b249 bb3d f270 5f3e e391 b9bd
000002e0: ab9d 563e 459d 2e3e 5aa7 4ebd 0df6 ee3d
000002f0: ba70 28bd 3ba7 c0bd 316b f43c 627f 04bb
00000300: 828a 41be 598f 3e3e 707d bbbd b771 83be
00000310: 8dd3 963a 3ffa 063e 0159 3f3e 4383 01be
00000320: 442e b93d 98d2 903c 4b66 92be 5f3b 20be
00000330: 3dcc 81be f5f9 88be 7fa9 023e 1249 7fbe
00000340: c721 88bd 6072 1d3e b6ab 93be 908f 0b3d
00000350: a83c c33d 5c9d 843e 5e32 9b3e b2f2 94bd
00000360: 8663 283c 496f 78bc 2f7b 9c3d a907 b2bd
00000370: 857f f4bd 6b19 aa3c 1fef fdbd 7380 60be
00000380: da3e 2f3e 60f8 063d ae14 a0be 0322 c23d
00000390: 3446 5e3e 52f1 953e bd60 3f3e e328 af3d
000003a0: 5dd8 e7bc 957a 29be 4446 0c3e 2b72 953e
000003b0: 34c6 be3c c5bb 89be 8d65 f83d b2fb 013e
000003c0: 3a4e aabc 0639 7e3e f860 583d faf9 93be
000003d0: 83d2 9a3d b2bd 9f3e e0f7 923e 9765 eebd
000003e0: 9458 9c3c c157 5f3e 5ca3 033e aa2b 0c3e
000003f0: 40bc d3bd d0e7 0a3d 00e7 8ebe 1328 1c3e
-0.29494917 -0.15559119 -0.3039648 -0.022485206 0.049676787 -0.05620589 0.06962462 -0.06305879
-0.021520311 0.16667621 0.121069655 0.3020086 0.06343401 -0.29443863 -0.24420181 -0.24161093
-0.027445814 0.079754464 -0.26427156 -0.25291634 -0.02958313 0.06480043 -0.084884495 0.04856605
-0.21351358 0.22582309 -0.114509396 0.03125926 -0.005048205 0.05308155 0.036753673 0.12473914
0.17205241 0.25071156 0.12098575 -0.24911402 0.17993544 0.27432543 -0.07097359 -0.02334605
-0.03280036 0.2107855 0.10040591 0.06531512 0.013255347 -0.27582338 0.1443534 -0.23136479
0.11978567 0.28161767 0.12776195 0.14651982 -0.12241477 0.15916377 -0.07784878 -0.1560879
0.29001707 0.18515822 -0.26562923 -0.06172901 0.04239495 -0.21138984 0.11702311 -0.30548695
-0.15700278 -0.18446404 -0.12812611 -0.051475074 -0.16557947 0.043553073 0.012207996 0.18964145
-0.042364508 -0.12115431 0.12414888 -0.11509053 -0.2672325 -0.13246621 -0.11804013 0.10258976
-0.25890058 0.26306617 -0.09312281 -0.14450303 0.06980263 0.015861666 0.14846154 -0.30040324
0.23320271 -0.027821543 0.0611281 0.010813228 0.09397739 0.10380745 -0.04686933 -0.152512
-0.27993846 -0.16544323 -0.18585518 -0.27585492 -0.06840271 0.006108061 0.031544007 0.19124539
-0.10358286 -0.1627905 -0.18450236 0.22772129 -0.23218311 -0.016807236 -0.28989848 -0.20207492
-0.15930079 0.25289306 -0.2073252 -0.12100118 -0.055948593 -0.05924822 0.30273554 -0.01684276
0.07216423 -0.118456684 0.031469405 -0.047073454 0.051441517 0.26411548 0.000361967 -0.24590649
-0.18947704 -0.03080521 0.15065606 0.09816975 0.09917196 0.019292925 -0.033029858 0.023687065
-0.17663535 0.25287232 -0.08442736 -0.11032439 0.13098793 0.14445302 0.2277272 0.031597048
0.12845542 0.27604824 -0.1959042 -0.06610371 0.21339785 0.21746019 -0.05309449 0.10870151
0.21252152 -0.07148383 -0.18348499 0.11927716 -0.22295049 0.0035942218 0.14769268 -0.15045317
-0.09818267 -0.15553333 -0.22335309 -0.022639913 0.059088536 -0.17855953 -0.16674384 -0.062188357
0.06142538 0.17393646 -0.04827981 -0.0500649 -0.22741564 -0.22972028 -0.14622024 0.06025572
0.06606409 0.29851705 -0.23345307 -0.24272524 -0.110095315 0.09144916 0.21820429 -0.09061029
0.20958583 0.17052181 -0.050452568 0.11668024 -0.04112313 -0.09406897 0.02983627 -0.0020217528
-0.18900493 0.1860937 -0.09154785 -0.25672695 0.0011507139 0.13181399 0.18686296 -0.12647729
0.090420276 0.017678544 -0.28593668 -0.15647648 -0.25351134 -0.26753202 0.1275997 -0.24930218
-0.066470675 0.15375662 -0.28841943 0.03407246 0.09533054 0.25901306 0.30311865 -0.07272853
0.0102776345 -0.015163251 0.07640683 -0.08692867 -0.11938385 0.020764073 -0.12399124 -0.21924
0.1711382 0.032951713 -0.31265777 0.094791435 0.21706468 0.29285675 0.18689246 0.085527204
-0.028301412 -0.16550668 0.13698679 0.29188666 0.02328787 -0.2690107 0.12128744 0.1269367
-0.020789254 0.2482644 0.05282685 -0.28901654 0.07559683 0.31199414 0.2870474 -0.116404705
0.019085206 0.21810819 0.12855285 0.13688532 -0.1033864 0.03391248 -0.27910614 0.15249662

bias_ih_l0 f4 [64]
00000000: 9f96 943e d216 36bd e348 9c3e 1cdd aa3d
00000010: f700 99bd 6db2 893e efad c1bd b35e edbc
00000020: a2fd 51be 45d4 7fbd 46c4 a3bc 3b01 833e
00000030: db38 8bbd 8292 e63d ee83 163e e443 893e
00000040: ca3b 793e 7238 293e 435e a93d 75a9 403e
00000050: 769c 403e fd3c 1bbe c996 5b3d 2dc9 bfbd
00000060: 180b 53be a259 babd 541e 153e 9797 12be
00000070: eb0d 843e 5cae 933d a6c2 c8bd 76d1 313e
00000080: d4fd 133d 248c 393e a95f 91be c2e7 54be
00000090: 3362 6b3e 863b 07bd ee70 593d 383e ab3d
000000a0: 7b92 133e 103a e03d e497 a6bd f27e 983e
000000b0: 6175 2ebd ab32 0e3d a456 16be b9fd d039
000000c0: bf2a db3d ba1d 2b3e 09e3 3bbe 4ccf 05bd
000000d0: af4c 583e e90f 683e 237f 1cbe d1c7 e6bd
000000e0: 4af5 adbd e0e4 10bd 9ec3 4d3d 120a 9f3e
000000f0: d390 7fbb 6410 3f3e c57b 1cbe 20e0 26be
0.29021165 -0.044455357 0.30524358 0.083429545 -0.07470887 0.2689394 -0.09457003 -0.02897582
-0.2050691 -0.062458295 -0.019991051 0.25586876 -0.06797954 0.11258413 0.14698765 0.2680961
0.24339214 0.16525438 0.08269932 0.18814643 0.18809685 -0.15159984 0.053610597 -0.09364543
-0.206097 -0.09099127 0.1456235 -0.1431564 0.2579187 0.07210991 -0.09802751 0.1736506
0.03613074 0.18119866 -0.28393295 -0.20791534 0.22986679 -0.03301575 0.053086214 0.08361477
0.14411347 0.109485745 -0.081344396 0.29784352 -0.04259241 0.03471629 -0.14681488 0.0003986189
0.107015125 0.16710559 -0.18348326 -0.032668397 0.21123002 0.22662319 -0.15282874 -0.11268581
-0.08494051 -0.035374522 0.050235383 0.3106237 -0.0038996234 0.18658596 -0.1528159 -0.16296434

bias_hh_l0 f4 [64]
00000000: 5a83 a03c daad 3cbd 59df 883e 7be2 38be
00000010: 49b5 863e ffe6 643e 950f 863e 5c30 743e
00000020: 2461 d83d 3719 5c3e 241e 183d 153e 0d3e
00000030: 7609 4ebd 9367 4f3e 7fc9 943e c76a 10be
00000040: ccba e9bd e829 053e f41b 303e 2a12 7ebd
00000050: d6ed 1dbe f7ed dfbd d3f5 793c 19fb 673e
00000060: 398e 31bc 9faf 003e de90 1f3d d3ef 7a3e
00000070: 579f 18be 10b8 1cbd df69 11be fa85 563e
00000080: 29e9 583d 18e5 113e df04 90be 710a bebd
00000090: 7354 5e3e 5cbe 533e 03b4 783e 36d4 253e
000000a0: 9516 363c ed74 ff3b 423b c6bd 1374 3dbe
000000b0: f079 333e 2964 bb3d a16e 6ebe c8fe 9bbd
000000c0: bad6 2e3e 6369 e2bd 115f 3a3b dfe9 703a
000000d0: fd97 09be afc5 18bd 77d5 693e 21ae 0e3e
000000e0: 3b65 323d b3c7 31be b66a 4e3d 66fa 573e
000000f0: f11c 9fbd cab5 923c 1ede cbb9 cbe7 913e
0.019593883 -0.046064235 0.267329 -0.18055145 0.26310185 0.22353743 0.26183763 0.23846573
0.10565403 0.21493994 0.03713812 0.13793214 -0.05030199 0.20254354 0.2905998 -0.14103232
-0.11412582 0.13004267 0.17198163 -0.06202904 -0.15422758 -0.1093406 0.015256363 0.2265438
-0.010837131 0.12566994 0.038956515 0.24505548 -0.14904533 -0.038261473 -0.14200543 0.20949546
0.052956734 0.14247549 -0.28128716 -0.09279335 0.21711902 0.20678085 0.24287419 0.16194233
0.011113782 0.007795921 -0.09679271 -0.1850131 0.17526984 0.091499634 -0.23284389 -0.07616955
0.17074099 -0.11055257 0.0028438012 0.0009190123 -0.13436885 -0.0372979 0.22835337 0.13933612
0.043553572 -0.17361335 0.050394736 0.21091613 -0.07769192 0.01790895 -0.00038884667 0.28497157

weight f4 [32, 16]
00000000: 6c38 3c3e e87f 6dbe 20fe 4b3e f6d2 213e
00000010: 86ef 20be 20e7 573c 982b 90bd d89f f43d
00000020: d03e 22be 06e2 04be e270 02be c089 8e3c
00000030: a67a 303e 4c66 51be ecef e7bd 3449 01be
00000040: a863 83bd 5ef7 4fbe b6fc 04be 4c15 14be
00000050: 6c69 d4bd 5602 613e 2af4 45be 9a50 723e
00000060: 5a79 5d3e fcbb a43d 5048 373e 68cc 61bd
00000070: c8fd 583e 1276 10be e274 6e3e 3666 43be
00000080: 0eb2 e63d f846 a13d 3d8b abbd d612 403e
00000090: beff f13d e3d9 c0bd 5ece 903d 0370 2f3d
000000a0: a3a4 493e 784a c63b 6263 643e 9a60 2cbe
000000b0: 97ec 07be 8129 383d 2d5c 053d dc60 1d3e
000000c0: bd6b 60bd 642c 4d3e 237c 64be 8cba a13d
000000d0: 3bfc d13c 5966 56be f0ca 483d 75eb b7bd
000000e0: 9e9b d6bd 268f 2c3e 30c1 483e aa7e 63be
000000f0: d7ab b43c a427 2d3e 30c9 65be 2b85 cf3d
00000100: ab00 93bd f03a abbd e58f 47bd ef33 473e
00000110: c5a9 39be f7e6 9d3d 8c5e 9e3d 89cc fd3d
00000120: be77 8abd 717c ac3d e565 593d d899 82bc
00000130: c874 13be 2ec2 01be d870 243d 4fc5 23be
00000140: 9865 163e 62f4 853e e4e2 c7bd 8e99 063e
00000150: 7ee9 793e ab9d 953e 8d3e 813e e690 08be
00000160: 08b2 c0bd c0d3 9bbb ab2c 3ebe 4f5f a63d
00000170: 7636 9cbe ed0f d53d 19d2 ff3d 83b8 5cbe
00000180: 648f dfbd c479 f23d f69b 0f3e 04f1 bc3d
00000190: 5ea5 59be 0011 05bc a0e2 aebd f6ed 2a3e
000001a0: 80f7 5f3d 3045 49bd f038 60bd 70ac eabc
000001b0: 60d0 eb3d 505a 5b3e 08ac 293e 7ec5 7fbe
000001c0: 1052 723d e4f2 9cbd 60fa 21be 8297 213e
000001d0: 603d c4bc c6f9 213e 58a0 b4bd f6d8 5abe
000001e0: 54de ecbd b8ba a73d fc31 c33d c022 843d
000001f0: 720f 0d3e 90d9 6f3d 0478 a73d 1ac5 0bbe
00000200: 0532 cc3c ee9d 513e 408b cc3d ade7 55be
00000210: 4ea6 d33c 64df 15be 1933 3b3d 7c3b 053d
00000220: 2aef 483e 7d66 663e 597a 04be 6f85 f5bd
00000230: aa23 20bd f9d6 153d 679a 853d cdb3 06bc
00000240: ac5a 8bbd 2ac2 2fbd 20f9 613e 7e77 54bd
00000250: 1e12 403e 9c12 ce3d f399 19be 1481 01be
00000260: 18f0 efbc 928a 693d 255c 48be d17f f1bc
00000270: a5e6 3ebe bce2 e03d f41c c7bd b777 773d
00000280: 965a 1d3e 5445 493e eaf9 3abe 1074 2a3d
00000290: cc1f 60be c0d2 2d3e 003b 6e3e c00d 5b3e
000002a0: f068 1b3d 0ce8 1c3e f09f fb3c 9011 3cbe
000002b0: 2821 5e3d 1015 d2bc 5070 adbd 388b 28bd
000002c0: 8869 4abe 00df b0bb 227e 053e 34fb fd3d
000002d0: c07c 883b b04d 943c d073 113e 986a 293e
000002e0: 8444 003e 6ef9 31be 400b e1bb 5ed1 11be
000002f0: 7041 853d 5cf9 4dbe 5c3b 553e e6d3 0ebe
00000300: 7178 9d3c eec3 c5bd 2919 84be d465 10be
00000310: f316 01bd f3d4 053e 3c4a 9c3e a732 a1be
00000320: 7908 0a3e ce81 a03c abfc 0c3d d636 9d3e
00000330: 8ff4 72bc 477d 88be 5745 58be a648 d43d
00000340: bc2c 353d 141e 15be ac24 0cbd 67e2 e23c
00000350: 8450 373e c6f1 5d3e 7882 63be 4e8a 4ebe
00000360: 5079 38be 138f 163e 3e19 b7bd 3b06 27bd
00000370: ce6c 3ebe 2948 81bc 15bb 5fbc c330 05be
00000380: 10b6 4b3d 6069 9cbd a4f7 e8bd ec3f 683e
00000390: e027 d8bd d0f5 ebbc b8cf 27be 725d 2dbe
000003a0: 280e 9b3d 98ee fb3d 1877 2d3d 5094 1f3d
000003b0: 5e4d 4bbe 44f3 3d3e 6ccd 53be 36d7 1e3e
000003c0: a0a3 7fbd 5c35 803e 3a02 babd e7d9 1ebd
000003d0: 3dc4 5f3e f12d 983d 2984 d83d 782a b7be
000003e0: 9ada 7f3e a853 913e d60b 22be e91b 35bd
000003f0: 4595 1cbe c89c 9dbe 53d3 cebc f956 37be
0.18380898 -0.23193324 0.1992116 0.15803131 -0.15716371 0.013177663 -0.07039565 0.1194455
-0.15844274 -0.12976846 -0.12738374 0.017399669 0.17234287 -0.2044918 -0.11325058 -0.12625581
-0.06415492 -0.20309207 -0.12987027 -0.14461249 -0.1037167 0.21973547 -0.19331422 0.2366356
0.21628323 0.08043668 0.17898679 -0.055126578 0.2119056 -0.1410754 0.23286775 -0.19081959
0.1126443 0.07874864 -0.08376167 0.18757185 0.11816357 -0.094165586 0.070706114 0.042831432
0.1969171 0.006051358 0.22303537 -0.16833726 -0.13273846 0.044961456 0.03255861 0.1536898
-0.054790247 0.20036465 -0.2231298 0.07896909 0.025632968 -0.2093748 0.04902166 -0.08980457
-0.104789004 0.16851482 0.19604945 -0.22216287 0.022054596 0.16909653 -0.22440028 0.10132822
-0.07177862 -0.08360851 -0.048721213 0.19453405 -0.18131168 0.07710069 0.07732877 0.123925276
-0.0676112 0.08422173 0.05307569 -0.015942499 -0.14400017 -0.1267173 0.04014668 -0.15993236
0.14687192 0.26163012 -0.09760073 0.13144514 0.24405476 0.29221854 0.25243035 -0.13336524
-0.09408957 -0.004755467 -0.18571727 0.081236474 -0.305103 0.10403428 0.12491245 -0.2155476
-0.109160215 0.11839631 0.14024338 0.092256576 -0.21254489 -0.008121729 -0.08539319 0.16692337
0.054679394 -0.049138248 -0.0547418 -0.028646678 0.11514354 0.2142117 0.16569531 -0.24977681
0.059160292 -0.07663515 -0.15818167 0.15780452 -0.023955047 0.15817937 -0.08819646 -0.21371827
-0.11565843 0.08189911 0.09531018 0.064519405 0.13775423 0.058557093 0.08177188 -0.13649407
0.024926195 0.20470402 0.09987497 -0.20889159 0.025836136 -0.14635998 0.045703027 0.03252743
0.19622484 0.22500034 -0.12937297 -0.11988341 -0.039096512 0.036581967 0.065235905 -0.008221579
-0.06804404 -0.04290978 0.2206769 -0.05187177 0.18756911 0.10062143 -0.15000133 -0.12646896
-0.02928929 0.057016917 -0.195664 -0.029479893 -0.18642671 0.10980746 -0.09722319 0.060416903
0.15366587 0.19655353 -0.18259397 0.041614592 -0.2188713 0.16974926 0.23264694 0.21391964
0.037941873 0.15322894 0.030715913 -0.18366075 0.05423084 -0.025644809 -0.084686875 -0.041148394
-0.1976682 -0.0053976774 0.13036397 0.12401429 0.004165262 0.01810345 0.14204335 0.16544569
0.12526137 -0.17380306 -0.006867796 -0.14240023 0.06506622 -0.20114654 0.20823425 -0.1394802
0.01922247 -0.09656511 -0.25800446 -0.14101344 -0.031516027 0.13069515 0.30525386 -0.31483957
0.13479795 0.019593146 0.03442065 0.307059 -0.014828815 -0.2665808 -0.21120201 0.10365419
0.044232115 -0.14562255 -0.03421466 0.027695848 0.17901808 0.2167426 -0.22217739 -0.20169947
-0.18015027 0.14703016 -0.089403614 -0.040777426 -0.18596193 -0.015781479 -0.013655444 -0.13006882
0.049734175 -0.07637286 -0.11375359 0.22680634 -0.105544806 -0.028803736 -0.16387832 -0.16930178
0.075710595 0.123013675 0.042349905 0.0389598 -0.19853732 0.1854983 -0.20683831 0.15511784
-0.062411904 0.2504071 -0.09082456 -0.038782027 0.21852203 0.07430638 0.105720825 -0.3577459
0.24985734 0.28384137 -0.15824828 -0.04421607 -0.15291317 -0.30783677 -0.025247252 -0.17904271

bias f4 [32]
00000000: ac00 a7bd 8053 67bd ea90 0bbd 3e5b 21be
00000010: f833 65bd e240 703d 2e3b 3ebe b80f 5abd
00000020: 2542 8e3d 0ce6 6ebe 1085 58be 72a9 75be
00000030: 4830 e23d 89c0 52be 2088 26bc a85d 913e
00000040: 704d d1bd a476 8d3e 55cd 993e 9e7f 5d3e
00000050: e70c edbd d0f6 42be f8d1 78bd cf9f 2f3e
00000060: fd76 973e 0c4c aebd 4c77 6cbe 0124 373e
00000070: e3f9 803e 3827 b1bd 5c19 66be dba1 bfbd
-0.08154425 -0.056476116 -0.034073748 -0.15757462 -0.055957764 0.058655627 -0.18577263 -0.053237647
0.0694621 -0.23329943 -0.2114451 -0.2399042 0.11044365 -0.20581259 -0.010164291 0.28391767
-0.10219848 0.27629578 0.30039468 0.21630713 -0.115747266 -0.19039464 -0.060747117 0.17150806
0.29582968 -0.085105985 -0.23092383 0.17884828 0.25190648 -0.086500585 -0.22470611 -0.09357043

weight f4 [32, 32]
00000000: 2717 08bb a580 903d f6db 0b3e 9f54 29be
00000010: 448b 8dbd d2f5 993d 5f05 243e a9cf e7bd
00000020: d4db 17be 65f3 d33c 687c b5bd 364b 043e
00000030: e45e 0bbe 5d6e b53d 6bcc 28be 1033 233e
00000040: 781d 273e 4b14 12bd 6bb4 213d bc05 b33d
00000050: 4aa5 67bd 184c 263d 7229 a63d c188 b43d
00000060: 7c6e b9bd be1c 9f3d fb16 933d 6545 a4bd
00000070: 2247 1b3d c0c5 6f3d fce8 02be 328c 373d
00000080: cfdb 093e 7407 f1bd a936 9f3d 7dc2 de3d
00000090: ddc2 0d3e a76c c1bd 029d 9a3a 02c3 99bd
000000a0: dec9 a33d 7419 d33b 2492 9b3d cf02 e13d
000000b0: 999e 8fbd 3c35 b53d ae33 473d f6d1 1b3e
000000c0: 33da 00bd 4e73 0e3e b4b3 093d 2ad1 0a3e
000000d0: cf09 00be 129f 843c 1373 443d 3b02 aebd
000000e0: bed8 a63b ea47 8f3d 8bb0 d63d 294f 2e3e
000000f0: c1db 503d ae75 22be d2e7 9439 6035 70bd
00000100: 4a33 82bc 5543 dabd 180f bebd 7ef4 b5bc
00000110: 526a df3d bc41 0d3d 33a7 99bc 7a5e 013e
00000120: a49a ed3d fdee 85bd c107 8d3d e4f7 de3d
00000130: 5e98 cebd 9c37 2ebc 3552 32be cc84 a33d
00000140: ba08 8dbd 2b1d eabd 82af 253d 7112 2dbd
00000150: 3520 8e3a c8db d8bd 5333 b4bd ff10 c13d
00000160: 7da0 083e ebb1 2ebd 95a3 923d c523 8dbd
00000170: 1811 42be fa67 0ebe b7e8 0ebe 002f 1b3e
00000180: 4668 f93d 74de d8bd 6a58 343d 5c58 16be
00000190: f237 0bbe fe53 133e a969 aa3b 8e5d d53d
000001a0: fd22 f2bd 1e32 203d f668 ee3d da2e b83d
000001b0: 6221 c43d a28d 043e 96d9 24be 43b9 97bd
000001c0: 77c0 bb3d 9b0f 353e e604 ba3d 3e59 003e
000001d0: e105 ec3d 2eb0 31bb 7b10 093e 6a9e d33d
000001e0: c98d 463e c058 2fbd d51f e63d 2923 543e
000001f0: 3cca 42bd 3208 dbbd 1e84 b7bd bb02 2dbc
00000200: e42f 1f3d e34f dcbd b022 19bd 411d cbbd
00000210: c2a2 cb3d fbc5 48bd f599 0ebe 3266 4f3d
00000220: 0070 cebd f368 193e 0852 8e3d 5d0a 6cbd
00000230: 86a7 ae3d 79e0 0cbe 5fc1 223e b56f 563e
00000240: 6b24 acbd dc26 823d 870b a63c 3727 53bc
00000250: 6574 de3c b316 123e 2cd1 0e3e fa7a b13d
00000260: 053c 553d 4ed0 bcbd 8a2f 1b3e 25e6 3b3e
00000270: 7b32 613e 5585 313e 9e67 5dbc 6d9b 80bc
00000280: d6a0 09be fb0b b2bd d4a8 ee3d 01ec 0cbe
00000290: 7371 2ebd 10aa 523e 6c9e 063e ff1d 1fbe
000002a0: 96da 873d 4ce7 013e 6eb7 28bd e3f8 e03d
000002b0: a15a a1bc b86e 103d 82bd 9d3d ca0f 6e3d
000002c0: 5c4f c43c 6d44 653d 315d 773d 2478 e63c
000002d0: 2478 f13d ac05 2b3e 757c ab3d 2f45 c5bd
000002e0: ea29 483c 0468 b2bd 8be4 adbc 6cf6 2c3e
000002f0: a66b 203d cbd1 06be 4696 c2bd 6ea5 f13d
00000300: 3d8e 633d d596 04be 1cba 98bd 665a ea3c
00000310: 0c42 1c3e c540 2cbe 55f7 31be 2fe3 e9bd
00000320: 618e 8abd 4c8e 803c c254 cbbd ca5f c43d
00000330: 6342 f03d e179 b3b9 a330 243c 47d2 853d
00000340: 0f9e 87bd 4d95 36bc 8f0b 36be 0288 e5bd
00000350: 1b3e aebd 1942 8a3d f1d8 2c3d 5869 d93d
00000360: 24ad e33c 16c4 923d ec0d 4e3d 683a 77bd
00000370: a9c4 203e bc40 113e 9c3d e33d f899 613c
00000380: eeee aebc 06e5 fdbd 9192 14be f6b1 2d3e
00000390: 6b87 963d 6bc6 59bd 63bf 88bd 4f8f f0bd
000003a0: 1782 9d3d 33cb 253d 0d1b 2f3e e7d9 823c
000003b0: 881d c8bb 3b47 3f3d c94b 073e c6b9 ed3d
000003c0: 5be0 013e 06c9 c03d b8c2 b73d 9290 15bd
000003d0: 786b af3c 9d04 b6bc 2d3a 07be b670 aebc
000003e0: bba5 fa3d df4c a5bd f97f ab3d f8a2 02be
000003f0: 9ca5 aebc 0abb 6e3d b583 1dbe 85c0 8dbd
-0.0020765753 0.07055787 0.13658127 -0.16536187 -0.069113284 0.0751759 0.16017674 -0.11318905
-0.14829952 0.025872895 -0.08861619 0.12919316 -0.13610417 0.08858941 -0.1648423 0.15937448
0.16319835 -0.035663884 0.0394787 0.08741328 -0.056554116 0.040599912 0.08113374 0.08815146
-0.09054276 0.07769154 0.071821176 -0.080210485 0.037909634 0.0585382 -0.12784189 0.044811435
0.13462757 -0.11769 0.077740975 0.108769394 0.13843866 -0.09444552 0.001179606 -0.07507898
0.079974875 0.0064422432 0.075962335 0.10986864 -0.07012672 0.08848044 0.04863327 0.15216812
-0.03145809 0.13911173 0.033618644 0.13556352 -0.12503742 0.016189132 0.047961306 -0.08496519
0.0050917557 0.069961384 0.10482892 0.17022385 0.050990824 -0.15865204 0.0002840148 -0.058644652
-0.015893597 -0.10657374 -0.09280223 -0.02221131 0.10908951 0.034486517 -0.018756485 0.12633696
0.11601761 -0.06539724 0.068862446 0.10887125 -0.100876555 -0.0106333755 -0.17414172 0.07984313
-0.0688643 -0.114313446 0.04045058 -0.042253915 0.0010843339 -0.10588795 -0.08798852 0.0942707
0.13342471 -0.042650145 0.07160107 -0.06891588 -0.18951833 -0.13906851 -0.13955961 0.15154648
0.12178092 -0.105893046 0.04402963 -0.14682144 -0.1359556 0.14387509 0.005200584 0.10418235
-0.1182308 0.039110295 0.116411135 0.08993311 0.0957668 0.12944654 -0.16098627 -0.07408383
0.09167569 0.17681734 0.090829656 0.12534043 0.11524559 -0.0027113068 0.13385193 0.103329495
0.19390024 -0.042809248 0.1123654 0.20716538 -0.047556147 -0.106949225 -0.08960746 -0.010559733
0.03886403 -0.10757425 -0.037386596 -0.09917689 0.09943153 -0.049016934 -0.13925917 0.05063457
-0.10079956 0.14981441 0.0694924 -0.05762707 0.08528046 -0.13757505 0.15894078 0.2094105
-0.08405384 0.06355068 0.020269169 -0.0128877675 0.02715511 0.14266472 0.1394698 0.08666034
0.052059192 -0.092194185 0.15154853 0.18349512 0.21991913 0.17336018 -0.013513474 -0.015699113
-0.1344026 -0.08693691 0.11653295 -0.13761903 -0.042588662 0.20572686 0.1314637 -0.15538786
0.06633489 0.12685889 -0.041190557 0.109849714 -0.019696536 0.03526184 0.07702161 0.058120526
0.023963623 0.05597346 0.06039161 0.02813346 0.11790493 0.16701382 0.08373348 -0.09632336
0.012217024 -0.08711246 -0.021227142 0.16890877 0.03916516 -0.13165967 -0.09501319 0.11799131
0.05555557 -0.12948163 -0.074573725 0.028607558 0.1525957 -0.16821583 -0.17379506 -0.11420285
-0.06765438 0.015692852 -0.09928276 0.09588583 0.11731412 -0.00034232347 0.0100213615 0.06534248
-0.06621944 -0.0111439945 -0.17777847 -0.11207582 -0.085079394 0.067508884 0.04219908 0.10615796
0.02779252 0.07166307 0.050306246 -0.060358435 0.1570002 0.1418485 0.110957354 0.013769619
-0.021354165 -0.123971984 -0.14509036 0.16962418 0.07350048 -0.05316774 -0.06677129 -0.11746084
0.07690828 0.04047699 0.17100163 0.015973045 -0.006107036 0.04669879 0.13212503 0.11607699
0.12683241 0.09413342 0.089726865 -0.036514826 0.02141355 -0.022218997 -0.13205786 -0.02129398
0.12238642 -0.080713026 0.08374018 -0.1275748 -0.021319203 0.058283843 -0.15382273 -0.06921486

bias f4 [32]
00000000: 6b03 2fbe 4f75 3a3e cd0b dfbc b881 fe3d
00000010: 111a e83d 8142 533d ffa3 cebd bc46 26be
00000020: db44 e13d 2361 b3bd e20b 2bbe 0c67 1ebe
00000030: 0f0e 103e 78ab 5cbd 2168 b13d 02f4 d83d
00000040: 4d71 cebb 0e4a ec3d 11ab 35be 664c 5a3e
00000050: 4ac4 0c3e a156 9cbd 4ab8 513e 6867 b33d
00000060: 7304 93bc 3773 d83c 24e3 b43d 1970 e3bc
00000070: ee31 9bbd 1d3c 16bd 8369 0bbe 71bc 2b3e
-0.17091148 0.18208812 -0.027227307 0.12427086 0.11333097 0.051577095 -0.100898735 -0.1623792
0.10999461 -0.08758762 -0.16703752 -0.15468997 0.14067863 -0.053874463 0.08662439 0.10593416
-0.0063001276 0.11537562 -0.17741038 0.21318206 0.13746753 -0.07633711 0.20480457 0.087599576
-0.017946457 0.026422126 0.08832386 -0.027763413 -0.07577883 -0.036678422 -0.13614468 0.16771103

weight f4 [32, 32]
00000000: 3b04 f6bc 382d 0b3e b38f 003e f71f 2a3e
00000010: 6d2a 1fbb c9d8 b83d 50bb e6bc dccd 0abe
00000020: 3742 f5bd 9e13 babd 113e 873d cab9 d13d
00000030: baad 393e 067f f2ba bdc7 933c feaa f43c
00000040: 59b0 993c c41f 2c3e 8c1d 22bb 90ff fbbc
00000050: e50f 433e 1d6e e93d ab6a 053e 7ac1 a3bd
00000060: 79e7 b23d 69cd 4f3d 3c42 88bd 8283 003e
00000070: 3c25 093e 0708 f1bd fa24 fb3b 35b5 463e
00000080: 17a6 bc3d b34f 67bd ca6b 833c 29fd ab3d
00000090: 8d21 6d3e 6565 5abd 2797 343e c675 a9bd
000000a0: a3a4 0abb 3b2d 073d 2e34 05be baed a3bc
000000b0: 32f6 503c ae99 30be d6be 8ebd d584 433e
000000c0: b82f 3a3e ce37 fc3c 7cf5 2f3e fe3a 0b3d
000000d0: 1735 223e a936 f8bd c151 6ebc b578 893d
000000e0: 0cc7 123e 645d 203e 47c8 393e 0beb d1bd
000000f0: 760d d93d 67cd 593c 037a f83d 8b1b ba3d
00000100: d76a f8bd 2ddd 01be 731a e33c 134c 31be
00000110: f273 c1bd fec2 e0bd e26b 23bc 5d07 f7bd
00000120: e500 89bd 1259 9cbb 2fab 6c3d 822e 1d3e
00000130: ce61 da3b f2d9 f8bc 7774 1d3e 2358 2cbe
00000140: b8ee 6b3d 4e66 2bbe 4b08 f5bd 81e9 6f3d
00000150: dcce ea3d 380b a13d 7889 2b3e 1028 a83d
00000160: fe69 fabd 50f0 493c f74a 48bd d72d d0bc
00000170: f296 a2bd 9b33 2cbe 0cd7 f23d b5a9 25be
00000180: 690c 69bd ffcc a83d 9926 a43d e839 593e
00000190: 762c 063e 8323 c0bd 6e4e c23c ab99 07be
000001a0: 9949 eabd 8f80 15be c06a eabd ddd4 973c
000001b0: 029a ae3d 521c b43d f6e1 5f3d d260 58bd
000001c0: d098 303e 452c 93bd 57fa f9bc 5b1e cc3d
000001d0: 97af 693e 4f47 0fbe c556 5b3e 9677 7fbd
000001e0: 9a93 21be 55a3 6e3e ad0b 663c df30 e73d
000001f0: 36df 25be 2f03 283b 9512 89bd 9cf6 683e
00000200: fed8 c83d e689 f73d 9c44 16bd 05fc e43d
00000210: 2dce e1bd 465b 07bd c882 a63d a449 ce3d
00000220: bc4e 09bd 72ab b63c 030e 25be 9b40 c93d
00000230: faae 103e bed7 e43d a6cc bb3d 7e4a c83d
00000240: 842f f1bd bc30 e5bc b536 34be eded 25be
00000250: 4f42 37be 1739 7ebd b482 b63d e2c7 ae3d
00000260: 0851 14be 9743 873d b891 dd3d 1c41 fabd
00000270: 9be7 27be 68c9 30be 5b81 87bd d8a2 2cbe
00000280: 1ffb d53c 97f4 e83c 95fb 2c3e 3cb9 f1bd
00000290: c05c 1abd f5b7 313c d49a e0bc 639f 8fbd
000002a0: e57f babd ec24 14be bbdf 343e 4d4e d9bd
000002b0: 6030 843d 6869 8a3d 8078 5e3b e717 1abe
000002c0: 1783 723d bb3a 2b3e f298 fcbd ce40 11be
000002d0: 2ee5 8dbd eff1 8c3c ae77 05be a36f 153e
000002e0: 9448 2abe 6192 14be 7296 1bbe 0128 d3bd
000002f0: 5f47 b3bd 1232 ca3d 686d 8e3d 6212 043e
00000300: ae9b 8ebd f053 b23d 8239 c8bd 387f 0e3e
00000310: 884e 9a3d d54e 1dbe ca31 de3c 9ac5 eabd
00000320: 18a7 1cbe a0aa 54bc 6c7c 0d3e bb96 e0bd
00000330: 386b 0b3e 5949 abbd 63e8 f8bd 479f d8bd
00000340: 3b10 cebd 786b fdbd 14fb 1cbe 6ddb 2fbe
00000350: f753 873d 5e15 873d 20dc 29be 1dc5 cb3d
00000360: 0e09 c03c 86b3 f63d 475a 08be 9c10 bd3d
00000370: 6aa6 44bd f7e4 4f3d 4d8c 1f3d 8fee e23c
00000380: 84b8 23bc 0c4b bd3d 1f5e 94bc 2129 d2bd
00000390: a47b 5d3e 83b7 ffbd f6c0 f73c bcb8 13bd
000003a0: 6845 3bbd 695f be3d 5040 b53d c2e1 3b3b
000003b0: fe61 ebbd fd6e a5bd 9c4f 7ebd 124c 5e3e
000003c0: 702f ba3d 23cd e93d b585 1cbe 44e3 7e3d
000003d0: 5af5 40bc 9d98 303e 9bd9 133e 899c ec3d
000003e0: 5b93 ed3d 07aa 2e3e 8e79 2c3d 929d 81bd
000003f0: 06ed 84bc 25e9 21be 94a3 10bd 5f04 653e
-0.030031314 0.13591468 0.12554817 0.16613756 -0.0024286762 0.090257235 -0.02816549 -0.13555092
-0.1197552 -0.09085773 0.06603635 0.102405146 0.18132678 -0.0018500991 0.018039579 0.029866692
0.018760847 0.16808993 -0.002473685 -0.03076151 0.19049032 0.113979556 0.13028972 -0.07995887
0.08735556 0.050733004 -0.06653258 0.12550166 0.1339311 -0.11769109 0.00766432 0.19405062
0.092113666 -0.05647249 0.016042609 0.08397896 0.2315733 -0.053319354 0.17635785 -0.082744166
-0.002115526 0.03300212 -0.13008186 -0.020010818 0.01275401 -0.17246124 -0.06969993 0.1909364
0.18182266 0.030788328 0.17183489 0.033991806 0.15840565 -0.121198006 -0.014545859 0.06712476
0.14333743 0.15660626 0.18142806 -0.10249909 0.105982706 0.013293601 0.12132647 0.09087285
-0.12129753 -0.12682028 0.027722573 -0.17314176 -0.09445943 -0.10974692 -0.009974452 -0.12061951
-0.06689624 -0.00477136 0.05778044 0.15349773 0.0066644913 -0.030377362 0.15376459 -0.16830496
0.057600707 -0.16738245 -0.119644724 0.058572296 0.114652365 0.07863468 0.16751659 0.08210766
-0.12227248 0.012325361 -0.048899617 -0.025412483 -0.07938947 -0.16816561 0.11857423 -0.1617802
-0.0568966 0.08242225 0.080151744 0.21213496 0.13102898 -0.09381773 0.023719039 -0.13242213
-0.11439819 -0.14599822 -0.11446142 0.018534118 0.085254684 0.08794464 0.054658853 -0.05282671
0.17245793 -0.07186178 -0.03051488 0.09966727 0.22820888 -0.13992046 0.21419819 -0.062369905
-0.15778962 0.23304494 0.01404087 0.11288618 -0.1619843 0.0025636663 -0.06692997 0.22750324
0.09807013 0.12086849 -0.036686525 0.111808814 -0.11025653 -0.03304603 0.08130413 0.100726396
-0.033522353 0.022298548 -0.16118626 0.09826776 0.14129248 0.11173962 0.09169893 0.09779833
-0.11776641 -0.02797734 -0.17598994 -0.16204043 -0.17896388 -0.062066164 0.089116484 0.08534218
-0.14484036 0.066046886 0.10818809 -0.1221945 -0.16396944 -0.1726433 -0.066164695 -0.16858995
0.02612072 0.028436942 0.16892846 -0.11802909 -0.03768611 0.010847081 -0.027417578 -0.070128225
-0.09106425 -0.1446721 0.17663471 -0.10610638 0.06454539 0.06758386 0.0033946335 -0.1504818
0.05920705 0.16721623 -0.123338595 -0.14184877 -0.06928478 0.017205207 -0.13033935 0.14593367
-0.16629249 -0.14508964 -0.15194109 -0.103103645 -0.08753847 0.098728314 0.06954461 0.12897637
-0.06963287 0.08707416 -0.09776594 0.13915718 0.0753451 -0.15362103 0.02712335 -0.11463471
-0.15298116 -0.012980133 0.13816994 -0.109662496 0.1361512 -0.08363599 -0.12153699 -0.10577255
-0.100616895 -0.12374014 -0.15330154 -0.17173548 0.06607812 0.06595872 -0.16587877 0.09949706
0.023441818 0.1204596 -0.13315688 0.092316836 -0.048010267 0.050755467 0.03895216 0.027701644
-0.009992722 0.0924283 -0.018111287 -0.10261751 0.21629196 -0.12486174 0.030243378 -0.03606485
-0.045720488 0.09295542 0.08850157 0.0028668498 -0.114933 -0.0807781 -0.06208764 0.21708706
0.09091079 0.1141608 -0.1528538 0.062228456 -0.011777246 0.17245717 0.14438479 0.11553294
0.116003715 0.17057048 0.04210811 -0.06328882 -0.016226303 -0.15811594 -0.03531225 0.22364949

bias f4 [32]
00000000: 43e9 393d dd5d 633e 83be c3bd f1ef 78bb
00000010: 4e1c e73a 94d4 1b3d 87b1 d33d 0dc6 343d
00000020: e33e 0fbd 4d08 03bd afe4 483e b1d6 16be
00000030: d94d 293e c0b9 4f3e 14d6 653d caa1 31be
00000040: f98c 2fbe 4b45 4a3e 5c3c 5dbd 23e3 043e
00000050: 36ac ebbd 9df2 0c3e 9994 0a3e db10 26be
00000060: cdc4 23be 3d46 2a3d 1821 973d 3efa 4e3e
00000070: e5c2 16be adaa e03d 659d 9abd 5886 0bbe
0.04538847 0.22203775 -0.095578216 -0.0037984813 0.0017632337 0.038044527 0.10336595 0.04413419
-0.034972083 -0.031990338 0.19618486 -0.14730336 0.16533603 0.20285702 0.056112364 -0.17346874
-0.1714362 0.19752996 -0.05401264 0.12977271 -0.11507456 0.13764425 0.13533248 -0.16217367
-0.15993042 0.04157089 0.07379359 0.20212647 -0.14722784 0.10970054 -0.07549552 -0.13625467

weight f4 [1, 32]
00000000: fe35 69bd 8c48 35bd b8d6 39bb 18eb 2a3c
00000010: e84c 9f3c ec42 c9ba 9e72 c83a b5f6 09bd
00000020: 3b7c 8e3b 6479 303d 4506 31bd cdc7 7a3c
00000030: 1156 fabc 1bfb 43bd 935e a33c 3848 153c
00000040: 9d84 b23c 5732 36bd df56 3f3c dbff 01bc
00000050: 9b40 a4bb eba4 28bd 8a11 33bd c79e e33c
00000060: 3b10 bf3c b76e 1cbc 0905 72b6 8e02 b4bc
00000070: 421d 303c 768c dabc 31a9 f4bc 4b93 763c
-0.056936257 -0.04425864 -0.0028356742 0.010432027 0.019445851 -0.0015355027 0.0015292948 -0.033682544
0.0043483055 0.043084517 -0.04321887 0.015306425 -0.030558618 -0.047846895 0.019942557 0.009111457
0.02179175 -0.0444816 0.0116784265 -0.007934536 -0.0050125844 -0.041172903 -0.0437179 0.027785672
0.023323169 -0.009547881 -3.606374e-06 -0.021973874 0.010749163 -0.026678305 -0.029865833 0.015049766

weight f4 [1, 32]
00000000: 1654 0abe ce6d f4bd 3e4a 88bc daea 34be
00000010: ee65 9abc 4f4f a2bc c86d 153c 99c1 a9bd
00000020: a0fd 1bbc 62c8 bfbd 7a17 aabd a5a9 103d
00000030: 92d1 c6bd 8f1c 0ebe e4cc 6d3c 1863 8dbc
00000040: cca8 08bc 125b 06be 6c5a fd3b 8e90 293c
00000050: cbde 30bb c8ec aebd 7518 d2bd ac5b d63b
00000060: bc0e 193c 8436 e5ba 7b3b f2bc 616d 12be
00000070: 57cd 54bc b98d c0bd e92f 963c e10c 8dba
-0.13508639 -0.11935006 -0.016636964 -0.17667714 -0.018847432 -0.019813208 0.009120412 -0.08288879
-0.009520918 -0.09364392 -0.08305259 0.035318036 -0.09707941 -0.13878082 0.014514182 -0.017259166
-0.008341026 -0.13120678 0.0077317264 0.010349406 -0.0026988264 -0.08541256 -0.10258571 0.00654169
0.009341892 -0.001748756 -0.029569378 -0.14299537 -0.01298841 -0.094020315 0.018333392 -0.0010761285
