models/patient0/switching_model_for_patient_0_Actor.pth (torch, 24039 bytes, 12 tensors)

weight_ih_l0 f4 [64, 2]
000000 c5 3e 9b be de e2 8f be e0 df 8d 3c 41 cd ba 3c
       -0.30321327 -0.28102773 0.017318666 0.02280295
000010 43 b3 3a bd 17 79 86 be 78 84 a0 3e 19 45 1a 3e
       -0.045581114 -0.2626426 0.31351066 0.15065421
000020 23 5f 9d be 79 60 13 be dc 67 d6 bd f5 52 e8 3d
       -0.30736646 -0.1439227 -0.10469028 0.11343948
000030 55 d7 f6 bc 0f 83 76 3e 89 9a 80 be 9d 0c 3a 3d
       -0.030131975 0.24073432 -0.251179 0.045422185
000040 33 3f 60 bd 59 9f 09 3e 96 81 3f be 3f 25 3d bd
       -0.05474777 0.13439693 -0.18701777 -0.0461781
000050 6e 54 96 be 93 1f 19 be 2f dc c0 be 96 8c 1a be
       -0.2936129 -0.14953451 -0.37667987 -0.15092692
000060 13 df 67 be 13 65 55 3e ef 12 84 bd 18 10 8a be
       -0.2264369 0.20839338 -0.06448924 -0.26965404
000070 cc 19 80 bd 1d 13 66 be ec b1 00 3e 57 1c 29 3e
       -0.0625492 -0.22468229 0.12567872 0.16514717
000080 c5 3b a7 be f5 f0 ef 3c 52 6a 5f be 7e 59 bd bc
       -0.32662788 0.029289702 -0.21817902 -0.023113962
000090 ac b2 85 bd 3e 1d 66 bd 65 26 ca 3d 85 37 9b be
       -0.065282196 -0.05618023 0.098706044 -0.30315796
0000a0 90 ab 83 be 4d c1 59 3e ea bb b9 be c4 16 34 be
       -0.2571683 0.21265145 -0.3627618 -0.1758681
0000b0 59 d5 51 be 75 11 f4 3c 84 35 7a be 25 88 1c be
       -0.20491542 0.02979348 -0.24434477 -0.1528631
0000c0 02 50 00 be 86 bc d8 bd 4c 5e 23 be 11 90 60 be
       -0.1253052 -0.10582833 -0.1595394 -0.21929957
0000d0 04 f7 97 bd 75 c9 80 3d b7 e5 04 be 49 bc 7f bc
       -0.07420161 0.06288425 -0.12978254 -0.0156088555
0000e0 6f 90 3a be 23 d4 8f be c8 e1 07 bd b0 70 5f be
       -0.1821916 -0.28091535 -0.033174306 -0.2182033
0000f0 c0 35 5c be 0a c3 85 be 7b a9 fe bc 48 12 16 3d
       -0.21504879 -0.26125365 -0.031086674 0.036638528
000100 b5 28 48 bd 26 9b 86 3e f9 26 10 3e 9f 69 0c 3e
       -0.048866946 0.26290244 0.14077367 0.13712166
000110 b2 ac 2a 3e b4 73 fb 3c dc 7b 26 be f4 3b 6d 3e
       0.1666744 0.03069482 -0.16258186 0.23167402
000120 cc 85 4a be 9a c4 25 bd eb 31 8d 3d 1c f3 2f bd
       -0.19777602 -0.040470697 0.06894287 -0.042956457
000130 de 2f ae 3d e2 44 3b 3e 19 0f c6 3e aa fd 86 bd
       0.08505224 0.18287995 0.38683394 -0.06591351
000140 66 20 0d bd 4a 21 17 3e 52 fb c3 bb 8e 6c 7a 3e
       -0.034454726 0.14758793 -0.0059808875 0.24455473
000150 c6 87 91 be c9 ed 46 3e e0 fc 01 bd 7f 66 26 3e
       -0.284239 0.19426645 -0.0317353 0.16250037
000160 9d 27 8b 3e 2f 33 05 3e f4 ef 23 3e e2 f5 1d be
       0.2717866 0.13007806 0.16009504 -0.15425828
000170 fd 29 68 3e 77 c7 11 3d 25 51 5a 3e 1b 79 b6 be
       0.22672267 0.035590615 0.21320017 -0.3563927
000180 08 4b 47 be e6 9c 12 be 6a fd af be 68 7b c7 bd
       -0.19462216 -0.14317665 -0.34373027 -0.09740335
000190 9c de 92 3d e3 57 b4 bd e7 5e 1a bd 26 7a ce 3d
       0.071713656 -0.088058256 -0.037688162 0.10081892
0001a0 68 2c 8f be 94 e5 81 bc 3d 51 8d be 52 f6 4a be
       -0.27963567 -0.015856542 -0.27601042 -0.19820526
0001b0 94 10 60 3b 91 ff 59 3e f4 f9 2f be 92 74 45 be
       0.0034189569 0.21288897 -0.17185193 -0.1928275
0001c0 6d 1c aa 3d ba 92 06 3e 5e 73 97 be 5f 99 b0 3d
       0.08306203 0.13141909 -0.29580206 0.08623003
0001d0 6a f8 19 be 46 61 85 be 3e bd 9b be 97 b0 21 3e
       -0.15036169 -0.26050776 -0.30417818 0.1579002
0001e0 d5 df a7 be bf 9c 84 be 39 62 8b 3d 23 15 cd 3c
       -0.32787958 -0.25900838 0.06805844 0.025034493
0001f0 20 18 f0 3d 26 76 9c 3d 0e 07 39 3e 84 17 a2 3d
       0.117233515 0.076397225 0.18069097 0.079146415

weight_hh_l0 f4 [64, 16]
000000 a9 44 9d 3d 78 e3 55 3d 0b fd 5e bd ce 0c 78 bb
       0.076791115 0.052218884 -0.05444054 -0.003784943
000010 b8 a9 6c bd f7 93 c9 3c ac f9 b8 3d 87 bc 8d bc
       -0.057779044 0.024606688 0.09031996 -0.01730181
000020 81 15 ff bd 38 66 8b be 05 48 42 be 25 80 d4 3d
       -0.124552734 -0.27226424 -0.18972786 0.10376004
000030 bd 5d 88 bd 30 18 02 be d9 e4 93 3d 46 da 73 be
       -0.06658504 -0.1270454 0.072213836 -0.23813733
000040 e4 0a 5a be c9 9e 3b 3e 6e f3 0f be e3 7a 87 3e
       -0.21293217 0.1832229 -0.14057705 0.26460943
000050 46 0b 8f 3d 8f a6 27 3e c9 0f 0d 3e ee 82 f9 bd
       0.06984572 0.16372131 0.13775553 -0.12183176
000060 1c 36 0b 3c 9c 10 8c 3d 9b 81 ff 3d 58 50 26 3e
       0.008496787 0.068391055 0.12475892 0.16241586
000070 84 0e 8d be f7 11 cf bd 1f a8 74 be cd c6 1a be
       -0.27550137 -0.101108484 -0.23892258 -0.15114899
000080 19 0d 66 3d 3c b4 9e be da 06 05 3e 32 9a 59 3e
       0.056164835 -0.30996883 0.12990895 0.21250227
000090 7c a8 9e 3d 6d 5a 1b bc 10 d6 4f bd 3c a5 ae 3d
       0.077469796 -0.009482008 -0.050741255 0.0852761
0000a0 e6 a2 6d be 13 54 12 3e 03 af 64 3e 0e 13 34 3e
       -0.23206672 0.14289884 0.22332387 0.17585394
0000b0 e0 cc 07 3d 97 9d 1a 3e 6a 84 4e bd 3a ca 9d bd
       0.03315437 0.15099178 -0.05041925 -0.07704587
0000c0 b4 c3 94 be 40 61 3f 3c a6 38 91 be 0d c4 74 be
       -0.2905556 0.011680901 -0.28363532 -0.23902912
0000d0 41 9c 99 3e 03 57 51 be 99 ee 62 be ef 07 98 3d
       0.30002025 -0.20443349 -0.2216133 0.07423388
0000e0 c8 43 a4 3d 3d 8d f6 3d 58 81 cc bd b4 93 f2 3c
       0.08020741 0.12038658 -0.09985608 0.029611446
0000f0 41 c2 00 3e db e6 11 3e 79 54 a2 be a3 c1 dc bd
       0.12574102 0.1424822 -0.31705073 -0.10779121
000100 ae 5e 00 3e e4 4c 25 bd 94 c2 07 3e 43 0b 82 bd
       0.12536117 -0.04035653 0.1325782 -0.06349804
000110 be 86 4c 3e f3 08 64 be 01 85 81 be ad a6 d5 bd
       0.19973275 -0.22269039 -0.25296786 -0.104321815
000120 9a eb 1f be fa 43 10 bd 30 06 18 3e 11 28 d3 bc
       -0.15617219 -0.035221078 0.1484611 -0.025775941
000130 9e 61 23 be 3d bb 36 3e 0e 1c d0 3d b2 f5 70 be
       -0.15955207 0.17844863 0.10161601 -0.23531225
000140 fc 19 19 3c f5 15 19 3e e7 c5 d6 bd 07 f1 32 3d
       0.009344574 0.14949782 -0.104869656 0.043686893
000150 06 a8 70 3e 07 2c a2 bd 0a 63 50 bd a6 c0 3f be
       0.23501596 -0.07918554 -0.0508757 -0.18725833
000160 4d c8 72 3d 96 68 87 bc a8 14 10 3e 0b 9f 2c be
       0.059273053 -0.016529363 0.1407038 -0.16857545
000170 73 9f 0b 3d db be ac bc 42 9d ee bd b5 ce 89 be
       0.03408761 -0.0210871 -0.11651088 -0.26915517
000180 b0 05 79 be ec a2 0d 3e b0 08 15 3e 30 40 56 3d
       -0.24318576 0.13831681 0.14554095 0.052307308
000190 05 fd e9 bd b1 80 fb 3d 47 45 25 3e 43 d0 02 be
       -0.11425213 0.12280405 0.16139708 -0.12774758
0001a0 42 0b 93 3d 40 be dd 3d 95 d7 22 bd e2 a5 3a be
       0.07179882 0.10827303 -0.039756376 -0.18227342
0001b0 d4 d4 f1 bd 16 27 02 3e f0 46 df bd da 4a 70 be
       -0.11808172 0.12710223 -0.10902202 -0.23466054
0001c0 e9 0a 61 be e0 78 04 be 69 93 72 3c 39 e0 52 be
       -0.21976818 -0.12936735 0.014805653 -0.20593347
0001d0 be af 8d 3e 26 90 26 bd 9d ea 88 be 82 ef 3e be
       0.27673143 -0.040664814 -0.26741496 -0.18646052
0001e0 3d f1 95 3d 41 5f 46 bd 74 47 88 3e f6 e1 42 be
       0.07321403 -0.048430685 0.26617014 -0.1903151
0001f0 0a 6d 3c bd b3 d8 15 be 1e 97 ea bc 93 f4 67 3d
       -0.046002425 -0.14633445 -0.028636511 0.05662973
000200 b0 c1 17 be 9f d8 aa 3c c7 58 25 3e 59 71 33 bd
       -0.1481998 0.020855246 0.16147147 -0.04380927
000210 8c bf 93 bd 47 4e 09 3e 42 e9 4d 3e ce 19 e2 bd
       -0.07214269 0.13408767 0.20108512 -0.11040078
000220 30 db 89 3e 7e 38 9f bd da f3 30 3e 10 03 71 bd
       0.2692504 -0.07774447 0.17280522 -0.05884081
000230 25 e8 c3 bd be d3 49 be ce cf 17 bd 78 ba 16 be
       -0.095657624 -0.1970968 -0.037063412 -0.1471957
000240 03 d2 c1 3d 5b 88 04 be 25 bf 25 3d 57 6f 06 be
       0.09463885 -0.1294264 0.040465493 -0.1312841
000250 99 d9 95 3e 5f 42 0b 3d 70 6f e6 bd 11 73 27 3e
       0.29267576 0.033998843 -0.11251724 0.16352488
000260 cd ef 6f 3e cf 75 73 be 76 4c 11 be b3 15 cb bc
       0.2343132 -0.23775409 -0.14189324 -0.02479062
000270 48 b8 d4 bd 02 0e 6d be 18 c5 9a be 4b c1 fb 3c
       -0.10386711 -0.23149875 -0.30228496 0.030731818
000280 fe 3f 43 be 7e c9 e1 3c 15 2c f3 bc 34 0c 91 3e
       -0.1906738 0.0275619 -0.029684106 0.28329623
000290 00 9c 4f 3e ea 3f b5 3d 8c 19 a3 3d 70 dd bb bd
       0.20274353 0.08850081 0.07963857 -0.09173095
0002a0 4b 9f b1 3c 60 a6 3e be 18 d6 41 bd f3 05 3c 3d
       0.021682402 -0.18618155 -0.047323316 0.04590411
0002b0 49 57 76 3b e5 8c 4c be a7 6e 0c 3e 23 ab b9 3d
       0.0037588647 -0.19975622 0.13714086 0.09065845
0002c0 a0 e9 52 3e 93 c8 50 3e 50 1d 19 be 1d c7 3c 3e
       0.20596933 0.20389013 -0.14952588 0.1843533
0002d0 34 9e e9 3d 46 f9 f3 3d 11 18 7d 3d a9 ab 9b be
       0.11407128 0.119127795 0.06179053 -0.30404404
0002e0 4a 41 4d bc cb 73 48 bd 9b 93 2b bd 64 19 38 3e
       -0.012527773 -0.048938554 -0.041888814 0.17978436
0002f0 98 33 3f be 0e 36 65 bd 7f 34 07 3e a0 89 57 bd
       -0.18672025 -0.055959754 0.1320362 -0.052621484
000300 2d 6e a0 bd ed 1c 73 be 1f 51 0d be 78 cf 15 be
       -0.07833514 -0.23741503 -0.13800476 -0.14629924
000310 14 21 0c 3e 40 b6 d6 3d a0 0b 4a be 92 d6 14 3e
       0.13684493 0.1048398 -0.19730997 0.14534977
000320 3c 98 3e be 30 38 18 3e 6f ae 3b be 61 6a 12 3d
       -0.1861276 0.14865184 -0.1832826 0.035745982
000330 f9 bf bc bd 43 69 f3 bc f3 55 4c 3d 0d 85 91 be
       -0.092163034 -0.029713279 0.049886655 -0.28421822
000340 f3 6e 61 be 26 84 97 be 40 2c ee bd e9 b2 3e 3d
       -0.2201498 -0.2959301 -0.11629534 0.04655734
000350 5a 7f 35 be 57 25 45 3e 19 ee 74 be 7b 00 fb bd
       -0.17724362 0.19252525 -0.23918952 -0.12255951
000360 cf 39 74 3c 98 5b 0c be 48 7b 46 be 92 07 d8 bd
       0.014906361 -0.13706815 -0.19382966 -0.10548319
000370 93 10 44 3d d6 0b df bd 04 ed 25 3e 25 c3 dc bd
       0.04786737 -0.108909294 0.16203696 -0.10779408
000380 44 af 83 3d 03 22 2a be 63 22 87 3c 49 07 51 3d
       0.06429914 -0.16614537 0.016495889 0.05103234
000390 1b 17 1f be e7 b3 bd bd fb 63 42 3e d3 09 e2 bc
       -0.15536158 -0.09262829 0.18983452 -0.027592575
0003a0 13 40 fd 3d e3 cc 0d 3e 98 c9 60 3e 1c 2e 28 3e
       0.12365737 0.1384769 0.21951902 0.1642384
0003b0 3a 51 4a 3e 17 29 88 bd 0a 79 00 be 85 ad a1 3d
       0.19757548 -0.06648462 -0.12546173 0.07894424
0003c0 89 af 1c 3e bf 40 67 be 4a 4c c6 3c c8 aa 1a 39
       0.15301336 -0.22583292 0.0242063 0.00014750205
0003d0 a0 69 54 bd 32 e9 ef 3d d9 35 09 3e e7 a7 83 be
       -0.051858544 0.117144 0.13399448 -0.25714037
0003e0 65 11 b0 bd 39 06 96 bd d3 9f 77 3d f3 54 fd bd
       -0.08597068 -0.07325406 0.060455155 -0.123697184
0003f0 0f 39 99 be 0c 6a 1b be 0e 5d cd 3d 88 09 76 be
       -0.29926345 -0.15177172 0.100275144 -0.24027073

bias_ih_l0 f4 [64]
000000 15 bc d7 bd 15 0f 6d 3e 24 63 03 bd de b8 16 be
       -0.10533921 0.23150285 -0.03207697 -0.14718959
000010 c7 c7 07 3d a4 a2 1e be 9a b8 17 3e 7e 07 7c 3e
       0.033149507 -0.1549173 0.14816514 0.24612233
000020 31 3c 31 be d8 dc f6 3d ab 53 48 3e 15 3c 2d 3e
       -0.17308117 0.12053841 0.19563167 0.1691745
000030 03 c1 04 bd 84 c1 0c bd 79 92 59 3e a3 67 eb bc
       -0.032410633 -0.03436424 0.21247281 -0.028735941
000040 59 67 41 be c6 4b af bd 67 48 85 3e 77 65 0b 3e
       -0.1888708 -0.085593745 0.260318 0.13612925
000050 fc 0a 15 be 27 9c f1 bd aa 07 ec 3d 7d cd 5d bd
       -0.14554971 -0.11797362 0.11524899 -0.054151047
000060 0c 91 0f bd ef 15 52 3e 34 5e 86 3e 1a fd 50 3e
       -0.035050437 0.2051618 0.26243746 0.2040905
000070 d5 ef e6 bc be fb 28 be 62 ee bd 3d 8e 28 e5 3d
       -0.028190533 -0.16502282 0.092739835 0.11189376
000080 6c 1c ea bd ea 2a 22 3d 14 08 75 be 8c 7a 53 be
       -0.11431202 0.039591707 -0.23928863 -0.20652217
000090 b6 cf 05 3e c0 42 c3 bd a3 e8 4b 3b 17 92 83 3d
       0.13067517 -0.09534216 0.0031114004 0.06424349
0000a0 e7 64 5d 3b 32 95 8c be 66 fc ca 3d 3d 31 14 be
       0.0033782066 -0.27457577 0.099114224 -0.14471908
0000b0 73 5c 20 be 8a 03 e9 bd 8a c0 32 bd df 59 ce 3c
       -0.15660267 -0.11377628 -0.04364065 0.025189338
0000c0 62 da 4a be 49 5b 4f be bd 34 96 bd 1b 58 4b 3e
       -0.19809869 -0.20249666 -0.07334278 0.19857828
0000d0 e9 d5 98 3b ae 57 7b 3e 41 8a 5f be ec 6e 2a 3c
       0.004664172 0.24545166 -0.21830083 0.010402422
0000e0 e4 aa 59 be be 05 cb bd 35 cf 31 be 72 e9 36 bd
       -0.21256596 -0.099132046 -0.173642 -0.044656225
0000f0 47 64 e7 bd 21 2b e2 3b c8 b6 d7 bc c9 16 11 be
       -0.11298423 0.006902114 -0.026332274 -0.14168848

bias_hh_l0 f4 [64]
000000 b8 af 55 3e 45 60 75 3e 4a 48 64 3d a3 eb a9 3d
       0.20867813 0.23962505 0.055733003 0.08296897
000010 24 64 21 be b9 17 ab 3d 9f e5 bb bd 92 ef d5 bd
       -0.15760857 0.08354134 -0.09174656 -0.10446085
000020 e9 4a 52 be 6d e7 14 3e 8f 7a 1b 3e c4 59 04 be
       -0.20536388 0.14541407 0.15183471 -0.12924868
000030 c3 8d 24 3d 52 80 54 3c 07 fe 50 3e 34 d3 be bd
       0.040174257 0.012970047 0.20409404 -0.093176275
000040 35 a9 26 3e 01 0c 15 be 16 2d 40 3d ee 34 93 3e
       0.16275485 -0.1455536 0.046917997 0.2875132
000050 d8 b3 19 be d5 10 40 3e 45 90 34 3e 10 50 1d be
       -0.15010011 0.18756421 0.1763316 -0.15362573
000060 17 3a cd bc 2a 4f 88 3d 12 87 58 be b1 c6 80 bc
       -0.025052113 0.06655724 -0.21145275 -0.015719743
000070 20 ab db bd 9e f4 22 be 27 a8 5f 3d 54 98 dc bd
       -0.10725999 -0.15913627 0.054603722 -0.10771242
000080 fa 55 2f be 5b 90 2f bd 10 d2 30 3e e5 08 e8 bc
       -0.17122641 -0.042862277 0.17267632 -0.028324554
000090 78 75 f5 bd ae a0 91 be 5e 51 09 3d 48 30 ff bd
       -0.11985296 -0.284429 0.033524863 -0.12460381
0000a0 14 c8 96 3c f8 29 36 3d 02 12 45 be 7d e4 32 be
       0.018405952 0.04447362 -0.1924515 -0.17469974
0000b0 fe 1a a8 bc bc f8 47 bd ea ef 92 3d 5c fe 41 bd
       -0.020520683 -0.048821196 0.07174666 -0.047361717
0000c0 99 1b 56 3c 8f b6 1f ba e4 e8 5f 3e e3 7a b8 bb
       0.013068103 -0.0006092572 0.21866184 -0.0056298836
0000d0 ad f0 cc bc 1b 48 4e 3e 4e f0 80 3e 4c 30 94 3e
       -0.025017107 0.20144694 0.25183338 0.28943098
0000e0 72 35 b4 3d c4 35 40 3c c5 81 8c 3e 6f 37 de 3d
       0.087992564 0.011731569 0.27442756 0.10850417
0000f0 01 5f 20 3e d4 07 c4 3d 56 98 ce bd 97 d3 c1 3d
       0.15661241 0.095718056 -0.100876495 0.09464186

weight f4 [32, 16]
000000 53 b0 0e bd 80 6d a9 bd 19 9a 4d be 7f 05 a7 3e
       -0.034836125 -0.082728386 -0.20078315 0.3262138
000010 31 fb f2 bd c9 ed 80 be c0 a8 9e be 19 26 a4 be
       -0.11864317 -0.25181416 -0.3098812 -0.32060316
000020 2d 9b e1 bd d2 6f 82 bd bb 2e ce 3d bd a4 50 3b
       -0.110159256 -0.06368984 0.10067507 0.0031836473
000030 99 71 ae bd 88 72 dd bd 8f c7 2b 3d a9 d4 a4 3c
       -0.08517761 -0.10812861 0.04193836 0.020120936
000040 e8 ab 6e be 00 4c 46 ba 40 ea d6 3d 78 49 46 bd
       -0.23307765 -0.00075644255 0.104938984 -0.04840991
000050 42 03 35 be 2c 30 92 3d a4 4e da 3d f0 4e 6b bd
       -0.17677024 0.07138094 0.10659531 -0.057448328
000060 e6 b3 21 3e 24 1a 80 bd 88 be ef bd d4 30 f6 3d
       0.15791282 -0.06254986 -0.11706263 0.12021032
000070 c0 3d 7a 3c 1c 5a e2 bd 40 a7 f7 bd 58 07 65 3d
       0.015273511 -0.11052343 -0.12092447 0.055915207
000080 58 68 2b 3e ca 60 79 3c bf 04 87 be d8 32 9a 3e
       0.16739023 0.01522083 -0.26370808 0.30116916
000090 36 9c 94 3e 77 2d 3a be 89 a8 bc bd 4d 76 b2 3c
       0.2902543 -0.18181406 -0.09211833 0.021784926
0000a0 b9 91 f6 bd 6e ce 37 bd 60 e9 0f 3e ea db 18 be
       -0.12039513 -0.0448746 0.14053869 -0.1492764
0000b0 6a b2 84 be df 19 98 3d c5 c4 25 be 5f c9 99 be
       -0.2591737 0.074268095 -0.16188343 -0.30036446
0000c0 92 d4 3e 3e 50 17 5b 3e 1c 98 f2 3d 6a 92 46 be
       0.18635777 0.21395612 0.11845419 -0.1939179
0000d0 1c a0 02 be 00 3c 2d ba 24 c4 a7 3d c0 dc d8 bc
       -0.1275639 -0.0006608367 0.08191708 -0.02647245
0000e0 98 7a 88 3d 04 e1 99 bd 6c 85 22 3e d0 2b 5b 3e
       0.06664008 -0.075136214 0.15871209 0.21403432
0000f0 96 6d 6d 3e 7e 51 6b 3e 00 b9 3b 3e c0 8b ac 3b
       0.23186335 0.22980306 0.1833229 0.005265683
000100 ac 27 5c 3e 48 92 2a 3d be 6d 23 3e 8a 12 23 be
       0.21499509 0.04164341 0.15959832 -0.15925041
000110 4e 6e 09 be 32 b4 40 be 2c 5f 66 be a0 08 75 3d
       -0.13420984 -0.18818739 -0.22497243 0.05982268
000120 58 b4 77 bd d0 6a 62 be 40 37 34 3d 7e 37 2a 3e
       -0.060474724 -0.22111058 0.043998003 0.16622731
000130 d4 03 82 bd 98 1b bf bd be 23 47 3e f0 4d eb bd
       -0.063483864 -0.09331435 0.19447228 -0.11489475
000140 2e 61 11 bd 3b f8 74 be f4 c1 90 be 2e 28 17 3e
       -0.03549307 -0.23922817 -0.28272974 0.14761421
000150 4a fe 29 be 25 2e 31 be df 32 cc bc b3 d6 84 be
       -0.1660091 -0.17302759 -0.024926601 -0.25945053
000160 6a b1 48 3e 93 e6 2c 3e cc 77 93 3e 77 3e ad bd
       0.19598928 0.16884832 0.28802335 -0.0845918
000170 15 80 33 be 48 c9 ae 3d 85 f9 66 be af 1b 0f be
       -0.17529328 0.08534485 -0.22556122 -0.13975404
000180 03 c4 95 be dd d0 09 be ae ee 4d be 8d 5e 8d bd
       -0.29251108 -0.13458581 -0.2011058 -0.069028
000190 8b 2f 39 3e 20 d3 50 be a6 69 19 3e 0a 77 fa bd
       0.18084542 -0.20393038 0.14981708 -0.12229736
0001a0 86 25 4b be 44 39 dc b8 0f 81 ca 3d 93 55 ed 3c
       -0.19838533 -0.00010501084 0.09887897 0.028971469
0001b0 b1 51 ad 3d f0 7b 1d be 24 c4 2c 3d 34 ce 55 be
       0.08462847 -0.1537931 0.04217924 -0.20879441
0001c0 e1 c3 1d be 30 5c 07 3e fe 70 76 be e6 fc 8a 3e
       -0.15406753 0.1321876 -0.2406654 0.2714607
0001d0 c3 0c 1c 3e c9 17 74 be dd 95 8a be de a5 1f 3d
       0.15239243 -0.23837198 -0.27067462 0.038976543
0001e0 b2 6d bd bd a0 13 36 3e ec 0b fb bd e0 9d 18 be
       -0.09249438 0.17780924 -0.12258133 -0.14903975
0001f0 bf 5c a7 3d 9b 74 81 be a2 12 97 be a4 df d7 bd
       0.08171987 -0.25284275 -0.29506403 -0.10540703
000200 21 f2 3c 3e 4d 38 5f be e5 f0 d4 bd c6 61 86 3e
       0.1845174 -0.21798821 -0.103975095 0.2624647
000210 69 5c 4b 3e bb 97 13 3e b9 d7 41 be 8d 05 9d be
       0.1985947 0.1441335 -0.18929948 -0.30668297
000220 cf 4a 64 be c0 a7 8d be 6d cc ae bd ff de d7 bc
       -0.22294162 -0.27667046 -0.08535085 -0.02635145
000230 ea 9e 02 be 5e 76 e5 bb 4b 7b f9 3c 2f c6 83 be
       -0.12755933 -0.007002636 0.030454298 -0.2573714
000240 c3 0c 93 be 4c c7 73 3d 5d df 3a bd 0a 3a 8f 3e
       -0.28720674 0.059516236 -0.045623172 0.27973968
000250 28 84 e4 bb 87 ac 26 be 17 34 8b be 9a ae b7 bb
       -0.006973762 -0.16276751 -0.2718818 -0.005605531
000260 4e 44 11 bd eb 52 33 be da 8f 20 be 9c d9 67 be
       -0.03546553 -0.175121 -0.15679875 -0.22641605
000270 f3 8e ee bd bb 0d d7 bd 6e b5 20 be a8 bc 07 bd
       -0.11648359 -0.10500666 -0.1569421 -0.0331389
000280 63 df 72 3d 32 2e cf 3d 74 fe d1 bd 43 4d 4e be
       0.05929507 0.10116233 -0.10253611 -0.2014666
000290 77 a5 22 3e 3f 89 06 3d 48 8d 88 bd e1 cd 95 3e
       0.15883432 0.03284573 -0.06667572 0.29258636
0002a0 72 7d db bd 15 66 35 3e d2 cd a7 be e6 c1 40 3e
       -0.10717286 0.17714722 -0.32774216 0.18823966
0002b0 12 48 f1 3d fe 34 fd bd c3 53 18 be 36 e8 aa bd
       0.117813244 -0.12363623 -0.14875703 -0.08345072
0002c0 70 5c e3 bd 48 34 a0 bd 48 1d 92 bd 68 2e e4 3d
       -0.111016154 -0.07822472 -0.07134491 0.11141664
0002d0 10 bb 10 3d a0 6e 6b 3e 78 c4 9f 3d 10 2a b8 bd
       0.035334647 0.22991419 0.07801145 -0.08992398
0002e0 d8 29 6f bd 4a fe 73 3e cc db cd 3d 46 13 3e be
       -0.058389515 0.23827472 0.100516886 -0.1856204
0002f0 a0 ae bc bd 82 d2 1b 3e f4 6f c0 bd 34 8d 8b 3d
       -0.092129946 0.15217021 -0.09396353 0.06814042
000300 8e 57 64 be d9 ef b7 3d 54 5e 4d 3d a1 76 52 3e
       -0.22299024 0.08981294 0.050138786 0.20553066
000310 97 b7 8e bd 2f 8b 94 be 8c c3 69 3c f3 9a 24 3c
       -0.06968611 -0.2901244 0.014267813 0.010046708
000320 13 52 3a 3e ee 6f 97 be 37 ba 3f be d5 71 71 3d
       0.18195371 -0.29577583 -0.18723379 0.05894645
000330 66 3d db bd e9 bd 9d be f3 9b 55 3c 5c 41 16 be
       -0.1070507 -0.30808952 0.0130376695 -0.1467337
000340 c8 28 32 be 1e f0 0b 3e 40 ca 44 bc da b5 4d be
       -0.1739837 0.13665816 -0.012011111 -0.20088902
000350 54 8d 94 3d f6 92 30 be 84 de 97 bd 90 87 9d 3c
       0.07253519 -0.17243561 -0.07415488 0.01922968
000360 80 c1 34 bb 00 e3 e9 3d 58 93 64 bd 1c a0 a1 3d
       -0.0027581155 0.1142025 -0.05580458 0.078918666
000370 00 68 33 bd b0 fd 28 be 78 d4 c4 bd f0 15 e2 bc
       -0.043800354 -0.16503024 -0.09610838 -0.027598351
000380 8e 4f dd 3d 24 f6 b6 3d 9a 20 5a be c3 55 8a 3c
       0.108061895 0.08933666 -0.21301499 0.016886597
000390 77 33 4e 3e 4f 5f 99 be a6 71 1a be 58 bc cd bd
       0.2013682 -0.29955527 -0.15082416 -0.10045689
0003a0 2c d9 0d be 57 1f 33 be fc 81 63 ba b4 f5 2d be
       -0.13852376 -0.17492424 -0.0008678732 -0.1698826
0003b0 a8 0e 44 be 2d a2 11 bd bd 58 a6 bc 6d 4d 7e 3d
       -0.19146216 -0.035555054 -0.020305986 0.062085558
0003c0 e0 60 29 bc 93 72 27 3e a3 6c 45 bd ec cd 1a 3d
       -0.010338038 0.163523 -0.048199307 0.03779404
0003d0 4c dd aa bd 0f 69 4c be a6 94 1e bd aa 72 f0 bd
       -0.0834299 -0.19961952 -0.03871598 -0.117406204
0003e0 ac 66 08 3e 34 57 7f 3d 17 c7 8f 3e 47 e4 04 be
       0.13320416 0.062339023 0.2808158 -0.12977706
0003f0 51 cc a8 3c aa 99 b0 bd c3 00 1d bd 65 c0 78 be
       0.020605238 -0.08623059 -0.038330805 -0.24292143

bias f4 [32]
000000 8e a2 b5 3a 86 11 58 be 04 35 80 3e 1e b9 6d be
       0.0013857649 -0.21100435 0.25040448 -0.23215148
000010 96 8d 43 be 8a bf 41 3d f9 fa 3c 3e 30 df eb 3d
       -0.1909698 0.047301807 0.18455113 0.11517179
000020 55 8d 96 3e 7b 8f 4f 3e 7f 3f 09 3e 50 f2 17 be
       0.29404703 0.20269577 0.13403128 -0.14838529
000030 2d c4 87 3e ec d4 70 be 87 87 3b 3d 20 a2 2f be
       0.26516858 -0.23518723 0.045783546 -0.1715169
000040 ea 1d 8f 3e 2c ac 8a 3e f4 17 4c be 81 3f 80 3e
       0.2795251 0.27084482 -0.19931012 0.2504845
000050 52 6d 41 3e a8 b4 5e be c1 51 2f 3d e5 a0 3f 3e
       0.18889359 -0.21748602 0.042802576 0.1871372
000060 72 b8 39 3d 6e 11 be bd 36 02 f2 3d 46 11 ce 3d
       0.045341916 -0.09280668 0.11816828 0.100618884
000070 d3 7d 98 3e 94 c7 a9 3d 7c 05 1a be cc ab 80 be
       0.29783496 0.0829002 -0.15041155 -0.2513107

weight f4 [32, 32]
000000 72 33 b3 3d fe 6e a4 bd d4 b2 db 3d fd 03 db 3d
       0.08750047 -0.080289826 0.10727468 0.1069412
000010 ea d2 3e bd 4b 1d c3 3c cd 10 4a 3e 6d d6 06 3e
       -0.046587862 0.023817679 0.19732971 0.13167734
000020 d2 3e 3c 3e 92 ea b9 3d 86 b4 e6 3d 1c a1 25 3e
       0.18383339 0.09077944 0.11264901 0.1617474
000030 36 55 3b 3d 15 d0 da 3d 87 2a e8 3d 79 10 a2 bd
       0.04573556 0.1068422 0.113362364 -0.07913298
000040 2e 11 4b 3e 2a 59 a3 bd 97 54 65 bd 53 92 49 bd
       0.19830772 -0.07975991 -0.055988874 -0.04921181
000050 43 d9 60 3e 4a 5c 0d 3d a9 55 51 ba 47 52 d7 3d
       0.21957879 0.03451184 -0.00079854816 0.1051374
000060 c5 21 0a 3d e5 e6 12 bd 8c 47 68 3e b8 87 43 3d
       0.03372361 -0.03586473 0.22683543 0.047736853
000070 17 93 15 3e e6 ab 0f bb 4c dd e2 bd 14 5e ff bd
       0.14606892 -0.0021922528 -0.11077365 -0.12469116
000080 22 07 0e be 2d db 15 be 3f c0 fa bd 44 52 03 3e
       -0.13869908 -0.1463439 -0.12243699 0.1282435
000090 fd af 2a 3e 7b 6b 28 bb c7 b1 e4 bd 7e 14 2d be
       0.16668697 -0.002569883 -0.11166721 -0.16902348
0000a0 80 d8 88 bd 25 11 64 bd fe 15 88 bd f5 4c 0d be
       -0.06681919 -0.055680413 -0.0664482 -0.13798888
0000b0 88 af d0 bd 46 5a 1a be a3 0a ee bc 1b 8a 0b be
       -0.1018973 -0.15073499 -0.029057806 -0.13626902
0000c0 29 d2 cb 3c b8 c4 61 bd 25 6e d6 3d bb cf 57 bd
       0.024880486 -0.055119246 0.10470227 -0.05268834
0000d0 c2 2f e6 bc 61 18 cd 3d fe 28 e3 3c 62 95 2b bc
       -0.028098945 0.100144155 0.027729508 -0.010472627
0000e0 c6 d1 10 be 24 1b 9b 3c c1 fe 87 3b 1b c4 c3 3d
       -0.14142522 0.01893384 0.004150242 0.095588885
0000f0 bd 55 01 3e d0 f9 eb 3c 4a 29 48 bc 60 6b c7 3d
       0.12630363 0.028805643 -0.012216875 0.09737277
000100 71 39 c5 3c cb d1 04 be bc 60 6f 3d 70 3c 86 3d
       0.024075242 -0.12970655 0.058441862 0.06554496
000110 42 0f 30 3e e9 a0 17 bc a4 47 25 3d 6c c8 cd 3d
       0.1719332 -0.009254673 0.040351525 0.10047993
000120 1e 64 af bd 49 f3 c9 3d f9 95 0d 3e 09 91 65 bd
       -0.08564018 0.09860856 0.13826741 -0.05604652
000130 49 5b 0f bc 4a 0d 14 3e f5 6f b1 3d 1e f4 4a be
       -0.008749791 0.14458194 0.08663932 -0.19819686
000140 34 02 b0 3d a1 6c ad 3d fc 69 d3 bd 51 a2 ec bd
       0.0859417 0.08467985 -0.10322949 -0.11554397
000150 6d 09 01 be ee e9 21 be 85 ed db bc 9b 9d bc 3d
       -0.12601252 -0.15811893 -0.026846657 0.09209748
000160 9d d2 03 be 78 90 36 3d 4a 76 9a bd fa 8d f1 3c
       -0.12873311 0.04457137 -0.07542093 0.029486645
000170 e1 e3 06 be f8 c9 45 be 1d a9 cd 3d 57 2b 87 bd
       -0.13172866 -0.19315326 0.100420214 -0.06600063
000180 bf 92 c6 bd 1a 0a b4 bd 6d a0 8c bd 3b bb 24 3e
       -0.09695958 -0.08790989 -0.06866536 0.16087048
000190 ca 51 ab 3d bc 2d cc bd 37 cd ac 3d 61 1d 1e 3d
       0.083652094 -0.09969661 0.08437579 0.038602237
0001a0 9e 64 7f bc d1 70 a3 3d 57 fa bc bd 13 59 14 3e
       -0.015587954 0.079805024 -0.09227436 0.14487104
0001b0 f0 94 00 3e 0d 71 88 bd aa 42 33 3e 38 d9 cb 3d
       0.12556815 -0.06662188 0.17505899 0.099535406
0001c0 ce 8e 81 3d d6 7d dc 3a d9 55 18 be d5 e8 8f 3d
       0.06326066 0.001682217 -0.14876498 0.07026831
0001d0 e5 f5 92 3d 33 83 55 3d 5a 91 1c 3e 8f 81 42 3e
       0.07175807 0.052127074 0.15289822 0.18994735
0001e0 a8 6b 90 bd 7b 36 fc 3d 3c 4c 60 3e 28 1f 97 bd
       -0.07051784 0.12315079 0.21904081 -0.073789895
0001f0 0a 2d 6d 3d 85 b1 f8 3b e1 07 16 3e 89 ef 22 be
       0.05790428 0.0075895214 0.14651443 -0.15911688
000200 8f fe f6 bd bf f7 dc 3d f4 30 8a ba 25 c6 f8 3d
       -0.12060272 0.10789441 -0.0010543154 0.12147168
000210 d5 d4 58 bd e9 f0 c1 3d 6c 21 16 3d d9 2f 8f 3d
       -0.052937347 0.09469778 0.036652967 0.06991548
000220 c6 2e c7 bd 5c c8 3f 3e 75 de 3a be e4 ac fe bd
       -0.09725718 0.18728775 -0.18248923 -0.1243532
000230 e5 0c 4e 3d b8 05 ff 3d f5 1a 7a bd 6f c9 04 3d
       0.050305266 0.12452263 -0.061060864 0.032418665
000240 d1 3b 01 3e e6 8e ea bd 0c d3 ef 3d fc 9a c5 bc
       0.12620474 -0.11453037 0.11710176 -0.024121754
000250 82 80 12 bd d6 61 bf 3b e6 b1 33 3d 00 8d 1e 3d
       -0.035767086 0.0058405204 0.04387083 0.038708687
000260 b2 43 90 3d b2 2f db 3d 06 cb b7 3d d0 d3 ee 3d
       0.07044162 0.107024565 0.089742705 0.11661494
000270 34 28 37 3e 1c 3b 0e bd 3b fe 18 3e d1 c9 b1 bd
       0.1788643 -0.03472434 0.14940731 -0.086810715
000280 ca 14 b3 bd 2d 35 89 3c ab eb 35 3d f3 f9 66 bc
       -0.087441996 0.016748989 0.044414204 -0.0140976785
000290 46 6a 83 3d dd d5 b4 3d e9 55 b4 bd 6d 7a 0d be
       0.064167544 0.08829854 -0.088054486 -0.13816233
0002a0 28 6c d2 3d 7f 22 ca 3d 01 16 f7 bc ea 8c aa bd
       0.102745354 0.09869861 -0.03016186 -0.083276585
0002b0 6b cc 10 3e f9 63 e2 bc 39 f4 11 be c7 f8 ec bd
       0.1414048 -0.027635561 -0.1425332 -0.11570888
0002c0 4a 23 7b 3d d8 2c db bb 47 90 5d bc 70 1f fe bc
       0.06131295 -0.0066886954 -0.013523168 -0.03102085
0002d0 7d 39 17 3d ac 87 42 bc a6 5c b3 3d c0 3e 95 3d
       0.03692006 -0.011873167 0.08757906 0.07287359
0002e0 2a d3 eb 3d 18 b4 d3 3d e9 d6 2f bd 86 67 33 3d
       0.11514886 0.103370845 -0.042929564 0.0437999
0002f0 79 c0 37 3e 1e 3d bd 3c 4c 7b e0 3d bf b7 21 3d
       0.17944516 0.023100432 0.10961017 0.039481875
000300 5d b0 11 3d 7b 39 34 3c d8 dd 3b 3d ac 19 83 bc
       0.035568584 0.011000033 0.045865864 -0.016003452
000310 39 29 97 3d 2e 63 43 3e 37 05 53 3e 9c d1 7b bd
       0.073809095 0.19080803 0.20607458 -0.061479196
000320 6a 56 22 3e 7d ab d9 3d 8b bd 13 3e c4 a2 09 3e
       0.15853277 0.10628412 0.14427774 0.13440996
000330 18 70 b2 3d de 5c 05 be 4e aa 76 bd 48 d0 30 3e
       0.087127864 -0.13023707 -0.06022101 0.17266953
000340 a6 52 1b bd 30 14 ea bd 8c 7e 8e 3c 80 9a cb bd
       -0.037920617 -0.11429632 0.017394327 -0.09941578
000350 82 74 24 3d f9 98 5c 3d 09 d3 a0 bd c5 24 d8 bd
       0.040150173 0.053856824 -0.07852752 -0.10553888
000360 96 cf b5 bd cd e3 fe bd d1 5d 6e bd a2 9b 99 3d
       -0.088774845 -0.12445793 -0.05819494 0.07500388
000370 48 69 8e 3d 68 20 d0 bd c7 b1 bc 3d 4d e4 a3 3d
       0.069536746 -0.10162431 0.09213596 0.08002529
000380 df 0d 4b 3e 3c ee cf bd e4 89 8a bd fc a1 7a bd
       0.1982951 -0.101528615 -0.06764582 -0.061189637
000390 71 21 00 3e 52 e3 d3 3c 67 93 15 3e a8 40 27 3e
       0.12512757 0.02586523 0.14607011 0.16333258
0003a0 b8 b6 32 3e 1a 13 07 3e c6 8d e1 3c cc 3a 7d bd
       0.17452514 0.1319088 0.027533423 -0.06182365
0003b0 c9 80 e7 3d 83 8c 06 3e d0 2c bc bd ec 52 3a 3c
       0.11303861 0.13139538 -0.09188235 0.011372309
0003c0 cd bf 65 bc 0e 9d d2 bd d2 1a 1d 3e 63 54 7d bd
       -0.01402278 -0.10283862 0.15342262 -0.061848056
0003d0 31 09 62 3e a3 c8 4f bd 57 12 33 be 5e 34 b2 bd
       0.22073819 -0.05072845 -0.17487465 -0.087013945
0003e0 e3 90 52 3e e4 6a 6c 3b e6 e2 84 bc 3e 18 2c 3e
       0.20563082 0.0036074454 -0.016221475 0.16806123
0003f0 0c 5b 93 bc 4f c5 b6 3d 56 4c 19 be 73 86 0b be
       -0.01798775 0.089243524 -0.14970526 -0.13625507

bias f4 [32]
000000 1c c9 d7 3d ca 6c b0 3d 87 5b e1 bd 0b 58 a4 3d
       0.105364054 0.086145 -0.110037856 0.08024605
000010 33 a4 1b 3e 43 66 7b 3d 8b d3 2b 3e 22 12 01 3e
       0.15199356 0.06137682 0.16779916 0.12604573
000020 03 e6 d2 bd 08 d3 88 3c 4c 0f 90 bd 99 4e 57 3e
       -0.102977775 0.01670219 -0.07034168 0.21026076
000030 69 24 31 3e 95 75 84 3d 93 d0 c8 3d e4 ed 20 be
       0.17299046 0.064677395 0.098054074 -0.15715748
000040 66 04 b8 bd d2 e6 9a 3d d7 a7 16 bb b0 5d be 3d
       -0.08985214 0.07563557 -0.0022988224 0.09295213
000050 25 50 7b 3d 9c e2 67 bd 4a 11 4a 3e 25 5f 5c bd
       0.06135573 -0.056612596 0.19733158 -0.053801674
000060 b1 b2 4f 3e 4f 19 69 bd ab 02 09 3d 79 19 5d 3e
       0.20283009 -0.0569089 0.03344981 0.21591748
000070 0d 91 da bd 50 82 aa 3d 77 6e 32 3e 1d 37 0b 3e
       -0.106721975 0.083256364 0.17424951 0.13595243

weight f4 [32, 32]
000000 19 f8 00 bd 83 cd 1a bd 32 e3 23 3e 24 ce 9a 3d
       -0.031486604 -0.037793647 0.16004637 0.075588495
000010 63 91 20 be fa b8 06 be 6c e6 22 3e db 6c b8 3d
       -0.1568046 -0.131565 0.15908211 0.090051375
000020 3d 08 d3 bc cd 9c 31 bd ea 3a 97 bd 37 02 45 bd
       -0.025760764 -0.043362428 -0.07384284 -0.048097815
000030 d6 b2 c9 3d 9b 60 70 3d 3d 35 9f 3c 70 7e 34 be
       0.098485634 0.05868588 0.019434566 -0.17626357
000040 1f df 0e be 8f 3b 15 be 07 15 26 3d 7e 64 b2 bb
       -0.13952301 -0.14573501 0.040547397 -0.0054441085
000050 39 d2 88 3c bc e5 06 be ad c5 f1 3d c1 51 f1 bd
       0.016701804 -0.13173574 0.11805282 -0.117831714
000060 f3 94 ed bd 20 6d 0a be ab 8a 15 3e bf cd a8 bd
       -0.116006754 -0.1351819 0.14603679 -0.08242368
000070 cb 6b bd 3b a8 ac a4 bd df c7 c7 bd 91 de 19 be
       0.005780672 -0.08040744 -0.09754919 -0.15026309
000080 24 b4 45 3e ec 31 25 be 2e fd 22 be 27 23 98 3d
       0.19307 -0.16132325 -0.15916893 0.0742858
000090 08 a3 e9 bd f6 bb 42 3e 10 fa 25 3e 4c e5 93 bc
       -0.11408049 0.19017014 0.16208673 -0.018053673
0000a0 af 2b b1 bc 99 f4 36 3e c1 62 c1 bd 4d ff 64 bd
       -0.021627275 0.17866744 -0.09442664 -0.055907536
0000b0 95 11 6b 3e d4 5e 0e be 94 46 be 3d af 10 80 bd
       0.22955926 -0.13903362 0.092908055 -0.06253182
0000c0 a9 8a d5 3c 59 6b 2b 3e 6b 9a 7f bd 4a d2 20 3e
       0.026067095 0.16740169 -0.062403124 0.15705219
0000d0 00 b1 3b 3e 64 24 32 3e 30 bb d2 3d 2a 18 16 3e
       0.18329239 0.17396694 0.102896094 0.14657655
0000e0 e5 bd 6a 3d bd db d7 bb 24 35 8c 3d 54 57 e5 3d
       0.057310004 -0.006587474 0.06846073 0.11198297
0000f0 3e 54 92 3d b2 bd b2 bd b1 4e 31 3e 68 71 15 3e
       0.07144974 -0.08727588 0.17315175 0.14594042
000100 44 36 20 bc 80 e1 78 3c 47 75 31 3e 5d 3a 61 bd
       -0.009778563 0.015190482 0.17329894 -0.0549873
000110 2a 7f 85 3c c5 68 08 3e a5 be 5b bd f5 06 d9 3d
       0.016295988 0.13321216 -0.05364861 0.1059703
000120 f4 b9 a7 bc bb 6d bd 3d 11 93 85 3d 60 58 7f 3c
       -0.020474412 0.09249445 0.06522191 0.015585035
000130 45 ee 3a bd bc 2a 9e 3d 98 6a a6 3d 27 10 b5 3d
       -0.045637388 0.07722995 0.081258 0.088409714
000140 ed 6f 82 3d 81 f6 0b 3e 02 da 0c be 2c ce 11 3e
       0.063690044 0.13668253 -0.13755038 0.14238805
000150 a0 97 51 3e 13 6b 97 3d 12 22 d0 bd 73 29 79 bd
       0.20467997 0.0739347 -0.101627484 -0.060830545
000160 ef 6b 09 3e ab 10 88 3d c0 3d 7a 3d b4 84 0b 3d
       0.1342008 0.06643804 0.061094046 0.034062102
000170 ff 40 a7 3d 03 07 ad bd 1c db 01 3e 8b c2 03 3e
       0.08166694 -0.08448603 0.1268124 0.12867181
000180 25 fa 26 3e 75 24 cf bd cf a6 b1 3d 48 89 c7 bd
       0.1630636 -0.101143755 0.08674394 -0.09742981
000190 5d 7e 97 bd c6 dc 63 3d cc 2d 3b 3a 86 97 0d 3e
       -0.07397149 0.055630468 0.0007140308 0.13827333
0001a0 61 77 32 3e 6e 20 c5 3d 9c 28 e4 3d d9 c6 0d be
       0.17428352 0.09625326 0.11140558 -0.13845386
0001b0 75 6e 07 be 5f b2 00 be 18 69 22 be 18 28 c8 bc
       -0.1322573 -0.12568043 -0.15860403 -0.02443318
0001c0 7e 72 0f 3e ca b8 14 3e 84 23 49 bd 16 25 cf 3d
       0.14008519 0.14523616 -0.049106136 0.101144955
0001d0 a8 9a 2e be 79 91 59 3d 8f 23 ed bd c1 1d 8d bd
       -0.17051184 0.05311725 -0.11579048 -0.06890441
0001e0 76 31 28 be bf f8 24 3c f9 c9 c9 3d 3c 16 c5 3c
       -0.16425118 0.010069071 0.09852976 0.024058454
0001f0 d1 d5 1a 3e bf 91 31 be f4 aa 24 be 67 cb 05 3e
       0.15120627 -0.17340754 -0.16080838 0.13065873
000200 03 be d5 bd 77 1a 5c bd 39 4d d8 3d 93 9b 23 3e
       -0.104366325 -0.053736176 0.10561604 0.15977316
000210 5a d0 ff 3d 42 dc fc 3d 49 82 1a 3e 49 f2 c2 3d
       0.12490912 0.12346698 0.15088762 0.095188685
000220 68 4d b1 3c df 8a e1 3d f7 57 28 3e 3b 56 a7 bc
       0.021643355 0.11012816 0.16439806 -0.02042686
000230 ea 35 c0 bd 69 cf 90 bd 44 46 ad 3c a3 f0 e3 3d
       -0.09385283 -0.0707081 0.02115167 0.11129882
000240 a7 ff d7 3c e9 c2 2e 3d 2f a5 00 3e ec 46 04 3d
       0.026367022 0.04266635 0.12563013 0.0322942
000250 50 39 f1 bd f7 26 38 3d 82 08 67 bc 32 fe 16 3e
       -0.117785096 0.044959035 -0.0141011495 0.14745405
000260 70 51 2d be fb d7 15 be 4e 73 b0 3d ca 72 01 3d
       -0.16925597 -0.14633171 0.086157426 0.031603612
000270 75 c6 33 be 07 9a d7 bc b2 94 11 3e e4 60 d8 bd
       -0.17556174 -0.026318563 0.14216879 -0.105653554
000280 04 a3 d5 3c ed 69 c9 3d f7 3a 0c 3d ce 4b ba bc
       0.026078708 0.09834657 0.03423592 -0.022741225
000290 d4 40 95 bd 48 48 e0 3c 96 a7 9d 3d d2 ef 23 3e
       -0.072877556 0.027378216 0.0769798 0.16009453
0002a0 30 de 5f 3d 37 b0 30 be ef e4 40 3d 5e e8 a0 3c
       0.054655254 -0.1725472 0.047093328 0.019642051
0002b0 2a 55 31 be 09 c5 68 3d 97 0e 02 3e 2c 44 2f be
       -0.17317644 0.056828532 0.12700878 -0.1711585
0002c0 bd 5a 12 bd b3 dc af 3d 64 0e 0c 3e 15 db b3 bd
       -0.035731066 0.08587017 0.13677365 -0.08782021
0002d0 85 1d 2a 3e 99 25 37 3c bb bc ac bd 22 7f c2 bd
       0.16612823 0.011178398 -0.08434435 -0.09496905
0002e0 17 96 d1 3d ad 7d 1f bc 1e 3a d8 bd 66 18 90 bd
       0.102337055 -0.009734553 -0.1055796 -0.07035904
0002f0 b1 8e 30 3e 41 20 3b bd ac 17 f9 bc 3e d3 22 3e
       0.17241932 -0.045685057 -0.030406795 0.15900895
000300 c8 44 b9 3c 2c eb 2c 3e 59 e3 9b bd e5 57 4f 3d
       0.022615805 0.16886586 -0.076117225 0.050620932
000310 d4 b5 0b be d4 ee 16 3e a4 5a 8c 3d 4a 2f 20 be
       -0.1364358 0.14739543 0.06853226 -0.1564304
000320 9e 61 15 bd b7 ae 21 3d bb be 22 be f9 bd a6 3d
       -0.036470048 0.03947326 -0.1589307 0.08141703
000330 a7 56 c1 bd e5 bc a9 3d 81 7f b4 3d 9d f9 a1 bd
       -0.09440356 0.08287982 0.08813382 -0.07908938
000340 c9 17 85 bd 20 d1 07 3e c7 94 c4 bc 29 d2 fd bd
       -0.06498677 0.13263369 -0.023996724 -0.123936005
000350 70 c9 02 3d 6e 61 1f 3e 84 15 6a 3d 35 23 e4 3d
       0.031930387 0.1556451 0.057149425 0.11139528
000360 9f e6 91 bc b3 79 4c 3a 1f 3f c7 bd 93 81 e5 3c
       -0.017810164 0.0007800117 -0.09728836 0.028015887
000370 2f 31 53 3d 1a 20 fc bd f4 e6 1a bd 53 a4 a3 3d
       0.051560577 -0.123108104 -0.03781791 0.07990327
000380 c3 ed d2 3d 2c 02 81 3d d1 65 c5 bb cd e3 1f 3e
       0.10299256 0.062992424 -0.0060241004 0.15614243
000390 aa bb a7 3d 03 91 bd bd 8b c6 20 bd 99 3b 42 3e
       0.08190091 -0.092561744 -0.039251845 0.18968047
0003a0 db 50 2d 3e 69 34 02 be 5a 86 28 3b 57 32 73 3e
       0.16925375 -0.12715305 0.0025714845 0.23749672
0003b0 c2 bc 49 bd 4d 5e ac 3d a6 f7 ee bd 16 44 32 3e
       -0.04925228 0.08416424 -0.11668329 0.17408785
0003c0 e1 03 e7 bd e2 a7 62 3e 50 cb aa 3d ad ea 31 3e
       -0.11280037 0.22134355 0.0833956 0.17374678
0003d0 a6 0b 6b 3e 3e b9 1d 3e d0 95 53 3e c2 8b 2e bd
       0.22953662 0.15402696 0.20662618 -0.042613752
0003e0 19 6d f5 3d 81 65 22 bc 5c 7b e1 3d c4 3b 49 3e
       0.11983699 -0.009911896 0.11009857 0.19651705
0003f0 72 c0 e9 3d b4 83 f0 3d fd 58 ba 3d 89 e6 3e 3e
       0.11413659 0.117438704 0.090990044 0.1864263

bias f4 [32]
000000 ce 93 e4 3d 28 bb 3f bd 7b 9e 27 3e 45 c7 c8 bd
       0.11161004 -0.046809345 0.16369049 -0.09803633
000010 c7 2e 83 bd c3 7a 01 be a6 15 00 be 1c 7f 2f bc
       -0.064054064 -0.12644486 -0.12508258 -0.010711458
000020 56 c7 1b be f8 95 c8 bc c4 f1 f9 3d 24 8c f2 bd
       -0.1521276 -0.024485573 0.12204316 -0.11843136
000030 0c 2d cc 3d f8 20 32 be 55 20 1e bd 4c 89 a7 bc
       0.099695295 -0.17395389 -0.038605053 -0.02045121
000040 bb 6d a7 bc 6a ce 65 bd 43 74 ab bd a9 ca 13 be
       -0.020438066 -0.056105055 -0.083717845 -0.14432777
000050 17 51 d8 bd a5 21 b1 bd 2c ba c1 3b 88 93 a8 bd
       -0.10562342 -0.08648995 0.005912086 -0.08231264
000060 99 4b 0c 3e 08 c8 28 be 43 70 e1 3c d8 f5 80 3d
       0.13700713 -0.16482556 0.02751935 0.06296891
000070 a7 dd 24 be 35 b7 80 bd 8b f2 45 bc d6 ba c9 ba
       -0.16100179 -0.06284944 -0.0120817525 -0.0015390764

weight f4 [1, 32]
000000 7e e1 c1 3c 9c 18 a3 bd 8e 5e 63 bd af 48 81 3c
       0.023667093 -0.07963678 -0.055510096 0.015781729
000010 ff 7a e4 ba e9 36 54 bc 0d a8 bd 3b f2 d8 91 bd
       -0.0017431675 -0.012952545 0.0057878555 -0.07121457
000020 b4 ce 86 bc cd 33 83 bd 2b ed 13 bd fa 41 b1 3c
       -0.016455986 -0.064063646 -0.036114853 0.021637905
000030 d2 fd 8a bd a2 85 2c bb 08 07 15 bd d0 40 83 bc
       -0.06786694 -0.0026324769 -0.03638366 -0.016022116
000040 02 82 96 bc 74 b1 a4 bd 35 62 8f 3c f3 46 84 3c
       -0.01837254 -0.08041659 0.017502883 0.016147112
000050 0b f9 6f 3c f5 78 78 3c ce 63 b8 bc de 3f 39 3c
       0.014646779 0.015165557 -0.022508528 0.011306731
000060 b7 5c 2d bd ef fe 70 3b 15 40 48 bd e0 f3 e0 3c
       -0.042324748 0.0036773046 -0.04888924 0.027460039
000070 4e 6a a2 bc f8 b5 85 3b a1 cb ac bc f1 cb 13 3c
       -0.01982608 0.0040805303 -0.021093192 0.009020791

weight f4 [1, 32]
000000 90 a0 dd 3c d4 e1 00 be 9e 9f ce bd 6d 40 a8 bb
       0.027054101 -0.12586147 -0.10089038 -0.0051346333
000010 0d aa 8c 3c 32 a1 3d bd b0 06 bd 3c fb 37 28 be
       0.01717093 -0.046296306 0.023074478 -0.16427605
000020 49 c2 e0 3c fd bf 50 bd e7 d6 aa bd e9 3a 8a bb
       0.027436392 -0.050964344 -0.083417706 -0.0042184484
000030 0c 8f de bd d5 73 79 bc 9c dc b5 3b ac ed e3 bc
       -0.10867128 -0.01522537 0.0055499803 -0.027823292
000040 83 54 60 3a 91 01 10 be e5 b4 1b 3c b6 1a e2 bb
       0.0008557515 -0.14063098 0.009503578 -0.006900157
000050 e4 6a eb 3c 82 fd a8 3a d4 8f b0 bc 09 d7 ce bb
       0.028737493 0.0012892934 -0.021552958 -0.0063122553
000060 74 0e 06 be 50 2c f1 3b 23 11 f4 bd 3e 5c 24 3c
       -0.13091451 0.007360019 -0.11917331 0.010031758
000070 db a1 18 3b 03 3d d7 bc 14 bf b8 bc 1b df db 3c
       0.0023289833 -0.02627421 -0.02255205 0.026839783
