models/patient9/ppo_model_for_patient_9_Critic.pth (torch, 22738 bytes, 11 tensors)

weight_ih_l0 f4 [64, 2]
00000000: 8809 22bd 8626 62be a613 6ebe dfab 37be
00000010: 8e32 92be 1fc9 0cbe d0ae 2e3e c381 973d
00000020: c9a8 04be e09c 83be 7982 ec3d 21ec 8ebd
00000030: b6c4 60be 604f f0bd 326c df3d a70d 1bbc
00000040: 0d32 803c b173 3c3e db7f bfbd 4b01 c3bd
00000050: 6874 16be f184 5b3d 09b8 cabc 5e6f 6e3d
00000060: 4077 e8bd c166 83be d258 a7bd 9bf0 0abe
00000070: 4612 e4bb 120c f4bd bff4 8dbe 0d81 a73d
00000080: e3a2 da3d 2b17 29be 90ca 46bd 6e05 8abe
00000090: 3e1b 03bd 5a21 78bd e2b8 18be e4ed 54be
000000a0: 3161 923d b03e 5a3c 39c0 9abe 0bc5 043e
000000b0: b6cf 80be 5649 d03d 9905 b4bd 629c fdbd
000000c0: 9cd2 66be 6577 43be ae73 a6be 52d2 6cbe
000000d0: 6225 89be 886e 3ebe f200 95be 8309 b4bc
000000e0: 6028 d0bd 214d 903d 8b91 93be 7329 3dbe
000000f0: 1287 43be bbef 47be 4ed6 36be d4f0 77be
00000100: c154 ab3d a234 3abe f306 353d 0219 9abd
00000110: 127f af3d 450b 2d3e 3ad0 083e ed84 413e
00000120: d645 833e 8f80 2b3b da34 893c a4d6 443e
00000130: e130 dfbd e09c 5d3e db15 5fbe faa3 6abe
00000140: c077 fbbd 2562 333e 4661 21bc 42fb 1ebe
00000150: a919 383d 6a50 143e 42e5 1f3e a60c 763d
00000160: d663 45be af93 173e fc84 123e dc88 9ebb
00000170: 8b46 023d bd32 58be 5524 173e 67ff 5abe
00000180: 0fa8 afbe 2478 9a3c aa05 5fbe 933f 9ebe
00000190: 61c1 65be 6e67 71be f21a 1dbe 2890 11be
000001a0: aefa d93d 0f8e aabd 5d24 c6bd 91e2 94be
000001b0: 57a1 013e 5014 a0bd 6e15 8abe 0035 47be
000001c0: fc19 88be c559 47be 7da1 fdbc 6aba 0fbe
000001d0: 1eb5 e8bd d5ba 03be e2bb 18be 83fe 233d
000001e0: ea76 d73c a866 0f3d 1eba 90be 5798 6dbe
000001f0: f5a1 aebc e05f 8e3c 157b b6be 918c d43d
-0.03955987 -0.22085008 -0.23249683 -0.17936657 -0.28554195 -0.13748597 0.17058873 0.07397797
-0.12955011 -0.25705624 0.11548323 -0.06978632 -0.2195004 -0.117338896 0.109093085 -0.009463704
0.015648866 0.18403508 -0.09350558 -0.09521731 -0.14692843 0.05359358 -0.024745958 0.058211677
-0.1135087 -0.25664333 -0.08171238 -0.13568346 -0.006960186 -0.11916365 -0.2772579 0.08178911
0.106755994 -0.16512744 -0.048533022 -0.26957268 -0.032008402 -0.06057868 -0.14914277 -0.20793873
0.07147444 0.01332061 -0.3022478 0.12965791 -0.2515847 0.10170238 -0.0879013 -0.12383343
-0.22541279 -0.19088514 -0.32510132 -0.23127106 -0.26786333 -0.18596852 -0.29102284 -0.021977192
-0.10163951 0.07045961 -0.28821978 -0.18472843 -0.19094494 -0.19525044 -0.17855188 -0.24212962
0.08365775 -0.1818414 0.04419608 -0.07524301 0.085691586 0.1689883 0.13360682 0.18898363
0.25639218 0.0026169156 0.016748834 0.19222504 -0.10897995 0.21641874 -0.21785681 -0.22914115
-0.122787 0.17517908 -0.009849852 -0.15525535 0.044946346 0.144838 0.15614799 0.060070656
-0.19276366 0.1480243 0.14308542 -0.0048380923 0.031805556 -0.21113105 0.14759953 -0.21386491
-0.34307906 0.018856116 -0.21779504 -0.30907878 -0.2243705 -0.23574612 -0.1534231 -0.14215147
0.106435165 -0.08327877 -0.096749045 -0.29079106 0.12659203 -0.07816374 -0.26969475 -0.19453812
-0.26582325 -0.19467838 -0.030960793 -0.14035955 -0.1136267 -0.1286424 -0.14915422 0.040037643
0.02630182 0.03501001 -0.28266996 -0.23202644 -0.021317462 0.017379701 -0.3564078 0.103783734

weight_hh_l0 f4 [64, 16]
00000000: bb85 863e 0c19 923e 5695 a53d 143c 6cbe
00000010: 448d 2f3c b9b7 7cbe 220d 1f3e 0f24 453d
00000020: 05b5 c83d 085c a2be a6c5 0dbc 220e 69be
00000030: d5d2 11be 6da6 13be ba9d aebd 83c6 e7b9
00000040: a291 853e 25b8 9f3d 5288 cebd d53d 0a3e
00000050: e8bf d1bd 2d23 2bbe 9fd6 313e 29bb afbd
00000060: fe48 a0be 83a7 b03d ff85 8f3d 4d93 8fbe
00000070: 8452 a03e ec4b c7bc b320 493e 9b3a 343d
00000080: aaf4 5b3e 46f0 f4bd 5992 33bd d1db c23d
00000090: 399a de3d fac5 143e 4ea2 14be 6f98 643e
000000a0: f369 76be 9494 27be 4ccd c33d e3f6 33be
000000b0: 3dd5 9c3e 6b35 273e fba8 b03d 09dd 063e
000000c0: 974c 3a3d e931 c7bd ebcb 1bbc 9894 dc3d
000000d0: 18b7 393d 65bd 8cbe ff8b 5fbe 18a0 adbd
000000e0: c8c4 66be bba2 ea3d 56b3 b4bd 3fb6 aabe
000000f0: ae5d 893e b8ea 5ebe 2ac0 96bd 07dd 0e3e
00000100: f830 323d 459e 1d3d 16ee 1c3e 00b8 3ebe
00000110: fc8e 833e 5f53 ea3d f96d 883d dd7f 4f3e
00000120: cc1e 0fbc cd26 56be 5c2f 96bd 165f 14be
00000130: eb71 37be a24d 4ebe b7b3 5e3e 65a2 de3d
00000140: 1465 e53d f4dc 7ebd 0a00 00be 2269 933d
00000150: 492f dc3d 18c9 143e b895 70be f7e3 2abb
00000160: dc11 39be 427a 97be 235d 59be 3bac a7be
00000170: a504 ea3d 5e22 11be 6f53 e0bc 7933 533e
00000180: aed2 243d 578f 13be 03ba dcbd 4155 703d
00000190: c60a 233e 99cd abbd 2180 8a3d db9b a43d
000001a0: 42ec 31be 1c39 8fbe 549b 133d a38a 36be
000001b0: eac4 0fbe c9e6 88be 77c5 5d3d adb1 843e
000001c0: 6197 903d 00ad a73d e9c3 a3be 9026 62bd
000001d0: 703b 80be d9c6 1ebe be3b a23d 5b2d 0b3e
000001e0: 7816 0dbd 50ab 5c3c cd72 82bd 3a16 0e3b
000001f0: 5046 633e d0fe 28be 2187 5c3e ba11 023d
00000200: 35cd 393e e94c 743d 1165 ba3d f42b 4cbe
00000210: ac4e 50be a654 183e 2246 133d 2b2f 283e
00000220: 02de 9ebe e924 31be 6f15 0b3e 2601 1bbe
00000230: 2e12 8a3e 7fd0 3dbe d6b9 183d 23d2 423e
00000240: e1b8 8c3e cb75 c1bd 069a 0bbe 51ca c53d
00000250: 64d2 e2bd 6c24 acbe f7ab a6be 6ca1 6a3e
00000260: e4fd 533d 9ba8 a5be 72ce 883d 5558 a93d
00000270: 84da 9b3e 6c82 6d3d 2a32 8f3d e399 febd
00000280: 6e9d 02bc 4370 8f3e 988e 183d fc5e 11be
00000290: 2035 84be 2048 2bbe 49ba 62be 7eef 6e3e
000002a0: 9c6f cfbb 2fd6 22be 3caa a8bc 79ef 773d
000002b0: 75a6 443e ef0d 223d 3a79 e73b 2fd0 f4bd
000002c0: b4e3 d43d ff49 913e d709 91be 1d2b dd3d
000002d0: 4cb0 d43c 854c 363d ce19 6bbe 3b80 f43d
000002e0: b2c1 e5bd a9fe 8b3d 24ad 213e 9d05 e8bc
000002f0: 1fe1 b5bd 0153 75be b7fd 443e 0d73 2e3e
00000300: f7c3 393d dede 9b3e 588d 66be a63c 2fbe
00000310: 1802 0e3e 0dac 46be 8e6d 6bbd 0f3b 9cbd
00000320: 55cc 213e d21c 91be b9b9 8ebe dd75 7bbe
00000330: 3192 22bd b63c 4fbe 0302 e13c f3e5 823e
00000340: d71d 3f3e c688 a93d c00b f1bd 8b19 cabc
00000350: 87f4 98bd c58c 98be e092 64be 2ab7 0c3e
00000360: 0d2f 9cbd 31f7 5fbe ec87 bfbd 50c8 71be
00000370: d7aa d43d 694b cf3d 3328 813e 03f2 943e
00000380: 345d a73e ff96 d53d b97a 1a3d 125c 61be
00000390: e7fd 9b3e 9e18 843d 6b09 48bd e0be 963e
000003a0: 5505 f8bd e990 84be b47e b13d 5a67 003d
000003b0: 35e4 ffbd 70c9 c53d 19ef 793e 4fbc 69ba
000003c0: 74bd 54bd f572 cebd 5758 5cbe fa8f 8dbe
000003d0: 71e6 06be 53d2 49be e451 2d3d 6b62 463e
000003e0: 7603 ee3d edae d9bc 412d d73d 4654 86be
000003f0: d146 01b9 47ba 5fbe 954a d2bc da68 833e
0.26273903 0.28534734 0.08085124 -0.23069793 0.010714833 -0.2467946 0.15532354 0.04813009
0.09800152 -0.3171084 -0.00865308 -0.22759297 -0.14240582 -0.14418955 -0.08526178 -0.00044207656
0.26087672 0.07798795 -0.10084595 0.1350015 -0.10241681 -0.16712637 0.17367028 -0.0858062
-0.3130569 0.086257 0.070079796 -0.2804207 0.31312954 -0.024328195 0.1964138 0.044001203
0.2148005 -0.11959891 -0.04384074 0.09514583 0.108692594 0.14528647 -0.1451504 0.22323774
-0.24063854 -0.16365272 0.09560642 -0.17574649 0.30631438 0.16328971 0.086259805 0.13170256
0.045483198 -0.097263165 -0.009509067 0.107705295 0.045340627 -0.27488247 -0.21830748 -0.08477801
-0.22536004 0.114568196 -0.08823268 -0.33342168 0.26829284 -0.21769226 -0.07360871 0.13951503
0.04350373 0.038481016 0.15325198 -0.18624878 0.25695026 0.11441683 0.066616006 0.2026362
-0.00873537 -0.20913239 -0.07333252 -0.14489397 -0.1791455 -0.20146802 0.21748243 0.10870818
0.1120092 -0.062222436 -0.12500015 0.07197787 0.107512064 0.14529836 -0.23494613 -0.002607582
-0.18073219 -0.29585463 -0.21226935 -0.3274859 0.11426667 -0.14173266 -0.027383534 0.20625104
0.040239982 -0.14410149 -0.107776664 0.058675054 0.15922078 -0.08388824 0.0676272 0.080375396
-0.17375281 -0.27973258 0.036036804 -0.17826323 -0.1403996 -0.26738575 0.054143395 0.25916806
0.07060123 0.08187294 -0.31985405 -0.055212557 -0.25045347 -0.15505542 0.07921551 0.1359152
-0.034445256 0.013468578 -0.06369553 0.0021680729 0.22194791 -0.16503453 0.21535923 0.031755187
0.18144687 0.05964366 0.09101308 -0.19938642 -0.20342511 0.14876041 0.035955556 0.16424243
-0.31028754 -0.17299236 0.13582395 -0.15137157 0.26966995 -0.18536566 0.037286602 0.19025473
0.274848 -0.09446295 -0.13632974 0.096577294 -0.11075285 -0.33621538 -0.32553074 0.2291314
0.0517558 -0.32355198 0.06680001 0.08268801 0.30440152 0.057985708 0.0699199 -0.12431695
-0.0079721045 0.28015336 0.037245363 -0.1419639 -0.2582178 -0.16726732 -0.22141375 0.23333547
-0.0063304435 -0.15902017 -0.020588987 0.060531113 0.19204123 0.03956407 0.007064012 -0.1195377
0.103949934 0.28376767 -0.2832782 0.10799239 0.025962971 0.04450657 -0.22959062 0.119385205
-0.11218585 0.06835682 0.15788704 -0.02832299 -0.08880829 -0.23957445 0.1923741 0.17036076
0.045352902 0.30443472 -0.22514856 -0.1711298 0.13867986 -0.1940157 -0.057477526 -0.07628452
0.15800603 -0.283423 -0.2787607 -0.2455668 -0.0396902 -0.20238003 0.02746678 0.25566062
0.18663727 0.082780406 -0.11769819 -0.024670383 -0.07468515 -0.297949 -0.22321653 0.13741747
-0.07626162 -0.2187164 -0.09352097 -0.2361157 0.103841476 0.10121805 0.25225982 0.2909089
0.32688296 0.10429191 0.037714694 -0.22007778 0.3046715 0.06450008 -0.048837107 0.294425
-0.12110392 -0.25891808 0.08666745 0.031348564 -0.12494699 0.09657562 0.24407615 -0.0008916305
-0.05193849 -0.1008052 -0.21518074 -0.27648908 -0.13173844 -0.19709139 0.042314425 0.19373481
0.11621754 -0.026572669 0.105066784 -0.2623617 -0.0001232878 -0.21848403 -0.02567033 0.25665933

bias_ih_l0 f4 [64]
00000000: 670e 02bd 823a 8d3e 150b d3bc 5f87 983e
00000010: a87e ebbd a02d 093d 24c3 8c3e 9778 abbd
00000020: fbd3 853d aec1 873e 5a10 923e 94fb a5bd
00000030: 36d4 a43c 2835 2dbe 51bb 583e d617 0b39
00000040: 18a7 1abe 48be efbd 8266 973e 2891 b0bd
00000050: 1edd 093e 766f b53d 556f 623e 00cf 4bbd
00000060: 6942 8a3e 942a 0dbe e0ec d73c 849e dbbd
00000070: 25d8 8a3b 0ec3 983e fbe1 313e 65ce 783e
00000080: 5290 e03d 3033 3a3e de1f d23d 2233 44bd
00000090: e891 56bd 0bef 27be 7bad d6bd 71da 42be
000000a0: 6b6e 66be f703 33be 7209 c2bc e0a4 9abd
000000b0: e5c7 e43d 878f a53d fe3e bc3d 69a7 9e3d
000000c0: b318 b63b 0d02 ab3e c575 9e3d ed0c 3d3e
000000d0: c9e9 1dbc f61d 9a3e f3ed 0fbd 86e1 483e
000000e0: 0afb 4b3c 4fba 6f3e a4e7 fa3b c918 5dbc
000000f0: 09b3 e13d f200 543e b37b 743e 6b94 b43e
-0.031752016 0.275837 -0.02576212 0.2979078 -0.11498767 0.033490777 0.2749263 -0.0837261
0.06534573 0.26514953 0.285281 -0.08104625 0.020120721 -0.16914809 0.21165206 0.00013264953
-0.15102804 -0.11706215 0.29570395 -0.08621436 0.13463256 0.0885915 0.22112782 -0.049757957
0.27003792 -0.13785774 0.026358068 -0.10723594 0.004237192 0.29836315 0.17371361 0.24297483
0.10965027 0.18183589 0.102599844 -0.047900327 -0.05238524 -0.16399781 -0.104823075 -0.19028641
-0.22503059 -0.17481981 -0.023686145 -0.07550979 0.11170939 0.08084016 0.09191702 0.07746775
0.0055571436 0.33400002 0.077373065 0.18461962 -0.009638258 0.30100983 -0.035139035 0.1961728
0.012449989 0.23410915 0.0076570082 -0.013494679 0.11020476 0.20703486 0.23875313 0.35269484

bias_hh_l0 f4 [64]
00000000: 5729 493e e3de 8abc c563 063e af63 953e
00000010: 3389 54bd dd52 f53c d9a8 18bd 7bc9 da3d
00000020: 5759 6f3e a587 58bd d3ca 13be cd67 9b3e
00000030: 0e09 e8bd 3cbe 2dbe c47b 9fbd 7953 223d
00000040: eb36 9c3e 174a 893e be52 d23d 6a48 853d
00000050: ec07 8b3e 6399 053e 1fc8 813e 2fe0 693e
00000060: 02ed 8b3c 8820 ebbc 48b7 7dbc 40a1 55bd
00000070: 8230 523d 24d3 05be 2290 5abc 8f28 733e
00000080: 60ea 513e c685 83bd b180 59be a941 98be
00000090: b3fe 82be 953a 8ebe ec96 7abe aedb 873e
000000a0: b518 033e 4ba3 9cbe 9ce3 91be 9550 2ebe
000000b0: cf4b 2e3e 17eb d3bd 259c 5bbd 2ba9 3d3d
000000c0: d3b5 f53d 39f7 fd3d 20f8 4fbc f055 863e
000000d0: 9306 fbbd 5a78 3739 64d3 3dbd 1eab 0c3d
000000e0: f982 2c3e 9532 6a3e 7396 023d b227 cf3d
000000f0: a421 803e 4549 bc3d a944 24be 1532 c43d
0.19644676 -0.016951984 0.13123997 0.29177615 -0.051888656 0.029946739 -0.0372704 0.106829606
0.23373924 -0.052863736 -0.1443284 0.3035263 -0.11329852 -0.169671 -0.07787278 0.039630387
0.3051065 0.2681434 0.10269688 0.065079525 0.2715448 0.13046794 0.25347993 0.22839426
0.017080788 -0.028702036 -0.015485592 -0.052155733 0.051315792 -0.13068825 -0.013340028 0.2374594
0.20499563 -0.06422 -0.21240498 -0.29737595 -0.25584945 -0.2777907 -0.24471635 0.2653479
0.12802394 -0.30593333 -0.28493965 -0.17022927 0.17021106 -0.10347574 -0.053615708 0.04630391
0.11997571 0.124006696 -0.012693435 0.2623744 -0.12257113 0.00017497074 -0.046344176 0.034342878
0.16846837 0.22870858 0.03188176 0.10114993 0.25025666 0.091936626 -0.16041817 0.09579865

weight f4 [32, 16]
00000000: 7b9a 543d f3e1 8d3e 1e4e 53be 3b06 50be
00000010: 1266 313e 6791 1dbe c34e e73b 0117 1e3e
00000020: 32ae 14be 6190 0a3e c6e7 8c3d c23e 54be
00000030: 3c9f 943e cb19 95be 9dcd 663e 86bc 893e
00000040: 80df c3bd fc0d 46be 94d2 f63d b047 cebc
00000050: 3038 a3bc f61e 36be 5c67 4cbe 40ab c5bb
00000060: 58c3 74be c8f1 9cbd 6a3b 5c3e 9cff 873d
00000070: 1847 17bd 08aa a8bd d8e5 04bd de69 6abe
00000080: d0a8 443d e8a1 48be 4099 d1bd c856 163d
00000090: 389e 4c3d 56ca 5f3e 0cf1 263e 686a 33be
000000a0: 006c bd3c 90d4 e9bc c006 a3bb 9ef2 763e
000000b0: beff 333e 6834 403d f8ba 853d e0c9 333e
000000c0: 1acd cd3d f98c 72bd 0f23 bd3d e1f2 fabd
000000d0: 6275 123e 8267 bc3d 34ed 90be 91d7 b03e
000000e0: 7068 07be 7443 21bd 8cc7 2bbe 370c 083d
000000f0: 3fd5 ae3d bbbf 69bd c202 893e cfc1 133e
00000100: 39c0 4b3e 32e9 a43e c914 45bd fc3e acbe
00000110: 7784 2c3d a8b1 55be 7d41 3cbd bd4d fbbc
00000120: 874f abbe 7090 65be bd50 89bd b6b1 963d
00000130: 0d40 ff3d c821 303d d56c 643d f9ce aa3e
00000140: 2c62 fdbd 20e0 94bd cf7f a1be 1fe6 dabd
00000150: 8de5 1abd b107 193c 3dd4 5abe 8aff 823d
00000160: c029 1a3d fdd8 abbe 3e87 13be 820c df3d
00000170: 4411 853e 239d 9fbe 5ef6 5d3d 4a79 1d3e
00000180: 704d e13d 81bc 95bd 659a b9be fcea acbe
00000190: 4a1f c7bc cab8 a4bd 5e8a 81be d1f6 30bd
000001a0: 32c1 a3be 5a48 c3be 28a5 8f3d aefe 55be
000001b0: fa69 883e bb8e fc3c bb1b 9bbb ad74 9a3e
000001c0: 882b de3d 14d6 f8bd a01b 003e f0bf a93d
000001d0: 642d 833d 6434 12be f825 8cbd f896 373d
000001e0: 5e62 393e 2831 04bd 9e5e 12be 4871 a4bd
000001f0: 062f 5cbe 96f6 183e 78bc 153d 7adf 52be
00000200: 389f b73e f731 5f3e 8570 88bd 90fc 0f3d
00000210: 9090 423e 896a d4bb f1e7 8f3d bde6 5bbd
00000220: 6427 c6be 9069 b7bd f7f6 e6bd 78eb 84be
00000230: 1d85 dcbc 417c 2ebe c166 6a3e 9ae1 b93e
00000240: eeba 1abe c0e7 35bc b0e7 56bd ce74 543e
00000250: 9054 4cbd 1029 fa3d e0c4 d13c 8006 c1bd
00000260: 60bc ce3c 8ce8 b2bd 6053 08bc 80fb 1ebd
00000270: 58c8 943d 8acc 513e 5c56 d63d 8807 db3d
00000280: 1c43 63bd 73e0 8abd 03b2 50be ad22 98be
00000290: 676f 993d 9114 70bd 2fe1 f33d b79d 843e
000002a0: 7fe0 3cbe 8b34 b93d 3b30 7dbe 46c6 20bd
000002b0: a4c3 3c3d a7b0 e9bd 31ed 8d3e 036a e0bd
000002c0: 606d c1bd e805 34be 38f6 57be feaf 443e
000002d0: 9456 0d3e d653 383e 608e 5dbc b08e f63d
000002e0: 5c11 293e 6049 413e 50f2 df3c 407b 263c
000002f0: 0458 963d 14b0 51be 3c5e b33d 1e7a 77be
00000300: 725f ad3e 83d6 4d3e 6617 17bc 772e f9bd
00000310: 0755 ae3c f1ec dcbd 822b d13d e373 d93d
00000320: 35a6 1fbe 9c70 93be 542d e83c 3147 2bbe
00000330: 0683 573e 9d87 0bbe 2a23 10be 6b76 833e
00000340: 678a 153e 1df7 b2bd 7cb9 9abe 5e7a 29be
00000350: 8f3d 713d 5d97 76be 23ed bd3d e183 a53d
00000360: 25f3 bcbe be94 d8bc d02c d4bd ed4e 8dbe
00000370: 85bb 42bd 83ee b43d c114 9e3d 8fce 103e
00000380: fae6 a53e 716c d63d 341b 76be ebb6 3fbe
00000390: 19e0 793e 26d2 77be 9ad9 a9bd e882 8a3d
000003a0: caec 69be d65a 0c3b cdea 9fbd 65b8 a2be
000003b0: 8656 09bd c262 0f3e e034 663e 8811 953e
000003c0: 6600 efbd 9485 5b3e cc53 a1be 84fa 9ebd
000003d0: a638 873e 568d f7bd 2d1c 213e 4d41 00be
000003e0: e8d7 6bbe 39ec f1bd 1266 29be f85b 38bd
000003f0: 13e7 7d3e c37f f33d 4b2a 0e3d 2c80 ad3e
0.051905137 0.27711448 -0.20635268 -0.20314877 0.17324093 -0.15387498 0.0070589497 0.15438463
-0.14519575 0.13531639 0.06880145 -0.20727065 0.29027736 -0.2912124 0.22539373 0.26901644
-0.095641136 -0.19341272 0.12051883 -0.025180668 -0.019924253 -0.17785248 -0.19961303 -0.0060323775
-0.23902643 -0.076633036 0.2150704 0.066405505 -0.036933035 -0.08235556 -0.03244576 -0.22891948
0.048012555 -0.19593012 -0.10234308 0.036703855 0.049955577 0.21854529 0.1630289 -0.1752106
0.023122787 -0.02854374 -0.00497517 0.24115989 0.17578027 0.04692498 0.06529802 0.17557478
0.10048886 -0.059216473 0.092352025 -0.12253357 0.1430259 0.0919943 -0.28305972 0.34539464
-0.13223433 -0.03937097 -0.1677534 0.033214774 0.08536767 -0.057067614 0.26759917 0.14429401
0.19897546 0.32209164 -0.048115525 -0.33641803 0.042118516 -0.20868552 -0.045960892 -0.030676717
-0.33459112 -0.2241838 -0.06704853 0.073581144 0.124633886 0.043000966 0.055767853 0.33361033
-0.123722404 -0.07269311 -0.31542823 -0.10688423 -0.037816573 0.009340213 -0.21370025 0.063963965
0.037637472 -0.33563986 -0.1440706 0.108910576 0.25989735 -0.31174573 0.054190032 0.153783
0.11001098 -0.07311345 -0.36250606 -0.3377303 -0.024306912 -0.08043058 -0.25300878 -0.043204132
-0.31983334 -0.38141137 0.07013923 -0.20897934 0.26643354 0.030829778 -0.0047335303 0.30167142
0.10848147 -0.12150207 0.12510538 0.08288562 0.06405142 -0.14277798 -0.068431795 0.04482171
0.1810393 -0.03227344 -0.14293906 -0.08029419 -0.21502313 0.14937815 0.03655669 -0.20593062
0.35863662 0.21796404 -0.066620864 0.03515297 0.19000459 -0.0064824265 0.07026661 -0.053686846
-0.38701928 -0.08955681 -0.112775736 -0.25960898 -0.026918942 -0.17039587 0.2289076 0.36304933
-0.1511037 -0.011102617 -0.05246705 0.20747682 -0.049885333 0.12214863 0.025606573 -0.09425068
0.025236309 -0.08735761 -0.008320659 -0.038814068 0.07264775 0.20488182 0.104656905 0.10694796
-0.055483922 -0.067810915 -0.20380406 -0.29713956 0.074919514 -0.058613364 0.11908185 0.25901577
-0.18445013 0.09043225 -0.2472543 -0.03925159 0.046085015 -0.11410647 0.27720025 -0.1095772
-0.0944469 -0.17580378 -0.21090019 0.1920776 0.13802558 0.18000731 -0.013522714 0.12038934
0.16510528 0.18875647 0.027337223 0.010161221 0.073410064 -0.20477325 0.08758208 -0.24167678
0.33861881 0.20101361 -0.009221887 -0.121670656 0.021280779 -0.107873805 0.102133766 0.10617807
-0.15590747 -0.28796852 0.028341927 -0.16726376 0.21046075 -0.13625951 -0.14075914 0.25676283
0.14603578 -0.08738539 -0.30219638 -0.16550586 0.058896597 -0.24081178 0.09273746 0.080817945
-0.36904255 -0.026438113 -0.1036011 -0.27599278 -0.047542114 0.08834555 0.07718802 0.14141296
0.32402784 0.10469902 -0.24033815 -0.18722121 0.24401893 -0.24201259 -0.08293457 0.0676325
-0.22844234 0.0021416447 -0.078084566 -0.31781307 -0.03352978 0.14002517 0.22481108 0.29114938
-0.11669998 0.21437675 -0.31509244 -0.07762626 0.26410407 -0.120875046 0.15733404 -0.1252491
-0.2303158 -0.11812634 -0.16542843 -0.045009583 0.24795179 0.11889603 0.034708302 0.3388685

bias f4 [32]
00000000: b4d2 8c3d 0aa1 2ebe 102e c0bd fb9b 763e
00000010: 6b36 603e 0d51 c13d f4ca 0f3e 52fe 6fbe
00000020: ade8 b83e 4c14 1abe 7e78 cc3c 80c3 fabc
00000030: a691 25be ef43 643e 9731 593e ebe6 933e
00000040: c049 8fbd 3b5a a63e eb51 893c ec04 97bd
00000050: 7d81 57be 0a19 84bd d77e d13d f674 843e
00000060: a43c 24be 3fa0 a13e 3335 eb3d cd0d 41bd
00000070: f8b4 d83d 1fc7 c4bc d670 96bd c2e0 323d
0.06876126 -0.17053619 -0.09383786 0.2408294 0.21895759 0.09439287 0.14042264 -0.23436859
0.36115018 -0.15046805 0.024959799 -0.0306108 -0.16168842 0.2229154 0.21210323 0.28887114
-0.069964886 0.32490715 0.016762694 -0.07373986 -0.2104549 -0.06450088 0.10229271 0.25870484
-0.16038758 0.3156757 0.11484756 -0.047132302 0.10581392 -0.02402073 -0.073457405 0.043671377

weight f4 [32, 32]
00000000: c55a d93b f824 78bd bdf9 073d 1038 953e
00000010: 14d7 173e 34aa 3fbb 26b0 253e 3bce 1bbe
00000020: 8b84 873e 9d8b 1f3d a3b6 513e 14a8 a9bd
00000030: a8c1 c5bc 966a 993d 68c1 e53d 372b 0b3e
00000040: ddb1 84bd 521d 173e 84c2 1f3e 5e2b 1f3e
00000050: 4ad0 98bd 2f01 0dbe 70c0 093d d231 973e
00000060: 4024 dfbd a166 953e ca2e 903d 0a9d 3d3e
00000070: 1bea 173e 5db8 3f3e 26c5 3d3e 6c34 aa3d
00000080: 4f31 2b3e bc03 dbbd 36ee 033e c417 393e
00000090: 4c3d 423e b47c adbd 3c0d 263e 8c65 723d
000000a0: 86e6 cd3d 54a8 d6bd d775 cabd 0c1d 653d
000000b0: 89cf 3a3e b601 44be 65dc 2a3c f7d8 cabd
000000c0: 6871 17bd fbcf 413e 7003 5f3e 68f0 5f3e
000000d0: c22a b4bc 68b8 acbd cc5b 75be 171e be3d
000000e0: a236 33bd f754 213e e278 03be b9a6 483e
000000f0: 9b36 8dbd 126c be3d 1575 623e 9fb8 e9bd
00000100: b693 2d3d cee9 8cbc cc8b e53d 5323 643e
00000110: eec6 323e 2531 893e 2221 063e d1d2 1ebc
00000120: 24e9 373d ee31 8d3d 56b2 663e 7961 ae3d
00000130: 0b8a ce3d 1d22 863e de32 483e 0b1c b73d
00000140: 77ff 0cbe 6f9b a53d 4c3e 893d 71e3 afbb
00000150: 64d7 b6bd 3778 2abd 3b00 a63c 1da8 5a3e
00000160: fef6 bfbd f81e 593e 7604 f23d 2beb 593e
00000170: 664b 323e 0361 5d3e ad81 4b3e 5600 a1bb
00000180: 52ca 743e ce25 293a c3a6 143d b755 c53c
00000190: a6b2 423e 3b93 653e d904 3c3d b619 fc3d
000001a0: c9ce 2f3e 79d6 68bd 8e0b 96bb 9182 da3d
000001b0: 8c2a f6bc 64ad 7d3d d32e d73d d2f1 143e
000001c0: 8d63 da3d 10db 853e ddfd 3d3e 1794 703d
000001d0: d13f 1fbe 810d c9bd efcc 743d b2d7 863e
000001e0: 4a26 323d 8fac 50bd d5d7 32bd 9f15 973d
000001f0: 1693 f93c f929 32bd 3a2f dc3d f969 8a3c
00000200: 9ab3 bbbc 57d4 2e3e 6998 d1bd d26e ba3d
00000210: f043 ecbd efe1 e1bb 7bcf c2bd 7ab7 dc3d
00000220: dbe3 05be 0502 bcbc 345d 7dbc 5328 2bbe
00000230: 13c1 233e fb39 9a3d 0743 0d3e 6723 9ebd
00000240: ea12 0cbe d0ae c9bd da38 7abd 281d 49bd
00000250: 7cf8 ebbc b932 053c c104 31be e1a8 e2bd
00000260: 8322 64bd adba 133e 9b7d 043e fdcf e8bd
00000270: 5088 1f3e a8cd 1f3e 254a 1ebc 1adb 023e
00000280: fe01 233e 5505 e0bd 70a2 fc3d 5fbf 393d
00000290: 7a85 92bd d447 063e abf6 873d 96b3 1bbe
000002a0: b643 4a3e c8c7 28be 77db 4a3e c7ca 363d
000002b0: 525e 553e 1c50 063e 3820 92bd 5f9d 503b
000002c0: 4885 aabc b87d dbbd 2ec2 443e 38e2 9e3d
000002d0: ed0d fc3d 7dfe debc ec40 803c 70c6 003e
000002e0: 528c fe3d a0a4 e13d 2767 143e df71 643e
000002f0: f9c8 5e3e f9ad 82bc 924b 1b3e abab 003e
00000300: 48cc 003e dd25 7abd 6274 943d c1f0 7f3e
00000310: 8c72 9d3d 2632 623e f38d 523e f418 f3bd
00000320: 9b55 85bd d723 ecbd d72f 0a3d 438c 9ebd
00000330: 9005 423e d933 4c3d 735c 0ebc 0b38 553e
00000340: 102f 183e 8e23 ba3d 8882 913e 4ab4 803e
00000350: 5f70 dabc a4ce 2abe 3695 12be 52ed 8a3e
00000360: ffe5 f03d 2e57 533e 517f 063e c564 f83d
00000370: 8405 cf3d df9c 453e 5de0 113e 170f cabd
00000380: 607a ed3d 6959 253e 720f b1bd 3b14 0c3e
00000390: 8ea2 763e 20ca 113e 17b4 51bb 2dc1 86bc
000003a0: df65 613e 06ee f13d 53ae 093e 16df c33d
000003b0: 58e2 3a3e c3fa 173e 1697 813d 4985 08bd
000003c0: e943 e63c 8fd9 923d 03bc c73a b572 9d3d
000003d0: 7598 1b3e 0b2f 0fbe cff9 313e 3057 603e
000003e0: 7f5d 343d d11c 143d b494 e43d 5a16 9b3e
000003f0: 9037 793e b321 5e3c 379b 513e dcc2 163e
0.006633135 -0.06058213 0.033197153 0.29144335 0.1482814 -0.0029245736 0.16180477 -0.1521539
0.2646831 0.038951505 0.20479827 -0.082840115 -0.024140194 0.07491033 0.1121853 0.13590704
-0.06479237 0.14757279 0.15601546 0.15543887 -0.07461603 -0.13769983 0.03363079 0.29530197
-0.10895586 0.29179862 0.07040174 0.18516937 0.14835398 0.18722673 0.18532237 0.0831078
0.16718028 -0.10694072 0.12883839 0.18075472 0.18968695 -0.08471051 0.16215986 0.059178874
0.100537345 -0.10481325 -0.098857574 0.055935904 0.18243231 -0.19141278 0.010428523 -0.09904664
-0.036973387 0.18926995 0.21778655 0.21869051 -0.021993045 -0.0843361 -0.23960799 0.09283083
-0.043753274 0.15755068 -0.12839082 0.1959485 -0.06895181 0.092979565 0.22114976 -0.11412167
0.042377196 -0.01720133 0.11208305 0.222791 0.17458698 0.26795307 0.13098577 -0.009693817
0.044900075 0.06894289 0.22528967 0.08514685 0.10084923 0.261979 0.19550654 0.08940896
-0.13769327 0.08086287 0.06701335 -0.0053676893 -0.08927801 -0.041618552 0.020263782 0.21353193
-0.09373282 0.2120322 0.11817257 0.21281116 0.17411575 0.21619038 0.19873686 -0.00491337
0.23905304 0.0006452472 0.03629185 0.024088724 0.19013461 0.22419445 0.04590306 0.123095915
0.17168726 -0.056845162 -0.004579014 0.10669435 -0.030049585 0.061932936 0.10506978 0.14545372
0.10663519 0.26143694 0.18553872 0.05873498 -0.15551688 -0.09817029 0.059765752 0.26336437
0.043493547 -0.050945815 -0.043662865 0.07377171 0.030465644 -0.04349706 0.10751195 0.016896235
-0.02291279 0.17073189 -0.10234148 0.091031685 -0.115363955 -0.0068933885 -0.0951223 0.10777183
-0.13075201 -0.022950182 -0.015464116 -0.16714601 0.1599162 0.0753059 0.137951 -0.07721596
-0.1367909 -0.09847796 -0.061089374 -0.04910007 -0.02880501 0.008129769 -0.1728697 -0.11067367
-0.055696975 0.1442668 0.1293854 -0.113677956 0.15579343 0.15605795 -0.009661232 0.12778893
0.15918729 -0.10938517 0.1233567 0.04534852 -0.07154365 0.13113338 0.06638845 -0.15205225
0.19752392 -0.1648246 0.19810282 0.044626977 0.20836762 0.13116497 -0.071350515 0.0031832082
-0.020815507 -0.10717338 0.19214699 0.077579916 0.12307344 -0.027220959 0.015655957 0.12575698
0.12429108 0.11017728 0.14492474 0.22309063 0.21756352 -0.015952097 0.15165547 0.12565486
0.12577927 -0.061071265 0.07248761 0.24994184 0.07687864 0.22089443 0.20561962 -0.11869994
-0.065104686 -0.115302734 0.03373703 -0.077415965 0.18947434 0.049854133 -0.008689034 0.2082216
0.14861703 0.09088813 0.284199 0.2513755 -0.02666491 -0.1668039 -0.14314732 0.27134186
0.11762618 0.20638725 0.13134505 0.12128595 0.10108474 0.19298123 0.14245744 -0.098661594
0.11595607 0.16147389 -0.08645524 0.13679592 0.24085447 0.14237261 -0.003199821 -0.016449535
0.22011517 0.118129775 0.13445406 0.09564035 0.18250406 0.14841752 0.063276455 -0.033330236
0.028108554 0.07170402 0.0015238527 0.07687894 0.15194876 -0.13982789 0.1738045 0.2190826
0.044034477 0.036160294 0.11161175 0.3029049 0.24337602 0.013557839 0.20469366 0.1472277

bias f4 [32]
00000000: 34e9 3d3e 2335 183e 73ed 4abc 0e89 973d
00000010: 0653 a1bd 2962 353d 3a70 7d3d caef 873e
00000020: 36e0 29bd c434 e6bd 1f12 963a 6039 3f3e
00000030: a3c3 953d 9313 00be ebb7 ba3c 9d7a b53d
00000040: 51c0 0dbe 238c b3bd ba18 0dbe 292a 09be
00000050: d286 12bd de56 0d3e 040c 7a3d 1179 e6bd
00000060: f342 a6bd 4c89 f7bd 4237 413e 9bc8 603e
00000070: 99c0 27be cd7d 803e 8819 6f3e 58bd 70bd
0.18545991 0.1486402 -0.012385714 0.07399188 -0.078771636 0.044283066 0.061874606 0.26550132
-0.04147359 -0.11240533 0.0011449492 0.1867423 0.07312705 -0.12507467 0.022792777 0.08861277
-0.13842894 -0.08766963 -0.13778964 -0.13394989 -0.035773106 0.13802668 0.061046615 -0.1125356
-0.08118238 -0.12086734 0.18868735 0.21951525 -0.16382064 0.25095978 0.23349583 -0.058774322

weight f4 [32, 32]
00000000: a065 bbbc c67c 4ebd 9fe5 763e 6065 603e
00000010: 21fa e439 e8d1 ef3d 0759 c6bd a890 203e
00000020: b4f5 e3bd 6bcc 5b3d f3b0 8f3d 35c9 843e
00000030: 160c 0e3b f1f0 6f3e 89e5 0d3e 7ea0 bcbd
00000040: 7413 1c3e a0f5 0ebe 37de ff3d 4d90 cd3c
00000050: 3387 3dbd e855 493e f307 4b3e 0258 103e
00000060: 2ff5 2f3d f2c1 263e 7834 5a3e 8eab 563e
00000070: 3d1b 36bd 136e 173c 46a3 0dbd 9733 cdbd
00000080: 17b9 ecbc 99a2 da3d 9715 a7bb 5445 313e
00000090: db4d dc3c 6bfc 143e aa2a a8bd 724d 0c3d
000000a0: fd82 f33d d625 b63d 8cdc 61be 3d0f 963d
000000b0: d2f9 e039 3f1c 4cbd 6ae0 1d3e 95c8 98bd
000000c0: c1e0 6b3d 7702 a8bd d800 d33b 4a2b 703d
000000d0: 8c12 01bd c103 d03d 960b babd 2997 1e3e
000000e0: 55ac 7e3d 5ed0 dcbd 6ec4 5cbc c386 9cbd
000000f0: 9d6b f23d db24 ee3d 8360 0abe edd5 e2bd
00000100: 1bf5 973d 7e06 2cbe 7dde a0bb 24aa 3d3d
00000110: 5cbe 443d b88b ebbd 031e 293e 07b7 bbbd
00000120: 1545 42bd e0b3 4d3d fdb2 e83c 8369 f9bd
00000130: e3b2 1a3e d2d0 213e 0f04 3a3d 50fd c63c
00000140: 5336 22bd 2be8 3a3d 1c5b 153c 76db debd
00000150: eac6 093e 4a9d 923c ea92 03be 065c 203e
00000160: 0d6b 4d3c 98a9 08be c7d9 a53d 2aca 653d
00000170: 5e27 11bd b3b7 07be acdf f6bd 3d68 e8bd
00000180: de38 8c3e 4ff4 ae3b 5bac a03e d531 913e
00000190: b16d 0d3e 574d 163e dfbe 5d3e 17a5 a83e
000001a0: 069a fdbd 18aa d4bb 7115 a63e a5fb 513e
000001b0: cd7c 993e 38ec 4e3d d387 363e 492c 053e
000001c0: 87a5 ff3d b50d f7bd 285d e0bc 9c48 2ebe
000001d0: b482 4b3e 9502 57bd 510e 623d 7c0f 1fbe
000001e0: b2a6 143e f456 52bd 20ea 473e 82bc 353e
000001f0: d0b9 ea3d 410c 8a3e 8a00 773d 55d4 b0bc
00000200: 74aa b7bd 5d44 19be f68d e33c 4fd6 c7bd
00000210: 5628 fcbc ed4a 223d c405 133c c852 9cbd
00000220: 5dba 4bbc 67cd f03d 7993 a03d 563b 19be
00000230: f909 ce3c a9a1 32bc 6486 113e d6fb 9e3d
00000240: 67d6 cbbd e0fb 193d d4f4 10bd e790 23be
00000250: 7c11 87bd a7f9 21be 9bb2 163e 457a 3b3e
00000260: 3917 0fbe d5c8 1abe 7181 9dbc 39a7 203e
00000270: 80f7 a4bd 5f22 a73d 6432 013c 8ee8 5f3d
00000280: c969 8e3e e683 493e 3a06 753e 3a3a 4fbc
00000290: 232f 63bc bcad 613e 0d96 653e 8f63 a83e
000002a0: 179a cfbd 726d a2bd c8aa 863e 820c e13d
000002b0: b5cc a53d a2d6 31bd 0481 193e 0649 32be
000002c0: b584 2ebe cc0c 9f3d a918 ac3c 0220 e53d
000002d0: 1f52 ecbd f384 68bd d050 c13c af78 9a3b
000002e0: eee9 903e e78c a23d ab4b a63c 03bb 8e3e
000002f0: 58ae 0bbe 68f3 83bc 0a6d 953d 9795 0cbd
00000300: 6fd7 603d c21f 1c3e 11a6 663c d647 883c
00000310: a98b 06be b845 bd3d c145 113e 322e cbbc
00000320: b0d1 a43d c91b 83bd 4f38 00be 0146 83ba
00000330: ca31 f1bc fe40 2b3e 7543 0e3d bd10 0f3e
00000340: 154d 003e 7dde 843c a713 113d bf60 cd3b
00000350: 4243 05be 51e2 163e bd10 08bc 9ead 08be
00000360: 27d6 303d 6b00 323e 1f8f 39bd 497f 2e3d
00000370: 595c 9fbc d630 413c dd7c 35be 88da 50bd
00000380: c5e1 1bbe 6d05 0f3e 9dbb 013e 186b 01bd
00000390: fca7 6e3d cd6e cf3c 44fe ee3c e0df dd3d
000003a0: 4fc1 97b8 50f6 e03d 5690 473d 334a f0bd
000003b0: 3004 573d 2902 763d 780c 223e 92eb 0ebe
000003c0: 8d6d 0abe ba27 64bd 50f2 81bd 4135 e1bd
000003d0: 1d31 93bd 1b6b fdbb 05bb 36bd ac7e 273d
000003e0: 04f2 0cbd 6553 143e 14c6 1abe 1e78 2abd
000003f0: 6667 c0bd 5a2c c53d a698 25bd a478 11bd
-0.022875607 -0.050411962 0.24111031 0.21913671 0.0004367391 0.11709958 -0.09684949 0.15680182
-0.111308485 0.053661745 0.07016172 0.2593476 0.0021674684 0.23431756 0.13857092 -0.09210299
0.15241796 -0.13960886 0.12493556 0.025093222 -0.046271514 0.19661677 0.19827251 0.14096072
0.042958435 0.16284922 0.21309078 0.2096388 -0.04445957 0.009242552 -0.034579538 -0.100196056
-0.028896851 0.10675544 -0.0050990093 0.17311603 0.026892593 0.14549415 -0.082112625 0.034253545
0.118902184 0.088939354 -0.22056788 0.07327125 0.0004291074 -0.049831625 0.15417638 -0.07460133
0.05758739 -0.08203595 0.0064393096 0.058635034 -0.03151183 0.10156966 -0.09084241 0.1548735
0.062176067 -0.107819304 -0.013474567 -0.07642891 0.11836932 0.116281234 -0.13513379 -0.11075959
0.07419797 -0.16799352 -0.004909335 0.046304837 0.048033103 -0.115012586 0.16515355 -0.09165769
-0.047429163 0.05022037 0.02840566 -0.12178328 0.15107302 0.15802315 0.045414027 0.02429071
-0.03960259 0.04563157 0.00911596 -0.108817026 0.13454786 0.017897267 -0.12849012 0.15660104
0.01253773 -0.13345945 0.08098178 0.056101 -0.035437934 -0.1325367 -0.12054381 -0.11348007
0.27387136 0.0053391824 0.31381497 0.2835833 0.13811375 0.1467794 0.21654843 0.32938454
-0.12382893 -0.0064900033 0.32438233 0.20506151 0.29978028 0.050518245 0.1782525 0.13005175
0.12482744 -0.12063161 -0.02738817 -0.17019886 0.19874078 -0.052492697 0.055189434 -0.1553325
0.14516714 -0.051352456 0.19522905 0.17747691 0.11461222 0.26962474 0.06030325 -0.021585623
-0.08968058 -0.14967485 0.027777653 -0.09757673 -0.030780952 0.039622236 0.008973543 -0.07632977
-0.012434569 0.117579274 0.07840628 -0.14964041 0.02515124 -0.010902801 0.14211422 0.07762878
-0.099530034 0.037593722 -0.035389736 -0.15973245 -0.06595132 -0.15817891 0.1471657 0.18308361
-0.13973702 -0.15115674 -0.019226762 0.1568879 -0.080550194 0.08160853 0.007885549 0.05466514
0.27815083 0.19679222 0.23928156 -0.01264816 -0.013866219 0.2203893 0.22420521 0.32888457
-0.10136812 -0.07931031 0.2630217 0.10988714 0.080956854 -0.04341758 0.14990622 -0.17410669
-0.17042811 0.07766113 0.021007853 0.11187746 -0.11539101 -0.056767415 0.023598105 0.0047140936
0.28303474 0.07937031 0.020299753 0.27877054 -0.13640726 -0.016107276 0.07296188 -0.034322347
0.054892953 0.1524649 0.014077679 0.016635817 -0.13139214 0.092418134 0.14186765 -0.024802301
0.08047807 -0.06401784 -0.1252148 -0.001001537 -0.029442687 0.16724011 0.0347323 0.13971229
0.12529404 0.016219372 0.035419133 0.0062676365 -0.13013938 0.1473477 -0.008304772 -0.1334748
0.04317298 0.17382972 -0.045302507 0.042601857 -0.019453214 0.011791429 -0.17723413 -0.050989658
-0.15222843 0.13966914 0.12669225 -0.031596273 0.05826567 0.025321389 0.029173978 0.108337164
-7.2362476e-05 0.109844804 0.048721634 -0.117329024 0.052494228 0.060060654 0.15825069 -0.1395705
-0.13518353 -0.05570195 -0.063450456 -0.109964855 -0.07187102 -0.007733715 -0.04461195 0.040892288
-0.03441049 0.14484937 -0.15114623 -0.04161846 -0.09394722 0.096276 -0.04042878 -0.035515442

bias f4 [32]
00000000: edda 443e 6bc4 053e 683d c0bc 6038 8fbd
00000010: 6462 b83d 8074 1e3e 0af6 d7bd d714 843c
00000020: 458a 793e d9fd adbc 8ad2 75bd 7b4e f83d
00000030: c8f5 f63d d4b0 d3bc 119c 15be ba1f 3f3e
00000040: 09fc 3a3d d2d5 e43d c2a6 363e 096a 133e
00000050: b9f0 da3c 9873 f3bc 86f4 33be 5fd3 e0bc
00000060: 8c4c 26be 29ba 74bd ef2c 3a3e 7670 9cbd
00000070: 546c 22be ab25 ee3d e3cf d23c f484 1dbd
0.19224139 0.13063209 -0.02346678 -0.069931746 0.090031415 0.15474129 -0.10544975 0.016123218
0.24369152 -0.021239208 -0.06001524 0.12124344 0.12058598 -0.025841154 -0.14610316 0.18664446
0.045650516 0.111735955 0.1783705 0.14395918 0.026726114 -0.029718205 -0.17573747 -0.02744454
-0.16240138 -0.05974785 0.18181203 -0.07638638 -0.15861636 0.11628278 0.025733894 -0.038456872

weight f4 [1, 32]
00000000: 8d77 5e3d 7c1f 52bc 6149 36bd ae00 303e
00000010: 7694 21ba 6d79 be3d 139a b9bc 1f88 35bd
00000020: 270f db3d aba2 7bbc 9d57 173d a6ef 0f3c
00000030: d3b9 d9bc 493f 823c f848 133c e4cb 4d3e
00000040: f0ce 9b3c dbcd a4bc 4f2d 283e 85ad b93a
00000050: 5b8d c83c 9175 363c 5abf e3bc 53ed 0f3e
00000060: 4d83 b4bc aca9 1dbc 51ff 233e 4014 cd3d
00000070: 6e03 b8bc fe5e bfbc 0b00 143e 4ed8 2ebd
0.05431323 -0.012824889 -0.044503573 0.1718776 -0.0006163785 0.09300504 -0.022656476 -0.04431927
0.106962495 -0.015358607 0.03694879 0.008785164 -0.026577866 0.015899317 0.008989565 0.2009731
0.019019574 -0.02011769 0.16423534 0.0014166093 0.024481466 0.011136428 -0.027801204 0.14055376
-0.022035265 -0.009622972 0.16015364 0.10013628 -0.022462573 -0.023360725 0.14453141 -0.042686753
