models/patient9/srpo_model_for_patient_9_Actor.pth (torch, 23911 bytes, 12 tensors)

weight_ih_l0 f4 [64, 2]
00000000: 56a2 0c3d 4232 9fbe 3304 86be b803 00be
00000010: a406 0e3e 2a13 e13c fd13 92be 7f56 2ebe
00000020: 7573 2ebe 50b4 963b 7841 9c3c 8d48 8c3b
00000030: 4abe abbe 5ba1 f93d 52f2 a0be 2cbe 01bd
00000040: e83d 3abe c944 c9bd b707 64be 5aa4 e3bd
00000050: e964 d4bc e4f8 a1be ab70 cbbd f058 a43d
00000060: 121a 28be d5b7 a53d b146 323d 37fb 2a3e
00000070: 6081 7b3d 1ea0 103e 4b61 8cbe dcc3 f13d
00000080: 0092 5fbe 0bc8 1abe a2c5 88be e8a4 86be
00000090: 6817 153e 9ecb 13be e1eb 193e a512 1dbd
000000a0: ff41 3ebc 6d2c c03d c6fb 4abd 4af3 86bd
000000b0: 4d9b 58be c6a2 aebd b17c 06be 950c 9abe
000000c0: fac2 c13d 229a 0abe b774 d43d 33f3 433e
000000d0: e68e 48be 096a 9fbc 933c c4be 2cd5 65be
000000e0: ac84 0c3e 67df 333e 8fe3 71be ba3b 1dbd
000000f0: 2b17 44be 7a2e 8fbe e98b 40be 0018 a33d
00000100: fa62 003e e065 8c3e 587e a43e 42e3 0d3e
00000110: 986c 4b3e e2ca 02be 9c9b 313e 8b3a 3ebe
00000120: ee77 483d 0cd7 bdbc efe8 f7bd c8a4 47be
00000130: 173c b23e 8bd8 733e 6bcd 8a3e 17bf 84bd
00000140: 701b 60be 0913 88be b0a3 4d3e 8b4d 433e
00000150: d9c9 87be 54ec eb3d d7cd ba3e e810 7f3e
00000160: d9b8 f43d a9f7 093e c93b 54be 7fec 05be
00000170: 3b63 873e be55 173e 5bcc b13e e998 df3d
00000180: 26bc d73d bca2 76bd f771 68be 705a 993d
00000190: 614a e6bc 9b81 403e 9e21 c1be 21da 343d
000001a0: f1e1 90be 0716 febc ea66 4e3e 1974 6cbe
000001b0: 1972 dd3d e497 81bd 30f7 cabd 7fed 95be
000001c0: bc23 2abd b419 15be 1143 363e 0f0e afbc
000001d0: b7f8 9abe bcce 1a3e 1202 0fbe 3347 9fbd
000001e0: 1459 aebd a82d c4bd d516 4f3d 138d 20be
000001f0: ebfd 41be da2c 42be 9ad8 d7bd 41b5 c33d
0.034334503 -0.3109303 -0.2617508 -0.12501419 0.1386972 0.027474958 -0.28530875 -0.17025183
-0.17036231 0.0045991316 0.019074187 0.0042811097 -0.33543617 0.12188979 -0.31434876 -0.031675503
-0.18187678 -0.09827573 -0.22268568 -0.11115332 -0.025927024 -0.316352 -0.09933599 0.08024776
-0.16416195 0.08091704 0.043524448 0.16697393 0.06140268 0.1412358 -0.2741798 0.11804935
-0.21833038 -0.15115373 -0.26713282 -0.26297688 0.1455971 -0.14433143 0.15031387 -0.03834786
-0.011612414 0.093834735 -0.049556516 -0.065893725 -0.21152993 -0.0852714 -0.13133503 -0.30087724
0.09461017 -0.1353536 0.10373824 0.19135742 -0.19585761 -0.019459741 -0.38327464 -0.224446
0.13722485 0.1756569 -0.23621963 -0.038387038 -0.19149463 -0.27965146 -0.18803371 0.07963562
0.12537757 0.27421474 0.32127643 0.13856223 0.19865644 -0.12772706 0.17344517 -0.1857702
0.0489425 -0.023173831 -0.121049754 -0.19496453 0.3481147 0.23813073 0.27109846 -0.0648176
-0.21885467 -0.26577023 0.20081973 0.19072549 -0.26521185 0.115196854 0.36485168 0.24908793
0.119493194 0.13473381 -0.20725931 -0.13078497 0.26442894 0.14778802 0.34726223 0.10917837
0.10533933 -0.06021379 -0.22699724 0.07487953 -0.028111639 0.1879944 -0.3772096 0.044153336
-0.2829738 -0.031016363 0.20156446 -0.23091163 0.10812778 -0.06327799 -0.099104285 -0.29282758
-0.041537985 -0.14560586 0.17799021 -0.021369008 -0.3026788 0.15117925 -0.13965634 -0.07777252
-0.08513084 -0.09579021 0.050558884 -0.15678816 -0.18944518 -0.18962422 -0.1053936 0.09556056

weight_hh_l0 f4 [64, 16]
00000000: b735 af3d 14c1 053e eb48 ddbd b324 2cbe
00000010: 84f1 923e e3ad 963e 40e0 673d 669b ed3d
00000020: 5b68 233e e643 93be d20b 583e 8b10 69be
00000030: c853 803d c646 123d 3e49 31be 6568 013e
00000040: e581 c2bd 8d48 2c3e 92f0 2f3e 2894 62bc
00000050: 2bf5 843e e64e 46be 84fa 173e 4334 443e
00000060: ae80 21be d8ae 88be 9fe5 403e 1037 49bd
00000070: e867 73be 746e 4abd c44d 033e 51d1 47be
00000080: ffaf 19be 5f56 263e ae1e 0f3e d11d 3ebe
00000090: a3a1 f4bc 43c6 3b3e 4602 de3d 6d25 423e
000000a0: 6a30 4e3e 983b e03d 7561 8b3d 5d9e 2bbe
000000b0: 010b 7dbe 8f77 fbbd 372b 143e 3042 87be
000000c0: 0f30 133e 5034 1dbd 1b95 88bd 400c 993e
000000d0: ac46 2e3e f453 a23e f3e5 a9be 6ccf 24be
000000e0: 6c80 393e e785 44be c315 9c3e 7898 a2be
000000f0: 00d3 29be aa79 94be 6868 43be e7a9 0c3d
00000100: 5143 1a3e be46 69be 19fe 3dbe aad9 633d
00000110: 58fe 8d3e fe53 123e 32e8 3bbe 4c15 a0bd
00000120: 27f4 bdbd 419c 3bbe dec8 203e b314 3fbe
00000130: 8568 f6bc 2090 e13d 13fa 253e 3a81 f23d
00000140: d275 45be 340b 10bd 0717 463e be25 59ba
00000150: 85f9 433d f127 4abe fe86 f1bd 4323 52be
00000160: b0b9 853e 867d 83be 0cc0 11be 66e4 143d
00000170: 4e09 83bd 14d0 72bb 2f2f d0bc 231e 7abc
00000180: 51e6 8f3d 228f 81be 4cc8 8c3e bfbb dfbd
00000190: 1c67 213e b324 26be 26a9 0fbe a0db 393e
000001a0: b4e0 92bc 9111 80be 4f19 35be 1505 85bd
000001b0: af28 193e 58ed 8b3d 149c ae3d 0072 0c3e
000001c0: 3bec 353e 041b 2a3e ec52 f03c 2cc8 8a3d
000001d0: 53ef 3d3e 035e 2d3e f5b8 82bd deca 50be
000001e0: 91e3 8d3d 9d44 923d 97fd 44be 329f 84be
000001f0: 4ebc dbbd 604a 6bbd 22c9 a3bd 74ec b1bd
00000200: 93c4 183c 0783 923d 82fe 7d3e c8aa 393e
00000210: 975f f53d b89e 9b3e e6c7 033e 31cd a0be
00000220: b99b 203e 35ef c1bc ea28 d6bc 8a00 f13d
00000230: 9a5c b03a cd53 83be 3e00 8c3c 2e54 333b
00000240: f550 91be 4c3e d0bd cd72 843e bb39 4c3c
00000250: 083b 4abe c6d6 853d 2fdb 4ebe 5fb6 483d
00000260: 4f6c c03d 55ed 09bd f490 3cbc 1687 093e
00000270: 1492 08be 2f80 203d 1ce0 55be ae8f 56be
00000280: 366c ddbd cf0b 9f3d 4bad 303e f842 983e
00000290: 15b3 fcbc 1c0b 25bc eeda 0d3e d4aa 893d
000002a0: b95e 5abd 566f 06be 1548 7e3d c82f a63d
000002b0: eb40 9d3d 3013 b63d 7824 453d 56db 193e
000002c0: 0ef8 403e aa14 0d3e 34ef 0f3d fa69 19be
000002d0: 6bfe ba3d 8179 413e f2e0 683d 8599 3fbe
000002e0: 9667 24be b3d8 da3d a41d 783e 6c4a cebd
000002f0: 999f bebd 1e98 1abe efb4 163d fd2e 62be
00000300: ce0a 0bbb 4911 1fbe 1275 89bd 0085 a2bc
00000310: c0e2 0e3d 5a8c 3c3e 951d 9abd cd9d 9dbd
00000320: 98c9 7b3e b180 cd3c 0d5b 30be cc2f 853d
00000330: 684c 1fbb d6fc 28be e163 393e ea70 1c3e
00000340: 4786 efbd f26e 433c 54ad 33be 164d 413e
00000350: bd1b 56be 1123 763e 4db9 29be 1db5 9f3d
00000360: ada8 903d f0ef bebc 5709 0fbc a392 1a3e
00000370: 0ac7 283e 892b 82bd e866 ebbd 5504 d0bd
00000380: e192 48be a8eb dcbd ddfe 04be d798 6d3e
00000390: b7fb 1ebd 8c76 823e e7b5 8bbe 1330 dcbd
000003a0: a425 ca3d 61d5 23be 593d 923e 448f e33c
000003b0: eda6 423d c6ca 243e b988 e4bd b301 763c
000003c0: 1376 e93d 82e2 80be d4ea 923e f894 bd3d
000003d0: eec7 b03d 4b94 803e ed7e ac3d a61a 1fbe
000003e0: 3be5 3b3d 5e91 dbbd 5ee8 cc3d 60e2 a13d
000003f0: f335 b9bd dee5 dc3d 01a4 6c3d 3935 57be
0.08555167 0.13061935 -0.108049236 -0.16810875 0.28699887 0.2942954 0.056610346 0.116019055
0.15957777 -0.2876274 0.21098259 -0.22760217 0.0626598 0.035712026 -0.17313096 0.1263748
-0.09497432 0.16824551 0.17181614 -0.0138292685 0.25968298 -0.19366035 0.14841658 0.19160561
-0.15771744 -0.26695895 0.18837593 -0.049124777 -0.23770106 -0.049421743 0.12822634 -0.19513442
-0.15008543 0.16243885 0.13976547 -0.18566062 -0.02986223 0.1833735 0.108402774 0.1895959
0.20135656 0.109488666 0.06805698 -0.1675963 -0.24711229 -0.12278663 0.1446961 -0.26417685
0.14373802 -0.038379967 -0.066690646 0.29892159 0.17019147 0.31704676 -0.3318325 -0.1609475
0.18115395 -0.19191705 0.30485353 -0.3175695 -0.16584396 -0.28999072 -0.19082797 0.03434172
0.15064742 -0.22780892 -0.18553962 0.055627503 0.2773311 0.14289853 -0.18350294 -0.07816562
-0.09275084 -0.18321325 0.15701625 -0.1866024 -0.030079136 0.11013818 0.16208677 0.11841054
-0.19283226 -0.035166934 0.19344722 -0.0008283517 0.047845382 -0.19741799 -0.11793326 -0.20521264
0.2611823 -0.25681704 -0.14233416 0.03635063 -0.06398259 -0.0037050294 -0.025413124 -0.015265974
0.07026351 -0.25304514 0.27496564 -0.109244816 0.1576199 -0.16224937 -0.14029369 0.18150187
-0.017929412 -0.25013402 -0.17685436 -0.0649511 0.14956926 0.06832379 0.08525863 0.13715363
0.17765896 0.16611868 0.029336415 0.06776461 0.18548326 0.16930394 -0.06382934 -0.20389888
0.069281705 0.07141993 -0.19237362 -0.25902706 -0.10729276 -0.057443976 -0.079973474 -0.08687678
0.009324211 0.07153898 0.24804118 0.18131554 0.11981123 0.3039453 0.12869224 -0.3140655
0.15684403 -0.023673633 -0.026142556 0.11767681 0.0013455332 -0.25649872 0.01708996 0.0027363407
-0.28382078 -0.10168132 0.25868836 0.012464936 -0.19749081 0.065351054 -0.202008 0.049002048
0.09395658 -0.033673603 -0.011509169 0.13430437 -0.13336974 0.039184745 -0.20886272 -0.20953247
-0.10811655 0.07765924 0.17253606 0.29738593 -0.030847112 -0.010073449 0.13853046 0.06722036
-0.05331299 -0.13128409 0.06208046 0.08114582 0.07678398 0.088903785 0.048130482 0.15025076
0.18844625 0.13777414 0.03514023 -0.14981833 0.091305576 0.18894006 0.05685515 -0.18710907
-0.1605514 0.10685863 0.24230057 -0.100727886 -0.093077846 -0.1509709 0.036793645 -0.22088237
-0.0021216157 -0.15533938 -0.067117825 -0.01983881 0.034884214 0.18412915 -0.075251736 -0.07696114
0.2458862 0.025085779 -0.17222233 0.06503257 -0.0024307016 -0.165027 0.18104507 0.15277448
-0.11695533 0.011928307 -0.17546588 0.18877062 -0.20909019 0.24036814 -0.16574593 0.077982165
0.07063422 -0.02330777 -0.008730254 0.15095 0.16482177 -0.0635596 -0.11494237 -0.10157076
-0.1958728 -0.10787135 -0.12987848 0.23202835 -0.038814273 0.2548107 -0.27287218 -0.10751357
0.09870461 -0.15999366 0.2856243 0.027778275 0.047522474 0.16092977 -0.1115889 0.015015054
0.11399474 -0.25172812 0.28694785 0.09256929 0.086318836 0.2511314 0.08422647 -0.1553751
0.045872908 -0.10721086 0.10005258 0.07904506 -0.09043493 0.10786031 0.057773594 -0.21016397

bias_ih_l0 f4 [64]
00000000: e925 19be c2c5 61be 71c2 fdbd 3a30 d9bb
00000010: bb67 edbb 6326 02be 494d a33d 1d60 8e3e
00000020: 20cb 503e 0f4d 1e3e 7e11 b73d 16b0 cc3d
00000030: 4e73 2c3e ace6 38be af82 453e c535 debd
00000040: 753b 02bd b889 5bbe 0774 da3c 2585 aa3e
00000050: 261c 143e 3a20 083e 52c7 6b3e 7b84 5c3e
00000060: 0fcb 41be a0be debd 417b a43d ecce 573e
00000070: 9a45 133e 80f5 a5bd 686c 2c3d f3d0 923d
00000080: a914 2cbe 3eb3 d4bc f1f3 7b3e 54b0 053e
00000090: 152b 923e fceb 0fbe 44e0 143e 0461 4cbe
000000a0: 8636 d5bd 36b1 853c 99b6 953e 75c0 1c3d
000000b0: 99d2 443a 2504 82be bd2c 88be 65da 283e
000000c0: c9db e63d fee9 123e 5506 00be 5e7c 803e
000000d0: 74f6 b43c 3f1e 593e d53d ed3d 74ff 993c
000000e0: 6a61 f8bd 75db 643e 55df 8c3e 4961 863e
000000f0: 5d17 d0bd aaee 333e 4991 b33d 2703 3abe
-0.14955868 -0.22048095 -0.123906024 -0.0066280635 -0.0072450317 -0.12709956 0.07973725 0.27807704
0.20389986 0.15459083 0.08938883 0.09994523 0.1684086 -0.18056744 0.19288133 -0.108500995
-0.031794984 -0.21439254 0.026666654 0.33304706 0.14463863 0.13293543 0.23025253 0.21534912
-0.18925117 -0.108762026 0.08031321 0.21075028 0.1438202 -0.08103466 0.04209557 0.0716876
-0.16804756 -0.025964376 0.24604775 0.13055545 0.28548494 -0.14054865 0.14538676 -0.19958884
-0.1041079 0.016319852 0.29240873 0.03826948 0.0007508188 -0.25393787 -0.26596633 0.16489561
0.112723894 0.14347073 -0.12502415 0.25094885 0.022090174 0.21202944 0.11584059 0.018798567
-0.12127955 0.22349341 0.2751414 0.26246098 -0.10160706 0.17571512 0.08767945 -0.18165265

bias_hh_l0 f4 [64]
00000000: d840 e43d ade4 a7bd 2094 82bd 964f 173d
00000010: dfa4 8d3e 03a3 423d 4082 673e e893 49be
00000020: e151 873d 55ef 73bd 0203 363e 522a 6b3e
00000030: 9a55 4ebe 030b 7c3e 0ddc c3bd b79f fb3d
00000040: 4bcf 9cbc efa0 ecbd 485c f5bd d326 5e3e
00000050: 189c 06be 356c e33c 2f07 123d 464f 813e
00000060: c256 923d bb03 483d 8919 b7bd 7c17 ddbd
00000070: 7ec5 45be 55b3 1c3c cb40 703e f5e0 b5bd
00000080: ff69 59be 7bed 56be 3724 4c3e 0f4c 16be
00000090: b02b 2d3e 78a4 2f3e 3eef 6dbe c227 11be
000000a0: f228 2fbe 8111 4fbe d628 a8bd 6971 2f3c
000000b0: fbd9 4f3d d875 4ebe fb1c 4ebe 11ff 46be
000000c0: 8b17 15bc 1b86 2ebe 7a6e 01be e620 883d
000000d0: 9c0c 273c 9c56 f03c 4d87 bfbb 1b24 07be
000000e0: 9f92 0d3e 6677 183e e946 5bbc d26d 49bd
000000f0: 2dff 8e3e d36d b63d cb58 853e eacf a93d
0.111451805 -0.08197913 -0.06375909 0.036941133 0.2766485 0.04751874 0.2260828 -0.19685328
0.06607414 -0.059554417 0.17774585 0.22965363 -0.20149842 0.24613576 -0.09563456 0.122863226
-0.019141814 -0.11554133 -0.11980492 0.21694498 -0.13145483 0.027761558 0.035651382 0.25255793
0.07145454 0.048831683 -0.08940417 -0.10795495 -0.19313619 0.00956424 0.23462217 -0.08880798
-0.2123184 -0.20989029 0.1993569 -0.14677452 0.16911197 0.17152584 -0.23235795 -0.14175323
-0.17105463 -0.20221521 -0.08210914 0.010708191 0.05074499 -0.20162141 -0.20128243 -0.19433238
-0.009099851 -0.17043345 -0.126398 0.066469 0.010195877 0.029338174 -0.0058449865 -0.13197367
0.13825463 0.14889297 -0.0133836055 -0.049177 0.2792906 0.08907666 0.26044306 0.082916096

weight f4 [32, 16]
00000000: cb99 3fbe 2b21 7fbd b64f f83c c90a 23be
00000010: a97c 403e a715 02be baf5 653d 231f 923c
00000020: c058 a93e 87d7 5d3e 05b9 fbbd 76fb 4ebe
00000030: 560f 983c eee9 94bd 4095 1cbe fbbf 62bd
00000040: 24eb a9bd 7e6f 3a3e f9e7 01bd be63 3a3e
00000050: 2cda 6e3e 1641 20bd 3214 76bc 8af4 393d
00000060: aaa0 a03c e7bb 97be ba5a 69bc 4e31 94be
00000070: 946e 403d 35d3 25be 548b 94bd 8ce5 133d
00000080: 88f6 453e 0a98 1abe 08da 7bbe 7037 4f3d
00000090: 9317 6b3e 8df7 b0bd f9a8 7f3c e087 1a3e
000000a0: 595b 833c 17a8 6a3e 8ab7 b0bc aa05 b43d
000000b0: 7713 6cbe a8c0 493d 4327 65bd c3d4 233e
000000c0: 22c2 383e 4c72 653e d6b1 573e 48d6 3e3d
000000d0: e2e8 793e c863 0bbe ca5b 043e 604c a03d
000000e0: e6f3 6cbe 22a6 06be d620 4b3e 60f5 2c3c
000000f0: 94ff 27be 6464 fa3d f6e9 243e f4bc a9bd
00000100: e2fc f13d 19b6 72be ac2d 24be 14ed 39bd
00000110: d865 0a3e be74 27be e2ae d9bd 9997 e4bd
00000120: 3980 19be 85d7 84bd 8255 933e d3dd 93be
00000130: 2a6f b63d a667 fc3b 0ca6 35be 2e0c 313d
00000140: 0e5d f3bd 491c 5fbe 8758 933d 704d 353e
00000150: d5a0 f73d 4a98 febd 43cb 3cbd e53b 893d
00000160: fa9b 0f3e e8d5 223e 6fed afbd 3c65 8abe
00000170: 81a9 003b 2642 373e d83a 6abe 5dc1 15be
00000180: e7a3 e93d 3de3 183e 7405 26be b797 10be
00000190: 1aba 8e3d 942e 4a3e 06dc 5b3d a3dd acbc
000001a0: 0512 303c 4c03 b5bc b037 603e 03ec 253d
000001b0: 573d 9bbc 13a6 3cbc aea0 8dbd 4a10 af3c
000001c0: 2eb1 2f3e 8019 fb3d 809d c7bc dc40 87bd
000001d0: 000a 5abc a0db 09be b2c1 4dbe a006 3a3e
000001e0: 4042 273e f422 413e b8de 343e 8cfd a4bd
000001f0: 18f8 00bd 1050 293e a01e 963c e001 40bd
00000200: e8da 4d3d e8e9 8a3d 9823 993d 0094 aebc
00000210: 907d 24bd eac3 67be 16fe 703e be44 5c3e
00000220: 166e 06be 5081 63be ec98 e7bd 0867 9abd
00000230: 80ba 6d3e 52cd 3fbe ba32 09be 8464 e3bd
00000240: 2a92 83be c64a d73b 2e40 81bd f1b2 b03d
00000250: 4008 323e d4c6 89bd 023e 37bd 6ade 81be
00000260: 40eb 7bbd 5ea8 47be e320 873e 30ca 8fbe
00000270: 40c0 37be 29e2 1fbd 24ad 8fbb 0a3e 493c
00000280: d894 fd3d d007 683d 6849 3c3d f40d 0ebe
00000290: 7079 c73d be47 073e 748e 49be 3ad6 573e
000002a0: f847 593e c4cc 82bd 90ee 7c3d 4019 6d3e
000002b0: 98a6 8c3d b07b f8bc 6c2b 41be 20f3 5e3c
000002c0: 90db f23d 1051 30be de0f 783e 1c79 c83d
000002d0: 00cb aebb 2c58 ab3d c0d4 8cbc b8f7 1d3d
000002e0: 3ad9 1a3e b081 f83c 08ed f5bd a2b5 613e
000002f0: fafa 06be 3868 053e 8477 473e f44c a83d
00000300: 740c f43b 6ca9 bb3c 4256 14be 6294 15be
00000310: e210 be3c bc78 33be c46d 59be 06e6 74be
00000320: 859a 6b3d b19d 84bd a7de 093e ba8d 6cbe
00000330: 72a8 3cbe c073 ac3d 884d a2be 35e5 92be
00000340: ae42 90be 9341 4f3d 8970 0e3e 0776 893e
00000350: abbf 503e 192c 363a 278c 0dbe d158 6abd
00000360: 85cf abbd 6a75 8cbe dc38 5d3e 75c7 29bd
00000370: e2a5 023d 9594 983d 8422 36be 10c3 2d3d
00000380: 4536 5e3e 4d38 98bd fb5d f6bd ea0e 853e
00000390: ff3f 393e 1399 913d f0be 78be 17e6 b3bd
000003a0: 4da3 79be cab9 243d d48b 10bd 74fe b9bd
000003b0: 5397 56be 9bd1 28be 5ab8 a4bd 91af 0dbe
000003c0: f2ea 1a3e 00ea fbbb 1a0d 513e f0a4 1ebd
000003d0: b0b3 e03d 5047 d6bd 689e 093d 5030 f53d
000003e0: 7483 8b3d 987c 78be dec5 5d3e a812 cb3d
000003f0: 62cf 313e 9af3 5b3e b03a 72bd fe10 0d3e
-0.18711011 -0.06228749 0.030311447 -0.15922083 0.18797554 -0.12703572 0.056142546 0.017837113
0.33075523 0.21664248 -0.12291149 -0.20213112 0.018562 -0.07271181 -0.1529131 -0.055358868
-0.08296803 0.18206593 -0.031715367 0.18202111 0.23325413 -0.03912457 -0.015019463 0.045399226
0.01960786 -0.29635546 -0.014242822 -0.28943866 0.046980456 -0.1619385 -0.07253137 0.036107585
0.19332325 -0.15097061 -0.24594891 0.05058998 0.22958212 -0.086409666 0.015604251 0.15090895
0.016034769 0.22915684 -0.021571893 0.08790143 -0.230543 0.049255997 -0.055945646 0.15999131
0.18042806 0.22406882 0.21063933 0.046591073 0.24405244 -0.13612282 0.1292564 0.078270674
-0.23139915 -0.13149312 0.19836745 0.010556549 -0.16406089 0.12226179 0.16104874 -0.08287993
0.11815812 -0.23702277 -0.16033047 -0.04539211 0.13515413 -0.16353127 -0.106290594 -0.111617275
-0.1499032 -0.064864196 0.28776175 -0.28880176 0.089079216 0.0077027855 -0.17739123 0.043224506
-0.11882983 -0.21788134 0.071946196 0.17705321 0.12091223 -0.124313906 -0.046092283 0.06700877
0.14024344 0.15901911 -0.08590209 -0.2703036 0.0019632282 0.17896327 -0.2287401 -0.14624543
0.11408215 0.14930435 -0.16213018 -0.14120375 0.0696909 0.1974433 0.053676628 -0.021101778
0.010746484 -0.022096299 0.21896243 0.04050828 -0.018950148 -0.011514205 -0.06915413 0.021370072
0.17157432 0.12260723 -0.024367094 -0.06604168 -0.013308048 -0.13462687 -0.2009342 0.1816659
0.16333866 0.1886099 0.17663085 -0.08056173 -0.0314866 0.16534448 0.01832515 -0.04687679
0.050257593 0.06782895 0.07477492 -0.021310806 -0.04015881 -0.22633329 0.23534426 0.21510598
-0.13127932 -0.22217298 -0.113084644 -0.07539183 0.23215675 -0.18730667 -0.13398257 -0.11103156
-0.25697452 0.006570193 -0.063110694 0.0862788 0.1738596 -0.067273766 -0.04473687 -0.25365
-0.06150365 -0.1949782 0.26392278 -0.28083944 -0.17944431 -0.039034043 -0.0043846536 0.012282858
0.12381905 0.056648076 0.045968443 -0.1387251 0.09739959 0.13210961 -0.19683248 0.21077815
0.2121886 -0.06386712 0.06175095 0.23154163 0.06867713 -0.030332416 -0.1886422 0.01360777
0.118582845 -0.17218423 0.24224803 0.09788725 -0.005334258 0.08366427 -0.01719129 0.03856632
0.15121928 0.030335277 -0.12008101 0.22041944 -0.13181677 0.13028038 0.19479185 0.08217803
0.0074477736 0.022907935 -0.1448603 -0.14607385 0.02320141 -0.17526525 -0.21233279 -0.23915872
0.05752041 -0.0647539 0.13463841 -0.2310094 -0.18423632 0.08420515 -0.31699777 -0.28690496
-0.28175873 0.050599646 0.13910116 0.2684786 0.20385616 0.000694932 -0.13822995 -0.05721361
-0.083891906 -0.2743333 0.21603721 -0.041449983 0.03189648 0.07450215 -0.17786604 0.042422354
0.2170039 -0.074326135 -0.12029644 0.2598794 0.18090819 0.07109275 -0.24291587 -0.087841205
-0.243787 0.040216245 -0.0352896 -0.09081736 -0.20956163 -0.16486208 -0.08042975 -0.13836505
0.15128687 -0.007687807 0.20415154 -0.038731515 0.10971773 -0.104628205 0.033598334 0.119721055
0.06812182 -0.24266279 0.21657512 0.09915668 0.17364267 0.21479645 -0.059138 0.13776013

bias f4 [32]
00000000: 1d07 64be 9cc7 8d3e 0e8d 6a3e 2c3d aebd
00000010: 1e21 413e da23 963e 6cb6 35bb 00ab ebbc
00000020: cc50 febd b04d 6d3e 48ee 5bbe d028 cd3c
00000030: 7d1c 9c3d 64ae a63d 3542 003e 7036 5bbe
00000040: cace 5f3e ec17 12be 5c95 4abe e091 6ebd
00000050: 066d 6abe f61b 28be 46e6 a03e 7761 383e
00000060: 5a04 70be fad4 ba3d 4677 2cbe d6bf 983d
00000070: 3640 1dbe 6e6e c03c 1aa0 643e a775 643e
-0.22268339 0.27691352 0.2290537 -0.08507761 0.1886029 0.29324228 -0.002772714 -0.028768063
-0.124177545 0.23174167 -0.21477616 0.025043875 0.07622621 0.08138731 0.12525256 -0.21407485
0.21856228 -0.14266938 -0.19783539 -0.058244586 -0.22893152 -0.16416916 0.31425685 0.1800593
-0.2343916 0.09122653 -0.16842374 0.07458465 -0.15356526 0.023490157 0.22326699 0.22310506

weight f4 [32, 32]
00000000: 2b0d 5dbe 0683 163e 2a36 4cbd 250c 0b3e
00000010: 3b28 173e 76c7 4b3d 0af0 3c3d 9c69 1abd
00000020: e010 b2bb 85de a1bd 5ece 7cbd 0961 033e
00000030: 304d 653e 49b0 4dbd ca5d 273e 6c7f 06bd
00000040: 5c75 b43d 1eda c13d 198f 133e a6b7 23be
00000050: c7b6 303e 50c2 d13c ebab 91bd b0f0 a93d
00000060: 085f b83c 5242 103e b93f 88be 1abc 103e
00000070: 6ec0 33be 2df9 6d3d cd1c fd3d 0e83 d8bd
00000080: 6849 1bbe fc1a 303d dcda f2bd b6e1 ecbd
00000090: 70a7 33bc d0a3 fbbc 0044 01bd 76ea 0abe
000000a0: badf 9d3d 039d 01be 5033 09bd e076 80bb
000000b0: 40b7 073b a07a a83c 7567 21be 7835 f6bc
000000c0: 607b 1abd ca14 a53d f89a 44bd 4594 0f3e
000000d0: 26de c03d 009b cebd f0c0 ccbc 423e f0bd
000000e0: 3bda 1b3e 9872 023d 78c3 94bd c6e1 9f3d
000000f0: 66a8 d1bd 9c1c b8bd e051 bbbc de28 d63d
00000100: 13ad 0cbe 278b dabd 0c79 05be 20d4 d43b
00000110: 2e84 033e 2c40 34be b375 943d 9f81 ddbd
00000120: 17cc a6bd a34d 16be 00ab 483a e528 04be
00000130: 600b a5bc 10a9 ebbd 3616 853d b0f4 90bd
00000140: 065f 96bc 34fc 383d 64b0 82bd eb27 1b3e
00000150: 4cc5 32be 2ec3 f9bd 5d3a debd 47b8 f73b
00000160: 5c50 4f3d 5d71 1abe f8d0 2d3d 0b46 b83d
00000170: 001a 443a 4c38 35be 448e 0cbe f675 403d
00000180: 31db f0bd 4071 21bc a952 11be cef1 963d
00000190: 95ab f0bd a7c3 8abd 2698 aa3d c099 b7bc
000001a0: 744e c4bd ca24 cf3d eac6 973d dbca 1fbe
000001b0: 2046 f1bc 2a32 1abe 2c5c 5ebd 98bb bbbd
000001c0: 23e4 bebd 7ee9 18be 2b48 313e 00ce 07bb
000001d0: ec5d 21be f72f 2b3e c09f f03c f8e2 d7bd
000001e0: 42d8 04be dfb8 153e f998 043e a071 003c
000001f0: fbae 063e 800a 51bb b02e 653d 18a2 80bd
00000200: 4179 32be b154 b9bc 4cce 243c 6728 113e
00000210: 5091 823d 6502 debd 7289 8f3d f6dd 8a3d
00000220: c7d9 d0bd a8f4 6ebd e6ce f3bd b0cb ec3c
00000230: 2af1 4f3e b69e 153e 4421 6f3d b4a6 023d
00000240: 3260 043e a057 1e3c dacf d63d 022e a93d
00000250: c0d0 fb3b db5a 163e 49b8 12be bf85 1c3e
00000260: 093f bdbd 9ddb 81bd 3048 ecbb c7cc 233e
00000270: 567d e9bd 0016 703c a45d 7dbb 7e4c 19bc
00000280: f3dc 14bd d7c0 39be b8b7 143e d055 2f3d
00000290: 2897 e83a e782 64bd 6732 183e 4d4a dfbd
000002a0: 9a7e 2bbe 5286 14be 77e9 eabd 40a9 d73c
000002b0: 13e9 6cbd 655d 2b3e e523 60bd a6d0 55bd
000002c0: 190f 1c3e 28bb 53bd 9605 853d c027 0c3d
000002d0: 91b6 bdbd e9ce 09be 36fb 02be cfff 2c3e
000002e0: 3c89 13be 9971 e63d 2953 da3d a6ef b8bc
000002f0: 5f48 223e 027d b83d 2bf6 a8bd 3702 22bc
00000300: f28a 37bd 5dcd 703e 139f 5ebd 63ca 0f3e
00000310: 311a dbbc 74d5 93bc 367b 63bd 21df 0f3e
00000320: ecbc 08bd d3a1 1d3e f011 6dbc aea7 11be
00000330: 4e62 aa3d db42 373c 1de0 123e 18e7 10be
00000340: 90c6 8e3d 3da7 03be 542c 143d 8eac c43d
00000350: 80ca 693b fa55 fd3d 6c74 7fbd 050b 673d
00000360: b615 72bd 5209 5e3d f895 89be eeb6 003c
00000370: e564 afbd 0f02 77bc baba 5a3e 246d 263d
00000380: 2cdb 9e3d eafb 533d a1e4 adbd ef41 313e
00000390: a423 d43d 9f72 ae3d effd 3ebc 7556 083e
000003a0: 9784 313e 16ef 9ebd 2e4f f43d 007e bdb9
000003b0: 0bd8 fd3c 8147 363c cfda cdbd 8874 b03c
000003c0: d1f3 253e c82c fcbd 8da9 323e b9ec 1d3e
000003d0: 8547 b0bd 603a b4bc 3143 893d df9e 87bd
000003e0: 60a0 e03b d88a df3d 0d1f 593d b970 12be
000003f0: 37b2 e3bd a083 393d 5466 edbc 151d 00be
-0.21587054 0.14698419 -0.049856342 0.13578852 0.1476144 0.049750768 0.046127357 -0.037698373
-0.0054341406 -0.0790377 -0.061720245 0.12829985 0.22392726 -0.050216947 0.16344371 -0.032836363
0.08811447 0.09465431 0.14410056 -0.15988025 0.17257224 0.02560535 -0.07112869 0.082978606
0.022506252 0.14087799 -0.26611117 0.14134255 -0.17553875 0.05809896 0.12359009 -0.10571872
-0.15164721 0.042994484 -0.1185815 -0.115664884 -0.010965213 -0.03071776 -0.03155899 -0.13566002
0.07708688 -0.12657551 -0.0334962 -0.003920421 0.002070859 0.020566285 -0.15762122 -0.030054793
-0.037715316 0.08060606 -0.047999352 0.14021404 0.094173715 -0.10088158 -0.024994344 -0.11730625
0.15219967 0.031847566 -0.07263845 0.07806735 -0.102371976 -0.08989832 -0.02286619 0.104570135
-0.13737898 -0.106710725 -0.13034457 0.006495014 0.12843391 -0.17602605 0.07249012 -0.10815739
-0.08144396 -0.14678054 0.00076548755 -0.12906225 -0.020147026 -0.115068555 0.06498377 -0.070779204
-0.018355858 0.045162395 -0.063813 0.15151946 -0.17458075 -0.12195431 -0.10850976 0.0075598094
0.050613746 -0.15082307 0.042435616 0.08997735 0.0007480681 -0.17697257 -0.13726145 0.046987496
-0.117605574 -0.009853661 -0.14191689 0.07370339 -0.11751477 -0.06775599 0.08329801 -0.02241218
-0.09585276 0.10114439 0.07410987 -0.15604727 -0.029452384 -0.15058199 -0.05428712 -0.0916664
-0.093208574 -0.1493282 0.17312686 -0.002072215 -0.15758485 0.16717516 0.02937305 -0.10541338
-0.12973121 0.14621304 0.1294898 0.00783959 0.13152687 -0.0031897128 0.055952728 -0.06280917
-0.17429067 -0.022623392 0.010058951 0.14175569 0.063753724 -0.108403005 0.070086375 0.06780617
-0.10197788 -0.05833879 -0.11904697 0.02890572 0.2030684 0.14611325 0.058381334 0.03189726
0.1292732 0.009664446 0.10488863 0.082607284 0.007684797 0.14683096 -0.14328112 0.15285395
-0.092405386 -0.06340716 -0.007210754 0.15996085 -0.11400859 0.014653683 -0.003866055 -0.009356616
-0.036343526 -0.18139969 0.14523208 0.042806447 0.0017745243 -0.0557889 0.14862977 -0.109028436
-0.16747513 -0.14504364 -0.11470311 0.026325822 -0.057839464 0.16734846 -0.05472173 -0.052200936
0.15240134 -0.051692158 0.06495206 0.034217596 -0.092633374 -0.13457836 -0.12791142 0.16894458
-0.1440782 0.11252136 0.10660393 -0.02257521 0.1584792 0.09008218 -0.08250078 -0.009888223
-0.044810243 0.2351584 -0.054350924 0.14042048 -0.026745887 -0.018046118 -0.055537425 0.1404996
-0.033383295 0.15393762 -0.014469609 -0.14224121 0.083195314 0.011185373 0.14343305 -0.14150655
0.069714665 -0.12856765 0.036175087 0.09603225 0.0035673678 0.12369914 -0.062366888 0.056406993
-0.059102736 0.054208107 -0.2687223 0.007856114 -0.08564166 -0.015076174 0.21360293 0.04063143
0.077566475 0.051753916 -0.08490873 0.17310308 0.103583604 0.08517956 -0.011657222 0.1331423
0.17335735 -0.07760446 0.11929165 -0.00036142766 0.030986806 0.011125446 -0.100515 0.021539941
0.1620629 -0.12313229 0.17447491 0.15422334 -0.08607391 -0.022000492 0.06702269 -0.06622099
0.0068550557 0.10915154 0.053008128 -0.14300813 -0.11117976 0.045291543 -0.028979458 -0.12511094

bias f4 [32]
00000000: 94ac 3e3e c030 8abd db18 bd3d 504f e4bc
00000010: a223 ecbd b853 67bd 301b 073e e9dc 18be
00000020: 442d c1bc 0742 173e 9769 653e 5cdf c3bd
00000030: 8064 ae3d 828d c93d 0fad 3d3e 4309 a1bd
00000040: af1d bebd 0653 9abd cbbe afbd 25db 693c
00000050: 9ba9 fb3d 1abb 483e 11d7 593e e1b7 a63d
00000060: de75 383e 666b 3dbd 20c9 9d3b 6656 113e
00000070: 0e11 15be 65e2 463e 011a b43d ca50 413e
0.18620521 -0.067475796 0.092332564 -0.02786985 -0.11530234 -0.056476325 0.13193965 -0.1492802
-0.023581155 0.14771281 0.2240356 -0.09564087 0.085152626 0.098414436 0.18523048 -0.07863095
-0.092830054 -0.07535367 -0.08581313 0.0142734395 0.12288209 0.19602624 0.21273448 0.08140541
0.18013713 -0.046245 0.0048152357 0.14193115 -0.14557287 0.194223 0.08794022 0.18878475

weight f4 [32, 32]
00000000: e0c3 cf3c 09df 9cbd 0099 33ba 2cc1 193d
00000010: 24eb 1bbe ce21 94bd a3cf f6bd b640 843d
00000020: 518c 2c3e a0cc ecbd c188 b2bd c8af 63bd
00000030: 8627 0bbe 99d2 91bd 5046 36bd d351 09be
00000040: f0ad 213c 9ae5 e23d 0c75 363d ea5e 9c3d
00000050: 484d 13bd 6d87 0dbe 6829 6cbd b684 ed3d
00000060: fd4b 26be 7df7 213e 5ec1 c53d a640 ba3d
00000070: f024 55bc 186f 613d 7cfc 29be d255 ed3d
00000080: 0907 ba3d b843 da3c 235a 333e 93df 14be
00000090: e591 1a3e 19e2 eabd 14e0 2fbe 310d 0d3e
000000a0: 9f2f 253d 73f3 1c3e 20d4 8fbd 0cb6 6e3d
000000b0: 1a8d ab3d 4809 03bd 70b4 dd3d 9851 28be
000000c0: b0f2 003c 9bf2 34be 33b7 0a3e 9666 eabd
000000d0: 0e81 ca3d f8a1 20be 9558 ee3d b435 723d
000000e0: 021c cf3d 5895 21be 77e2 343e 7b63 7fbd
000000f0: 72a4 f73d 662b df3d 29c9 bbbd 4db8 7b3d
00000100: 1128 623e 2a0b f73d c8b1 5dbd 19a4 1bbe
00000110: fade 0b3e 1396 d3bd c78f e73d 407e 983d
00000120: 56d0 c93d 2b40 993d 1afa ce3a 800b c73a
00000130: b180 62bd 81a3 27be 27b2 f93d fe2f 473c
00000140: 1d0c 163e d4cf 4a3d 3dcb 363e 2917 6d3e
00000150: 145e 11be d259 6cbd 92d6 173e 8504 093d
00000160: 3251 223b 8a5d ff3d c837 a6bc c950 cfbd
00000170: 0080 21bc b827 e43d 93aa 32bc 9392 db3d
00000180: 0ce6 3cbd 78b1 b9bc 2e0c ecbd be1b 85bd
00000190: e348 e63d 8e9e 3b3e 872c 303e 415f 8e3d
000001a0: 45fa 2f3d 01eb 803c 9a55 ae3d 00fa c9b9
000001b0: 9741 e63d 2436 4ebd 081c 593e a576 bcbd
000001c0: 6439 32be c768 3dbd 90bb bc3d 88cf 763e
000001d0: 88f7 ad3c d666 f23d c145 b23d aaf5 353d
000001e0: dc95 733e eb2a dabd 35ff 073e 7149 603d
000001f0: 5fb7 c8bd 8440 9cbd 7083 f43d 27b0 6a3e
00000200: 7e82 eb3d 8ead 8c3d 7099 503d 9a25 16be
00000210: a14f 0a3e a0d4 bebb cdd9 0dbe e497 07bd
00000220: 986c 0a3d 003a 123b f030 21be 49dd b0bd
00000230: bc4e 493d 0f9e 0e3e df4f 27be 4a53 933d
00000240: e0f9 30bd fc51 99bd 8e0b 853d 8fbb 013e
00000250: b61c 1bbe 983d 2b3d a83e 9d3c a665 f2bd
00000260: b00c 51bd f96b 0b3e c059 403d 0654 8fbd
00000270: a8f3 10be c01c 513c ada3 19be b736 233e
00000280: 27b9 c1bd 82c3 17be 8281 ae3d 004f 82ba
00000290: c47c 0c3e e33d ddbd e4f5 243e c407 143e
000002a0: 295e 913d e5b2 593d d129 0a3e a346 133e
000002b0: 6fbe 223e fb1a 2d3e 335a 023d e760 213e
000002c0: 8241 8f3d 9f3b 0ebd 966d 0abe 6668 b03c
000002d0: 300a 973c 1fed 79bb 48ae a33d 1659 213e
000002e0: 561a 063b 97fe d3bd 59a8 2cbe 5e18 0ebd
000002f0: 605a 78bd 495d 333d a043 223e 0224 01be
00000300: d5f1 5e3e 5eb5 ab3d cbd0 433d c236 8c3d
00000310: 55c1 e5bd d9be 0bbd da04 9b3d 3b53 afbd
00000320: 292d cfbd 7ae8 7c3e 7d50 653e 52b7 c53d
00000330: aad1 e5bd 449d 0cbd 4bca 21bd d8e0 18bd
00000340: 29f7 1a3e 154d 3abe a8c7 a1bd da9a 01bd
00000350: 280f 383e 9afe 593e c581 333d d7f3 a2bc
00000360: 08e3 ab3d 9a15 a0bd 88da 53bd 93b9 e4bc
00000370: 80e8 e53b bd08 7e3e 3e10 153e 61bf 8a3d
00000380: 1e6d 0abd c322 1bbe 5872 54bd fe27 ffbd
00000390: f601 dbbd 7977 ccbd bb41 5bbd f4d4 333e
000003a0: 346d 6f3d 77ff f23c 2a9e 6b3c 91da 1abe
000003b0: ec07 0ebd 4143 1e3e 0f64 223e 8798 20bd
000003c0: ae6c 00be 3503 c9bd 0fa3 bfbd 4772 843d
000003d0: 6783 1b3e c073 133d 6c01 8c3d a845 313d
000003e0: 140a 05bd 39c7 153e 274d e5bd 6f15 e7bd
000003f0: d332 2f3e 9f90 34be b5e1 aebd 9252 a93d
0.025361955 -0.07659728 -0.0006851107 0.03753774 -0.15226418 -0.0723301 -0.12051322 0.06457655
0.16850401 -0.115624666 -0.0871749 -0.05558756 -0.13589296 -0.071202464 -0.04450065 -0.1341012
0.00986813 0.11078949 0.04454522 0.07635291 -0.035962373 -0.13821192 -0.057656676 0.11597578
-0.16239925 0.15817066 0.096560225 0.09094362 -0.013009295 0.055037588 -0.16600221 0.115886346
0.09083373 0.026643619 0.17514853 -0.14538412 0.15094717 -0.11468906 -0.17175323 0.13774563
0.04032862 0.15327244 -0.070228815 0.058279082 0.08376522 -0.031991273 0.10825431 -0.16437376
0.007870361 -0.17670672 0.13546447 -0.11445348 0.098878965 -0.15686786 0.116379894 0.059133247
0.10112764 -0.15779626 0.17664514 -0.06235073 0.12091912 0.108969495 -0.09169228 0.06145506
0.22085597 0.12062676 -0.054124624 -0.15199317 0.13659278 -0.10331359 0.1130672 0.07445955
0.0985419 0.07482942 0.0015791089 0.0015185922 -0.05529851 -0.16370966 0.12192183 0.012157438
0.14653058 0.049514607 0.17850967 0.23153366 -0.14196044 -0.057702847 0.14827946 0.033451576
0.0024767634 0.12469013 -0.02029027 -0.101228304 -0.009857178 0.11140388 -0.010904926 0.10721316
-0.046117827 -0.022667632 -0.115257606 -0.06499432 0.11244371 0.18322203 0.17204486 0.06951762
0.042963285 0.015737059 0.08512421 -0.00038523972 0.11242979 -0.0503446 0.212021 -0.09202317
-0.17404705 -0.0462425 0.09215462 0.24102604 0.021236196 0.11836021 0.08704711 0.044423737
0.23787636 -0.10652717 0.13280948 0.05475754 -0.098006 -0.07629493 0.11939132 0.2291876
0.11499499 0.068690404 0.05092758 -0.14662781 0.13506939 -0.0058236867 -0.13852616 -0.03310384
0.03379497 0.0022312403 -0.15741324 -0.08635957 0.049147353 0.13927482 -0.16339062 0.071936205
-0.04320705 -0.074863404 0.064963445 0.12669204 -0.15147671 0.041806787 0.019194916 -0.11835794
-0.05103749 0.13615407 0.046960592 -0.06998448 -0.14155447 0.012763202 -0.15003844 0.15938841
-0.09459143 -0.14820674 0.085207954 -0.0009941757 0.1371947 -0.108028196 0.16109425 0.14456087
0.07098038 0.053149123 0.13492514 0.14382415 0.15892957 0.16904823 0.031824302 0.15759622
0.069949165 -0.034724828 -0.13518366 0.021534156 0.018437475 -0.003813572 0.07992226 0.1575664
0.0020462475 -0.103512935 -0.16861095 -0.034691207 -0.060633063 0.043790136 0.1584611 -0.12611392
0.21771939 0.083842024 0.047806542 0.06846382 -0.11218516 -0.034117553 0.07569285 -0.08560797
-0.101160355 0.24698058 0.22393985 0.09654106 -0.11221631 -0.034329668 -0.039499562 -0.037323803
0.15133347 -0.18193467 -0.078994095 -0.03164182 0.17974532 0.21288529 0.04382493 -0.019891663
0.08392912 -0.0781662 -0.05172208 -0.02792052 0.0070162416 0.24808021 0.14556977 0.06774784
-0.03379547 -0.1514998 -0.05186686 -0.124588 -0.106937334 -0.09983725 -0.053529482 0.17561704
0.058453754 0.02966283 0.014380971 -0.15122439 -0.034675524 0.15455343 0.15858482 -0.03920796
-0.12541458 -0.09815065 -0.09357273 0.06467109 0.15186845 0.03599906 0.06836209 0.04327932
-0.032480314 0.14626779 -0.11196356 -0.11283385 0.17109232 -0.17633294 -0.08539144 0.08267702

bias f4 [32]
00000000: cab8 02be 75ef 0abe 36c5 473d bde5 243e
00000010: 38cf 31bd 5947 65bd 63f0 8c3d 93ee e2bd
00000020: 6bdf 4a3d 27c5 453d a4cd 3b3e 8dac 003e
00000030: 865a 12be 1246 d0bd 8eea 36bc 1aad fa3d
00000040: 30e6 07bc 8f86 993c b978 1c3e a7fb c0bd
00000050: f66c cf3d 96d8 493e 41f4 b33d f90a 2a3e
00000060: 10e6 cabd d1fd 073e 7c71 29be 2319 19bd
00000070: 4a3a 1ebe 4152 593e 27a5 93bd b8d8 a03c
-0.12765804 -0.13567908 0.04877206 0.16103263 -0.04341051 -0.055976246 0.06881788 -0.11080661
0.049529474 0.048283722 0.18340164 0.12565823 -0.14292344 -0.10169615 -0.011164321 0.12240048
-0.008294627 0.01874092 0.15280427 -0.09422999 0.101282045 0.19711527 0.08786822 0.16605748
-0.09907162 0.13280417 -0.16547197 -0.037377488 -0.15451923 0.21222784 -0.07209235 0.01963459

weight f4 [1, 32]
00000000: 4ac6 343c 2e96 8fbc 4a69 55bd 31cb 6fbd
00000010: 9aa4 5f3c b57f 863c 7fb2 42bd 1cda 0f3d
00000020: 0026 533b 0f96 623c 98f2 1dbd 66f7 0a3b
00000030: a4bb 7cbb 933d b63c 16cc 67bd 611f 1d3c
00000040: 2025 3c3c 617c 68bd ed3b bbbc 2609 73bc
00000050: ce11 80bd b8e0 32bd c4ae b73c 6671 34bd
00000060: cd2e 28bd 53b7 33bd 7252 273c 4704 b33c
00000070: df8a 4bbc 9f82 0dbc ec41 b53b e8dc 7cbc
0.011033604 -0.017527666 -0.052102365 -0.058543388 0.013650084 0.016418317 -0.04753351 0.035120115
0.0032218695 0.013829722 -0.038561434 0.002120459 -0.003856399 0.022246158 -0.056591116 0.009590001
0.011483461 -0.056759242 -0.022855723 -0.014833724 -0.06253396 -0.04367134 0.022422202 -0.044053458
-0.041060258 -0.043876003 0.010212528 0.021852626 -0.012423246 -0.0086370995 0.00553154 -0.0154335275

weight f4 [1, 32]
00000000: 2919 9bbc 035a 053c cf33 a0bd 25f7 ecbd
00000010: 06bb a83c 0e36 9cbd 5a37 00be 1d00 f53c
00000020: ea96 7abc 3f4c 643a 1e1a d9bd 6b8a 913c
00000030: a1d1 783c b5e1 3a3c 569d d9bd d39b a3bc
00000040: 643f d2bb b6e3 9abd 374f 68bd 9ffe 27bc
00000050: 8a53 cdbd 51ab edbd 9585 a7bc 1eb2 b3bd
00000060: ea1e 05be 252c a8bd 0502 88bd efc7 2f3b
00000070: c721 183d 837a b9bd 9017 84bd 118e 87bc
-0.018932896 0.008139136 -0.07822382 -0.115705766 0.020596992 -0.076274976 -0.12521115 0.02990728
-0.01529477 0.00087088713 -0.106006846 0.017766198 0.015186698 0.011406352 -0.106257126 -0.019971764
-0.006416248 -0.07562964 -0.05671617 -0.0102535775 -0.100256994 -0.11604942 -0.020449439 -0.087742075
-0.13000074 -0.08211545 -0.0664101 0.002682205 0.037141588 -0.090565704 -0.06449807 -0.016547235
