models/patient9/srpo_model_for_patient_9_Critic.pth (torch, 22690 bytes, 11 tensors)

weight_ih_l0 f4 [64, 2]
00000000: 9b63 02bf 6294 58be 3766 513d 817b 4e3e
00000010: 6246 c8bd 5c14 d2bd 9639 ffbd 4a6d 983d
00000020: 83a8 81bc 1f83 783d 03b3 993d da72 3cbe
00000030: ca3d 87be 4182 94bd e22d 8bbe 0b04 7dbc
00000040: ec68 09bf 4139 2d3e e670 a23c 9afd 13be
00000050: d25e 16be 6244 da3d f54b 0ebf cc90 05be
00000060: 97d0 e3be d895 6b3e 330b 02bf de35 ee3d
00000070: 8a0f a7bd c835 a0be 0947 e3be fe0e 07be
00000080: b096 d3be 066b 00bd aebf 47be 0ec1 683e
00000090: 34be 2bbe 181f 3fbd 195d a2be 7e38 90be
000000a0: a9cd f5be 59c6 ffbd 5264 85be 88a5 80be
000000b0: 99cb c5be 5e41 30be 8b25 fbbd 022f 003e
000000c0: 0ed7 15bf 4d5d 0cbe 6479 83bd 370c 1abd
000000d0: 5062 d7be 2197 57be 9623 16bf 8880 f23d
000000e0: 0386 0bbe 8d48 6abd 112e 98be 4e48 963d
000000f0: 9461 4abe 2f77 afbe 79ae 01be ac6d 993d
00000100: a0df 93be 6d2c 1ebe 8452 82be 783b 393e
00000110: 3a41 023e e586 17be 9198 0ebd 0ce6 26bd
00000120: 8665 0dbd 8d58 e73d 51b8 97be 9da2 3dbc
00000130: ee7b c03d 067b 62be 2f8e 7ebe f6f2 88bd
00000140: 3259 743e 8f7c a43e 145e a33e 5c8b 8b3d
00000150: 55cd 7ebd d929 52be 086c 873c 4d52 0d3c
00000160: e2fe a9be 177b 50be 6fd3 febd 921a 603d
00000170: ffb2 7e3e 3dc1 45be 147a 32bd 68dd e0bd
00000180: ef83 7abe ba4a 08be 4613 edbe 2837 85be
00000190: 46ab 24bf df8d 14be 1ed6 d1be d63b 64be
000001a0: b4e1 18be d568 07bd f203 2abe d58a e7be
000001b0: fb8f c6be 0129 7ebe b713 27be 0f3d ec3d
000001c0: 3aa9 ecbe f6ff c63d c79e e4be 7861 bdbe
000001d0: db4d 12bf 4ce6 54bd 2c36 02bf 941b 053e
000001e0: 353c d6be 7ec7 03bc 5384 80be 1052 5cbe
000001f0: 4d5e 78be 5a3c ec3c 719b a8be 6dc6 3fbe
-0.50933236 -0.21150354 0.05112287 0.201643 -0.097790495 -0.102577895 -0.124621555 0.0744272
-0.015827423 0.06067192 0.07504847 -0.18403187 -0.2641433 -0.072514065 -0.27183443 -0.015442858
-0.53675723 0.16916372 0.019829225 -0.1445221 -0.14684609 0.10657574 -0.5558465 -0.13043517
-0.4449508 0.2300638 -0.5079834 0.11631368 -0.08157261 -0.31291032 -0.44390133 -0.13189313
-0.41325903 -0.031352066 -0.19506714 0.22729895 -0.16771775 -0.046660513 -0.31711653 -0.281681
-0.4800847 -0.12489004 -0.260531 -0.2512629 -0.38631895 -0.17212436 -0.1226302 0.12517932
-0.5853127 -0.13707466 -0.06419638 -0.037609305 -0.42067194 -0.21053745 -0.5864805 0.11840922
-0.1362534 -0.057198096 -0.29722646 0.0733801 -0.19763786 -0.34270617 -0.12664212 0.074916214
-0.2888155 -0.15446635 -0.2545358 0.18089092 0.12720194 -0.14797552 -0.034813467 -0.040746734
-0.03452065 0.112961866 -0.2963281 -0.011574415 0.09398638 -0.22117242 -0.24858926 -0.06686966
0.2386215 0.3212628 0.31907713 0.0681369 -0.06220754 -0.20523776 0.016531006 0.008625579
-0.33202273 -0.20359455 -0.124426715 0.05471284 0.24872969 -0.19311996 -0.043573454 -0.1097973
-0.24464391 -0.13309756 -0.46303767 -0.26018643 -0.6432384 -0.14507245 -0.4098367 -0.2228845
-0.14929849 -0.03305896 -0.16603068 -0.45223108 -0.38781723 -0.24820329 -0.16316114 0.115350835
-0.4622286 0.097167894 -0.44652387 -0.36988425 -0.5715005 -0.05197744 -0.5086391 0.12998801
-0.4184281 -0.008043168 -0.25100955 -0.2151568 -0.24254723 0.028837372 -0.32931092 -0.18728037

weight_hh_l0 f4 [64, 16]
00000000: f0ad aabc dabd fcbd ed53 4b3d 8d46 34bd
00000010: 163e 71be 64c5 03be 7d70 643e 0983 27be
00000020: 3b10 5e3d bdeb 123d a681 3b3e 5cbd f73d
00000030: 41d0 c03d 8fd5 853d 5e9c b9bd fab6 383e
00000040: e09d 473d ff2e 52bc 7439 3a3e 66a0 c83d
00000050: ea1d 76be ea51 0dbd 61b8 11be 5312 ee3d
00000060: a584 1ebe e9ac 933d a84c e03c 07e6 3fbe
00000070: da76 05be 0979 673d 6fca 9cbe c653 723e
00000080: 2938 8e3d 2a3c 16be dea6 07bc 684e 1ebe
00000090: c23f ecbd c677 56bd 752f a43d f79c 98bd
000000a0: 79f9 7ebe efc1 a9bd e658 c23d c7b6 42be
000000b0: 1f80 bcbd 27ee 3b3e 00d8 953e a03e 4b3d
000000c0: 6770 b33e 52b0 773d 6c97 23be ef35 4d3d
000000d0: 3067 9abe c7a6 093e 9529 4e3e 50dd 4f3e
000000e0: 0701 c1bc 6153 fa3d e92b 823e 6b91 38be
000000f0: 083b 0f3e 456d 82bd c3c8 053e 2e8f edbd
00000100: 65f3 9dbd d50d 253e 36af d4bd 936c 8b3d
00000110: 8e55 14bc 2b0d 403e 4504 ad3e f851 84be
00000120: 3680 65be 81f4 a4be e5c0 723e e958 97bd
00000130: ad32 0b3e 9bb7 a23d 87f0 2dbd c73a 48ba
00000140: 37c1 383e f9a9 263e 4b2f 553c 0293 a1bc
00000150: 2c9e b9be c00e 183e f9db dc3e 3eee 283e
00000160: 58b6 eebe 6056 80be a0c1 393e bfc6 94be
00000170: 06b8 893e 9609 ca3e b878 3e3e def0 b4bd
00000180: 9034 983d de75 26be cdc2 673e 1402 8b3e
00000190: d649 ad3d 94b0 cd3e cdd4 0a3e 2b6b e3bd
000001a0: c4c2 29bd fed8 a7bc 414f e9bd 36b0 cbbb
000001b0: c89d 56bd 8f3e a7bb 1c65 123c 3493 47bd
000001c0: 708c d3bd ce49 59bd e1cc 10be c0ba 583d
000001d0: 10b7 243e 3bfd 46be 61ab f7bd 46b2 2a3c
000001e0: 6250 693e 9c78 653e 6b95 8dbd cb2b 903d
000001f0: d989 5ebe 4dda 26be b7b7 b23d 9484 08bc
00000200: 9e21 20be 60a1 27be 30fc 7cbd 634a 29be
00000210: 05b8 2e3e 5766 ae3d b605 5ebd 493e a23c
00000220: 4685 2fbe 2648 f6bd 95cc 083e cfe7 103c
00000230: 1669 943e 49cf d9bd 2a91 c7bd 7c56 5ebd
00000240: ef8c 523e e3ea 533e 5427 ae3e e914 273b
00000250: 3c35 553d 45e4 d13e 16fb 9d3d 428b 1d3e
00000260: 2ad5 bdbe e46d 21be ecdf c3bd 6191 833d
00000270: b3d7 02be 5d8e 8b3e fac0 00bd 1a28 283e
00000280: 858b 14be 07fe 133e 35a6 b43d 69ce 9d3e
00000290: 1a04 3dbe 2ff6 b33e e054 0cbe 95b5 953d
000002a0: f95b 4abe bff2 f1bd 0698 64bd 0827 4ebe
000002b0: a9b4 d5bd a36d 9a3d 31c1 4dbd 6f34 39bd
000002c0: 60b9 a3bd 844d 353e d51f 8b3d a234 843c
000002d0: ba06 0cbd 8f56 663c b5e3 683d a08a 65be
000002e0: 1241 d6bd 7ce2 c1bd a420 8e3c 67b1 aebc
000002f0: ee08 123d aa0b b6bd 67bd 1c3e 55ca 15be
00000300: 6977 063d f603 073e 1cfc 293d 7d8d 1bbe
00000310: 5806 87bc 7242 9dbc 1772 693e b7aa 3abe
00000320: 289a 313e 16e1 023e 0a09 b0bd cfb6 42be
00000330: 156a 813e 23e4 833e 8a60 d93d dd16 983d
00000340: 63f3 86be e4f8 c4bd e995 443e d0e1 7dbe
00000350: 78e4 0fbe ab85 eb3c 8080 f8bc 8f84 16be
00000360: a6e0 783b 6d91 82be dcef c13d c68f 58be
00000370: 3028 403e 3f4f 523e c421 89bd fd9c 9a3d
00000380: a863 443e 3ae5 3bbe 182f bcbc 13bc 12be
00000390: a0a4 60be fe11 a53d 694f 883e b1fa f0bd
000003a0: ea59 98bd ec52 1fbe 6b01 283d 458f 59be
000003b0: 04be ca3b 187c 75be 39ec a73d e539 9d3e
000003c0: bf1a 1abe fae5 2dbe 7f40 9f3d 5b84 263e
000003d0: 0a6d 2c3e 777d 853e 392c 303e cae1 6bba
000003e0: f8b1 9abd 8ed9 ce3c 87b4 203e 3ec3 9dbd
000003f0: b5b6 523e f224 363e cfcc 263e 2937 373e
-0.020834893 -0.12340899 0.049640585 -0.044012595 -0.2355884 -0.12868267 0.22308536 -0.1635858
0.054214697 0.03586935 0.18311176 0.12096664 0.09414721 0.06534874 -0.09063028 0.1803855
0.048734546 -0.012828588 0.18185979 0.097962186 -0.24034849 -0.034501947 -0.14230491 0.11624589
-0.15480287 0.07210714 0.027380303 -0.18740092 -0.1303362 0.056511912 -0.30623195 0.2366477
0.069443054 -0.14671388 -0.00827953 -0.15459597 -0.11535598 -0.05236032 0.08016864 -0.07451814
-0.24899854 -0.08288943 0.09489612 -0.19015037 -0.09204125 0.18352567 0.29266357 0.04962027
0.35046694 0.060470887 -0.15975732 0.050100263 -0.3015685 0.13442527 0.2013305 0.20299268
-0.02356006 0.122229345 0.25424126 -0.18024223 0.13987362 -0.06368498 0.13064866 -0.11599575
-0.077124394 0.16118558 -0.10384981 0.06807818 -0.009053601 0.18755023 0.3379232 -0.25843787
-0.2241219 -0.32217792 0.23706396 -0.07390005 0.1359355 0.07945176 -0.042465713 -0.0007638153
0.18042456 0.16275777 0.013011764 -0.01972342 -0.36253488 0.14849377 0.43136576 0.16497132
-0.46623492 -0.250659 0.18140268 -0.2905788 0.2689821 0.39460438 0.18600738 -0.08835004
0.074319005 -0.162559 0.22632904 0.27150023 0.08461349 0.4017378 0.1355774 -0.11104425
-0.04144551 -0.020489212 -0.113920696 -0.0062160743 -0.052396566 -0.005103893 0.008935239 -0.04872437
-0.10329521 -0.0530489 -0.14140655 0.052912474 0.16085458 -0.19432537 -0.12093235 0.01041848
0.2278457 0.2240929 -0.06913265 0.07039603 -0.21732272 -0.16294213 0.08726447 -0.00833239
-0.15637824 -0.16370153 -0.061763942 -0.16532283 0.17062385 0.085156135 -0.054204665 0.01980509
-0.17140684 -0.1202548 0.13359292 0.00884433 0.28986424 -0.1063524 -0.09744485 -0.054281697
0.20561574 0.20695071 0.3401438 0.002549464 0.05205272 0.40994468 0.077139065 0.15385154
-0.37076694 -0.15764576 -0.09564194 0.06424213 -0.12777595 0.27257052 -0.031434037 0.16421548
-0.14506347 0.14452372 0.08820764 0.3082154 -0.18458596 0.3514876 -0.13704252 0.07310025
-0.19761647 -0.11813878 -0.055809043 -0.20132077 -0.10434849 0.07540443 -0.05023307 -0.04521602
-0.07994342 0.17705351 0.06793181 0.016138379 -0.034186102 0.014058723 0.056857783 -0.22416162
-0.1046163 -0.094670266 0.017349549 -0.021324826 0.035653047 -0.088889435 0.15306626 -0.14627965
0.032828722 0.13185105 0.041500196 -0.15190692 -0.016482517 -0.019196723 0.22797428 -0.18229185
0.17343962 0.12781176 -0.08595474 -0.19015048 0.25276247 0.25759992 0.106141165 0.07426236
-0.26357564 -0.096177846 0.19197811 -0.24793172 -0.14051998 0.028750261 -0.030334711 -0.14699005
0.0037975698 -0.25501576 0.09469578 -0.21148595 0.1876533 0.20538042 -0.066958934 0.075494744
0.19178641 -0.18349162 -0.022971675 -0.14329557 -0.219378 0.08060072 0.26623085 -0.117665656
-0.07439025 -0.15558976 0.041016977 -0.21246059 0.0061872024 -0.2397312 0.08199353 0.30708233
-0.15049265 -0.1698226 0.077759735 0.16261427 0.1683847 0.26072285 0.1720437 -0.0008998184
-0.07553476 0.025250223 0.15693866 -0.07703255 0.2057751 0.17787531 0.16289066 0.17892136

bias_ih_l0 f4 [64]
00000000: 5849 863c 50e2 f3bd 2440 f13d 7a62 eebc
00000010: 03a1 86bd 4f5d 253d 8c29 b83e 3757 22be
00000020: c8a2 12be c2f6 d3bd c560 b43b 611c 5b3e
00000030: fa3e 36be c759 2b3e be11 743e 2f63 483e
00000040: a7e2 0b3d 4d18 1a3e 8b9d b23e adf9 97bd
00000050: 33bc 04be 905f 843e dc2c 6c3d 465d b13d
00000060: b517 303e f6d3 883e 1378 513d 34fb 613e
00000070: c12e 12bd 6967 8a3e 238d 323e 73c7 1cbe
00000080: 4124 f13d 3f74 333e d3d4 a63d e311 8e3e
00000090: bda4 07bd 8290 c63e 1b07 c13e 84d0 1e3e
000000a0: 835d 98be 995e f5bd b39d 0abd bb4d 9ebe
000000b0: 7074 813e b15a 813e 89d0 1ebc 5d9c 893e
000000c0: 9c13 f13d 87b4 2a3e 3918 363e a127 2d3e
000000d0: 2305 193e 3d34 c93e 478b 853e e302 de3d
000000e0: 126b ab3d 4109 03bd 775f 5b3e e89a aa3e
000000f0: b8ed 523b 7220 a43e 94a2 893e eedb b7bd
0.016392395 -0.119084 0.11779812 -0.029099692 -0.06573679 0.04037219 0.35969198 -0.15853582
-0.14319909 -0.103498 0.0055047 0.21397544 -0.17797461 0.16733466 0.23834893 0.19569086
0.0341517 0.15048333 0.3488582 -0.07420669 -0.12962417 0.25854158 0.05765997 0.086603686
0.17196544 0.26724213 0.051139902 0.22068483 -0.03568912 0.2703202 0.17436652 -0.15310459
0.11774493 0.17524813 0.08146062 0.2774802 -0.03311609 0.38782126 0.37700734 0.1550923
-0.29758844 -0.11980934 -0.0338418 -0.3091868 0.25284147 0.25264505 -0.009693273 0.26877108
0.11771318 0.16670428 0.17782678 0.16909648 0.14943366 0.39297667 0.26082823 0.10840394
0.083700314 -0.031991247 0.21423136 0.3332131 0.0032185148 0.32056004 0.2688185 -0.08977495

bias_hh_l0 f4 [64]
00000000: fcca 4abe 4693 87be 72d2 5fbb 6970 8f3e
00000010: df4a 9abb 239b f63d 5ae4 843d ad10 4e3e
00000020: 273d 2dbd 879f ab3e b638 3e3e 7f9a 163d
00000030: 38c5 3dbe 59fa 14be f6e7 3a3d 81c8 debd
00000040: 3e47 2c3e b9fb 9fbd 4ea5 0f3c 7f92 5fbd
00000050: 3bb6 663e 447f 0b3e df89 2b3e 4936 e3bc
00000060: bab6 9f3e 12a8 ac3e 6d92 26bd 2b3a 893e
00000070: 56f2 b2bd 94f0 753e 5b4b 373d f709 293e
00000080: 4ddc c0bd b5b1 473e deb2 2e3e 6f8c 783e
00000090: 718e 91be 62a1 ae3e 4708 c73e 091c 8e3d
000000a0: fa84 05be 8384 b0be 9d29 7a3e e89e 2abe
000000b0: 2c32 863d cce3 92bd 7306 213e b6a6 6c3e
000000c0: 39a6 633e bf69 e6bc 299f c03e cfc7 5f3e
000000d0: b150 2f3d 8f00 043e c1b5 a53e 3e70 61bd
000000e0: 922e 853e 61d8 af3c 912d 1c3e 12be 7c3e
000000f0: 10ac 883e c51d 06be 3202 813d 00e6 c43c
-0.19803995 -0.26479548 -0.0034152535 0.2801545 -0.0047086324 0.12041309 0.06488867 0.20123549
-0.042294648 0.33520147 0.18576321 0.036768433 -0.18532264 -0.14548625 0.04563137 -0.10878087
0.16824052 -0.07811684 0.008767439 -0.05458307 0.22530453 0.13622767 0.16751812 -0.027735846
0.31194097 0.33721977 -0.040666986 0.2680219 -0.08737628 0.24017555 0.0447496 0.16507708
-0.09417019 0.19501384 0.1706042 0.24272321 -0.28428987 0.341075 0.38873503 0.06938941
-0.13039008 -0.34476098 0.24429937 -0.1666218 0.06552538 -0.07172355 0.15725116 0.2311047
0.22231378 -0.028126596 0.3762143 0.21853565 0.042801563 0.12890838 0.3236523 -0.055038683
0.26012093 0.021465482 0.15251757 0.24681881 0.26693773 -0.13097294 0.06299247 0.024035454

weight f4 [32, 16]
00000000: 8322 983e 031f 893e 94b5 ec3e e899 683e
00000010: 3df9 77bc c5bf d5bb 4e52 ad3e cef2 fe3c
00000020: 5f46 9bbe c6b7 b8be b273 b83d 81f6 8d3b
00000030: 75d4 b7bd 576e 4c3d 83a9 f03d 7dde 8f3e
00000040: 86ce fa3d f6b6 c3bd c006 2fbe 9176 8e3e
00000050: f415 c4be 0e0c d0bc eaad 493e f012 19be
00000060: d943 a6be b811 39be 72da 183e f3ce 443d
00000070: 88a3 b33e d9c9 ac3d 3ec9 51be 4f47 05be
00000080: 19fa 323e b33f 03be e711 de3d 030d 473e
00000090: 9e85 81be 44fd e0bd c8a9 103e fbf4 e9bd
000000a0: 8c30 8b3c 99cd 433e 28cb 8b3d c4b9 8abe
000000b0: 34a0 213e 3c40 c13d 420e c33d 3c51 623e
000000c0: 6ccf 7bbd b63e b63d 7997 ba3d b6e4 903e
000000d0: 9cb8 7e3c 922e 103e a6e7 3e3e 68a0 453e
000000e0: 10da 68bc 0166 a7be b0b8 203e 4518 a6be
000000f0: b799 1d3e 55d5 7c3c 4385 633e f2b7 8abd
00000100: 9c21 2b3e 3a2e d33d 9228 103f 95a6 b13e
00000110: 66f0 0fbc 69e5 b63e 1794 e93e 5faa 3cbe
00000120: 208c debe 82b2 d0be 2dac 88bd c68f e8be
00000130: c613 153d 8174 133e 4526 f13e 0a61 973e
00000140: 0a0f 213c c53c 02be b073 953c e0af 193e
00000150: c56a 00be 6e2f bd3e 1824 cb3e e518 453e
00000160: 2601 cfbe a245 b9be a298 fe3d 0bc6 0cbe
00000170: 5bd0 a63e 0ca8 653a ea9e 7b3e a750 bd3d
00000180: fe90 8cba 6115 57be 765b 323e f149 edbd
00000190: adb8 7dbd 9be1 143e dcc4 5e3d b780 733c
000001a0: 5bd5 43be 926f 983c 4abf 45be 24a4 3a3e
000001b0: e139 b2bd d986 d3be 7356 0bbd fdd9 8bbe
000001c0: 8c17 06be 089d 783e 48d8 aabc 0545 793e
000001d0: a801 1c3e d9b6 513e 63b0 11be c78e 603d
000001e0: f882 b03d bfa0 da3d 2bce 15be 0314 20be
000001f0: f710 4a3e b42c 9abd ee46 cabe cd6d 653e
00000200: 34a8 6bbe ee50 11be 20de 253d 7258 513e
00000210: 6e03 1a3e f013 e03c 4025 2c3c 2899 3d3d
00000220: c0df 72bd 5437 bd3d f87f 6f3d 8234 7c3e
00000230: c004 1cbe 9857 d83d 908f 72bd e445 cf3d
00000240: 6bfe 913e 8fcf e1bd a53c ca3e b444 43bd
00000250: 1834 963d 5d6c 7e3e 1ea0 fd3d d37d c93d
00000260: 75f9 4dbe cdfb 85be ea5a 273e 8df4 3a3d
00000270: 089e 6fbe ae51 143e 2189 9dbb 2911 923e
00000280: 2630 753e 0d7e 8c3d eeb7 28be 551d 933e
00000290: 4ed9 bb3d ff83 f6bb 4fd5 d73d 7d8b 193c
000002a0: 7e5b 6ebe dba4 96be d4ba a13e 3e5b 7dbe
000002b0: 86c7 eaba 22ed 05be e1bf 24be 3e85 8e3e
000002c0: fbcc 013e a8c7 303e 5116 a93e cb77 60bd
000002d0: 65fd ddbe bb4e a13e 6081 273d 61ba ab3d
000002e0: 4e21 29be 090a 90bd 29b6 be3e a705 383d
000002f0: 93dd 563d e138 303e d2a5 8b3d a8cd 303e
00000300: 6950 adbd b919 0c3e a323 32be df8c 5ebe
00000310: e247 27bc 7927 003e 7bff 4c3e a0af 133e
00000320: 749e 99bd 1f86 743d 66bc fabd 319d e33d
00000330: 1c6e bf3d 418b 29be ef00 163e 9773 85be
00000340: 7f21 2e3e 7c88 4cbe c44f 31be f62b a73d
00000350: ef79 643d f7e5 043e c449 803d 7720 4fbe
00000360: 34ea 773e 1714 853d ed33 41be fcee ecbd
00000370: 1637 ad3c 6675 87be 0f35 0ebe bd96 373e
00000380: b803 b33e c702 81bd dce8 273e ce07 abbd
00000390: 7d95 c3be d0a6 c63e e42c ea3e ca06 48be
000003a0: a471 e8be 95a2 b4be 6c7a 7d3b 1258 9bbe
000003b0: ea56 683d 54df 923e db49 b5bd 70b1 3d3e
000003c0: e0bf 893e 7ee8 d93c 0495 523d 6121 a73e
000003d0: c1a6 9cbe a99a 413e 1dfe dd3d 345d 34be
000003e0: ddd7 86be 1a81 c9be 14f9 713e 4397 b4bd
000003f0: b08c 8c3d af14 bc3e 2422 343e a3c0 d13b
0.2971383 0.26781473 0.46232283 0.2271496 -0.015135107 -0.006523105 0.33851856 0.031121638
-0.30327126 -0.36077708 0.09006442 0.004332364 -0.0897607 0.049909916 0.11751082 0.28099433
0.122464225 -0.095563814 -0.17092419 0.27824834 -0.38298 -0.025396373 0.19695249 -0.1494863
-0.3247364 -0.18073165 0.1492708 0.048048925 0.35085702 0.08436937 -0.20486924 -0.13015483
0.17478217 -0.12817268 0.10843258 0.19438557 -0.25297254 -0.109858066 0.14127266 -0.114236794
0.016990922 0.19121398 0.06825858 -0.27094853 0.15783769 0.0943608 0.09524204 0.22101301
-0.06147711 0.0889868 0.09110922 0.28299493 0.015546944 0.14080265 0.18643054 0.19299471
-0.014212146 -0.3269501 0.15695453 -0.3244039 0.15390669 0.015431722 0.22218804 -0.06773366
0.1671204 0.103115514 0.56311905 0.34697405 -0.008785343 0.357219 0.45620796 -0.18424366
-0.43466282 -0.4076119 -0.06673465 -0.4542219 0.03639581 0.14399911 0.4709951 0.29566222
0.009830246 -0.12718494 0.01824364 0.15008497 -0.1254073 0.36950248 0.39675975 0.19247778
-0.40430564 -0.36185938 0.12431456 -0.13747422 0.32580838 0.00087606977 0.2457234 0.09243899
-0.0010724363 -0.21004249 0.17417702 -0.11586369 -0.0619437 0.14539187 0.05438696 0.014862231
-0.19124357 0.018607888 -0.19311252 0.18226677 -0.08702446 -0.41313818 -0.03401799 -0.2731475
-0.1309492 0.24278653 -0.020855084 0.24342735 0.15235007 0.20479907 -0.14227442 0.054823663
0.0861873 0.10675191 -0.14629428 -0.15632634 0.19733034 -0.07528058 -0.3950724 0.22405167
-0.23013383 -0.14191028 0.040495038 0.20443895 0.15040371 0.027353257 0.010506928 0.04628864
-0.059295416 0.092390686 0.05847165 0.24629405 -0.15236187 0.10563582 -0.059218943 0.101207525
0.28514418 -0.11025917 0.39499393 -0.047672942 0.07334155 0.24846025 0.123840556 0.09838452
-0.20114692 -0.2616867 0.16343275 0.045643378 -0.23400128 0.14484283 -0.004807607 0.28528717
0.23944148 0.0685998 -0.16476414 0.28733316 0.09172307 -0.0075230594 0.10538732 0.0093716355
-0.23277089 -0.2942265 0.3158785 -0.24741837 -0.0017912246 -0.1307874 -0.16088821 0.2783603
0.1267585 0.17263663 0.3302484 -0.054801743 -0.43357387 0.3150538 0.040894866 0.08385158
-0.16516611 -0.07033164 0.37248352 0.044927265 0.052457403 0.17209198 0.06818737 0.17265952
-0.08462603 0.13681687 -0.17396407 -0.21733426 -0.010210009 0.12515058 0.20019333 0.14422464
-0.07500926 0.05969822 -0.122429654 0.11113966 0.093471736 -0.16557027 0.14648794 -0.2606475
0.17004965 -0.1997394 -0.17315584 0.08162682 0.055780347 0.1297835 0.0626407 -0.20227228
0.24210435 0.064979725 -0.18867464 -0.1156902 0.021144431 -0.26456755 -0.13887428 0.17928596
0.34963775 -0.06299358 0.16397423 -0.08351098 -0.38199988 0.38799143 0.45737374 -0.1953384
-0.453992 -0.3528029 0.0038677705 -0.3034063 0.056723513 0.2868601 -0.088519774 0.18524718
0.26904202 0.026600119 0.051411644 0.32642654 -0.30595973 0.18906654 0.10839484 -0.17613679
-0.26336566 -0.3935631 0.23630172 -0.088179134 0.068627715 0.3673453 0.17591149 0.006401138

bias f4 [32]
00000000: 6e5e 483d dfe3 563d c8c0 3c3e 921b bd3e
00000010: 781d c13e 2154 b23e c249 333e b937 293e
00000020: 7a64 3cbe 39ca df3c 17cb cbbd 5203 b13e
00000030: f415 24be 810a 023e cd5d ec3e f083 803c
00000040: 9f49 563e 20a2 01bd 83eb 11be b4d2 06be
00000050: 3ee8 163e 7c50 823d d483 3c3e b691 a63e
00000060: 5077 82bc 2879 6bbe 2d19 a8bd 9890 763d
00000070: 0f22 3e3e 982f 15be 5a3d 7dbe b03c 053e
0.04891818 0.05246341 0.18432915 0.36935097 0.37717795 0.3482981 0.17508605 0.16525163
-0.18397704 0.027318107 -0.09950846 0.34572846 -0.16024 0.1269932 0.46165314 0.015687913
0.20926522 -0.031648755 -0.14249997 -0.13166314 0.14737031 0.063630074 0.18409663 0.32533044
-0.015926033 -0.22995436 -0.08207927 0.06019649 0.1856768 -0.14568937 -0.24730435 0.13011432

weight f4 [32, 32]
00000000: c6ce d13d 63c3 9c3d 9581 4c3d b1d3 1d3e
00000010: 50f0 7fbc 20cb b8bd ba8e c6bd 8a44 6e3d
00000020: 36aa eb3d 23c8 c03d cbd0 093e cc63 263e
00000030: 105f fcbd 2306 1d3e fcb4 40bd 0866 653c
00000040: bf41 9d3d e792 da3d ecdd 2fbd 40b4 21be
00000050: 883f a53d 41fa 6f3e 4a1e 9e3d bdb2 5d3e
00000060: 9266 b73d 993e 293e 8131 4f3e 9fe6 553e
00000070: fe65 c23d 7ecc 683d 2060 35bd 6108 0e3e
00000080: 37e0 f9bd 7e4c 1ebe ad42 06be 4a98 2dbe
00000090: fee8 63bd 8043 45bb a354 193e f88b 12bd
000000a0: 00fc 6239 8d44 10be 74d7 0e3d 0244 963d
000000b0: 03e1 1d3e bb81 0dbe 6643 05be d4a4 4ebd
000000c0: 1c33 78bd 7bdd 0d3e 9fa2 08be d71d 0b3e
000000d0: c773 cebd a57c 0ebe d297 91bd a472 403d
000000e0: 610a 143e 8802 253d 6f4a e5bd 1059 693d
000000f0: 7f12 203e 8098 ebba 02e6 c6bd bfff dabd
00000100: a2f7 00be 79c5 233e 24f4 4b3d f3df d1bd
00000110: f8a6 5abd cf95 18be 307e 403d 00ee 35bd
00000120: 9014 1abc 40e3 1dbb 6287 12be a0f4 fdbd
00000130: 10b1 9ebd 2021 c6bc 846a e8bd 9b93 0d3e
00000140: 1136 2f3e 231b e9bd 91c1 253e da47 d0bd
00000150: da6a c03d 2052 7b3c 1075 f1bd 85f3 c2bd
00000160: 71f9 d7bd 0631 e83d c1e0 233e 2442 febd
00000170: e0b8 b7bd ed3e 253e 2886 f6bc 15ff cdbd
00000180: 61fc a73e df83 023e 9db2 4f3e 60fb a73d
00000190: 35ae 0a3e 772b 113e e077 e1bd 1bdf ee3c
000001a0: aebe ebbd c699 923d 7a55 e13d 74e1 9e3e
000001b0: 60d2 7dbd 8fd7 3f3d 9ad0 c53d e673 823e
000001c0: 3350 223e dec9 8a3e 2f88 1fbe b317 b9bd
000001d0: 9806 d6bd 2826 9e3e cefe ea3d eba0 733e
000001e0: 0193 30be 2c88 f9bd b27f 4d3e 1702 cd3b
000001f0: b84a 113e 440c f83d 485b eabd 93c9 763e
00000200: 59f8 c33d 07ac 2c3e cf37 ad3c 0013 9d3e
00000210: d29b a73e 4d72 9f3e c5ca b53d f271 35bb
00000220: 9c4d b4bd ea5d 9b3e f892 a03b 4b5b b13e
00000230: a2fc f1bd 2032 60bd 3bba a63e b8e9 8e3e
00000240: e97f 923e b5f3 813e 0027 4cbe a657 fcbd
00000250: 5e24 82bd b28a ad3e e89b 573e 740a cb3e
00000260: 30c8 903c c338 e0bd f204 613d 15b0 0abd
00000270: b434 0ebd 3d85 b33d 8073 823d 80ff 173e
00000280: 2876 1abe 6c15 b33d 9123 ae3d 2d4f 7cbc
00000290: 2cfe 83be 83a1 423e 5857 7e3c 8803 453e
000002a0: 62c1 8bbd 2003 34bc c1c0 643e 476d 323d
000002b0: e2cf 96bd 79c6 17be 6028 1cbe 491d be3d
000002c0: c814 49bd d6f6 4f3b a038 d23c 0d08 1a3e
000002d0: ee2c bd3d f8f8 fbbc 0720 003e f42c e53c
000002e0: 1c4e 3fbd 30f7 38bd 8c18 02be eddc 3f3e
000002f0: df78 fa3d 9498 f2bd add1 bcbd 1c2e 813d
00000300: b110 b83d 2c4f 1a3e 8930 ef3d 7739 643d
00000310: f243 1abe 5529 483e a5fe 12be 8318 2d3e
00000320: e093 f6bc 94c1 993e b934 493e ae57 643d
00000330: 1e17 dbbd 6de2 f23d 7c3e f53d 3024 003d
00000340: 4d9d 823d b575 6abd 2940 a73c e245 bd3d
00000350: 9c51 303e a714 3c3e 737c 673e 925d 283e
00000360: 1c6f a1bd faab e93d 4845 303e a8f4 183e
00000370: 194a 753d 234a cf3d f9fb 87bd 2e86 20be
00000380: 1805 91bd d221 ab3d cafd cf3d 512b 14be
00000390: 705b 47bc a203 d9bd b327 143e 9858 273d
000003a0: 52d7 edbd 5acc 833d bde7 f5bd 348d 053d
000003b0: 302f 10be fc03 593d 948b 2abd 18cb 1fbe
000003c0: c739 cbbd 80e1 4bbc 5263 933d b0e9 6a3d
000003d0: a4ba 2c3d 42b8 76bd 2c21 3dbd 26f5 b63d
000003e0: d814 acbc 3b6c b3bd 1854 bcbc 37b0 80bd
000003f0: a030 e33c 7185 98bd 74d3 563d b8c2 953c
0.10244517 0.076544546 0.049928267 0.15412785 -0.01562126 -0.09023118 -0.09695192 0.058170833
0.115070745 0.09413173 0.13458554 0.16249007 -0.12322819 0.15334372 -0.0470476 0.014001377
0.07678556 0.10672551 -0.04293625 -0.15791416 0.08068758 0.23435308 0.07720621 0.21650214
0.089551106 0.16527785 0.20233728 0.20888756 0.0949211 0.056835644 -0.044281125 0.13870384
-0.12200969 -0.15458867 -0.13111372 -0.16952625 -0.05564212 -0.0030100048 0.14973693 -0.035778016
0.00021646917 -0.1408865 0.03487344 0.0733719 0.15417866 -0.1381902 -0.13013992 -0.05045016
-0.060595617 0.1385402 -0.13343285 0.13585602 -0.100806765 -0.13914736 -0.071090356 0.04698433
0.14457084 0.040285617 -0.11195838 0.056969702 0.15632056 -0.0017974526 -0.09711839 -0.10693311
-0.12594464 0.15993299 0.049793378 -0.10247793 -0.05338189 -0.14900897 0.04699534 -0.044416428
-0.009404317 -0.002409175 -0.14309457 -0.12400174 -0.07748616 -0.024185717 -0.11348441 0.13825838
0.17110468 -0.11382129 0.16187121 -0.101699546 0.0939538 0.015339404 -0.11789906 -0.09519104
-0.10545624 0.113374755 0.16003706 -0.12414959 -0.08970809 0.16137286 -0.030093268 -0.10058419
0.32809737 0.12745617 0.2028298 0.08202243 0.13543017 0.14176737 -0.110091925 0.02915912
-0.11510979 0.07158236 0.110026315 0.31031382 -0.061968207 0.046836432 0.09658928 0.25479048
0.15850906 0.27107137 -0.15579294 -0.090377234 -0.104504764 0.30888486 0.114743814 0.23791854
-0.17243578 -0.12184176 0.20068243 0.0062563526 0.14188659 0.121117145 -0.11443192 0.24100332
0.09568853 0.16862498 0.021144776 0.30678558 0.3273607 0.31141892 0.08876566 -0.0027686325
-0.08803865 0.30345088 0.0049003325 0.34639964 -0.11815764 -0.054735303 0.32563958 0.27912688
0.28613213 0.25381246 -0.19936752 -0.12321405 -0.06354593 0.3389488 0.21055567 0.39656413
0.017673582 -0.109483264 0.054936357 -0.03385933 -0.03471823 0.087656476 0.06369686 0.1484356
-0.15084136 0.0874432 0.085028775 -0.015399736 -0.25779855 0.19006924 0.015523754 0.19239628
-0.06823994 -0.010987073 0.22339155 0.043561246 -0.07363869 -0.14821805 -0.15249777 0.092829295
-0.049092084 0.003173282 0.025661767 0.15042134 0.09237085 -0.030758366 0.12512217 0.027975537
-0.04670535 -0.04515761 -0.12704676 0.1873662 0.122300856 -0.11845508 -0.0921968 0.06307623
0.08987559 0.15069264 0.11679179 0.055718865 -0.15064982 0.19547017 -0.14354952 0.16903882
-0.03009981 0.300305 0.19649018 0.05574768 -0.10697769 0.118595935 0.119748086 0.03128451
0.06377659 -0.05724116 0.020416336 0.09241845 0.17218632 0.18367253 0.22606067 0.16441944
-0.078825206 0.11409755 0.17213929 0.14937079 0.05988512 0.10121562 -0.06639857 -0.15676185
-0.0708105 0.0835606 0.10155828 -0.14469649 -0.0121677965 -0.10596396 0.14468269 0.040855974
-0.11613335 0.06435461 -0.12007091 0.032605365 -0.140805 0.052982315 -0.04163702 -0.15604818
-0.099231295 -0.0124439 0.07196678 0.057351768 0.042170182 -0.060234316 -0.046174213 0.08933477
-0.021006033 -0.08760878 -0.022989318 -0.0628361 0.027733147 -0.07447327 0.05244775 0.018281326

bias f4 [32]
00000000: 147a 883d aceb 30bd 28d6 b03c 309c 293d
00000010: 972c 9b3e 7c93 d4bc 8792 fdbb bf58 a1bd
00000020: 9d0d 963d 6793 dd3c e2e6 343e 456b d73d
00000030: 77d6 203e 938e 98bd b493 3ebd 3abf 14be
00000040: 92ec cf3d 6b0c b1bc e549 003e 36ad f5bd
00000050: 1442 f43d 473e 00be c2b4 c33d 38c2 d53b
00000060: 28b9 893d f21c 57bd 93d4 adbd 9b5e d83c
00000070: 3492 09bd fca8 a83d fccf 153d 8c3d 1e3d
0.066639096 -0.043193504 0.021586493 0.041408718 0.30307457 -0.025949232 -0.0077384147 -0.07878255
0.07326815 0.027047826 0.176662 0.10518507 0.15706812 -0.07449069 -0.04652758 -0.14526072
0.10152544 -0.021612367 0.12528189 -0.11995928 0.11926666 -0.12523757 0.09555961 0.006523397
0.06724769 -0.05251784 -0.08487811 0.026412299 -0.033586696 0.08235356 0.036575302 0.038632914

weight f4 [32, 32]
00000000: 27ea a23d 80c1 e8bc 80b3 3cbc 0f4b 31be
00000010: ccf3 9bbd 5009 0f3e 0b0e 3cbd 0d9e 063e
00000020: 7c44 463d 8f2b c2bd 0b96 b33d c99f fb3d
00000030: e925 2b3e 6c73 733b 8302 0fbe 3925 293e
00000040: a80b df3c 63f4 4a3d f06c 963c 0e16 f6bd
00000050: ad47 d5bc 507c 1ebd 7958 c4bd 2c6e 96bd
00000060: fad4 9dbd a819 89bc 0433 f23c 3638 1f3d
00000070: 2a34 b23d 480f 353e 8713 083e 0021 e3bc
00000080: b78e d9bd 720b cf3d 2b58 23be 9e12 a53d
00000090: ff69 643d 1cc4 563e 5c4e 543e f9ca 123e
000000a0: 9f06 fabd 2318 503e 5bfa 173d 0078 d9b9
000000b0: ccf9 153e ea6b 403e 0f56 09be 3c6b 0cbe
000000c0: f270 2bbe e886 1fbc 1f8a 4abe 2ef6 0b3e
000000d0: 491b 153e fe1f ef3d 156c 363d a413 f2bd
000000e0: 1cdb 88bc 7608 9f3d be05 053e 5aec bcbd
000000f0: 7df5 d2bd ba9d b93c ea00 8c3d 83bf 22be
00000100: 31e7 0d3e 29c7 023e d200 25be 9814 cebd
00000110: 6499 3d3d 6fc9 0c3e 98b3 f7bd ae76 b03d
00000120: 9444 58bd 920d a93d af5d b83d b918 9e3c
00000130: 8db5 563d 6365 f1bd 9cdc b43d d95a a7bd
00000140: 9337 2d3e bf2a 1f3e 068c 0e3e 40a7 0c3e
00000150: 97f8 d0bd 273e 8cbd 3232 d23d a44a 533d
00000160: e74e 11be 4818 563d 7a89 853d f724 243e
00000170: 0c1f 68bd 2ca4 30be 402b 953c 4a52 27be
00000180: 2892 153e 1541 173e 1648 e33d 5c60 103e
00000190: 431c e43d 27c8 dc3c 0bcf d13d 44db 2a3d
000001a0: 36dc 7a3d f627 f83d 120a 2fbe add8 24be
000001b0: 99fa 06be 08e9 303e 628d 09be acf2 0abe
000001c0: 3498 5e3d 1291 42bd 8546 183c 1306 c93d
000001d0: 13ff 433e 00da 773c ba17 d7bd c4de b8bd
000001e0: 6bfd 383d 4e22 7bbd 56d3 433d e54c 27be
000001f0: 4a6e bd3d 6dd4 24be b6e2 f1bd 0e63 36be
00000200: a495 24be 163e cb3d bce4 12bd b44a 08be
00000210: 68f4 b1bc 4431 6ebd 7159 86bd 0ae1 c23d
00000220: ed37 16be c0d6 cebb 3b28 9bbd 00ac 0bb9
00000230: b86e 473d 39e3 a2bd 2a31 c63d b080 c43c
00000240: e232 23be 70de 67bc 00d6 33bd c97f 15be
00000250: c43f 8ebd 1c88 5dbd 08b6 25bd 1483 ddbd
00000260: 972c 15be 68a7 f8bd 324a ec3d d84a 5b3d
00000270: 7463 21be de27 963d aaa9 c93d 34ed 913d
00000280: c5af 9c3d fc9b acbd 83db b7bd e6b3 bfbd
00000290: ffba 0abd a686 fd3d 7539 a8bd a873 e3bd
000002a0: e6e6 133e a05e 0ebe b8c7 c93d 67c4 8abd
000002b0: 5833 88bc e4f1 c53c be8c 32be 4c7e 8b3d
000002c0: b587 a0bd 2b9c 66bd 4119 c53c 0327 34be
000002d0: 6f83 f2bd 5485 1fbe 0b5f 30be 40aa 7d3d
000002e0: e333 183e 38fe f5bc 1089 c4bc 5579 dfbd
000002f0: bc4e bbbd 66a4 32be cc7d 7e3d 9296 5d3d
00000300: f9b3 643e 4c8a 423d e588 31be c7e5 223e
00000310: 170d 803e 3ca8 043e cf20 6c3e 1281 e83d
00000320: 210b 93bd 7da3 31be 0afd 1d3e c3e6 143e
00000330: 5f2b 81bd bf0d 6e3d ae2a 9a3d e072 df3c
00000340: 0e6e cb3d fe51 b63c 594e 2a3e 8bf6 e2bd
00000350: 4ec5 2fbe f022 b13c 70aa ebbd ee7b 08be
00000360: 25cb c1bd 3522 2e3e e3e9 1dbe aba1 873e
00000370: fa4a f73d f55c 803e 1b1a d1bd 01aa ba3e
00000380: e5cc 92bd ade4 b4bd 98a6 f5bd 2ca2 033e
00000390: 14e5 6d3c 99e4 ad3d 6fe7 07be d4da 38bd
000003a0: 314a fb3c eab0 433e 76a9 213d c3bc d33b
000003b0: 64c5 663c dc70 e6bb e626 70bc 709f 25be
000003c0: 2081 bd3c 3205 273c 94cf a3ba 3c3e 273e
000003d0: e167 513e 8e15 32be dc67 843b bb2b c1bd
000003e0: 138b 163e 4835 95bc 2432 ab3d 4fa9 a43c
000003f0: cc58 48bd 2d38 233e c49b 40bd 5552 45be
0.07954817 -0.02841258 -0.0115174055 -0.17313789 -0.0761486 0.13968396 -0.04591183 0.13146229
0.048405156 -0.094809644 0.08768853 0.12286336 0.1671368 0.0037147654 -0.13965802 0.16518106
0.027227238 0.04954947 0.018362492 -0.12015925 -0.026035154 -0.038692772 -0.09587187 -0.07345232
-0.07706638 -0.016735867 0.029565342 0.038871966 0.08701356 0.1768161 0.13288699 -0.027725697
-0.10622924 0.10109605 -0.15951602 0.080601916 0.05576515 0.20973247 0.20733017 0.1433524
-0.12208294 0.20321707 0.037103992 -0.00041478872 0.14646071 0.18791166 -0.13411735 -0.13712782
-0.16742304 -0.009736754 -0.19779252 0.13668129 0.1456119 0.11676024 0.04453667 -0.118201524
-0.016706042 0.07765286 0.12990472 -0.09224768 -0.103007294 0.022658218 0.06836112 -0.15893368
0.13857724 0.12771286 -0.16113594 -0.10062522 0.046288863 0.13748716 -0.12094802 0.08616386
-0.052799776 0.082545415 0.09002244 0.019298898 0.052419234 -0.11786916 0.088311404 -0.08171625
0.16915731 0.1554365 0.13920602 0.13735676 -0.10203665 -0.06847792 0.1026348 0.051584855
-0.14190255 0.05226925 0.06520362 0.16029726 -0.056670234 -0.17250127 0.0182091 -0.16339985
0.14606535 0.1477092 0.11097734 0.14099258 0.11138203 0.026950909 0.102445684 0.041713014
0.061245166 0.12116997 -0.17093685 -0.1609828 -0.13181533 0.17276394 -0.1343284 -0.13569134
0.05434437 -0.04750163 0.009294157 0.09815612 0.19140272 0.015127659 -0.10502572 -0.09026864
0.045163553 -0.061312012 0.047808968 -0.16337927 0.092495516 -0.16096659 -0.1181082 -0.17811224
-0.16072708 0.09923951 -0.03586267 -0.13309747 -0.021722987 -0.058152452 -0.06560028 0.09515579
-0.14669771 -0.0063122213 -0.07576033 -0.00013320148 0.048689574 -0.079534955 0.09677346 0.023987144
-0.15937379 -0.014152154 -0.04390526 -0.14599527 -0.06945756 -0.054084882 -0.0404568 -0.10816017
-0.14567791 -0.12141305 0.11537589 0.053538173 -0.15760595 0.07331823 0.09846814 0.07125321
0.07650713 -0.08428189 -0.089774154 -0.09360485 -0.03386974 0.12379198 -0.08214084 -0.11106044
0.1444355 -0.13903284 0.098525465 -0.06775742 -0.016626045 0.024163194 -0.17436501 0.068111986
-0.07838384 -0.056301277 0.024059894 -0.17593007 -0.11841475 -0.15578204 -0.17223756 0.06192994
0.14863543 -0.030028448 -0.023991138 -0.10911814 -0.09145877 -0.17445526 0.062131688 0.054098673
0.22334279 0.04749517 -0.17337377 0.15907966 0.25009987 0.12954801 0.2305939 0.11352743
-0.07179857 -0.17347522 0.15428558 0.14541154 -0.063071005 0.058118578 0.07527672 0.027276456
0.09933101 0.022255894 0.1663145 -0.110821806 -0.1716511 0.021623105 -0.11507118 -0.13328525
-0.09462575 0.17005236 -0.15421252 0.2649053 0.120748475 0.2507092 -0.10210057 0.36457828
-0.07167987 -0.08832679 -0.11994666 0.12854832 0.0145199485 0.08490867 -0.13271879 -0.045130566
0.030675026 0.19110456 0.03946825 0.006461711 0.0140851475 -0.007032497 -0.014657712 -0.16174102
0.02313286 0.01019411 -0.0012497776 0.16332334 0.20449783 -0.17391035 0.0040407013 -0.09432169
0.1470149 -0.018213883 0.08359173 0.020100264 -0.04891281 0.15939398 -0.04702355 -0.19269688

bias f4 [32]
00000000: a5d5 ecbd 9be9 10be fbd7 fbbd 4e06 4abe
00000010: 8bbc c6bd baea fbbd c51d d03e 0ca2 d4bd
00000020: f307 da3d cd64 a03e d205 183e 4fed 5ebd
00000030: a9c5 e43d c1b6 b5bc ba98 9f3e 4674 8dbd
00000040: 0255 25be 083e c13e 757b e23d cfe2 b73e
00000050: 9b0f d53d ab20 96bd 454a f33c 2c2b 8cbd
00000060: 7a2c a63e 490a 64bc a991 94bd 6620 c9bd
00000070: 94f5 bdbd 3829 87bd f447 c03e c3b9 cebd
-0.11564187 -0.14151613 -0.122970544 -0.19728968 -0.097039305 -0.1230063 0.40647712 -0.103824705
0.106460474 0.31326905 0.1484597 -0.054425534 0.11170513 -0.02218187 0.3117121 -0.06906943
-0.16145709 0.3774264 0.11058704 0.3591523 0.10403367 -0.0733045 0.0296985 -0.06844172
0.32455808 -0.013918468 -0.07254345 -0.09820633 -0.09275356 -0.06599659 0.37554896 -0.10094025

weight f4 [1, 32]
00000000: 4dab 27bd fc5c 4dbd fb39 66b9 fd75 08bd
00000010: 1194 f8bb 6f51 b7bb b178 8a3e 7c8a e9bc
00000020: 649d 9ab9 f1ab bb3e dfaa 823e 9518 2d3e
00000030: f13d 673d a2d6 bebc d7a0 ae3e 6bb2 77bd
00000040: c557 52bb 6272 423e 6585 4c3e b46d 993e
00000050: 2fbe 5b3d b594 f43b 724c 8dbb f5bd cfbc
00000060: 7666 b13e 3d1b 39bd 89d8 ebbc 9bbd 91bc
00000070: a26a 673c 36d6 983b c222 a03e dc36 c23c
-0.04093485 -0.050137505 -0.00021956109 -0.033315647 -0.0075860103 -0.0055944244 0.27045205 -0.028508417
-0.00029490434 0.36654618 0.2552099 0.16903909 0.056455556 -0.023295704 0.34107086 -0.060472887
-0.0032095772 0.18988946 0.19972761 0.2996651 0.05364817 0.0074640163 -0.0043120915 -0.025359133
0.34648484 -0.045191992 -0.028789775 -0.017790606 0.014124544 0.004664208 0.31276518 0.0237078
