models/patient21/ppo_model_for_patient_21_Critic.pth (torch, 22738 bytes, 11 tensors)

weight_ih_l0 f4 [64, 2]
000000 43 83 52 3b b8 ab 5b be 73 b5 7b bc ac 3b 27 3e
       0.0032121695 -0.21452224 -0.015363085 0.16331357
000010 f9 89 20 3d a1 56 8f 3d 86 0e 96 3d 8d 96 b2 3d
       0.03919408 0.06998945 0.07326989 0.087201215
000020 4d 16 06 bd 57 f8 b0 ba 7d f8 a9 3d ba 5d a4 be
       -0.03273611 -0.0013501745 0.082993485 -0.32102758
000030 83 93 f2 3b a5 a5 49 3d 6b 8d 26 be 0e 69 fa 3d
       0.0074028387 0.049230237 -0.16264884 0.12227069
000040 21 21 92 be a7 74 dc bd 04 e2 25 3e 4d 76 1f 3e
       -0.285409 -0.10764437 0.161995 0.15572472
000050 e0 4a 57 be 90 bd 0a 3e 9d 10 d0 3c 62 0b 75 3d
       -0.21024656 0.13548875 0.025398547 0.05982531
000060 fc 81 57 be d9 f5 88 3c d9 1a 5a bd 38 f6 f9 3d
       -0.21045679 0.016718792 -0.05324826 0.122051656
000070 21 34 1e 3e d1 82 90 be f3 f4 00 3d 77 e2 95 bd
       0.15449573 -0.28224805 0.0314836 -0.07318585
000080 b6 40 0c be 4b cd 9b be 6a e2 05 be 71 1c 1b bd
       -0.1369656 -0.30430064 -0.13074651 -0.03786892
000090 09 47 af 3d 07 49 b1 3d b4 f5 87 be cd 4e a2 3d
       0.08558471 0.08656507 -0.26554644 0.07925186
0000a0 1b d9 c1 bc ac a9 29 be b7 02 2c be 0f 80 3a be
       -0.023663094 -0.16568631 -0.1679791 -0.18212913
0000b0 ff dd fc 3d 66 de 66 be a9 b7 8f be 8f 2e fc 3d
       0.1234703 -0.22545776 -0.2806981 0.12313568
0000c0 66 2f 21 be 33 99 1c 3d 45 32 f5 bd 9c ad 25 bd
       -0.15740737 0.03823204 -0.11972479 -0.04044877
0000d0 57 d4 9a bd e0 07 64 bd b9 4f d2 bd 68 9f dc bc
       -0.07560032 -0.055671573 -0.10269112 -0.02693148
0000e0 76 96 d4 bd 80 13 bb 3d 13 6b 8f be 19 eb 7f 3d
       -0.10380261 0.09134579 -0.2801138 0.062480066
0000f0 df 3e 7f be 93 7e 76 be 2d 9e 1e be ea 7d 8e be
       -0.24926327 -0.24071722 -0.15490027 -0.2783044
000100 de 50 be 3d ee b8 1e be 68 97 8f be be 0b 8c be
       0.09292768 -0.15500233 -0.280452 -0.2735271
000110 ed 50 8c 3e e0 5c 46 3e 98 52 a0 bd eb 64 a3 3d
       0.2740549 0.19371367 -0.078282535 0.07978233
000120 ba 07 8c 3e a8 de a6 3e f2 28 b6 bd 22 37 ef bd
       0.27349645 0.32591748 -0.088945284 -0.116804376
000130 90 7b a5 3e fe 83 8e 3c 42 14 b9 3d 4a f0 19 be
       0.32320833 0.017396923 0.09037067 -0.15033069
000140 8b a7 82 3e 4a f9 d9 bb 6b 1a 58 3c c6 96 66 bd
       0.2551845 -0.006652032 0.013189892 -0.056296133
000150 fd 4e 18 be 75 81 42 be 62 c8 51 be da cb 0d 3e
       -0.14873882 -0.18994696 -0.20486596 0.13847294
000160 f7 2a 97 bd 4f dc 3d be c6 89 aa bd b9 ba 88 bd
       -0.07381242 -0.18541072 -0.083270594 -0.066762395
000170 70 07 59 bc 4f 2f 3f be b0 bf 12 be a0 02 72 be
       -0.013246402 -0.1867039 -0.14330935 -0.23633814
000180 fd d4 90 bc d7 f2 81 be 95 3b 1e be a1 4a 0c 3e
       -0.017679686 -0.25380585 -0.15452416 0.13700344
000190 7e a8 6e bc 46 e0 de 3d 34 4f ca bd 0a ce 0e 3d
       -0.014566539 0.108826205 -0.09878388 0.034864463
0001a0 ed 3e 29 be 3a b3 16 3d f6 4b d6 3d 21 90 91 be
       -0.1652791 0.036792018 0.10463707 -0.28430274
0001b0 ce f3 a3 be bc f8 87 3c 34 f6 91 3d c9 01 5a be
       -0.32021946 0.016598098 0.07127038 -0.21289743
0001c0 e7 a0 1f 3d e6 40 fe 3d e1 d7 de 3d 87 76 73 be
       0.038971808 0.12414722 0.108810194 -0.23775683
0001d0 83 4b 97 be 0b b2 37 bd cf a2 03 be 73 73 ef 3d
       -0.29549798 -0.04484753 -0.12855075 0.11691942
0001e0 3a 29 21 3d 83 3a af be 34 68 a4 be f4 00 91 bc
       0.039345957 -0.34224328 -0.3211075 -0.01770065
0001f0 85 b0 06 be 02 d4 56 be 2d c6 0d bd 27 85 c2 be
       -0.13153274 -0.20979312 -0.034612823 -0.37992212

weight_hh_l0 f4 [64, 16]
000000 08 53 54 be f8 d9 88 3e bd 44 8b be 8c f9 80 be
       -0.20734799 0.26728797 -0.2720088 -0.2519039
000010 a2 5d 0e be 99 8a 94 3e 17 d4 6b be d0 2a 3a 3e
       -0.13902906 0.29011992 -0.23030125 0.18180394
000020 c7 83 54 be d2 0f 8c 3d de c8 cc 3c cc 7d 94 bc
       -0.20753394 0.06838955 0.024998125 -0.01812639
000030 ae a0 73 3d e0 4c 91 3e 98 e2 1e 3e 8d 49 b6 3c
       0.059479408 0.28378963 0.15516126 0.022251869
000040 d2 83 9b bc 8a db 2e 3d 78 8a e9 bd a1 a7 e0 bd
       -0.018983755 0.042689838 -0.11403364 -0.10969473
000050 5b d3 5f 3d 47 2e 22 3e f5 5e 8a bd fe 0d b4 bd
       0.054644924 0.15837966 -0.06756393 -0.08791731
000060 69 31 a0 be 04 2e 87 3d 59 9c 19 be 85 e1 8b 3d
       -0.31287697 0.06600574 -0.15001048 0.06830124
000070 40 22 89 3e 69 3f 8d 3e ef 31 c1 bd ac 24 a8 3e
       0.26783943 0.2758744 -0.09433352 0.32840478
000080 99 44 56 3d 4c de 15 bd 7c 62 1f be b4 d8 d0 bd
       0.052311514 -0.036588952 -0.15564913 -0.10197583
000090 58 79 56 be d7 84 55 3d 2b 53 93 be a3 b9 a2 bc
       -0.20944726 0.05212864 -0.2877439 -0.01986391
0000a0 b8 8b 98 be 22 f5 ca 3c 3d 2d 7f 3e a5 a4 ca bd
       -0.29794097 0.024775092 0.24919601 -0.09894685
0000b0 4e 1d 17 bd 0e 38 cd 3d ce 9a 7e be 73 f7 10 3e
       -0.03689318 0.10020457 -0.24863741 0.14156894
0000c0 1a 27 18 be 24 48 51 3e e5 e0 08 3e fe 17 92 bd
       -0.14858666 0.20437676 0.1336704 -0.071334824
0000d0 27 f1 ab bd 51 1a 5e 3b 92 bb 54 be 3f b1 07 bb
       -0.083956055 0.0033890198 -0.20774677 -0.0020705012
0000e0 8d f0 ac 3d 61 04 47 3e 20 64 b7 bd ec 9c 31 be
       0.08444319 0.19435264 -0.08954644 -0.17345017
0000f0 82 cf 2c 3d ac c9 89 3e 8a 00 0b bd c4 f9 a9 bd
       0.042190082 0.26911676 -0.03393606 -0.08299592
000100 39 b9 0d be 2d 52 b2 bd 9f 3b f0 bc 36 dd 62 be
       -0.13840188 -0.0870708 -0.029325305 -0.22154698
000110 31 45 ac 3d e3 17 ab bd 5a d8 59 be 38 c3 e5 3d
       0.08411635 -0.083541654 -0.21273938 0.11218876
000120 3d 56 11 3d 84 15 58 3e 6d 92 1a bd 83 0c 69 be
       0.035482634 0.21101958 -0.0377373 -0.22758679
000130 29 c9 43 bd 57 ec c1 bc 99 42 ce 3d c5 4d db 3d
       -0.047799263 -0.023672266 0.10071296 0.10708193
000140 b5 7a 87 be 9f c2 0d 3d 8e b3 2b bc a8 88 80 be
       -0.26460806 0.034609433 -0.010479821 -0.2510426
000150 95 33 3d be 06 4d 46 3e c5 d6 19 be d9 e1 b5 bd
       -0.18476708 0.1936532 -0.15023334 -0.08880968
000160 6b 76 18 3e 33 65 44 3e 0e 1e 42 be ea 61 9c bd
       0.14888923 0.1917923 -0.18956777 -0.07635863
000170 a8 e9 4f bd d5 16 72 3e 03 7a 90 3d fb 81 1b 3e
       -0.05075994 0.23641522 0.07054522 0.15186302
000180 b0 0e 89 be f6 9c c1 3b c5 d6 0a 3e 19 e0 2c bd
       -0.26769018 0.005908604 0.1355849 -0.042205904
000190 5f 7a a8 bd 87 f1 c8 bd 04 f4 75 be 1e d7 c6 3d
       -0.082264654 -0.09811693 -0.24018866 0.09708999
0001a0 8f 10 9a be 96 5f 42 3e cb 45 ed bd 1a f9 0c 3e
       -0.30090758 0.18981776 -0.115855776 0.137669
0001b0 d6 ce e0 3c 05 cc fb bd fd 95 a9 3d 75 0e 35 3e
       0.027442377 -0.12294773 0.08280561 0.17681296
0001c0 e2 70 7c bc b2 5b 97 bc 9a 98 eb bd 00 4a ef 3a
       -0.015407773 -0.01847634 -0.11503716 0.0018256307
0001d0 80 35 c9 3d 23 a3 20 be 00 13 13 be ad cb 8f 3d
       0.098246574 -0.15687232 -0.14362717 0.0702127
0001e0 ca 92 b7 3d d4 e4 da bd d2 64 e1 3d a7 11 3d be
       0.08963545 -0.10688177 0.11005558 -0.18463765
0001f0 25 b2 97 3e f1 90 01 3e e0 c6 72 be 76 f9 ac bd
       0.296281 0.12652947 -0.23708677 -0.084460184
000200 e3 12 86 bd 9d e2 0b 3e 29 31 0a be ee 02 80 be
       -0.06546571 0.13660665 -0.13495316 -0.25002235
000210 ae 79 bf 3c 87 be f1 bc 55 b9 50 3d 48 b4 65 3a
       0.023373451 -0.029509796 0.050957996 0.0008762521
000220 8d 23 25 bc f4 ba c3 3c 09 80 e6 3d 13 1b 39 bd
       -0.010079277 0.023892857 0.112548895 -0.045191836
000230 8b a4 ef bc cf fb 97 3e 49 b5 68 bd 7c dc 90 3e
       -0.029253265 0.29684302 -0.056813512 0.28293216
000240 73 2a 90 be d2 d3 10 be e6 ab 85 be 85 f3 81 bd
       -0.28157386 -0.14143303 -0.2610771 -0.06345276
000250 46 41 48 be ff 85 79 3d 9e 07 fa 3c ac b1 5a bd
       -0.1955615 0.060918804 0.03052121 -0.053392097
000260 b9 a2 1b 3d 18 06 9b 3e c1 5b 18 3e 02 bb 39 3d
       0.03799698 0.30278087 0.14878751 0.04534436
000270 22 7f 0a bd 16 39 94 3c 0b 40 d8 3d 2e e5 bf 3d
       -0.03381265 0.018093627 0.1055909 0.093698844
000280 1c 5c 38 bd 24 f2 04 3e da 02 11 bd c0 17 8d bd
       -0.045009717 0.12982994 -0.03540311 -0.068892956
000290 f4 cb 88 bc 8d d9 91 bd e4 f7 a0 be 5e cf 5f be
       -0.016698815 -0.07121573 -0.31439126 -0.21856448
0002a0 ad f8 79 be 1e 17 a3 bd cc a2 91 3e 87 65 67 be
       -0.24411269 -0.07963394 0.28444517 -0.22597323
0002b0 50 25 10 3e fc 94 39 3e d1 d6 09 be 63 20 85 bd
       0.14076734 0.1812324 -0.13460852 -0.06500318
0002c0 e4 ab d9 bd 79 bc 9a 3e af 53 ce bd a8 9c 14 bd
       -0.10628489 0.30221918 -0.10074555 -0.03628221
0002d0 d3 17 dd 3c 64 4e f6 bc d4 ac 6c be 37 d8 00 3e
       0.0269889 -0.030066676 -0.23112804 0.1258248
0002e0 ab 7a f8 bd 87 6a d3 bd f1 d5 c0 3d 3c bb 2a 3e
       -0.12132772 -0.10323053 0.09415806 0.16672987
0002f0 5d 34 96 3e 57 e6 85 3d 29 fa 97 be 22 86 1a 3e
       0.29336825 0.065380745 -0.29683045 0.1509023
000300 e0 c4 7e be c9 2e a9 bb 4d d0 87 be 84 a1 9c be
       -0.2487979 -0.005163048 -0.26526108 -0.30591977
000310 11 cf 0b bd f6 81 67 3d 9e a4 99 3d bf 08 05 bd
       -0.03413302 0.056520425 0.07502101 -0.032479044
000320 68 b5 da 3d e8 73 54 3e 62 13 66 3e ac 92 58 be
       0.10679132 0.2074734 0.22468331 -0.21149701
000330 18 0e 7b 3e 46 fd 4f 3e 7d a3 cb bd e0 d5 2c 3e
       0.24517095 0.2031146 -0.09943292 0.16878462
000340 ec 39 c1 3d 18 c4 8b 3e 47 2a 23 be 79 0b c8 bd
       0.09434876 0.27298045 -0.15934096 -0.09767813
000350 3d e3 b5 3d 62 d2 6c 3e 78 c8 52 3d 85 83 9a bd
       0.08881233 0.2312713 0.051460713 -0.075446166
000360 d9 2e a2 3b 91 3e 53 3e 84 c0 40 3d ff 85 51 be
       0.0049494323 0.20629336 0.047058597 -0.20461272
000370 ce 80 6c 3e d2 97 50 3e 1f 7b 72 be 3c 5d 2f bb
       0.2309601 0.20370415 -0.2367978 -0.0026758453
000380 de 38 fc 3d 74 2f 06 be 33 32 6c be bd 2e 5d bc
       0.12315534 -0.1310404 -0.23066024 -0.013499913
000390 32 1c a1 be 61 94 5e 3e 24 81 02 be ac c4 a3 bc
       -0.31466824 0.2173629 -0.12744576 -0.019991241
0003a0 85 4a 12 3e 85 55 a2 3e 14 21 7c 3d 3d 21 78 bc
       0.1428624 0.3170587 0.061554983 -0.015144643
0003b0 11 42 44 3e 34 74 f0 bc 41 73 38 3d 8b 53 1b be
       0.19165827 -0.029352285 0.04503179 -0.15168588
0003c0 72 12 9a be f6 a2 2c 3d 97 88 a3 be 20 c6 96 3d
       -0.30092198 0.0421476 -0.31940147 0.07362008
0003d0 95 52 2c be 0c 1d 97 3e 52 a5 39 3d d6 2e 87 be
       -0.16828378 0.29514349 0.045323677 -0.2640292
0003e0 1d 6e 51 be c0 ec e5 bd 75 61 92 3e 26 ea b0 bd
       -0.20452161 -0.11226797 0.2858998 -0.0863841
0003f0 7a d7 74 3e 99 19 4c 3e 14 60 11 3e 34 dd 4d 3e
       0.23910323 0.1993164 0.14196807 0.20103914

bias_ih_l0 f4 [64]
000000 cc f8 18 3d 79 24 65 3e 8b 71 38 3d ee 72 a1 3e
       0.037346646 0.22377194 0.045030158 0.31532997
000010 42 c7 53 3e fe 88 4e 3c cf bb 18 3e 4c b2 f1 3d
       0.2068148 0.012605904 0.14915393 0.118015856
000020 0c 12 90 3e 55 16 d5 3d 1f 92 1b bd b0 89 8b bd
       0.2813877 0.1040465 -0.03798115 -0.06813371
000030 92 00 16 be 98 5d 83 3e ec 25 a6 3c 65 37 ab bd
       -0.14648655 0.25657344 0.020281754 -0.08360175
000040 c1 f9 6f 3c 07 f9 d7 bd da ea 8c bd da 51 80 3d
       0.014646948 -0.10545545 -0.06880732 0.06265612
000050 c8 68 fe bd 1e cc 6e 3e 09 6b e9 bd e3 1d 58 3e
       -0.12422329 0.23320052 -0.113973685 0.21105151
000060 47 e3 d4 bc bd 7d f1 3d ab 1f 8e 3e 1f 27 a4 3e
       -0.02598728 0.11791561 0.27758536 0.32061097
000070 02 21 a4 3d 7d 5f 5d bd a6 e0 28 3e 5c 14 0f 3e
       0.08014108 -0.054046143 0.16491947 0.1397261
000080 07 d5 49 be 27 54 81 3d 05 a4 56 be 84 cb 25 bd
       -0.1971017 0.06314879 -0.20961006 -0.04047729
000090 4d 3b 4e be 45 5c a2 bd c8 42 cc 3d 44 8d bf bd
       -0.20139809 -0.07927755 0.09973675 -0.09353116
0000a0 23 32 78 be 76 31 c0 3c 8f 25 4d 3e b0 02 0a be
       -0.24237876 0.023461085 0.20033859 -0.13477588
0000b0 ef 90 36 3e 6c fd 98 3e 05 cd 61 be 85 c6 71 3e
       0.17828725 0.29880846 -0.22050865 0.23610885
0000c0 4b 73 f3 3d b8 42 a8 3e f6 57 00 3d ed b1 93 3e
       0.11887225 0.32863402 0.031333886 0.28846684
0000d0 42 20 05 3e 62 87 42 3e af 87 ce 3d 7f 6c 0f 3e
       0.13000587 0.18996957 0.10084473 0.14006232
0000e0 b2 ef f6 3d de f1 87 3d b5 b5 7b bd 28 45 59 3e
       0.12057437 0.066379294 -0.061452586 0.21217787
0000f0 2e bf 41 bb ba bc 49 3e 3f 7c a4 3d e4 37 12 3d
       -0.0029563415 0.197009 0.080315106 0.035697833

bias_hh_l0 f4 [64]
000000 c5 47 58 3e 09 d9 85 3e 14 2e 5f bd d9 21 22 3e
       0.21121128 0.26142147 -0.054487303 0.15833224
000010 fa 2d ea bd 1e af 09 be 14 7e 33 3e b0 f9 91 3e
       -0.114345506 -0.13445708 0.17528564 0.2851081
000020 01 0f 17 be ed ba 67 3e e9 b2 14 3d f8 c6 df 3d
       -0.14751817 0.226299 0.036303435 0.10926622
000030 f8 f5 f6 bd f2 b7 15 3e 11 c9 47 3e c7 3f 1a be
       -0.120586336 0.14620951 0.19510294 -0.15063392
000040 6d 29 2f 3e 74 9f 20 3e a2 54 11 3c 3d 4d 3a 3e
       0.17105646 0.15685827 0.008870276 0.18193527
000050 35 79 93 3e 45 0e 53 3e b5 bb 19 be 2f 14 87 3e
       0.2880341 0.20610912 -0.15013011 0.26382586
000060 4c 07 2f 3e 92 5d 8c bd 3e 83 f1 bc ad e5 c4 bd
       0.17092627 -0.068537846 -0.029481526 -0.0961412
000070 e1 9f 53 3e 2b 86 52 bc 40 e2 05 3e 0d f9 0c 3c
       0.20666458 -0.012849371 0.13074589 0.0086043
000080 c0 f1 87 be c6 b4 1c 3c b0 14 84 be 59 16 8a be
       -0.26551628 0.009564584 -0.25797033 -0.26970175
000090 1e 40 1b bb 69 26 67 3e fb 5b 82 bd d2 38 9b be
       -0.002368934 0.22573246 -0.063652 -0.30316788
0000a0 27 6a 1b 3d 59 a7 4a 3e df 49 13 bd 17 3d 55 be
       0.03794303 0.197904 -0.03595912 -0.20824085
0000b0 7c dd 24 3e 5f ed 31 3e 33 a6 76 be 3d 09 3b bd
       0.16100115 0.17375706 -0.24086837 -0.045663107
0000c0 08 d4 0e bd 1b 38 1f bc 37 8d b0 3b 00 e1 8c 3e
       -0.034870178 -0.009717966 0.005387928 0.2751541
0000d0 22 cb c4 3d 9a 50 88 3e 36 3f a9 3e f7 90 93 3e
       0.09609057 0.26623994 0.3305604 0.28821537
0000e0 65 97 37 3e ac 5f 39 3e 21 e0 92 3e 6d 73 97 3e
       0.17928846 0.18102902 0.28686622 0.2958025
0000f0 b3 89 93 bd 38 3e 95 3e 89 f4 4d 3e c9 22 81 3e
       -0.072039984 0.29149032 0.20112814 0.2522185

weight f4 [32, 16]
000000 58 f1 c5 bb a9 fd 79 bc 63 82 78 39 65 5c f0 bc
       -0.0060407333 -0.015258231 0.00023699696 -0.029340932
000010 12 53 7c 3e c2 20 d1 3d a8 7e 50 3e 97 72 2d be
       0.24641064 0.10211326 0.20360816 -0.16938244
000020 d1 fb e6 bd 00 7a ff 3d 9e 5c 90 3d 5e 3c 45 3e
       -0.11278499 0.124744415 0.07048915 0.1926131
000030 2a 3f 1c 3e 3b d2 1e be 63 0e 12 3e 29 22 9d 3d
       0.1525847 -0.15509884 0.142633 0.07672531
000040 61 c2 0d be c4 6c cb 3d 5a 27 09 be 68 25 99 bd
       -0.13843681 0.09932855 -0.13393918 -0.07477838
000050 44 94 bc 3b ff f5 b3 3e 6f 06 ca be 12 8b 6f be
       0.0057549793 0.35148618 -0.39458033 -0.23392895
000060 f3 30 5e 3d 3d 6f 96 3e a9 f2 ba 3e 6d 5a 17 be
       0.0542459 0.29381743 0.3651326 -0.14780588
000070 1e 58 a6 3e 09 61 85 bd 94 34 64 bd 5d f0 8e 3e
       0.32489103 -0.065126486 -0.055714205 0.27917758
000080 58 50 28 3d f8 a9 a4 3d b2 d6 49 be 92 f5 37 be
       0.041092247 0.080402315 -0.19710806 -0.17964771
000090 10 8e 96 3d 2c bc b3 bd 42 8b 11 be e6 b0 1e 3e
       0.07351315 -0.08776125 -0.14213279 0.15497169
0000a0 f8 9f eb 3d 76 da 25 be 34 79 79 be 20 40 18 be
       0.11505121 -0.16196617 -0.24362642 -0.14868212
0000b0 bc c8 fd bd 00 d4 1b bd 64 40 f0 bd bc 81 28 3e
       -0.12391803 -0.038043976 -0.117310315 0.1645574
0000c0 4c 7e 4c be 94 3c 69 3d da 91 0d 3d 3f 36 ab bd
       -0.19970053 0.056942537 0.034562923 -0.08359956
0000d0 aa d1 9a be ae b1 9d 3e 96 e5 5a be b7 c6 53 3c
       -0.30238086 0.3079962 -0.21376643 0.012925795
0000e0 7c f5 d3 3d 49 70 b5 3d a6 d0 5b 3e 05 a3 22 bd
       0.10349557 0.08859307 0.21466312 -0.03970625
0000f0 8a 88 b9 3e b3 86 8a 3e 44 41 ad bc 41 49 27 bd
       0.36236984 0.27055892 -0.021149285 -0.040841345
000100 bd 11 a3 be 69 a3 ee 3c 5e e1 97 be c0 f4 a0 3d
       -0.3184947 0.029130654 -0.2966413 0.07859182
000110 1f f7 4d be 57 49 58 3e 22 70 9b be cc 24 58 bd
       -0.201138 0.21121727 -0.30358988 -0.052769467
000120 d2 e0 68 be 86 bb 87 bd 1c 5a b5 3e 1a 15 70 be
       -0.22742012 -0.06627564 0.3542031 -0.2344555
000130 35 d5 cb 3b 32 cd 0b 3b 83 f7 22 bd 2e 31 95 3d
       0.0062204846 0.0021332023 -0.039786827 0.07284771
000140 94 21 dd 3d 0c 00 5c be 68 65 b1 bd 08 5e 9d bd
       0.1079742 -0.21484393 -0.0866192 -0.07683951
000150 62 ae 75 be 52 4c 64 be c0 9c 64 3c 84 15 b2 bd
       -0.23992303 -0.22294739 0.013953388 -0.0869551
000160 4c c4 05 be 00 47 33 3b b0 3e 81 3d 20 fd 47 3d
       -0.13063163 0.0027355552 0.06310785 0.048825383
000170 76 fa 71 be 80 26 9e bd 80 66 e0 3d be d4 4d be
       -0.236307 -0.07722187 0.1095705 -0.20100686
000180 74 8c ff bd 0a fb 1e 3e 2f 66 15 be 6c 30 19 be
       -0.12477961 0.15525451 -0.14589761 -0.14959878
000190 b6 f2 0e 3e 14 bb 08 3e ad 68 5c be 65 9f b2 3c
       0.13959774 0.13352615 -0.21524306 0.02180452
0001a0 f4 97 6b bd 83 8a 9f 3e cf 89 f2 3d f1 18 cc 3d
       -0.05751796 0.31160364 0.11842691 0.09965695
0001b0 7d 35 9a 3c b1 a0 83 3e c0 b9 93 be 6d a2 83 3e
       0.018824333 0.25708535 -0.28852654 0.2570986
0001c0 08 95 16 3e be 71 98 3e 64 68 87 be 41 a5 92 be
       0.14705288 0.29774278 -0.2644683 -0.28641704
0001d0 34 45 5e 3c 7f c2 04 3e 25 52 80 bd 0c 32 80 be
       0.013566304 0.1296482 -0.06265668 -0.25038183
0001e0 69 33 e9 bd c8 d2 90 bc 04 56 25 be 5a 2a 56 bd
       -0.11386759 -0.017678633 -0.16146094 -0.052286483
0001f0 94 a1 39 3c 42 18 56 3e 40 18 9b be de fc a1 3d
       0.011330027 0.20907691 -0.3029194 0.07909559
000200 b6 f1 60 bc 10 a2 4e 3e e4 62 d3 bb ae cf cb bd
       -0.013729503 0.2017901 -0.0064509977 -0.09951721
000210 a0 71 79 bb c4 b2 70 3e 95 d8 39 be 61 78 09 be
       -0.003806211 0.23505694 -0.18149026 -0.13424827
000220 a8 49 8f be ef 77 a3 3e c0 68 94 3e 63 eb d4 3b
       -0.27985883 0.3192744 0.28986168 0.006497787
000230 82 92 a0 3e 24 71 01 3e c1 aa 61 be 4d bf 90 3e
       0.31361777 0.12640816 -0.22037794 0.2827095
000240 f4 16 5e be 40 e0 bb 3c 60 21 68 3d dc f7 fe bd
       -0.21688443 0.02293408 0.056672454 -0.12449619
000250 18 71 e2 3d 60 08 fc bc c0 99 b3 3d ec eb 84 bd
       0.11056727 -0.030765712 0.0876956 -0.06490311
000260 80 98 7e 3d f8 f9 04 be 80 c4 53 3e 32 8c 2b 3e
       0.062157154 -0.1298598 0.20680428 0.16752699
000270 9e 81 1b be 12 56 27 be 54 f1 33 be 5a fe 4a be
       -0.15186164 -0.16341427 -0.17572528 -0.1982359
000280 f5 05 9e 3d 00 65 a2 bc 48 89 41 bc 92 83 de bd
       0.0771598 -0.019823551 -0.011812516 -0.10864939
000290 bd 41 b9 3d 8c ac 04 be d2 0e 6d 3e 0d c7 d8 bd
       0.09045742 -0.12956446 0.23150185 -0.10584841
0002a0 04 db 6f 3e 6e 6a 2f be 0c e8 7f 3d b7 8f 12 3e
       0.23423392 -0.17130443 0.062477157 0.14312635
0002b0 61 bb 11 bd 07 80 9e 3b 71 3b cc bd 1b f3 24 3e
       -0.03557909 0.0048370394 -0.09972275 0.16108362
0002c0 14 31 88 bc 73 f4 8f 3e 9f b6 e4 bd 6d 4d 21 be
       -0.016624965 0.28116187 -0.11167645 -0.15752192
0002d0 e5 bf e2 bd 75 01 78 bd fb e8 52 be d5 88 80 be
       -0.11071757 -0.060548265 -0.20596687 -0.25104395
0002e0 a2 b0 85 bd d3 a2 0a 3e 60 7c 1a 3e b0 c4 17 3d
       -0.06527831 0.13538675 0.15086508 0.03705281
0002f0 91 22 a0 3e a9 0a e6 bc bd 09 9e be a3 a9 82 3d
       0.31276372 -0.028081255 -0.30866805 0.06380012
000300 20 1f f7 3d 68 62 a8 bd da 42 6f 3e 9e 03 26 3e
       0.120664835 -0.082218945 0.23365346 0.16212317
000310 24 1c 4b be 2c 03 f1 bd 18 d6 60 3e 20 ae cf bd
       -0.19834954 -0.11768183 0.2195667 -0.101406336
000320 6c 34 89 bd 04 09 12 be e4 75 63 be 74 a3 2e be
       -0.06699452 -0.14261252 -0.2221294 -0.1705454
000330 1a 55 1e be fe 39 7a 3e 0c ea 2f 3e d8 98 35 bd
       -0.15462151 0.24436185 0.17179126 -0.044335216
000340 58 a2 1c be d7 d0 86 3e b0 43 9e be a4 f2 e5 bd
       -0.15296304 0.26331207 -0.30911016 -0.11227921
000350 f7 a2 21 bd b4 2f bc 3e 0e 46 20 be 51 b5 83 be
       -0.039462056 0.36755145 -0.15651724 -0.2572427
000360 cf ef 5c bd 01 98 7d 3e b8 e1 75 bd 3b 6c 00 3d
       -0.053939637 0.24765016 -0.060029715 0.031353217
000370 7d ec 5a 3e d1 ec d6 3c 34 37 b0 be 53 de 11 3e
       0.21379276 0.02623597 -0.34417117 0.14244966
000380 d8 91 c9 3d 98 d1 ff bd 0a e3 75 3e 1c 59 28 3e
       0.098422706 -0.12491149 0.2401239 0.16440243
000390 04 60 f1 3d b6 13 02 3e e4 a2 a1 bd 04 c8 a4 3d
       0.11785892 0.12702832 -0.07892397 0.080459625
0003a0 40 4c ff 3c c2 66 6a be 68 40 53 3e c4 a5 e6 3d
       0.031164289 -0.22890761 0.20630038 0.11262086
0003b0 1c bb 7d 3e ca 8b 13 be bc 34 35 3e 18 58 be bd
       0.24778408 -0.14408794 0.17695898 -0.09294146
0003c0 8d e1 27 bd dd 8a 98 3d 59 f7 6b bd 95 b0 1d bd
       -0.040986586 0.07448361 -0.057608936 -0.03849848
0003d0 64 e6 9a be d3 7b ac 3d 82 46 be be 46 82 ce 3d
       -0.302539 0.08422055 -0.37163168 0.100834414
0003e0 00 a0 dd bd f0 ad b7 3e 88 d7 89 3e f0 1f 4a 3c
       -0.10821533 0.3587489 0.2692225 0.012336716
0003f0 18 2b 48 3d 8f af 77 3d c2 01 d1 bc 56 62 7f 3e
       0.048869222 0.06047016 -0.025513534 0.24939856

bias f4 [32]
000000 8e c5 3d bd 85 78 51 3e 0a 21 79 be e9 9d 84 3e
       -0.04633098 0.20456131 -0.2432901 0.25901726
000010 3c 59 56 3e b0 f3 33 bd f1 e8 7d 3e aa 31 0b be
       0.20932478 -0.04393357 0.24795891 -0.13593164
000020 46 e6 59 3e 5c d4 d0 bd 7f fd 58 3c 6b 5d a2 3e
       0.21279249 -0.10196754 0.013244032 0.31711897
000030 90 39 3e bd 35 97 ab 3e 18 06 f1 bd f1 78 55 3e
       -0.046441615 0.335138 -0.117687404 0.20846917
000040 20 c3 a5 3e 6e 24 96 3d 4c 4a 78 be 32 de 60 bc
       0.3237543 0.07331167 -0.24247092 -0.0137248505
000050 88 5f a9 3e 5f 79 4c 3e 4a dd 51 be 98 2c 17 be
       0.33080697 0.19968174 -0.20494571 -0.14763105
000060 50 aa 10 bd a0 34 89 bd ad 71 12 be 19 3c fa bd
       -0.035318673 -0.066994905 -0.14301176 -0.12218494
000070 7f 45 64 3c 69 a9 58 3e 31 f8 20 bd 94 cb cf bd
       0.013932585 0.21158375 -0.039299194 -0.10146251

weight f4 [32, 32]
000000 e1 7e 5d 3b a3 55 41 3e 3a 09 b7 bd c0 02 d9 3c
       0.003379755 0.18880324 -0.08937307 0.02649057
000010 c9 1c b0 3e ac ca 85 bd 7a b5 59 3d 08 dd 8c 3d
       0.3439696 -0.06532797 0.053151585 0.06878096
000020 10 ef 61 3e 91 03 07 3e 58 69 04 3e 3d e7 dd bc
       0.22063851 0.13184954 0.1293081 -0.027087802
000030 bf 0f 15 bd fb c9 4e 3e da 07 0d be 64 03 2c 3e
       -0.03639197 0.20194237 -0.13772526 0.16798168
000040 ce 92 84 3e 0a ea 04 bb 88 13 01 be fb 45 ff 3d
       0.25893253 -0.00202811 -0.12605107 0.124645196
000050 83 25 7e 3d 38 36 8a 3e ea 5e a7 bd 49 be e6 bb
       0.062047493 0.2699449 -0.081724 -0.0070417267
000060 47 53 f1 bd 99 4a cc bd ad a0 d9 bd 07 1b 0a be
       -0.11783462 -0.09975166 -0.106263496 -0.13486873
000070 97 81 0f 3e 72 5b 9e bd f0 2b 32 3e d8 13 0f 3e
       0.14014278 -0.077322856 0.17399573 0.13972414
000080 48 6a cf 3c e8 5d fe bc 38 b7 3f bd 27 5f 9d 3d
       0.025319234 -0.031050637 -0.04680559 0.076841645
000090 93 39 a6 bd 3b 4c 00 be 90 24 41 bc ec 1c 14 3e
       -0.0811645 -0.1252908 -0.011788502 0.14464158
0000a0 4b 77 8e bd 66 df 2d 3e 03 13 8b 3d 10 78 21 be
       -0.06956347 0.16979751 0.067907356 -0.15768456
0000b0 ac e7 24 3e 2b bc 7e ba 94 74 ba 3d 84 21 82 bc
       0.16104001 -0.000971737 0.09104267 -0.015885122
0000c0 bb d6 8b 3c 7f e0 0a 3d 7d b0 20 3d 35 26 05 3e
       0.017070165 0.033905502 0.039230812 0.13002856
0000d0 01 39 1e bd df aa cb 3b 0d 1f 38 3d ad 68 67 3d
       -0.038628582 0.006215438 0.044951487 0.05649631
0000e0 32 b4 31 3e c6 ea 71 3d 97 97 91 bd 98 c5 14 be
       0.17353895 0.059061788 -0.071089916 -0.14528501
0000f0 90 64 fe 3d 73 b3 83 3d 6b 70 b3 bc 85 92 21 3d
       0.124215245 0.064307116 -0.021904191 0.039446373
000100 b9 77 91 bd 2a 81 2b 3e f4 3d 9b 3d 65 6b bf bd
       -0.071029134 0.16748491 0.07580176 -0.09346656
000110 02 87 1d bd 05 2d af bd 04 41 73 3d f0 0d 20 be
       -0.03845883 -0.08553509 0.059388176 -0.15630317
000120 26 d7 23 be 5a 9d 09 be 72 b7 21 be 34 6b 10 be
       -0.16000041 -0.13438931 -0.15792635 -0.14103395
000130 09 41 0c 3e 5d 2e d2 bc 33 dd cb 3d 56 e3 23 3e
       0.13696684 -0.025656873 0.099543 0.1600469
000140 bb 96 fd bd ab ce ae bb 7f bf 06 3a 98 4e 14 3c
       -0.12382265 -0.0053346953 0.00051402295 0.009051941
000150 e7 96 e3 3d a6 43 5d bd 9f 9d 06 be c3 76 b7 3d
       0.11112767 -0.054019593 -0.13146065 0.08958199
000160 2e a1 95 bd c4 94 12 be cd 6b 89 3c 63 61 07 be
       -0.07306133 -0.14314562 0.016775036 -0.13220744
000170 bc 18 6a 3d be b1 b6 bd 19 d2 35 bc 64 a4 a2 3c
       0.057152495 -0.089206204 -0.0110974545 0.019853778
000180 5e 7e b9 bc dd ef b7 3d 7f 2d df bd be 27 42 3e
       -0.022643264 0.08981297 -0.108973496 0.18960473
000190 f2 ba ba 3e 08 e9 75 bd 72 af b2 bc 05 6a 1c 3e
       0.36470753 -0.06003669 -0.021812174 0.15274818
0001a0 8c 46 ea 3d ed 25 2b 3c eb 5b 28 be 8d 75 34 3e
       0.11439237 0.010446054 -0.16441314 0.17622967
0001b0 37 c4 08 be c8 72 e9 3d 87 b4 1d 3d ed 66 3e 3e
       -0.133561 0.11398846 0.038502242 0.1859395
0001c0 b5 87 82 3e 5f c8 e9 3d 95 97 2c 3e 28 49 50 3e
       0.2549416 0.11415171 0.16854699 0.20340407
0001d0 41 e0 bb bb 3a d1 97 3e ee 8d 8f bd a1 90 ac bd
       -0.0057335203 0.29651815 -0.07009493 -0.08426023
0001e0 07 24 1d be ee 0f a5 ba ed 1b df bd 6a 64 fd 3d
       -0.15345775 -0.0012593248 -0.10893998 0.12372668
0001f0 23 9c 51 3e a0 2f b0 bd 28 ac 7a 3d 47 ba a0 3c
       0.20469718 -0.08602834 0.061199337 0.019620074
000200 b9 e6 00 3e fa 66 84 3e d4 af 97 bc 44 cd 44 3e
       0.12588014 0.25859815 -0.018516459 0.19218928
000210 8f 98 34 3e 1f 52 01 3c 91 9b 4f 3e e8 3a 7f 3e
       0.17636321 0.007893114 0.20274188 0.24924815
000220 c9 78 6f 3e 10 46 a3 3d 13 56 12 bd 78 b2 65 3e
       0.2338592 0.07972348 -0.035726618 0.22431362
000230 7d 69 25 be 17 3c 73 3e 7c 6b 38 bc 1b 38 28 3e
       -0.16153522 0.23753391 -0.011256095 0.16427653
000240 71 72 60 3e 05 39 8f 3e 32 7b 1b bd a6 66 50 3e
       0.21918656 0.2797319 -0.037959285 0.20351657
000250 ab 03 2c 3e e0 64 08 3b 36 04 d6 bd e8 c4 0e 3e
       0.16798274 0.002081208 -0.10450022 0.13942301
000260 a0 d8 10 3e bf c9 fd bd bb 8d a6 3d 33 64 57 bd
       0.14145136 -0.12391996 0.08132502 -0.05258579
000270 c0 dd e2 3c f1 be e8 3d c9 9b 04 3e 2f 18 ca bd
       0.02769363 0.11364544 0.12950052 -0.09867894
000280 cd 2d dc bd b3 97 63 bd dc 8a 41 bd c7 1a 83 3c
       -0.10750923 -0.055564594 -0.047251567 0.01600398
000290 19 f6 30 3e 1c 2e c7 bd d5 43 25 3d 03 45 4e 3d
       0.17281379 -0.097255915 0.040347893 0.050358783
0002a0 6f da fe bd 9c 62 99 bd b2 0a dd bd d4 1f 81 3b
       -0.12444007 -0.07489511 -0.107930556 0.003940562
0002b0 61 04 ae 3d 12 d9 af 3b 54 ab 98 bd 62 3c 05 3e
       0.08496929 0.005366453 -0.07454553 0.13011315
0002c0 76 e8 f6 bd 60 58 0d be 7d 42 1c be 3d c4 a7 3d
       -0.12056057 -0.13803244 -0.15259738 0.08191726
0002d0 aa 2c dc bd 9e ce f2 bd 5d db 1f bd 0d e9 c9 3d
       -0.107507065 -0.11855815 -0.03902756 0.09858904
0002e0 9d e2 24 3e db ff 58 3d d4 79 fb 3d 34 b0 ca bc
       0.16102071 0.052978378 0.12279096 -0.024742223
0002f0 97 f0 ec 3d 3e a0 1b be 8a fa b9 3d 33 00 c6 3d
       0.11569326 -0.15197846 0.0908099 0.09668007
000300 8d c5 d5 bd 3b 9c 89 3e 69 dd a0 3d d0 6c f7 3c
       -0.104380704 0.26877007 0.07854731 0.030203253
000310 6d 47 07 3d 10 4a c3 3d ab 1f 4c 3e 72 89 e8 3d
       0.0330271 0.09535611 0.19933955 0.113543406
000320 d0 b7 ad 3c ac 7c c8 bd ec 22 c6 bd 20 18 73 3e
       0.021205813 -0.09789404 -0.096746296 0.23739672
000330 0a 91 f5 3d be 40 01 3d b4 70 17 3e 35 bc 0c 3d
       0.11990555 0.031555884 0.14789087 0.034359176
000340 f0 1b 6d 3e 0a 44 23 3e 12 05 2f be b4 aa b0 3c
       0.23155189 0.15943924 -0.17091778 0.021565773
000350 3b 27 88 3e 53 7e 8a 3e f3 ac 29 3d 28 72 e5 bd
       0.2659243 0.27049503 0.041424703 -0.11203414
000360 9d 23 6d bd 05 94 41 bd 1d ca ff bd 0a 77 f6 3d
       -0.05789529 -0.047260303 -0.12489722 0.12034424
000370 9e 55 ed 3d a0 74 ca bd 91 65 49 3e 45 19 8d 3c
       0.11588596 -0.09885526 0.19667651 0.017223964
000380 fc 21 06 bd ef ff 9a 3d 53 16 40 bb 04 f8 47 3e
       -0.032747254 0.07568347 -0.0029310181 0.19528204
000390 33 ac 4f 3e 1c 8a d2 3c e8 3c 2a 3e 11 6e 16 3e
       0.20280533 0.025700621 0.16624796 0.14690425
0003a0 75 c9 92 3d b8 6c 2d 3e 5d ba f5 bd 84 ab ef bd
       0.07167331 0.16936004 -0.119984366 -0.11702636
0003b0 30 c4 af bd d0 27 10 3d 36 1b 08 be fe 5a e9 3c
       -0.08582342 0.03519422 -0.1329163 0.028485771
0003c0 6c 77 2d bd 36 06 1a 3d 67 5c 58 3d 7c 9d 4a 3d
       -0.042350218 0.03760358 0.052822497 0.049466595
0003d0 b8 31 ab bd b1 ed e3 bd 38 28 56 3d 12 7e ea bd
       -0.083590925 -0.111293204 0.05228445 -0.11449827
0003e0 2a 59 78 3d 71 d1 af bc 3b e9 1e be 16 24 4c bc
       0.06063191 -0.021462174 -0.15518658 -0.012459775
0003f0 7f 89 52 3e 46 15 39 3e 65 a3 1a 3e 4a de 7a 3d
       0.20560263 0.18074521 0.15101393 0.061247148

bias f4 [32]
000000 bf d6 48 3e e5 35 f4 bd 5a 19 9f bb ea 1f b3 3d
       0.19613169 -0.11924342 -0.004855317 0.087463215
000010 46 be 93 3c 83 95 04 be 53 33 5b 3d 1d 94 c5 3d
       0.018035065 -0.12947659 0.053515743 0.09647391
000020 e0 13 b6 3c f8 88 54 3e 40 47 b9 bd d8 28 cf bc
       0.022226274 0.20755374 -0.09046793 -0.02528803
000030 cb 3d d5 bd ed d6 5d bc 8e 78 68 3d 59 13 11 3e
       -0.10412177 -0.013540012 0.056755595 0.14167537
000040 0c 82 c7 bd 99 b3 fe bc 2b 4d 9b bc 35 f3 7e 3e
       -0.09741601 -0.031091498 -0.018957695 0.24897464
000050 b5 c4 2d 3d 6b a0 83 3e b9 0b 90 3d 82 14 6a 3e
       0.042423923 0.25708327 0.07033486 0.22859386
000060 a5 32 28 bb 72 a8 f5 bb 44 25 52 be 83 55 af 3c
       -0.0025664952 -0.007496887 -0.20522028 0.02140308
000070 1e a7 1c be 01 c5 3d be 06 1d 90 3e 7d 01 59 3c
       -0.15298125 -0.18532182 0.28147143 0.013244984

weight f4 [32, 32]
000000 9c e1 51 3e 6f 49 ea bd d3 ea 98 bd 0b 59 a8 3e
       0.2049622 -0.114397876 -0.07466664 0.32880434
000010 1d e1 e7 3d 8e 47 04 be a9 c1 c2 3d 09 29 03 3e
       0.11322234 -0.12917921 0.09509594 0.12808622
000020 c4 ea 0f be 7e e2 8b 3e d7 1e a7 bd 50 48 e6 3d
       -0.140544 0.27321237 -0.08160179 0.11244261
000030 80 96 17 3e e2 ad fa bd 4d 23 12 3d 35 82 87 3e
       0.14803505 -0.12240197 0.035678197 0.26466528
000040 e1 fd 20 be 91 10 a3 bd 2c 10 cf 3d a3 e8 7a 3e
       -0.15721847 -0.07962144 0.101105064 0.24502806
000050 13 9d 9e 3c 0f 30 cb 3d 0e 73 14 3d c9 1a 57 3e
       0.019362008 0.09921276 0.036242537 0.21006311
000060 fd 60 38 3d 31 be 89 3e 62 48 0d bd c7 42 99 3e
       0.04501437 0.26902917 -0.034492858 0.2993376
000070 90 1b 04 3b 06 e1 aa bd 73 02 61 3e 46 17 f7 3d
       0.002015803 -0.08343701 0.2197359 0.12064986
000080 33 90 8d 3d 88 78 d0 bc 31 94 d9 3d 6b 61 8a 3e
       0.069122694 -0.025448099 0.106239684 0.2702745
000090 ba 8b 66 3e 9b 9f 03 3d b4 55 99 3d 18 f4 67 3e
       0.22514239 0.032134634 0.0748705 0.22651708
0000a0 b7 93 91 3d 77 d4 93 3e e5 d5 96 3d 6d 8e ec bc
       0.071082525 0.28873035 0.07365016 -0.028876508
0000b0 5c fe 13 3d b0 7e 9d 3d 65 13 d2 3c 9b 61 20 3e
       0.036131248 0.07690179 0.025644014 0.15662234
0000c0 f2 57 20 3e 71 33 93 bd 40 39 1a 3e e3 fc a1 3d
       0.15658548 -0.07187546 0.15060902 0.079095624
0000d0 53 3b 25 bd 8d fc a4 3d 07 b3 32 3d a7 50 10 3e
       -0.04033978 0.08055983 0.043627765 0.14093266
0000e0 0c 5a 18 3e d9 d1 35 3e ae a8 df bd 9a 43 51 3e
       0.148781 0.17755832 -0.10920845 0.20435944
0000f0 f4 00 e6 bd ab 48 26 be fd 51 94 3e bc fb cd 3d
       -0.112306505 -0.16238658 0.28968802 0.1005778
000100 8e b8 f7 bc f7 c9 18 3b 9e 06 1e 3e 50 52 5f 3e
       -0.03023937 0.002331374 0.15432212 0.21808743
000110 75 19 cd bc 2b e5 46 3d 0b 54 3f 3e f3 62 00 3e
       -0.025036553 0.048558395 0.18684404 0.12537746
000120 55 2f d4 bd b1 1b 7e bc f2 9a 24 be 4e 5d df 3d
       -0.1036059 -0.015509532 -0.16074732 0.10906468
000130 6c e8 32 be 5e 3a 1a 3d 5e 15 25 3e da 66 4d 3e
       -0.17471474 0.03765332 0.16121432 0.20058766
000140 9e 06 24 be 28 e9 d9 bc a8 d2 4d 3d 66 47 ae 3d
       -0.1601815 -0.026600435 0.050249726 0.08509712
000150 2e 3b 41 bd 63 b3 9b bd b9 c7 2a 3e b3 be 13 3e
       -0.04717558 -0.07602575 0.1667775 0.14428215
000160 d6 a3 75 3e a2 b8 a9 bd 53 df f7 3d 73 2e 5e bd
       0.2398828 -0.08287169 0.121031426 -0.054243516
000170 10 c8 12 be ed 27 dd 3d db 2f 84 3d a5 88 57 3d
       -0.1433413 0.10798631 0.0645444 0.05262055
000180 68 65 42 bd a1 52 ce bd b3 df 2f be 40 68 00 3e
       -0.04745999 -0.10074354 -0.17175178 0.12539768
000190 ed ac 80 3e f1 db ee bc 87 3e a1 3e 6a 0e 30 bc
       0.25131932 -0.02915761 0.31493017 -0.010745624
0001a0 f0 d3 12 be 05 80 52 3e db 36 01 be 5b 1e 99 3e
       -0.1433866 0.20556648 -0.12618582 0.29905972
0001b0 71 a0 21 bc 0a 75 02 3e ea 64 89 3e ba 00 0f 3b
       -0.009864912 0.1273996 0.26834804 0.0021820501
0001c0 71 bb 2e bd c6 2f 26 3e b8 db 02 be 35 84 89 3d
       -0.042659227 0.16229162 -0.12779129 0.067146696
0001d0 02 a1 b3 3d f2 d2 94 3e e7 f2 80 3d 5a 03 90 3e
       0.08770944 0.29067189 0.0629633 0.28127557
0001e0 44 54 a0 3e f5 94 c8 3d fc c8 ef bd df 70 8d 3d
       0.3131429 0.09794036 -0.117082566 0.06906294
0001f0 fa a0 ee 3d b6 7e c8 3d 9d 66 a9 3c 6e 35 87 bd
       0.116517976 0.09789793 0.020678813 -0.06601988
000200 40 ed c5 bd 5a 10 9c bd f0 0f f9 3d 25 52 2d be
       -0.096643925 -0.07620306 0.12161243 -0.16925867
000210 4c c4 6e bd 4c 8a 24 be 03 a2 ba 3d be 28 60 bd
       -0.058292672 -0.16068381 0.091129325 -0.054726355
000220 89 8e 55 bd 30 da 26 be 6d 83 c7 3d 77 43 93 3d
       -0.052137885 -0.1629417 0.09741864 0.07190602
000230 a5 94 9c bb da a2 57 bd 46 06 ad bc d5 47 0c be
       -0.004778462 -0.05264554 -0.021121155 -0.13699277
000240 2b 26 90 3d c7 fc 2f bc 90 b8 10 3e 11 c8 1a 3e
       0.0703853 -0.010741419 0.14132905 0.15115382
000250 29 f6 10 be a1 1e 39 3d c6 de 24 be 0d d2 75 3d
       -0.14156403 0.045195226 -0.16100606 0.060014773
000260 26 44 23 be 0e 52 1c 3e dd 73 c0 3d 24 0d ed bc
       -0.15943965 0.15265676 0.09397099 -0.02893693
000270 1d 7f 1d be fe 22 15 bd 9e 92 20 be 31 82 25 3b
       -0.15380521 -0.036410324 -0.1568093 0.0025254602
000280 fb 47 51 bd c9 56 6e bd a9 c3 f8 bd a3 a8 b8 bd
       -0.051094037 -0.058188234 -0.12146694 -0.0901654
000290 9a da f7 3d 06 96 34 3e d8 a0 30 bd 92 12 17 be
       0.12102242 0.17635354 -0.043122143 -0.14753178
0002a0 af 2d 9c bd 7d c3 8f bd a5 b1 8c 3d 56 a4 7f bd
       -0.07625901 -0.07019708 0.068698205 -0.062412582
0002b0 2f 4c 2a 3e 6b 9a 95 bd ba 68 81 3d 89 18 0f 3e
       0.16630624 -0.073048435 0.06318803 0.13974203
0002c0 fa 56 93 bc b0 d2 e5 3c 82 40 fb 3d 66 bb d1 3c
       -0.01798581 0.028054565 0.12268163 0.025602054
0002d0 5f 0c c2 bb 45 aa a1 3d 64 be 18 3e bb aa ad 3c
       -0.005921885 0.078938045 0.14916378 0.021199575
0002e0 ba b7 fa 3c 6b 4c a3 bd d7 c3 12 be 1b 01 2d be
       0.030605186 -0.0797356 -0.1433252 -0.16894953
0002f0 46 73 7e bd 8f f8 30 3e 27 12 05 bd cc 96 02 3e
       -0.062121652 0.17282318 -0.032488015 0.12752837
000300 e1 51 b8 bd 4c 6b ba bd 16 cb 6d bc 2d c3 a9 bd
       -0.08999992 -0.091024965 -0.0145137515 -0.0828918
000310 46 5c fb 3d 8e ef 01 3e 20 b1 3a be de 08 2f 3e
       0.12273459 0.12689039 -0.1823163 0.17093226
000320 12 a7 26 3c 5a c3 75 3d 54 56 fc 3d 01 12 19 3e
       0.010171669 0.060000755 0.12321153 0.14948274
000330 7a 0a 56 bd 49 8c 65 bd e8 ec ae 3c e3 d8 1c 3e
       -0.052256085 -0.05604199 0.0213532 0.1531711
000340 2c 08 cf bc 8b 24 0a 3e d4 ff 6e bb ef b1 29 bd
       -0.025272451 0.13490503 -0.0036468403 -0.041429456
000350 3f 4a b5 ba f6 bf 5b 3d 56 49 c5 bd 98 ef 37 bd
       -0.0013831331 0.053649865 -0.09633128 -0.04490623
000360 dc e7 96 3d cf ea d6 3c 8e 1a 27 3c c2 2b f9 bc
       0.073684424 0.026235012 0.010199202 -0.030416373
000370 ba 0a 30 be 31 77 21 3e cc 25 3c be 29 60 71 3d
       -0.17191592 0.15768124 -0.18373793 0.058929596
000380 59 ae 45 bd 09 02 37 3d 8b 54 b5 3d 3e f2 0d bd
       -0.048261974 0.044679675 0.08854016 -0.03465485
000390 0b a5 c5 bd 0d 74 15 3e d6 d4 a3 bd df 39 68 bd
       -0.0965062 0.14595051 -0.079995796 -0.056695815
0003a0 b4 c2 e2 3c 65 dd 35 3e de 9f ad 3d 70 94 c2 3c
       0.027680732 0.17760237 0.08477758 0.023752421
0003b0 c9 47 3b bd 69 6f 03 3d 6b e2 ce 3d 87 8e 00 3d
       -0.045722757 0.03208867 0.101017796 0.031385925
0003c0 14 a1 95 bc be 0c 2e bd 57 ec d2 bd ee bf 7a 3c
       -0.018265285 -0.04249262 -0.102989845 0.015304549
0003d0 f5 91 c9 bd 48 18 fd 3d 2b 1c 20 3e 52 43 c1 bd
       -0.09842292 0.12358147 0.15635745 -0.094366685
0003e0 2e bf 29 bd 8d 61 0b 3d b4 06 15 bd 41 c3 3a bd
       -0.04144209 0.03402858 -0.036383346 -0.045596365
0003f0 01 1e 83 3c 07 d8 ab 3d b3 0c 18 3d 23 59 17 be
       0.016005518 0.08390813 0.037121486 -0.14780097

bias f4 [32]
000000 d2 2e 22 3e 34 f5 6a bd e8 d0 2d 3e 5f 2f 74 3e
       0.15838173 -0.05736275 0.16974223 0.23846196
000010 d1 1e 03 be 0b b1 14 bd d9 b6 ba bd de 24 76 3d
       -0.12804724 -0.036301654 -0.09116907 0.060093753
000020 1e e4 03 3c d0 c9 5d 3d 65 8f fb 3d 5f 55 0b be
       0.008049993 0.05414754 0.1228321 -0.13606785
000030 7f 0c b4 3d 60 25 4d 3d 2d 3a a3 3d 1b 6a f1 3d
       0.08791446 0.05008447 0.079700805 0.11787816
000040 bf 83 3d bc 1d 1f a6 3d 76 83 95 3c d7 26 13 3e
       -0.011567055 0.08111403 0.018251162 0.14370285
000050 8c 5f 18 3d d3 c2 e4 3d 9e f3 2d be e6 79 32 bd
       0.037200496 0.11169972 -0.16987464 -0.043573283
000060 e0 e7 fa 3d bb 44 d9 bc 01 fd 53 3d 03 91 ae bd
       0.12251258 -0.026522031 0.051754955 -0.085237525
000070 8d f7 17 be f4 d0 ae bd f6 cb db 3d 19 5f e4 3d
       -0.14840527 -0.085359484 0.10732262 0.11150951

weight f4 [1, 32]
000000 9c 6c 17 3e ef e6 24 3e 49 a3 e8 3c e6 67 e5 3d
       0.14787525 0.16103719 0.028398173 0.11201458
000010 d8 b1 9a bc c3 02 54 3c 70 ab 23 bd 96 8a e5 bb
       -0.01888363 0.012940112 -0.039958417 -0.007005046
000020 c4 d3 ec bc 75 d5 09 bd fe 5d 27 3e d1 c6 ca bc
       -0.028909571 -0.033650834 0.16344449 -0.024753006
000030 14 66 c9 bc 3a 49 81 ba 8a a6 e9 3d 44 32 16 bd
       -0.024584807 -0.0009863742 0.11408718 -0.03666903
000040 7a 8a c8 3c b7 b1 b5 3b 38 6b 47 3e eb 4e 1b 3e
       0.024480093 0.005544867 0.19474494 0.15166824
000050 bd d2 ec bc 20 39 5f bc 02 12 7a ba dc f7 7e bc
       -0.028909082 -0.0136244595 -0.00095394265 -0.015562024
000060 bd d2 9e 3c 78 16 27 3e 4b 93 60 3c 98 67 fb ba
       0.019387597 0.16317165 0.013706992 -0.0019180654
000070 92 b0 ce bb e9 d8 81 bc 4d 54 09 bd a1 80 29 bc
       -0.00630767 -0.015850501 -0.03352766 -0.010345609
