models/patient21/srpo_model_for_patient_21_Actor.pth (torch, 24039 bytes, 12 tensors)

weight_ih_l0 f4 [64, 2]
-0.22294295 -0.15579726 0.10611731 -0.10122396 0.07928215 0.17231552 -0.19309458 0.10697207
-0.0063440255 -0.21374117 0.11930718 0.059488248 -0.2027744 -0.26146266 -0.21564038 -0.13441627
-0.22818609 0.04608052 -0.056672744 0.12933269 -0.10171587 0.13259304 0.040554885 0.16651708
0.03506814 0.10553708 0.06909673 0.14115594 -0.00037936593 -0.017423142 -0.13284205 0.10632954
0.11194876 -0.1652028 -0.2462036 -0.24430387 -0.21281669 0.10325489 -0.24527492 -0.049384307
-0.020169882 0.093170114 0.21098028 -0.1944345 0.065783605 -0.27712888 0.006930963 0.16806333
0.15898803 -0.04325988 -0.16736162 -0.011384879 -0.26411834 -0.17929131 0.082213335 -0.08649115
-0.10835777 -0.17049581 -0.312379 -0.07594217 0.15555716 0.03035296 0.028394295 0.14091122
0.21048354 0.15788226 0.007049668 0.27763808 -0.09213958 0.08636683 0.25280955 -0.06290511
-0.14422862 0.00035155847 0.19983755 -0.23558912 -0.14048167 -0.20621042 0.21423729 -0.19998693
-0.01698367 0.2475553 0.077071875 0.0143798115 0.11439562 -0.2801979 0.015788397 0.21396671
-0.04208164 0.027190184 0.19006126 0.053347338 0.24904875 0.22411992 0.043272298 -0.14641015
-0.07738763 -0.21229243 0.0020366525 0.08277912 -0.3258651 -0.24785036 -0.10027508 0.16948049
-0.27994984 -0.104251675 -0.2175177 -0.1852015 -0.32445246 0.13349305 0.0025148531 0.06712281
-0.16194125 0.21229272 -0.022677476 0.15432772 -0.31529507 -0.025145337 0.110268705 -0.21924046
0.08794337 -0.14056185 -0.20119508 -0.22973734 -0.060948405 0.07995689 -0.121209875 -0.097706094
00000000: 284b 64be 5189 1fbe 0854 d93d 824e cfbd
00000010: ae5e a23d 7b73 303e 96ba 45be 2c14 db3d
00000020: 8be1 cfbb f7de 5abe 5357 f43d f3a9 733d
00000030: 18a4 4fbe 6fde 85be d5d0 5cbe 6ba4 09be
00000040: 9da9 69be edbe 3c3d ae21 68bd ca6f 043e
00000050: 6950 d0bd 78c6 073e e11c 263d 7483 2a3e
00000060: 9ca3 0f3d d323 d83d 9682 8d3d 2f8b 103e
00000070: a2e5 c6b9 faba 8ebc bf07 08be 4dc3 d93d
00000080: 6445 e53d ec2a 29be cc1c 7cbe cb2a 7abe
00000090: 9eec 59be 4d77 d33d 5929 7bbe 3347 4abd
000000a0: 4f3b a5bc f9cf be3d 370b 583e d619 47be
000000b0: 8eb9 863d d6e3 8dbe 221d e33b cb18 2c3e
000000c0: c2cd 223e 4631 31bd d860 2bbe a587 3abc
000000d0: 853a 87be 2498 37be 775f a83d 4622 b1bd
000000e0: aeea ddbd 7496 2ebe 24f0 9fbe 9287 9bbd
000000f0: 604a 1f3e c5a6 f83c 279b e83c 084b 103e
00000100: ff88 573e e3ab 213e e700 e73b 9426 8e3e
00000110: adb3 bcbd 18e1 b03d 4170 813e 65d4 80bd
00000120: abb0 13be 6151 b839 37a2 4c3e 463e 71be
00000130: 6dda 0fbe d328 53be 0561 5b3e 60c9 4cbe
00000140: 5621 8bbc 237f 7d3e dcd7 9d3d 4d99 6b3c
00000150: 4048 ea3d 1976 8fbe ab56 813c 171a 5b3e
00000160: cc5d 2cbd f3bd de3c 6b9f 423e bd82 5a3d
00000170: a306 7f3e b17f 653e 4b3e 313d 8bec 15be
00000180: 687d 9ebd 3063 59be 5c79 053b 1988 a93d
00000190: cad7 a6be 7ccc 7dbe 055d cdbd 4b8c 2d3e
000001a0: 9655 8fbe e781 d5bd f6bc 5ebe 76a5 3dbe
000001b0: a21e a6be 67b2 083e 3cd0 243b af77 893d
000001c0: edd3 25be 4363 593e 1dc6 b9bc 1608 1e3e
000001d0: 5b6e a1be 98fd cdbc 8fd4 e13d 9280 60be
000001e0: a71b b43d 72ef 0fbe 1506 4ebe 4440 6bbe
000001f0: 09a5 79bd 70c0 a33d e23c f8bd 221a c8bd

weight_hh_l0 f4 [64, 16]
0.10734098 -0.16243567 -0.03413471 0.15711437 -0.010690119 0.017218444 0.06898144 -0.26275218
0.12548125 0.13845202 -0.0914873 0.11886102 -0.03679557 -0.0034979973 0.031156933 0.2889178
-0.29907426 0.13356054 -0.001659325 -0.26604542 0.046042584 -0.086141005 0.11581448 -0.007713474
0.17475055 0.2040639 0.06031528 0.15576641 -0.043812264 -0.2692082 0.11238141 0.30451652
-0.13936895 0.089396276 0.10781427 -0.15674058 0.024173262 0.16444953 0.0780272 -0.0048758634
0.09293791 0.085517995 -0.08335396 0.11640171 -0.26765352 -0.2486788 -0.17977858 0.005510729
-0.046035964 -0.013897266 -0.0048869657 -0.1875046 0.18482225 0.044399977 -0.122472785 -0.24212272
-0.13585211 0.2298395 0.2339164 0.19632651 -0.21750921 -0.24725403 0.15162419 -0.12678684
0.048371088 -0.04536166 -0.2555188 -0.22971305 -0.028247993 -0.077975266 0.058298305 -0.17522182
-0.175496 0.2823866 0.15171778 -0.095855586 0.14487866 -0.32055232 -0.07738405 -0.08679282
0.09027604 -0.20055906 0.03980438 -0.032691658 0.035475623 0.2567394 0.09810114 -0.2697003
-0.047822516 0.12417879 -0.011931226 -0.09806561 -0.10223249 -0.06809892 -0.20105839 0.20192334
0.018982908 -0.002364368 -0.30763313 0.11486583 0.028161421 0.13535532 0.18789004 -0.19757167
-0.2823974 0.29070452 -0.0026878132 -0.15270947 -0.2320774 0.12395868 0.09815299 -0.09831519
-0.107287854 -0.05120604 -0.26650116 -0.11327378 0.18642387 -0.03564758 -0.031175071 0.035119332
-0.17056848 0.28203586 0.1341919 0.022551263 0.12612219 -0.26735502 -0.28417757 0.035143834
0.16784394 -0.062471054 -0.19745812 0.15592067 -0.017797522 0.21019918 0.00010693126 0.102090314
0.08119891 0.10059893 0.06958143 -0.18369272 -0.022146044 0.059816405 -0.027975764 0.24788034
0.036402825 -0.2687605 -0.25658852 0.1758294 0.036406364 -0.25191104 0.3010986 0.030158574
0.17762958 -0.13619226 -0.04090785 -0.3066612 0.01459673 -0.054667164 -0.27910867 0.1819977
0.037786163 -0.30223426 -0.08009145 0.052144084 0.15540552 0.015901541 -0.16728386 -0.02253826
0.037879262 -0.14361018 0.2332863 -0.05203117 0.19110131 -0.2539514 -0.001930356 0.07063101
-0.05660816 -0.117229804 -0.058560617 0.0762807 0.24265596 -0.2621245 0.08938694 -0.2582716
-0.14718108 0.26899046 -0.061397575 -0.039487693 -0.21458152 0.018158209 0.05297445 -0.013463432
-0.1280946 -0.08457623 0.059423607 -0.25598437 0.22896972 -0.2470368 0.077038415 -0.12239261
0.0010097884 0.17425627 -0.12020438 -0.20741509 -0.17312597 0.09936493 -0.23281766 0.27458712
-0.20708413 -0.123387426 -0.21831302 -0.25131667 0.052517433 0.14119968 0.044674814 0.011346462
0.025427463 0.0203207 0.058652803 0.1760016 -0.1881671 0.07104869 -0.10113745 0.057917677
-0.20559539 0.14552042 0.02188471 -0.13884883 0.14189741 -0.11494389 0.2264579 0.20094293
0.13949642 0.011952851 -0.15746383 0.07898351 -0.26083323 -0.023190303 0.15230016 0.09394657
-0.09213458 -0.021903284 -0.05684501 0.037570294 -0.05315477 -0.24590653 -0.09934671 0.1862827
-0.055583738 0.19041695 0.30281693 -0.12452491 0.010693323 0.11453244 0.13713938 -0.14200097
00000000: 96d5 db3d 8955 26be d6d0 0bbd 97e2 203e
00000010: 9c25 2fbc b20d 8d3c 2446 8d3d 7487 86be
00000020: 287e 003e 5ec6 0d3e b25d bbbd 686d f33d
00000030: f4b6 16bd a83e 65bb d33c ff3c 09ed 933e
00000040: 4320 99be 18c4 083e b57d d9ba 1b37 88be
00000050: 2697 3c3d b26a b0bd 2430 ed3d 4fc1 fcbb
00000060: cff1 323e 21f6 503e 280d 773d 3b81 1f3e
00000070: 7d74 33bd a8d5 89be 3a28 e63d 97e9 9b3e
00000080: bcb6 0ebe 6515 b73d bacd dc3d 9a80 20be
00000090: 0107 c63c 7565 283e bacc 9f3d b5c5 9fbb
000000a0: 3b56 be3d 0f24 af3d 7bb5 aabd 0564 ee3d
000000b0: e209 89be a8a5 7ebe e017 38be 5893 b43b
000000c0: 3590 3cbd 5cb1 63bc d722 a0bb 3501 40be
000000d0: 0b42 3d3e c0dc 353d 03d3 fabd 05ef 77be
000000e0: d11c 0bbe 0c5b 6b3e c887 6f3e d109 493e
000000f0: bcba 5ebe 2930 7dbe 5f43 1b3e 69d4 01be
00000100: c320 463d 26cd 39bd 5cd3 82be e639 6bbe
00000110: 5668 e7bc 7fb1 9fbd 34ca 6e3d 596d 33be
00000120: 39b5 33be fa94 903e e85b 1b3e ef4f c4bd
00000130: 125b 143e 6f1f a4be 877b 9ebd 6fc0 b1bd
00000140: a5e2 b83d 5b5f 4dbe eb09 233d b0e7 05bd
00000150: e34e 113d 5973 833e 40e9 c83d 2816 8abe
00000160: 8be1 43bd 7351 fe3d 307b 43bc 9fd6 c8bd
00000170: 455f d1bd 7277 8bbd 40e2 4dbe fec4 4e3e
00000180: 0b82 9b3c 83f3 1abb 1782 9dbe c73e eb3d
00000190: c8b2 e63c 969a 0a3e 3f66 403e 3a50 4abe
000001a0: 6496 90be 39d7 943e 0626 30bb df5f 1cbe
000001b0: b3a5 6dbe 0cde fd3d 6f04 c93d 7959 c9bd
000001c0: bcb9 dbbd 6dbd 51bd d772 88be 15fc e7bd
000001d0: e6e5 3e3e 3203 12bd dd62 ffbc 4ad9 0f3d
000001e0: 81a9 2ebe 0167 903e 9a69 093e 6dbd b83c
000001f0: 2d26 013e c2e2 88be b97f 91be fbf2 0f3d
00000200: 48df 2b3e a6e1 7fbd 7632 4abe aba9 1f3e
00000210: 1ccc 91bc 743e 573e 4840 e038 ba14 d13d
00000220: 9d4b a63d d006 ce3d b580 8e3d f219 3cbe
00000230: 9f6b b5bc 0c02 753d 6e2d e5bc 58d4 7d3e
00000240: 211b 153d fa9a 89be 925f 83be 9f0c 343e
00000250: d71e 153d 7cfa 80be 9829 9a3e 1d0f f73c
00000260: 87e4 353e fc75 0bbe fd8e 27bd b202 9dbe
00000270: 1f27 6f3c adea 5fbd 55e7 8ebe 9b5d 3a3e
00000280: aac5 1a3d 73be 9abe fc06 a4bd 0995 553d
00000290: a022 1f3e f343 823c 764c 2bbe 28a2 b8bc
000002a0: 4927 1b3d 8c0e 13be 9be2 6e3e a31e 55bd
000002b0: 10b0 433e eb05 82be 0004 fdba fea6 903d
000002c0: f5dd 67bd 2e16 f0bd 42dd 6fbd 0e39 9c3d
000002d0: ce7a 783e 2f35 86be 8010 b73d 2d3c 84be
000002e0: a3b6 16be 1eb9 893e 067c 7bbd d9bd 21bd
000002f0: 42bb 5bbe 86c0 943c bdfb 583d ba95 5cbc
00000300: 3b2b 03be 4d36 adbd 2b66 733d 6210 83be
00000310: 0a77 6a3e 37f7 7cbe 51c6 9d3d faa8 fabd
00000320: e05a 843a 3c70 323e b72d f6bd 9f64 54be
00000330: ef47 31be d77f cb3d c167 6ebe af96 8c3e
00000340: dd0d 54be 8cb2 fcbd 738d 5fbe 94ac 80be
00000350: 851c 573d a696 103e f0fc 363d 83e6 393c
00000360: 414d d03c 9977 a63c ec3d 703d c339 343e
00000370: e0ae 40be fa81 913d 2721 cfbd 163b 6d3d
00000380: 9987 52be 4e03 153e 9047 b33c 632e 0ebe
00000390: 8e4d 113e b467 ebbd 94e4 673e fcc3 4d3e
000003a0: 26d8 0e3e e4d5 433c 333e 21be 1bc2 a13d
000003b0: ef8b 85be 97f9 bdbc 93f4 1b3e 0f67 c03d
000003c0: 0eb1 bcbd 846e b3bc 50d6 68bd 4fe3 193d
000003d0: d1b8 59bd ecce 7bbe 4a76 cbbd e4c0 3e3e
000003e0: c6ab 63bd a9fc 423e d20a 9b3e ea06 ffbd
000003f0: 0c33 2f3c fc8f ea3d 446e 0c3e b468 11be

bias_ih_l0 f4 [64]
-0.11819125 0.1304202 0.07778902 -0.0001970273 -0.07538247 0.2449131 0.21327013 0.26679364
-0.14705032 0.030500514 -0.14874737 0.2427793 -0.19458194 -0.011079152 -0.019420132 -0.029794961
0.25158378 -0.14291759 -0.014206236 0.15755887 0.019445762 0.29795906 -0.0027213006 -0.012058553
0.28619546 0.13641624 0.25361454 -0.0077816267 0.17569475 0.10824833 0.12586734 0.22857465
0.034849327 0.05370246 -0.10178441 0.18099092 0.20782982 0.046315674 0.17664413 -0.22992763
-0.08588386 0.25844374 0.27613732 -0.0662069 -0.14030814 -0.10539225 0.11804516 -0.123124644
-0.19855034 -0.15196986 0.14160907 -0.1601935 -0.15745799 -0.08357055 0.14998452 0.062247325
-0.024625678 0.1021115 0.2682701 0.021245895 -0.02354613 0.055595677 -0.20192768 0.27832207
00000000: 410e f2bd df8c 053e da4f 9f3d 1d99 4eb9
00000010: 2062 9abd 80ca 7a3e 7c63 5a3e 2d99 883e
00000020: 5c94 16be 37dc f93c 3b51 18be 239b 783e
00000030: 7d40 47be 5585 35bc f816 9fbc 9014 f4bc
00000040: 97cf 803e fd58 12be 46c1 68bc 1d57 213e
00000050: b84c 9f3c 178e 983e d957 32bb 3d91 45bc
00000060: 3688 923e b3b0 0b3e c4d9 813e 04fd febb
00000070: 53e9 333e 4db1 dd3d 5ee3 003e 790f 6a3e
00000080: 2bbe 0e3d 1cf7 5b3d 5874 d0bd af55 393e
00000090: 57d1 543e 81b5 3d3d 33e2 343e 2672 6bbe
000000a0: e1e3 afbd bd52 843e df61 8d3e 7c97 87bd
000000b0: f0ac 0fbe e4d7 d7bd a9c1 f13d c628 fcbd
000000c0: c850 4bbe fd9d 1bbe f801 113e c409 24be
000000d0: ab3c 21be 0927 abbd 8b95 193e 0df7 7e3d
000000e0: cabb c9bc d61f d13d b35a 893e df0b ae3c
000000f0: d0e3 c0bc 4bb8 633d 21c6 4ebe 3b80 8e3e

bias_hh_l0 f4 [64]
0.055792443 0.27917412 0.14176206 -0.15831386 0.13781354 -0.059968784 -0.083067425 0.15457875
0.06408908 -0.14488484 0.1986164 -0.009643965 0.124807574 0.18648265 0.09065386 -0.04064588
-0.059036434 0.045343306 -0.16269265 -0.20047571 -0.09698298 -0.13955663 0.026193481 -0.0046719066
0.05812802 -0.10857191 0.032869633 -0.09328369 -0.049891256 -0.19573836 0.12281862 0.19792543
-0.26773587 -0.16988379 0.010034948 -0.1360418 0.019138146 0.028965356 0.11582199 0.061424702
-0.20158477 -0.08171967 -0.14886291 -0.17869075 -0.17192882 -0.09499848 -0.22622715 0.26081398
0.07930635 0.19257684 -0.019359706 0.29293194 -0.14278798 0.2454248 0.25980258 0.18519567
0.05658303 0.18036613 -0.18592526 0.17491604 0.034609202 -0.034336377 0.2879674 0.29569736
00000000: 9e86 643d e9ef 8e3e 132a 113e 071d 22be
00000010: fe1e 0d3e d4a1 75bd 411f aabd e449 1e3e
00000020: 2341 833d b15c 14be 1962 4b3e b901 1ebc
00000030: 1d9b ff3d 4ff5 3e3e bba8 b93d 4b7c 26bd
00000040: 30d0 71bd e7b9 393d e798 26be 8149 4dbe
00000050: 039f c6bd efe7 0ebe b693 d63c cb16 99bb
00000060: a617 6e3d f35a debd 4fa2 063d 850b bfbd
00000070: c65a 4cbd a36f 48be 5488 fb3d f7ac 4a3e
00000080: ad14 89be 04f6 2dbe 9f69 243c 8b4e 0bbe
00000090: 9ac7 9c3c c148 ed3c 1434 ed3d 7898 7b3d
000000a0: 3d6c 4ebe a45c a7bd 856f 18be b5fa 36be
000000b0: 1c0e 30be 908e c2bd 17a8 67be 6989 853e
000000c0: 5e6b a23d dd32 453e 3f98 9ebc 2dfb 953e
000000d0: 0337 12be a450 7b3e d804 853e efa3 3d3e
000000e0: 9bc3 673d e6b1 383e 3163 3ebe 311d 333e
000000f0: 61c2 0d3d 4da4 0cbd 7770 933e a565 973e

weight f4 [32, 16]
-0.14875655 0.10677098 0.21043928 -0.1611927 -0.011401233 -0.10716831 0.23362999 0.06543008
-0.11571476 0.15680313 0.17008941 -0.05107288 0.19313337 -0.034242213 -0.09104781 -0.20525593
-0.17920992 -0.27003327 0.0522453 -0.18909124 0.045577094 -0.21103173 -0.11950715 -0.28552666
-0.18294518 0.24957614 -0.19425556 -0.13631737 0.09525047 -0.23868252 0.16414246 0.013582098
-0.06334675 -0.21773693 -0.17429249 0.08293364 0.25089315 -0.2007516 -0.14896628 -0.15681197
0.11680128 0.040703785 -0.042100564 -0.19996034 -0.05792974 -0.24548815 0.056829426 0.017726531
-0.24311861 0.085193396 0.016409934 -0.1882863 0.0852634 0.019388825 0.108258605 0.16630858
0.10824031 0.07538855 -0.10474709 0.192882 -0.05353713 0.030431867 0.16518083 -0.21810147
-0.0018395875 0.19289713 -0.13857713 -0.11718379 -0.025528332 -0.060465273 0.008131625 0.07591714
-0.24258272 -0.011367951 0.19983613 0.039777093 0.19398351 -0.19961128 0.14615948 -0.072989225
-0.19591731 -0.18597528 0.15889552 -0.20022802 -0.015123576 -0.107652165 0.23864843 0.07771873
-0.14007781 -0.082593225 0.17245632 0.07781419 0.20097382 -0.14533053 -0.20679203 -0.029588524
-0.20985305 -0.14539295 0.2307145 -0.15517402 -0.12764752 0.052417994 0.14479321 0.15216705
0.0017647445 -0.056870013 0.13074848 -0.12082428 0.1306409 -0.10674429 0.21046558 -0.18503433
0.00395449 -0.2613732 0.14405787 -0.209345 0.000103332924 -0.21021071 0.21816467 -0.16964714
0.17216711 -0.20063254 0.033093855 0.21429601 0.10681522 -0.28456447 0.19695586 -0.10909347
-0.19468725 0.08149693 -0.11978846 -0.100358814 -0.0032059085 -0.08794547 0.16183078 -0.28344986
-0.16778871 0.23157483 0.2702246 -0.29273358 -0.14694144 -0.019890498 -0.2828424 -0.048503105
0.22189215 -0.04208389 -0.08332363 0.052676857 0.10125291 0.009966999 -0.14623144 -0.13696352
0.12758508 0.22163385 0.08414999 0.12428072 -0.17610592 0.23699036 -0.20200685 0.22494084
0.08084168 -0.052714296 0.080497205 0.094492294 0.072862156 0.069819115 0.1167092 0.14197533
-0.20469803 -0.015193949 0.29104507 0.06817233 -0.27509335 0.14337128 0.030172203 0.09229055
-0.008544568 0.011020885 -0.21048605 -0.2509799 0.10224505 0.043322764 0.20294102 0.05912571
-0.029215228 -0.10787944 -0.079204254 -0.2917491 0.103483364 -0.010814846 -0.104033 -0.08965458
0.14468467 -0.09099603 -0.06619328 0.053466797 0.08247951 0.19302505 -0.14400288 -0.148186
0.028520226 -0.23885712 -0.0054574013 -0.03273952 -0.23950908 -0.08172923 0.17222008 0.05164346
0.106159806 -0.06838331 0.21265912 -0.19321379 -0.14483525 0.110083155 0.20120513 -0.032439057
0.2532481 -0.13680859 0.08016974 0.24214083 0.2571919 0.011741037 -0.10239983 0.0022456972
0.11113515 0.0419042 -0.04570522 -0.13046755 0.25425634 -0.29624292 0.15975578 -0.25541675
-0.17406319 0.04695774 -0.044743035 -0.12594056 0.18182285 -0.2129316 0.111987025 0.027258443
-0.018702252 0.058776736 0.024281058 -0.13276203 -0.012355484 -0.021858757 0.07837762 -0.09948693
0.029746158 -0.18591872 -0.24452817 0.16972253 0.13508293 0.23521228 0.16167799 0.019953588
00000000: a353 18be beaa da3d 657d 573e b30f 25be
00000010: 3dcc 3abc 0f7b dbbd b33c 6f3e 3500 863d
00000020: dcfb ecbd 0091 203e eb2b 2e3e cc31 51bd
00000030: c1c4 453e 9041 0cbd 4677 babd 9c2e 52be
00000040: ce82 37be cd41 8abe 2bff 553d 22a1 41be
00000050: 0caf 3a3d b418 58be 2ac0 f4bd 8d30 92be
00000060: fb55 3bbe e390 7f3e eeea 46be c896 0bbe
00000070: ae12 c33d 3169 74be f614 283e 7387 5e3c
00000080: f1bb 81bd 6ef6 5ebe bb79 32be 1dd9 a93d
00000090: 1175 803e d491 4dbe 9e8a 18be 5193 20be
000000a0: 8235 ef3d 03b9 263d a471 2cbd 67c2 4cbe
000000b0: bc47 6dbd 3f61 7bbe f9c5 683d 3b37 913c
000000c0: 16f4 78be e079 ae3d 206e 863c 20ce 40be
000000d0: 949e ae3d 50d5 9e3c b0b6 dd3d cc4c 2a3e
000000e0: 18ad dd3d 5065 9a3d a485 d6bd dc82 453e
000000f0: c049 5bbd 404c f93c 2a25 293e fe55 5fbe
00000100: 501e f1ba d386 453e 2ae7 0dbe 0efe efbd
00000110: cb20 d1bc 6faa 77bd 823a 053c 727a 9b3d
00000120: 9b67 78be a440 3abc d8a1 4c3e 4eed 223d
00000130: 9da3 463e e666 4cbe d5aa 153e 607b 95bd
00000140: 8c9e 48be 4e70 3ebe 82b5 223e 9308 4dbe
00000150: e0c8 77bc bd78 dcbd 4160 743e ff2a 9f3d
00000160: 8f70 0fbe a326 a9bd 6498 303e 0c5d 9f3d
00000170: 15cc 4d3e 87d1 14be 4ac1 53be a263 f2bc
00000180: b8e3 56be e4e1 14be 6c40 6c3e f0e5 1ebe
00000190: 08b6 02be 40b4 563d ac44 143e aed1 1b3e
000001a0: 004f e73a 88f0 68bd eee2 053e b872 f7bd
000001b0: bac6 053e c09c dabd 4a84 573e a479 3dbe
000001c0: ab94 813b b5d2 85be e883 133e 895e 56be
000001d0: 71b4 d838 7a41 57be 8f66 5f3e fbb7 2dbe
000001e0: 934c 303e 9e72 4dbe 6c8d 073d 6a70 5b3e
000001f0: f0c1 da3d 6fb2 91be ccae 493e 666c dfbd
00000200: 185c 47be dde7 a63d a753 f5bd ec88 cdbd
00000210: 381a 52bb c11c b4bd f8b6 253e 5720 91be
00000220: ced0 2bbe f421 6d3e e15a 8a3e 2de1 95be
00000230: d177 16be 66f1 a2bc b8d0 90be 31ab 46bd
00000240: b237 633e 2860 2cbd 94a5 aabd b0c3 573d
00000250: b05d cf3d a04c 233c b2bd 15be 2a40 0cbe
00000260: aaa5 023e fcf3 623e d456 ac3d e486 fe3d
00000270: 1c55 34be 9aad 723e e2da 4ebe e456 663e
00000280: 5390 a53d f2ea 57bd b8db a43d 2d85 c13d
00000290: c138 953d 53fd 8e3d 3c05 ef3d fb61 113e
000002a0: 5c9c 51be 0bf0 78bc dc03 953e ef9d 8b3d
000002b0: 09d9 8cbe eccf 123e b22b f73c d402 bd3d
000002c0: 84fe 0bbc f190 343c a889 57be 7080 80be
000002d0: da65 d13d 3673 313d c5cf 4f3e cd2d 723d
000002e0: c654 efbc e5ef dcbd d735 a2bd 2360 95be
000002f0: 16ef d33d c030 31bc 410f d5bd d29c b7bd
00000300: 3828 143e 205c babd 5890 87bd 0000 5b3d
00000310: 04eb a83d 5ca8 453e 7e75 13be 12be 17be
00000320: 40a3 e93c f696 74be 00d4 b2bb e019 06bd
00000330: de41 75be a861 a7bd 765a 303e 1888 533d
00000340: 506a d93d 8d0c 8cbd 50c3 593e d6d9 45be
00000350: b14f 14be 4773 e13d b808 4e3e d1de 04bd
00000360: bca9 813e 8d17 0cbe 0830 a43d c4f3 773e
00000370: a8ae 833e 7a5d 403c 01b7 d1bd 8c2c 133b
00000380: d39a e33d bda3 2b3d 6635 3bbd 4999 05be
00000390: e32d 823e 27ad 97be 0597 233e fcc5 82be
000003a0: 9f3d 32be c256 403d 7944 37bd 90f6 00be
000003b0: c52f 3a3e be0a 5abe 7459 e53d 194d df3c
000003c0: 7735 99bc e0bf 703d 12e9 c63c c5f2 07be
000003d0: a86e 4abc 2311 b3bc 7284 a03d cebf cbbd
000003e0: 37ae f33c 7a61 3ebe 9865 7abe becb 2d3e
000003f0: 2e53 0a3e 7ddb 703e ea8e 253e b575 a33c

bias f4 [32]
-0.24464595 0.10519157 -0.1303605 -0.1133233 -0.06970342 0.10760877 -0.2385664 0.18882093
0.2592388 -0.09798047 0.27531463 0.25416565 -0.21667299 0.088875584 0.021295557 0.11771586
0.18089184 -0.027432173 0.28090397 0.1810519 0.01619038 0.0038504696 0.2313317 -0.22297493
-0.055009004 -0.12975885 -0.16457087 -0.098471105 -0.21322355 -0.0027173758 -0.21393481 0.2582546
00000000: 7884 7abe ae6e d73d 397d 05be 0c16 e8bd
00000010: abc0 8ebd fd61 dc3d c04a 74be 465a 413e
00000020: f3ba 843e fca9 c8bd 0af6 8c3e 0022 823e
00000030: 86df 5dbe 6704 b63d 0574 ae3c 0315 f13d
00000040: b63b 393e 70b9 e0bc a5d2 8f3e ab65 393e
00000050: b0a1 843c 2958 7c3b 38e2 6c3e 8a53 64be
00000060: 1f51 61bd 81df 04be 4485 28be 38ab c9bd
00000070: 4657 5abe 0016 32bb ba11 5bbe f239 843e

weight f4 [32, 32]
0.09064105 -0.16978963 0.08603173 -0.03420436 0.084646426 -0.03864952 0.1623029 0.081070095
-0.0506462 -0.05695567 -0.0987614 -0.16790025 -0.08527808 -0.15536237 -0.138932 0.005358466
0.008298735 0.079035245 0.054357167 -0.16963446 0.041319843 0.02895008 0.011380513 -0.14834356
-0.119093694 0.038574904 -0.17320508 -0.10857506 0.09510756 -0.03456206 -0.07952775 -0.010315315
0.018302605 0.10211041 -0.02045004 0.13446474 -0.05201096 -0.13402791 0.13369465 0.075928256
-0.17417748 0.024126627 -0.021610176 -0.005923124 -0.009809405 0.051571216 0.036950223 0.0328218
-0.0031745578 0.12979884 0.036378052 0.013048219 0.016483253 -0.06523384 0.015673842 -0.11708316
0.1554736 0.16428219 -0.17002934 0.13388172 -0.12947217 -0.059503045 -0.07858846 0.0051779654
0.106390975 0.12566358 0.045232713 -0.05114339 -0.0027190617 -0.0669875 -0.09353956 0.10007516
-0.121176526 -0.04764402 -0.025277805 -0.15776606 0.06852839 -0.04900916 0.117528014 0.15112747
-0.06506222 0.098494194 -0.16542171 0.00610958 0.111375086 -0.017554423 0.054535147 0.14157999
0.1075875 0.038520597 0.1416571 0.12094681 -0.11224658 0.1476178 0.07168955 -0.09866431
-0.03839346 0.033994634 -0.13316967 0.042239044 0.049099054 0.020002425 0.15837158 -0.14593045
-0.12262125 -0.12830326 0.012112318 0.022305286 0.09205794 -0.14907521 -0.04654216 0.08733529
-0.13469866 -0.049385086 0.08359984 -0.08352772 0.09707203 0.14230661 0.14516807 -0.11755928
0.023658311 -0.0005597312 0.039651733 0.02639027 -0.09062398 0.07784449 -0.10776035 0.13551737
-0.113862745 -0.12764478 0.03014743 -0.07320798 0.033105254 0.058578 0.15232413 0.021238016
0.0022096948 -0.13435315 0.042601224 -0.05110381 0.17557287 -0.09479173 0.15656565 0.093213454
0.13307154 0.06414007 -0.13805224 0.057423323 -0.16556694 0.12501651 -0.13709676 -0.07232989
0.018457832 0.15043786 0.09867871 -0.15077512 -0.103305146 -0.07558221 -0.09890734 -0.15318307
-0.057793092 -0.04588217 -0.10735237 0.09053556 0.12715939 0.011726897 -0.097458094 0.09770799
-0.038800035 -0.04572659 0.19706433 -0.09898734 0.10697013 -0.13450141 0.14406313 0.08496145
0.19735175 0.048365764 0.1122756 0.08413645 -0.11379257 0.03879667 0.103872016 0.087381035
0.17129204 0.19501854 0.1268849 0.06722985 -0.15065937 0.064946584 -0.067812905 0.123442546
0.07820443 -0.051544033 0.13601372 0.07403745 0.16590995 0.11115225 0.09334637 0.1545165
0.19642459 -0.050908525 0.11626868 -0.04884833 -0.035239168 0.1307871 -0.003278614 -0.17842881
-0.07339849 0.070348546 -0.111027725 0.05008216 0.07318886 -0.036722723 0.017150689 0.10075533
0.1608357 0.048320696 0.07574545 0.010093116 0.10727106 -0.107936494 0.049438167 0.018976083
-0.05073926 0.15191273 0.08236907 0.010362941 -0.06783004 -0.037122693 -0.040615 0.035891663
-0.004754336 0.16439146 0.09533087 0.098216064 0.11636311 -0.14394711 -0.05528722 0.055049147
-0.055868044 -0.05438157 -0.018510263 0.18386959 0.1623913 0.05146356 -0.07290656 -0.15853143
-0.14367718 0.18424541 -0.098506875 0.048738193 0.10471934 -0.13593851 0.13021195 0.15878357
00000000: 04a2 b93d 55dd 2dbe 6731 b03d df19 0cbd
00000010: 1b5b ad3d f64e 1ebd bb32 263e 1408 a63d
00000020: 6472 4fbd 594a 69bd 6b43 cabd 0bee 2bbe
00000030: 46a6 aebd 5017 1fbe 3144 0ebe 1296 af3b
00000040: 6bf7 073c 3bdd a13d 9fa5 5e3d a8b4 2dbe
00000050: ff3e 293d b828 ed3c 5575 3a3c 60e7 17be
00000060: 65e7 f3bd b800 1e3d ac5c 31be 9a5c debd
00000070: c1c7 c23d f290 0dbd 72df a2bd 9101 29bc
00000080: 58ef 953c 431f d13d d886 a7bc 20b1 093e
00000090: 7209 55bd 9d3e 09be 40e7 083e 4680 9b3d
000000a0: 955b 32be 34a5 c53c d307 b1bc c416 c2bb
000000b0: a0b7 20bc 573c 533d 1e59 173d 2770 063d
000000c0: 3e0c 50bb fde9 043e 2701 153d 32c8 553c
000000d0: e307 873c 5299 85bd 6e66 803c 4cc9 efbd
000000e0: 7934 1f3e 9739 283e 2c1c 2ebe 4a18 093e
000000f0: 5a94 04be 77b9 73bd fdf2 a0bd ecab a93b
00000100: 83e3 d93d f4ad 003e f045 393d bb7b 51bd
00000110: 4932 32bb be30 89bd ab91 bfbd 35f4 cc3d
00000120: 662b f8bd 6026 43bd 6613 cfbc 6d8d 21be
00000130: 9d58 8c3d d4bd 48bd 87b2 f03d 29c1 1a3e
00000140: 573f 85bd 53b7 c93d 4f64 29be df32 c83b
00000150: 9f18 e43d 4bce 8fbc 3f60 5f3d 58fa 103e
00000160: d656 dc3d c6c7 1d3d 8f0e 113e f6b2 f73d
00000170: 89e1 e5bd 1f29 173e f9d1 923d 8410 cabd
00000180: 7642 1dbd f53d 0b3d a15d 08be d902 2d3d
00000190: 171c 493d 20dc a33c 292c 223e cb6e 15be
000001a0: da20 fbbd ee61 03be be72 463c 93b9 b63c
000001b0: e088 bc3d 2ca7 18be fea2 3ebd d8dc b23d
000001c0: 72ee 09be 0448 4abd 6536 ab3d 9510 abbd
000001d0: b3cd c63d d3b8 113e f0a6 143e ebc2 f0bd
000001e0: 13cf c13c edba 12ba db69 223d 6830 d83c
000001f0: 1199 b9bd ef6c 9f3d 75b1 dcbd 11c5 0a3e
00000200: df30 e9bd 50b5 02be bef7 f63c 11ee 95bd
00000210: 6099 073d 7cef 6f3d dbfa 1b3e 59fb ad3c
00000220: 87d0 103b df93 09be 9f7e 2e3d 3b52 51bd
00000230: 60c9 333e 2b22 c2bd bf52 203e b2e6 be3d
00000240: e843 083e de5b 833d 915d 0dbe b834 6b3d
00000250: 618a 29be 5404 003e 1863 0cbe b221 94bd
00000260: e134 973c 620c 1a3e 1018 ca3d cb64 1abe
00000270: a691 d3bd d9ca 9abd ee8f cabd 06dc 1cbe
00000280: 73b8 6cbd f1ee 3bbd 8fdb dbbd b56a b93d
00000290: 1236 023e 2c22 403c 1c98 c7bd 201b c83d
000002a0: c9ec 1ebd ce4b 3bbd 3bcb 493e e0b9 cabd
000002b0: 2813 db3d bdba 09be 4985 133e 4500 ae3d
000002c0: 9416 4a3e 2e1b 463d c0f0 e53d bb4f ac3d
000002d0: 140c e9bd 42e9 1e3d daba d43d d4f4 b23d
000002e0: 2e67 2f3e f1b2 473e 1dee 013e ceaf 893d
000002f0: 7346 1abe b702 853d 7ee1 8abd 72cf fc3d
00000300: a529 a03d d61f 53bd 2e47 0b3e f2a0 973d
00000310: 4ce4 293e caa3 e33d 622c bf3d 9339 1e3e
00000320: 8723 493e 7585 50bd 461e ee3d 3015 48bd
00000330: f256 10bd 0eed 053e 04de 56bb 0bb6 36be
00000340: f351 96bd e612 903d 8162 e3bd f322 4d3d
00000350: 0be4 953d 916a 16bd 9a7f 8c3c cf58 ce3d
00000360: 1db2 243e eceb 453d 6e20 9b3d 995d 253c
00000370: eeb0 db3d cf0d ddbd ad7f 4a3d bb73 9b3c
00000380: f8d3 4fbd 038f 1b3e 1db1 a83d 53c9 293c
00000390: 7aea 8abd f70d 18bd ea5b 26bd 2303 133d
000003a0: 43ca 9bbb 3c56 283e d53c c33d 8125 c93d
000003b0: c84f ee3d df66 13be da74 62bd 377b 613d
000003c0: e4d5 64bd 36bf 5ebd d6a2 97bc 4f48 3c3e
000003d0: e849 263e 74cb 523d 0950 95bd 1056 22be
000003e0: 1c20 13be d4aa 3c3e f9bd c9bd b3a1 473d
000003f0: 1877 d63d 7733 0bbe 4856 053e 2998 223e

bias f4 [32]
-0.039862614 0.01563861 0.05489105 0.03461619 0.047822073 0.18721476 0.098345086 0.22162272
-0.11059124 -0.12891443 0.17970619 -0.12048427 0.1823897 -0.047401104 0.033392165 -0.06617171
-0.11042849 0.11938702 0.20743684 0.015384727 0.16598685 0.13236268 0.05242941 0.15256427
-0.0049443557 0.02579345 -0.031401515 0.15471116 0.1640048 -0.042658765 0.13050027 0.07628684
00000000: fb46 23bd 8b1c 803c 70d5 603d b5c9 0d3d
00000010: 14e1 433d 3ab5 3f3e 2669 c93d 11f1 623e
00000020: a97d e2bd 2502 04be e604 383e 75c0 f6bd
00000030: 5ec4 3a3e a927 42bd 39c6 083d 0985 87bd
00000040: 5528 e2bd 2f81 f43d 536a 543e 3910 7c3c
00000050: 75f8 293e 158a 073e 39c0 563d cf39 1c3e
00000060: 4304 a2bb c94c d33c e09e 00bd 9a6c 1e3e
00000070: e0f0 273e f5ba 2ebd dda1 053e 463c 9c3d

weight f4 [32, 32]
0.09156118 -0.079967804 0.05621665 0.12879647 0.047241952 0.18523668 0.16713853 0.21082346
0.12609051 0.014201148 -0.05635537 -0.11214821 0.15042406 0.051537354 -0.12476316 -0.02878789
0.16933264 0.024084 0.17670876 -0.038032394 -0.094230376 -0.08372129 0.23255664 0.2098922
0.014370483 -0.09218647 0.19564265 0.17890713 0.10679203 -0.17590284 0.14592728 -0.11361209
0.07679933 -0.18381427 0.10267282 0.15161866 0.03770477 -0.018068181 0.041580673 0.069265075
0.005955518 0.14912581 0.18271664 0.05421836 0.026123332 -0.051479045 0.1277929 0.10866715
-0.051168002 -0.13285676 0.14632672 0.05685332 0.10331502 0.08744365 -0.06196329 0.18889011
0.011524292 -0.1600229 0.12533967 0.08417685 0.1922539 -0.00470618 0.008176195 -0.0068924394
0.14105564 -0.08036436 -0.07885955 -0.06649374 0.05516798 -0.050723188 0.0025633986 0.1440871
-0.1663808 -0.05145403 0.091321975 0.07300238 -0.12854499 -0.16302972 0.034162074 -0.16997303
0.06493584 -0.0036533393 0.096206434 0.0078519415 0.1666774 0.19846012 -0.033782724 0.12987725
-0.0719998 0.031277977 0.06270623 -0.12570722 -0.010605969 -0.12453808 0.10507754 0.16753735
-0.04145313 -0.044716876 0.035485405 -0.13892072 -0.11732068 0.07028072 0.16378549 -0.08092938
0.14768219 0.07224334 0.059456557 0.0073619164 0.11337144 -0.007373549 -0.118468806 -0.13049386
-0.103424214 0.19482145 0.058916744 -0.005304099 0.14809048 0.20777047 0.18476413 0.096470274
0.17166276 -0.12272372 0.1752696 0.007447516 0.090861306 -0.08055226 0.105401 0.007908269
0.10406663 0.04984305 -0.12398197 -0.11885388 -0.004910213 0.024906196 0.01713459 -0.13760683
-0.085148305 0.09646828 0.14657287 0.082009986 -0.11361442 -0.002855217 -0.03345659 0.08493199
-0.051432326 0.013903992 0.1521982 -0.024598017 -0.06814334 -0.1633977 -0.09303735 0.02025841
-0.15871347 0.120108545 0.13609944 -0.051107857 -0.01846466 -0.036626264 -0.1757575 0.14247516
0.15640557 0.09122742 0.08705607 -0.12666573 0.16792315 0.095431015 0.10611541 0.16833839
0.0678725 0.012693156 0.09933305 -0.12914997 -0.10032809 -0.1587234 0.0045490786 0.02480633
0.15682901 0.16046017 0.18885434 0.124030024 0.03945391 -0.1274625 -0.039238524 -0.10844286
-0.1370875 0.02131973 -0.022703828 0.1590617 0.024267098 -0.1205768 0.048956092 -0.06299659
-0.04223879 0.06689612 0.06585631 0.12727281 -0.1663967 0.18363856 0.095953554 0.02494834
-0.09574352 0.15941945 0.053265665 0.05609261 0.06429269 -0.10561513 -0.025971137 0.15571389
0.00594593 0.1432966 0.14214809 0.043578684 0.044487204 0.055166557 0.14788304 -0.021371173
0.12682827 -0.08574629 0.020694908 -0.08821875 -0.021005627 -0.07452661 0.12596896 0.065085545
-0.02089154 0.047477942 -0.014542958 0.038911976 -0.029343024 0.18610846 0.20458573 -0.01891679
0.13792354 -0.031069119 0.13380499 0.16517657 0.09635324 -0.15278536 0.12546779 -0.11186251
-0.14626922 -0.10146018 0.19990405 -0.038505714 -0.10590704 -0.009212842 0.07562969 0.033683557
-0.10331022 0.1197986 0.17154956 0.14121038 -0.1262341 0.15981853 0.009951303 0.13984497
00000000: 6e84 bb3d 29c6 a3bd 6e43 663d 39e3 033e
00000010: c780 413d afae 3d3e 5d26 2b3e 1be2 573e
00000020: df1d 013e efab 683c e3d4 66bd f6ad e5bd
00000030: c408 1a3e d518 533d d483 ffbd 95d4 ebbc
00000040: 8965 2d3e cf4b c53c 24f3 343e dbc7 1bbd
00000050: dbfb c0bd 1176 abbd 5423 6e3e fbed 563e
00000060: 2d72 6b3c 43cc bcbd 8c56 483e 6e33 373e
00000070: c8b5 da3d e01f 34be f66d 153e 75ad e8bd
00000080: f848 9d3d cf39 3cbe 2146 d23d ec41 1b3e
00000090: 5170 1a3d b903 94bc 7f50 2a3d d9da 8d3d
000000a0: 8226 c33b 70b4 183e 121a 3b3e 1214 5e3d
000000b0: 9900 d63c b1db 52bd 24dc 023e e28c de3d
000000c0: 8a95 51bd 9a0b 08be acd6 153e 07df 683d
000000d0: d396 d33d a815 b33d 38cd 7dbd 696c 413e
000000e0: 62d0 3c3c 0bdd 23be 0b59 003e ea64 ac3d
000000f0: 35de 443e 4d36 9abb 73f5 053c f9d9 e1bb
00000100: e470 103e 1296 a4bd 1e81 a1bd df2d 88bd
00000110: d2f7 613d 1ec3 4fbd b1fe 273b 928b 133e
00000120: ba5f 2abe 76c1 52bd 0407 bb3d 4682 953d
00000130: 4ca1 03be 43f1 26be 88ed 0b3d 690d 2ebe
00000140: 15fd 843d dd6c 6fbb e107 c53d 6ea5 003c
00000150: 7bad 2a3e 2139 4b3e c15f 0abd 8bfe 043e
00000160: a274 93bd 561d 003d 206c 803d 65b9 00be
00000170: a8c4 2dbc d20d ffbd e532 d73d e98e 2b3e
00000180: c2ca 29bd 0b29 37bd 2559 113d 3c41 0ebe
00000190: d345 f0bd 57ef 8f3d 62b7 273e 4ebe a5bd
000001a0: 003a 173e 51f4 933d b888 733d 3b3c f13b
000001b0: 492f e83d d09d f1bb c69f f2bd 2fa0 05be
000001c0: 13d0 d3bd 467f 473e af52 713d 02ce adbb
000001d0: 08a5 173e c8c1 543e cf32 3d3e 3592 c53d
000001e0: 5dc8 2f3e 9356 fbbd e079 333e 4b0a f43b
000001f0: 7e15 ba3d 95f8 a4bd 7bdc d73d af91 013c
00000200: e320 d53d 3a28 4c3d 42ea fdbd aa69 f3bd
00000210: dae5 a0bb 1408 cc3c d75d 8c3c cee8 0cbe
00000220: 3c62 aebd 2991 c53d 3317 163e daf4 a73d
00000230: adae e8bd 981e 3bbb c709 09bd d3f0 ad3d
00000240: b4aa 52bd 92cd 633c d8d9 1b3e c881 c9bc
00000250: bc8e 8bbd ba51 27be 5e8a bebd f7f4 a53c
00000260: c985 22be 78fb f53d a75d 0b3e 7956 51bd
00000270: 3343 97bc 6c05 16bd c6f9 33be 02e5 113e
00000280: c828 203e 71d5 ba3d 744a b23d a9b4 01be
00000290: 0cf4 2b3e 5671 c33d 0953 d93d e660 2c3e
000002a0: bd00 8b3d f4f6 4f3c 206f cb3d e43f 04be
000002b0: d078 cdbd 6388 22be 7010 953b a536 cb3c
000002c0: c997 203e ac4f 243e 0863 413e 7403 fe3d
000002d0: 6c9a 213d 8885 02be 93b8 20bd 4a17 debd
000002e0: aa60 0cbe b7a6 ae3c 61fd b9bc 12e1 223e
000002f0: cbcb c63c f8f0 f6bd 2f86 483d 5b04 81bd
00000300: 9502 2dbd d500 893d acdf 863d ce53 023e
00000310: e663 2abe bf0b 3c3e 4c83 c43d 7660 cc3c
00000320: 2e15 c4bd da3e 233e 192d 5a3d 5dc1 653d
00000330: e3ab 833d bf4c d8bd 6cc1 d4bc 7673 1f3e
00000340: 13d6 c23b 58bc 123e 458f 113e 907f 323d
00000350: 3738 363d 54f6 613d a76e 173e 9912 afbc
00000360: 45df 013e c09b afbd 5e88 a93c 08ac b4bd
00000370: fe13 acbc 68a1 98bd 02fe 003e 924b 853d
00000380: bc24 abbc 3b78 423d 9645 6ebc 2a62 1f3d
00000390: c860 f0bc 3793 3e3e ec7e 513e 62f7 9abc
000003a0: d43b 0d3e aa84 febc 2d04 093e 0c24 293e
000003b0: d954 c53d c473 1cbe a17a 003e 2c18 e5bd
000003c0: 99c7 15be 5bca cfbd a6b3 4c3e 2bb8 1dbd
000003d0: cae5 d8bd 76f1 16bc bde3 9a3d c5f7 093d
000003e0: 4f94 d3bd f858 f53d b0aa 2f3e 7499 103e
000003f0: 8343 01be 78a7 233e ca0a 233c 8533 0f3e

bias f4 [32]
0.20932315 0.13012023 0.16889176 0.09997711 -0.13661034 0.09162188 0.10261631 0.19457948
0.021152604 0.027665097 0.19065966 -0.15717886 0.0008555244 0.042170923 0.099681675 -0.007250966
-0.11013292 0.14026557 -0.049802322 -0.071594305 0.10772309 0.20850676 -0.17521186 0.20548522
0.03952195 0.06910788 0.16038147 0.039949685 0.1772243 -0.07265438 0.096613534 -0.15320851
00000000: cf58 563e 3d3e 053e f6f1 2c3e cdc0 cc3d
00000010: 95e3 0bbe 41a4 bb3d 8028 d23d d83f 473e
00000020: 3a48 ad3c eaa1 e23c 493c 433e 7ff3 20be
00000030: 4545 603a 6bbb 2c3d e825 cc3d 8399 edbb
00000040: 5e8d e1bd c7a1 0f3e 85fd 4bbd 09a0 92bd
00000050: ec9d dc3d cc82 553e bd6a 33be b86a 523e
00000060: c5e1 213d 6f88 8d3d 0a3b 243e 48a2 233d
00000070: 497a 353e d2cb 94bd 51dd c53d b1e2 1cbe

weight f4 [1, 32]
-0.03513601 -0.009064613 -0.05508152 -0.051014774 -0.031352885 -0.028392203 -0.050309427 -0.023490174
0.0031683217 -0.002471745 -0.04238472 0.015452044 -0.023556324 -0.055408034 0.012456701 0.013734646
0.016684368 -0.041476883 -0.012973 0.0051243156 0.0012225884 -0.010002446 0.0010154098 -0.02941709
-0.04752012 -0.019213729 -0.042613816 -0.0131224105 -0.0523084 -0.0082286205 0.021857018 -0.0039648106
00000000: c7ea 0fbd be83 14bc 299d 61bd def4 50bd
00000010: e26b 00bd c496 e8bc 4211 4ebd 776e c0bc
00000020: 9ea3 4f3b 00fd 21bb 9a9b 2dbd 922a 7d3c
00000030: 31f9 c0bc 89f3 62bd 3117 4c3c 4807 613c
00000040: a8ad 883c aae3 29bd b58c 54bc e0e9 a73b
00000050: 423f a03a 4de1 23bc 8017 853a 1cfc f0bc
00000060: 75a4 42bd 1c66 9dbc d38b 2ebd 61ff 56bc
00000070: 5541 56bd 56d1 06bc 7d0d b33c 3eeb 81bb

weight f4 [1, 32]
-0.09001431 -0.094180964 -0.056342836 -0.08767814 -0.015857551 -0.057789207 -0.09186569 -0.060272217
-0.058848705 -0.06727249 -0.06920075 -0.034992248 -0.06326221 -0.10702353 0.00976775 -0.026297068
0.017477838 -0.06796197 -0.09063568 -0.0026151948 0.020057265 -0.08791729 -0.024186544 -0.08500229
-0.05003588 -0.067661494 -0.04885446 -0.05326952 -0.04394593 -0.021149786 0.013862766 -0.027275115
00000000: 6c59 b8bd f3e1 c0bd bfc7 66bd 9990 b3bd
00000010: b2e7 81bc 60b4 6cbd 1424 bcbd 00e0 76bd
00000020: 570b 71bd 29c6 89bd 1fb9 8dbd 0854 0fbd
00000030: 9e8f 81bd 272f dbbd ea08 203c f36c d7bc
00000040: af2d 8f3c a52f 8bbd 339f b9bd b063 2bbb
00000050: 224f a43c fb0d b4bd dc22 c6bc ae15 aebd
00000060: 6cf2 4cbd 1c92 8abd 9d1b 48bd 2431 5abd
00000070: a600 34bd 5142 adbc a820 633c 1070 dfbc
