models/patient21/switching_model_for_patient_21_Actor.pth (torch, 24039 bytes, 12 tensors)

weight_ih_l0 f4 [64, 2]
00000000: 5104 3e3e 6412 2c3e 1126 1cbe 046b bfbd
00000010: db5a 78bd fb54 873d 8d1c 803e af91 febd
00000020: 882e 5d3b fa9b 55be 7544 a3be 9d72 5a3e
00000030: 16f3 84bb aab8 fa3d 5622 6dbe 573b 80be
00000040: bba2 34bd 5b23 6d3e 29b5 393d 8c1c 08bd
00000050: ab5a 9ebd fa0b 0dbe 64fe 80be fb2f 3f3b
00000060: 778c 6dbe 3260 1ebe 2ebf 0bbe 45a8 83be
00000070: cf66 833c c329 a13d 5efb 4a3d f578 f7bd
00000080: b62f 8bbd fc76 02be c189 1a3e a7bd 0f3e
00000090: 78ee 09bd 6e22 20bc 02d2 01be 8e45 42be
000000a0: 65c6 60be 8ed6 2fbe 0a5a 71be dd30 e8bb
000000b0: e54f 1dbe f5bb 0cbe 0d80 96bd d799 c0be
000000c0: f83b 823d 86ff 623d 34ca 68bd 610f 70be
000000d0: 8845 85be 3432 27be 6cc7 f3bd b45d 273b
000000e0: 567f 98be 3f8f 6fbe b200 f2bd 98fe fabd
000000f0: 4dcd 4ebd acd2 81be fa1c e8bd 0630 dfbc
00000100: 28ac c0bc 8edb cf3d 7f57 433e 5701 34be
00000110: 8e60 743e 5790 d23d 8255 573e 62b1 7cbe
00000120: b209 75bd 4e44 93bd 330e ef3d deaa 473e
00000130: 3b1d 95be 6094 19be 2871 a9be 4f14 0b3f
00000140: b910 9abd 48c3 bf3d beea 593e cd01 2c3e
00000150: 9b53 f4bd 392b b0be eb53 893d a459 2cbd
00000160: e437 823e 4ed9 0ebd 8484 96bc d5ad 903e
00000170: de0a 3a3e 040e 72be f6a2 a23e 3339 163d
00000180: 50d0 c63d c43c 283e 56c7 20be 01d2 b53d
00000190: db85 c03d 9d9f 66be f49d d2bd 6333 723e
000001a0: aed3 b1bd acdd f83d fc55 5bbe 310d 32be
000001b0: 2b15 debd af99 8fbc f153 b0bc afe2 89be
000001c0: 84ef 93bd 788e abbb da75 69be f920 7abe
000001d0: 0fe5 963d 020a 9ebc 73f2 c03d f004 15bd
000001e0: 6569 74be ab48 81bd b6d5 8fbe 2f26 463e
000001f0: 9d61 c5bc b054 7ebd ea96 61be 035f e53d
0.18556334 0.1680389 -0.15248896 -0.093465835 -0.06063352 0.066080056 0.25021783 -0.12430131
0.0033749659 -0.20860282 -0.31888166 0.21332784 -0.0040572984 0.12242253 -0.2315763 -0.25045273
-0.044100504 0.23158018 0.045338783 -0.03323035 -0.07732137 -0.137741 -0.25194085 0.0029172886
-0.23198114 -0.15466383 -0.13647148 -0.25714317 0.016040234 0.078692935 0.04955613 -0.120836176
-0.067962095 -0.12740701 0.15091611 0.1403719 -0.033674687 -0.009773834 -0.12677768 -0.18971846
-0.21950682 -0.1717169 -0.23569503 -0.007085903 -0.15362509 -0.13743575 -0.073486425 -0.3761737
0.063590944 0.055419467 -0.05683346 -0.23443367 -0.2602961 -0.16327745 -0.11903271 0.002553803
-0.2978465 -0.23394488 -0.11816539 -0.12255591 -0.05048876 -0.25356042 -0.11333652 -0.027244579
-0.02351959 0.101492986 0.19076346 -0.17578636 0.23864958 0.10281437 0.21028712 -0.24677041
-0.0598237 -0.071907625 0.1167263 0.19498774 -0.29123864 -0.14998007 -0.33094144 0.54327863
-0.07522721 0.09363419 0.21280953 0.16797562 -0.11930009 -0.34407976 0.06705459 -0.042077675
0.25433266 -0.034875207 -0.018373735 0.28257623 0.18168208 -0.23638159 0.31764954 0.036675643
0.09707701 0.1642943 -0.1570104 0.08877946 0.09400531 -0.22521825 -0.102840334 0.23652415
-0.08682953 0.121516556 -0.21419519 -0.17387845 -0.10843881 -0.017529337 -0.021524401 -0.26930758
-0.07223418 -0.0052354895 -0.22798863 -0.2442664 0.07367908 -0.019291881 0.094212435 -0.036381662
-0.2386833 -0.063126884 -0.28092736 0.19350503 -0.024094397 -0.062092483 -0.22030225 0.11199763

weight_hh_l0 f4 [64, 16]
00000000: dde4 7bbe 176c 0fbe 6ca9 27be 03de 713d
00000010: ed9d 1e3e 4403 54be ef05 523d 73b1 ca3d
00000020: ac5e d43d 7689 443e cd84 013c d679 a93d
00000030: e5ee 00be 85a3 4abe 283c 323c bb1b 39be
00000040: 9ba3 4b3e f38e ffbd 2375 453e cb20 21be
00000050: 110c 793e f287 48be d52a 013e f3b2 493d
00000060: f78b 41be e2a4 e5bd 9352 90bd d179 8e3d
00000070: 24a5 b9bc 0b1b 453e ab2e 93bd ada5 59be
00000080: 59b3 efbd 5882 f1bc 66a7 063e 1462 593d
00000090: 0b2e acbd 45cd 983d 3da6 833e 9704 17be
000000a0: 997e afbd d087 3f3d ac10 2e3e 7f72 b1bd
000000b0: 8de5 82bd d76a 7abe 5b30 563e 694f fbbc
000000c0: f961 4dbe 9e07 0d3e be4f 1cbe a820 25bc
000000d0: c734 5c3d ef09 0dbe 0445 76be 934f cbbd
000000e0: 6043 353e 38e9 9c3c 3e9b 71be 466b c6bd
000000f0: f02d 063e 0fa9 373e 46a8 88bc 09d3 0cbe
00000100: d1cd 20be 5105 153e dc67 a2bd 2576 89bc
00000110: 8889 da3d e254 4cbe 11b5 66be 9a3f ac3e
00000120: 4fd1 623e e5e5 61bd 5425 013e c823 4ebe
00000130: eaca 6bbe 1505 383e 2b50 3e3e ef49 89ba
00000140: cc32 c73c 4584 81be 93bc a6bd f564 2b3b
00000150: 3c06 be3d 756c 86bc 820d 883c 39b1 563d
00000160: ed5f c7bd 0505 51be a2b7 3fbe 472c 143e
00000170: f816 49bd 476a bebd 13e2 25be c23e 8c3d
00000180: a0cf fabc 04da 653d a2a5 453d 50fa 813e
00000190: 5730 6abe 059c 21be 6259 46bc cb14 953e
000001a0: 49c3 08be cce9 8cbe 653d 033e 6703 0fbe
000001b0: ca86 14be 1b9d 60be f78e 18be b95d eb3c
000001c0: 29d1 29be 89e7 80be 5397 61be 0f73 ea3d
000001d0: 6603 733e c56d 93be f856 6a3c cd55 9b3d
000001e0: acf5 4d3d 9904 f3bc fc8b 613c b7fa 49be
000001f0: 27b7 34be 7c45 1b3d a9c3 37bd ebec 2d3e
00000200: 8220 54be a3e6 81be 44e5 04be 3716 17bd
00000210: 8200 70be e09f 0e3e 73ce 633e bca6 8cbc
00000220: 0ef0 57be b048 3f3e e647 ecbd 7999 bfbd
00000230: 9d57 4a3e d8a3 c33d d72b 1cbd 4a5f 88be
00000240: 5849 3cbd 45ba 1f3e 628e 56bd ad79 e93d
00000250: 486e 133e c7c1 5e3d 2c5a 4abc f10a 84bb
00000260: 310a 29be 4a04 723e 39bb 7dbd 91b3 f2bd
00000270: 21a3 47be 1bc4 0a3e 8dcc 1c3e 9e3e 6fbd
00000280: 0a9c 50be 7d86 52be 0400 3a3e 058f f83d
00000290: 557d fb3d 8c5b 6b3d 0445 08be 5fa2 d33d
000002a0: e2f6 2e3e 13d5 9a3d 5ab6 58bd 2658 d63d
000002b0: 6420 95be efd9 0c3e cad8 193e 1834 4e3e
000002c0: 9584 b7bd 1909 1d3e ca83 b73d 8ee8 053d
000002d0: 2e23 acbd 0453 61be 0903 033e f8c7 a13e
000002e0: 145d 403e 3197 4c3e 9aad c7bc 7415 37bc
000002f0: cf95 de3d af60 89be 075a 133e 7c23 0c3c
00000300: e747 07be 6be3 fabd f44f 633e f940 133c
00000310: 9180 61be e96d ea3b 00e3 b63d c11f 5e3e
00000320: dc52 acbd 3b62 4bbe 9150 cabd 408b 153c
00000330: 138b 1bbe f325 263e b971 803c 849e 76bd
00000340: 6155 0abe 0636 1f3e 90c1 30bd 4662 0b3e
00000350: 4fc8 463d bd06 e3bd 780a 36be 1e87 4fbc
00000360: cf4a e2bd 22ba 473d e0a7 52be 9dab 293e
00000370: 0b21 30bd 42a5 bfbd 33b6 1ebe 0219 91be
00000380: dad3 083d ef19 423c ce09 623e eb63 143e
00000390: 0145 a83d 55b8 c63d db3f 0d3e 3acc de3c
000003a0: 3fbe 53bd b6f2 3d3e bb16 083e 4481 16bd
000003b0: 7f73 39be e20c 0dbd b622 bd3d b8b3 9b3d
000003c0: bef2 a7bd 78af 7bbe 5f73 1e3e add7 163e
000003d0: 7123 563e f6de 183c ab6b 563e af3f 1abe
000003e0: 09a3 f9bd 1fd2 2fbe caba f23c 703a 7dbc
000003f0: 33f0 56be 7099 14be dd25 68be 0f6c 22be
-0.24599023 -0.14006077 -0.16373223 0.059049617 0.15489931 -0.2070437 0.05127519 0.09897127
0.1036962 0.19193062 0.007905197 0.082751915 -0.12591131 -0.1978894 0.0108786 -0.18076985
0.1988663 -0.12478437 0.19282965 -0.15735166 0.24321009 -0.19583109 0.12613995 0.049242925
-0.18901049 -0.112130895 -0.07047 0.069568284 -0.022661753 0.19248597 -0.071866356 -0.21254607
-0.1170413 -0.029481098 0.13149795 0.05307205 -0.084072195 0.07461027 0.25712767 -0.14747845
-0.085690685 0.04676038 0.16998547 -0.086644165 -0.063914396 -0.24454819 0.20916884 -0.030677514
-0.20056905 0.13772437 -0.15264794 -0.010078587 0.05376127 -0.1377332 -0.24049765 -0.09927287
0.17701483 0.019154176 -0.23594376 -0.096884295 0.13103461 0.17935584 -0.016681802 -0.13752379
-0.15703513 0.1455281 -0.07929966 -0.016779969 0.10670763 -0.19954255 -0.22530009 0.33642274
0.22150157 -0.055150885 0.12611896 -0.20130837 -0.23026624 0.17970689 0.18585269 -0.0010474304
0.024316214 -0.25296226 -0.081414364 0.0026152704 0.09278533 -0.016409138 0.016608004 0.052415106
-0.09735093 -0.20412071 -0.18722394 0.14470015 -0.04909417 -0.092976145 -0.16199522 0.068479076
-0.030616581 0.05611612 0.048253663 0.25386286 -0.22870003 -0.15782173 -0.012106271 0.29117426
-0.13355745 -0.27522123 0.12816389 -0.13966142 -0.14504543 -0.21934931 -0.14898287 0.028731214
-0.16583695 -0.25176647 -0.22030382 0.11447727 0.23731765 -0.28794685 0.0143029615 0.075847246
0.05028312 -0.029665278 0.013766285 -0.19724546 -0.17647992 0.037908062 -0.04486433 0.16984908
-0.20715526 -0.25371274 -0.12978083 -0.03688642 -0.23437694 0.13928175 0.22246723 -0.017169349
-0.21087667 0.18680072 -0.11537151 -0.093554445 0.19759984 0.09552735 -0.038127746 -0.266352
-0.045968384 0.155984 -0.05238188 0.11400161 0.14397538 0.05438402 -0.0123506 -0.0040296246
-0.16507794 0.23634449 -0.061946128 -0.11850656 -0.19495822 0.13551371 0.15312405 -0.058409326
-0.20372024 -0.20559116 0.18164068 0.12136654 0.122797646 0.057460353 -0.13307577 0.10333704
0.17086366 0.07560172 -0.05290828 0.10466032 -0.29126275 0.1375501 0.15024105 0.2013706
-0.08960835 0.15335502 0.08960684 0.032692485 -0.084051475 -0.22004324 0.12794127 0.31597877
0.18785506 0.1997955 -0.024374772 -0.011174548 0.108684175 -0.26831576 0.14389811 0.008553382
-0.13211022 -0.12250408 0.22198468 0.008987659 -0.220217 0.0071542156 0.089300156 0.216918
-0.08414242 -0.1986169 -0.09878648 0.009127438 -0.15189771 0.16225414 0.015679227 -0.060209766
-0.13509132 0.15547952 -0.043153346 0.13611707 0.048530873 -0.110852696 -0.17777431 -0.012666492
-0.11049425 0.048761494 -0.20571852 0.16569372 -0.043000262 -0.09357692 -0.15499191 -0.28339392
0.033405162 0.011847003 0.22074053 0.1449124 0.082162865 0.09703127 0.1379389 0.027196992
-0.051695105 0.18549618 0.13289921 -0.03674437 -0.18110465 -0.034436114 0.09235136 0.07602638
-0.08200596 -0.24578655 0.15473698 0.14730711 0.20911957 0.009330502 0.2093951 -0.15063356
-0.121892996 -0.17169999 0.029630084 -0.015455827 -0.20990066 -0.14511657 -0.22670694 -0.15861534

bias_ih_l0 f4 [64]
00000000: f657 4f3e d108 73bd 2fe6 153c 146e b3bc
00000010: 36ad c23d cea2 013d 2c29 8b3e 05e2 a73d
00000020: dc13 7b3e d266 503e 0769 d7bd e9d4 90bd
00000030: 5281 b6bc 0b45 843d 4154 193e 65d0 5e3e
00000040: 1b03 aa3d 115f 54bd 3f1c 7d3e 2490 7dbe
00000050: 3c0a 0e3e 89e6 f83d 804d f53d 8198 673e
00000060: 3ed3 663d 653e 94bd febc 6f3e 1518 95bd
00000070: 749d 72bd d0b8 d83c 6521 383e 241c 30bd
00000080: 9436 163e 4bd7 16be 9fc6 6dbd f99a 5e3e
00000090: 6a47 4d3a daf7 64be dd8c 1c3e 60f8 4dbe
000000a0: e5a5 5f3e 18cf 09bd b2aa 0bbe 85d5 31be
000000b0: b565 0e3d f1f4 043d 4952 443c 9664 813d
000000c0: 9b25 bf3c 53fe f63c 49be 8e3e 6bc2 20be
000000d0: f096 2a3d e07f 48bd 3278 0abe 1921 a43c
000000e0: 2360 de3c 14e3 673e 76cf 693e 5bb1 223e
000000f0: 59b7 3bbd 9372 2ebe 7224 3ebe 2aa6 19be
0.20248398 -0.05933458 0.009149118 -0.021903075 0.095056936 0.031649403 0.2717985 0.08197407
0.24519295 0.20351723 -0.10518079 -0.070718594 -0.022278462 0.064584814 0.14973547 0.21759184
0.083013736 -0.051848475 0.24717806 -0.24762017 0.13871092 0.12153346 0.119776726 0.2261677
0.0563538 -0.07238463 0.23411939 -0.07279984 -0.05923219 0.026455313 0.17981489 -0.042995587
0.14669257 -0.14730565 -0.058050748 0.21738805 0.0007830771 -0.22360173 0.1528811 -0.20114279
0.21840627 -0.033644766 -0.13639334 -0.17366607 0.034764964 0.032460157 0.011982509 0.06318013
0.023333361 0.030150568 0.2787955 -0.15699165 0.04164785 -0.048950076 -0.13522413 0.020035313
0.027145451 0.22645217 0.22833046 0.15887968 -0.04582915 -0.17035894 -0.1856859 -0.15004793

bias_hh_l0 f4 [64]
00000000: f9bd 0d3d 5673 c9bd 1d10 46be 50b7 1d3e
00000010: 07b4 ce3c 7f2a 0b3e 1127 8a3e 1279 863e
00000020: 14ce 833e 0a70 dd3d df9a dfbd b43a 50be
00000030: 5be5 0c3e 8856 c9ba 3313 2a3e 0355 623e
00000040: 8ae2 20bb 9a24 7d3e ef85 1dbc f404 353e
00000050: b698 0f3e 2f71 103d 17d2 1e3e 11c1 2a3e
00000060: fd60 3f3e 65c7 bebc b2f4 803e 8e95 92bd
00000070: df5d f03d 2d89 35be 6134 033d e2a8 f3bb
00000080: 00bf 36be e782 6b3e 4c2c 0fbe 1bf8 113e
00000090: da4f 833e 3c9f 303c 10b1 113d e2c9 753e
000000a0: 642c fe3d f334 72bd 59f3 f43b 91ce 59be
000000b0: fbb9 803c c141 0f3e 7f1b 54be ad9c efbb
000000c0: 3dec 783e a592 80bb 605d a3bd 6af0 85bd
000000d0: 5761 4bbe a110 15bd 7b04 c33c 7d52 883e
000000e0: 1c8f 303e 1e0a 85bd 194a 8b3e e377 2abe
000000f0: f413 17be 7ddc 58be caae 793c 58a7 35be
0.034605 -0.09836452 -0.19342084 0.1540196 0.025232328 0.1359043 0.2698293 0.26264244
0.25743163 0.108123854 -0.10918211 -0.20334893 0.13759367 -0.0015360871 0.16608886 0.22102742
-0.002454909 0.24720994 -0.009614452 0.1767767 0.14023098 0.03526419 0.1550983 0.16675211
0.18689342 -0.023288438 0.25186688 -0.071574315 0.117366545 -0.1772811 0.032032374 -0.007435904
-0.17846298 0.22999154 -0.13981742 0.14254801 0.2564686 0.010780152 0.03556925 0.24002793
0.124108106 -0.059132528 0.0074752984 -0.21270205 0.015713682 0.13989927 -0.20713614 -0.0073123784
0.24308868 -0.0039237314 -0.07976794 -0.06539996 -0.19861351 -0.03639281 0.023805847 0.26625434
0.17242092 -0.0649607 0.2720497 -0.16647296 -0.14753705 -0.2117786 0.015239427 -0.17739618

weight f4 [32, 16]
00000000: d887 6a3e b59d 623e 8960 8a3e ad4a 13bc
00000010: 68ba c8bd 8e72 553e 8bf0 fa3d e898 973c
00000020: bca7 653c ab85 443d 64f8 41be 1a6a 203e
00000030: 43ce e43c da18 223e 9aa2 713e b38a 3fbe
00000040: 8f76 2cbe cf20 113e eb42 1ebd d2c4 89bd
00000050: 4348 5dbe 7b11 a43d d5f1 753e 84f1 11be
00000060: 4060 bb3d 5846 54be 2c27 71bd b8f5 fbbd
00000070: a501 773e fe2e 74be 0454 903c cb67 b43d
00000080: fe1b 033e 07a5 8abe cfea 3b3e d76e 583e
00000090: 99a4 74bd b9cf 82be ea05 473d 4b28 8f3d
000000a0: 559e 453c f8ed 1cbe 55c2 20be caa3 5fbe
000000b0: b25d 843d 1add 90be 7247 f83d f113 1ebe
000000c0: 0039 bebb 5e02 1f3e 32af 2b3e 301f bdbd
000000d0: 8013 c73d 6262 0b3e c42a 52be 54f4 9d3d
000000e0: 7c52 853d aeee 193e 9023 3c3d 4833 60be
000000f0: e6f8 6dbe 98d3 cd3d e89e 9dbd b0f6 0fbd
00000100: 1cc0 c63d 5ccc e33d 8dfa 05bd b413 91bd
00000110: 7bec 1e3e 9594 40be 5710 2e3e b2ae e6bd
00000120: 829e ff3d 123d 62be 817c 1d3e 8c3f ff3d
00000130: 25a2 213d f4f9 e73d 9cb1 383e 526b 4cbe
00000140: eb43 d3bd 2e87 733e 4f77 1dbe 3ebe 18bd
00000150: 2d97 48be bf36 503e 8b70 86bd bed8 5b3e
00000160: a2af 0f3e 6910 b1bd b0d7 64be 5f96 f53d
00000170: 5479 fc3c 8231 6d3e eddd 72be 27b4 2dbe
00000180: a61f 7d3e eb33 9dbd f08b 943d 80e4 03be
00000190: 945e edbc d0ab fdbc 9278 423c b300 e73d
000001a0: 5a5f 653e a0d2 4abe c76d 2cbc 9248 9a3d
000001b0: 450f f4bb fc49 b0bc 1250 823d cba9 98be
000001c0: 84e8 843e d776 08be 5185 8ebd 63a3 56be
000001d0: 8df7 cc3d 69e5 8f3d cd6b 0e3e 9523 64be
000001e0: adce 393e 4d17 38bd a8d4 a7bd 5be5 21bd
000001f0: e5e2 e73d fabd de3d 0c4e 28be f4ff ebbd
00000200: b4a6 fdbd 5085 9dbc d44a f33d fc83 2dbe
00000210: be54 6c3e 4058 5b3d b0e4 ea3c 6e90 2cbe
00000220: ee73 74be a671 2b3e c882 b83d d240 6ebe
00000230: c0f4 27be 2019 b8bc 0ef2 2d3e 6082 213c
00000240: a94d b5bd 76c8 313e e302 e0bd 286f 893d
00000250: 3b4b 163d 21cd 8cbd fe2a 833d e9dd 9cbc
00000260: 7fb6 0c3e 5ac5 bc3d 903f 2dbe 043e cfbd
00000270: c674 16bd 68d7 63be dde9 3abe 2d02 82be
00000280: e771 77bd 0d21 01bd a684 42be 2252 423e
00000290: 3c85 9d3c 4cc5 563e ea64 633e b83c 0f3e
000002a0: 97da 2ebe 0782 8bbe c2e3 3dbe 3ae8 87be
000002b0: 98c8 c9bb 258e 6ebe 61bb f9bc 77ce 0c3e
000002c0: 7293 9a3d b50d be3c 97d4 83be d037 983b
000002d0: 1463 893e fcff 3ebe 04fe 183e 590f 56be
000002e0: a067 463e 13d6 0fbe 7f52 12be 9fe4 bb3d
000002f0: 5286 273e 8ec1 b23d 4a93 d33d b94d 9dbd
00000300: 04c9 7bbe eb9a ec3d e429 84be 3097 4c3e
00000310: 94c1 dfbd dfdb a23d c16b b13d 8c72 803e
00000320: 6868 603e c0cd e4bd 35ac 533e c280 25be
00000330: 5224 14bc f447 66be d50e a43d 51ce 8abd
00000340: 99a2 66bc 6fcb 3ebd 1705 50be 8088 823e
00000350: 5bc0 eabd 1c56 493e dd9c 3d3e 59e4 b5be
00000360: 9820 e9bd 5783 323e a430 573e 9443 133e
00000370: 978e 1a3d 3435 443e a30c 5b3e f7a8 edbb
00000380: 387c 52bd 3800 4abe 95c5 3b3e bc5a 0f3e
00000390: e71e c6bd 5576 36be 664e f2bd cbf0 8d3e
000003a0: 245b b8bd 39d8 31be 41c7 b43d b5a7 b7bd
000003b0: 55ba 0c3e c286 15be 3af8 c3bc d62a 363e
000003c0: e4c8 253e 86f1 c73d 6fb7 74be 5a03 4fbe
000003d0: 642a 4f3e 437d 0fbe 2845 df3d 26ae 123c
000003e0: 68c2 503e 2598 4e3e 542e 05bd bac7 84be
000003f0: 88bf 77be 4bce 2f3e f6cb 56be 9ef9 9cbe
0.22903383 0.22130473 0.27026775 -0.008989972 -0.09801179 0.2084448 0.12252911 0.018505529
0.014017042 0.04797904 -0.1894241 0.15665475 0.027930385 0.15829793 0.23597184 -0.18705253
-0.16842102 0.14172672 -0.038638037 -0.067269936 -0.21609597 0.08011147 0.24018033 -0.14252287
0.091492176 -0.20729959 -0.058875248 -0.123027265 0.24121721 -0.23846051 0.017618187 0.088088594
0.12803647 -0.2707903 0.18351291 0.21136032 -0.059727285 -0.25549105 0.048589624 0.06990107
0.012061675 -0.15325153 -0.15699132 -0.21839824 0.064631835 -0.28293687 0.12123002 -0.15437295
-0.005805135 0.15528247 0.1676605 -0.09234464 0.09720516 0.13611749 -0.20524126 0.077126175
0.06509873 0.15032455 0.045932353 -0.21894562 -0.23239478 0.10050124 -0.076963246 -0.03514737
0.09704611 0.11122963 -0.032709647 -0.07083836 0.15519898 -0.1880668 0.1699842 -0.11263789
0.12481405 -0.22093609 0.15379526 0.124632925 0.039461274 0.11326972 0.18036503 -0.19962814
-0.10315689 0.23782036 -0.15377544 -0.037290804 -0.19588919 0.20333384 -0.065644346 0.214694
0.14031842 -0.08645708 -0.22347903 0.11991572 0.030819573 0.23163417 -0.2371747 -0.16963254
0.24719104 -0.07675918 0.072532535 -0.12880135 -0.028975762 -0.030965716 0.0118695665 0.1127943
0.22399655 -0.1980691 -0.01052422 0.07533373 -0.0074481093 -0.021519653 0.063629285 -0.29817042
0.25958645 -0.13326584 -0.06959022 -0.20960765 0.10008154 0.070261784 0.1390831 -0.22279198
0.18145247 -0.044944096 -0.08194858 -0.03952537 0.113225736 0.10876079 -0.16436023 -0.115234286
-0.12385312 -0.019228607 0.11879507 -0.1694488 0.23079202 0.05355096 0.0286735 -0.1685197
-0.23872349 0.16742572 0.090093195 -0.23266914 -0.16401958 -0.022472918 0.16986868 0.009857744
-0.08852703 0.17361626 -0.109380506 0.067106545 0.03669284 -0.06875063 0.064046845 -0.019148784
0.13741492 0.09217329 -0.16918778 -0.101192504 -0.036732458 -0.2225014 -0.18253274 -0.25392285
-0.06041136 -0.03152566 -0.18995914 0.18976644 0.01922857 0.209737 0.22206464 0.13988006
-0.17075573 -0.2724764 -0.18543914 -0.26544362 -0.006157946 -0.23296411 -0.030484857 0.13750635
0.07547654 0.023199895 -0.2574813 0.0046453252 0.26833403 -0.18652338 0.1494065 -0.20904292
0.19375467 -0.14046507 -0.14289282 0.091744654 0.16359833 0.08728324 0.103308275 -0.0768084
-0.245884 0.11552986 -0.2581321 0.19979548 -0.10925594 0.07952093 0.086631306 0.25087392
0.21914828 -0.11172056 0.2067116 -0.16162398 -0.009041863 -0.22488385 0.080106415 -0.06777633
-0.014076852 -0.04658073 -0.20314442 0.25494766 -0.1146247 0.19661754 0.1851687 -0.35525778
-0.1138317 0.17432915 0.21014649 0.14381248 0.03773364 0.1916092 0.2139154 -0.007252808
-0.051387995 -0.19726646 0.1833709 0.13999456 -0.09673863 -0.17818578 -0.118313596 0.27722773
-0.09001759 -0.17367639 0.08827067 -0.089675345 0.13742955 -0.14602187 -0.023922075 0.17789778
0.16189915 0.09762864 -0.238981 -0.20216122 0.20231014 -0.14012627 0.109018624 0.008952653
0.2038666 0.20175226 -0.032514885 -0.2593363 -0.24194157 0.17168538 -0.20976242 -0.30659193

bias f4 [32]
00000000: 467f b93d 1eb1 743c 8b8b bf3d ba4f 55be
00000010: dfcb 9c3e c3ea 5c3c 90d7 783d e714 f6bd
00000020: fc9a 1dbe f5e7 d53d 7bef 96bc 912f 21be
00000030: 414e 563e b433 143e af93 373d 0c8f 273e
00000040: 35f7 64be 3a68 6dbe 6805 143e 89ad 2b3d
00000050: 8041 43bd 6fb3 333e e020 623e 8b4c a8bc
00000060: d82c 863e 2416 d2bd 44fe 8fbd d8c6 41bd
00000070: e5bc 0fbe 40c4 bebd 5439 5f3d 0678 693e
0.090574786 0.014934806 0.093527876 -0.20831195 0.3062429 0.013483706 0.06075245 -0.120157056
-0.15391153 0.10444633 -0.01842474 -0.15740801 0.20928289 0.14472848 0.044818576 0.16363162
-0.22359927 -0.2318429 0.14455187 0.041913543 -0.047669888 0.17548917 0.22082853 -0.020544311
0.26206088 -0.10258129 -0.07030919 -0.047308773 -0.14036901 -0.093147755 0.05449803 0.22799692

weight f4 [32, 32]
00000000: ce15 fbbd 8016 fbbd 3b7c f73c 1f5b 5c3d
00000010: 2bb7 813d 53ae b83c a81d 403e 3ca7 1ebe
00000020: f9cc cabc b9f5 7d3d a652 6a3e 842d 343e
00000030: b4b2 513e c2e3 0dbe d9b3 4dbd 499d bd3d
00000040: a68a 23be 19b7 f4bc 63c4 36bd 67c0 0e3e
00000050: 8a47 80bc bed0 64bd a2bd 17bd 434d 23be
00000060: ac30 593d e00d 1bbe f619 383e 7871 c23d
00000070: 1561 6c3c 178f 00bd 930b fd3d 9631 503e
00000080: 5214 0fbc 60de 2cbe b5d5 053e 5c45 283e
00000090: 0915 e9bd ee4b 06be bf68 9c3c 2e2c 803d
000000a0: 6f9d 02be 38d8 79bd e48c 70bd c360 d13b
000000b0: e3da 163e 193e 1dbe c14e fb3d c7be 9b3d
000000c0: 30ad 03be 9b8f 87bd 5192 703e b69f b8bd
000000d0: 6a0e 6a3d 1abb d93d 0eae b33d 0f9d 81bd
000000e0: ddf9 3f3e 9fbb 333e 6e1e 6e3e 24e5 223d
000000f0: 6319 003e 1cfe 163e b80d 2fbd 6ee8 e63d
00000100: 0400 e5bc 94b4 0f3e abe7 863c 1d2f 07be
00000110: e7f5 f13d 93a0 173d 7b04 533d ef35 8a3c
00000120: 90de d2bc 13db 473e 7c6b 90bd b885 b03d
00000130: c329 9f3c 4814 5ebe e591 59bd ae6c 1fbc
00000140: d58a b43c 1e6b 253e 7f94 99bd c9de 163d
00000150: fded d6bd eeba c33d d48c 543d 8ffd 783d
00000160: 0063 193c 24e3 0fbe 5e6d 133e 931f b8bc
00000170: bfa5 e6bc 314c b73d 4c8d fbbd f7c5 1a3c
00000180: 9fa9 a7bd 6685 36be a07a 3abe 75d3 c8bd
00000190: c94c d2bd be6c 01be 0ff1 4fbd e55f 32bd
000001a0: 91b4 93bd 77af b83c b14d 96bc 1976 c4bd
000001b0: 8772 2b3d e8d4 b9bd edb5 e8bd 00be ebbd
000001c0: 744e 89bb 64a3 debd 8a16 3e3c f96c 50bc
000001d0: f0c0 123e a375 90bd 5bd4 7e3d 4d24 a13c
000001e0: 0bb4 d5bd ea37 16bc 505a 0f3e 495f aebd
000001f0: 2b26 0cbe 5e4d 13be c869 093e bd03 48be
00000200: bbac 33be 205a 503d 5967 33be 9dc5 f23d
00000210: 01de 75bd fd51 b33c cc23 223e 79f4 ae3d
00000220: dc0e b7bd e30c 1bbe 4459 10be 9603 0abd
00000230: f401 1e3d 8644 e33c 92d1 1bbd 5774 1bbe
00000240: e82f c43d 81eb 88bc 8acd 1d3c be34 08be
00000250: 0217 ef3d 10e8 34be 0e51 86bc a2ef 00be
00000260: 9973 e4bd 74fd dbbd 46c5 e9bc 33af 18be
00000270: 642f debd c425 033e f9b3 f83d e8ab 80bd
00000280: d07e 8bbd 4ced d33b 5985 133e 3565 1cbe
00000290: 84c5 7a3d eb81 f43d 48cc e0bd 8b16 7c3d
000002a0: ec2e 0d3e 2d6a 703d 7ac7 0e3e 9e46 00be
000002b0: 2d8e 2dbe 8286 bb3d e1a1 263e 1758 123e
000002c0: 84b0 7c3c 4bc3 203d ff9a 033e d625 38bc
000002d0: 7582 cbbd 4cbc 06be efe8 44bd a025 2dbe
000002e0: baf7 57bd d450 83bc 23fd 473d 9ab9 513d
000002f0: 54d5 bd3a 44bf 2f3e 96ee 233d a873 22be
00000300: 9f06 d8bd 4eb4 053e da0e 1dbe cc3b 30bd
00000310: 45cc 343d aa8c 073e f667 1f3e b32c e8bd
00000320: 4866 053e 9e24 2f3e 6c10 c93b 91c2 01be
00000330: fc52 833d fa34 613d 421e 6a3d d90b 30be
00000340: 67af 64bc 2568 13be 4255 40b7 aad0 d63c
00000350: 74cc e539 b3aa 89bd 9840 17bd 9add bbbc
00000360: 05e9 a5bd cd78 8e3d 7fb7 15be 089e e93b
00000370: 35cf 673d 37db 8fbd f421 fc3d fed1 f3bd
00000380: 1fe1 663c daac 3abe 77cc de3c 0f71 91bd
00000390: 1090 7e3c 1404 ad3d 96eb acbd 7780 b23d
000003a0: 1745 07be 16ae 483e aaca 9ebd 6b8c 423d
000003b0: e857 4d3e d163 33bc d4d8 823d c431 823d
000003c0: c2a3 1d3e 764b 933d 9934 6d3e b05a d33c
000003d0: 32fa a4bd 8fda 633c c8f9 023e 39bf 1cbc
000003e0: fb88 b23c 6c00 30be 168b 703d 556b 1f3e
000003f0: a832 16be dfba 22be 391d 63bc 24db 5cbd
-0.12260018 -0.12260151 0.030210605 0.053797837 0.06333765 0.022544062 0.18761313 -0.15493482
-0.024755942 0.062001918 0.2288309 0.17595488 0.20478326 -0.13856414 -0.050220344 0.092585154
-0.15970859 -0.029872464 -0.044620883 0.13940583 -0.015659112 -0.055863135 -0.037046082 -0.15947442
0.053024933 -0.15142012 0.17978653 0.09494299 0.014427443 -0.03138646 0.12355723 0.20331416
-0.008732872 -0.16881704 0.13069804 0.16432709 -0.11380965 -0.13114902 0.019092916 0.062584266
-0.12755369 -0.060997218 -0.058728114 0.0063897087 0.14731936 -0.1535572 0.122708805 0.07604747
-0.12859035 -0.066191874 0.23493315 -0.090148374 0.057142653 0.1063139 0.08773433 -0.06328785
0.18747659 0.1755204 0.23253796 0.039769307 0.12509684 0.14745373 -0.042737693 0.11274801
-0.027954109 0.14033729 0.01646789 -0.13201566 0.1181448 0.03701837 0.051517945 0.01687142
-0.025740892 0.19517164 -0.07051751 0.08619255 0.019429093 -0.21687424 -0.05311765 -0.009730501
0.022038857 0.16154143 -0.074990265 0.03683356 -0.104946114 0.095571384 0.051892117 0.060788687
0.009361982 -0.14051491 0.14397189 -0.022475993 -0.028155206 0.08950079 -0.122828096 0.009446613
-0.081866495 -0.17824325 -0.1821084 -0.09805957 -0.10268552 -0.12639138 -0.050767 -0.043548483
-0.07212175 0.022544606 -0.018347593 -0.09592838 0.04185727 -0.09073812 -0.113628246 -0.11510849
-0.0041902605 -0.10871008 0.011602053 -0.012721294 0.14331412 -0.070536874 0.062214237 0.01967063
-0.10434731 -0.009168604 0.13999295 -0.08514268 -0.13686435 -0.14384982 0.13419259 -0.19532676
-0.1754636 0.0508672 -0.17519893 0.11854098 -0.060026173 0.021889681 0.15833968 0.08542723
-0.08938381 -0.15141635 -0.14096552 -0.033694826 0.03857608 0.027742635 -0.03804166 -0.15181099
0.0957945 -0.01671386 0.009631524 -0.1330137 0.1167431 -0.1766665 -0.016396072 -0.12591413
-0.11154861 -0.10741702 -0.02853645 -0.14910583 -0.10848883 0.12807375 0.12143702 -0.062827885
-0.06811297 0.006467497 0.14406337 -0.15272982 0.06122352 0.119388424 -0.109764636 0.061544936
0.1378743 0.058695007 0.13943282 -0.12526938 -0.16948767 0.09156515 0.1627269 0.14291416
0.015422944 0.039248746 0.12852095 -0.01123949 -0.09936992 -0.13157767 -0.048073705 -0.16908884
-0.052726485 -0.016029753 0.048825394 0.051202394 0.0014483132 0.17162806 0.040022455 -0.15864432
-0.10548138 0.13057062 -0.15337697 -0.043025777 0.04414012 0.13237253 0.15567002 -0.11336651
0.13027298 0.17103812 0.006135991 -0.12671877 0.064123124 0.054982163 0.057157762 -0.1719202
-0.013957835 -0.14395197 -1.1463942e-05 0.026222546 0.00043830613 -0.067220114 -0.036926836 -0.022932816
-0.081010856 0.06956635 -0.1462078 0.0071294345 0.056594092 -0.07024234 0.123111635 -0.11905287
0.014091759 -0.1823 0.027197106 -0.07101642 0.015537277 0.084480435 -0.08443372 0.08715909
-0.1320995 0.19597659 -0.07753499 0.047497194 0.20053065 -0.010949091 0.06389013 0.06357148
0.153945 0.071921274 0.23164596 0.02580008 -0.080555335 0.013907089 0.12790596 -0.009567075
0.021793833 -0.17187661 0.058726393 0.15568288 -0.14667761 -0.15891598 -0.013861948 -0.053919926

bias f4 [32]
00000000: 0f68 da3d 0518 163e de5f 113e 9ac7 fa3d
00000010: 393f 133d 49f7 25bd cadb 25be 8520 3f3e
00000020: 3ca8 f33d d685 fc3d 3f66 52bd 4d2d 4a3d
00000030: 3a9e 1d3e b072 8abc 7d3a ce3d c9d9 90bc
00000040: 014a 0bbd 1586 96bd 554b 0f3d 7421 b7bd
00000050: cec5 833d 608e f83d ecf9 2dbe ad25 813d
00000060: fb6c a13d 36bf c93d 1a52 573e c6cf bcbd
00000070: cec8 323e 186e e23c beb5 723d e116 bcbc
0.10664379 0.146576 0.14196727 0.12245102 0.035948966 -0.040519033 -0.16197124 0.18664749
0.118973225 0.12330215 -0.05136704 0.04935961 0.1539239 -0.01690039 0.100697495 -0.017681973
-0.034006122 -0.07349793 0.03498395 -0.089419276 0.064342126 0.12136531 -0.16989869 0.06306014
0.078821145 0.09850924 0.21027413 -0.09219317 0.17459413 0.027640387 0.059255354 -0.022960128

weight f4 [32, 32]
00000000: 5506 133e 59e4 133e b409 81bc 6aad 17be
00000010: f5a1 0fbe c9d5 a1bd 9e95 83bd 4a01 28be
00000020: d7a4 923d d5ad c1bd cd45 f93d 09ef af3d
00000030: 0d08 31be b97d a2bd f796 243e 9a46 33bd
00000040: 23c2 87bc 3faa 873d 391e d1bd e9df d0bd
00000050: a2a3 6bbb d4cc f2bd da03 f53d 3361 e0bd
00000060: 90f2 b2bd cda0 89bd 985b 4a3b 0a82 0c3e
00000070: 3008 6bbd e6d1 24be 7f92 563c d29c 313c
00000080: 50fc cbbd 66b0 e7bc c2e1 0fbe a1b5 f8bd
00000090: 1c29 32be bf44 24bd 531b 023e 642a 893d
000000a0: fb7f 57bd 0e4e a63d 703e a4bd 8744 33be
000000b0: 45cc f03d e892 28be 7736 8abd 8ab6 a6bd
000000c0: 8ad6 4d3d a320 8dbd 546a bfbd 0ab9 bebd
000000d0: ae64 9fbd 00fd bcbd cd97 253e e878 03be
000000e0: 8221 77bd ff51 17be 7a50 a33c 37aa 043e
000000f0: 59c2 be3d 46d6 a63d 0ace fdbc 730d d8bc
00000100: 921a 403e dd23 153e 79dc 623e 0545 fabd
00000110: 45fb 953d cac4 363d 949f 2dbe 50aa bc3d
00000120: c8f0 913d cbf8 523d cb92 f0bd 78cc 473d
00000130: baf3 cfbd b953 61bd 33f6 353e 6d8c 033e
00000140: 71d8 2dbd 90a4 b03d 1b58 833d f61d fbbd
00000150: cecd 29bb 4a58 b03c a98e fc3b 8059 5e3d
00000160: 9c1a bcbd f614 0d3e 814e 00be 2287 0ebd
00000170: 8c2d 2e3e 6289 acbd 09dc acbd 1ec4 153e
00000180: a938 5ebd 932b 0b3b 6e11 c9bd 72bc c3bd
00000190: 5017 c8bd 8bf1 c6bd 1782 c9bc 95d4 853d
000001a0: c39e 33be 520d e4bd 2c99 293d c6b7 033e
000001b0: 8201 1bbe 27ce 05be 2927 1b3c 3dd7 07be
000001c0: 653d 023e 3b2f 6e3a 6b45 0dbc 3b29 05be
000001d0: 2980 79bc 4409 92bb 66a7 2cbe 3fa7 f13d
000001e0: 315a bf3c 656a 08be b522 1dbd be8e 03bd
000001f0: ea79 d83d aa12 1a3e 6649 b23d 5c31 a93d
00000200: 2a29 a2bc 8225 a13d 9746 873d 490f 0cbd
00000210: 4c6b 2d3e 6521 26be d010 12be aeed 383d
00000220: eb35 2b3d 8f4c 0c3d 74e3 38bd e3fd f43d
00000230: 4b9f 483e f643 a43d 596e 7d3c cfea b6bd
00000240: c4bb da3d 0881 923c c96e 0bbe bf15 2fbe
00000250: b273 383d 00f2 babd d339 2d3e 62d3 0c3e
00000260: 3d6e f7bc 5c8d 80bd 3983 2c3e 41d1 b7bb
00000270: a97e 323e c806 d4bd 154d a83c 017e 10be
00000280: d53b d93c 5fa7 593c e514 c4bd f6b8 28be
00000290: 4326 f63d 3736 b93d 036a 13be 6037 513c
000002a0: 0375 abbd 8ab1 903d 222f 2ebd 492f 0c3d
000002b0: b43b b8bc 4d79 0ebd 34dc f13c d1d0 e9bd
000002c0: 003f ed3d b855 733d f728 e03d 524f 71bb
000002d0: 1ced bbbd 0ac6 febd dcef 923d 92fb 8abd
000002e0: b4dc e53b f7fc a03c cca6 633d 181c b53d
000002f0: 513e 3cbe f588 09be ae4e 24be a676 9a3d
00000300: d33e 463e 4df8 c3bd ca1d 1a3e 4b28 2c3e
00000310: 8faa 933d ff09 f9bd ee0a c13d 0d86 fabb
00000320: 2d9e 9f3d 8f81 2c3e e166 43be c90a 20bd
00000330: eda6 113e 3fac 8ebc a916 f73d 1bf1 39be
00000340: 8498 a23a e6e1 463c 2d13 2bbe bf30 243d
00000350: 7c20 20be fe64 583e a000 7bbd b683 a7bd
00000360: ae8d 2d3d a13a cf3d 6837 00be 8eec 383e
00000370: a455 a23d 36cc 1fbd aabd 353e 001f 53bd
00000380: 1a30 1d3e 0330 1ebb e368 d03d 9b3a e3bc
00000390: 3b15 1ebe c1fb c3bd 4357 293e 1543 033e
000003a0: fbb1 3bbe e03a 70bd 8eb4 dc3d ce76 41bb
000003b0: bd79 683d 13b4 9b3d e8a2 f6bd 503f 0fbd
000003c0: 60c9 a0bc 737c 87bd ee6c c53d 0a2c 1cbe
000003d0: ba84 b3bc a25f bf3d 9315 123e db76 a0bd
000003e0: 90b8 36bd 7379 1cbc cb2e f93d 6f34 3dbc
000003f0: 38a4 233d caa0 32be 71ac 6c3d 22ae 813b
0.14357884 0.14442576 -0.015751697 -0.14812246 -0.14026625 -0.079021044 -0.064250216 -0.16406742
0.07160347 -0.09456984 0.121715166 0.08590514 -0.17288227 -0.07934136 0.16073214 -0.043768503
-0.016572064 0.06624269 -0.10210843 -0.101989575 -0.0035955687 -0.11855474 0.11963625 -0.10956039
-0.087376714 -0.067201234 0.0030877348 0.13721481 -0.057380855 -0.16095695 0.013096451 0.0108406115
-0.09960234 -0.028282356 -0.14050964 -0.12144018 -0.17398494 -0.040104624 0.12705736 0.066975385
-0.052612286 0.081203565 -0.080197215 -0.1750661 0.11757711 -0.1646229 -0.067486696 -0.08140285
0.05025343 -0.068909906 -0.09346452 -0.09312637 -0.07782875 -0.092279434 0.16171189 -0.12839091
-0.06033469 -0.14777373 0.019935835 0.12955557 0.093144126 0.08146338 -0.030982036 -0.0263736
0.18760136 0.14564462 0.22154416 -0.12220196 0.073233165 0.044621266 -0.16955405 0.09212172
0.071260035 0.0515068 -0.117467485 0.04877898 -0.10153909 -0.055011485 0.17769699 0.12846537
-0.042442743 0.08625138 0.06413289 -0.12261574 -0.0025910023 0.021526475 0.007707436 0.054284573
-0.09184763 0.13777527 -0.12529947 -0.03479684 0.17009562 -0.08424641 -0.08440406 0.14625594
-0.054253254 0.002123569 -0.098177776 -0.095574275 -0.097700715 -0.097140394 -0.024598164 0.065346874
-0.17541032 -0.11135353 0.04140584 0.12863073 -0.15137294 -0.13066922 0.009469786 -0.132657
0.12718733 0.00090860174 -0.008622508 -0.1300401 -0.01522831 -0.004456671 -0.16860732 0.11799478
0.023358436 -0.13321836 -0.038363177 -0.03211855 0.10570128 0.15046182 0.08705406 0.08261368
-0.01979502 0.07868482 0.06605261 -0.034194265 0.16935462 -0.16223677 -0.14264226 0.045148544
0.041799467 0.0342527 -0.04513879 0.119624875 0.19592015 0.08020775 0.015468203 -0.08931505
0.10680345 0.017883793 -0.1361648 -0.17098139 0.04503221 -0.09128189 0.1691659 0.13752511
-0.030203933 -0.06276962 0.16846932 -0.005609662 0.1743113 -0.10352856 0.020544568 -0.14110567
0.026517788 0.013284533 -0.09574298 -0.16476807 0.120190166 0.09043544 -0.14395909 0.01276955
-0.083719276 0.07065113 -0.042525418 0.034224782 -0.022489406 -0.03478365 0.029523946 -0.11416782
0.11584282 0.05940792 0.109453134 -0.003682096 -0.091760844 -0.12440117 0.07174656 -0.067862645
0.0070148353 0.019651873 0.05557899 0.08843249 -0.18383147 -0.13431151 -0.16045639 0.07542162
0.19359903 -0.09568844 0.15050426 0.16812246 0.07210266 -0.1216011 0.09425913 -0.0076453746
0.077938415 0.16846298 -0.19082214 -0.039072786 0.14223833 -0.017416118 0.12064869 -0.1815838
0.0012405072 0.012138819 -0.16706534 0.04008555 -0.15637392 0.21132275 -0.061279893 -0.08179419
0.042371444 0.101186045 -0.12521136 0.18058988 0.07926491 -0.03901311 0.17748132 -0.051543236
0.1535038 -0.0024137504 0.101762556 -0.027737906 -0.15437786 -0.095695026 0.16537194 0.12818559
-0.18329613 -0.058649898 0.107766256 -0.0029520276 0.056756724 0.07602706 -0.12042791 -0.03497249
-0.019627273 -0.06615534 0.09639917 -0.15251175 -0.021913875 0.093444124 0.14266042 -0.0783517
-0.044609606 -0.00955044 0.12167128 -0.011548146 0.039951533 -0.17444149 0.05778164 0.003957526

bias f4 [32]
00000000: cde0 aa3c acd6 b4bd 77a4 503e fe23 03bd
00000010: 1809 263e e284 f5bb ca46 a73d a60e 273e
00000020: 541a d4bd 9d86 48bd ce77 b7bd 9a76 843d
00000030: 19f1 24bd 1076 283e 3cb1 193d e6b3 b93e
00000040: 8d52 dd3d d705 753e 2f45 4d3e dd63 07b9
00000050: 81b3 463d 0c5b 3f3e d31f ebbd a73f 9e3d
00000060: c9a8 eabd 2e87 0b3e 9b23 503e 1c12 7dbd
00000070: ccff d6bd 9e12 3d3b b074 c9bd 3c48 0abe
0.020859146 -0.08830008 0.20375238 -0.032016747 0.16214406 -0.0074926475 0.08167799 0.16314182
-0.10356584 -0.048956502 -0.08958398 0.06467934 -0.04026899 0.16451287 0.03752254 0.36270064
0.10806761 0.23928009 0.20045923 -0.00012911805 0.048511032 0.18687075 -0.11480679 0.077269845
-0.114579745 0.13625786 0.20326082 -0.06178485 -0.10498008 0.0028850208 -0.098367095 -0.13504118

weight f4 [1, 32]
00000000: 584e 033d 85cd 1e3b 987c 68bd 1475 833c
00000010: e71e 21bd b9b8 6fbb b41b 93bd 2175 18bd
00000020: 5b35 2b3c c2e5 81bd f05f 313c 28a5 15bd
00000030: a86c 26bd 3c8b bebc 06d4 b63b d28f 99bc
00000040: 8eaa 91bd 8b22 9abd 6bc9 87bd 9acc 88bd
00000050: 4e0c c8ba 69d0 14bd 83f9 22bd da95 93bd
00000060: edac 10b9 0aad 7cbb 6ecd edbc 2586 87bd
00000070: 8eb9 a23c 3f45 ffbd ad0e 9a3c e808 433c
0.032057136 0.0024231386 -0.056759447 0.016047038 -0.03933611 -0.003657861 -0.07183018 -0.037221078
0.010449733 -0.06342651 0.010826096 -0.03653446 -0.040630966 -0.023259751 0.0055794744 -0.018745337
-0.07112609 -0.0752612 -0.06630214 -0.0667965 -0.0015262456 -0.036331568 -0.039788734 -0.07206316
-0.0001379733 -0.0038555288 -0.02902862 -0.06617383 0.01986387 -0.124643795 0.018805826 0.011903979

weight f4 [1, 32]
00000000: dab2 0bbb fa34 63bc 52ee 06be bb21 90bc
00000010: 04a1 ecbd 8307 21bd ae14 fbbc c415 f4bd
00000020: 6b17 8abd 168e 0bbd 33b8 4a3c 3c59 7abd
00000030: ece7 8b3d bd9b c0bd 09c3 3bbb 5a81 d1be
00000040: 0b24 e2bd 35bd 2abe 5932 e1bd a5fb f2bb
00000050: a336 48bc 165a fbbd 9e09 f93b eb61 aebd
00000060: 362f c2bc d2a3 6c3d 87b2 16be 0139 a53b
00000070: 3c1d 1abc d740 b73d 010f fe3c a93b 8cbd
-0.002131632 -0.013867611 -0.1317685 -0.017594209 -0.11554149 -0.039313804 -0.03064951 -0.11918214
-0.06742748 -0.03407105 0.012373018 -0.061120257 0.06831345 -0.09404705 -0.0028650186 -0.40919
-0.11042031 -0.16673739 -0.10995931 -0.0074152523 -0.012220058 -0.12273042 0.0076000234 -0.0851477
-0.023704153 0.05777342 -0.1471654 0.005042196 -0.009406384 0.08947914 0.031013014 -0.06847317
