models/patient29/switching_model_for_patient_29_Actor.pth (torch, 24039 bytes, 12 tensors)

weight_ih_l0 f4 [64, 2]
00000000: 77bc a3be 08af 1abd 2d29 8ebe 8854 8dbd
00000010: f6f3 8bbe 77fc 9abe 1f9a 1cbe 7909 b9bd
00000020: 2ead 93be e722 58bd 341f 99be 0e6b 62bd
00000030: 2b7a 87bd ff8f 51be 956a 7bbd f336 013e
00000040: 184a f8b9 f367 59be d1a1 28be b8c5 8dbd
00000050: 7f55 0d3e c741 b3be 345c 823d 0621 26be
00000060: 8d09 c9be 55cc 073e 7e97 0abe 71fd a03d
00000070: a396 f7bd 40b0 b23d c43f 8ebe 9de9 853d
00000080: 7297 82be 52b7 eb3c 283f fdbd 5259 b03d
00000090: 4a1d 973d 74ab abbc 72f2 9abd 7288 4ebe
000000a0: e1d6 8abe ffc6 65be f4d1 a33d 4040 0ebd
000000b0: 5a08 cbbe d2b2 9a3c a6df d9be 66f3 2d3d
000000c0: fa76 97be f2ad eb3d b1f1 c7be 729f 8a3d
000000d0: eaa7 8fbc 5c03 92be d92a a2be 56b4 27bd
000000e0: 8f92 c3be 49fa 00be 7b12 75be 21c3 0a3e
000000f0: 6c8f 1bbd 4c39 10be 1462 43bd d90e f9bd
00000100: 44bd 333e 7e30 70bd fa7c 9abe 617a d43d
00000110: 07f9 0a3f 2558 50be 6a4f 683e 6765 483e
00000120: 2614 fbbd 04b5 e0bd 2be3 d03d 9a1f 6f3e
00000130: 08e4 dd3e 77da 2fbd 5542 99be 0f58 8bbe
00000140: 0e46 2dbd 0966 b53d 04e4 2abd fc89 263e
00000150: 9be7 3e3e 63b8 27be eba5 66be 072d 0bbe
00000160: 75f5 973e 3d12 593d ac41 213e 5614 9ebe
00000170: f5bd b9bd 23dd aabd 82db d2be 07af 083d
00000180: 404f d6bd 0232 113e 7999 5bbe 67bf 55bd
00000190: 272a f43d 8ac2 8f3b b0fd b6be 16c0 9dbc
000001a0: d259 9fbd 0ef2 f53d 8073 aabe d0f9 fc3d
000001b0: 0287 5ebe f3b3 2b3d 8391 a9be 6ff6 bcbb
000001c0: aa3b 47be bc39 bdbd 8506 b6bd 2a47 27be
000001d0: a330 4abe d508 9cbe c062 93be 3e62 c5bd
000001e0: 168c 9cbe 4f7c f4bd 4144 d4be d812 7fbe
000001f0: 9143 a5be 713a 74be 3d66 cfbe 1fa7 e13d
-0.31979725 -0.03776458 -0.2776579 -0.06900889 -0.27334565 -0.3027074 -0.15293168 -0.0903501
-0.28843063 -0.05276766 -0.2990662 -0.055277877 -0.066150986 -0.20465086 -0.06138094 0.12618618
-0.0004735745 -0.2123106 -0.16467978 -0.069224775 0.13802145 -0.35011122 0.063652426 -0.16223535
-0.392651 0.1326154 -0.13534352 0.0786084 -0.120892785 0.08725023 -0.27783024 0.06538699
-0.2550617 0.028773937 -0.12365562 0.086107865 0.07378633 -0.020955779 -0.07565774 -0.20169237
-0.27117065 -0.22439192 0.0799903 -0.034729242 -0.3965481 0.018884096 -0.42553443 0.04246845
-0.2958296 0.11507787 -0.39051583 0.06768693 -0.017536122 -0.28518188 -0.31673315 -0.040943466
-0.38197753 -0.12595476 -0.23932831 0.13550998 -0.037978575 -0.14084357 -0.047700956 -0.12161035
0.17552668 -0.058639996 -0.30173475 0.103749044 0.54286236 -0.20346124 0.22686544 0.19569932
-0.122597024 -0.10972026 0.10199579 0.23351899 0.43338037 -0.042932954 -0.2993342 -0.2721562
-0.042303137 0.08857352 -0.04172136 0.16263574 0.18643038 -0.16378932 -0.2252423 -0.13591395
0.29679456 0.05299591 0.15747708 -0.3087489 -0.090694346 -0.0834296 -0.41183096 0.033370044
-0.104643345 0.14179233 -0.21445264 -0.05218449 0.119221024 0.0043872045 -0.35740423 -0.019256633
-0.07780804 0.12009059 -0.33291245 0.123523355 -0.21731189 0.04191966 -0.3311883 -0.005766682
-0.19456354 -0.092395276 -0.08887962 -0.1633574 -0.19745116 -0.30475488 -0.28786278 -0.09637879
-0.30575627 -0.119377725 -0.41458324 -0.24909532 -0.32278112 -0.23850419 -0.4050769 0.11018204

weight_hh_l0 f4 [64, 16]
00000000: 723e afbd 7c9e 743e c494 c0be 7efc 223e
00000010: a972 d4bd c1a0 abbd 9421 0a3e f0e6 93bd
00000020: 4d88 33be ba8a 74be 4186 29be 058a 0ebe
00000030: 539a cc3d 18ee fd3b acc1 3dbd a77e 823e
00000040: 9675 c4bd 0d8e 9b3e f3d5 e9bd 530d a1be
00000050: 8d11 86bc 5f28 92bd 9027 1fbe 7e5e 74bd
00000060: 081f e03d 50c7 8ebe e230 51bd 998d f3bd
00000070: c9e2 3cbe bcc8 063e d9d3 6e3e f066 d63d
00000080: d129 41be 667f b23e 0353 2ebe d191 8dbd
00000090: 10ea e13d de5f 95be af69 023d 4e63 bc3e
000000a0: b651 02bd 3107 43be 5d09 793e 1b00 ca3e
000000b0: 7ee6 b93b 688b f1bc c33c 843e 0503 04bd
000000c0: 93a7 8bbe f588 313d 0e39 353e 1187 fd3d
000000d0: fe74 14be b23e 93bd 7af8 36be 55a3 403e
000000e0: 027e 24be d322 d03d de3b 3f3e 1e82 443d
000000f0: 2f76 17be 6c54 5e3d 9b26 16be 67b4 01be
00000100: 0586 163e 953b 953d 57e6 abbc 9047 99bd
00000110: 2fa5 42be 0308 43be f3ea 39be 7ac1 22be
00000120: fb40 2f3e e4e7 3c3d 95ec 803d 1e2a 34be
00000130: 36c3 31be 3395 5ebb 9716 3e3e 31c6 8d3d
00000140: 9e93 2c3d 9ea3 9a3e 23f4 a23d c7e7 343e
00000150: 1326 ea3d dc71 1a3e 2c94 3b3e e399 0bbe
00000160: 3403 1ebe cdc2 09be 8603 1dbc 7b02 823e
00000170: d59d 7cbe 674a 66bd 8a58 efbc 6f91 27bd
00000180: 1983 cd3b 18be 133e d91f b9bd 9374 cdbd
00000190: 15ac 80bc 090a a43d dab0 9abc de14 f4bd
000001a0: 78e5 f23d 6ea5 d7bd 0b1c 78bd fbb1 be3c
000001b0: 63be 0d3e 02b9 16be b6af 38bd da42 93bd
000001c0: dc36 b53d d3b6 f83d b07d 83be 66df 0ebe
000001d0: 6b27 4e3e 65da e3bd 8e80 27bd 4559 763e
000001e0: 7f18 d1bc 6494 9bbc a435 e03d d59f 833d
000001f0: 8fb7 8ebe d26c 4bbe 1fa9 14be dc6a 9e3e
00000200: 74b2 1cbe d943 423c cf08 59be 954b fd3d
00000210: 956b 5a3e b4ff 7c3d 6f9b 8abe f34e 8f3e
00000220: 7cbf e13c 8444 aebd 79e4 c23c 6171 c53c
00000230: e3f0 69bd cec2 91be 24dc 213c d442 713e
00000240: 8133 763d 9c82 6f3d e39d 503d 3c3b 17be
00000250: 8a9e 02bd d422 96be 9e10 94bc 99f3 a3bd
00000260: 9635 963e 1b36 333c 48e2 3fbd d03b 203e
00000270: dee4 e03d 9a97 87be 3f2e d83d f113 673e
00000280: 0395 66be 9132 cd3d 9506 02be 975b 38be
00000290: 3502 023e 81d2 0d3e 25f8 65be f035 c73d
000002a0: 43e4 d73d 865d 29be 2a7e afbd 9120 8d3e
000002b0: ff31 86be f217 063d 2705 9a3e 2ebe c5bd
000002c0: 6926 1abe 058f 733c ca3f 0f3d 2cfa 203d
000002d0: ee94 0abe 3689 e0bd 8ef7 93be b2b0 f53d
000002e0: 8e54 b4bb 4fdc 92be 5056 a83e 6e8a 513e
000002f0: 734c 77be 6095 403e b66d 0c3a 216a b93d
00000300: e0b5 83be eaf9 863c a6dc e03d 2b44 253e
00000310: 7bed ba3d c9f9 36be 364c 54be e7b3 e83d
00000320: 1778 373e 6a44 46be 43ae 053e b205 933d
00000330: 810a 0ebe 96ba 09be 7989 b4bd a8ca 31bd
00000340: 2dce 7f3d a5f1 953e aa27 abbd e634 a63d
00000350: 1727 1d3a 6229 143e f8a9 153c ed32 0f3e
00000360: c5e3 773e e997 98be 4ca6 20bd e563 8dbd
00000370: b548 6ebd 0269 0ebd cb96 343d 8541 583e
00000380: db7a 9abd dd22 383d bad1 cfbd e02a 59bd
00000390: e312 a0bd f9dc 58be 5da6 59be 8615 d53d
000003a0: 335c 96bb 16cd 14be 4976 1c3d ca4b 803d
000003b0: 9302 bebd d956 c3bd f6fe 30be 5145 a23e
000003c0: 89f3 383d a9b5 c4bd 998e a5be 5458 0abe
000003d0: 8d5e 043e df17 f83d a8f0 b3be e917 69bd
000003e0: 8bb5 85be a464 86be 4843 663e d452 633e
000003f0: 5774 b5bd 1edb aebd bfb5 debd 0d7d 9b3a
-0.085568324 0.23888582 -0.376135 0.1591663 -0.10373432 -0.08380271 0.13489372 -0.07221782
-0.17532463 -0.23881045 -0.1655512 -0.13919838 0.099903725 0.0077493303 -0.046327278 0.25487253
-0.0959274 0.30381814 -0.11417761 -0.31455478 -0.01636579 -0.071366064 -0.15542436 -0.059660427
0.10943419 -0.27886438 -0.05107201 -0.11892242 -0.18445887 0.13162512 0.23323001 0.104688525
-0.18863608 0.34862822 -0.17023854 -0.06912578 0.11030972 -0.29174703 0.03183907 0.36794513
-0.031816207 -0.19045712 0.24319978 0.39453205 0.0056732288 -0.02948542 0.25827608 -0.032229442
-0.27276286 0.043343503 0.17697546 0.123792775 -0.14497754 -0.071896926 -0.17868224 0.18812306
-0.16063693 0.10162892 0.18675181 0.047975652 -0.14791177 0.05427973 -0.14663164 -0.12666474
0.14699562 0.07286755 -0.020983858 -0.074843526 -0.19008325 -0.19046025 -0.18156032 -0.15894118
0.17114632 0.046119586 0.062951244 -0.17594191 -0.17359623 -0.0033963441 0.18563305 0.06922568
0.042132966 0.30202955 0.07956722 0.17666541 0.11433043 0.15082496 0.18318242 -0.13632922
-0.1543091 -0.13453217 -0.00958336 0.25392517 -0.24669583 -0.0562233 -0.029217023 -0.04091018
0.0062717316 0.14427984 -0.090392776 -0.100320004 -0.015707055 0.080097266 -0.018883158 -0.119180426
0.11860174 -0.105296 -0.06057362 0.023278227 0.13842158 -0.14719012 -0.045089446 -0.07190485
0.08848354 0.12144246 -0.2568183 -0.13952407 0.20132224 -0.1112564 -0.040894084 0.24057491
-0.025524376 -0.018991657 0.10947731 0.0642697 -0.2787442 -0.1986573 -0.1451764 0.30940902
-0.1530245 0.011856996 -0.21194766 0.12367932 0.21330102 0.061767295 -0.2707171 0.2798992
0.027557127 -0.08509162 0.023790585 0.024101915 -0.057114493 -0.28468937 0.009879146 0.23560649
0.06010771 0.05847417 0.050931823 -0.1476869 -0.031889476 -0.29323447 -0.01807433 -0.08005447
0.29337758 0.010938193 -0.046846658 0.15647817 0.10981153 -0.2648285 0.10555696 0.22566201
-0.22517781 0.100194104 -0.12697823 -0.18003689 0.12696154 0.13849832 -0.22457941 0.09727085
0.10541584 -0.16539583 -0.08568986 0.2756391 -0.2621002 0.03273768 0.30082056 -0.096554145
-0.15053715 0.0148656415 0.034972943 0.039301082 -0.13533375 -0.10963671 -0.28899807 0.119965926
-0.0055032438 -0.28683707 0.3287835 0.20462963 -0.24150257 0.18806982 0.00053569244 0.090534456
-0.25724697 0.01647659 0.10979585 0.16139285 0.09127327 -0.17868723 -0.20732197 0.11362439
0.17916904 -0.19362035 0.13054757 0.07178821 -0.13871194 -0.13450083 -0.08815283 -0.04340616
0.062452484 0.29285923 -0.08357175 0.08115558 0.00059948995 0.14468911 0.009134762 0.1398427
0.24207981 -0.29803398 -0.039221093 -0.06903819 -0.058174808 -0.034768112 0.04408912 0.21118744
-0.07542964 0.044955123 -0.10147424 -0.053019404 -0.07816102 -0.21178044 -0.21254869 0.10404496
-0.0045886277 -0.14531359 0.038198743 0.062644556 -0.09277835 -0.09538049 -0.1728476 0.3169351
0.04515413 -0.096049614 -0.32335356 -0.13510257 0.12926693 0.12113928 -0.35144544 -0.056907568
-0.2611507 -0.26248658 0.22486603 0.22199565 -0.08860081 -0.08537887 -0.10874509 0.001186283

bias_ih_l0 f4 [64]
00000000: c59d 483c 3d20 813d a32d 6cbd 96b6 00be
00000010: dbeb fdbd 1219 2b3c 0a08 cdbd f3db 363d
00000020: 4bef 82bd 5d3c 6c3e ab30 9d3d aef8 9abc
00000030: 7e0f 27bd be1f a8bd b290 37bd 5ffc 2e3e
00000040: 4fa5 f3bd 0d5a dd3d 3810 303e 40fe aa3d
00000050: a10a 7e3c dbb4 843c 58ba 40bd 6b83 94bd
00000060: 0db8 dcbc e592 3abd bb0e 303e 65b3 3b3d
00000070: e1b5 013e 9203 2e3e 3a03 2fbe 2cb8 f8bd
00000080: 9ee5 d1bd 4e7a ffbc 03fc 983c 9338 3bbe
00000090: f7b7 493e a21b 5bbe a80e 9abd 0ee9 993e
000000a0: 675e 5a3d 7ea7 2fbe 76c9 bfbd 9194 a03e
000000b0: f099 683d 5179 99be cf14 8d3e 9afb 7dbd
000000c0: edbe d83d 7f60 083d fea8 583e adea 80bd
000000d0: 798e e8bd cfc5 273d 2f32 d73d b554 b43d
000000e0: 23ee 443e 1856 6d3d 5628 ab3e ff9f 7c3d
000000f0: 7208 1bbd 0d69 ac3d 8f76 46bd 1a08 6d3e
0.012244646 0.06304977 -0.05766071 -0.12569651 -0.123985015 0.010442989 -0.10011299 0.044643354
-0.06393298 0.23069902 0.07675298 -0.018917408 -0.04078626 -0.08209179 -0.044815727 0.1708846
-0.118967645 0.108081914 0.17193687 0.083492756 0.015505464 0.01619952 -0.04705271 -0.072516285
-0.026943231 -0.045550246 0.17193119 0.04582538 0.12667038 0.1699355 -0.17091075 -0.12144503
-0.10248874 -0.03118625 0.018674856 -0.182833 0.19699083 -0.2139726 -0.07522327 0.3006062
0.053312685 -0.17153737 -0.093645975 0.31363347 0.05678743 -0.2997537 0.27554938 -0.062007524
0.10583291 0.03329515 0.21158215 -0.06294761 -0.113552995 0.04096013 0.10507619 0.08805219
0.19231467 0.057943434 0.3342921 0.06167602 -0.03784985 0.08418474 -0.04845291 0.23147622

bias_hh_l0 f4 [64]
00000000: 4666 9e3d 8c61 9c3e f106 443d ec06 14be
00000010: e4b4 033d 341e 883e 7cfd e53d da21 88bd
00000020: 9de0 893e 7d63 653e 4f51 22bd e6a0 973e
00000030: 76a1 4b3d 54a3 65bb 8777 d43c ae8d 853c
00000040: 3a30 093e f429 8d3e 797c 8c3e c54d 3e3d
00000050: 742f 303e 90e7 96bc 35a7 31be 4ba6 fabd
00000060: 46c3 6d3e b669 3abe 7de9 d2bd 7750 023e
00000070: 8e0e 153d 77dc 923e e447 3c3e aeca 623e
00000080: bbe3 1dbe e14f e33c fee7 66be 3f0a 7cbd
00000090: f4b2 4f3d 3e27 a43d 16b2 4bbd d069 013d
000000a0: cd10 873d 1478 4dbe 6e7b 8b3e 01f0 723e
000000b0: 8cbd 053e bca4 9c3d a3e9 753d 0122 643e
000000c0: f51e aebc d532 f3bd a801 2abd 326d 523e
000000d0: 1513 183d 9254 ed3d 754b 863e 4457 8c3e
000000e0: 6ff1 f13b 04d6 753d 37c0 b83a bd8b 943d
000000f0: 025c 42bd 51bc 9b3c bb7b 463d 41f9 c13d
0.07734351 0.30543172 0.047858182 -0.14455765 0.032154933 0.26585543 0.11229989 -0.06647082
0.2692918 0.22401233 -0.039628323 0.29614943 0.049714528 -0.0035039978 0.025935901 0.01630291
0.13397303 0.2757107 0.27438715 0.046460886 0.17205602 -0.018420964 -0.1734894 -0.12238749
0.23219022 -0.18204388 -0.102984406 0.12726007 0.036390834 0.28683826 0.18386799 0.22147629
-0.15418904 0.02774805 -0.22549435 -0.06153321 0.050707772 0.08015297 -0.049730383 0.03159505
0.06595001 -0.20065337 0.27242607 0.23724367 0.13060588 0.07648608 0.060037266 0.22278596
-0.021254996 -0.1187493 -0.041505486 0.20549467 0.037127573 0.11588396 0.26229444 0.27410328
0.0073835175 0.060018554 0.001409537 0.072532155 -0.047451027 0.019010695 0.048457842 0.094713695

weight f4 [32, 16]
00000000: f004 23be 0a93 32be 101f 143e dc89 87bd
00000010: 0041 813d b82d 28be ac29 083e 2c2e 55be
00000020: 00e1 6d3c 40b2 bd3d f090 2ebd b055 c7bc
00000030: a277 1c3e e4c3 e6bd c0c7 153e e80f edbd
00000040: 60cb 623c 88d6 f7bd a8e5 76bd 1404 99bd
00000050: d830 953d a874 45bd 1486 ddbd 24e6 a73d
00000060: 40b6 21be d2bf 293e 04a8 e0bd 6878 b33d
00000070: 483e 6e3e 3ccb 673e 9034 4d3e 700e f63d
00000080: 463e 043e 9872 c5bd 9089 efbd 68a3 313d
00000090: 14cb 5fbe e467 233e ccd3 123e 7429 b8bd
000000a0: 6077 2f3c 5c39 73be 8c03 95bd 4ada 73be
000000b0: b015 74be 3a51 133e c0ff 6d3c 56ca 52be
000000c0: 60c8 53bd 489e 413e 988b 283d 1402 d13d
000000d0: faec 56be aaf0 793e e6ed 023e 84c9 36be
000000e0: 4829 5abd 9471 483e 0872 5a3e e0a6 adbc
000000f0: acfd ed3d 94a5 51be 0094 243e 52be 583e
00000100: 8931 89be a1a5 573e ca1a 71be 22df 6bbb
00000110: a1f4 3a3e 5ec9 7cbe ee79 36bd 7c9b 953e
00000120: 8a98 40be b2a9 05be 8f5b 0d3c 992e 863e
00000130: aed1 4bbe 0a33 a0be 77d8 963e ce2f 813d
00000140: 81ef 13be 0b44 1d3e 4fb4 0cbd fac2 48be
00000150: e5ad 12be 9028 70bd c005 3dbe b1cd c13d
00000160: ba7d 55be 730c 153e ef8b 303e 928c 873d
00000170: a281 db3d 7ea0 633e be93 91bc 6d28 063e
00000180: deeb d83d 9f55 993e 6603 e9be 1a3a 3e3d
00000190: f28d acbd 9269 f2bc f943 4cbe ef6b ee3d
000001a0: 6187 f6bd ccf7 8cbe f88c 1fbe 72c7 923e
000001b0: f050 79be c999 fa3d 159e 043e 874d 75bd
000001c0: 3016 ecbd 18a2 84bd c8a2 dd3d e0da fa3c
000001d0: f2c8 053e 0e17 6abe fc93 033e 8ecf 173e
000001e0: 3856 123e 40b9 1d3e 94e0 4cbe 4054 7b3c
000001f0: 3cf8 e33d 7415 43be b818 5dbe e0c6 56bd
00000200: f89e 86bd 58c7 df3d a032 2bbe 5c1a debd
00000210: f4c6 e9bd f49f 58be 34a3 a1bd cc7d 883d
00000220: 48fd 2c3d fec9 4c3e a871 39bd 48d8 76be
00000230: 0054 cab9 68ef f73d 948b 123e d0eb 72be
00000240: 7c7a fcbd 9237 22be 660f ffbd 1c97 29be
00000250: 8e10 863e 7308 3bbd a16d 0b3a b33f 3f3e
00000260: 41ce 463e 48ea 783d c8eb 533e 9523 753d
00000270: 0677 423c b04f 9cbd c3f6 b6b9 d30a 9b3d
00000280: 54e8 3dbd 06eb 45be b5c2 17bd 9c47 c13d
00000290: 940e 433e 0409 54be 46c9 873e 6e43 bcbd
000002a0: 75f9 39bc 622f d8bd 00b0 d33c 20fc 493e
000002b0: 2868 1fbe 4b9e 433d 3b55 e93b 5254 553d
000002c0: c8e1 92bd 26d9 00be d0ef a9be c050 6bbe
000002d0: b735 febd fbce 2bbe f787 b4be 7592 8abd
000002e0: a7e1 68be 60b9 6abe 6878 3c3c 544e dc3b
000002f0: c97c a4bc 292c 94be 7cbf a83e 2691 e8bd
00000300: cc69 33be 0054 6d3e 7c2f 2e3c bc9d f53c
00000310: 233c 4e3c 1b7d 923d 5e1e 7bbe de9b 213e
00000320: 872d 513c eddb 8abe 6be0 183e eeab 903e
00000330: 0ac5 c2bd 82a7 983b b778 83bb 648a c13d
00000340: f08c 553e 3e7e 72be 5863 6fbd f01d b33c
00000350: 0a3d 163e 7481 9b3d 5692 00be 141f 8e3d
00000360: 2859 d63d 5c59 5e3e 90e1 8d3d d01d aebd
00000370: 622e 61be 5ec1 513e a833 843d da58 40be
00000380: 84d0 84be 5705 bd3d ff28 2abe 8688 58be
00000390: 93f6 893e 0f93 423e 1926 12bd 69b8 b3ba
000003a0: 5513 7dbe 6c6d be3d ef38 06bd 071f 96bd
000003b0: e37a 0cbe 2976 46be d36c 71bd e0af 4f3c
000003c0: a0ac e13c d073 0ebe 329d 6b3e 706f 63bd
000003d0: 8aac 0fbe 70dc 53be b41f e53d fa2f 1bbe
000003e0: d04e 98bc a8cc e33d 78ba abbd 8e33 62be
000003f0: f8bc 6dbd c0d0 acbb bad6 2abe e86c 4b3e
-0.15919852 -0.17438903 0.14464974 -0.066180915 0.06311226 -0.1642369 0.13297147 -0.20818394
0.014518976 0.09262514 -0.042618692 -0.024332851 0.15280011 -0.11267832 0.1462698 -0.115752995
0.013842434 -0.121014655 -0.06027761 -0.07471481 0.07284707 -0.048206955 -0.10816589 0.08198193
-0.15792179 0.1657708 -0.109695464 0.087632 0.23265946 0.22636122 0.20039582 0.120144725
0.1291438 -0.09640998 -0.1169616 0.043368727 -0.21854812 0.159576 0.14338607 -0.089922816
0.010709614 -0.2375235 -0.07276067 -0.2381374 -0.23836398 0.14386454 0.014526308 -0.20584998
-0.051704764 0.18908036 0.041148752 0.102054745 -0.20988837 0.24408212 0.12786064 -0.1785031
-0.053262025 0.19574577 0.21332562 -0.021197736 0.1162065 -0.2047332 0.16072083 0.21166351
-0.26795605 0.21059276 -0.23545375 -0.0035991152 0.18257381 -0.2468619 -0.044549875 0.29220188
-0.18808189 -0.13053015 0.008627786 0.26207426 -0.19904205 -0.3128894 0.29462025 0.06307946
-0.14446832 0.15357988 -0.034351643 -0.19605628 -0.14324148 -0.058632433 -0.18459225 0.09463061
-0.20848742 0.1455553 0.1724088 0.066186085 0.10718085 0.22229192 -0.017770644 0.13101359
0.10591863 0.29948136 -0.45510405 0.04644213 -0.084255114 -0.029591355 -0.19947805 0.116416804
-0.1203754 -0.27532804 -0.15581119 0.2866779 -0.24347281 0.122363634 0.12950929 -0.05988839
-0.115276694 -0.064762294 0.10822064 0.030621946 0.13064936 -0.22860357 0.1284942 0.1482527
0.14290702 0.15402699 -0.20007545 0.015339911 0.11131331 -0.19051152 -0.2159146 -0.052435756
-0.0657329 0.10926694 -0.1671853 -0.108448714 -0.114149004 -0.21154767 -0.07892457 0.06664619
0.042233735 0.19998929 -0.045274407 -0.24105942 -0.00038591027 0.1210621 0.14311057 -0.23722768
-0.123280495 -0.15841511 -0.12454109 -0.1656155 0.26184505 -0.045662355 0.0005318765 0.18676643
0.19414617 0.060770303 0.20695412 0.059848387 0.011869198 -0.07632387 -0.00034897597 0.07570424
-0.046364143 -0.19327936 -0.03705092 0.094374865 0.1904853 -0.20706564 0.26520747 -0.09192549
-0.011350979 -0.105559126 0.02584076 0.19725084 -0.15567076 0.04775838 0.007120756 0.052082367
-0.071719706 -0.12582836 -0.33190775 -0.22980022 -0.12412589 -0.16778176 -0.35259983 -0.06766216
-0.2274233 -0.22922277 0.011503316 0.0067232046 -0.020079033 -0.28939942 0.3295859 -0.1135581
-0.17520827 0.23176575 0.010631438 0.02998244 0.01258758 0.07152768 -0.24523303 0.15782115
0.012767202 -0.27120915 0.14929359 0.28256172 -0.095102385 0.0046586404 -0.004012193 0.09450224
0.20854545 -0.2368097 -0.05844435 0.021864861 0.14671722 0.075930506 -0.12555823 0.069395214
0.10466224 0.21713775 0.06927788 -0.0850178 -0.2199035 0.2048392 0.06455165 -0.18783894
-0.25940335 0.09229534 -0.16617201 -0.2114583 0.26945934 0.19001411 -0.035680864 -0.0013711575
-0.24714406 0.09298214 -0.03276914 -0.07330137 -0.13718753 -0.19381012 -0.058941673 0.012676209
0.027548134 -0.13911366 0.23009184 -0.055526197 -0.14030662 -0.20689559 0.111876875 -0.1515502
-0.018592268 0.111230195 -0.083851755 -0.22089979 -0.058041543 -0.0052739084 -0.16683474 0.19865763

bias f4 [32]
00000000: fc41 1ebe 9cc3 4abe fc6c 803d ccca 77be
00000010: 1032 893e 1104 4abe 085d 173c 38eb cebd
00000020: 8c86 04be d73a 133e 2f61 8cbe 5dfd 113e
00000030: b13d d43d a6e5 51be 09af afbd ea52 2dbe
00000040: 9512 90bd 985c 293e 5ad6 29be fa80 b1bd
00000050: 96cb 233a f9f1 be3b 50d8 1ebd b71f 963d
00000060: 1344 933d 0a43 3f3e 7b2f 523e 75b6 ec3d
00000070: a95e 093e e0ed 9d3e b200 b83d e376 363e
-0.15454859 -0.19801182 0.06270787 -0.24198455 0.26796007 -0.19728114 0.009238489 -0.10103458
-0.1294195 0.14377914 -0.27417895 0.14256807 0.10363329 -0.2049776 -0.08578307 -0.1692616
-0.07034794 0.16539228 -0.16585675 -0.086671785 0.0006248293 0.005827185 -0.03878051 0.07330268
0.071907185 0.18677917 0.20525925 0.115582384 0.13415016 0.30845547 0.089845076 0.17818789

weight f4 [32, 32]
00000000: dd24 e0bd aa52 ce3c 0f69 fb3d e6ab 31be
00000010: adf5 00bd 14ae 2c3e db2f ebbd 582f a4bd
00000020: 87d5 e7bd 969c cf3d 8ff2 083e f2f4 afbd
00000030: 02e4 4fbd 21ac 21bd 16c6 17be 1e8c f8bd
00000040: d3f8 c4bd 50b5 5c3d 5d74 d03d 4977 f73b
00000050: 9b0b 8bbd 6401 8f3c a062 a93d e152 b63d
00000060: cbca 023e 829d df3d 3258 973d 00e0 4ebc
00000070: 96fd 6cbc d4c5 953d 0547 4d3c 8c0d 04be
00000080: 97a1 243e ca49 733d 3504 b3bc ddb6 2fbe
00000090: 6666 26be 8c4f 68bc 716d 10be 9288 483c
000000a0: 03b4 ca3d b285 073e b542 be3c 2786 a73d
000000b0: e682 b93d 9769 32be 269e bd3c c857 fc3d
000000c0: 70a5 0fbe 531f 00be 00a5 173e f97f 33be
000000d0: 6320 82bd f337 f2bd b722 313d 908e 3fbd
000000e0: a3ef c93d 8626 073e 10ba eabd cd1f 30be
000000f0: fe1c 11be e9f0 0cbe 7a98 ee3d 0775 173e
00000100: a45d 0fbe e970 2f3e 3b03 4dbd bd2e 343d
00000110: 3dc3 703e 8930 7ebc b75d 2b3e a530 1abe
00000120: b4eb 90bd 362a 933d 2232 0ebe a8eb bbbc
00000130: 7504 443e 952e 28be 647a e63d e865 e6bd
00000140: 8196 23be 48fb 883d cd9b a33d 589a f0bd
00000150: aaa7 45be 7970 1abd 7a5d 96bc 8963 1ebd
00000160: a726 ff3d c3a8 4a3c aeaf 963d 0e83 fbbd
00000170: 79b5 babd ecc1 5b3e 0e73 6c3e d1e7 2f3e
00000180: 8676 253b a743 d23d 477b 02be 405c d33d
00000190: fd8a f0bd a6bd 313e ba9f a0bc 589d 0dbe
000001a0: 9641 b93d c1a8 3abe 01f0 253e c30c 49bd
000001b0: 0378 013e 799b 96bd 4b7b 22be 956a 7b3d
000001c0: 380c 093e 75e1 073e 1bb0 eb3d f09b a2bd
000001d0: da6f d23d 3737 32be 65b4 0b3e 5675 bd3d
000001e0: 24c2 c8bc 427e f6bd 2777 f03d 043c 103e
000001f0: e35f d9bb ca8d 633d d744 f13c 4bce b8bb
00000200: 7d9d 63bb 792a cc3d af80 103e 2089 0f3e
00000210: d272 e03d c72f bfbd d2e5 9ebd c96d 3c3d
00000220: 906b a5bc 35d8 2bbc 02b4 90bd 0a07 c13d
00000230: 39e6 0dbe bb6f e23c 29ae 2e3d a2fc 03be
00000240: ed33 ec3d 1e05 8fbd db7e 923d 7d6b 09be
00000250: 66be 483c c466 7abc 62a0 1bbe eae7 49bd
00000260: d1f6 bbbd 136f 193b 516b 193d ad3e 1a3e
00000270: ae1d 95bd e084 c9bc c585 31be 70d4 cf3d
00000280: c28d cb3d 869e 8bbc 4196 34be 8ee3 313d
00000290: 3698 323d d391 363d 8fe5 8a3e d0aa bf3d
000002a0: cf86 14bd 7557 513e 82a2 0d3e 22a6 853e
000002b0: 160e b63c da3c 27be fc1b 80bd 75cf 983d
000002c0: 03ed cb3d 6dc3 533d fcb3 c7bd f3e2 0cbe
000002d0: 85e4 633c 212d 27be a333 06be 5b7f e33d
000002e0: 327d 7a3e 5ae7 e93d b91f c93d ac39 a1bd
000002f0: 9ad7 323e 8374 ed3d 44c0 853e 65d8 463e
00000300: 48c1 313d 3318 fa3d e1c2 1c3e 5734 aabd
00000310: 02db debc f24f 0dbe a7dc 173e 2679 f23d
00000320: 161b 2bbe 5889 9cbd fbf7 ba3d 6294 3dbd
00000330: e923 cebd 7704 173d 095d 26be b00c fc3c
00000340: 863a cebd b111 e53c 3b04 113e 6210 ddbd
00000350: e7ab 01be 1e34 5dbc d128 1c3e edfa b23c
00000360: 9437 733a 463d c63d 1c66 18be 1fc5 ac3d
00000370: 25ca 1ebe 520b 20be 4dec e63d 1faa e2bd
00000380: 61b9 abbd cd2b e23c dffd 833d 954b cabd
00000390: 7c0a 673d 6947 4bbd 6830 d63d f7a8 443d
000003a0: 4559 98bc 5868 e53d 5267 2fbe 88e5 083d
000003b0: 9660 1f3e 6622 9d3d f535 353e 865b 2d3d
000003c0: 04c6 fcbd c6d1 1e3e d127 c03d ec17 00bc
000003d0: 3958 b63c 0d94 0ebe 3f49 233e b19f f0bd
000003e0: 8663 223e 04cb 543d 86ca 8e3c e62d 5fbe
000003f0: 1521 38bd dc0b 82bd 37a2 bc3c 9aad 213e
-0.10944531 0.025185902 0.12275898 -0.1735073 -0.031484295 0.1686328 -0.11483737 -0.080168426
-0.11320024 0.10137288 0.13373779 -0.085916415 -0.050754555 -0.039470796 -0.14821658 -0.121361
-0.09617772 0.05388385 0.101784445 0.0075520617 -0.06789323 0.017456718 0.08270764 0.08902527
0.12772672 0.10918714 0.07389869 -0.012626648 -0.0144647565 0.07313123 0.012529139 -0.12895793
0.16077267 0.059396543 -0.021852592 -0.171596 -0.1625 -0.014179122 -0.14104249 0.012239592
0.09897616 0.13234594 0.023225168 0.081798844 0.0905817 -0.17423092 0.0231467 0.123214304
-0.14027953 -0.12511949 0.14809036 -0.17529286 -0.063538335 -0.11827078 0.043245997 -0.046766818
0.0986016 0.1319829 -0.1146127 -0.17199631 -0.14171216 -0.13763775 0.11650176 0.14790736
-0.14000565 0.17132916 -0.05005191 0.043989886 0.23511977 -0.015514501 0.16734968 -0.15057619
-0.07076207 0.071857855 -0.13886312 -0.022939518 0.19142325 -0.1642402 0.11253813 -0.11249906
-0.15975381 0.06688553 0.07988701 -0.11748189 -0.1930224 -0.03770492 -0.01835512 -0.038669143
0.12458544 0.0123693375 0.07357727 -0.12280856 -0.091166444 0.21460694 0.23090765 0.17178275
0.0025247647 0.1026681 -0.12742339 0.1032033 -0.1174526 0.17357501 -0.019607414 -0.13829553
0.09045713 -0.18228437 0.16204835 -0.049084436 0.12643437 -0.07353873 -0.15867345 0.06138094
0.13383567 0.13269599 0.11508199 -0.07939899 0.1027524 -0.17403875 0.13643034 0.09250896
-0.024506636 -0.120358005 0.117414765 0.14085394 -0.006633745 0.055555142 0.02945177 -0.0056398264
-0.0034731322 0.099690385 0.14111589 0.14017153 0.109594 -0.09335285 -0.077586785 0.046003137
-0.020192891 -0.0104885595 -0.07065584 0.09425171 -0.13857354 0.027641168 0.04264656 -0.1288934
0.115333416 -0.06983398 0.07153102 -0.1341991 0.012252426 -0.01528329 -0.151979 -0.049293436
-0.09177936 0.0023412153 0.03745586 0.15062971 -0.072810516 -0.024599493 -0.17336185 0.10147941
0.099391475 -0.017043363 -0.17635442 0.043429904 0.04360219 0.044572663 0.27128264 0.09358752
-0.036261376 0.20443518 0.13831523 0.26103312 0.022223514 -0.16331807 -0.062553376 0.07461444
0.09957316 0.051700044 -0.09751126 -0.1375845 0.013909464 -0.16325809 -0.13105635 0.111082755
0.2446182 0.1142108 0.09820504 -0.07872328 0.17465058 0.115944885 0.2612325 0.19418485
0.043397218 0.12211647 0.15308715 -0.08310764 -0.02720404 -0.13800028 0.14830266 0.118395135
-0.16709551 -0.07643384 0.0912933 -0.046284087 -0.10065443 0.036869492 -0.16246428 0.030767769
-0.10069756 0.027962537 0.1416177 -0.107941404 -0.12663232 -0.013501195 0.15249945 0.021848166
0.0009277996 0.09679656 -0.14882702 0.08436035 -0.155068 -0.15629318 0.112755395 -0.11067604
-0.083849676 0.027608776 0.064449064 -0.098776974 0.056406483 -0.04962865 0.104584515 0.0480127
-0.018597255 0.112015426 -0.17129257 0.033422023 0.15564188 0.076725766 0.17696364 0.04232361
-0.12342456 0.1550971 0.093825944 -0.007818203 0.022258865 -0.13923664 0.1594591 -0.11749209
0.15858278 0.051951423 0.017430555 -0.21794853 -0.044953424 -0.06349918 0.023026569 0.1578888

bias f4 [32]
00000000: 1146 00be a598 8fbb 7630 563e 4fd4 31be
00000010: 861a 2cbe fa22 5d3e 92ad abbd 8309 88bd
00000020: 54a6 b6bd 5a32 023e 6db2 313e b449 edbd
00000030: dcff d1bd 5a2e 2e3e ccb1 3e3e ab64 6e3b
00000040: cc3d 3c3c 753e 113d d6f5 373e 9908 9c3d
00000050: 4128 9fbd ddaf 373e 1686 003e ae5e c7bd
00000060: 9025 ab3d fbbb 70bc 6165 0b3c e898 6cbd
00000070: 6582 0bbe 5e08 583e e572 553e ca5e 7a3d
-0.12526728 -0.0043822103 0.20916924 -0.17366146 -0.16806993 0.21595374 -0.08382715 -0.06642439
-0.08918443 0.1271452 0.1735322 -0.115863234 -0.102538794 0.17009869 0.18622512 0.003637592
0.011489343 0.035459954 0.17964873 0.076188274 -0.0777135 0.1793818 0.1255115 -0.097348556
0.08356774 -0.014693256 0.008508057 -0.05776301 -0.1362396 0.21096942 0.2084461 0.061125554

weight f4 [32, 32]
00000000: e9c4 5abd 00c2 933d 1c1a 003e 2e06 2ebe
00000010: bcd0 0bbe c867 093e bc9e d2bd 20f4 02bc
00000020: b340 ecbc 701c 413e b192 8f3e d42e 4e3d
00000030: ef02 0f3e dd3a 243e abbc 353d 5fc9 2d3d
00000040: 6970 323e 518c 283d c543 1f3e 1e0c 243e
00000050: 509f 9d3d e50e fc3d 5c7e 69bd 616d 05be
00000060: 294f f0bd 0597 6abc c608 bf3d ea38 c03d
00000070: 1f85 7abb 86bd e43c e2b2 843d f86f f53c
00000080: 87ca 4a3d d2a4 46bc 1beb 85bd 2116 10bd
00000090: d02a d93d 59d1 8c3c 27f5 96bc ba5e 0f3e
000000a0: 2581 89bd 2eb0 c43d dbf8 d13d 02a9 08be
000000b0: 9a44 143e a009 4dbc a1bd ba3d ff6e 273e
000000c0: 7599 da3d c4e4 3ebc 4075 09bd d84e 923d
000000d0: e30e 20be 9678 56bc b5dd 0d3e 8ccd 46bd
000000e0: ca29 0c3e b496 dfbc 88d6 183e d4ba 4e3d
000000f0: 7088 9cbd 7d91 37be e659 a5bd 2ee0 8ebd
00000100: f8b7 d63d 958b 043e 9ffc 073e 5640 503d
00000110: fc60 b33d 8cc2 583e 7925 babc c743 bb3d
00000120: b3cd 16be 2c4d 653e abeb 9ebb 05cf 8c3d
00000130: 4b7a 1b3e 2739 9b3c 713a be3d 6435 0bbe
00000140: d9f3 173e 9fa3 14be 60c2 7e3d f374 29bc
00000150: 2a7b 323e 351f 8a3e 1a75 8cbd b221 d3bd
00000160: a503 183d 5b0b 1fbe 0538 173d a12f bfbd
00000170: f5bb cfbd b88c 4a3e 4fbf 0e3e 8e2c e53d
00000180: ef47 cfbd ab7a 0e3e 234d 363d a291 fc3d
00000190: 0cae ddbd 557b 1ebe f625 a23d 7c26 953c
000001a0: 790c 443d 9f09 00be 6ec4 513d 396b af3d
000001b0: be4d 9fbd 8338 e8bd bf76 83ba d835 363d
000001c0: cdd4 31be adc7 83bd c5a9 83bd 0d36 413d
000001d0: 469f 94bd a91a 343e a8bf 853c bc72 f93d
000001e0: b303 fdbd 7f0a 32be cc60 cabd cfff 103e
000001f0: f8f6 0e3e 9038 4f3b ac9e ed3c a639 c43d
00000200: 654b d4bb c8df b8bd 46fe 713e 7588 243e
00000210: 01dd d23d d460 613e ba59 043e 7b94 ac3d
00000220: ecc3 afbd b23a 153e 41a5 f6bb 8f87 343e
00000230: 99c8 3d3d 603c c63c b9aa ea3d 42d8 66bc
00000240: 81a5 663e 7dfa c2bd 051d ebbc 362a f93d
00000250: da6e c3bc 1cb0 49bd a5cb b1bd df37 c83c
00000260: d189 f7bd c114 903d c11f a2bd 7d3e ad3d
00000270: 537b b53d 26bb 573d 10a2 593e 1bd9 0fbc
00000280: 7f30 c1bd 3251 203e 2482 e93d cfd9 af3d
00000290: 5546 9cbc 4c9c 57bc 9400 04be 396b 0fbe
000002a0: 76b3 e3bd 8f33 7dbd b653 723d 4562 2a3c
000002b0: e50b 2a3e dc0a 07be 52e7 fabd 0e88 78bc
000002c0: 3afe 073d c9f0 543d 8144 ffbd e287 ccbb
000002d0: 082b e6bd 67a4 f63d d32b 473d 14ea 323e
000002e0: 4608 c43d 48d0 273e 92a2 b0bd b223 963d
000002f0: 10c8 18bd a02b 093d 5241 64bd 301e 05be
00000300: ec9b a5bd 6386 713d 168a 12be 02a9 7bbd
00000310: f071 b0bc 4819 68bc aad1 e03d ba10 e3bc
00000320: 6d7f c3bd 6142 30bc cc3b 2abe 28b7 a13d
00000330: 28f1 48bd 2ab9 1dbe 5973 643d 10f9 a63d
00000340: 99de ae3d 90b6 1cbd 9e37 31be 9ba8 fabc
00000350: e4cb cebc 4723 e3bd 224d 153e 83cc 56bd
00000360: fe73 c13d 7390 033e 9918 5ebc a24b b4bd
00000370: fe79 c93d a92f 1f3b 7da8 01be d914 73bb
00000380: a5bb 25bc 5088 123e 3883 62bd 3e0e d4bd
00000390: f1e4 313e 7a89 07be 3efb 0abe 2c79 9bbd
000003a0: 9b00 f0bd a0a2 2dbe 2e09 ff3d 6469 1bbe
000003b0: dc43 c6bd 6b41 f2bc b8b1 69bd 87e0 ca3d
000003c0: d2f0 d53d ec4b 25be 84fd a9bd 3efd 443d
000003d0: 16cc 2dbd 4555 183e 46a4 c5bc 8e9d b9bd
000003e0: 8c8a 313e 7ed3 28bd 1140 d73d 32f7 22be
000003f0: 515b 29be dca4 b83d bd42 b83b 0a93 c93d
-0.053410444 0.07214737 0.1250996 -0.16994545 -0.13653845 0.13418496 -0.102841824 -0.007992774
-0.028839445 0.18858504 0.28041604 0.050337628 0.13965963 0.1603808 0.04436938 0.04242837
0.17425694 0.04114944 0.15553196 0.16020247 0.07696402 0.123075284 -0.05700527 -0.13030006
-0.117338486 -0.014318232 0.09327845 0.093858555 -0.003822632 0.027922403 0.06479432 0.029960617
0.04950955 -0.012124257 -0.065389834 -0.035177354 0.10603869 0.017189668 -0.018427445 0.14000979
-0.067140855 0.09603916 0.102525435 -0.13345721 0.14479294 -0.012514502 0.091182 0.16350935
0.10673801 -0.011651222 -0.033559084 0.071439445 -0.15630679 -0.013090273 0.13854106 -0.04853587
0.13687816 -0.02729354 0.14925587 0.050471142 -0.07643211 -0.17926593 -0.080737874 -0.06976353
0.10484308 0.12943871 0.13279961 0.050842606 0.08758733 0.21167964 -0.022722946 0.09143787
-0.14726906 0.2239272 -0.004849871 0.06875423 0.1518337 0.01894815 0.092884906 -0.13594586
0.14839114 -0.14515541 0.06219709 -0.010342824 0.17429796 0.26976934 -0.06858273 -0.10309161
0.03711285 -0.15531676 0.03691866 -0.09335256 -0.10143272 0.19780242 0.13940166 0.11190139
-0.10121142 0.13913982 0.044507157 0.12332465 -0.108242124 -0.15476735 0.07917397 0.018206827
0.047863457 -0.1250367 0.05121272 0.08565373 -0.077785 -0.11338904 -0.0010029896 0.044484943
-0.17366333 -0.064345695 -0.06428865 0.047170687 -0.072569415 0.17588295 0.01632674 0.12180087
-0.12354221 -0.17386816 -0.09881744 0.14160083 0.13961399 0.0031619407 0.029006325 0.09581308
-0.0064787143 -0.09027058 0.23632154 0.16067679 0.102960594 0.22009593 0.12924853 0.08426758
-0.08582291 0.14573172 -0.007527024 0.17629836 0.046333883 0.02419871 0.11458344 -0.014089646
0.22524072 -0.09520433 -0.028700361 0.12166254 -0.02385657 -0.049240217 -0.0868142 0.024440704
-0.12086833 0.070352085 -0.07916213 0.08459184 0.08861413 0.052668713 0.21253228 -0.008779789
-0.09433078 0.15655974 0.114017755 0.085864656 -0.019076506 -0.013159823 -0.12890846 -0.14005746
-0.11118214 -0.06181675 0.059161864 0.010399406 0.166061 -0.13187736 -0.12251152 -0.015169157
0.033201434 0.051987443 -0.12464238 -0.0062417844 -0.11238676 0.12043076 0.04862578 0.17472106
0.095718905 0.16388047 -0.08624758 0.07331027 -0.03730017 0.03348887 -0.055726357 -0.12999797
-0.0808638 0.05896605 -0.14310488 -0.061440475 -0.021538705 -0.014166184 0.1097749 -0.027717937
-0.09545789 -0.010758013 -0.16624373 0.078962624 -0.04905811 -0.15402666 0.055774067 0.08152974
0.08538551 -0.038260043 -0.17306373 -0.030597975 -0.025243707 -0.11090713 0.14580205 -0.05244113
0.09445952 0.12848072 -0.013555669 -0.08803488 0.09837721 0.0024289882 -0.1266193 -0.0037091284
-0.010115539 0.14309812 -0.05530092 -0.10354279 0.1737249 -0.13236037 -0.13572404 -0.07591471
-0.117188655 -0.16956568 0.12452923 -0.15176922 -0.09680912 -0.02957221 -0.05705425 0.099061064
0.104463235 -0.16142243 -0.083003074 0.048093073 -0.04243096 0.14876278 -0.024126183 -0.09063254
0.17338008 -0.04121732 0.105102666 -0.1591461 -0.1653874 0.090158194 0.00562319 0.098424986

bias f4 [32]
00000000: 2593 103d 2108 49be aaa8 093e 331e a13c
00000010: e9ca 203c c61e 0fbd b2b0 df3d 3eb5 93bb
00000020: 2cbc ca3d 498d 34be daa7 4ebd 57bb b8bd
00000030: ea28 95bc 3232 053e f5ca 15be dbed 78bd
00000040: 635b 97bd b691 1fbe ee14 9ebd 0cf5 93bd
00000050: b6bb 963d 45de d83d 007e 02be 0398 283e
00000060: 2cd1 82bd d886 a3bd 025e 98bd 837d cebd
00000070: 8377 923d 05de 10be 77f1 d7bd ea74 1b3e
0.035296578 -0.19632007 0.13443246 0.01966772 0.009814003 -0.034941457 0.10922374 -0.0045076897
0.09899172 -0.17632021 -0.050453044 -0.09020107 -0.018207986 0.13007429 -0.14628203 -0.06077371
-0.073904775 -0.15582928 -0.07718836 -0.07224473 0.07360022 0.105892695 -0.12743378 0.16464238
-0.063875526 -0.07984704 -0.074398056 -0.10082533 0.07151701 -0.14147194 -0.10544103 0.15181318

weight f4 [1, 32]
00000000: c17b 84bd 64c8 953c 4c39 38bd 308b af3b
00000010: c7ab a6bd ffe6 c33b 593e 953c 79b4 ed3c
00000020: 2806 73bc c86a 70bb d359 713c 55a4 cd3c
00000030: acb7 9e3c 7d83 8dbd e3a6 1dbc de58 febb
00000040: 1321 be3b 177b 2bbc 9224 093b 5985 b73c
00000050: 0653 efbc 70ae ca3b 105b 23bc 9eeb 9cbd
00000060: f3f2 163c cef7 573d 4b80 96bc 4ed1 a8bc
00000070: f7b3 83bd dfec 6abc d4af 14bc de5d 4bbd
-0.06468917 0.01828403 -0.044976518 0.0053571686 -0.08138233 0.0059784646 0.018218206 0.02901672
-0.014833011 -0.003668474 0.014730888 0.025102774 0.019374691 -0.06909845 -0.009622308 -0.0077620586
0.0058022826 -0.010466359 0.0020926339 0.022402452 -0.029214393 0.0061853454 -0.009970441 -0.07662128
0.009213197 0.05272656 -0.018371722 -0.020607617 -0.0643081 -0.014338701 -0.009075124 -0.049650066

weight f4 [1, 32]
00000000: 025f 63be ffdf 5abd f2fc e1bd 69b6 0f3c
00000010: 6ccf 5bbe d4bc fd3b ff40 5a3c c00f dfbc
00000020: 475c 773d b598 8bbb ec8a df3c 9238 21be
00000030: c3fa 513c ea61 2ebe 585d b13b 12dd 1e3c
00000040: 8b11 20bb 6b4d 283b ad30 cfbc 35e4 a3bc
00000050: ddad 3e3c a146 4e3d 37e4 b43c a49b 06be
00000060: 7419 26be 37be 26be 850a c53c 98e9 8bbc
00000070: 9b29 f3bd e083 a7bc 912c 13bd fd90 e6bd
-0.22204211 -0.053436276 -0.110345736 0.008771517 -0.21465844 0.0077434573 0.01332116 -0.02722919
0.060390737 -0.0042601475 0.027287923 -0.15744236 0.012816134 -0.17029539 0.005412739 0.009696262
-0.002442452 0.002568091 -0.025291765 -0.020006279 0.011638132 0.050360326 0.022081478 -0.1314531
-0.16220647 -0.16283499 0.024052868 -0.01707916 -0.1187317 -0.020448625 -0.035931174 -0.11258123
