models/patient27/ppo_model_for_patient_27_Critic.pth (torch, 22684 bytes, 15 tensors)

FeatureExtractor.LSTM.weight_ih_l0 f4 [64, 2]
000000 ce 89 49 bd c3 3b df 3d 89 61 76 bd 39 8b cb be
       -0.049203686 0.109000705 -0.06015161 -0.39754656
000010 d3 b4 a2 be 66 c3 cc be 65 c0 99 be d4 12 62 3e
       -0.31778583 -0.39992827 -0.30029598 0.22077495
000020 7c 7e 38 be 52 69 cb 3d 45 5a 73 bd 9b 62 18 be
       -0.18017 0.09932198 -0.05941226 -0.14881365
000030 f1 39 b3 be 6d ff 46 3e c9 74 08 3d 0d 26 42 bd
       -0.35005143 0.19433375 0.0333145 -0.04739957
000040 e0 04 4c be e5 fe c4 bc 2c aa d4 3d f4 18 8d bd
       -0.19923735 -0.024047324 0.1038402 -0.06889525
000050 82 df b1 be 99 dd 3f be 33 54 91 bc e1 bf 3b bd
       -0.34740835 -0.18736877 -0.017740345 -0.045837287
000060 92 2a 0c be cc 1c e0 bd 56 41 b4 be 3e b3 3e be
       -0.13688114 -0.109429926 -0.35206097 -0.18623063
000070 5f 24 f3 bd 85 be 5c be 4f eb 17 be 09 77 05 3e
       -0.118721716 -0.21557052 -0.14835857 0.1303369
000080 60 68 6b be a2 09 ee bc 4d dd 38 be 01 d5 77 3b
       -0.22989035 -0.029057328 -0.1805317 0.003781617
000090 9d a0 83 be b0 8d 6a be 8e c4 d1 be a4 f7 17 3e
       -0.25708476 -0.22905612 -0.40970272 0.14840561
0000a0 48 a1 a9 be 47 57 8e be 08 76 dd 3d 99 d6 23 bd
       -0.3313086 -0.27800962 0.10813528 -0.03999958
0000b0 0a 80 9c be 9d e2 e2 bd ef 3b bb bd b4 9e 23 3d
       -0.30566436 -0.11078379 -0.09142291 0.039946273
0000c0 3d ea ad be 68 98 34 be d0 2c 39 3d fa 07 08 be
       -0.33967772 -0.17636263 0.045208752 -0.13284293
0000d0 df 9d ac be 05 31 3d bd 2b c2 96 bc 45 4a 3e 3e
       -0.33714196 -0.046189327 -0.018403133 0.18583019
0000e0 1f 19 a5 be d0 0a 26 3e 0c 60 12 be eb 15 4e be
       -0.32245728 0.16215062 -0.14294451 -0.20125549
0000f0 d5 f4 51 be 8f c0 7c bc 2f c5 4b be b2 f2 98 bc
       -0.20503552 -0.015426769 -0.19899438 -0.018670414
000100 8b c9 8c be 73 12 07 be 6d 42 06 3f a9 3a 90 3e
       -0.27497515 -0.13190632 0.5244511 0.28169754
000110 85 5c e1 3d 45 1a 86 3d 3e 0d b9 3e 5e ba 76 3c
       0.11003975 0.06547979 0.36142915 0.015059082
000120 40 d3 ae be 42 62 94 3e 82 ee 1e 3e 5b 92 b3 bd
       -0.34145546 0.28981215 0.15520671 -0.087681495
000130 69 a0 a8 3e c8 ad c3 3d 1c 41 e4 3d d3 d5 59 bd
       0.32934883 0.095546305 0.11145231 -0.053182434
000140 6c fc 20 be a9 9f 8a be f7 9d 00 3e cb 08 89 bc
       -0.15721291 -0.27074936 0.12560259 -0.016727826
000150 61 ba 9f be 16 68 e0 bd 68 aa 96 bd f8 4b a3 3b
       -0.31196883 -0.10957353 -0.07356721 0.0049834214
000160 74 0d 9b be 93 b9 81 be 03 ca 20 3e 34 e0 8c be
       -0.302837 -0.25336894 0.15702061 -0.27514803
000170 9e 19 92 be 94 8b e5 bd f6 d1 8d 3e 06 1e ed bb
       -0.2853517 -0.11208263 0.2769925 -0.007236245
000180 99 b3 cf bc c8 18 84 bc d8 30 f7 be d7 0c 36 be
       -0.025354194 -0.016125098 -0.48279452 -0.17778336
000190 e2 81 e7 be c7 3e 87 bd 3f 1c 9d be 97 c6 55 be
       -0.4521628 -0.06603771 -0.30685613 -0.20876537
0001a0 27 3c 9f be 1c d6 b8 be bf 27 4c 3d 18 b8 8a bd
       -0.3110058 -0.36100852 0.049842592 -0.06773394
0001b0 8a de 2f 3d 99 bb e4 bd 52 15 4b be 7a 8f 3d bd
       0.04293684 -0.11168594 -0.19832352 -0.046279408
0001c0 a9 22 39 bd 38 7a b8 bd 44 5f d3 be e9 78 f1 bc
       -0.04519907 -0.090076864 -0.4128362 -0.0294766
0001d0 b2 da 72 be 69 2c 55 bc 96 5a 2a be 27 b0 56 be
       -0.23716238 -0.0130110765 -0.16636118 -0.20965634
0001e0 7f dd 89 be 95 a0 89 bd 94 b9 d6 be 37 1d d1 bd
       -0.269268 -0.06720082 -0.4193846 -0.102106504
0001f0 5c 1d fa be 1d 88 b1 be 0f 54 ce be 2c 5f a9 bd
       -0.48850524 -0.3467416 -0.40298507 -0.08270106

FeatureExtractor.LSTM.weight_hh_l0 f4 [64, 16]
000000 53 fb 44 3e e5 58 13 bd cc b6 3c 3e d9 d9 7d be
       0.19236498 -0.03597345 0.18429106 -0.24790134
000010 fa 6a 89 3e b6 86 89 bd 44 cb 87 bd 14 b9 4c be
       0.2683943 -0.06715147 -0.06630567 -0.19992477
000020 6a bd 38 3d 9b bd cf bd ad 32 04 be c6 ea b3 3d
       0.045102514 -0.10143586 -0.12909956 0.08785014
000030 9e 5d 9a 3e 1c 4e b7 be 1b 05 05 bd e1 35 13 3e
       0.3014955 -0.3580178 -0.032475572 0.14376022
000040 86 b4 8c bc 55 4b 7f bd 5c 58 c6 bc fc 57 0c be
       -0.017175924 -0.0623277 -0.024212055 -0.13705438
000050 cc 88 2b 3d 28 7d 00 3c 66 d7 0f be a1 a2 b8 bd
       0.041878507 0.00784234 -0.14047012 -0.09015394
000060 ca f8 a6 3e 34 e1 e9 bd e7 2f e2 3d 61 6c e3 3d
       0.32611686 -0.11419907 0.11044293 0.11104656
000070 d7 ca 8e 3e 28 93 2c be 0d 85 3b 3e e1 e8 28 be
       0.2788913 -0.1685301 0.18312474 -0.16495086
000080 f1 4d 9d 3b 00 41 8a 3d 34 7d 51 be d2 e2 9c be
       0.004800551 0.06750679 -0.20457917 -0.306418
000090 33 09 7f bb e1 ea e1 3d 36 19 39 be 5c 73 98 be
       -0.0038915395 0.11031128 -0.18076023 -0.29775512
0000a0 96 3d 17 bd f5 51 3f 3e a6 e0 74 3c 2d 69 9f 3e
       -0.036923967 0.18683608 0.0149461385 0.3113493
0000b0 54 63 b8 bd 15 0d 2f 3e 0e d6 c1 bc e1 28 69 bc
       -0.0900332 0.17094834 -0.02366164 -0.014230938
0000c0 a4 ac 1c bd ca cc 60 be 6c a7 85 be 8c 01 5e be
       -0.03825058 -0.21953121 -0.26104295 -0.21680278
0000d0 9d 59 dd bd ed e2 b5 3c ed 36 88 bd a5 f1 42 be
       -0.10808108 0.022202933 -0.06651101 -0.19037493
0000e0 d0 90 94 3e 16 88 6c bd 02 ee 22 be 8e ca d0 3d
       0.29016733 -0.05774697 -0.15911105 0.10194884
0000f0 e2 8e b0 bc 21 5f 4f be 4b 6c 89 3e 9f 8b 79 bd
       -0.021552507 -0.20251133 0.26840433 -0.06092417
000100 b1 9a 70 bb ef 5e 3f be c6 9b 6b be cc 18 81 be
       -0.0036713297 -0.18688558 -0.23008642 -0.2521423
000110 82 7e 9a 3e d2 88 a1 3e 84 d8 f5 bd c5 ee a7 be
       0.30174643 0.31549698 -0.12004188 -0.32799354
000120 ea 00 48 3e 63 84 9a be 49 7b 29 3e dd 6b 9c 3e
       0.19531599 -0.30179128 0.16550936 0.30551043
000130 a9 a7 fb 3d e3 fd 43 be 41 17 01 3e 13 09 d9 3d
       0.12287838 -0.19139819 0.12606527 0.10597434
000140 0c f9 03 bd 96 d9 af be 1b 23 05 be c5 e9 1a be
       -0.03221993 -0.34345692 -0.13001673 -0.15128238
000150 ab 92 21 be 69 4b a2 3e 91 c5 fa bd 57 1a 38 be
       -0.15778606 0.31698158 -0.12244714 -0.17978798
000160 e5 cb a5 3d 88 43 aa 3c 95 bf 0f 3e 2c 25 be 3c
       0.080955304 0.020784155 0.14037926 0.023211084
000170 f7 eb fa 3d 56 14 55 3c d9 fa 29 3e 0a d4 08 3e
       0.12252038 0.013005337 0.16599597 0.13362136
000180 8c 16 a9 3d 34 74 90 be 34 ea f6 bd bc c6 68 bd
       0.082562536 -0.28213656 -0.120563895 -0.056830153
000190 58 28 93 bd 13 07 26 3e 7c 8a 6e be 22 e5 51 be
       -0.07185429 0.16213636 -0.23295015 -0.20497563
0001a0 8d 50 22 3e b6 02 93 3d 7e e0 b2 3b 52 93 a8 bd
       0.1585104 0.071782514 0.0054588905 -0.08231224
0001b0 c0 3b e8 bd 56 e6 8e be c3 09 1a bd cc 26 68 be
       -0.113395214 -0.27910107 -0.037606966 -0.2267105
0001c0 f6 ef 95 3e e6 88 8a bd 80 7d 6d 3d 8b 42 91 be
       0.29284638 -0.067643926 0.057981014 -0.2837108
0001d0 b0 c6 ba bc fb 5b 45 3e 46 8f a3 bd 4f 4a 92 be
       -0.02279982 0.19273369 -0.079863116 -0.28572318
0001e0 0a fa 6d bd c2 78 4b be 1b 5b 41 3d 96 3f 13 bd
       -0.058099784 -0.19870284 0.047206026 -0.035949312
0001f0 b9 4c cd 3e 63 81 93 bc c4 e8 26 3e 8b 25 94 3d
       0.40097597 -0.018006032 0.1629973 0.07233723
000200 6d 9b 0c 3d 78 24 86 be c0 a0 32 3d c5 dd 1d be
       0.034327913 -0.26199698 0.043610334 -0.1541663
000210 95 43 c9 3d 48 76 33 be 1d f3 3b be 77 7f 53 3d
       0.098273434 -0.1752559 -0.18354459 0.05163523
000220 c8 3a b0 3d 9a 54 1a be 3b 58 af bd d8 b0 26 3e
       0.08604962 -0.15071335 -0.085617505 0.16278398
000230 1c cf a9 bd f3 c8 2f be 8f e5 01 3e 86 81 3b 3e
       -0.08291456 -0.171665 0.12685226 0.18311128
000240 ef 73 9a bd b2 29 d8 bc dc 9e b8 be 49 bc 6e 3c
       -0.07541644 -0.02638707 -0.360587 0.014571258
000250 4e 5f 6f be 53 f9 50 3e 8f d6 b6 bd 17 50 a3 be
       -0.233762 0.2040761 -0.089276426 -0.3189704
000260 c6 db 13 bd 87 da 90 bd 61 67 ed bd 20 72 b7 bd
       -0.036098264 -0.07072931 -0.115919836 -0.089573145
000270 13 4a 14 bd b1 f5 84 3e 57 fb bb 3e 44 af 79 be
       -0.036203455 0.25968698 0.36715195 -0.24383265
000280 23 9b 7f 3c 61 c2 2f 3d 6d 2d 59 be 9d 54 8a 3d
       0.015600952 0.042909984 -0.21208735 0.0675442
000290 05 15 96 3e 24 07 30 be 4c 04 93 be 13 d8 f1 3d
       0.29312912 -0.17190224 -0.28714216 0.11808791
0002a0 74 80 45 be 8a ab 4e bd 9b e1 4b 3e 5e a5 83 bd
       -0.19287282 -0.05045656 0.1991028 -0.06428026
0002b0 2c 41 30 3e a5 49 92 bc 76 96 a4 3d 48 1c 93 bd
       0.17212361 -0.017857382 0.08036511 -0.071831286
0002c0 63 c7 9d 3e 91 32 19 be a3 58 e2 3c ac 87 8e be
       0.30816182 -0.14960696 0.027630156 -0.27837884
0002d0 7f 08 cd bc 74 5f 1f bc f6 d6 e6 bd 85 16 4f be
       -0.025028465 -0.009727348 -0.11271469 -0.20223434
0002e0 73 8e 55 3d aa 72 1f bd 01 83 72 3e 83 75 6a bc
       0.052137803 -0.03892771 0.23682787 -0.014310244
0002f0 69 63 32 3d 5f fc a4 be 04 57 0f 3e de e7 f4 3d
       0.043551836 -0.32223794 0.13998038 0.11958288
000300 e2 2e 10 be c8 2a 1d bd d5 50 45 be b1 08 6f be
       -0.14080384 -0.038370878 -0.19269116 -0.2334316
000310 3c c2 e8 3d cb ea 6e 3d fa d2 4f be fc f0 17 be
       0.11365172 0.058329385 -0.20295325 -0.14838022
000320 27 06 a6 bd e2 6a 70 be ca 29 ae bd 03 5a cd 3d
       -0.08106642 -0.23478273 -0.085040644 0.10026934
000330 2b 0c a6 3e 5b 72 9a 3d 39 43 bb 3e 85 41 1d bd
       0.32431158 0.07541343 0.36574724 -0.038392562
000340 b5 5c 90 3d dd 88 1d 3d 5e 72 51 be 2d 9b b9 3d
       0.070489325 0.0384606 -0.20453784 0.090628006
000350 06 cb b3 3e 7a ca 38 3e 28 92 94 be 5b 77 a3 3d
       0.35115832 0.18045989 -0.29017758 0.079817496
000360 94 63 b0 bd dd 6c 4d bd be 00 0e be 73 ab dc 3d
       -0.08612743 -0.05015265 -0.1386747 0.10774889
000370 14 8d c3 3d 98 aa 86 be 50 8d 65 3e 02 ab fc ba
       0.09548393 -0.26302028 0.22417188 -0.0019277039
000380 ed 68 76 3e 92 78 99 bd 34 12 d4 be 29 8a 92 be
       0.24063464 -0.074937 -0.41420138 -0.28621033
000390 14 9a 04 bc 54 44 6e 3d 8f 34 10 3d 74 e6 ee bc
       -0.008093376 0.05817063 0.035206374 -0.029162623
0003a0 4a 93 53 3c f1 fe 45 be f8 cd 8c 3c ee 39 89 bd
       0.012913534 -0.19335534 0.017188057 -0.06700502
0003b0 4c 27 2f 3d 1e d4 1a be 31 f3 13 3c b5 6f b7 bd
       0.042762086 -0.15119979 0.009030149 -0.08956853
0003c0 bc 77 b7 3e 49 c7 f5 3d 3b 2c 4c 3e 5f fb 8c be
       0.35833538 0.12000901 0.19938748 -0.2753553
0003d0 a1 4b 67 3e 1b ca c9 3d d8 3e 14 be a7 3f 15 3e
       0.22587444 0.09853002 -0.14477098 0.14575063
0003e0 6e b0 50 3e 81 f8 8f bd 17 4d c8 bd 7f f5 91 3e
       0.20379803 -0.0702982 -0.09780329 0.2850761
0003f0 e0 1e 37 3e a8 fb d7 bd 08 4a c2 bd 46 a4 6a 3b
       0.17882872 -0.105460465 -0.094867766 0.003580348

FeatureExtractor.LSTM.bias_ih_l0 f4 [64]
000000 18 b1 84 3e bb c9 b0 3d f5 19 40 3e 59 ad ad bd
       0.25916362 0.08632227 0.18759902 -0.08480329
000010 a5 b3 f5 3d 33 30 fa 3c 13 dd 43 be 2a 58 07 3d
       0.11997155 0.030540561 -0.19127302 0.033043064
000020 63 71 2c 3e 55 24 30 3d 45 20 53 3e 71 57 c2 3d
       0.16840129 0.0430034 0.20617779 0.094893344
000030 87 27 90 3d a1 06 cb bd 05 51 85 3e 1e a8 88 3e
       0.07038789 -0.09913374 0.26038375 0.26690763
000040 0d 0e 2d 3d 61 0e 51 3e 50 95 8e 3c d1 1f 15 be
       0.042249728 0.20415641 0.017405182 -0.14562918
000050 cc c9 ec bc 9f b4 85 3e 62 8c f0 3b 0a 11 4b 3d
       -0.028904818 0.26114365 0.0073409537 0.049576797
000060 12 c5 b7 3e 1b 84 c0 3e e4 87 ba 3c 77 92 0b 3e
       0.3589254 0.37600788 0.022769876 0.1363009
000070 fe d6 98 3e cd 81 bf bd e6 7e 64 bd a1 75 27 bd
       0.29851526 -0.093509294 -0.055785082 -0.040883664
000080 81 09 82 3d 5d 58 0c 3e 12 3f 9f 3d 4f c4 46 3e
       0.06349469 0.13705583 0.077757016 0.19410823
000090 fb b2 23 bc 3c 3b 11 3e 94 70 c0 bd fb e2 5d be
       -0.009991403 0.14182752 -0.093964726 -0.21668617
0000a0 04 65 f9 3d d6 39 83 bd 5e 40 49 3e 44 ef 41 be
       0.1217747 -0.06407516 0.1965346 -0.18938929
0000b0 48 c1 b3 3c 2c bc 4f 3d b1 bd 85 3e d4 24 05 be
       0.02194275 0.050716564 0.26121286 -0.1300233
0000c0 63 dd 99 3e 57 44 4e 3e b9 cb a1 3e 08 c2 ac bd
       0.30051717 0.20143257 0.3160074 -0.08435446
0000d0 8d 08 96 3e 08 2c 80 3d 63 95 14 3e 79 c2 b1 bc
       0.293034 0.06258398 0.14510112 -0.021699177
0000e0 69 55 75 3e 70 68 73 3d 28 2b 07 be 4e 7f 91 bd
       0.23958363 0.05942577 -0.13200057 -0.071043596
0000f0 e9 d9 0f bd 3b 9c 36 3e 0d 60 a5 bd ff b1 8a 3e
       -0.035119925 0.17833035 -0.08074961 0.27088925

FeatureExtractor.LSTM.bias_hh_l0 f4 [64]
000000 4e 53 ba bd b3 8b b0 3d 9a 30 be 3e c7 01 d6 bc
       -0.0909792 0.086203955 0.37146455 -0.026123894
000010 aa 26 4b 3d 9e 03 9c 3d 36 6a aa bc 75 c0 be 3d
       0.04959742 0.076178774 -0.020802598 0.09314052
000020 f1 3f 34 3e 02 fa cc bc 7b 46 26 be bd 8c 52 be
       0.17602517 -0.025021557 -0.16237824 -0.205615
000030 91 02 d0 bb 6e 85 a4 3e bd 3c 45 3c a7 0c 5a be
       -0.006347962 0.3213305 0.012038407 -0.21293889
000040 52 2e 49 3e af a2 8a 3e b8 03 97 3c 62 ff 88 3e
       0.19646576 0.27077243 0.01843439 0.26757342
000050 1d 8b 16 3d 9c 9e 53 3d 6e b7 22 3e 25 1c 97 3e
       0.036753763 0.051664934 0.15890285 0.2951366
000060 1f e3 c8 3d 21 b9 c5 3e 64 ea 6d 3e 41 ff c0 bd
       0.09808945 0.38617805 0.23233944 -0.09423686
000070 fd 5e 7d bd 37 72 94 3e 7e d4 09 3e 5c 83 f1 3b
       -0.061858166 0.2899339 0.13459966 0.0073703956
000080 ae 65 13 be 1e 98 9f be 69 d1 b6 be 02 53 4b be
       -0.14394256 -0.31170744 -0.35706642 -0.19855884
000090 c9 67 8b bd 9a af a0 3e 48 79 06 be 23 6f e4 3d
       -0.06806905 0.31383973 -0.13132203 0.1115401
0000a0 ea 37 78 3e 13 52 1e be a9 89 87 3d 67 01 65 3e
       0.2424008 -0.15460996 0.066180535 0.22363816
0000b0 bb c1 07 3e 4a b9 71 3d 11 07 01 be c3 f7 81 bd
       0.13257496 0.059014596 -0.12600352 -0.06346085
0000c0 66 f2 cd 3d ce 71 06 3e 1f 79 d4 3e 3b 98 7a 3e
       0.100559995 0.1312935 0.41498658 0.24472134
0000d0 e6 1e ac bd e4 81 3d bd dd a7 13 3e b2 3a 4f 3d
       -0.08404331 -0.04626645 0.14419504 0.050593086
0000e0 f7 4d 90 3e 10 a7 cc 3e 9a 7e 8f bd 4a 62 1d 3e
       0.28184482 0.3997121 -0.07006569 0.15369526
0000f0 9c 21 c7 3c 1b e7 30 bd ca 55 9c 3d 6d c3 38 be
       0.024308018 -0.04318915 0.076335505 -0.18043299

GlucoseModel.fc_layer1.weight f4 [16, 17]
000000 a0 d3 3d be a9 de c4 bd 99 1b f7 3d 76 0f 9a 3d
       -0.1853776 -0.096127816 0.12065811 0.0752248
000010 00 1b 30 be db a9 0c be c4 8b 35 3c bd a4 0c 3e
       -0.171978 -0.1373667 0.011080686 0.13734718
000020 94 e9 89 bd 91 e5 05 3e 83 af 5e 3b 22 df 47 bc
       -0.067340046 0.13075854 0.0033979125 -0.012199195
000030 33 00 21 be 51 f4 4e 3e bd f1 67 be 3f 11 10 be
       -0.15722732 0.20210387 -0.2265081 -0.14069079
000040 ec ee 3c 3e d5 fe ba bc 17 d7 5c 3e f3 93 95 bc
       0.18450516 -0.022826592 0.21566425 -0.018259024
000050 fc 40 66 be a5 53 5e 3e 62 73 fa bd 09 96 6e 3e
       -0.22485727 0.21711595 -0.12229039 0.23299421
000060 42 02 09 3e 0e ff b3 bd e6 7a 4b be c5 f4 87 3d
       0.13379768 -0.08788882 -0.19871101 0.06638483
000070 2b d3 32 3e d2 97 51 3d 1f 7d ad 3c 07 27 08 3e
       0.17463367 0.051170178 0.021177826 0.13296138
000080 89 87 29 be a4 94 50 b7 28 6f 75 bd 0e f7 0d bd
       -0.16555609 -1.2432374e-05 -0.05992046 -0.034659438
000090 2a 9a 2e be 99 5b 0f be 18 71 8a 3d 84 80 51 3e
       -0.17050996 -0.13999785 0.06759852 0.20459181
0000a0 ea d5 cc 3d 5c 62 d5 3c b8 32 43 3e 50 bc 85 bd
       0.10001738 0.026047878 0.19062316 -0.065300584
0000b0 d1 51 a9 bd d8 8b 62 3e 15 f8 af bd 71 75 02 3e
       -0.08267558 0.22123659 -0.0859224 0.12740113
0000c0 88 dc 35 bd 46 ed d4 3d af dd 03 3e 97 d4 93 bc
       -0.044399768 0.10396819 0.12877534 -0.018045707
0000d0 27 79 94 3d 70 83 ab bd 98 29 67 be ea d5 e1 bd
       0.072496705 -0.08374679 -0.2257446 -0.11027129
0000e0 1d 53 a2 bd 24 a8 f4 3d 6c 5e 6b be cd 6d 8b 3d
       -0.07926009 0.11946133 -0.22985238 0.06808052
0000f0 ea b5 e1 3d 7a e9 77 3e a9 81 f2 bc cf 28 11 be
       0.110210255 0.24210158 -0.029602842 -0.14175723
000100 21 9f a3 3d c0 b7 85 3d 11 3b 77 bd a2 d9 08 3e
       0.07989336 0.06529188 -0.060359064 0.1336427
000110 6f 7d 1f be e3 60 c9 bc 43 75 08 3e 61 0b 62 3e
       -0.15575193 -0.024582332 0.13325982 0.22074653
000120 ab 80 06 be 17 b7 44 3e bc 64 31 bc 36 c0 3e bd
       -0.1313502 0.19210468 -0.01082724 -0.046570025
000130 cc 76 e8 bd 95 5a 34 3e ea 3a ff bc 89 8b 59 3e
       -0.11350784 0.1761268 -0.031156022 0.21244635
000140 f1 87 05 bb 94 ef 75 bc 86 12 15 be 29 05 3d 3e
       -0.0020375217 -0.015010733 -0.14557847 0.18459
000150 58 e4 06 3d a6 3f 75 3d 08 68 43 3d cf 26 66 3e
       0.03293261 0.059875153 0.047706634 0.22475742
000160 b9 6e d6 3c 73 5a 50 be a5 9c 1f be 9d e2 72 3c
       0.026175844 -0.20347004 -0.15587099 0.014824537
000170 3a 37 3a bc 75 ce 67 3e dd 9f 47 3d 17 0c 49 be
       -0.011365706 0.22637351 0.048736442 -0.19633518
000180 f0 83 61 bd b0 73 22 be 38 49 ec bd 8f 18 f8 3c
       -0.055057466 -0.15864444 -0.11537403 0.030285148
000190 d2 f3 4c 3e 23 86 cc bd 73 89 03 3e af 56 56 3d
       0.20014885 -0.09986522 0.12845401 0.05232876
0001a0 75 dc 5a be d2 27 4e 3e ca a3 64 bd 57 9d 5b 3e
       -0.2137316 0.20132378 -0.055820264 0.21446739
0001b0 3f 20 5b 3e 98 8b 41 3e fc e3 68 3c 47 f5 42 3e
       0.2139902 0.18900907 0.014214512 0.19038878
0001c0 88 20 f0 3c 42 11 33 3e b8 45 f8 3d c4 d3 1d bc
       0.029312387 0.17487052 0.12122673 -0.009633008
0001d0 4f 0d 56 3e d5 a0 cf 3c 32 d4 ac 3d 27 1a b1 bb
       0.20903514 0.025345245 0.084389105 -0.005404729
0001e0 e4 88 6e 3c 1c 61 f0 bd 3c 53 aa bd 6e 33 a3 3d
       0.014559004 -0.11737272 -0.08316657 0.07968794
0001f0 b8 55 78 3e a3 da 4e 3e 6f 5b 33 3e f5 3e 18 3d
       0.24251449 0.20200591 0.17515348 0.037169416
000200 3e 42 9e 3d 6f 8e 3c 3e 72 ba 02 3e 6b ab f7 bd
       0.077274784 0.18413709 0.12766436 -0.12093242
000210 1f ad 0a be 1d 61 45 bd c3 9b 41 bd 4d cc bc 3d
       -0.13542603 -0.048188318 -0.047267687 0.09218655
000220 3b df 71 3e 93 d0 00 be 2a 90 71 3e 81 7b a8 3d
       0.23620312 -0.12579565 0.2359015 0.082266815
000230 bb 56 d1 3d 43 2c 33 3e 0d b9 27 3e 43 08 09 3e
       0.10221621 0.17497353 0.16379185 0.13382058
000240 a3 f7 39 3e 4b 0f c4 b9 7a 4b 95 bd d6 db 03 3d
       0.18160872 -0.00037395427 -0.07289787 0.032192074
000250 06 ae 0a be fd 85 2a 3b c9 3a 0d bb bb f4 a3 bd
       -0.13542947 0.0026019805 -0.0021549931 -0.08005663
000260 d4 b3 7c bd d7 d2 00 3e 61 8b 4a 3e 76 df 57 be
       -0.061694935 0.12580429 0.19779731 -0.21081337
000270 c1 b8 80 3d 35 70 eb 3d 56 d9 75 be 73 c7 ac bd
       0.06285239 0.11496011 -0.24008688 -0.084364794
000280 58 cc ff 3d a7 77 83 bd 67 2c 63 be fb 48 f3 3d
       0.12490147 -0.06419306 -0.22184907 0.11879154
000290 77 f1 16 be 07 77 be bd 78 ce 47 3e 77 6e 40 3e
       -0.14740549 -0.093000464 0.19512355 0.18792139
0002a0 8c 81 c7 bd d0 86 68 be c7 12 3e 3e 13 ad 25 3e
       -0.09741506 -0.22707677 0.1856185 0.16179304
0002b0 3f c7 63 be df c1 b8 bd e7 0b 80 3c 5f dc 10 3e
       -0.22243975 -0.09021353 0.015630675 0.14146565
0002c0 02 11 60 bc 36 ef 55 3d 0b b8 eb 3d bc 9d 06 3d
       -0.01367593 0.052230082 0.11509713 0.03286527
0002d0 25 1c 1f 3e f2 f6 58 be 62 46 db 3a c1 40 42 be
       0.1553808 -0.21187952 0.001672935 -0.18970014
0002e0 a3 c0 b6 bd 1b ce 2b bd 3d 58 b2 3c 8b 67 4f 3e
       -0.08923461 -0.041944604 0.02177059 0.20254342
0002f0 69 92 5e ba a8 c7 6b bd 8f 30 73 3e 64 67 68 be
       -0.0008490445 -0.057563454 0.23748992 -0.2269569
000300 0f ea 4e be 1d 7f 02 be 74 3c 66 be 40 05 54 3e
       -0.20206474 -0.12743802 -0.22483999 0.20705128
000310 89 72 3d be 18 35 8b bc e7 6e cb 3d bf bb 09 be
       -0.18500723 -0.01699309 0.09933262 -0.13450526
000320 0f 1d 43 3d 3d 16 bb bc 4d a8 29 be e8 2b fb bd
       0.047635134 -0.022837752 -0.16568108 -0.12264234
000330 76 91 56 3e b8 b1 5c be 1b 4b 6e be bb cd 2e be
       0.20953926 -0.2155217 -0.23270838 -0.17070667
000340 66 ff 24 be bf a6 c6 3c a1 c9 8b 3d 61 f6 8f 3c
       -0.16113052 0.024249433 0.06825567 0.017573537
000350 a9 b1 4f 3d df c9 07 3d 8d 5a d1 3a 78 7e 26 3e
       0.05070654 0.033151504 0.0015972421 0.16259181
000360 79 53 7f bc 19 40 2c bd dc da e0 bd 45 df 95 3d
       -0.015583866 -0.042053316 -0.10979244 0.07317976
000370 d0 f2 88 bd 33 df c1 3d 2d 73 76 3e a5 0f ae bd
       -0.06686938 0.094664 0.24067374 -0.08499078
000380 62 29 d4 bd 0f 41 58 bc 5c b6 ad 3b 57 4d 26 3d
       -0.10359456 -0.013199105 0.00530128 0.0406011
000390 f3 e6 11 3e 5b a0 3c 3e 54 1d 08 be bb bf 5e be
       0.14248256 0.18420546 -0.13292438 -0.21752827
0003a0 34 90 22 be aa 66 d9 bd ad e9 54 be 77 7f 35 3e
       -0.15875322 -0.10615285 -0.20792265 0.17724405
0003b0 50 e7 72 bd 28 11 4c 3e fa ac 0e be 90 61 f8 bc
       -0.059302628 0.1992842 -0.13933173 -0.030319959
0003c0 cc 66 18 3e b5 c6 a3 3d 3a d0 21 be c5 b0 de 3d
       0.14882964 0.07996885 -0.15802088 0.1087356
0003d0 83 da 4b 3c 81 fd e6 bd 50 0b 88 bd d3 56 8e 3d
       0.012442234 -0.11278821 -0.06642783 0.06950154
0003e0 e2 77 bc bd a2 9f 89 3c e5 5c 76 be fb d1 3d bd
       -0.09202553 0.016799752 -0.24058874 -0.04634283
0003f0 18 f4 8a 3c 96 e6 0a be c8 13 a2 3d 89 79 c0 3a
       0.016962096 -0.13564524 0.07913929 0.0014684658

GlucoseModel.fc_layer1.bias f4 [16]
000000 c3 c1 77 3e 95 09 68 bd 06 af 1d 3e 09 9a 6a 3e
       0.24195008 -0.056649763 0.15398797 0.22910322
000010 48 00 0f 3e 0c 66 c7 3d d4 01 8b 3d 8e d2 5f ba
       0.13964951 0.09736261 0.06787458 -0.000853815
000020 22 66 62 3d aa 08 49 3d 6a e7 e3 3d 0f f4 f3 3d
       0.055273183 0.04908053 0.11128123 0.11911785
000030 fa b4 5e be 73 a3 34 3d ed 49 96 bd f7 4a d2 bc
       -0.21748725 0.04410119 -0.07338319 -0.025670512

GlucoseModel.cgm_mu.weight f4 [1, 16]
000000 ee de 79 3c df 9a 1e 3d 44 21 e0 3c e2 0c 51 3c
       0.0152509045 0.038721915 0.027359612 0.012759419
000010 a3 05 77 3c 7f 2e 0d bd 66 31 e9 bb 90 c8 dd 3b
       0.0150770275 -0.03446817 -0.0071164845 0.0067682937
000020 89 fb dc 3c b0 60 a7 3c 15 f4 78 bc 9a 28 23 bc
       0.02697541 0.020431846 -0.015194912 -0.009958411
000030 fc 87 14 3d d0 f8 1c 3d c4 22 9f 3c 97 66 0e bd
       0.036262497 0.038323224 0.019425757 -0.034765806

GlucoseModel.cgm_sigma.weight f4 [1, 16]
000000 84 31 cd 3c fb f3 a9 bc 49 f1 9d bc 17 75 0d 3c
       0.025048025 -0.020746222 -0.019280093 0.008633873
000010 55 4d c2 3b d7 e2 1f 3d 22 77 b3 bb 35 c3 b2 bc
       0.005929629 0.03903469 -0.005476848 -0.021821598
000020 f2 f6 1a bd 2c 72 e8 3c 95 08 24 3c ef 44 ef bc
       -0.03783316 0.028374754 0.010011812 -0.029207675
000030 12 0c 0c bd 10 5e d9 3c ba 74 bb 3c c8 0a ee 3c
       -0.0341912 0.02653411 0.022882808 0.029057875

ValueModule.fc_layer1.weight f4 [32, 16]
000000 f6 b6 b0 bc db 46 e2 be ac 05 ad be ca 83 1f bd
       -0.021571618 -0.44194683 -0.3379339 -0.038944043
000010 7f d8 11 be 26 d6 7c 3e 59 e9 54 3d 49 59 94 be
       -0.14242743 0.24691066 0.05198035 -0.2897437
000020 44 c9 08 3e 09 7b 17 3d d2 b3 36 3d 4f ba 53 3b
       0.13358027 0.03698257 0.044605084 0.0032307093
000030 64 32 a9 3e e5 b4 7a 3e c0 f0 06 3e 3b cf cf bd
       0.33046257 0.24483068 0.13177776 -0.10146948
000040 2d 43 1a 3b a2 f2 60 be d2 c4 ca 3d 37 2d ae be
       0.0023538575 -0.21967557 0.09900822 -0.3401887
000050 c7 74 9c 3e 7f 61 a8 3d a0 2b b4 3d 2c 3f 72 be
       0.30557844 0.08221721 0.08797383 -0.2365691
000060 11 cb 8c 3e a5 2a 21 be b6 e5 e3 3d e9 4c 92 3d
       0.27498677 -0.15738924 0.11127798 0.07143576
000070 8a 95 15 3e 44 85 b1 be 61 dd 9a 3e 52 ed b2 be
       0.14607826 -0.34671986 0.30247024 -0.34946686
000080 e0 76 23 bd 8c 74 85 3d a0 8b 45 3c 30 af 5a 3e
       -0.03990829 0.0651637 0.012057215 0.21355891
000090 20 bd ef 3c 80 1e 5e 3c 0c 47 19 be 12 35 38 3e
       0.029264987 0.013557076 -0.14968508 0.17988995
0000a0 ae 90 22 be 18 c4 12 bd 84 7a cd bd 70 b4 0b 3d
       -0.15875503 -0.03583154 -0.100331336 0.034107625
0000b0 f0 b6 c2 3c 20 38 06 3e 38 ab 44 be 48 aa 2c be
       0.023768872 0.13107347 -0.1920594 -0.16861832
0000c0 3a 61 b2 bc 93 92 07 be 21 51 03 be 0b a4 86 3c
       -0.021774877 -0.13239507 -0.12823917 0.016435644
0000d0 94 25 dc be 7c 24 a3 3e 6a 54 f5 3d 8a 49 b4 bd
       -0.4299742 0.31863773 0.11978991 -0.08803089
0000e0 47 a3 63 3e 5a ca 53 be b3 65 c8 bc 7a 71 28 3e
       0.22230254 -0.2068266 -0.024462556 0.16449538
0000f0 2d 7f ea bb 18 47 57 3d fa 04 82 bc 21 ea bd 3e
       -0.007156274 0.052558035 -0.015871514 0.3709269
000100 0d d3 07 3c 4d 19 ec be 45 9b 3d be f2 2d 3d 3c
       0.0082900645 -0.46113053 -0.18516262 0.011546599
000110 35 56 ca ba df ac 75 3d ea 0f 41 be d6 de a1 be
       -0.0015437069 0.059979316 -0.18853727 -0.31615323
000120 ec 4a ac 3e f1 e2 87 be 9c a4 fe 3d 82 b3 26 be
       0.3365091 -0.2654033 0.124337405 -0.16279414
000130 8c ee 96 3e 39 91 25 bd b5 58 1c 3e a8 7b f9 bc
       0.29478872 -0.0404217 0.15268214 -0.030454472
000140 74 d1 41 be 30 a7 ed bd 66 aa 0a 3e 40 9e d9 bc
       -0.18927556 -0.11604154 0.13541564 -0.026564717
000150 00 73 ef bc e0 c2 84 bd 04 22 c8 bd 84 8d 30 be
       -0.029229641 -0.06482482 -0.09772113 -0.17241484
000160 00 5d 93 bd c8 d7 3b 3e cc 5e 48 be 0c 57 d0 bd
       -0.07195473 0.18344033 -0.19567412 -0.10172853
000170 00 72 43 be 80 1b 03 be f2 e6 66 3e 8a 83 1a 3e
       -0.19086456 -0.12803459 0.22549036 0.1508924
000180 3f 4b 81 3e 59 14 89 be 20 e3 64 3d 05 b2 07 be
       0.2525272 -0.26773337 0.055880666 -0.13251503
000190 9b 16 c8 3d 71 3c 18 be df 30 81 be 29 93 64 3d
       0.09769937 -0.14866807 -0.25232598 0.055804405
0001a0 b4 9a 8f 3d 85 df 13 bd 0f 70 63 3e 0a 80 a7 3e
       0.07011929 -0.036101837 0.22210716 0.32714874
0001b0 fb 27 2e 3e 09 e4 8f be 97 d6 96 3e 60 52 fc bd
       0.17007439 -0.28103665 0.29460594 -0.12320399
0001c0 ff 1f b4 bd f6 9d 2c be 1b 11 1b be 60 5d 84 be
       -0.08795165 -0.16857132 -0.15143244 -0.2585249
0001d0 02 1e 02 3d 2f 3f 1d be e2 ed b4 3d 1f 87 89 be
       0.0317669 -0.15356134 0.08834435 -0.26860902
0001e0 d3 d8 2d be ff 60 5b be 90 b4 3d be 2d a6 66 3d
       -0.16977243 -0.2142372 -0.1852591 0.05631082
0001f0 03 45 af 3e 85 07 0b be 15 7f 0d 3e b2 83 e2 bd
       0.3423234 -0.13577087 0.13818009 -0.11060275
000200 2f 30 8e 3e b7 0f 86 bc cc 07 54 3d fd 56 d0 bd
       0.27771136 -0.016364915 0.05176525 -0.10172842
000210 86 2c 4b bd 8f 59 4f be 24 6a 17 bd cc 6a 9d bc
       -0.049603008 -0.20249008 -0.036966458 -0.019215964
000220 4b 55 aa 3e 1b 36 3d bd 9f bc a4 3e ce 83 49 3e
       0.33268198 -0.046194177 0.32175156 0.19679186
000230 8e 52 b9 3c 6d 82 ae bd 85 b3 ae 3e ab 0b af be
       0.022622373 -0.085209705 0.34121338 -0.3418859
000240 bf 76 9d 3e 0c 92 c3 3b 87 89 9b 3d 29 09 92 be
       0.3075466 0.005968338 0.07594591 -0.28522614
000250 fd ca 9d 3d 43 72 06 3d d7 25 81 be 8b cb 4c be
       0.077047326 0.032823812 -0.25224182 -0.1999952
000260 41 f1 2f 3c d2 b6 71 bd ae b0 3e 3d ec 40 e8 3d
       0.010738672 -0.05901224 0.046555214 0.11340508
000270 18 51 fc 3d 83 d3 20 be 2f 1b a3 3e 14 dd 88 be
       0.12320155 -0.15705685 0.31856677 -0.2673117
000280 7d 42 88 3c b8 e1 a8 be a8 67 ac be 91 9c 2b be
       0.016633267 -0.3298471 -0.33672833 -0.16758944
000290 e2 39 9e 3d a4 53 2f be a0 aa ad bd 5d 96 86 be
       0.07725884 -0.1712175 -0.0847981 -0.26286593
0002a0 60 fa 9b 3e 43 b9 b8 be 4b a6 75 3e 5f 96 b3 3c
       0.30464458 -0.36078843 0.23989217 0.021922288
0002b0 bd fd 82 3e ad 2c 62 3c b8 83 b2 3e 7a 2e 97 3d
       0.25584212 0.013804597 0.34866118 0.073819116
0002c0 18 7c 7d be 30 96 ea bd 36 62 57 3e 0a ff 04 3e
       -0.2475437 -0.11454427 0.21033558 0.12987915
0002d0 04 c0 30 be 9c 2b 0e be 00 6c 69 bb b2 ab 38 3e
       -0.17260748 -0.13883823 -0.0035617352 0.18034247
0002e0 58 7f ee bd 60 9e c0 3c 76 2d 6d 3e 30 75 74 bd
       -0.11645383 0.02351302 0.23161873 -0.05968207
0002f0 c8 fe 0b 3e 66 c9 73 be 18 76 02 bd 2e ef 37 be
       0.1367141 -0.23807296 -0.031850904 -0.17962334
000300 b0 5a d9 bb 30 2f 52 be b1 6f 4b be dd b8 2d 3d
       -0.0066331252 -0.20525813 -0.19866826 0.042412627
000310 e8 28 4a bd ac 99 3a bd a5 6e 12 3e ac 37 f0 3d
       -0.049355417 -0.04555671 0.1430002 0.117293686
000320 cf 6a 43 3e 90 b1 8d be 0c 00 aa be ee 1e 92 be
       0.19083713 -0.27674532 -0.3320316 -0.28539222
000330 84 b6 89 bd 1d de a1 3e 16 b5 7b 3e 05 e3 7e 3d
       -0.06724265 0.3161477 0.24580798 0.06222822
000340 da 13 b2 3d 77 e6 03 3e 36 a8 be bc c2 40 0f 3d
       0.08695193 0.12880884 -0.023273569 0.034973867
000350 a3 03 eb bd 48 f5 59 be 5d c6 1e 3e a2 9f 1b be
       -0.11475303 -0.21284974 0.15505357 -0.15197614
000360 fa 55 bc bd 68 30 1c be bc a0 0e 3e 19 21 0e be
       -0.09196086 -0.1525284 0.13928503 -0.13879813
000370 84 41 39 3e b6 68 3d 3d 88 96 af bd 6e 55 42 3e
       0.18091398 0.04624244 -0.085736334 0.18977901
000380 e8 cb b1 3e e8 bb 9c be f3 a5 4c be b6 cc 4b be
       0.3472588 -0.3061211 -0.1998518 -0.1990231
000390 cb ef 5b 3e c0 1f 09 be dd eb ed bd 1a 91 b4 be
       0.21478193 -0.13391018 -0.11617253 -0.35266954
0003a0 bc c4 93 3c 41 05 10 3e 81 f6 44 3e 29 9f 68 3e
       0.018038146 0.14064504 0.19234659 0.22716965
0003b0 50 2c 30 3e 4b df 59 bd 4a a1 d5 3d 03 57 e0 bd
       0.17204404 -0.053191464 0.10431154 -0.10954096
0003c0 d0 6f 72 3e f8 cf 8e bd 20 1b b7 3c c6 52 74 be
       0.23675466 -0.06973261 0.022351801 -0.238597
0003d0 00 ef 9c 3d 78 78 26 be 70 c1 0c 3d 16 7b 13 3e
       0.07662773 -0.16256893 0.034364164 0.14402422
0003e0 06 5e 75 be 5e 13 0d be 76 17 35 be bc 71 a4 3d
       -0.23961648 -0.13776919 -0.17684731 0.080295056
0003f0 e8 be 31 be 8c e0 c7 bd 18 a2 5c bd 30 f2 68 3d
       -0.17357981 -0.09759626 -0.053865522 0.056871593

ValueModule.fc_layer1.bias f4 [32]
000000 0b ba 45 3e b5 d5 b3 3d 78 26 d3 bd 46 d9 1d 3e
       0.19309251 0.08780996 -0.10310072 0.15414914
000010 90 af 8c 3e 32 16 5d be 47 f6 61 3e 78 12 e7 bc
       0.27477694 -0.21590498 0.22066604 -0.028207049
000020 2e f6 6b 3e a9 0c 80 bc 54 91 67 3e d0 2e 07 be
       0.23043129 -0.015631037 0.22614032 -0.13201451
000030 10 8a 9f 3e cc 21 a9 bd 5b 8f 1f 3e 34 84 2b be
       0.3116002 -0.08258399 0.1558203 -0.1674965
000040 d8 56 05 be 97 0b 44 bd 31 53 0c bb d0 80 d3 bd
       -0.1302141 -0.047862615 -0.002141189 -0.103273034
000050 e0 73 8f 3e 72 72 26 be a7 6a 1b be 66 c7 95 3e
       0.28018093 -0.16254595 -0.15177403 0.2925369
000060 a4 ce 85 3e 97 a9 0b 3e b4 2b fb 3d 37 97 e1 bd
       0.26134217 0.13638912 0.12264195 -0.1101517
000070 07 bd 99 bc 3c 8e 88 bd 19 9b 24 3e ef 0c ac 3e
       -0.018766893 -0.06667754 0.1607479 0.33603618

ValueModule.fc_layer2.weight f4 [32, 32]
000000 90 bf fa 3d 39 10 3e 3d fd 0c a5 bd 57 14 c6 3e
       0.12243569 0.04640219 -0.08059118 0.38687393
000010 6a ec 8f 3e f4 91 41 bc c0 23 c5 3d 35 5c 5d 3e
       0.28110057 -0.011814583 0.096259594 0.21617205
000020 69 2b 18 be b1 54 fe 3c d0 83 7f 3e a5 82 fb bd
       -0.1486031 0.031046243 0.24952626 -0.12280778
000030 83 da be 3e f0 45 a6 3d 9f ac 72 bc 4f 41 b3 3d
       0.37276086 0.08118808 -0.014811664 0.08752691
000040 22 31 e3 3d 37 85 ce 3b 52 1e 04 be 68 bc e8 bd
       0.11093356 0.0063025015 -0.12902191 -0.11364061
000050 10 54 a6 3e 14 16 02 3d 44 93 ea bd 7b 8f a6 3e
       0.3248601 0.031759337 -0.1145387 0.32531342
000060 28 4c ad 3d da af d8 bd 80 69 ab 3e 7f 5d d4 3c
       0.08461791 -0.10580416 0.33478928 0.025923489
000070 43 06 b5 bd a9 7a 78 bd 0b 62 b8 bc 53 25 b7 3e
       -0.08839085 -0.060663853 -0.022507688 0.35770664
000080 b8 2d ba 3d a1 5a 97 3e b6 d3 2e 3e 8e 3a df bd
       0.090907514 0.29561332 0.17072949 -0.1089984
000090 d5 16 30 bd aa a7 aa bd 46 94 06 3d 9a 6c 5d 3e
       -0.042990524 -0.08332761 0.03285625 0.2162346
0000a0 91 32 56 3d eb d4 c2 3d 9f df 6d 3e c8 22 fa 3d
       0.052294318 0.09513267 0.23229836 0.12213665
0000b0 c1 1b 10 3d a8 a0 83 3d 0a d1 e7 3d d5 fd fa bd
       0.03518272 0.06427127 0.11319168 -0.12255446
0000c0 2e 11 1f be ec 7b 88 3c ee f0 33 bd a1 56 1e bd
       -0.15533897 0.016660653 -0.04393094 -0.038656835
0000d0 53 9b 8a bd 66 ad 31 be 42 af 33 3e b7 a7 56 3e
       -0.06767907 -0.17351303 0.17547324 0.20962416
0000e0 b0 84 4f 3e 7a 04 4f 3e 1d 44 07 be 98 88 89 3e
       0.2026546 0.20216551 -0.13209577 0.26862025
0000f0 e6 56 d7 3c 03 1c 15 3d e4 71 7c 3b 56 fd e4 3a
       0.026286554 0.036403667 0.0038520033 0.001747052
000100 1c f7 7d 3e 89 08 82 3e df 8e 93 bd 63 b5 25 be
       0.24801296 0.25397137 -0.07204985 -0.16182475
000110 97 de 5d 3e eb 2a 1e be 88 d2 fa 3d cd 26 d9 3d
       0.21666943 -0.1544606 0.12247187 0.10603104
000120 06 61 90 bd f3 1c 8a bc 8f c9 6d 3c db 24 2d be
       -0.07049756 -0.016859507 0.014513387 -0.1690859
000130 7f 43 b3 bc 46 0b f6 3d ba 08 47 3e ac 2d d3 bb
       -0.02188277 0.12013869 0.19436923 -0.0064446535
000140 84 0f 86 bc bc c2 32 3e a6 5f c3 3d fc 73 bc 3d
       -0.01636482 0.17457098 0.09539728 0.0920181
000150 5d 7f 8f bd 5f 11 34 bd f7 61 14 3e ef da 83 3d
       -0.070067145 -0.04396188 0.14490496 0.06438243
000160 6d 57 23 3e 81 32 67 3e f3 33 74 3d 03 4a 32 3e
       0.15951319 0.2257786 0.059619855 0.17411046
000170 41 27 7b 3e 31 6d 06 be 73 a4 03 3e 48 c1 c3 3d
       0.24526693 -0.1312759 0.12855701 0.0955835
000180 f2 8e ad 3e a2 9f 39 3e ca f0 3a bd 37 5b 87 3e
       0.3389812 0.18127301 -0.04563979 0.2643678
000190 c7 06 b9 3e e8 94 ed bc 75 9a 24 3e ed d2 14 3e
       0.36137983 -0.029001668 0.16074546 0.14533587
0001a0 fb 66 34 be 90 46 87 be e1 0d 16 3e 97 8a 32 3e
       -0.17617409 -0.26421022 0.14653732 0.1743568
0001b0 29 31 09 3e 97 13 d7 3d b0 f5 50 be 48 be 0b be
       0.1339766 0.10501783 -0.20406222 -0.13646805
0001c0 d3 e8 89 bc a8 a3 c1 bd 5d aa 4c be c1 3b d2 bd
       -0.016834652 -0.09455043 -0.19986863 -0.102653034
0001d0 fb b4 97 3e a9 1f bc 3d a0 9e 5c bd 66 5e cc 3e
       0.29630265 0.09185726 -0.053862214 0.3991577
0001e0 75 ce de 3d bf 80 0f be c3 67 b3 3e cc e2 ce bd
       0.10879222 -0.14013956 0.350401 -0.10101852
0001f0 f3 8b 47 3e 8a ce 09 be c8 57 2f be ea 75 9b 3e
       0.1948698 -0.13457695 -0.1712333 0.303634
000200 5e 57 42 be f2 49 1b 3e 82 28 b4 3c 13 af 4e 3d
       -0.1897864 0.15164927 0.021991972 0.050459933
000210 68 53 07 3b 27 b2 b2 bd e0 c2 39 3d c4 9b c7 3d
       0.002064908 -0.08725386 0.045351863 0.09746507
000220 a2 6a 2e 3d bc c3 20 be be 07 42 be 99 4f 06 3e
       0.04258216 -0.15699667 -0.18948266 0.13116302
000230 44 45 f6 3d c6 da a4 3d ea e2 0f bd 1b 35 94 bd
       0.1202493 0.0804954 -0.03512851 -0.072366916
000240 95 ca 90 bd 06 1f 04 be c3 75 24 be f9 82 0b 3e
       -0.070698895 -0.1290246 -0.16060548 0.13624181
000250 a6 42 ea bd aa 03 14 3e 1e 0d f8 bd a3 9b a1 bd
       -0.114384934 0.14454523 -0.12111877 -0.078910135
000260 1d 62 d2 bd 0a 2d 5a bc c6 fe 67 3d 63 a4 19 be
       -0.1027262 -0.013316402 0.056639455 -0.15004115
000270 ae 33 25 3d 9b f0 d4 3d 25 bf 1a be 9c 33 76 3d
       0.04033249 0.10397454 -0.15111978 0.060107812
000280 a7 6f c1 3d 38 23 82 3c e1 1c 08 3e 97 b8 22 be
       0.09445124 0.015885934 0.13292266 -0.15890728
000290 90 02 39 bc 67 db 5f bd a3 72 28 3e cd 7a b6 3a
       -0.011292115 -0.054652598 0.1644998 0.0013922096
0002a0 23 d2 00 3e e3 87 21 3e 44 ac 05 3c 98 2f a9 3d
       0.12580161 0.15774493 0.008158747 0.08261031
0002b0 5c 94 a7 bd 79 42 0d 3d 8a 24 25 3e 61 62 6b bd
       -0.08182594 0.03448722 0.1612722 -0.05746687
0002c0 76 03 e5 bd 69 a8 77 3e dd 8b 93 3e 84 f4 0e be
       -0.11182301 0.24185337 0.28817645 -0.13960463
0002d0 b1 f3 0e be 43 2d d7 3d d7 e8 77 bc 28 ea 79 3e
       -0.13960148 0.1050668 -0.015131197 0.2440573
0002e0 c3 85 1c bc 4d 4a e5 3d fc d1 5f bd 4a af 8d 3e
       -0.009553376 0.111958124 -0.054643616 0.27672797
0002f0 ac 9a 9b 3e c8 24 a6 bc 98 eb ef 3b d8 12 6c 3d
       0.30391443 -0.02028121 0.007321786 0.05763516
000300 6a 73 36 3e 61 05 87 bd 09 83 f4 bc 0d 9b 50 3e
       0.17817464 -0.06592823 -0.029847639 0.20371647
000310 76 10 5b 3e c4 70 97 3c eb a1 29 bc ba 82 86 3e
       0.21392998 0.018486388 -0.010353546 0.2627161
000320 fc 8e 61 be dd 1d b1 bd 81 6a 8b 3d 47 46 7f bd
       -0.220272 -0.08648274 0.068074234 -0.06232288
000330 57 da 32 3d 7d c6 ba 3d a8 bf 26 3e 5a b4 25 3d
       0.043665256 0.0911989 0.16284049 0.0404552
000340 13 de ec 3c 82 24 da bc 5b fe 42 3d d4 dd cb bc
       0.028914487 -0.026628736 0.047605854 -0.02488605
000350 66 94 1e 3e 7d 1a c3 bc 57 ee 74 3b fd e6 54 3d
       0.15486297 -0.023816342 0.0037373507 0.0519781
000360 5c 40 77 3b e3 58 63 bd 74 01 c2 3d b5 7e f4 3d
       0.003772757 -0.05550469 0.094729334 0.1193823
000370 08 a1 31 bd c0 5a 29 3e 87 e4 f1 bd 2f 18 82 3a
       -0.043366462 0.16538525 -0.11811166 0.000992542
000380 6e 38 1d be 18 74 ff bd c4 74 c7 3d d6 f8 cd 3d
       -0.15353557 -0.12473315 0.09739068 0.10057227
000390 d8 37 ae bd 35 95 4d 3d 7d b1 6f 3d df 68 0f bd
       -0.08506745 0.050191123 0.058518875 -0.035012122
0003a0 24 ed e2 3d 69 60 03 be 58 5e c5 3d 8d e3 47 bc
       0.11080387 -0.12829746 0.09637135 -0.012200248
0003b0 4b b9 1c bd f1 e4 ed bc 0d b2 2b be 63 df 87 bd
       -0.038262647 -0.029039832 -0.1676714 -0.066344045
0003c0 3a a5 e2 3d b5 51 bf 3c 79 35 9e 3d 7c 41 2f be
       0.11066671 0.02335439 0.07725043 -0.17114824
0003d0 3e 52 3c 3b 7f bb f8 3b 35 b5 bb bd e9 4f ff bd
       0.0028735544 0.0075907107 -0.09165422 -0.124664135
0003e0 fc 70 03 3e 8e 51 cd 3d a6 5b 40 3d e7 32 aa 3c
       0.12836069 0.10025321 0.046962403 0.020776225
0003f0 51 60 98 bd 3e 46 2d bd e1 1f e9 bd 60 ba 58 3d
       -0.07440246 -0.042303316 -0.113830335 0.052912116

ValueModule.fc_layer2.bias f4 [32]
000000 2b 0b 81 3e da 93 18 3c d2 3a 02 be b0 07 eb 3d
       0.25203833 0.009312594 -0.1271775 0.11476076
000010 a1 32 bf bd 6f 63 07 3e f2 96 3e 3c 2e 9f bc bd
       -0.093358286 0.13221525 0.011632668 -0.092100486
000020 46 15 a8 bd d8 cf d9 3b f9 7f de bd 51 28 96 3d
       -0.082071826 0.0066470914 -0.108642526 0.073319085
000030 1e 71 0c 3e ba 0f e0 bd 48 83 b9 bd 8b 8f 92 3e
       0.13715026 -0.109404996 -0.09058243 0.2862514
000040 79 4c 3b 3e 20 8a 11 be 88 af 2e bd 10 12 15 be
       0.18290891 -0.14212847 -0.04264787 -0.14557672
000050 89 e6 cb bd 4f 35 b2 bd 4c ab 7a 3d a7 f8 e2 bd
       -0.099560805 -0.08701574 0.061198518 -0.11082583
000060 92 fe 05 3e 0c 79 2f be 53 ae 86 3e d1 39 b3 bd
       0.13085392 -0.1713602 0.26304874 -0.08751262
000070 35 65 74 3e 6d d4 23 be ff 21 2a 3e 90 73 1f be
       0.23866732 -0.15999003 0.16614531 -0.15571427

ValueModule.fc_layer3.weight f4 [32, 32]
000000 71 c4 86 3b 7d 2a 8f 3e b6 69 a2 3e 73 34 6f be
       0.004112773 0.27962103 0.31721276 -0.23359852
000010 13 ee ce b9 b4 7c 96 3e 99 7e 86 bd a8 17 b7 bd
       -0.0003946876 0.29392016 -0.06567115 -0.08940059
000020 2b be 71 3c f2 c2 d2 bd d1 24 23 3e b1 8b 86 3c
       0.014754812 -0.10291089 0.15932013 0.016424032
000030 13 2c 9d 3e cb 5c 29 bd ad c6 1e 3e df 00 b2 3d
       0.30697688 -0.04134826 0.15505476 0.086915724
000040 46 74 e7 3d 60 6e 23 3e 5a 36 9b bd b2 22 2d 3e
       0.11301474 0.15960073 -0.07578726 0.16907766
000050 5b 1f 91 3d c4 de 57 3e 52 80 88 3e d4 69 49 3d
       0.07086059 0.21081072 0.266604 0.04917319
000060 71 8b 4b 3e 72 6b 89 3d 3c 96 91 bd 55 ec 0d be
       0.19877411 0.06709947 -0.07108733 -0.13859685
000070 a5 df 1e 3e 13 ef a6 3b 8c 88 17 bd 0b d2 76 bd
       0.15515001 0.005094418 -0.036995456 -0.060258906
000080 71 e6 bf bd de ae 90 bc 04 fd cd bc 08 fb 4d bd
       -0.09370125 -0.017661508 -0.025145061 -0.05028823
000090 f4 1b a3 3d 4c 1c 76 3e e0 04 ed bc 7c 5b 82 3d
       0.07964316 0.24034232 -0.028932989 0.063651055
0000a0 89 b0 3f 3e 00 c5 c4 3d b8 3a 8a 3c 58 dd 21 be
       0.18719687 0.09607887 0.016873702 -0.15807092
0000b0 e3 cb 3e bd 76 8d 76 bd c0 23 08 3e 26 ee 30 bd
       -0.04658116 -0.0601935 0.13294888 -0.043195866
0000c0 14 6a e4 3d f4 ca 76 3d 10 49 ec 3d d6 d8 a9 3d
       0.11153045 0.060252145 0.11537373 0.08293311
0000d0 69 a0 2a 3e 83 4e 87 3e 91 ed 89 3e 79 e9 00 3e
       0.16662754 0.26427087 0.2693906 0.12589063
0000e0 07 7d 80 3e c2 ac 26 be 0b b1 12 be 02 06 19 3d
       0.25095388 -0.1627684 -0.14325349 0.037359245
0000f0 99 e1 61 bc b2 9a 04 be 0c e7 d7 3b 7c 05 b4 bd
       -0.013786697 -0.12949637 0.006588822 -0.087901086
000100 7f 17 0b 3e 5e 0f 80 3e 37 e2 e7 3d c9 57 4e be
       0.13583182 0.25011724 0.11322444 -0.20150675
000110 d2 b2 e6 3c 60 5b 23 3e e4 63 5d 3d 52 77 2a 3e
       0.02816144 0.15952826 0.05405034 0.1664708
000120 30 c3 d3 bb fc 20 d6 bd c4 96 81 3e cc 5e 5e bd
       -0.006462477 -0.1045551 0.25310338 -0.054289624
000130 e4 f1 c8 ba 03 cf d1 bd db 6e 92 3e d2 6c ff 3c
       -0.0015330878 -0.102445625 0.286002 0.03117982
000140 3d e4 65 3e 15 5b 1c 3d 2a b8 83 3d fd ba d8 bd
       0.22450347 0.0381728 0.06431611 -0.1058254
000150 70 e2 02 3e 41 1d 61 3e ff 04 5e 3d 30 8d 2b 3d
       0.12781692 0.21983816 0.054203983 0.041882694
000160 92 75 ed 3d 33 1f 01 be 95 57 ec 3b f4 b1 af bd
       0.115946904 -0.12609558 0.007212589 -0.08578864
000170 21 1d 57 bd db 2e 37 3b fd 32 be bc da 2c 27 3e
       -0.052518014 0.0027951512 -0.023217672 0.16325703
000180 a5 76 18 bd 29 53 fd bc f4 25 0d bd 0b 20 45 3e
       -0.037222523 -0.030923443 -0.034460023 0.19250505
000190 90 37 06 be 41 a6 cc bd da b2 6c 3e 5d ce 05 3e
       -0.13107133 -0.09992648 0.23115101 0.13067003
0001a0 bb 57 d1 bc fe fa d0 3d e2 0c 4f 3e d8 86 2b bd
       -0.025554528 0.10204123 0.20219758 -0.041876644
0001b0 1e b9 85 3d d3 5e 73 bd dd a7 23 3e 27 2a f5 3d
       0.06529449 -0.059416603 0.15982004 0.119709305
0001c0 c9 c7 f6 bd 7a 9b 4f bd 88 20 a1 bd a5 34 a2 bd
       -0.12049825 -0.050685383 -0.07867533 -0.079201974
0001d0 f8 4e f7 bd 0b 33 8f 3d 68 56 9f 3d 83 fa a7 3d
       -0.12075609 0.069921575 0.077801526 0.08202078
0001e0 5b ed 07 bd c4 c6 bf bd 6a fb 2d 3e 72 8e 70 bd
       -0.033185344 -0.093640834 0.16990438 -0.058729596
0001f0 52 57 7c 3e c1 b9 ff 3d 9e b8 15 be 92 65 22 be
       0.24642685 0.124866016 -0.14621207 -0.15859058
000200 fd 9a 55 be c8 7d 76 3c f9 7d f9 3d ee ee 54 be
       -0.20859905 0.015044637 0.121822305 -0.2079427
000210 fa bd 18 be 21 41 9a 3e 44 18 06 3e b5 47 8f 3d
       -0.1491622 0.30127814 0.13095194 0.06996099
000220 c5 6e 0e 3e 7e 89 2a bd 27 a5 0f 3e 11 7e 24 3e
       0.13909443 -0.04163503 0.14027844 0.16063716
000230 e9 30 80 3e 03 09 df 3d 60 07 26 3d 1c 25 15 bd
       0.25037315 0.10890391 0.040534377 -0.036412343
000240 03 38 8a bc 7e cc 15 3e 9d e8 d3 3d 80 a2 df 3d
       -0.016872412 0.14628789 0.10347102 0.10919666
000250 ea 38 ef bd fa 11 58 bd ad dd 75 3e 45 e8 d1 bc
       -0.11680777 -0.05275152 0.24010344 -0.02562345
000260 d6 bb 5a 3e 04 2d a1 bd 79 bd 69 3d a7 4e 26 3d
       0.21360716 -0.07869914 0.05706546 0.040602352
000270 7a 33 0d be 7d a0 01 3e 9c 21 2d 3d fc 2d bf bd
       -0.13789168 0.12658878 0.04226838 -0.09334943
000280 8b 1e d1 bc e4 3a 68 3e 6d 3c bb 3d c7 80 85 be
       -0.02552726 0.22678715 0.09142385 -0.26074812
000290 56 b3 cf 3c 39 dd 3c 3e 2e 8c 4b 3d 03 14 b4 3d
       0.025354069 0.18443765 0.049694233 0.087928794
0002a0 7a 8b ec 3c c6 f3 dd bd ce d1 5d 3d 2b cb 0c 3e
       0.028875101 -0.10837512 0.054155163 0.13749377
0002b0 9e f1 11 3e 53 d1 d8 bd 71 9a 25 3c 7f 86 71 bd
       0.14252326 -0.105868004 0.0101076225 -0.058966156
0002c0 27 f6 a7 3d 5e a6 89 3e 33 42 be bd 9d 67 34 be
       0.08201247 0.2688474 -0.0928997 -0.1761765
0002d0 bd d1 05 be ad cb 00 3d c0 d6 a3 3d ff f9 37 3c
       -0.1306829 0.03144424 0.07999945 0.011229037
0002e0 58 b1 54 3e 5a ad 95 bd 11 2e 6d bd 54 7e 31 be
       0.20770776 -0.07308455 -0.05790526 -0.17333347
0002f0 b7 e3 f1 bc 58 6a 67 be b9 37 18 3e f5 30 15 3c
       -0.029527528 -0.2259916 0.14865007 0.009105911
000300 c4 d6 16 bb 26 87 18 3e 6e ec 10 be c2 cf d8 bc
       -0.0023016194 0.14895305 -0.14152691 -0.026466254
000310 b1 0e 19 3e e3 5a 29 be 9e b5 c6 3d 42 2d b4 3d
       0.1494701 -0.16538577 0.097026095 0.08797695
000320 b9 36 da bd 87 91 b8 3d 5e 96 4a bd bb b4 c0 3d
       -0.10654969 0.09012132 -0.049459808 0.094094716
000330 97 58 16 be ee 7d d3 3c 26 87 e4 bc 02 de 43 bd
       -0.14682232 0.025816884 -0.027896475 -0.047819145
000340 f3 2a d6 bd a5 d5 10 3e ad b3 06 bd cc 94 ab bd
       -0.10457411 0.14143999 -0.032886196 -0.0837799
000350 de 67 f0 3d 06 f6 0f 3e a4 09 10 3e e9 c3 20 be
       0.11738561 0.14058694 0.14066178 -0.15699734
000360 ca 78 52 3d 5d f0 80 3d a3 52 dd 3d ca f3 a8 bd
       0.051384725 0.06295846 0.10806777 -0.08249624
000370 9c d0 f1 bd 8a 3d 09 3e 16 f0 c0 bd e1 1a 15 be
       -0.11807367 0.13402382 -0.09420793 -0.14561035
000380 42 59 66 be d4 7e 02 3d 2c 38 08 3e 24 75 34 3b
       -0.22494987 0.031859234 0.13302678 0.0027535642
000390 d4 be 0b 3d 83 89 47 bd 33 9c e3 bd 4a 45 9d bd
       0.034117535 -0.048715126 -0.11113777 -0.076792315
0003a0 b7 10 41 3e b4 3b 09 be 92 34 72 3e aa aa 89 3d
       0.18854032 -0.13401681 0.23652866 0.06722005
0003b0 56 a5 21 3d 6d b4 c5 3d 30 59 0f 3d 3e ea ba 3d
       0.039464317 0.09653554 0.034997165 0.091267094
0003c0 fc 8d 1b bc 34 48 7e 3e ec a7 73 3c 30 99 10 3e
       -0.009494301 0.24832231 0.014871579 0.14120936
0003d0 02 61 bb 3d 45 33 70 3e 0b 7f 2d 3e 2d 91 a0 bc
       0.09149362 0.23457058 0.16942994 -0.019600475
0003e0 f9 e3 2b 3e bf 41 1a 3e 59 d7 40 be 91 41 c9 3b
       0.16786183 0.15064143 -0.18832149 0.0061418493
0003f0 ff b2 14 bd dd 82 7c be 4e 97 45 3e 7f 7b cd bd
       -0.036303516 -0.24659295 0.19296 -0.10033321

ValueModule.fc_layer3.bias f4 [32]
000000 42 29 0d 3e 10 9d 4e 3d fa 5d 1f 3e f3 6a e3 bb
       0.1378527 0.050442755 0.15563193 -0.0069402396
000010 bd 2a 01 3e 5e 7c 02 be c2 ce ac bd 6d 05 c5 bd
       0.1261396 -0.12742755 -0.084378734 -0.096201755
000020 d1 f6 f4 bd e0 b0 27 3d 12 a9 41 3e 6c db 17 be
       -0.11961139 0.040940166 0.18912151 -0.14829797
000030 e7 af c8 bd ca 01 ad bd f2 93 2f bd 89 89 05 3e
       -0.09799176 -0.08447607 -0.0428657 0.13040747
000040 e6 a7 64 3e c8 5f c8 3d 15 d1 39 3e 00 ef 1a 3e
       0.22329673 0.09783894 0.18146165 0.15130234
000050 b2 99 42 bc b1 b0 6a 3d 56 33 c4 3d 6d af 8b 3d
       -0.011877464 0.057297412 0.09580104 0.06820569
000060 52 ab 19 be 3f 2c d4 3d f4 81 5d bb d0 d7 28 bd
       -0.1500676 0.10360002 -0.0033799382 -0.04122144
000070 16 e9 24 3e e9 f3 0d 3e ac 21 60 3e d1 c9 08 be
       0.1610454 0.13862576 0.21887845 -0.13358237

ValueModule.value.weight f4 [1, 32]
000000 d9 24 e6 bd f3 37 e7 bd 2c 3a bb bd 06 2d ef 3d
       -0.11237497 -0.11289968 -0.09141955 0.116785094
000010 fa 03 fb bd 66 6c f1 bd 5f 69 7a bc 87 e2 ef bd
       -0.12256618 -0.117882535 -0.0152839115 -0.117131285
000020 52 71 fc bd 31 be e3 bd 91 03 f2 bd bf 58 e8 bc
       -0.12326302 -0.111202605 -0.118170865 -0.02836263
000030 ab 15 e5 bd 22 75 d7 3c c4 ba 32 3e be 17 a6 bd
       -0.111857735 0.02630097 0.17454058 -0.08109997
000040 97 a1 31 3e bb 0d 00 be 4c e2 e0 bd 73 27 6c 3e
       0.17346798 -0.12505238 -0.10980663 0.23061924
000050 57 8c 7d bd af bf 10 3e 4e 40 8b bd 73 3a d2 bd
       -0.061901417 0.14135621 -0.067993745 -0.102650546
000060 af 15 0d be 87 07 0b be b5 d1 2a 3e 53 b5 93 3d
       -0.13777803 -0.1357709 0.1668156 0.07212319
000070 8a 0c c6 bd c5 97 82 3e 01 a4 44 3e 4a 55 d6 3b
       -0.096703604 0.25506416 0.19203188 0.006540929
