models/patient27/ppo_model_for_patient_27_Critic.pth (torch, 22738 bytes, 11 tensors)

weight_ih_l0 f4 [64, 2]
000000 d6 e4 0b 3e c8 0d 2c bb 17 50 f0 3d 77 15 f4 3c
       0.13661513 -0.0026253331 0.11734026 0.029795391
000010 cc 5a 12 3e 1f 06 eb 3d ee 4f d5 bb a7 d9 36 be
       0.14292449 0.11475777 -0.0065097725 -0.17856465
000020 0f 92 d4 3d b1 bb cb 3d 64 40 86 3d 06 79 a7 be
       0.10379421 0.09947909 0.0655525 -0.3270952
000030 13 2e 36 bd bd cb ff bd 64 90 0f 3e db ec 9d be
       -0.044477534 -0.12490032 0.14019924 -0.3084477
000040 00 3b 9a be fd c7 46 be 5c e5 96 3d 49 f0 e9 3d
       -0.30123138 -0.19412227 0.073679656 0.11422784
000050 42 4c b1 bd f4 72 cc 3d 09 dc 7e be 1c 40 14 3e
       -0.08657123 0.09982863 -0.24888624 0.14477581
000060 7a e5 3e 3e c2 21 51 3d 8a a9 93 be c9 20 a7 bd
       0.18642226 0.051057585 -0.28840286 -0.0816055
000070 6e 40 e7 bd 3a 9e 60 3d 33 81 92 3d 56 6a f7 3d
       -0.11291586 0.054838397 0.07153549 0.12080829
000080 17 d8 7d be 8b de e8 3c 7e 23 c7 bd a0 63 0e be
       -0.24789463 0.02842643 -0.097235665 -0.13905191
000090 84 9d 9f 3d f5 33 8d be 79 d5 50 be 1d 31 34 3e
       0.077937156 -0.27578703 -0.20393933 0.1759686
0000a0 57 03 b7 bd af d7 83 be 61 bb 93 be ab 49 9d be
       -0.08936184 -0.2575049 -0.28853896 -0.30720267
0000b0 56 07 69 be 40 6f 96 be 94 7a 9a be cd 4f 24 3d
       -0.22756705 -0.29381752 -0.30171645 0.040115166
0000c0 b0 f4 8a bd 6f 3d b4 3d 15 bf 0d 3d 16 c0 ce 3d
       -0.06784952 0.0880078 0.03460606 0.10095231
0000d0 16 76 66 be dd d5 86 bd 5f 45 d0 3d 83 cc 25 bd
       -0.22505984 -0.0658376 0.101694815 -0.04047824
0000e0 bc ea 85 be c7 c5 35 3e e8 ca 4c be 12 17 91 3d
       -0.2615565 0.17751227 -0.19999278 0.070844784
0000f0 6e 74 9a be ce 38 43 be 6e 62 85 be 42 57 44 bd
       -0.30166954 -0.19064638 -0.26051658 -0.047934778
000100 6a d1 a6 3e 59 61 6f 3e 04 5e 0a 3e 8e 7f a1 3d
       0.32581645 0.23376979 0.13512427 0.07885657
000110 52 2f ef 3c c0 f6 1e 3e c8 b5 dd bc 04 63 78 3e
       0.029197369 0.15523815 -0.02706422 0.24256521
000120 7a 4f 9e bd e1 40 7c 3e 53 5c ac 3d c0 9a 94 be
       -0.07730003 0.24634124 0.08416047 -0.29024315
000130 87 af 9b 3e 34 19 3c 3e f3 a7 71 bd ad ef 87 be
       0.30407354 0.18368989 -0.05899806 -0.26550046
000140 73 ab 88 3e af a9 db 3d aa 85 94 3e 17 4b 9f 3d
       0.26693305 0.10725724 0.29008228 0.07777994
000150 51 94 1b be f0 29 97 be dd 04 03 3d 61 97 8f 3d
       -0.15193297 -0.29524183 0.03198706 0.07011295
000160 c5 07 3e be 43 7a 3b 3e 5b 3b 41 bc eb e8 e6 3d
       -0.18557651 0.18308358 -0.011793937 0.11274894
000170 66 74 74 3e 9f 55 36 3e 38 7c 3f 3e a6 7b 0a be
       0.23872527 0.178061 0.1869973 -0.1352373
000180 52 b2 aa be 10 8b 44 bd 9b e6 54 bd 81 40 30 be
       -0.33339173 -0.047984183 -0.051977735 -0.17212106
000190 78 5b 18 be 2b ce 20 be 95 8b 6a be d3 6a 06 be
       -0.14878643 -0.15703647 -0.22904809 -0.13126688
0001a0 71 bf b0 bd 29 55 b9 be ce 55 f2 3d a8 55 74 be
       -0.086302646 -0.36197785 0.11832772 -0.238608
0001b0 21 03 b6 be a2 d0 46 be d0 7d 84 be 90 01 5d 3d
       -0.35549262 -0.19415525 -0.25877237 0.05395657
0001c0 50 6a a4 be b0 b9 ad be 94 64 7d be 3e dc 29 be
       -0.3211236 -0.3393073 -0.24745399 -0.16587922
0001d0 8d 84 27 3d 05 c2 03 be b3 01 3b 3c 37 81 72 bd
       0.040897895 -0.12866981 0.011413979 -0.05920526
0001e0 ef 5b a6 3c 3f fb d6 3d 09 f8 0e be a7 bb 17 3c
       0.02030751 0.1049714 -0.13961805 0.009261048
0001f0 25 8b 83 be 16 28 ef bc dd 96 7c be b7 72 a4 be
       -0.25692096 -0.02919392 -0.24666925 -0.3211877

weight_hh_l0 f4 [64, 16]
000000 89 9c 85 39 36 78 b1 3b 09 22 f7 3d ff 60 95 3d
       0.00025484365 0.0054159416 0.120670386 0.07293891
000010 aa a4 0c 3e 57 88 85 3e 87 3b 8b 3d 8d 96 20 3e
       0.1373469 0.26080582 0.06798463 0.1568243
000020 8d d7 f6 bc 61 b4 da bd 2f dd a0 3e e5 dc 05 3e
       -0.03013208 -0.10678936 0.3141875 0.13072546
000030 a6 da 5b be 32 d3 f4 bd 04 1e 89 be 99 29 36 bd
       -0.21470127 -0.11954345 -0.26780713 -0.044473264
000040 bc b0 7f be 21 85 69 be da 72 0b be 56 4a b9 be
       -0.24969763 -0.22804691 -0.13618031 -0.36189526
000050 c2 ce 65 3d c8 85 90 3d 63 d7 80 3c 19 35 23 3d
       0.056105383 0.07056767 0.015727704 0.03984556
000060 a2 ad 1c bd e9 b4 a5 be b3 98 58 3e d7 0c b7 bd
       -0.038251527 -0.32364586 0.21152 -0.08937996
000070 a5 6d 13 3e 98 b3 ae 3e ac c9 b3 3d 9d e7 8c bd
       0.14397295 0.34121394 0.087787 -0.06880114
000080 37 8e bf 3c b4 e1 13 be ca 2d e2 3d 62 92 6a be
       0.023383243 -0.14441568 0.1104389 -0.22907403
000090 f4 07 35 be 10 0d 41 3e 19 8d c8 bc 9d 5f 3e 3e
       -0.17678815 0.18852639 -0.024481343 0.18591161
0000a0 4e 4c a1 be 92 98 6c be 1c 9a 82 3d 1e b6 2e bd
       -0.31503528 -0.23105076 0.0637705 -0.04265415
0000b0 2f 8a 81 be 7e d6 b9 bd 86 f9 8e bc 9a 27 77 bd
       -0.25300738 -0.09074114 -0.017452966 -0.0603405
0000c0 c6 fb d4 bc 72 66 65 be 72 6a 69 be 89 f2 ec bd
       -0.025998961 -0.22402361 -0.22794512 -0.115696974
0000d0 d8 a3 48 3e ac 67 d1 bd 4f 6b 03 3e 2f 2b 87 3e
       0.19593751 -0.10224852 0.12833904 0.26400134
0000e0 63 08 91 bc ab 33 1a be bd 39 44 3e 85 d5 19 be
       -0.017704194 -0.15058772 0.1916265 -0.15022857
0000f0 d8 a4 4a 3d 43 46 d6 3d 2d aa 9d be c4 21 29 3c
       0.049473614 0.1046262 -0.30793896 0.010322992
000100 63 a6 a4 be c6 99 95 be fa 7d 75 be db 1f c3 3d
       -0.32158193 -0.29218882 -0.23973837 0.0952756
000110 02 b3 0b 3e 05 8d 00 bd 85 00 f0 bd 97 f6 72 3d
       0.13642505 -0.031384487 -0.11718849 0.059317198
000120 d9 44 92 be 99 11 c6 bd 8b ed 85 3e 6f 51 99 ba
       -0.28568152 -0.09671325 0.26157793 -0.0011697243
000130 78 42 22 bd b2 87 03 3d e0 67 64 be 76 1f 3f bd
       -0.03961417 0.03211183 -0.2230525 -0.046660863
000140 dd b3 b0 bb 23 31 4f be 4f e4 13 be c5 0e 58 be
       -0.005392535 -0.20233588 -0.14442562 -0.21099384
000150 51 9c 2f 3d 8c 54 f8 bc fc 0e 1d be 68 5f a4 bd
       0.042873684 -0.030313753 -0.15337747 -0.0802601
000160 fa 70 4c be 27 8c 89 be ba 60 13 3e e5 81 97 bd
       -0.19964972 -0.2686474 0.14392367 -0.07397822
000170 db 5b ad 3d 39 61 66 3e 29 f4 cf bd 86 27 ce 3d
       0.08464786 0.22498025 -0.10153992 0.10066132
000180 e7 1b 84 be cc a0 b2 bb 0a 05 fc bd 5f 0d 99 be
       -0.25802538 -0.0054512974 -0.123056486 -0.29893014
000190 ea 96 84 3c 36 99 98 3e 80 e5 01 3e a8 c6 9a 3e
       0.016185243 0.2980439 0.12685204 0.30229688
0001a0 07 93 27 3c 8a 52 33 be 7a 3d 90 3c d4 5e f4 bc
       0.010227925 -0.17511955 0.01760744 -0.029830374
0001b0 b7 e0 a1 bc 37 31 83 3e 76 17 8e 3d 3b 47 a9 bb
       -0.019760473 0.25623485 0.069380686 -0.005165962
0001c0 7e 86 96 be 1d a3 98 bd f2 c9 14 be 82 ca 20 3b
       -0.29399484 -0.074529864 -0.14530161 0.0024534767
0001d0 b9 73 8a bc 71 a0 75 3e eb 5a 62 be a0 6a ff bd
       -0.016900884 0.23986985 -0.22104995 -0.12471509
0001e0 34 64 87 be b4 ab 0d 3e a4 d1 e5 bd 6a 83 95 be
       -0.26443636 0.13835031 -0.112216264 -0.29201823
0001f0 40 6d 70 3e 1c 7f 19 3d ca d0 52 bc 4a 0f 8a 3d
       0.23479176 0.037474737 -0.012867162 0.067411974
000200 56 82 b2 bd cc 56 e2 bd 1c 16 85 be af 56 16 3d
       -0.08716266 -0.110517114 -0.2599343 0.03670376
000210 63 97 40 bd 75 e6 a9 3e a0 b6 ab bd a5 7e 82 3e
       -0.047019374 0.33183637 -0.08384442 0.25487247
000220 65 c6 8d be d5 48 39 be 3e 87 7f 3d 89 5b 1e be
       -0.27690426 -0.1809419 0.062384836 -0.15464605
000230 40 3e 57 be 1c d3 67 bc 7e 1b 3d be ed 0a 05 3e
       -0.2101984 -0.0141494535 -0.18467519 0.12992449
000240 cb 76 87 be dc ac ff bd cf 8c 11 3e d7 53 0e be
       -0.2645782 -0.12484142 0.1421387 -0.1389917
000250 4f 62 cb bd cc 4c 65 3d 50 34 63 be e5 cd 88 3d
       -0.0993086 0.055981442 -0.22187924 0.06679896
000260 e8 82 0e 3e 6c fd a4 be af 64 fb bd af 85 09 3e
       0.13917124 -0.32224596 -0.12275063 0.13429902
000270 52 d8 16 be 81 1f 75 3e 27 3b cc bd 9c 94 ad 3e
       -0.14730957 0.23937799 -0.0997222 0.33902442
000280 96 c7 7d be 82 fb 9f be e6 cc 06 3b 33 99 d4 3d
       -0.24783167 -0.31246573 0.0020568906 0.10380783
000290 d0 ba d3 bd f8 2f cd 3d ba c0 44 be 6f a0 4b 3b
       -0.10338366 0.10018915 -0.19214144 0.0031070968
0002a0 79 9e 3f bc 92 f6 08 3c 8d 25 45 3c c0 0e 1e be
       -0.011695498 0.008359568 0.012032879 -0.15435314
0002b0 a6 f3 bb bd 6b d0 2e 3c 7b 63 12 be b4 2c aa 3e
       -0.091773316 0.010669808 -0.14295761 0.3323723
0002c0 15 23 ad be cd a7 96 bd 29 81 0c 3a e1 f1 8f 3d
       -0.33815828 -0.07356224 0.00053598225 0.070285566
0002d0 d7 06 c1 3b e9 a4 d3 3d 6d eb c6 bd 88 c7 f2 3d
       0.005890708 0.103341885 -0.09712873 0.11854464
0002e0 87 de 86 be 01 1a 85 3d c6 b8 e2 bc e6 c5 4d bd
       -0.2634165 0.064991005 -0.027675997 -0.05023756
0002f0 1c 23 38 be 24 b9 d6 bd 06 f0 ae 3b 20 d0 1d be
       -0.17982143 -0.104845315 0.0053386716 -0.15411425
000300 72 3e 5c 3d d0 ac 75 be 32 e7 87 bd 76 37 8f be
       0.05377049 -0.23991704 -0.06635894 -0.27972
000310 cc b6 eb 3d a9 1d c9 3d b0 ab c4 bb 7c 69 44 3d
       0.11509475 0.0982011 -0.006001912 0.04795216
000320 f0 9b bf bc 6d 7f 9c be 1e 7e 85 3e 92 9d 81 be
       -0.023389786 -0.30565968 0.26072782 -0.2531553
000330 14 cb f3 3d 08 a5 94 3c c5 a3 58 bd 89 5e 37 3e
       0.119039685 0.0181451 -0.052890558 0.17907156
000340 22 d5 30 3d e4 76 ce bc d6 e6 db bd 11 29 54 be
       0.04317201 -0.025203176 -0.10737388 -0.2071879
000350 e0 04 18 be 9c 27 89 3e d5 a2 98 be ac 69 a5 bd
       -0.1484561 0.26788032 -0.2981173 -0.08076796
000360 69 64 98 bc 8d 30 a7 be f5 bb d6 3b b2 90 48 be
       -0.018602567 -0.3265423 0.006553168 -0.19586447
000370 67 05 8b 3c ad ea 47 3c 6c c6 8b bd 5f 0a 5d 3d
       0.01697035 0.012201947 -0.06824955 0.05396497
000380 33 31 09 3e eb d7 75 be ed 70 dd 3d 8b 74 04 3d
       0.13397674 -0.24008147 0.108125545 0.032337707
000390 99 12 d3 bd a2 05 ec 3c 22 d5 41 bd a6 14 55 3c
       -0.103062816 0.02881128 -0.0473224 0.013005411
0003a0 af f4 f1 3d 8f c1 58 3c 5d 25 27 3e 19 7c a0 3d
       0.11814248 0.013229742 0.16322847 0.0783617
0003b0 bc 94 d1 bd 0a 45 80 3e 58 fa f1 3c a0 b6 aa bd
       -0.10233447 0.25052673 0.029538319 -0.08335614
0003c0 d2 c6 13 be c6 9c 87 be c2 e0 5e be 5c 4b 60 be
       -0.14431313 -0.26486796 -0.21765426 -0.21903747
0003d0 94 d4 30 bd 59 b1 b4 bd 2d 0f 86 3c 74 7d f5 3d
       -0.04317148 -0.08822889 0.016364658 0.11986819
0003e0 80 c6 00 be 9d d1 9a be f2 06 09 be e0 13 ec 3d
       -0.12575722 -0.30238047 -0.13381556 0.11527228
0003f0 a4 32 94 be 71 92 8b 3e d0 04 b2 3d d0 e8 74 3e
       -0.28944886 0.27260163 0.08692324 0.23916936

bias_ih_l0 f4 [64]
000000 80 56 5f 3e d4 4c 73 bc a9 a3 83 3d 9c 8b c8 bd
       0.21810341 -0.01484986 0.064277 -0.097922534
000010 32 96 a1 3e 2c 60 a0 3e 1b 56 d8 3d 13 c6 62 3d
       0.31559902 0.31323373 0.10563298 0.05536468
000020 df 2e 0c be 7b c5 dd 3d 3c ba 8c 3d 4b 9c 2f 3e
       -0.13689755 0.10828682 0.06871459 0.17149465
000030 a6 b6 6d 3e 1a 3d 1c be 4b 64 5b 3e a9 69 1f 3e
       0.23214206 -0.15257683 0.21424977 0.1556765
000040 52 d1 05 3e 49 eb 1b 3c 5c 3c aa bd c5 a9 14 3e
       0.1306813 0.009516546 -0.08312294 0.14517887
000050 99 94 01 3e 59 18 0f be 64 68 97 3e 5c 1a eb 3c
       0.12654342 -0.13974132 0.2957183 0.028699093
000060 b0 4b 93 3e 71 3e 0e bd d2 81 15 be 52 ad 00 3d
       0.28768682 -0.034727518 -0.14600304 0.03141529
000070 aa c4 24 3e b2 9b ee 3c dc 14 7a 3e 30 4d 9a bd
       0.16090646 0.029126976 0.2442202 -0.075342536
000080 50 d1 3f be f7 a6 f0 bd bf 3a 90 be 6b 2e 21 3d
       -0.1873219 -0.11750596 -0.2816982 0.03935091
000090 02 b0 4b 3d 6c ac 61 3e 88 8c 6d be 73 c4 02 3e
       0.0497284 0.2203843 -0.2319814 0.12770252
0000a0 8d 67 79 3d fd 7c de bd 10 ff 90 3e 1c c3 1a 3e
       0.06088977 -0.108636834 0.28319597 0.15113491
0000b0 f4 f8 71 3d 81 a8 80 3e bb 8d e9 3b e4 71 89 3e
       0.05907531 0.25128558 0.0071274913 0.26844704
0000c0 a2 ec 87 bd f2 f4 8f bc dd 44 3e 3c 15 17 49 3e
       -0.06636931 -0.017572854 0.011613098 0.19637711
0000d0 8e 14 a0 3d 99 67 18 3e 8a c7 9a 3d 16 ce d4 3d
       0.078164205 0.1488327 0.0755759 0.1039087
0000e0 27 d4 ba 3d 72 ac 22 3e b1 cb 29 3e 00 3a 97 3e
       0.09122496 0.15886095 0.16581608 0.29536438
0000f0 5e c2 89 3e ee bc a5 3c f2 83 69 3e 85 98 c0 bd
       0.26906103 0.02023169 0.2280424 -0.09404091

bias_hh_l0 f4 [64]
000000 86 70 23 be 74 b5 11 be ed 1e 9b bb 35 c4 21 3e
       -0.15960893 -0.14229375 -0.0047339112 0.15797503
000010 43 5c 29 be 85 f1 cb bc 3f 71 17 3e e4 1d bc 3d
       -0.16539101 -0.024895439 0.14789294 0.09185389
000020 9b e2 05 3e 0b 77 dc 3d 7b 9d 03 3e 3f 2b 9e bd
       0.13074724 0.10764893 0.12853043 -0.07723092
000030 9e 85 63 3e f1 59 96 3e eb 82 ea bc af 55 fd bb
       0.2221894 0.29365495 -0.02862688 -0.0077311615
000040 b1 22 8a bc 67 c5 b0 bd 84 3e 9e 3e 6d 9f 05 bd
       -0.016862245 -0.086314015 0.3090707 -0.032622743
000050 77 1f 17 3d d1 6a af 3b af 3e 7a bd d6 5e 89 bd
       0.03689524 0.0053533097 -0.061094936 -0.06707542
000060 83 a6 56 3e d4 67 3d 3e 6b a3 23 be cb 5d a3 3e
       0.20961957 0.18496639 -0.15980308 0.31907496
000070 40 df 98 3e f8 47 52 3d 49 13 1a 3e 44 d9 03 be
       0.29857826 0.051338166 0.15046419 -0.12875849
000080 1c 1f 31 be 3b 18 a3 3c d4 3a 83 be 59 93 01 be
       -0.17297024 0.019909015 -0.2563082 -0.12653865
000090 51 9a 8e be 9a 28 f0 3d 7a 40 33 3e a9 a2 ff bd
       -0.2785211 0.11726494 0.17505065 -0.12482197
0000a0 d9 a1 50 bd 97 48 84 3d 10 09 1f be 34 04 e1 bd
       -0.0509356 0.06459158 -0.15530801 -0.1098713
0000b0 fa 81 98 bd 79 ae 72 3e 33 cb 63 be 33 dd be 3d
       -0.07446666 0.23699369 -0.22245483 0.09319534
0000c0 94 f6 75 3e 70 93 57 3c 57 16 89 3e 7c e0 4a 3d
       0.24019843 0.01315771 0.26774856 0.04953049
0000d0 d0 2b d7 bd a0 ef 83 bb 37 ea 56 3d f6 56 f4 3d
       -0.105064034 -0.0040263683 0.05246946 0.11930649
0000e0 db ca 82 3e 40 89 48 bd cd 11 93 bb 23 05 ed bd
       0.2554539 -0.048959017 -0.004488206 -0.115732454
0000f0 4f 13 31 3e 8c 4a 9c 3c e9 47 99 3e 81 73 82 3d
       0.17292522 0.019078515 0.29937676 0.06369687

weight f4 [32, 16]
000000 4e e9 28 3e 50 19 c8 3d 00 3a 29 3e 38 c2 7b 3d
       0.16495249 0.09770453 0.16526031 0.06146452
000010 22 f0 1b 3e fe 85 58 3e bc 67 66 3e fc d2 06 be
       0.15228322 0.21144864 0.22500509 -0.13166422
000020 08 53 17 3e ba 41 3e be 4c f5 9d 3d a0 b5 0b 3d
       0.14777768 -0.1857976 0.07712802 0.034108758
000030 ea 4e 67 3e 76 98 3d be 14 59 06 be a8 80 59 bd
       0.22588697 -0.1851519 -0.13119918 -0.05310121
000040 7a b1 26 be 5c af 3d be 32 c2 1f 3e 00 f6 18 3b
       -0.1627864 -0.18523926 0.15601423 0.0023339987
000050 60 b0 35 bd dc 62 56 3e 90 69 bf bc e6 0b 1e 3e
       -0.044357657 0.2093615 -0.023365766 0.15434226
000060 ca 09 6f 3e 4c 05 fc 3d 5c fd 3a be 50 aa 21 3d
       0.23343578 0.12305698 -0.18260711 0.039469063
000070 64 6b b4 3d 28 32 ca bd 78 56 bf bd 68 90 4d be
       0.08809546 -0.09872848 -0.093426645 -0.20074618
000080 a9 70 a9 be 13 ee dc be e3 26 93 ba 83 17 1b 3d
       -0.33093765 -0.43150386 -0.0011226799 0.03786422
000090 8a 6c 93 be 85 fa 9a 3e c5 85 a3 be d4 df d8 3d
       -0.28793746 0.30269256 -0.31937996 0.10589567
0000a0 c8 39 34 3d e0 10 d9 be dd 19 ba 3e 99 68 e5 bd
       0.044000417 -0.42395687 0.36347857 -0.11201591
0000b0 60 3e 2e 3d e5 a9 8d 3e a6 e5 36 be 0f 1c e9 3d
       0.042539954 0.27668682 -0.17861041 0.11382305
0000c0 3c b1 92 3d 0a 04 2e bd 6d 50 56 be 87 fc b5 3d
       0.07162711 -0.04248432 -0.20929118 0.088860564
0000d0 ba 9b 90 bd 4c d0 b9 3e d5 c9 b4 3c cd 09 c9 3e
       -0.070609525 0.3629173 0.022068897 0.3926529
0000e0 10 2e 6e be 51 69 a7 be b7 ab ae 3c 30 56 93 be
       -0.23259759 -0.32697538 0.021322114 -0.28776693
0000f0 d5 18 26 be 22 38 4d bd 90 8d ca 3c 3a 10 cd 3d
       -0.1622041 -0.05010236 0.024725705 0.100128606
000100 4c 9f a2 be eb 3f cc be db e9 32 be 93 0a 63 bd
       -0.3176216 -0.39892516 -0.17472021 -0.055430006
000110 a0 3b 9d be 49 38 93 3e 32 35 b1 bd db 84 67 bd
       -0.30709553 0.2875388 -0.08652724 -0.056523185
000120 3a d4 28 be 0e f8 0a be aa 4e 73 3e 5c 13 08 bd
       -0.16487208 -0.13571188 0.23760477 -0.033221588
000130 08 09 5c be cb 21 c9 3e 74 c3 a0 3c 5f 87 a7 bd
       -0.2148782 0.39283594 0.01962445 -0.08180117
000140 70 be 21 bd 28 99 0b bd 6c 27 8f 3d 48 5d a3 bd
       -0.039488256 -0.034081608 0.06989941 -0.07976776
000150 a8 14 a0 3d 06 b5 52 be 44 30 eb bd 7c 7a 0f be
       0.0781644 -0.20576867 -0.11483815 -0.14011568
000160 2c b7 9a 3d 44 97 74 3e 0a 3a 0c 3e 52 9f 4b be
       0.075544685 0.23885828 0.13694015 -0.19884995
000170 00 22 9f bd 50 38 b0 3c a4 dd 14 be 5c ae 3e 3e
       -0.07770157 0.021511227 -0.14537674 0.186212
000180 4f 57 84 3e 2c 23 b6 bd 5f 22 5d 3e d0 85 6d 3e
       0.2584786 -0.08893427 0.21595143 0.23195577
000190 33 fb 28 3e 5e 99 eb bd b2 1f 2f be 00 ea 49 3e
       0.16502075 -0.11503862 -0.17101935 0.1971817
0001a0 23 43 ea 3d d8 02 3b 3c 8b f0 5f be ef d8 24 3e
       0.114385866 0.011414252 -0.21869104 0.16098379
0001b0 18 09 24 be 79 b6 dd bd 0c 85 46 be 5f 1e f7 bc
       -0.16019094 -0.108258195 -0.19386691 -0.03016585
0001c0 b0 38 52 3d 34 0a 6b be 68 d4 1d 3d 74 8b 98 bd
       0.051323593 -0.22953111 0.038532645 -0.074484736
0001d0 b8 af 4f bd 7e 28 7e be 8e 3d 03 3e bc 9f fe bd
       -0.050704688 -0.24820134 0.1281645 -0.12432811
0001e0 e4 99 8a bd 5c 0e 53 be 20 3f f0 bc dc d0 00 be
       -0.067676336 -0.20610946 -0.029326975 -0.12579674
0001f0 b4 7a c8 bd 70 c2 f8 bd 20 1d 43 bd 9c 77 90 bd
       -0.09789029 -0.12146461 -0.047635198 -0.07054064
000200 cd 08 bd 3a 26 07 8e be b0 20 2e be 4c a8 14 bc
       0.0014422179 -0.2773983 -0.17004657 -0.009073328
000210 7d f1 79 be 73 ca 23 3e 51 97 cb 3d 21 85 cf 3e
       -0.24408527 0.15995197 0.09940971 0.40531257
000220 ae f5 90 be 93 57 50 3c e0 f1 69 bc 87 24 cf bc
       -0.2831244 0.012716192 -0.014278859 -0.025285972
000230 d4 f2 10 be 3e 9b 97 3e 8a c8 5d be a5 7d 6d bd
       -0.14155132 0.29610628 -0.21658531 -0.057981152
000240 99 bb 2a 3e aa 03 2b 3e ab 72 2c be aa 14 3f be
       0.16673125 0.16700616 -0.16840617 -0.18660226
000250 81 0c ef 3d f6 72 8e 3d f4 13 51 3e e7 53 df bd
       0.11672307 0.06955521 0.20417768 -0.10904675
000260 b5 b6 f1 bd a1 09 85 3e f8 28 a7 3c 00 13 b1 3d
       -0.11802427 0.2598391 0.020405278 0.08646202
000270 f9 88 42 3e 16 b3 75 3d 69 a6 53 bd cd 46 6a 3d
       0.18997563 0.059985243 -0.051672373 0.057196427
000280 1d 50 63 bd f4 c6 20 be 85 39 b9 be 1f 96 5c be
       -0.055496324 -0.15700895 -0.36176696 -0.21541642
000290 75 32 b5 be 47 9e a8 3e 2e 98 da bc e3 23 68 3e
       -0.35390058 0.32933256 -0.026683893 0.2266994
0002a0 43 f6 67 be 79 f8 ab be fd b4 a6 3e a6 f1 d2 be
       -0.22652535 -0.33588007 0.32559958 -0.41199988
0002b0 72 a7 b2 be 72 2c 3e 3e 43 b5 bf bd 3f 4f 92 3e
       -0.34893376 0.18571642 -0.09360745 0.28576085
0002c0 ac 7f 26 3e b8 b6 03 3e 21 bc c3 bd 30 f2 ce 3d
       0.1625964 0.1286267 -0.09557367 0.10104787
0002d0 97 2a 62 3b 68 ef f9 bd a4 a3 69 be f6 c2 a3 3d
       0.0034510249 -0.12203866 -0.2281633 0.0799617
0002e0 5b 87 76 3e 9c 3a 4c 3e 8a d3 04 3e da fc 1e 3d
       0.24075072 0.19944233 0.12971321 0.038815357
0002f0 5a 0a 22 bd 62 b2 08 be ac ce 07 be 8b c9 68 be
       -0.039560653 -0.13349298 -0.13262433 -0.22733133
000300 fc cf b9 3d 7c 2e 60 3e d8 e5 67 3e 22 45 3a 3e
       0.09072873 0.21892732 0.22646272 0.18190435
000310 68 21 be bd c0 9d ec 3c 60 a1 72 3d a8 0c e4 bd
       -0.092837155 0.028883815 0.05923593 -0.111352265
000320 c8 22 46 3e 14 28 c5 bd 1c 02 f2 bd 30 7b 91 3d
       0.19349205 -0.09626785 -0.118168086 0.07103574
000330 e8 61 27 3d 90 9d 5a bd 18 fa ee bd 9e 0b 11 3e
       0.040864855 -0.05337292 -0.11668795 0.14164588
000340 d0 fb b6 bc 52 13 1f 3e b0 54 5c 3e 9e 98 7d be
       -0.02233687 0.15534714 0.2151668 -0.2476525
000350 da 35 7c 3e 10 04 63 be 60 92 94 bc 60 a1 db 3d
       0.24629918 -0.22169518 -0.018136203 0.10724139
000360 7c ac 42 be 90 b9 d2 bd 30 38 30 be 44 1b 86 bd
       -0.1901111 -0.102892995 -0.17208934 -0.06548169
000370 58 29 4f 3d 88 82 0f 3d 00 f4 ca bc e8 58 cd bd
       0.050576538 0.035036594 -0.024774551 -0.10026723
000380 02 04 92 3d 4b c2 3c 3d 9b 45 5d be 87 17 0c be
       0.07129671 0.04608373 -0.21608584 -0.1368085
000390 08 db 69 be 8c 3e b5 3e f4 2f b5 bc 82 99 bf bc
       -0.2283746 0.35399282 -0.022117592 -0.023388628
0003a0 7c ff 61 bd ae 72 b6 be fa 96 ea bb cc ce 8f 3d
       -0.05517529 -0.3563437 -0.007159111 0.07021865
0003b0 2b 31 03 be cc a1 87 3e 46 b6 87 3d ec c4 ad 3e
       -0.12811725 0.2649063 0.06626563 0.33939302
0003c0 cc 2a 2f 3e d2 3b 4f 3e 28 05 5f 3e 3c 23 ef bd
       0.1710617 0.20237663 0.2177931 -0.11676642
0003d0 ac 19 b8 bd 0e 1f 3e be c6 a2 2c be c0 87 b0 bc
       -0.089892715 -0.18566534 -0.16858968 -0.021549106
0003e0 0c c3 fa bd 20 e5 db 3c 08 da 3f be 48 96 25 3d
       -0.122442335 0.026842654 -0.18735516 0.040426522
0003f0 b4 b2 8e bd 9e 53 62 be a0 56 08 bc 90 2d 9d 3d
       -0.06967679 -0.2210221 -0.008321434 0.07674706

bias f4 [32]
000000 a0 3e 74 bd 12 b3 63 be a2 2b 01 3e 47 ec 83 3e
       -0.059630036 -0.22236279 0.12614301 0.25766203
000010 0a 8b f1 3d 66 c2 64 be c2 16 61 3e cc 85 c4 bd
       0.11794098 -0.22339782 0.21981338 -0.09595832
000020 de 10 a8 3e 1f 6a 07 bc 82 f2 2e bd 00 88 58 3d
       0.3282537 -0.008265047 -0.042711742 0.052864075
000030 40 af 53 bd 00 2a 2f be 5e 6c 7a 3e b4 2e 9d bd
       -0.051680803 -0.17105865 0.24455401 -0.076749235
000040 fd 3c 3c 3e 06 30 4f 3e 79 30 b8 bd 11 a1 c7 3d
       0.1838264 0.20233163 -0.089936204 0.09747518
000050 1d 52 97 3e 09 fb 1a 3e 39 73 7b 3e 08 62 75 be
       0.29554835 0.15134825 0.24555673 -0.23963177
000060 d6 5c 3b be 39 4c 71 be 20 5d 02 bc fc 81 88 3e
       -0.18297133 -0.23564233 -0.007956773 0.2666167
000070 3b ae a2 3b c9 a3 bb bd 00 9e 44 3e a8 3b 6e 3e
       0.0049646175 -0.09162099 0.19200897 0.23264945

weight f4 [32, 32]
000000 92 df fe 3d 78 51 05 3e 45 38 a0 bd 08 60 29 3e
       0.124449864 0.13019359 -0.078232326 0.1654054
000010 c3 74 fa bd f6 48 d5 bd 39 1f f4 bd db 9a 06 3e
       -0.12229302 -0.10414307 -0.11920018 0.1314501
000020 54 53 29 be 26 56 47 3d a1 21 b3 3d 3d e8 5b 3d
       -0.16535693 0.048666142 0.087466486 0.053688277
000030 c9 1d 2f be 41 db 21 3e a1 7b 21 3e 3b 5e 0b 3e
       -0.17101206 0.15806295 0.15769817 0.13610165
000040 8e 35 b0 3d 23 67 d9 bc 6b e5 de bd 71 b5 78 3d
       0.08603965 -0.026538437 -0.10883602 0.06071991
000050 6e c1 b0 bd 52 8e 1f be b4 67 8d 3d ec b0 d0 bd
       -0.08630644 -0.15581635 0.069045454 -0.10189995
000060 64 52 01 be b4 d6 92 3d 69 7a 2c 3e 54 3d 2c be
       -0.12629086 0.071698576 0.16843571 -0.1682027
000070 95 35 94 bc 49 2e ae bd c0 61 dc bb e2 a3 bb 3d
       -0.018091956 -0.08504922 -0.00672552 0.091621175
000080 ed 6b 82 3d eb ce 97 bd 98 b5 85 3d 17 c2 95 3e
       0.063682415 -0.07412513 0.06528777 0.2924964
000090 23 91 93 3e 31 86 f7 bd a6 02 cd bd 55 76 bd 3d
       0.28821668 -0.12086142 -0.10010271 0.09251086
0000a0 a5 a0 3d 3e f4 6c 15 3e 75 90 af 3e c5 80 32 be
       0.18518312 0.14592344 0.342899 -0.17431934
0000b0 d8 b1 f9 bd cb cf aa bd 35 49 13 bc 8f 7c 28 be
       -0.12192124 -0.083404146 -0.008989622 -0.16453765
0000c0 a6 fa 9f 3e b7 54 4b 3e 78 76 c1 3d f5 bb df 3d
       0.31245917 0.19856535 0.09446424 0.10924522
0000d0 04 d0 c1 3d 0e 31 a9 3e 94 f6 0c 3d c4 c4 80 bd
       0.09463504 0.33045238 0.034414843 -0.0628753
0000e0 b9 3d 0a 3d b1 6c f4 bd a7 bb 44 3e 3b f2 5a 3e
       0.03375027 -0.11934794 0.19212209 0.21381466
0000f0 7c 0a 90 3e e5 bf 1a 3e ac f5 91 3e b1 c2 ba bd
       0.28133 0.15112264 0.28507745 -0.09119166
000100 7c 11 3c b9 94 43 b0 3c 46 6c 03 be 87 c4 ef 3d
       -0.0001793559 0.021516599 -0.12834272 0.117074065
000110 e5 f6 7c bc 6d fa bb bd 73 47 ca bd 96 79 90 3d
       -0.015439724 -0.09178624 -0.09876909 0.07054441
000120 aa aa ab 3b 90 37 b8 bc 72 bb 89 bd 1a 7c a0 3b
       0.0052388506 -0.022487432 -0.067252055 0.0048976066
000130 29 13 6b 3d 2e 97 b9 bd 14 7d 20 be 97 09 dd 3d
       0.05739132 -0.09062038 -0.15672714 0.10792845
000140 77 9e 12 3e 2c fc 29 be 45 54 1c 3e 05 76 e1 3d
       0.14318262 -0.16600102 0.15266521 0.110088386
000150 e3 7b ac 3d bc 23 38 be ea 71 68 3d bd f0 17 be
       0.08422067 -0.17982382 0.056749262 -0.14837928
000160 4f c6 fb bd a9 88 03 be ab cf 97 bd fa 6d e2 3d
       -0.12293684 -0.128451 -0.074126564 0.110561326
000170 9e 4f 5d bc b6 26 a5 3d 07 5a 89 bd b7 b3 d6 bd
       -0.013507752 0.08064024 -0.067066245 -0.10483497
000180 68 8d 17 3e 4c 32 45 3d f3 ba 40 3e 5f a5 20 3e
       0.14800036 0.04814367 0.18821315 0.15688084
000190 bd 74 88 3e 5a ff 31 be e1 ad 08 be 9b 3e c1 bd
       0.26651564 -0.17382565 -0.1334758 -0.09435769
0001a0 20 0d e2 3d e2 8f 95 3d c0 c7 a2 3d 89 a1 47 3d
       0.1103766 0.07302834 0.079482555 0.048738036
0001b0 16 4f 35 3d d9 77 bf 3c cc 19 6a 3e b7 1a 32 3e
       0.044264875 0.023372578 0.22861403 0.17393003
0001c0 4b a9 52 3e f1 4e 10 3d 1b 42 e6 3c 97 ae b7 3d
       0.20572393 0.035231534 0.028107693 0.08968847
0001d0 27 d4 15 3e 3d f5 58 3e 9a a1 2c 3e 46 7b b4 3d
       0.14631711 0.21187301 0.16858521 0.08812575
0001e0 f7 ec 4f 3d b3 30 df 3d 93 2b 5a 3e 16 39 a3 3d
       0.050763097 0.108979605 0.21305685 0.07969873
0001f0 3d 23 a9 3c a0 8b 97 bc 95 57 52 3e 78 40 bc bd
       0.020646686 -0.018499196 0.20541222 -0.09191984
000200 6b e3 b2 bc 75 84 14 3e ec 44 3a bd 2a 4d f4 bd
       -0.021836957 0.14503653 -0.045475885 -0.119287804
000210 26 c1 ec 3c c7 74 b0 bd fc 40 10 3d fb e7 0e 3e
       0.028900694 -0.086160235 0.035218224 0.13955681
000220 72 9b db 3d c1 f9 e5 bd 32 27 2b 3d 1a 86 22 3e
       0.10723008 -0.112292774 0.041785426 0.15871468
000230 10 d9 e5 3d 16 c4 18 be 83 d5 00 3e 09 d8 54 3d
       0.11223042 -0.14918551 0.12581448 0.05196384
000240 12 6f 13 bd 49 41 45 bd ed ae e7 bb b3 d3 81 bd
       -0.035994597 -0.048157964 -0.0070704133 -0.063392065
000250 a2 f5 99 3c 0b 9c b2 3d cf ff a4 3d 0b d0 31 bd
       0.018793885 0.08721169 0.08056604 -0.043411296
000260 fb 3f d5 bd 51 09 80 3d 0e df 45 bd 15 3d 11 be
       -0.10412594 0.06251777 -0.048308425 -0.14183457
000270 80 99 f8 bb 21 ad c8 3d 4c f8 31 3d 15 39 73 bc
       -0.007586658 0.09798647 0.043449685 -0.014845152
000280 4c a4 92 3d 44 85 04 be 58 c2 28 bd 58 d8 50 ba
       0.071602434 -0.12941462 -0.041200966 -0.0007966808
000290 52 1c 28 be 15 ab 66 3d 36 fc 71 bc fc 5b 09 be
       -0.16417053 0.0563155 -0.014769604 -0.13413996
0002a0 cd 55 53 bb 0b 40 cd 3d f5 35 79 bd a6 b7 91 3d
       -0.0032247186 0.10021981 -0.060842473 0.07115106
0002b0 3b ee bb 3d 42 56 cc 3c d9 92 23 3e b2 d3 9b 3d
       0.09176298 0.024943475 0.15973987 0.07608737
0002c0 2c cb a8 bd dc 37 0a be ba 30 e7 3d 7c 23 e2 3d
       -0.08241877 -0.13497871 0.11288591 0.11041924
0002d0 60 fe c3 3d 59 9d f5 bc 19 6c ca 3c 0c 5f 44 ba
       0.095700026 -0.029982256 0.024709748 -0.000749097
0002e0 f3 80 fe 3c 45 ce f5 3c 3f b3 9d bc 49 59 f4 3d
       0.031067347 0.030005584 -0.01925051 0.11931092
0002f0 7f f7 1e 3c 22 f5 2f bd ae 20 c8 bd 19 9f 70 bd
       0.009702562 -0.042958386 -0.09771858 -0.058745477
000300 c1 1c 01 be 4f 84 e7 bd 0c e7 b2 bd 1f e9 81 bd
       -0.12608625 -0.11304533 -0.08735475 -0.063432924
000310 65 60 e2 3c 80 f5 ca 3d 92 01 d6 bc f2 fd 5e 3d
       0.027633855 0.09910107 -0.026123796 0.0544414
000320 f5 bb 2b 3e ab e2 ec bd 4a fc 1f 3e 39 40 66 bd
       0.16770919 -0.11566671 0.15623584 -0.05621359
000330 44 9e 40 3c 60 59 04 3d b1 ca 1d 3e 21 0a c0 bd
       0.011756483 0.032311797 0.15409352 -0.09376932
000340 a5 63 a8 bd 27 9c 2a 3e 76 ec 10 be b2 95 ad 3d
       -0.08222131 0.1666113 -0.14152703 0.08475818
000350 9d f3 d9 3c cc f0 40 bb bb 8e 29 be e4 00 f5 3d
       0.026605422 -0.00294404 -0.16558354 0.119630605
000360 d5 83 52 3d ea e5 c3 bc f1 63 e6 bd 8f d6 77 3b
       0.051395256 -0.023913343 -0.11249531 0.0037817096
000370 95 83 6f 3c 60 5c 21 3e d0 75 1f be d8 1d 22 3d
       0.014618774 0.15757895 -0.15572286 0.039579242
000380 23 ec d7 bd 6a 39 77 3c 7b 93 05 be a6 35 16 be
       -0.105430864 0.015089372 -0.1304454 -0.14668903
000390 bd 36 8a 3d 62 e1 21 3d 3f 48 ee 3d fd 82 ad bd
       0.06748722 0.039521582 0.116348736 -0.0847225
0003a0 ab e4 06 be ed 8d 26 3e 40 bb 9e bd 05 ec db bc
       -0.13173167 0.16265078 -0.07750559 -0.026845941
0003b0 a4 0a 8b bd 79 a6 30 be 2d 08 87 bd db 5d ea bd
       -0.06789139 -0.17251004 -0.06593356 -0.11443683
0003c0 5c 24 83 3d b1 5e b6 bd 0a d9 26 3e 71 30 77 bd
       0.064034194 -0.0890478 0.16293731 -0.06034893
0003d0 c9 8f 5f bd 30 38 09 3e e4 9d ea bd 64 e1 5b bd
       -0.054580484 0.1340034 -0.114558965 -0.053681746
0003e0 0f d6 a1 bd fb 65 d6 3b f5 30 dd 3d df 98 fc bd
       -0.079021566 0.0065429187 0.108003534 -0.12333845
0003f0 b5 a6 0e 3e 7d 15 72 bc 5e fe 01 bd d5 6e 88 bb
       0.13930781 -0.014775631 -0.031736724 -0.004163603

bias f4 [32]
000000 bc 02 9b bd ac 51 91 3c ec 5a e1 3b ff 72 cb 3d
       -0.07568881 0.01773914 0.006877294 0.09934043
000010 30 ea 17 be 37 4c 63 bd 92 53 89 bd 66 e1 28 be
       -0.14835429 -0.055492606 -0.06705393 -0.16492233
000020 ca 64 ab 3d 4b 73 ca 3d 5a 7c 09 bd 12 df 8f 3a
       0.08368833 0.09885272 -0.033565857 0.0010976514
000030 13 90 5e 3c f4 dc 9f bd fc 90 f9 3d 75 5d 2c 3e
       0.013584155 -0.07805815 0.12185857 0.16832526
000040 a4 60 8b bd 4e fe 37 3e df 59 7f 3e 42 29 31 be
       -0.06805542 0.17968103 0.24936627 -0.17300895
000050 63 1f 31 3e f1 ae 74 bd fd 4d 2d be 58 6f 87 bd
       0.1729713 -0.05973715 -0.16924281 -0.06613034
000060 60 6a c4 bd 56 d5 50 3c c6 be 1a bd eb cf 09 3e
       -0.09590602 0.012746176 -0.037779592 0.1345822
000070 19 74 31 bd 63 9b e4 3d 43 53 60 bd a3 52 f4 3d
       -0.04332361 0.1116245 -0.054766905 0.11929824

weight f4 [32, 32]
000000 1b 86 be bd 10 47 5d 3d b9 6f 5a bc 0f 86 19 3e
       -0.09302922 0.05402285 -0.013332301 0.14992546
000010 d3 73 43 bd 52 0e 06 be 0c 3e 1f be ad 33 d4 bd
       -0.04771788 -0.130914 -0.15551013 -0.10361419
000020 fc c6 ae 3e 05 15 91 3d 8a ee ee 3d 85 51 6b bc
       0.34136188 0.07084087 0.116665915 -0.0143626975
000030 a3 4f 1d 3e 1a fc 75 ba 4d f1 03 3d 1c 6e a4 3e
       0.1536241 -0.00093835744 0.032212544 0.32115257
000040 5c 04 55 3d 29 83 6f 3e 80 ae 8b 3e 45 5a 13 be
       0.05200611 0.23389877 0.2728157 -0.14389904
000050 0e d8 9a 3e b8 9d 21 3e c4 df 09 3e 88 c8 8b bd
       0.30242962 0.15782821 0.13464266 -0.06825358
000060 41 91 d7 bd cf 9e f7 bd 30 23 21 be da 30 98 3e
       -0.10525752 -0.12090837 -0.15736079 0.2972477
000070 3c c8 ac 3e eb 0c a4 bc 17 65 55 3e 1e a1 94 3e
       0.33746517 -0.020025691 0.20839344 0.29029173
000080 d6 ce 98 3d 38 43 a7 bd 15 b4 b4 bd f9 e0 14 3e
       0.07461326 -0.08167118 -0.088234104 0.14538945
000090 7d 2f 5f 3d 5c af 9c 3d 1e 89 c9 bc 2a 29 d3 3c
       0.054488648 0.07650635 -0.024601515 0.025776464
0000a0 ed a6 62 be d7 1c 16 3e 7a d3 92 bc 95 95 d5 3d
       -0.2213399 0.14659439 -0.017923106 0.10428921
0000b0 fd 39 ae bd 03 30 a9 bd ae b4 02 3e fd 6a 46 3e
       -0.08507154 -0.08261111 0.12764236 0.1937675
0000c0 74 06 a2 3d f2 6e 4f 3c c0 89 21 be 1b cf 33 bd
       0.07911387 0.012660729 -0.15775204 -0.043898683
0000d0 4f 83 07 3e 53 73 33 3e 0d 7e fb 3d b2 9e b2 bd
       0.13233684 0.17524461 0.12279902 -0.08721675
0000e0 c8 19 c7 bd c6 7e ae bd 95 36 03 be fa 67 40 3e
       -0.09721714 -0.08520274 -0.1281379 0.18789664
0000f0 cf fc 30 3d 12 9f a8 bd d4 9b 4c bc 6a 62 34 be
       0.043209847 -0.08233465 -0.012488324 -0.17615667
000100 34 b0 a4 bd f9 e7 f0 bd 6c cb 19 be 85 b7 d8 3d
       -0.080414206 -0.11762995 -0.15019006 0.105818786
000110 38 a8 08 3d 73 99 28 3e 11 6d 75 3d df 84 f2 3d
       0.03336355 0.16464786 0.059918467 0.118417494
000120 5b c8 c1 3c 39 3f 2c be f6 73 bc 3d 5d 79 33 be
       0.023655107 -0.16820993 0.09201805 -0.17526765
000130 31 5f 1f be 5d fe 9b 3d 0a 01 a6 bd 34 c7 fd 3d
       -0.15563656 0.07616875 -0.08105667 0.123915106
000140 cd 50 d0 bc 13 1c dd 3d 45 ee e2 bd 23 b8 ed 3d
       -0.025429154 0.1079637 -0.110806026 0.11607387
000150 07 1a 11 3e 6c b7 ae bd 5b 00 11 be 68 fb 94 3d
       0.14170085 -0.08531079 -0.14160292 0.072745144
000160 39 fb 21 be 1b 94 20 3e db 0c ba bd fe 53 25 be
       -0.1581849 0.15681498 -0.09084483 -0.16145322
000170 a2 ea a5 3d 8d e0 0b be d3 94 23 be 00 6b e2 3d
       0.08101393 -0.13659878 -0.1597474 0.11055565
000180 00 cf 08 3e cd e4 e5 bd 5d c9 87 3d 41 8c 06 3e
       0.13360214 -0.11225281 0.06630204 0.1313944
000190 99 a0 18 bd da 66 97 3d 27 b4 51 3c 51 5b 3b 3c
       -0.037262533 0.07392664 0.012799299 0.011435346
0001a0 1a 54 41 be 94 51 38 3e 97 96 bc ba d9 77 1a 3e
       -0.18879738 0.1799987 -0.0014388141 0.15084781
0001b0 79 62 9f bd f5 88 20 3d 1f 30 de bd c1 24 ad bd
       -0.07782454 0.039193112 -0.10849022 -0.08454276
0001c0 3b 2d a0 bd d8 81 d8 bb 13 97 94 bc 12 25 c1 bd
       -0.07821127 -0.0066072755 -0.018138444 -0.09430899
0001d0 aa 7f 39 3e 0b 6c f4 3d bc 9c 26 be ee 9a 62 3d
       0.18115106 0.1193467 -0.16270727 0.055323534
0001e0 ce 8b a9 3c d4 9c a1 3d 0d 66 de 3d 9d f3 c0 3d
       0.020696547 0.07891241 0.108593084 0.094214655
0001f0 38 b6 0c 3e 0e 3e 64 bd d4 0e 12 be 12 92 63 bd
       0.13741386 -0.055723242 -0.14263469 -0.055559225
000200 4a 90 a5 3c fa dd a7 3d d8 09 3c 3e d6 4b bd 3d
       0.020210404 0.081966355 0.1836313 0.0924298
000210 47 44 19 be 91 08 16 be 73 97 2e be 45 48 28 be
       -0.14967452 -0.14651705 -0.17049961 -0.16433819
000220 8f 7a 8b be 08 ba 47 bc 9b 10 60 3e eb 71 77 3d
       -0.27241942 -0.012190349 0.21881334 0.060411375
000230 c8 7c a3 3d 1f 2a 5a b9 6b e5 97 3d 3c 26 3b 3e
       0.079827845 -0.00020805791 0.07416805 0.18276304
000240 cf 40 18 3d 0f fe 28 3e 9c aa 6e bd 1d 3f c3 3d
       0.03717118 0.16503166 -0.058268175 0.09533522
000250 44 f1 d4 3d b2 10 e1 bd 62 5e fb 3d 13 94 27 3e
       0.1039758 -0.109895125 0.122738615 0.1636508
000260 67 73 09 bc d1 b4 b6 3c c7 f6 4f bb fc 2d 6a bd
       -0.0083893305 0.022303017 -0.0031732784 -0.05717276
000270 f9 d6 28 be 38 fd 05 3e a5 26 e6 3d ce 1d ec bd
       -0.16488256 0.13084877 0.112378396 -0.11529122
000280 e3 9c 1c 3e d8 5e d2 bb 1c 7c 7e bd 23 81 26 3e
       0.15294223 -0.0064199977 -0.06213008 0.16260199
000290 fb a3 1b be d3 40 7e bc 22 07 15 be ba ca 85 bd
       -0.15199272 -0.015518385 -0.14553502 -0.06532808
0002a0 eb f4 08 be be b9 88 bc 75 b5 b8 bd eb e6 fc bc
       -0.13374679 -0.016690131 -0.09018985 -0.030871829
0002b0 ff 9c 04 be 43 b7 0a be f5 93 d3 3d 41 32 8a bd
       -0.12950514 -0.13546471 0.10330955 -0.067478664
0002c0 65 88 e5 3d 9f 97 6d 3d 56 8d 0a be ef 9a 00 3d
       0.11207656 0.058005925 -0.13530478 0.031397756
0002d0 6a 1a 62 bd 31 bb b8 bd f3 d9 bc bc 4c 65 5a bd
       -0.05520097 -0.09020079 -0.023053145 -0.05331926
0002e0 00 a5 13 3d 7d 9b 88 bd ea 02 9a bd 9e af d2 bd
       0.036046028 -0.06670282 -0.07520087 -0.102874026
0002f0 3f 7b 0b 3e b1 33 d3 bd 1a 05 19 be ea 09 c3 bc
       0.13621233 -0.10312594 -0.14943352 -0.023808438
000300 13 20 4c bc eb 01 ea bd af 6d dd bc cb 64 e2 bd
       -0.012458819 -0.11426147 -0.02702984 -0.11054381
000310 ca a6 d2 39 fb 55 b3 3d ff d1 46 bd 0a e7 80 3c
       0.0004017859 0.08756634 -0.04854011 0.015735168
000320 28 a8 24 3d 2c 53 05 bd 73 f1 94 bd a9 3c 99 bd
       0.04019943 -0.032550022 -0.07272615 -0.07482273
000330 09 fb f0 3c e8 61 b6 3d 2a 09 30 bd c4 7a 0b 3e
       0.029416578 0.08905393 -0.04297749 0.1362105
000340 78 9b 21 3e b7 22 a9 3d 69 26 e9 3d 73 85 07 3e
       0.15781963 0.082585745 0.11384279 0.132345
000350 b0 94 aa 3d 92 9c f6 3d 26 04 0e be 38 52 75 bc
       0.08329141 0.12041582 -0.1386877 -0.014973216
000360 f4 a9 1c 3e 26 0d 8f bd b0 5a d0 3d 00 db 21 3c
       0.15299207 -0.0698493 0.10173547 0.009878874
000370 ae 6f 0b be a0 3b 6c bd 96 d5 bd bb 19 02 7c be
       -0.13616821 -0.05767405 -0.0057932837 -0.24610175
000380 0e a7 5f bd 99 f5 8b 3d 56 35 cd bd 6b 4f 28 bd
       -0.054602675 0.068339534 -0.10019939 -0.041091364
000390 20 8f d4 3d 1a 29 99 3d b2 f7 be 3d 4f e1 19 3e
       0.103788614 0.074785426 0.09324588 0.15027355
0003a0 3d 67 c8 bd 62 84 4e bd 52 6c bd 3d ac 0f 27 3e
       -0.09785316 -0.05041922 0.09249176 0.16314572
0003b0 0e f9 07 be cd 57 30 be 85 96 f1 3c d6 b1 9a 3d
       -0.132786 -0.17220993 0.029490719 0.07553451
0003c0 68 7f 9d bc 67 3c 44 3b 76 a7 c0 3c 46 a8 21 3e
       -0.019225791 0.002994323 0.023517352 0.15786847
0003d0 f5 b6 1b be f1 cc 19 3e 81 68 d7 3d 67 31 dc 3d
       -0.15206511 0.15019585 0.105179794 0.1075161
0003e0 37 6d 33 3c c2 34 16 be ef ad 3c bc 1e 41 31 be
       0.010951332 -0.14668563 -0.011516078 -0.17309996
0003f0 fd 12 e8 bd f0 7c 1f 3e af 59 93 3d 88 5f 27 bd
       -0.11331747 0.15575004 0.0719484 -0.04086259

bias f4 [32]
000000 30 75 12 3d a1 f2 bb bc d4 cf 49 bd 22 90 4c 3d
       0.03575629 -0.022942843 -0.049270466 0.049942143
000010 4d f5 81 bc 36 30 be bd 91 fd 9e bc 48 9e 33 be
       -0.015864039 -0.09286539 -0.01940802 -0.17540848
000020 73 85 38 be e2 31 32 be ca 74 49 bd 72 dc 2a 3e
       -0.18019657 -0.17401841 -0.049183644 0.16685656
000030 b1 98 c5 3d 77 32 f1 bd ca 9e 31 be d1 e2 be 3d
       0.09648264 -0.117772035 -0.1734573 0.093206055
000040 77 6c bc bd 59 3d 40 3d 71 a3 ce 3d 26 27 43 bd
       -0.092003755 0.046933506 0.10089768 -0.047644757
000050 c7 b2 0e be 05 09 00 be ca db 00 be 22 1e 4a bd
       -0.13935386 -0.1250344 -0.12583843 -0.049345143
000060 85 3e 53 3a b5 c1 f1 bd 71 65 1b 3e 02 ef f0 bc
       0.00080583274 -0.11804525 0.15175416 -0.029410843
000070 cf 71 5d bd 88 0c 17 be 5f c7 ba 3d c8 ff cf bd
       -0.054063614 -0.14750874 0.09120058 -0.10156208

weight f4 [1, 32]
000000 6d 7e 4e 3e c7 db 51 bd 33 71 07 bc ce 91 f7 bc
       0.20165415 -0.051234987 -0.008266735 -0.030220892
000010 63 be 23 bd b4 25 31 3c 76 83 1e bd 75 ec 1b bc
       -0.03997649 0.010812212 -0.03869959 -0.009516825
000020 b7 e7 8b ba 8b fc 52 3c d3 18 ea 3c 8b dd ba 3d
       -0.0010673915 0.012877594 0.02857629 0.09124287
000030 34 58 03 bd fb 50 d6 3b c9 92 14 bd d5 ee 49 3e
       -0.03206654 0.0065404153 -0.036272798 0.19720013
000040 7e ad 8f bc 8d 38 d7 3b f1 a8 36 3c c3 08 71 3a
       -0.017538782 0.0065680207 0.011148677 0.0009194726
000050 cd 86 91 3b 45 1f d2 bc cc be 05 bd 74 8f 21 3e
       0.0044411183 -0.025649676 -0.03265266 0.1577738
000060 23 99 0e 3d 1a 0b 94 3c c3 6f e4 bc 9a c7 26 bd
       0.03481401 0.0180717 -0.027885323 -0.0407177
000070 ce d9 91 3c 02 ec 1f 3c 8f 51 5f 3e 29 7d 4e bc
       0.017804053 0.0097608585 0.21808456 -0.012603083
