models/patient27/srpo_model_for_patient_27_Actor.pth (torch, 24039 bytes, 12 tensors)

weight_ih_l0 f4 [64, 2]
0	0xbdf89da6	-0.12139444
1	0x3e24d4d9	0.1609682
2	0xbe26db4f	-0.16294597
3	0xbd838efb	-0.06423756
4	0xbe84682c	-0.25860727
5	0x3d57b15f	0.05265939
6	0xbe7abc0b	-0.24485795
7	0xbe7fe2aa	-0.24988809
8	0xbeab9819	-0.3351448
9	0xbdc4b77d	-0.0960531
10	0xbeb1e2c9	-0.34743336
11	0xbe481a2a	-0.19541231
12	0xbe1a99c1	-0.15097715
13	0xbdf37acd	-0.11888657
14	0x3dc0a9e4	0.09407404
15	0x3d4a4a4a	0.049387254
16	0xbdb17d63	-0.08666494
17	0x3e884e1e	0.266221
18	0xbdf1e0be	-0.11810444
19	0xbe45ee99	-0.19329299
20	0x3dd8c37a	0.10584159
21	0xbe7e8e8f	-0.2485907
22	0xbe206ff4	-0.15667707
23	0xbda62fec	-0.08114609
24	0xbe715c2a	-0.23570314
25	0xbe1488f6	-0.14505371
26	0xbe9fef85	-0.31237426
27	0xbc67283c	-0.014108714
28	0xbcc326a7	-0.023822142
29	0x3be4b049	0.0069790226
30	0x3d2ecf2d	0.042678047
31	0xbdd22f9d	-0.10262988
32	0x3d529fab	0.051421802
33	0xbe950027	-0.2910168
34	0xbdf238aa	-0.11827214
35	0x3daaaddd	0.08333943
36	0xbe17d147	-0.14825927
37	0x3e26659a	0.16249695
38	0xbeb7c4df	-0.35892388
39	0xbe9d011d	-0.30664912
40	0x3d238fba	0.03993199
41	0x3ccf4ae0	0.025304258
42	0xbdf2e59f	-0.11860203
43	0xbdbc3ee9	-0.09191687
44	0x3d568c20	0.052379727
45	0x3e4851bd	0.1956243
46	0x3d40eeec	0.047102854
47	0x3e56eaf1	0.2098806
48	0x3e405216	0.18781313
49	0x3e78c732	0.24294737
50	0xbdf3839c	-0.11890337
51	0x3d272e50	0.04081565
52	0x3e077476	0.1322802
53	0xbcbc8e34	-0.023017026
54	0xbcb1d931	-0.02171001
55	0x3e0bd6db	0.1365618
56	0x3dd5adc7	0.10433536
57	0x3e152992	0.14566639
58	0x3d0a64eb	0.03378765
59	0xbe9133af	-0.28359744
60	0x3ddc180a	0.107467726
61	0xbe321f6d	-0.173948
62	0x3d9ff24e	0.07809888
63	0xbe44291e	-0.1915631
64	0x3e6b407b	0.22973816
65	0x3e6f41fc	0.23365015
66	0x3eb0953f	0.34488866
67	0xbe3eeac4	-0.18644243
68	0x3e840278	0.25783134
69	0x3d2c79af	0.042108234
70	0xbda7879a	-0.08180161
71	0x3e6df108	0.23236477
72	0x3e9f0cff	0.31064603
73	0xbdb947ef	-0.09046923
74	0xbe93ce77	-0.28868458
75	0xbe534752	-0.20632675
76	0x39eec66f	0.00045542742
77	0x3e13fa3c	0.14450926
78	0xbd429f44	-0.04751517
79	0xbe0b8e14	-0.13628417
80	0x3d55b5cf	0.05217534
81	0x3e585d1a	0.21129265
82	0xbe8d7055	-0.27624765
83	0xbe871125	-0.26380268
84	0xbd83052e	-0.06397472
85	0x3e96008e	0.29297298
86	0xbd2107ad	-0.03931396
87	0x3e6fc974	0.23416692
88	0xbe9c5436	-0.30532998
89	0x3e06db36	0.1316956
90	0x3cd4f244	0.025994428
91	0x3e7c44fd	0.24635692
92	0x3da6e491	0.08149064
93	0xbe2fb834	-0.17160112
94	0x3e3877a8	0.18014395
95	0x3e9a65b0	0.30155706
96	0xbe25c772	-0.16189364
97	0xbe549ae1	-0.20762207
98	0xbe888189	-0.26661327
99	0xbcd7ffaf	-0.026367037
100	0xbeba5dbb	-0.36399636
101	0x3de0f71e	0.10984634
102	0x3c9c5a09	0.0190859
103	0xbe1239b5	-0.14279826
104	0xbe6b0b2b	-0.22953479
105	0xbe96b725	-0.29436603
106	0xbe9af933	-0.3026825
107	0x3da1a5ba	0.07892938
108	0xbe9832ce	-0.2972626
109	0xbd9f6163	-0.07782247
110	0xbde85b72	-0.11345567
111	0xbe6168aa	-0.22012582
112	0xbdb5b626	-0.08872633
113	0xbe66efcf	-0.22552417
114	0x3dfba2b4	0.122868925
115	0x3d657dd7	0.056028213
116	0x3d9f2970	0.077715755
117	0xbd935929	-0.0719474
118	0xbd8ba8df	-0.06819319
119	0x3e19f1fa	0.15033713
120	0xbca8b1be	-0.020592567
121	0x3dcb284d	0.09919796
122	0xbe94bc38	-0.2904985
123	0xbce9235d	-0.028459245
124	0x3c06752e	0.008206649
125	0xbe442bf7	-0.19157396
126	0x3d997192	0.07492365
127	0xbd4aeb91	-0.04954106

weight_hh_l0 f4 [64, 16]
0	0x3dbd65b9	0.09247918
1	0xbdd67cd6	-0.10473029
2	0x3dc0783d	0.09397934
3	0x3df47da9	0.1193803
4	0xbe967676	-0.29387254
5	0xbd57aa52	-0.052652664
6	0x3d68347a	0.05669067
7	0x3df7f981	0.12108136
8	0xbe0a4a68	-0.13504946
9	0x3e8b3ecf	0.27196357
10	0xbe935736	-0.28777474
11	0x3e04f874	0.12985402
12	0xbbb9e171	-0.0056726267
13	0x3e096feb	0.134216
14	0xbe5150bd	-0.20440955
15	0x3cf79062	0.030220214
16	0x3d44b6b4	0.0480258
17	0xbd136892	-0.035988398
18	0xbe33e01e	-0.17565963
19	0x3c671b41	0.014105619
20	0x3e0c6a31	0.13712384
21	0x3e229542	0.1587725
22	0xbd27e9cf	-0.04099446
23	0x3e35bfe3	0.1774898
24	0xbd0c8d49	-0.034314428
25	0x3e4f38e0	0.2023654
26	0x3e23602f	0.1595466
27	0xbdf153fa	-0.117835954
28	0x3da3ae6e	0.07992254
29	0xbdd18e19	-0.10232181
30	0x3e827ad6	0.2548434
31	0xbdfee512	-0.124460354
32	0x3d507000	0.05088806
33	0x3e1a89d1	0.15091635
34	0x3e09cf26	0.13457927
35	0x3d90aa88	0.07063776
36	0xbba05425	-0.0048928433
37	0x3e92bcf8	0.28659797
38	0xbdbed394	-0.09317699
39	0x3ddde409	0.1083451
40	0x3dd84e0e	0.10561763
41	0xbe137a53	-0.14402132
42	0xbe9493a9	-0.29018906
43	0x3e31dcf3	0.17369442
44	0xbd46a8ae	-0.04850071
45	0xbdcfc15d	-0.10144303
46	0xbd326afe	-0.043559067
47	0xbe9292fa	-0.2862776
48	0x3d01f678	0.03172919
49	0x3d30f423	0.043201577
50	0xbdb23947	-0.08702331
51	0xbe7db00e	-0.24774191
52	0xbe825773	-0.25457343
53	0xbd459e8e	-0.048246913
54	0x3d56da8e	0.052454524
55	0x3d85bfc6	0.065307185
56	0xbd032219	-0.03201494
57	0xbd775290	-0.060381472
58	0xbe86fd72	-0.26365238
59	0xbe558de6	-0.20854911
60	0xbdba6f81	-0.09103299
61	0xbd411288	-0.047136813
62	0xbb9f0d2b	-0.0048538647
63	0xbda2ebf0	-0.07955158
64	0xbe912db5	-0.28355184
65	0xbe97a4e1	-0.2961798
66	0x3cbb9e5b	0.022902658
67	0xbe0ebd44	-0.13939387
68	0x3d3c5357	0.045977917
69	0x3e392679	0.18081082
70	0xbe40c592	-0.18825367
71	0x3e8a5331	0.27016595
72	0xbc16c961	-0.009203286
73	0xbcd52265	-0.026017377
74	0xbe9af839	-0.30267504
75	0x3dcc44c8	0.099740565
76	0x3e012d28	0.12614882
77	0xbe59a62c	-0.21254796
78	0xbd457f44	-0.048217073
79	0xbe1b88f8	-0.15188968
80	0xbe2a3ffa	-0.16625968
81	0x3e105d9b	0.14098208
82	0xbb15afe6	-0.002284044
83	0xbe5c72e5	-0.21528204
84	0xbe547e95	-0.20751412
85	0x3e1f63e5	0.1556545
86	0x3ddbc323	0.10730579
87	0x3e41b3f6	0.18916306
88	0xbe1f38eb	-0.15549056
89	0x3d207ca9	0.039181385
90	0x3ddfd288	0.109288275
91	0x3e3425d7	0.1759256
92	0xbcfe41b5	-0.03103719
93	0xbe903376	-0.28164262
94	0xbe3b0ae8	-0.18265879
95	0xbd9206f6	-0.07130234
96	0x3e5cd9d7	0.21567474
97	0x3d94f79f	0.072737925
98	0x3e2b926e	0.16755077
99	0xbdc5f457	-0.09665745
100	0xbe36a821	-0.17837574
101	0xbdd9b7c9	-0.10630757
102	0xbd051feb	-0.032501142
103	0x3c663349	0.014050313
104	0x3e1d9b8a	0.15391365
105	0x3e6b2d00	0.22966385
106	0xbe772a9b	-0.24137346
107	0xbe5f6700	-0.21816635
108	0x3e809c7c	0.25119388
109	0x3deec13a	0.11657949
110	0xbe28b2f4	-0.16474515
111	0xbe511472	-0.20417956
112	0xbd894083	-0.06701758
113	0x3de1374b	0.109968744
114	0xbd92066a	-0.0713013
115	0xbe296ad6	-0.16544661
116	0xbd4f9c3a	-0.0506861
117	0x3ac70f7b	0.0015187109
118	0xbe93275e	-0.28740972
119	0xbe5b6791	-0.21426226
120	0xbe6c41d0	-0.2307198
121	0x3e623eb8	0.22094238
122	0xbe56dfe2	-0.20983842
123	0xbe3384a3	-0.17531066
124	0x3dc0c4e1	0.09412552
125	0x3e27d5f8	0.16390216
126	0xbe680594	-0.22658378
127	0x3e37b682	0.17940715
128	0xbbbab293	-0.0056975572
129	0xbe01a573	-0.1266077
130	0x3cc821c6	0.024430167
131	0x3e732516	0.23744616
132	0xbe478c56	-0.19487128
133	0xbe18a55b	-0.14906828
134	0xbe2a4375	-0.16627295
135	0xbd62ddca	-0.055387296
136	0xbdc06f10	-0.093961835
137	0xbded0385	-0.11572937
138	0xbe2c94df	-0.16853665
139	0x3e0e6359	0.13905086
140	0xbe7ecd97	-0.24883114
141	0xbd03b906	-0.032158874
142	0x3dc0bacb	0.09410628
143	0xbe3ffe82	-0.18749431
144	0x3e0d2b42	0.13786033
145	0xbe0a3315	-0.13496049
146	0xbe5ac49f	-0.21364067
147	0x3d92bc65	0.0716484
148	0xbe096dfb	-0.1342086
149	0xbd9ee4e0	-0.07758498
150	0xbe2e765b	-0.17037337
151	0x3df928cc	0.121659845
152	0x3e2d36c2	0.1691542
153	0x3e5b365f	0.2140746
154	0xbd7b3d59	-0.061337803
155	0x3deef853	0.11668458
156	0x3e7a6575	0.24452765
157	0x3e1b1824	0.15145928
158	0x3e8520c7	0.2600157
159	0xbd1658df	-0.036705848
160	0xbe6ca7a2	-0.23110822
161	0xbd854f10	-0.065092206
162	0xbe899940	-0.26874733
163	0xbe4f2335	-0.20228274
164	0xbe4924fc	-0.19643015
165	0x3d806579	0.062693544
166	0x3de7e8be	0.11323689
167	0x3e84880d	0.25885049
168	0xbd3c0410	-0.04590231
169	0x3dbba80e	0.09162913
170	0xbea679ee	-0.325149
171	0x3d4ee2f4	0.050509408
172	0x3c047ca9	0.008086362
173	0x3dad10bf	0.0845046
174	0x3e6cccab	0.2312495
175	0xbd6efef8	-0.058348626
176	0xbdddabad	-0.1082376
177	0xbe907347	-0.2821295
178	0x3bbb09a8	0.005707938
179	0x3e67c97e	0.22635457
180	0xbe544171	-0.20728089
181	0xbde13090	-0.10995591
182	0xbdaaa3ca	-0.083320215
183	0xbd179837	-0.037010398
184	0x3a3e96d2	0.0007270399
185	0xbc981e21	-0.018569054
186	0xbe807845	-0.25091758
187	0xbe489c93	-0.19590978
188	0xbe157c04	-0.1459809
189	0xbe7b0c7b	-0.2451648
190	0x3d40182d	0.046898056
191	0xbd0b2b43	-0.033976804
192	0xbe70a3c7	-0.23499976
193	0xbe7069e4	-0.23477894
194	0xbe7f28d0	-0.24917912
195	0x3e26430d	0.16236515
196	0xbc8e4a84	-0.017369516
197	0x3c27272e	0.010202212
198	0xbe0e26fc	-0.13882059
199	0xbe2b1623	-0.16707663
200	0xbe3e440c	-0.18580645
201	0x3e19a9cd	0.1500618
202	0x3d7f7338	0.06236574
203	0xbdac4ad3	-0.08412709
204	0xbe14411a	-0.1447796
205	0xbc38d99d	-0.011282352
206	0x3e93e5cc	0.2888626
207	0xbe02d671	-0.12777115
208	0x3e2a5e7a	0.16637602
209	0xbe9c52fe	-0.30532068
210	0x3e2a2a34	0.16617662
211	0xbe9dab36	-0.30794686
212	0x3d4aa0da	0.049469806
213	0x3de0d61b	0.109783374
214	0xbdb9a418	-0.090645015
215	0xbe0acc72	-0.13554552
216	0x3da3e975	0.08003513
217	0x3e3f9b32	0.18711546
218	0xbd863373	-0.06552782
219	0xbd944b20	-0.072408915
220	0x3d74345f	0.059620257
221	0x3e0bb1e1	0.13642074
222	0x3dc0b37b	0.09409233
223	0xbe8e4f65	-0.27794948
224	0x3b9d3d0f	0.0047985385
225	0xbd8769a7	-0.066119485
226	0xbe8c3c44	-0.2738973
227	0x3debc32c	0.115118355
228	0xbddcda02	-0.10783769
229	0x3d456577	0.048192468
230	0xbe1ced41	-0.1532488
231	0xbcacb2bd	-0.021081323
232	0x3dae0431	0.08496893
233	0x3e94c0b1	0.29053262
234	0xbdba4e69	-0.09096987
235	0xbe9efb02	-0.3105088
236	0x3e2676f6	0.16256317
237	0xbe87976c	-0.26482713
238	0x3e8201fc	0.2539214
239	0xbe23d9f5	-0.16001113
240	0x3d311a57	0.04323801
241	0x3dab6886	0.08369546
242	0xbd29b28c	-0.04143004
243	0xbe9bf64a	-0.3046134
244	0xbc14adfa	-0.009074682
245	0x3db3be2f	0.08776509
246	0x3e4d452d	0.2004592
247	0x3e4d2ad1	0.20035864
248	0x3dd34b7f	0.10317134
249	0x3e806888	0.2507975
250	0x3dae4e6d	0.08511052
251	0xbda4177a	-0.0801229
252	0xbdb75d7d	-0.08953378
253	0xbe808c16	-0.25106877
254	0xbc141c54	-0.009039957
255	0xbe1d2194	-0.1534484

bias_ih_l0 f4 [64]
0	0xbd85388c	-0.06504926
1	0xbca1ee2c	-0.01976689
2	0xbc09de1f	-0.008414774
3	0x3e40dd72	0.18834475
4	0xbd3b97ed	-0.045799185
5	0xbdecb436	-0.1155781
6	0xbe3cd9e2	-0.1844249
7	0xbe2cce6c	-0.16875619
8	0xbe4370bc	-0.19085974
9	0xbcf0622a	-0.029343683
10	0xbd93755d	-0.0720012
11	0x3d9f2674	0.07771006
12	0x3d7aa2d2	0.061190434
13	0x3e2628b4	0.16226465
14	0xbdd514a7	-0.1040433
15	0x3e12ea1a	0.14347115
16	0xbe0a4d0e	-0.13505957
17	0x3d3eb536	0.046559535
18	0xbcfdd5b4	-0.03098569
19	0xbb4ef2b1	-0.003157776
20	0xbde64ef0	-0.11245525
21	0xbd974570	-0.07386291
22	0xbd74683b	-0.059669714
23	0x3e29e256	0.16590247
24	0x3d3d4595	0.046208937
25	0xbdc502da	-0.096196845
26	0x3dc02b72	0.093832865
27	0xbe390843	-0.18069558
28	0xbe4212ef	-0.18952535
29	0x3d0bd007	0.034133937
30	0xbe2a0dab	-0.16606776
31	0x3e3f63a3	0.18690352
32	0x3cf43134	0.029808618
33	0xbe0aa659	-0.13540019
34	0xbd8784f1	-0.066171534
35	0x3b3e06e4	0.0028995806
36	0xbdf21c40	-0.118217945
37	0xbde0649b	-0.10956689
38	0x3dfa1a65	0.122120656
39	0xbdd36231	-0.10321463
40	0x3e70c9dc	0.23514503
41	0xbe3a92de	-0.18220088
42	0xbe46d1f8	-0.19416034
43	0xbd707a42	-0.058710344
44	0x3d19c1d9	0.037538383
45	0xbe528fd1	-0.20562674
46	0x3e4a7aa7	0.1977335
47	0xbe1641bf	-0.14673518
48	0xbe2679fe	-0.16257474
49	0x3d6157fd	0.055015553
50	0x3e03d7c7	0.12875281
51	0x3d41b6d7	0.04729351
52	0xbe1b8e6b	-0.15191047
53	0x3e9e40bb	0.3090876
54	0xbe47b327	-0.19501935
55	0x3d8f9c65	0.07012252
56	0xbdefe60c	-0.117138
57	0x3d1e4302	0.038638122
58	0xbe0e3c5f	-0.13890217
59	0xbe122dd1	-0.1427529
60	0x3d994766	0.07484321
61	0x3e8e6ea4	0.27818787
62	0x3e210727	0.15725385
63	0xbdf7b768	-0.12095529

bias_hh_l0 f4 [64]
0	0xbd01fb02	-0.03173352
1	0x3e2f87cb	0.17141645
2	0x3e73e9d2	0.23819664
3	0x3ddb76e3	0.10716035
4	0xbe4291f0	-0.19000983
5	0xbe44f999	-0.19235839
6	0x3d7f25ce	0.062291913
7	0xbcfbc685	-0.03073431
8	0xbe2a3302	-0.1662102
9	0xbdfd96e5	-0.123822965
10	0x3ea18e67	0.31553957
11	0xbd2a304e	-0.041549973
12	0x3e8e77ba	0.2782572
13	0x3e7ad680	0.24495888
14	0x3de46573	0.111521624
15	0x3e96493a	0.29352742
16	0xbe0f3ade	-0.139873
17	0x3e17cdb2	0.1482456
18	0x3e1ae98e	0.15128157
19	0xbd8aebb5	-0.06783239
20	0xbcbfa112	-0.023392234
21	0xbe14bfab	-0.1452624
22	0x3cf0739b	0.029352
23	0xbc231bb3	-0.0099553345
24	0xbe3c06c2	-0.18361953
25	0x3e0cbc92	0.13743809
26	0x3e903450	0.2816491
27	0x3e076ca8	0.13225043
28	0x3e9bed54	0.30454504
29	0x3e895113	0.26819667
30	0x3d977459	0.073952384
31	0xbd49ea60	-0.049295783
32	0x3d901585	0.070353545
33	0xbe4e81ff	-0.20166777
34	0xbe5fd1fe	-0.2185745
35	0xbe6ac871	-0.22928025
36	0x3ca18140	0.019714952
37	0x3e035083	0.12823682
38	0x3deb4c5f	0.11489176
39	0x3e53f8c4	0.20700365
40	0x3e0e3cc2	0.13890365
41	0x3d9d4d9c	0.076808184
42	0xbe035956	-0.12827048
43	0xbd97f35b	-0.07419463
44	0x3db892b1	0.09012354
45	0xbe3636cf	-0.17794345
46	0x3e61c9ab	0.22049586
47	0xbdaa9575	-0.08329288
48	0xbdaacaf2	-0.0833949
49	0x3ddb1dc8	0.1069904
50	0xbb1f1b45	-0.0024277729
51	0x3e520f54	0.2051366
52	0x3e9e47bc	0.30914104
53	0x3e679f16	0.2261928
54	0x3e79eb19	0.24406089
55	0x3c8800bb	0.01660191
56	0xbe1e747d	-0.15474124
57	0xbdbba6a3	-0.09162643
58	0x3ea887c7	0.3291609
59	0x3de584f4	0.112069994
60	0x3e8cc16d	0.27491322
61	0x3e369b28	0.17832625
62	0xbc6afacb	-0.01434202
63	0x3e36ed66	0.17863998

weight f4 [32, 16]
0	0xbb39ef00	-0.0028371215
1	0x3e6a2424	0.22865349
2	0x3d9746d0	0.07386553
3	0x3bfdc540	0.0077444613
4	0x3e25e2d8	0.16199815
5	0xbe798c7c	-0.24369997
6	0x3e7be23e	0.24598023
7	0x3d59cc48	0.053173333
8	0xbe76171c	-0.24032253
9	0xbe5130e4	-0.20428807
10	0xbc0b3ee0	-0.008498877
11	0xbe0a0628	-0.13478911
12	0xbde4a8a8	-0.11164981
13	0x3d81d0b8	0.06338638
14	0x3d9c30e0	0.0762651
15	0xbdfadee8	-0.12249547
16	0x3e2c1973	0.16806583
17	0xbe97b8d1	-0.2963319
18	0xbe215a07	-0.15756999
19	0x3d957d1c	0.07299253
20	0xbe8c2289	-0.27370098
21	0x3e8baf5a	0.2728222
22	0xbdb0efe6	-0.08639507
23	0x3e098671	0.13430192
24	0xbe47adff	-0.19499968
25	0x3e34191b	0.17587702
26	0xbd6c0831	-0.057625
27	0x3d607d4f	0.054807004
28	0x3c1bc02a	0.009506265
29	0xbe118d70	-0.1421411
30	0x3d8d1a37	0.06889766
31	0x3df92c0a	0.12166603
32	0x3dad4a8e	0.08461486
33	0x3db8301f	0.08993553
34	0x3dab79fc	0.08372876
35	0xbe61b130	-0.22040248
36	0xbd3abf99	-0.045592878
37	0x3e738512	0.23781231
38	0xbdcf636d	-0.10126386
39	0x3e821188	0.25404
40	0xbe38f0a7	-0.18060552
41	0x3e54cb42	0.20780662
42	0xbde86a1a	-0.11348362
43	0x3e4c0e16	0.19927248
44	0x3e394f4e	0.18096659
45	0x3dcc223e	0.09967469
46	0x3e733ce8	0.23753703
47	0x3e5b6648	0.21425736
48	0x3e4c98fc	0.19980234
49	0xbde903de	-0.11377691
50	0xbdd19fd7	-0.10235565
51	0x3e614896	0.22000346
52	0xbe4b2e33	-0.19841842
53	0x3dbe8005	0.093017615
54	0x3d5f7bf8	0.054561585
55	0x3e5cab49	0.21549715
56	0x3dd7d559	0.1053874
57	0xbe3f5174	-0.18683416
58	0x3e6f8e32	0.23394087
59	0xbe33201d	-0.17492719
60	0x3dff6449	0.124703
61	0x3e0a0931	0.13480069
62	0xbde08a34	-0.1096386
63	0x3e2cec40	0.16886997
64	0x3d783a99	0.060602758
65	0xbcccc77f	-0.02499747
66	0xbe209027	-0.1567999
67	0x3e9b494c	0.3032936
68	0xbdadb53b	-0.084818326
69	0xbde48981	-0.11159039
70	0x3d3a4e2d	0.04548471
71	0x3daff442	0.0859151
72	0xbe26441c	-0.16236919
73	0xbe944932	-0.28962094
74	0xbd35fa29	-0.044428024
75	0x3c0c30c2	0.008556547
76	0xbce3493b	-0.02774488
77	0xbe2d86c2	-0.16945937
78	0xbdb243c1	-0.08704329
79	0x3d8faf90	0.07015908
80	0x3ddc64c8	0.1076141
81	0x3d7bd688	0.06148389
82	0x3e588a82	0.21146587
83	0x3d64d280	0.05586481
84	0x3e1a0ae8	0.15043223
85	0x3e4adbe6	0.19810447
86	0x3b918800	0.0044412613
87	0xbc821020	-0.01587683
88	0x3d9001d8	0.07031602
89	0x3d8727c4	0.065993816
90	0x3e422c1e	0.18962142
91	0xbe3915c8	-0.18074715
92	0x3c28e500	0.010308504
93	0x3e0d7a5e	0.1381621
94	0x3d032870	0.032020986
95	0x3d6853e0	0.056720614
96	0xbe32c606	-0.17458352
97	0xbe612208	-0.21985638
98	0xbd7d7beb	-0.061885756
99	0x3e001c99	0.12510909
100	0x3c95afd9	0.018272327
101	0xbe0645c4	-0.13112551
102	0x3cdf208b	0.027237197
103	0xbe7ee3a4	-0.24891526
104	0xbe7023ff	-0.23451231
105	0xbdabc2c0	-0.08386755
106	0x3cb57e25	0.022154877
107	0xbc6ae6e1	-0.014337272
108	0x3df3a4bc	0.11896655
109	0x3e2a09bc	0.16605276
110	0xbceaaf74	-0.028648116
111	0x3e6476ee	0.22310993
112	0x3d0adda8	0.033902794
113	0x3c9e2960	0.019306839
114	0xbd97080c	-0.07374582
115	0xbdb5d818	-0.08879107
116	0x3e6487fc	0.22317499
117	0xbd21bb08	-0.039485008
118	0xbdac35c0	-0.084086895
119	0x3dcad30c	0.09903535
120	0x3e7775ca	0.24166027
121	0xbe5af348	-0.21381867
122	0x3e466b46	0.19376859
123	0x3cc58ba0	0.02411443
124	0xbb91fa00	-0.004454851
125	0xbd5aae58	-0.053388923
126	0xbe70dbb4	-0.2352131
127	0x3e3e0966	0.18558273
128	0xbcb07a10	-0.021542579
129	0x3d05c060	0.032654166
130	0x3e4011c2	0.18756774
131	0x3dc8c290	0.09802735
132	0x3e3719fa	0.17881003
133	0x3dd42260	0.10358119
134	0xbd822560	-0.06354785
135	0x3cec5910	0.028851062
136	0x3d8b07b8	0.067885816
137	0xbdc42978	-0.09578222
138	0xbe3aa076	-0.18225273
139	0xbd85702c	-0.06515536
140	0x3c603c40	0.01368624
141	0x3d96ef10	0.07369816
142	0x3d0bdf38	0.034148425
143	0xbd277788	-0.04088548
144	0xbdbfcca6	-0.093652055
145	0x3e314c0e	0.17314169
146	0xbe46f691	-0.19429995
147	0xbd90571b	-0.07047864
148	0x3e508578	0.20363414
149	0x3e1ba65e	0.15200183
150	0xbdda4a88	-0.10658747
151	0xbe35243b	-0.17689602
152	0xbe29422e	-0.16529152
153	0xbd97ff3a	-0.074217275
154	0x3e991da6	0.29905432
155	0xbd9ba407	-0.07599645
156	0xbdf35e3a	-0.11883207
157	0xbe2237e1	-0.15841629
158	0x3dbc20de	0.091859564
159	0xbdd95d06	-0.10613446
160	0x3dd8a5f2	0.105785266
161	0xbe37821b	-0.17920725
162	0xbe741ea5	-0.23839815
163	0x3d2aa572	0.041661687
164	0xbe4fbbda	-0.20286503
165	0x3e96a585	0.29423156
166	0xbe3ba9df	-0.1832652
167	0x3d0223e1	0.031772498
168	0xbdda15e8	-0.106487095
169	0xbb8727d7	-0.0041246223
170	0xbe45b225	-0.19306238
171	0xbd1e6e00	-0.038679123
172	0x3e81f498	0.25381923
173	0xbd3dc285	-0.046328086
174	0x3d56b55a	0.052419044
175	0xbe5e83ce	-0.21729967
176	0xbc81e91a	-0.015858222
177	0x3d26107b	0.04054306
178	0xbe1bec9e	-0.15226981
179	0x3e52896a	0.20560232
180	0x3daa06cd	0.083020784
181	0xbdcc2003	-0.09967043
182	0x3c1bf5b6	0.009519031
183	0xbe3347ec	-0.17507905
184	0xbd061bb3	-0.03274126
185	0xbd9252c4	-0.071446925
186	0xbe4d7c29	-0.20066895
187	0xbe6e1b1a	-0.23252526
188	0x3bd00b90	0.0063490346
189	0x3e15d129	0.1463057
190	0x3d4aa417	0.049472895
191	0xbe3b87b2	-0.18313482
192	0x3ce3c085	0.027801761
193	0xbbb68d2b	-0.0055710278
194	0x3dfd5777	0.12370198
195	0x3de991e3	0.11404779
196	0x3d4cc875	0.04999586
197	0x3d85e6d7	0.0653817
198	0xbe6ac698	-0.2292732
199	0x3d8eab20	0.06966233
200	0xbcb9a763	-0.022662824
201	0x3ea0d691	0.314137
202	0xbe8b0617	-0.27153084
203	0xbdf0814e	-0.11743413
204	0xbe143d15	-0.14476426
205	0xbd84e897	-0.064896755
206	0x3e5d94ad	0.21638747
207	0xbe2ff3cf	-0.1718285
208	0xbbd14300	-0.006386161
209	0x3dd31ab0	0.103078246
210	0xbe7d9484	-0.24763685
211	0x3e26e228	0.1629721
212	0xbe719838	-0.23593223
213	0x3e0c9ed2	0.1373246
214	0xbe6a4a12	-0.22879818
215	0x3dbc42b4	0.0919241
216	0x3d590d48	0.05299118
217	0x3db778a0	0.08958554
218	0x3d839f10	0.06426823
219	0x3e0ba476	0.13636956
220	0xbd322f30	-0.043502033
221	0x3e5f6b00	0.21818161
222	0xbcbfe1a0	-0.023423016
223	0xbd6db270	-0.0580315
224	0x3ba06790	0.004895158
225	0xbc6ed3a4	-0.014576826
226	0x3e2de3b1	0.16981389
227	0x3a83610a	0.0010023427
228	0xbd142941	-0.036172155
229	0x3cc9dbff	0.024641035
230	0x3e43cb26	0.19120464
231	0x3dd72c94	0.105065495
232	0xbe1d19a5	-0.15341814
233	0xbd987579	-0.07444281
234	0x3d5e7ed2	0.054320164
235	0xbde9926e	-0.11404882
236	0x3ca944d7	0.020662708
237	0xbe2348bb	-0.15945713
238	0xbe9d8f63	-0.30773458
239	0x3dc20e1d	0.09475348
240	0xbc66490a	-0.0140555
241	0x3e5f96f5	0.2183493
242	0x3e49988a	0.19687095
243	0x3e0b4113	0.13599043
244	0x3d877a25	0.06615094
245	0xbdfeebc2	-0.12447311
246	0x3d7ddf61	0.06198061
247	0x3e281645	0.16414745
248	0x3dacd263	0.084385656
249	0x3da80ede	0.08205961
250	0xbbaf06db	-0.0053413934
251	0xbe5fd828	-0.21859801
252	0xbe47e208	-0.19519818
253	0xbddf785d	-0.10911629
254	0xbd85d734	-0.06535187
255	0xbe1a4016	-0.1506351

bias f4 [32]
0	0xbd6cc5c8	-0.057805806
1	0x3e5d54c7	0.21614371
2	0x3db5ef02	0.08883478
3	0xbbfbe52f	-0.007687233
4	0x3e3b7005	0.18304451
5	0xbe7c2156	-0.24622092
6	0x3ad65a0b	0.0016353739
7	0xbb59bc80	-0.0033223927
8	0xbd937ad4	-0.07201162
9	0xbdb7e1cd	-0.08978615
10	0x3ddde73d	0.10835121
11	0xbdcdf044	-0.10055593
12	0x3e47c0e0	0.1950717
13	0xbe73a492	-0.23793247
14	0x3e1a1f75	0.15051062
15	0x3e033b47	0.12815581
16	0x3e016c47	0.12638961
17	0xbe7b48a6	-0.24539432
18	0xbe65af6c	-0.224302
19	0xbe4ddab2	-0.20102957
20	0xbc4a0b60	-0.012331814
21	0xbd6f591c	-0.05843459
22	0xbdbc90b8	-0.092072904
23	0xbc8da01a	-0.017288256
24	0xbe7d5b8a	-0.2474195
25	0xbd3ff1c8	-0.04686144
26	0xbe3ccf66	-0.18438491
27	0xbe42cfee	-0.19024631
28	0x3e92b5a8	0.28654218
29	0x3e01d4d9	0.12678851
30	0xbe6bc63e	-0.23024842
31	0x3e232ab1	0.15934254

weight f4 [32, 32]
0	0xbd9c9dfe	-0.07647322
1	0x3e1af450	0.1513226
2	0xbd564e86	-0.05232098
3	0x3cd5b746	0.026088368
4	0xbdb72183	-0.08941939
5	0x3d341d5f	0.043973323
6	0xbd362339	-0.044467185
7	0xbe16299e	-0.14664313
8	0x3d3d8556	0.046269737
9	0xba125f1f	-0.0005583632
10	0x3e7614f3	0.24031429
11	0xbe1c135f	-0.15241764
12	0x3e35d500	0.17757034
13	0xbe15ec29	-0.14640869
14	0xbdcb1432	-0.09915961
15	0x3d6d962d	0.058004547
16	0xbc884471	-0.016634198
17	0xbd4a9b4c	-0.04946451
18	0xbdaf7f71	-0.085692294
19	0x3afe27d0	0.0019390527
20	0x3db3d30c	0.08780488
21	0x3db49e48	0.08819252
22	0xbb6962a2	-0.0035611768
23	0xbd699d18	-0.057034582
24	0x3de7e3bf	0.11322736
25	0x3e0577ca	0.13033977
26	0x3d8c33fb	0.06845852
27	0xbdc94079	-0.0982675
28	0x3e3fd3a6	0.18733081
29	0x3e5a90a4	0.21344239
30	0x3d1d87e2	0.038459666
31	0x3e1d80e3	0.15381198
32	0xbe106ed8	-0.14104784
33	0x3e2fbe46	0.17162427
34	0xbd2f498a	-0.04279474
35	0xbdac37bc	-0.08409068
36	0x3d85b69f	0.06528973
37	0x3c2f90db	0.010715689
38	0x3e1e91d2	0.15485314
39	0xbb69c2cd	-0.0035669089
40	0x3e2ea702	0.17055896
41	0x3cf4ddea	0.029890973
42	0x3dac2055	0.08404604
43	0xbdb193b2	-0.08670749
44	0xbe112a55	-0.14176305
45	0xbdd2041d	-0.10254691
46	0x3ce128c7	0.027485264
47	0xbdfc9877	-0.12333768
48	0x3d9545f6	0.072887346
49	0x3e1846a7	0.14870702
50	0x3e23e8f2	0.1600683
51	0x3df83dca	0.1212116
52	0xbdd05886	-0.101731345
53	0x3e3c3601	0.18379976
54	0xbc8f7ff7	-0.017517073
55	0x3b6f9ff3	0.0036563843
56	0xbdc6c71e	-0.09705947
57	0x3ca3c497	0.019991202
58	0x3d93d70f	0.072187535
59	0x3e1c91c1	0.15289976
60	0xbd8fe7ac	-0.0702661
61	0x3d88f508	0.06687361
62	0x3e48e8c9	0.1962005
63	0x3e1aaa12	0.15103939
64	0xbd29c756	-0.041449867
65	0xbd3159e4	-0.043298617
66	0xbd98f1dc	-0.07468006
67	0xbdc0ce3d	-0.09414337
68	0xbe1957d0	-0.14974904
69	0xbde06c1b	-0.109581195
70	0xbde14790	-0.109999776
71	0xbe23176c	-0.15926903
72	0x3da41a27	0.08012801
73	0x3d1cdc54	0.03829606
74	0xbe040664	-0.12893063
75	0x3d411adf	0.047144767
76	0xbe088600	-0.13332367
77	0xbde40a84	-0.11134818
78	0xbd9d546d	-0.076821186
79	0xbe25cb55	-0.16190846
80	0xbdb716fe	-0.08939932
81	0x3d64b1db	0.05583368
82	0x3d3f4a2c	0.046701595
83	0x3d0a1472	0.033710904
84	0xbd981d60	-0.07427478
85	0xbc453cba	-0.012038404
86	0x3e298fdd	0.16558786
87	0xbc25a70d	-0.010110629
88	0xbdba8ec1	-0.091092594
89	0x3d82adee	0.06380831
90	0xbd486006	-0.0489197
91	0x3d8de40b	0.06928261
92	0xbdb3c636	-0.0877804
93	0xbdc4c7f4	-0.096084505
94	0xbc9054e4	-0.017618604
95	0x3e1ff7ca	0.15621868
96	0xbc1cc7e9	-0.009569147
97	0x3d0cb32a	0.03435055
98	0xbdc1e357	-0.0946719
99	0xbdb5254c	-0.088450044
100	0xbdcd87fc	-0.100357026
101	0xbdd236d9	-0.102643676
102	0xbe0f4e84	-0.13994795
103	0x3d9a141b	0.07523366
104	0x3dbefa80	0.09325123
105	0xbc81b6b4	-0.01583419
106	0x3d3cc2c5	0.046084184
107	0x3ccad882	0.024761442
108	0xbdf9b741	-0.12193156
109	0xbd2408d1	-0.04004747
110	0xbcaf01e7	-0.021363212
111	0xbd9552ef	-0.07291209
112	0x3c2b3c64	0.01045141
113	0x3e1c98ea	0.15292707
114	0xbd79b49e	-0.060963266
115	0xbccad0e8	-0.024757817
116	0xbe0f28b5	-0.13980372
117	0xbd010ff6	-0.031509362
118	0xbd0928ef	-0.033486303
119	0x3cbdd825	0.023174355
120	0x3b8419bc	0.004031388
121	0xbc847b6f	-0.016172139
122	0xbdb747b9	-0.08949227
123	0x3d213025	0.039352555
124	0x3dec238a	0.11530216
125	0xbd051e7f	-0.032499786
126	0x3e0b1c60	0.13585043
127	0xbddeb400	-0.10874176
128	0xbbf22155	-0.0073892274
129	0xbd1e39e8	-0.038629442
130	0x3e2f0508	0.17091763
131	0x3e144e7a	0.14483061
132	0x3d44f36a	0.0480837
133	0xbe137fce	-0.14404222
134	0x3b781d28	0.0037859175
135	0x3c8f4afa	0.017491806
136	0xbd929b4b	-0.07158526
137	0xbd651995	-0.0559326
138	0x3e34798b	0.1762449
139	0xbe199e06	-0.15001687
140	0x3e53fcb3	0.20701866
141	0x3ddcc459	0.10779638
142	0xbd82a3a1	-0.06378866
143	0xbe2440ff	-0.16040419
144	0x3d723705	0.059134502
145	0x3de3c4e8	0.11121541
146	0xbd1b41bf	-0.037904497
147	0xbdd7055d	-0.1049907
148	0x3d3c4570	0.04596466
149	0x3c78d869	0.015188315
150	0x3e19611f	0.14978455
151	0xbd16d4af	-0.036823925
152	0xbc2353ee	-0.009968741
153	0x3cc0fc15	0.023557702
154	0xbd6b3c28	-0.057430416
155	0xbe12f5d2	-0.14351586
156	0x3e48a8ae	0.19595596
157	0xbc928704	-0.017886646
158	0xbc1ae9ca	-0.009455154
159	0x3e09d5f5	0.13460524
160	0xbd69f266	-0.057115935
161	0x3d6c6cf1	0.057721082
162	0x3dc56c1e	0.09639762
163	0xbd8dc4da	-0.06922312
164	0x3d9cda18	0.076587856
165	0xbc7aa4a3	-0.0152980415
166	0xbe05a61d	-0.13051648
167	0xbdf58368	-0.119879544
168	0xbe15a2cd	-0.14612885
169	0xbdb52355	-0.0884463
170	0x3d47b144	0.048753038
171	0x3d03cb5a	0.032176353
172	0x3d91dc3b	0.07122084
173	0xbe05332d	-0.13007803
174	0xbdd5bc37	-0.1043629
175	0x3a171519	0.00057633367
176	0xbdbfbb22	-0.093618646
177	0x3e2c05bd	0.16799064
178	0x3c148ace	0.009066297
179	0xbdd5517e	-0.10415934
180	0x3da85ccc	0.082208246
181	0xbd873595	-0.06602017
182	0xbcb3a508	-0.021929279
183	0x3d334e19	0.04377565
184	0xbe3423c6	-0.17591771
185	0xbd880349	-0.066412516
186	0x3dbb8bb1	0.091575034
187	0x3defc992	0.11708368
188	0x3e2105ef	0.1572492
189	0x3e70e978	0.23526561
190	0xbd53d9bd	-0.051721323
191	0xbcdbb7ca	-0.026821036
192	0x3dbc085c	0.09181282
193	0xbdefa495	-0.117013134
194	0x3e163400	0.14668274
195	0xbd7ff59e	-0.0624901
196	0x3dd9dff8	0.10638422
197	0x3bcfa356	0.00633661
198	0x3e1e913f	0.15485094
199	0x3e15884c	0.14602774
200	0x3d2f2922	0.042763837
201	0xbe2d82fc	-0.16944498
202	0xbe3f94fc	-0.18709177
203	0xbe28488a	-0.16433921
204	0x3d8b070c	0.067884535
205	0x3e251b46	0.16123685
206	0xbe148d09	-0.14506926
207	0x3d3df366	0.0463747
208	0xbce6b559	-0.028162645
209	0x3ceb419c	0.028717808
210	0x3d6067eb	0.054786604
211	0x3dc0ec1b	0.094200335
212	0xbd81a4a7	-0.06330233
213	0xbd8f79cd	-0.070056535
214	0x3a551c1e	0.0008129495
215	0x3e2178f5	0.15768798
216	0x3e0fee77	0.14055811
217	0x3dfb049c	0.122567385
218	0xbd467515	-0.048451502
219	0x3d9bb33c	0.076025456
220	0xbcb3015c	-0.021851234
221	0xbe5261ee	-0.2054517
222	0xbb9c47d6	-0.0047693057
223	0x3d558bf3	0.05213542
224	0xbda20c2a	-0.07912476
225	0x3d411bd8	0.047145694
226	0xbd8ab500	-0.06772804
227	0xbd4251ab	-0.047441166
228	0x3d993944	0.07481626
229	0x3d716df3	0.058942746
230	0xbe152443	-0.14564614
231	0x3d70fca8	0.0588347
232	0x3d213dc7	0.039365556
233	0xbe2cdc40	-0.16880894
234	0xbe1dcf24	-0.15411049
235	0xbe20b340	-0.15693378
236	0xbcc43143	-0.023949271
237	0xbbf7bcc2	-0.0075603435
238	0x3e0024db	0.12514059
239	0x3d6a2eb9	0.057173464
240	0x3e0c28d0	0.13687444
241	0xbe1b749f	-0.15181206
242	0x3cd46b08	0.025929943
243	0x3e02fd5a	0.12791958
244	0xbb112de3	-0.0022152595
245	0xbe24070f	-0.16018318
246	0xbe1414e9	-0.14461102
247	0xbd11b02b	-0.035568397
248	0x3d8a71ed	0.06760011
249	0x3ab95a66	0.0014141321
250	0xbe20e39b	-0.15711825
251	0xbb94cbd7	-0.004540901
252	0xbe2f6d80	-0.17131615
253	0x3e0a1e5e	0.13488147
254	0xbde5e389	-0.112250395
255	0xbc59f3da	-0.013302768

bias f4 [32]
0	0x3e6a13a3	0.22859053
1	0xbdc510da	-0.09622355
2	0x3d9dc69a	0.07703896
3	0x3d961a7c	0.0732927
4	0x3e16a41e	0.14711043
5	0x3e0d55d1	0.13802268
6	0x3e13911e	0.14410827
7	0xbdbf0cc1	-0.093286045
8	0x3d95a07a	0.07305999
9	0xbdb611d6	-0.08890121
10	0xbe2b7e4e	-0.167474
11	0xbd481873	-0.04885144
12	0x3deb7d11	0.11498464
13	0x3d99794d	0.074938394
14	0x3d98944e	0.07450162
15	0xbe058725	-0.13039835
16	0x3e2ba0f7	0.16760622
17	0x3e338beb	0.17533843
18	0x3de9b1ea	0.114108875
19	0x3d9ac990	0.07557976
20	0xbc8933c3	-0.016748315
21	0xbcdffb7e	-0.0273416
22	0xbbc77a7c	-0.0060875993
23	0xbe2b9c83	-0.16758923
24	0x3c5bab93	0.013407606
25	0x3e2960df	0.1654086
26	0x3c4cba39	0.012495571
27	0xbdc5db10	-0.096609235
28	0x3c3b9903	0.011450055
29	0x3e439669	0.19100346
30	0x3cd28b02	0.02570105
31	0x3e393c0a	0.1808931

weight f4 [32, 32]
0	0x3e02cc32	0.12773207
1	0x3cbe8cde	0.02326053
2	0x3998bf01	0.00029134008
3	0xbdeb533e	-0.114904866
4	0xbe11e296	-0.14246592
5	0x3e2e98dd	0.170505
6	0xbd6a0145	-0.057130117
7	0x3e3133c3	0.17304902
8	0x3de8c027	0.11364775
9	0xbd07459b	-0.033025365
10	0xbe1596e9	-0.14608349
11	0x3de7cbed	0.11318193
12	0xbdf62985	-0.12019638
13	0x3cdf851d	0.027285153
14	0xbdf419cc	-0.11918983
15	0xbcee54d7	-0.02909319
16	0xbcc084b9	-0.023500787
17	0xbe29b006	-0.16571054
18	0xbda1d02c	-0.07901034
19	0xbd60e5ea	-0.054906763
20	0x3d30624b	0.04306249
21	0x3cde7595	0.027155677
22	0xbe01bad8	-0.12668931
23	0x3e0675b1	0.13130833
24	0x3e260d2c	0.16215962
25	0x3e0d74c4	0.13814074
26	0x3d69e9a5	0.057107586
27	0x3de23617	0.11045473
28	0xbe20c025	-0.15698297
29	0x3dc621e2	0.096744314
30	0xbe1420bd	-0.14465614
31	0xbe316a75	-0.17325766
32	0xbd84f80b	-0.06492623
33	0xbe181a83	-0.14853863
34	0x3da8b13b	0.08236929
35	0x3dee10df	0.11624312
36	0xbe316d89	-0.1732694
37	0x3e1307a0	0.14358377
38	0xbddfc055	-0.10925356
39	0x3d69b3cc	0.057056233
40	0x3dcef11d	0.101045825
41	0x3e2d6f06	0.16936883
42	0xbe34725d	-0.17621751
43	0xbe276d76	-0.1635035
44	0x3db9f221	0.090793855
45	0x3dcc6622	0.09980418
46	0x3bc9c709	0.00615776
47	0xbe296f2b	-0.16546313
48	0x3e27d4c9	0.16389765
49	0x3d946928	0.072466195
50	0x3d9f516f	0.07779204
51	0xbdda0c99	-0.10646934
52	0x3e0f2c5b	0.13981764
53	0x3d960fad	0.07327209
54	0xbdce8c70	-0.1008538
55	0x3e31fd98	0.17381895
56	0xbdc0bbfd	-0.09410856
57	0xbbb8f576	-0.0056444956
58	0xbd18f7b5	-0.037345607
59	0x3dcb65f6	0.09931557
60	0xbd4628b9	-0.04837868
61	0xbe14a764	-0.1451698
62	0xbe1d31a2	-0.15350965
63	0x3de0011c	0.109377116
64	0xbe205bdb	-0.1566004
65	0x3ca7501c	0.020423941
66	0x3db787cc	0.08961448
67	0xbc61b250	-0.013775423
68	0x3e0a847e	0.13527104
69	0x3d2f5663	0.042806994
70	0x3e33ce01	0.17559053
71	0x3e2a86fa	0.16653052
72	0xbd86944f	-0.06571256
73	0x3deba79c	0.11506578
74	0x3d099fd1	0.03359968
75	0x3db85bb0	0.09001863
76	0xbde6920c	-0.11258325
77	0x3d5d9377	0.05409571
78	0x3d4c5c71	0.049892846
79	0xbda707f6	-0.08155815
80	0xbe0c8bd7	-0.1372522
81	0xbc823361	-0.01589364
82	0xbe305892	-0.17221287
83	0xbe0b35f3	-0.13594799
84	0xbe24228e	-0.16028807
85	0x3e096414	0.13417083
86	0x3dda206e	0.10650717
87	0xbdc6eb4f	-0.0971285
88	0xbcbacdb8	-0.022803172
89	0x3df39b48	0.11894852
90	0x3deba805	0.115066566
91	0xbdcb9299	-0.09940071
92	0x3c8adc6c	0.016950808
93	0xbe0e91ba	-0.13922778
94	0xbe0d1008	-0.13775647
95	0x3c47aedf	0.012187689
96	0xbd21331a	-0.039355375
97	0xbc8bc942	-0.01706374
98	0x3d2547b9	0.040351603
99	0xbe10daa5	-0.14145906
100	0xbe2b827a	-0.16748992
101	0x3dff5516	0.12467401
102	0xbdeebaf9	-0.11656756
103	0x3d6c4a55	0.057688076
104	0x3c41d417	0.011830351
105	0xbc057e78	-0.008147828
106	0xbd57ca0e	-0.05268293
107	0x3d836dd5	0.06417433
108	0xbdf06994	-0.117388874
109	0xbdc5d5e0	-0.09659934
110	0x3dbcc902	0.09218027
111	0xbe2bd9fd	-0.16782375
112	0xbdcab6ba	-0.098981336
113	0xbcd9d884	-0.0265925
114	0x3d839525	0.064249314
115	0xbda4c611	-0.08045591
116	0x3de2e0de	0.11078046
117	0xba7ab6ab	-0.0009563963
118	0xbe14da32	-0.1453636
119	0x3e0ee643	0.13955025
120	0xbd7be3b2	-0.061496444
121	0xbdcf23a6	-0.10114221
122	0x3db8d062	0.09024121
123	0xbdf63ef2	-0.120237246
124	0x3d726df7	0.059186902
125	0xbd9755be	-0.07389401
126	0x3dcb093d	0.099138714
127	0xbd9b1410	-0.07572186
128	0x3d89fcec	0.06737694
129	0x3dc41b0e	0.09575473
130	0xbdb35943	-0.0875726
131	0xbda5967a	-0.08085342
132	0xbd390d4e	-0.045178704
133	0xbe01ddfd	-0.12682338
134	0x3e0192fe	0.1265373
135	0xbdeb7bde	-0.11498235
136	0xbe0c5848	-0.13705552
137	0xbdff4e5b	-0.12466117
138	0xbc5dcda5	-0.013537799
139	0x3ddb6f80	0.10714626
140	0xbdcde804	-0.10054019
141	0x3d935dc5	0.071956195
142	0xbd2b6b28	-0.04185024
143	0xbc8f78ac	-0.017513596
144	0x3db2be3a	0.08727689
145	0xbd213b9d	-0.039363492
146	0xbca278ba	-0.019832958
147	0x3d2b8820	0.041877866
148	0xbe0595f3	-0.13045482
149	0x3e1e45ba	0.15456286
150	0xbd00b13b	-0.03141902
151	0xbe072a46	-0.1319972
152	0xbe2ae32c	-0.16688222
153	0xbe0f8896	-0.14016947
154	0xbe26950a	-0.16267791
155	0xbcbac876	-0.022800665
156	0xbdc92934	-0.09822312
157	0xbe04bb72	-0.1296213
158	0xbe2b16db	-0.16707937
159	0x3e00b06e	0.12567303
160	0xbe110d6a	-0.14165273
161	0xbddf9a92	-0.10918154
162	0xbd9735cc	-0.07383308
163	0xbdb09148	-0.0862146
164	0xbc3ba711	-0.011453406
165	0xbdd62f5e	-0.10458253
166	0xbd87e933	-0.06636276
167	0xbd4155c3	-0.04720093
168	0xbe1606b4	-0.14650995
169	0x3c6a35e2	0.014295073
170	0xbe125786	-0.142912
171	0x3aea3cc6	0.0017870895
172	0xbdc70daf	-0.09719407
173	0xbccf3754	-0.025294937
174	0xbd95ba2e	-0.073109016
175	0x3db51799	0.088423915
176	0x3d4b226c	0.049593374
177	0x3d61d627	0.055135872
178	0x3e2fc650	0.17165494
179	0xbde475d7	-0.11155289
180	0x3dc1aa59	0.09456319
181	0xbe0065c9	-0.12538828
182	0x3e181656	0.1485227
183	0x3c4b70e3	0.012417051
184	0x3d03a7a0	0.03214228
185	0x3e14eff4	0.1454466
186	0x3d588a52	0.052866288
187	0xbda6bb57	-0.08141201
188	0x3e2e48a3	0.17019896
189	0xbdf6f692	-0.12058748
190	0xbd3b127c	-0.045671925
191	0x3cb4a6af	0.022052137
192	0xbdd7041e	-0.10498832
193	0x3d8a5b11	0.06755651
194	0xbe05eb19	-0.13077964
195	0xbddbf977	-0.10740941
196	0x3dbf143b	0.093300305
197	0x3da2c058	0.07946843
198	0x3da79551	0.08182777
199	0x3e02ea90	0.12784791
200	0xbe06004a	-0.13086048
201	0x3c6e5170	0.014545783
202	0xbd706f53	-0.058699917
203	0x3d8b72c5	0.06809
204	0x3da6d154	0.08145395
205	0xbdfcc33b	-0.12341925
206	0xbd8ff3be	-0.07028912
207	0x3d959c13	0.073051594
208	0xbe20b1f2	-0.15692881
209	0xbe10653c	-0.14101118
210	0xbdaa9884	-0.08329871
211	0x3c3a6bb2	0.011378216
212	0xbe150ecf	-0.1455643
213	0x3de2a5a5	0.110667504
214	0x3d9afc59	0.07567663
215	0x3d928f4e	0.071562394
216	0xba6bbb52	-0.00089924515
217	0x3bb1d13c	0.005426554
218	0x3dbf0f24	0.0932906
219	0xbd7bb50d	-0.06145196
220	0xbdbdbeb9	-0.09264893
221	0xbe09a4f3	-0.1344183
222	0xbdec86a3	-0.115491174
223	0x3d0fff4a	0.035155572
224	0x3d5ce0c5	0.053925294
225	0x3d7801f3	0.060548734
226	0x3d77e538	0.060521334
227	0xbe058032	-0.13037184
228	0xbc5bba82	-0.013411166
229	0x3e395060	0.18097067
230	0xbe0871c3	-0.13324647
231	0xbc47f8f0	-0.012205347
232	0x3d7f590d	0.062340785
233	0x3d17e192	0.037080355
234	0x3d14df66	0.03634586
235	0x3d9b4008	0.07580572
236	0xbdc3eab2	-0.09566249
237	0xbe149f03	-0.14513783
238	0xbdeea6d4	-0.11652914
239	0x3dee52b5	0.11636869
240	0x3e2be9d8	0.16788423
241	0xbd7eb34f	-0.06218272
242	0x3c4adfa7	0.012382424
243	0xbc6a2d08	-0.014292963
244	0xbe2322eb	-0.15931289
245	0xbe29ede7	-0.16594659
246	0x3e108ea5	0.14116915
247	0xbdb306dc	-0.08741543
248	0x3e063a0b	0.13108079
249	0x3e605909	0.21908964
250	0x3dc45175	0.09585849
251	0x3dd0cce5	0.101953305
252	0x3e01528c	0.12629145
253	0x3e5b5069	0.21417393
254	0xbde0a027	-0.10968047
255	0x3df3d0c0	0.1190505

bias f4 [32]
0	0xbe23cb1e	-0.15995452
1	0xbc37520f	-0.011188998
2	0xbbbb205d	-0.005710645
3	0x3dbbb968	0.09166223
4	0xbe22300a	-0.15838638
5	0xbc9c33e7	-0.019067718
6	0xbe084af2	-0.1330984
7	0x3de24728	0.11048728
8	0x3e260ad4	0.16215068
9	0x3e273336	0.16328129
10	0x3dc0d25f	0.09415125
11	0xbcbb7ee0	-0.022887647
12	0x3d3c80c1	0.046021227
13	0x3e6019a2	0.21884778
14	0xbe021063	-0.12701564
15	0xbdf24c27	-0.11830931
16	0x3df5a563	0.11994436
17	0x3e5df0db	0.2167391
18	0xbdf908ae	-0.12159859
19	0xbde45668	-0.11149293
20	0xbdba591d	-0.09099028
21	0x3e5c74ab	0.2152888
22	0x3ac3ae89	0.0014929335
23	0xbdf46b8c	-0.119345754
24	0x3e28b003	0.16473393
25	0xbdda818c	-0.1066924
26	0xbce2efac	-0.027702175
27	0xbd86d80f	-0.06584179
28	0x3e3d12de	0.18464229
29	0xbd784190	-0.0606094
30	0xbd3e58b7	-0.046471324
31	0x3e459c05	0.19297798

weight f4 [1, 32]
0	0xbce0acaa	-0.027426083
1	0xbc3b439a	-0.011429692
2	0x3ca5ee50	0.020255238
3	0x3ab2af39	0.0013632543
4	0x3c821d6d	0.015883172
5	0xbc1de01d	-0.009635952
6	0xbb3ade88	-0.0028513987
7	0xbd9e3f0d	-0.0772687
8	0xbcbc17a7	-0.022960497
9	0xbcf3b3fd	-0.029748911
10	0xbd73f104	-0.059556022
11	0x3cd8c5ec	0.026461564
12	0x3c80e6b9	0.015735017
13	0xbd61d30f	-0.05513292
14	0xbc893835	-0.016750434
15	0x3a88ce67	0.0010437489
16	0xbd48f375	-0.049060304
17	0xbd294aa8	-0.041330963
18	0xbccc8ba4	-0.02496893
19	0x3c519855	0.012792666
20	0xbcfc3b0f	-0.03078988
21	0xbd90d30b	-0.07071503
22	0x3b942fb4	0.004522288
23	0xbba05df2	-0.0048940117
24	0xbd7b073c	-0.061286196
25	0x3c8ab38a	0.016931314
26	0x3d08ace3	0.033368003
27	0xbcd21c7b	-0.025648346
28	0xbc2c7d9c	-0.0105279945
29	0x3b27a2b1	0.002557915
30	0x3c3657d9	0.011129343
31	0xbd19c8d6	-0.037545048

weight f4 [1, 32]
0	0x3cadab8c	0.021199964
1	0x3c9337dd	0.017970974
2	0xbc8d5371	-0.017251702
3	0xbce6fe12	-0.028197322
4	0x3ca5c3c5	0.020234952
5	0x3caca305	0.021073828
6	0x3c585afc	0.013205286
7	0xbdaf998b	-0.08574208
8	0xbd77c7c3	-0.060493242
9	0xbdbb2551	-0.09137977
10	0xbdad7a7f	-0.0847063
11	0xbb889e00	-0.0041692257
12	0x3c8f1331	0.017465206
13	0xbd9c52fa	-0.07633014
14	0xbcb1e824	-0.021717139
15	0x3b222196	0.0024739257
16	0xbdc4fa91	-0.09618104
17	0xbdbf9e6a	-0.09356387
18	0xbccfecd5	-0.025381485
19	0xbcd6d976	-0.02622674
20	0xbd88ad24	-0.06673649
21	0xbd9e53db	-0.07730838
22	0xbbb52097	-0.0055275667
23	0xbc5c085f	-0.01342973
24	0xbde5dd0a	-0.112238005
25	0xbbf87eaa	-0.007583459
26	0xbca0758c	-0.0195873
27	0xbce36fd7	-0.02776329
28	0xbdb124fd	-0.08649633
29	0xbcf315af	-0.029673425
30	0xbc96acf9	-0.018393027
31	0xbda0a289	-0.07843501
