models/patient22/ppo_model_for_patient_0_Critic.pth (torch, 22754 bytes, 11 tensors)

weight_ih_l0 f4 [64, 2]
0.11646201 -0.35460028 -0.025490968 -0.28003743 -0.20598839 -0.1505819 -0.5555277 -0.020626884
0.019797707 -0.033204384 -0.29408365 -0.18684807 -0.3523547 -0.109165184 0.111705326 0.051672015
-0.29392475 -0.0012680164 -0.28224063 -0.28235334 -0.108462505 -0.31224203 -0.46753073 -0.4033339
-0.40901738 -0.008390742 -0.1701464 0.054880265 -0.3137145 -0.285739 -0.32112744 -0.28453636
-0.16743813 -0.10805732 0.0478653 0.013490725 -0.20150252 -0.27143976 -0.39672032 -0.03694442
-0.17870313 -0.22347537 -0.29569378 -0.109282665 -0.30852553 -0.059600048 -0.013396252 -0.28640795
-0.46330324 -0.23601556 -0.21778405 -0.07450712 -0.062314052 -0.013082663 -0.22853792 -0.08274228
-0.5077401 0.18121001 -0.3698361 0.038922366 -0.40355512 -0.37501162 -0.11314737 -0.227146
-0.019297555 0.023287531 0.6278787 -0.07218035 -0.46362755 -0.06404853 -0.08003115 0.026953073
-0.2982698 -0.27995035 -0.44436482 0.036753792 -0.7594875 0.012250102 0.34112123 0.0018920291
-0.07998446 -0.35490075 0.42099744 0.11488987 0.11778798 -0.22718817 0.54187894 0.12098585
-0.18714318 -0.09997696 -0.085535616 0.01759316 -0.14335398 0.13211891 0.1319292 0.33068812
-0.122937076 -0.14691587 -0.2854953 -0.022024095 -0.2509065 -0.04667928 -0.16920911 0.12009833
-0.49411762 -0.01602033 -0.16030939 -0.2829761 -0.49536833 -0.054470606 0.50498015 -0.39510447
-0.022042943 0.08270185 -0.43548146 -0.25612453 -0.17975074 -0.24415655 -0.018383395 -0.3715275
-0.1949381 -0.01681791 -0.39870378 -0.10346704 -0.07517616 -0.4472874 -0.011818124 -0.017241964
00000000: a283 ee3d 2b8e b5be 6fd2 d0bc 1161 8fbe
00000010: 9fee 52be 2432 1abe 1037 0ebf b6f9 a8bc
00000020: cd2e a23c 5201 08bd 2292 96be 1a55 3fbe
00000030: d667 b4be ff91 dfbd c3c5 e43d 09a6 533d
00000040: 4e7d 96be 9233 a6ba d881 90be 9e90 90be
00000050: 9721 debd 30de 9fbe 3060 efbe c881 cebe
00000060: ba6a d1be 5379 09bc dc3a 2ebe 21ca 603d
00000070: 309f a0be 624c 92be d16a a4be c0ae 91be
00000080: e774 2bbe 284d ddbd 680e 443d 3408 5d3c
00000090: ad56 4ebe 27fa 8abe ed1e cbbe 0853 17bd
000000a0: f4fd 36be bad6 64be 2d65 97be 97cf dfbd
000000b0: 0ff7 9dbe 2e1f 74bd f47b 5bbc 10a4 92be
000000c0: 1536 edbe 10ae 71be c802 5fbe 3097 98bd
000000d0: 053d 7fbd aa58 56bc d805 6abe c974 a9bd
000000e0: 41fb 01bf 1e8f 393e 285b bdbe 0f6d 1f3d
000000f0: c79e cebe 8601 c0be cfb9 e7bd f698 68be
00000100: e815 9ebc 7ec5 be3c a9bc 203f 4bd3 93bd
00000110: 9760 edbe e02b 83bd 5fe7 a3bd b1cc dc3c
00000120: d2b6 98be a755 8fbe c983 e3be 258b 163d
00000130: c66d 42bf a7b4 483c 71a7 ae3e f6fd f73a
00000140: e4ce a3bd 8db5 b5be fa8c d73e 614b eb3d
00000150: d33a f13d 04a4 68be 94b8 0a3f 6ec7 f73d
00000160: 76a2 3fbe b8c0 ccbd 4c2d afbd 881f 903c
00000170: 63cb 12be 2e4a 073e 7318 073e f44f a93e
00000180: 6fc6 fbbd 1d71 16be 712c 92be e06b b4bc
00000190: d176 80be c632 3fbd 2745 2dbe 1df6 f53d
000001a0: fcfc fcbe 113d 83bc 2528 24be 3ee2 90be
000001b0: eba0 fdbe 921c 5fbd 6146 013f 224b cabe
000001c0: 6793 b4bc 965f a93d 6df7 debe c122 83be
000001d0: 9410 38be 2d04 7abe c698 96bc da38 bebe
000001e0: da9d 47be b7c5 89bc e722 ccbe 87e6 d3bd
000001f0: f5f5 99bd db02 e5be cea0 41bc 053f 8dbc

weight_hh_l0 f4 [64, 16]
0.19549978 0.12949121 -0.108484596 0.30096656 0.2765831 0.049487334 -0.07884963 0.13204238
0.27254266 -0.046633214 0.3608057 -0.022118699 0.269518 0.19019055 -0.0007634608 -0.11921998
0.40239963 0.122727126 0.3662625 0.14642335 0.44368157 -0.023242047 0.37778398 0.1578745
0.24214289 0.187469 0.1269631 0.07955908 0.1348962 0.42455783 0.31178507 -0.5927481
0.11427784 0.10681109 -0.11639088 0.08097132 0.14956467 0.0782117 0.2961475 0.09634874
0.33379072 0.029319523 -0.045988604 -0.18219352 0.27361837 0.02707336 -0.098514766 -0.08374853
0.09855522 -0.23609947 -0.20031707 -0.09902834 0.14110218 -0.15164898 0.1777683 -0.36917043
-0.14663258 -0.10640462 0.13800983 -0.1338223 0.07175804 0.12087909 0.15943758 0.10620953
0.15262763 0.11557147 0.304693 0.011104374 0.260626 0.105484545 0.09297973 -0.122829415
0.016196132 -0.10603068 0.19110103 0.092397064 0.05671523 0.04011897 -0.09887494 -0.30729935
0.29798055 0.17783938 0.018626638 0.0684377 0.1443214 0.070680805 0.28492078 0.02609159
0.15249126 0.06934472 0.13351527 0.11348184 0.13988768 0.07083838 0.25392744 -0.05384318
0.56119436 -0.0767632 0.16694495 0.3824123 0.11612846 0.09596746 0.099967584 0.34074455
0.12496224 0.11563367 0.5822662 0.0738105 0.22051264 0.17092459 0.42418084 -0.5766794
0.27170244 -0.119773306 0.45993787 0.4402876 0.06654316 -0.054124765 -0.024718747 0.18866047
0.4030131 -0.07193606 0.008541809 0.13510059 0.06461891 -0.018855961 0.2914426 -0.29189298
0.27698147 -0.033664208 0.17924406 0.18322793 -0.15341754 0.25515097 -0.03274033 0.04803625
0.08649409 0.18378507 0.24263994 -0.23140545 -0.15002334 0.108878106 0.3324994 -0.02220074
0.32640004 -0.05623925 -0.003750377 -0.00021312808 0.027496476 -0.17884369 0.1422914 0.29613692
-0.07085665 0.0015828455 0.3643183 -0.052382514 0.013439919 0.26539993 0.10896723 -0.08738143
0.063640974 0.19852208 -0.10120074 0.26749825 0.08549211 0.1715621 0.24955542 -0.11416843
0.14623055 -0.061511878 0.32297716 -0.16968854 -0.14156783 0.3533591 0.033134833 -0.3526572
0.07478099 0.1652786 -0.21263361 -0.16008507 0.21443039 -0.14407516 0.12326388 0.33486792
0.32566652 -0.2680841 0.22997947 0.1317848 0.029322436 -0.042274203 0.27299947 -0.21794239
-0.15760104 -0.22012298 0.26413205 -0.2139533 0.03795569 -0.0071002557 0.026265496 -0.19931085
0.0007929791 -0.13163385 -0.15902457 -0.07262344 -0.12300236 -0.056215763 0.18993028 -0.1777783
0.09586412 -0.2268204 0.15429097 -0.1234891 -0.035232622 -0.07853103 -0.1526022 -0.054812916
-0.152516 -0.22066309 0.014286618 -0.023126025 0.05189426 0.2593543 0.053267572 -0.029622508
0.04224061 -0.16684802 0.09430442 0.16030492 0.11442871 0.13413979 0.1898061 0.10387449
0.27709705 -0.112640336 0.2678089 0.10095971 0.26184505 0.3356288 0.2430604 -0.12105014
-0.1044768 0.03545375 0.29117578 0.14219607 0.15386602 0.1308772 -0.05066723 -0.19386615
0.27827504 -0.1304753 0.27151436 -0.040397666 -0.0128726475 0.23410396 -0.073259436 -0.13250585
00000000: 1831 483e 5899 043e 2c2d debd 4a18 9a3e
00000010: 4d9c 8d3e 3bb3 4a3d ea7b a1bd 1e36 073e
00000020: b68a 8b3e 7802 3fbd 86bb b83e 4632 b5bc
00000030: 43fe 893e 50c1 423e fd22 48ba 9b29 f4bd
00000040: 5307 ce3e 5c58 fb3d c286 bb3e 01f0 153e
00000050: 3b2a e33e 1b66 bebc e76c c13e daa9 213e
00000060: 4ef4 773e e0f7 3f3e 9d02 023e dfef a23d
00000070: 3b22 0a3e a55f d93e 4ba2 9f3e 57be 17bf
00000080: 800a ea3d c6bf da3d 575e eebd 4bd4 a53d
00000090: 7b27 193e 752d a03d a5a0 973e 7d52 c53d
000000a0: 9ee6 aa3e 7f2f f03c 8c5e 3cbd f090 3abe
000000b0: b517 8c3e f3c8 dd3c 1cc2 c9bd 5984 abbd
000000c0: 52d7 c93d 0fc4 71be eb1f 4dbe 5fcf cabd
000000d0: 177d 103e df49 1bbe e508 363e e803 bdbe
000000e0: da26 16be aaea d9bd 7352 0d3e b708 09be
000000f0: e1f5 923d 758f f73d 9b43 233e 6284 d93d
00000100: 6b4a 1c3e bcb0 ec3d b900 9c3e 1fef 353c
00000110: c570 853e 4808 d83d 286c be3d fd8d fbbd
00000120: c0ad 843c 9d26 d9bd fdaf 433e ac3a bd3d
00000130: 3b4e 683d ca53 243d f27e cabd 5756 9dbe
00000140: e890 983e 871b 363e e496 983c 1129 8c3d
00000150: fdc8 133e 19c1 903d 23e1 913e 08be d53c
00000160: ab26 1c3e 9b04 8e3d 3ab8 083e 2b69 e83d
00000170: b73e 0f3e b613 913d c702 823e ab8a 5cbd
00000180: 6faa 0f3f 0636 9dbd 9ef3 2a3e 8ccb c33e
00000190: c2d4 ed3d 968a c43d cebb cc3d 1276 ae3e
000001a0: 34ec ff3d 58d1 ec3d 660f 153f f629 973d
000001b0: 11ce 613e db06 2f3e 3b2e d93e 43a1 13bf
000001c0: 951c 8b3e b54b f5bd fa7c eb3e 606d e13e
000001d0: c847 883d eeb1 5dbd f87e cabc 3630 413e
000001e0: bc57 ce3e 3753 93bd f2f2 0b3c cf57 0a3e
000001f0: eb56 843d d177 9abc f737 953e ff72 95be
00000200: 84d0 8d3e 7be3 09bd c18b 373e 1aa0 3b3e
00000210: 7d19 1dbe 26a3 823e b91a 06bd a9c1 443d
00000220: d023 b13d 2732 3c3e 9b76 783e 8df5 6cbe
00000230: b89f 19be 7cfb de3d 5d3d aa3e 54de b5bc
00000240: e81d a73e 215b 66bd e3c8 75bb 227b 5fb9
00000250: 4a40 e13c cd22 37be d6b4 113e 429f 973e
00000260: 4b1d 91bd 7b77 cf3a ee87 ba3e 0c8f 56bd
00000270: 1b33 5c3c 80e2 873e 362a df3d 09f5 b2bd
00000280: 3356 823d 5f49 4b3e 5542 cfbd 88f5 883e
00000290: 7d16 af3d faad 2f3e 758b 7f3e 23d1 e9bd
000002a0: 76bd 153e e1f3 7bbd 435d a53e d5c2 2dbe
000002b0: 28f7 10be 7ceb b43e 64b8 073d 7c8f b4be
000002c0: c726 993d cb3e 293e a0bc 59be 57ed 23be
000002d0: a493 5b3e 7088 13be c671 fc3d cf73 ab3e
000002e0: c3bd a63e 5242 89be bd7f 6b3e 98f2 063e
000002f0: 9b35 f03c b727 2dbd 96c6 8b3e 4a2c 5fbe
00000300: 2b62 21be eb67 61be 513c 873e 9316 5bbe
00000310: 6d77 1b3d 43a9 e8bb bd2a d73c 2518 4cbe
00000320: eddf 4f3a 06cb 06be 56d7 22be 99bb 94bd
00000330: a9e8 fbbd 8042 66bd 157d 423e 840b 36be
00000340: 6854 c43d 9b43 68be 74fe 1d3e dae7 fcbd
00000350: 1550 10bd e0d4 a0bd c043 1cbe 8283 60bd
00000360: 282d 1cbe 81f5 61be 6b12 6a3c ca72 bdbc
00000370: 138f 543d 16ca 843e 192f 5a3d e7aa f2bc
00000380: 7d04 2d3d 35da 2abe ad22 c13d f926 243e
00000390: 9959 ea3d f15b 093e 885c 423e 26bc d43d
000003a0: aadf 8d3e faaf e6bd 401e 893e f7c3 ce3d
000003b0: 8e10 863e 8ad7 ab3e d3e4 783e 23e9 f7bd
000003c0: eff7 d5bd f437 113d fe14 953e d99b 113e
000003d0: 0e8f 1d3e ac04 063e 7188 4fbd d984 46be
000003e0: 117a 8e3e 519b 05be ee03 8b3e 0678 25bd
000003f0: cce7 52bc f3b8 6f3e 0b09 96bd 9daf 07be

bias_ih_l0 f4 [64]
0.37158993 0.34962067 0.008293561 -0.1536938 -0.04857408 0.2527194 0.21673349 0.28127876
0.3159954 0.35326287 0.4144339 0.41156122 0.26528746 -0.15001264 -0.052094206 -0.017591393
0.27028814 0.23299858 -0.14306931 -0.05679851 -0.15598361 -0.041852154 -0.041091975 0.035191167
-0.07172816 -0.03307887 0.10366388 -0.10786075 0.11507751 -0.17148161 0.19083187 0.16994534
0.29143956 -0.09988971 -0.1657813 0.17985423 0.07872716 0.00021218765 -0.21613704 0.119687
0.16910541 0.010642743 0.041257985 -0.1810644 0.1046528 0.21835038 0.09731441 -0.35714045
0.21435435 0.3274291 0.35481593 0.28050616 -0.04207966 0.15866837 0.26007983 0.16109368
0.059518695 0.100821316 -0.14619981 0.25649562 0.25255996 0.2724528 0.46421394 0.12483308
00000000: 0941 be3e 7b01 b33e b7e1 073c e861 1dbe
00000010: 9df5 46bd 7064 813e 62ef 5d3e c503 903e
00000020: 26ca a13e dfde b43e ae30 d43e 27b8 d23e
00000030: c2d3 873e ea9c 19be bc60 55bd d31b 90bc
00000040: 3563 8a3e 2e97 6e3e c380 12be 8ea5 68bd
00000050: 2bba 1fbe 2a6d 2bbd 0f50 28bd 9d24 103d
00000060: 37e6 92bd b67d 07bd ba4d d43d 19e6 dcbd
00000070: c2ad eb3d e098 2fbe 6e69 433e 2706 2e3e
00000080: 9137 953e fa92 ccbd 93c2 29be b52b 383e
00000090: b53b a13d b07e 5e39 0753 5dbe 751e f53d
000000a0: f829 2d3e e65e 2e3c 22fe 283d f268 39be
000000b0: 3554 d63d 3e97 5f3e c74c c73d 1ddb b6be
000000c0: b57f 5b3e c9a4 a73e 6faa b53e 819e 8f3e
000000d0: b95b 2cbd f679 223e 2f29 853e bef5 243e
000000e0: e0c9 733d 687b ce3d 67b5 15be 6553 833e
000000f0: 8a4f 813e ef7e 8b3e 73ad ed3e 7ca8 ff3d

bias_hh_l0 f4 [64]
-0.046968527 0.26244596 0.31636968 0.13125312 0.22234145 0.10010051 0.19658944 0.25523224
0.29773358 0.20384024 0.2403632 0.31490132 -0.019186758 0.17735755 0.18096894 0.16908032
0.2662007 0.3507792 -0.016148582 -0.11730189 -0.076394536 0.0070367735 0.075198986 0.40226015
0.3508601 -0.12511511 -0.052898556 0.2817002 0.12403715 -0.12009257 0.011420107 0.18428962
0.2690678 -0.061740827 0.09918421 0.31045255 0.3060862 0.0721038 0.111955725 -0.025829919
0.17846271 0.10345093 0.35283074 0.16479123 0.28470936 0.301936 0.26545796 -0.34440252
0.19177352 0.20494966 0.18036413 0.08055303 -0.15813243 0.052376628 0.21829042 0.0806786
0.29340965 0.36856577 0.28594494 0.26757517 0.020276977 0.17395502 0.16461119 0.022070708
00000000: 1262 40bd 515f 863e 35fb a13e 3867 063e
00000010: 7aad 633e 7f01 cd3d be4e 493e cdad 823e
00000020: 8970 983e 7fbb 503e c521 763e bf3a a13e
00000030: 8c2d 9dbc 389d 353e ec4f 393e 6423 2d3e
00000040: 754b 883e 5599 b33e 084a 84bc f93b f0bd
00000050: bd74 9cbd bc94 e63b ed01 9a3d 0bf5 cd3e
00000060: efa3 b33e 2d1e 00be 28ac 58bd 023b 903e
00000070: 3007 fe3d 18f3 f5bd 671b 3b3c 6bb6 3c3e
00000080: 41c3 893e f3e3 7cbd 1721 cb3d a3f3 9e3e
00000090: 55b7 9c3e 28ab 933d 0b49 e53d 4499 d3bc
000000a0: eebe 363e 15de d33d 3ba6 b43e 08bf 283e
000000b0: 6dc5 913e 5b97 9a3e 1bea 873e 8755 b0be
000000c0: 4760 443e 53de 513e 60b1 383e fdf8 a43d
000000d0: 78ed 21be e088 563d 8687 5f3e d23a a53d
000000e0: ca39 963e a7b4 bc3e 6067 923e 9dff 883e
000000f0: e71b a63c 4421 323e d68f 283e a1cd b43c

weight f4 [32, 16]
-0.14898437 0.14553945 -0.13293989 0.06251162 0.10540985 0.22491083 -0.19468392 -0.24892372
-0.14328463 -0.009273846 0.09129362 0.14735666 -0.09977887 -0.13593741 -0.098303296 0.17456865
-0.030860025 0.046345364 0.3231621 0.2957867 0.031728182 -0.046732116 0.19576672 -0.22043093
0.26501057 -0.1925349 -0.17356472 -0.40853935 0.13171561 0.16597156 -0.07726616 -0.17927603
-0.0154855475 0.07318523 0.02688767 0.12392506 0.0137442425 0.04384045 0.3378127 -0.13328551
0.107490174 -0.32065484 -0.0063185375 -0.17829916 0.2866769 0.096162386 0.23043565 -0.026933081
-0.17228536 -0.39849088 0.042481672 0.045696523 -0.06075988 -0.048620988 0.3605211 -0.24599521
0.23634334 -0.22555488 0.26638135 -0.5674789 -0.08672003 0.27665713 0.234029 -0.30538166
0.005660466 -0.3061137 -0.08678522 0.10958818 0.22957171 0.2615983 0.23522174 -0.16191657
0.23839504 -0.13217777 0.06650619 -0.11729857 0.11039363 0.143893 0.0628755 0.1122928
0.2924699 0.11636281 0.2192693 0.00081744354 0.031724524 -0.06448316 -0.094320215 -0.16738015
-0.17153092 0.15713187 -0.011241087 0.09667867 0.21714753 0.13968518 0.120205194 0.14261414
0.2424367 0.2907396 -0.19339803 0.14296094 -0.08686371 -0.33586475 -0.09833759 0.22075713
0.26058674 0.06892243 0.16819973 0.44648424 -0.1820869 -0.12885456 0.3336515 -0.3685169
0.012595624 -0.14770079 0.04748544 0.04584375 0.11687881 -0.015770137 -0.15869635 -0.20942008
-0.217545 -0.24118754 -0.22048461 0.18071213 -0.22603142 0.13603505 -0.23256984 0.1333926
0.2852836 0.3876177 -0.2585537 -0.100677215 0.054744788 0.08492193 -0.35175577 0.19058955
0.31259245 -0.06581004 0.13855846 -0.08550469 -0.06720869 0.16736156 -0.044478547 -0.32276446
0.12844071 -0.15073699 -0.117512606 0.04524686 -0.10540835 -0.13902973 0.19910532 -0.25817308
0.17439072 -0.086651064 0.25046915 -0.062345915 -0.104752794 0.2566626 -0.22686915 0.010437506
0.24035159 0.20574349 -0.0065358877 0.005287803 0.3457259 -0.23913155 -0.554977 0.4627435
0.27179113 0.28973362 0.17811356 0.31912196 -0.107412 -0.09542243 -0.06956112 -0.29389518
-0.22240578 -0.14352167 0.10879994 -0.16971298 0.08009714 0.011670386 0.22236504 0.027945068
-0.019309504 0.082915604 -0.00016609718 0.01302215 0.25973418 0.16905391 -0.13080783 -0.098462895
0.0639345 0.011155797 0.21132015 0.3080921 0.12793167 0.017051715 0.5171436 -0.108112715
-0.0427501 -0.23959926 0.13914369 -0.50504875 0.32171717 0.18149619 0.15991445 0.13204354
0.35105824 0.23861536 -0.022774037 -0.085666284 0.12570326 -0.2514281 -0.27785268 0.5000994
0.1323609 0.13386528 0.33260027 0.39930952 -0.09980352 0.17957549 0.3442348 -0.41551742
0.17520314 0.46815637 0.013904602 -0.031633265 -0.033608604 -0.2891139 -0.40912452 0.38150102
0.08261871 0.1162687 0.2521833 0.34924594 -0.017221747 0.03884772 0.093688555 -0.05414618
0.047166158 -0.22250003 -0.019307943 0.047403216 0.39268655 0.10510695 0.22476697 -0.5372092
0.32688427 -0.4221529 0.05603626 -0.4375588 0.17857783 0.19806397 0.17375442 -0.12674041
00000000: 5c8f 18be 4b08 153e 6521 08be 1806 803d
00000010: 1fe1 d73d 064f 663e 395b 47be dce5 7ebe
00000020: 35b9 12be 54f1 17bc 26f8 ba3d aae4 163e
00000030: dd58 ccbd 2d33 0bbe 3d53 c9bd 20c2 323e
00000040: 2ace fcbc a3d4 3d3d 8175 a53e 5b71 973e
00000050: 69f5 013d 2d6a 3fbd 1277 483e a5b8 61be
00000060: 77af 873e de27 45be f3ba 31be 122c d1be
00000070: 75e0 063e 73f4 293e b83d 9ebd 2394 37be
00000080: 18b7 7dbc 23e2 953d 8843 dc3c 6ccc fd3d
00000090: 882f 613c 0b92 333d c9f5 ac3e ff7b 08be
000000a0: cf23 dc3d df2c a4be bc0b cfbb 0e94 36be
000000b0: 51c7 923e c9f0 c43d 53f7 6b3e c4a2 dcbc
000000c0: 936b 30be ff06 ccbe 4301 2e3d 472c 3b3d
000000d0: 5adf 78bd cd26 47bd 3996 b83e 2be6 7bbe
000000e0: fd03 723e dcf7 66be 2363 883e 4c46 11bf
000000f0: 459a b1bd 01a6 8d3e 4ca5 6f3e fc5a 9cbe
00000100: 6e7b b93b efba 9cbe 73bc b1bd c56f e03d
00000110: d914 6b3e 36f0 853e f8dd 703e 75cd 25be
00000120: d41d 743e 9c59 07be 6634 883d 3c3a f0bd
00000130: 0e16 e23d b058 133e dfc4 803d c4f9 e53d
00000140: 9dbe 953e a04f ee3d 2288 603e b549 563a
00000150: 93f1 013d bf0f 84bd f52a c1bd b465 2bbe
00000160: cda5 2fbe 2de7 203e 892c 38bc 77ff c53d
00000170: ec5b 5e3e a209 0f3e 242e f63d 7109 123e
00000180: 5441 783e d2db 943e 220a 46be 5a64 123e
00000190: 9ae5 b1bd 77f6 abbe 3865 c9bd 280e 623e
000001a0: a06b 853e 3427 8d3d 8d3c 2c3e 9599 e43e
000001b0: fd74 3abe 73f2 03be 5fd4 aa3e 3fae bcbe
000001c0: e05d 4e3c e03e 17be 1880 423d a8c6 3b3d
000001d0: 285e ef3d 6030 81bc 4c81 22be 3872 56be
000001e0: 1ec4 5ebe def9 76be b8c6 61be 9a0c 393e
000001f0: c874 67be c64c 0b3e ca26 6ebe 1298 083e
00000200: b110 923e d475 c63e 2761 84be db2f cebd
00000210: 123c 603d 8deb ad3d 5519 b4be e829 433e
00000220: 1e0c a03e 6ac7 86bd 45e2 0d3e 151d afbd
00000230: b6a4 89bd d460 2b3e 232f 36bd 6241 a5be
00000240: f685 033e cc5a 1abe 73aa f0bd c554 393d
00000250: 55e0 d7bd cf5d 0ebe 44e2 4b3e 432f 84be
00000260: 7b93 323e 1d76 b1bd 7e3d 803e 6e5e 7fbd
00000270: a288 d6bd 4869 833e 6350 68be 1302 2b3c
00000280: ba1e 763e 6cae 523e 002b d6bb 4e45 ad3b
00000290: fc02 b13e e7de 74be f912 0ebf b7ec ec3e
000002a0: 3528 8b3e f757 943e 6763 363e f463 a33e
000002b0: d3fa dbbd d66c c3bd 0f76 8ebd 6e79 96be
000002c0: 57be 63be 58f7 12be 81d2 de3d 3dc9 2dbe
000002d0: f809 a43d 2635 3f3c a9b3 633e 0eed e43c
000002e0: f72e 9ebc a8cf a93d 5f2a 2eb9 db5a 553c
000002f0: e1fb 843e 781c 2d3e 7df2 05be eaa6 c9bd
00000300: 17f0 823d cec6 363c 4f64 583e 3fbe 9d3e
00000310: 8500 033e 0ab0 8b3c 8663 043f 336a ddbd
00000320: bb1a 2fbd 8259 75be af7b 0e3e e04a 01bf
00000330: 1db8 a43e 23da 393e 9dc0 233e 6c36 073e
00000340: e8bd b33e 9657 743e 9e90 babc ce71 afbd
00000350: 5bb8 003e 2fbb 80be b542 8ebe 8406 003f
00000360: 9e89 073e fb13 093e 954a aa3e 4c72 cc3e
00000370: ca65 ccbd a3e2 373e 8b3f b03e b3be d4be
00000380: 7468 333e 31b2 ef3e 21d0 633c e291 01bd
00000390: 2da9 09bd bd06 94be c578 d1be 1a54 c33e
000003a0: 0034 a93d 491e ee3d 2b1e 813e 5dd0 b23e
000003b0: 9f14 8dbc c91e 1f3d c9df bf3d 63c8 5dbd
000003c0: 4d31 413d 0cd7 63be b12b 9ebc e029 423d
000003d0: 360e c93e 5042 d73d 5029 663e 8b86 09bf
000003e0: 605d a73e 6d24 d8be 4786 653d b507 e0be
000003f0: 1bdd 363e 48d1 4a3e aeec 313e 3dc8 01be

bias f4 [32]
-0.03868522 0.09991291 0.25055927 0.22302528 0.21211219 0.2699639 0.14226271 -0.06449151
0.12628625 -0.16834807 0.34243804 -0.20020434 0.15947846 0.11169722 0.31094435 0.3002695
0.03080767 -0.21798036 0.22189511 -0.020454245 -0.040732604 -0.12593348 -0.2164367 0.26729712
0.09015507 0.15945004 0.025940642 -0.039815463 0.29928443 -0.21770678 0.10989193 0.07691705
00000000: 6574 1ebd 249f cc3d 4e49 803e bd60 643e
00000010: f033 593e b538 8a3e 51ad 113e 2014 84bd
00000020: 2f51 013e 7063 2cbe 0a54 af3e 5e02 4dbe
00000030: 524e 233e 83c1 e43d 1934 9f3e edbc 993e
00000040: 5e60 fc3c 3e36 5fbe 7938 633e a98f a7bc
00000050: 3bd7 26bd b5f4 00be 95a1 5dbe 2bdb 883e
00000060: 39a3 b83d df46 233e 7881 d43c 8a15 23bd
00000070: cf3b 993e 87ee 5ebe 050f e13d b086 9d3d

weight f4 [32, 32]
-0.08282479 0.05528282 0.14872375 0.1669792 -0.02334609 0.09442137 -0.26687118 0.019515824
0.24758963 0.25760207 -0.37162995 0.08174705 0.080524676 -0.15177943 -0.094836384 0.24299428
0.052290797 0.13998584 0.12989376 0.037222646 0.11204136 0.038718875 -0.060541846 0.27467182
0.2433373 0.30401686 -0.03274528 -0.23967402 0.055241268 -0.08365349 0.13622598 0.13257062
-0.1328035 -0.16205785 0.08770404 -0.123703435 -0.08298979 -0.04918957 0.030336585 0.03506091
-0.0041467072 0.048564147 0.069113106 0.10918832 -0.18673868 -0.18370889 0.115216896 0.039430562
-0.13045195 0.012201849 -0.11551791 -0.090879455 0.15773675 -0.05580112 0.13520703 -0.18815064
-0.11382388 0.06508788 0.059013344 -0.2787805 0.04115199 -0.06708594 -0.15458389 -0.17841007
-0.02891398 -0.012050333 0.01566703 0.0076210015 0.11333253 -0.07862687 -0.11060698 -0.022139085
-0.1614639 -0.16991808 0.015135275 0.16763937 0.15349132 -0.14551063 -0.13747482 -0.1762212
-0.17086229 0.15077105 0.13127884 0.11715662 0.08985456 0.14054736 0.13968346 0.118434094
-0.08162251 0.03401218 -0.018051095 -0.10725249 -0.13400152 -0.110975266 0.012915775 -0.14337067
-0.09331757 0.12246019 -0.13912006 -0.053622533 0.08607378 0.13859008 -0.13869953 -0.0131547265
0.17681114 0.020167895 -0.122556955 0.088209115 0.053671367 0.11658433 0.15934142 -0.15857832
-0.23549822 0.079845816 -0.03281946 0.00096269633 0.018790107 -0.026839701 -0.16525823 0.04846093
-0.026133137 -0.120065875 0.075068064 0.026685314 -0.03955249 0.0034142525 -0.16471547 -0.0012446267
0.04065211 0.19771852 0.32520288 0.236125 0.2487734 0.10642501 -0.09946181 -0.15472896
0.035118863 0.0983593 -0.29754323 0.27379334 0.35755774 -0.39064416 -0.13798375 0.111604854
0.30577135 0.021562032 0.1540475 0.16315801 -0.08879041 -0.022543063 0.00306267 0.2834415
0.03082698 0.094531216 0.0031560317 -0.13055454 0.12557103 -0.121761106 0.16911706 -0.035915468
0.10491867 -0.09887659 -0.13204439 -0.03503756 -0.1730572 -0.07250588 -0.12394216 -0.12796316
0.009066267 0.055100363 0.07429785 0.13153219 -0.011199744 -0.10154319 -0.083482295 -0.0141923735
-0.08266071 0.057601698 -0.035553876 -0.11206224 0.15178818 -0.065975934 -0.0011001591 -0.020144759
-0.13819008 -0.11551913 0.10573009 0.05486438 0.08278749 -0.04347011 0.060197145 0.065134734
0.085334614 -0.15906721 -0.09755964 -0.23437513 0.06822147 0.2020721 0.12836175 -0.023732278
0.32333502 -0.07457043 0.1393638 0.111096635 -0.118804544 0.20617133 0.35315624 -0.26546755
-0.16873994 -0.06869694 0.052781917 0.07166915 0.077901565 -0.11559516 -0.15548648 -0.07177373
-0.03569087 -0.17922446 0.13985983 0.047950495 0.0673311 0.012960471 0.30853084 -0.08419169
0.13392766 0.15871605 0.15726516 -0.019611925 -0.09063402 -0.08635994 0.07398369 0.100930996
0.005196238 0.1323877 0.04846612 0.13988622 -0.051081978 -0.041709248 0.106789395 -0.11499909
-0.0073412093 0.11353073 0.2506987 -0.102301344 0.07185782 -0.05063468 0.105125576 0.11393507
0.1668967 0.07388501 -0.14280047 0.24510227 0.15884069 0.02800761 0.10248687 0.1769399
00000000: 0ba0 a9bd 3d70 623d 0a4b 183e 98fc 2a3e
00000010: 4d40 bfbc fe5f c13d 57a3 88be a6df 9f3c
00000020: 2388 7d3e 6be4 833e 4846 bebe ff6a a73d
00000030: 1fea a43d 116c 1bbe 9439 c2bd 7ed3 783e
00000040: e02e 563d 7358 0f3e df02 053e c676 183d
00000050: f175 e53d af97 1e3d bafa 77bd c9a1 8c3e
00000060: 6a2d 793e 19a8 9b3e ea1f 06bd 1b6d 75be
00000070: ab44 623d 8552 abbd d37e 0b3e 98c0 073e
00000080: a4fd 07be 7ef2 25be 2d9e b33d 3a58 fdbd
00000090: 8df6 a9bd 017b 49bd 6e84 f83c 079c 0f3d
000000a0: 1ae1 87bb 33eb 463d 2c8b 8d3d 209e df3d
000000b0: 6d38 3fbe 2f1e 3cbe d6f6 eb3d f181 213d
000000c0: 3295 05be 44ea 473c a794 ecbd 021f babd
000000d0: be85 213e b78f 64bd b673 0a3e 90aa 40be
000000e0: 7f1c e9bd cb4c 853d fab7 713d 51bc 8ebe
000000f0: fd8e 283d 5a64 89bd 3d4b 1ebe 21b1 36be
00000100: 03dd ecbc c36e 45bc 2558 803c 98b9 f93b
00000110: e31a e83d 2007 a1bd ea85 e2bd 075d b5bc
00000120: cb56 25be 01ff 2dbe f2f9 773c a8a9 2b3e
00000130: d42c 1d3e bd00 15be 33c6 0cbe 5573 34be
00000140: 86f6 2ebe ba63 1a3e f66d 063e cfef ef3d
00000150: ab05 b83d a6eb 0f3e 2e09 0f3e 938d f23d
00000160: b429 a7bd 5b50 0b3d e4df 93bc 32a7 dbbd
00000170: b237 09be 0047 e3bd b09c 533c c3cf 12be
00000180: 481d bfbd 68cc fa3d 7d75 0ebe 4da3 5bbd
00000190: 7347 b03d 8fea 0d3e 4007 0ebe ec86 57bc
000001a0: fb0d 353e 2437 a53c 24ff fabd fba6 b43d
000001b0: 82d6 5b3d c4c3 ee3d 662a 233e 5b62 22be
000001c0: 7226 71be 3486 a33d b36d 06bd 755d 7c3a
000001d0: b6ed 993c efde dbbc 7439 29be f87e 463d
000001e0: 2915 d6bc 19e5 f5bd 49bd 993d 299b da3c
000001f0: cb01 22bd a7c1 5f3b 2cab 28be be22 a3ba
00000200: d482 263d b976 4a3e fe80 a63e c1ca 713e
00000210: 74be 7e3e 5bf5 d93d a2b2 cbbd 4571 1ebe
00000220: ccd8 0f3d 9a70 c93d 9657 98be a42e 8c3e
00000230: cf11 b73e 8302 c8be 9d4b 0dbe 1691 e43d
00000240: 108e 9c3e dca2 b03c a1be 1d3e e512 273e
00000250: bfd7 b5bd 3bac b8bc 13b7 483b 3f1f 913e
00000260: dd88 fc3c 9599 c13d 6dd5 4e3b 17b0 05be
00000270: b195 003e e35d f9bd 062d 2d3e 191c 13bd
00000280: 9adf d63d cf7f cabd a536 07be 8b83 0fbd
00000290: e835 31be f67d 94bd 63d5 fdbd c608 03be
000002a0: ae8a 143c ebb0 613d 7929 983d 60b0 063e
000002b0: 227f 37bc e0f5 cfbd c4f8 aabd 2187 68bc
000002c0: 054a a9bd c2ef 6b3d f1a0 11bd e380 e5bd
000002d0: 5c6e 1b3e 641e 87bd 3733 90ba 9f06 a5bc
000002e0: b381 0dbe 4b95 ecbd 0489 d83d 79b9 603d
000002f0: 7d8c a93d b70d 32bd 4891 763d 5c65 853d
00000300: eac3 ae3d 84e2 22be 59cd c7bd 0900 70be
00000310: b3b7 8b3d fdeb 4e3e 4371 033e 326a c2bc
00000320: 2b8c a53e 62b8 98bd 62b5 0e3e a286 e33d
00000330: cc4f f3bd 941e 533e e5d0 b43e 5deb 87be
00000340: 2aca 2cbe fbb0 8cbd da31 583d 46c7 923d
00000350: db8a 9f3d 28bd ecbd d937 1fbe 1bfe 92bd
00000360: 9730 12bd 9e86 37be 6a37 0f3e bd67 443d
00000370: e3e4 893d 2858 543c c1f7 9d3e b16c acbd
00000380: 5524 093e 7686 223e 1e0a 213e 30a9 a0bc
00000390: 549e b9bd 7bdd b0bd c384 973d e9b4 ce3d
000003a0: 3445 aa3b a490 073e 6984 463d 553e 0f3e
000003b0: 563b 51bd 51d7 2abd 66b4 da3d a584 ebbd
000003c0: 878e f0bb cd82 e83d 945b 803e 5e83 d1bd
000003d0: 312a 933d 4f66 4fbd 144c d73d ca56 e93d
000003e0: f8e6 2a3e 0651 973d 493a 12be 17fc 7a3e
000003f0: 22a7 223e 3770 e53c a3e4 d13d bc2f 353e

bias f4 [32]
0.1706588 0.09836552 0.0686998 -0.037847884 0.04359676 0.071581274 0.20885459 -0.09835932
-0.07769827 -0.08800165 -0.20320314 0.17777978 0.07627699 -0.115640245 0.16856797 -0.10067493
0.032526944 -0.036929045 0.082582064 -0.04145187 -0.18136933 0.156822 0.32600373 0.15069427
0.026185164 0.09161644 0.09175617 0.13104157 -0.07756528 0.22327651 0.017512696 -0.13801894
00000000: 2ec1 2e3e dd73 c93d 7bb2 8c3d 6206 1bbd
00000010: 8492 323d 3499 923d fadd 553e 9c70 c9bd
00000020: 4520 9fbd 363a b4bd 7c14 50be e70b 363e
00000030: 1c37 9c3d cbd4 ecbd 159d 2c3e a82e cebd
00000040: f93a 053d e942 17bd c920 a93d 70c9 29bd
00000050: e2b8 39be f295 203e f6e9 a63e 994f 1a3e
00000060: 4582 d63c 66a1 bb3d a9ea bb3d c32f 063e
00000070: 8cda 9ebd 99a2 643e c976 8f3c d654 0dbe

weight f4 [32, 32]
-0.09048912 -0.060429618 -0.095881276 -0.08653314 -0.15046793 0.14010887 0.40731236 0.25807518
0.12389302 0.040148772 -0.075280294 -0.03452089 0.17773363 -0.24799383 -0.107729256 0.2000768
0.17671898 0.11057327 -0.055244673 -0.086535275 0.043570276 -0.063361816 0.25968787 -0.053307187
0.2856043 0.10273875 0.21917084 0.36140049 0.025949568 0.049414806 -0.14459327 -0.06709057
-0.16493876 -0.09920095 -0.17084533 0.11229212 0.0012897989 -0.040484007 0.0573552 0.092566386
-0.009096343 -0.15400559 -0.10995744 -0.12654896 -0.02399949 -0.0671903 -0.047791366 0.04723802
-0.08126401 0.14115517 0.031312075 0.16085026 0.13079536 0.1683161 -0.060065452 -0.1063397
0.04306725 -0.0831163 -0.039740138 0.15041241 -0.059496492 -0.16600196 -0.17664254 0.15307654
0.121844836 0.055397753 -0.097032644 0.074399985 0.21861689 -0.14678301 -0.031090127 -0.14396584
0.080770046 0.041225284 0.27621216 0.24196933 -0.084123634 -0.14443073 0.04614685 0.17144679
-0.22553134 0.3005739 0.22056532 -0.04642267 -0.067066684 0.0782506 -0.22518972 0.29606095
-0.100037664 0.025402788 -0.13389868 -0.06914434 -0.095195904 -0.033440202 0.15838405 0.08894363
0.07579105 0.1323661 -0.07464649 0.018276127 0.057313472 0.049231704 0.17528173 -0.098990865
0.13871948 0.096525624 0.1453567 0.15850775 -0.14239752 -0.14238602 0.15302372 -0.08023439
-0.13135283 0.2204146 0.23134029 0.2261571 0.03360095 0.1071108 -0.10844336 0.05697464
0.079192765 -0.075676166 -0.17048351 -0.03274517 -0.07346941 -0.13062191 0.029827261 -0.02371521
0.0673103 0.05003085 0.14510435 -0.05028138 0.20956713 0.0797239 0.14307365 -0.13956046
0.012278888 0.16872595 0.2580357 0.2785846 -0.1176495 0.13665992 -0.08006843 -0.14466508
-0.19396752 0.07194922 0.1382796 -0.03153826 -0.14232683 0.2925824 -0.33080676 0.041515946
-0.08112973 -0.09199639 -0.22380972 0.022267751 -0.012953286 0.029095124 0.10975728 0.18808764
0.028394246 -0.10219544 0.14591181 0.06778084 0.0368532 -0.092565715 0.12465106 -0.15941985
0.042351257 0.00788694 0.036925923 -0.0668909 -0.11786481 -0.18900472 0.05482895 -0.16819434
0.044842664 -0.076941855 0.06663886 0.01030149 -0.12050494 -0.08466251 -0.07304729 -0.0019828198
0.032643072 0.08158928 -0.17783171 0.12063123 0.044392686 0.12816636 -0.05043838 -0.17297459
-0.10441452 -0.045272775 0.18442398 0.19794971 -0.18842319 0.06921526 0.055694446 -0.09505848
0.16638847 -0.11122117 0.17650019 0.022617161 0.21594569 0.042484988 0.14132087 -0.060892213
0.046437144 -0.100112446 -0.08749132 0.028930018 -0.118994504 0.038296163 0.2939453 -0.079444796
0.20502324 0.0131507935 0.33951992 0.09753382 -0.07961083 0.045986768 0.09488059 0.08289904
0.17425787 0.15244636 0.07515002 0.0073795174 0.25331378 0.10640875 0.124616735 0.15900692
-0.049019784 -0.11216001 0.14892825 0.09850659 -0.06100483 -0.15550293 0.01631354 0.120931454
-0.14880313 0.076353535 0.17368625 0.08977341 0.055694114 -0.04284069 0.07163183 0.055028606
0.17693222 -0.1464345 -0.1434876 -0.19230933 0.089801595 -0.209235 0.11301859 -0.0018523927
00000000: 5c52 b9bd 0c85 77bd 675d c4bd 4938 b1bd
00000010: 4414 1abe b378 0f3e 3f8b d03e 6e22 843e
00000020: a0bb fd3d 0a73 243d 8e2c 9abd c765 0dbd
00000030: ceff 353e 18f2 7dbe 28a1 dcbd efe0 4c3e
00000040: d2f5 343e 3d74 e23d 3d48 62bd 6839 b1bd
00000050: bf76 323d d7c3 81bd cff5 843e a358 5abd
00000060: ba3a 923e b268 d23d 526e 603e 7c09 b93e
00000070: 3094 d43c 2e67 4a3d 4210 14be c866 89bd
00000080: b5e5 28be de29 cbbd 14f2 2ebe 69f9 e53d
00000090: 780e a93a 8fd2 25bd 49ed 6a3d 7293 bd3d
000000a0: d408 15bc a4b3 1dbe 5e31 e1bd 0d96 01be
000000b0: 949a c4bc 119b 89bd e1c0 43bd a77c 413d
000000c0: bf6d a6bd fb8a 103e 1741 003d eeb5 243e
000000d0: 38ef 053e 0e5b 2c3e 3107 76bd a1c8 d9bd
000000e0: 4967 303d e138 aabd 8ec6 22bd b605 1a3e
000000f0: 98b2 73bd 6bfc 29be c8e1 34be 19c0 1c3e
00000100: c989 f93d c1e8 623d 0db9 c6bd 055f 983d
00000110: 1bdd 5f3e 494e 16be b9b0 febc c86b 13be
00000120: c46a a53d d8db 283d ae6b 8d3e cfc6 773e
00000130: 0349 acbd a6e5 13be 7b04 3d3d bf8f 2f3e
00000140: b0f1 66be d2e4 993e e0db 613e b325 3ebd
00000150: 425a 89bd da41 a03d 2298 66be 4d95 973e
00000160: 8ce0 ccbd 8219 d03c bc1c 09be 8c9b 8dbd
00000170: 12f6 c2bd 98f8 08bd 6e2f 223e 1428 b63d
00000180: 5738 9b3d fb8a 073e 42e0 98bd d1b7 953c
00000190: 88c1 6a3d 2fa7 493d 0e7d 333e b9bb cabd
000001a0: 7b0c 0e3e 3aaf c53d 63d8 143e db4f 223e
000001b0: a8d0 11be a4cd 11be 40b2 1c3e ee51 a4bd
000001c0: 5b81 06be 5db4 613e 78e4 6c3e ba95 673e
000001d0: 26a1 093d e85c db3d 8d17 debd 3d5e 693d
000001e0: d12f a23d 1bfc 9abd 3b93 2ebe cd1f 06bd
000001f0: 2177 96bd c0c1 05be 4d58 f43c 6646 c2bc
00000200: fcd9 893d 26ed 4c3d 3c96 143e d9f3 4dbd
00000210: c498 563e 4946 a33d e681 123e f0e8 0ebe
00000220: 642d 493c 7fc6 2c3e 411d 843e a4a2 8e3e
00000230: 39f2 f0bd 94f0 0b3e ebfa a3bd 1523 14be
00000240: 6c9f 46be 1d5a 933d 2b99 0d3e 432e 01bd
00000250: 20be 11be 5ccd 953e 815f a9be a00c 2a3d
00000260: 5827 a6bd 9a68 bcbd 602e 65be dc6a b63c
00000270: 053a 54bc e658 ee3c 6dc8 e03d 0c9a 403e
00000280: 0d9b e83c d84b d1bd e869 153e aed0 8a3d
00000290: 62f3 163d 1893 bdbd 0e49 ff3d f53e 23be
000002a0: 8378 2d3d 3938 013c a33f 173d 19fe 88bd
000002b0: 1b63 f1bd 748a 41be 5294 603d 233b 2cbe
000002c0: f1ac 373d b193 9dbd f479 883d 95c7 283c
000002d0: 4bcb f6bd 8a63 adbd d199 95bd 32f2 01bb
000002e0: beb4 053d 4818 a73d 8419 36be 820d f73d
000002f0: 1bd5 353d 0b3e 033e 7a98 4ebd 4020 31be
00000300: 48d7 d5bd f26f 39bd a4d9 3c3e 54b3 4a3e
00000310: 02f2 40be bbc0 8d3d dc1f 643d 05ae c2bd
00000320: bd61 2a3e edc7 e3bd 77bc 343e a047 b93c
00000330: de20 5d3e bd04 2e3d 6bb6 103e 1d6a 79bd
00000340: e034 3e3d c107 cdbd a62e b3bd a5fe ec3c
00000350: 64b3 f3bd 70dc 1c3d 0080 963e f4b3 a2bd
00000360: 9df1 513e 6d76 573c 8ed5 ad3e d0bf c73d
00000370: 010b a3bd 9f5c 3c3d c150 c23d f9c6 a93d
00000380: a870 323e e61a 1c3e 41e8 993d e1cf f13b
00000390: 58b2 813e d5ec d93d 0f37 ff3d b6d2 223e
000003a0: f8c8 48bd 26b4 e5bd a680 183e d3bd c93d
000003b0: 33e0 79bd 293c 1fbe f9a3 853c e9aa f73d
000003c0: d95f 18be 3e5f 9c3d cfda 313e 1fdb b73d
000003d0: 831f 643d b879 2fbd b5b3 923d ad65 613d
000003e0: b82d 353e edf2 15be 6aee 12be bdec 44be
000003f0: e6e9 b73d b341 56be 4a76 e73d fccb f2ba

bias f4 [32]
0.1727032 -0.116866216 0.04490539 0.194171 0.03665063 0.013052897 0.16421111 0.08502426
0.07384906 -0.07858874 0.015325512 0.19239186 0.27883622 -0.13907363 -0.0030818235 0.2268975
0.19576329 -0.0809328 0.020619962 -0.15039161 0.17616846 0.18182391 0.24695036 0.08302385
-0.053312015 -0.1599794 0.25123248 -0.092324935 -0.050769817 0.01301923 -0.09375321 -0.17123087
00000000: 1cd9 303e 8e57 efbd b7ee 373d c3d4 463e
00000010: f91e 163d d1db 553c f526 283e 3321 ae3d
00000020: 2d3e 973d 22f3 a0bd db17 7b3c 5f02 453e
00000030: 9fc3 8e3e 5169 0ebe 6bf8 49bb d157 683e
00000040: 2c76 483e 19c0 a5bd 32eb a83c 4200 1abe
00000050: 8165 343e 0c30 3a3e 8ee0 7c3e 6908 aa3d
00000060: b35d 5abd a4d1 23be 8ba1 803e db14 bdbd
00000070: 03f4 4fbd 9c4e 553c af01 c0bd 2557 2fbe

weight f4 [1, 32]
-0.24199072 -0.004286829 0.16258077 0.088401645 0.12932885 0.0023320706 -0.14705652 0.043955635
0.1497382 0.11797358 -0.121975094 -0.13311556 -0.27483907 -0.014802286 -0.00039943514 -0.124044515
-0.116701566 0.005738516 -0.13679573 -0.0130595835 -0.1557133 -0.123283006 -0.25411043 0.16321732
-0.10027893 -0.03657886 -0.14755613 0.08801931 0.082316674 -0.088918336 0.007240323 -0.08750771
00000000: 6acc 77be 8778 8cbb 937b 263e ec0b b53d
00000010: c86e 043e a7d5 183b fc95 16be d30a 343d
00000020: f854 193e 229c f13d 14ce f9bd 724f 08be
00000030: b5b7 8cbe 4a85 72bc 476b d1b9 0d0b febd
00000040: 3b01 efbd 290a bc3b 2e14 0cbe ddf7 55bc
00000050: 4f73 1fbe cd7b fcbd c31a 82be 7122 273e
00000060: 0a5f cdbd b7d3 15bd f418 17be 7843 b43d
00000070: a595 a83d d11a b6bd 3b40 ed3b 3e37 b3bd
