models/patient22/ppo_model_for_patient_22_Actor.pth (torch, 23458 bytes, 16 tensors)

FeatureExtractor.LSTM.weight_ih_l0 f4 [64, 2]
000000 fb 09 88 be 68 31 f7 bd 53 73 a3 be dd 52 2f 3d
       -0.26570114 -0.1206997 -0.31923923 0.042803634
000010 8f 69 00 bd 82 81 26 be 59 0a 9e 3d cd 0b c3 3d
       -0.03135067 -0.16260341 0.077168174 0.09523735
000020 5d eb 85 be 1e 84 46 3e 2e a2 33 3e e8 c9 7e be
       -0.2615613 0.19386336 0.17542335 -0.24881709
000030 e4 63 32 be d4 7a 69 3e 5f ff 11 be 2b a8 2a bd
       -0.17420918 0.22800761 -0.14257573 -0.041664284
000040 30 b5 aa 3d 22 12 86 be aa 51 1f be 8c 35 e7 bd
       0.0833534 -0.2618571 -0.15558496 -0.1128951
000050 eb b5 6f b9 7b e5 0b be ef dc ee bd 6d 1c 36 3e
       -0.00022860586 -0.13661759 -0.116632335 0.17784281
000060 4c 5f 60 be c2 e2 86 be 24 d6 59 bd 15 15 38 3e
       -0.21911353 -0.26344877 -0.053182736 0.17976792
000070 bb 28 52 be 68 91 ab bd 54 9e 88 be 05 ec 6d be
       -0.2052335 -0.083773434 -0.26683295 -0.23234566
000080 dd ba ad bd 2b 5d 5d bd ec 31 96 be 2e 31 a3 be
       -0.08482907 -0.05404393 -0.29334962 -0.3187346
000090 d2 b2 96 bc e5 99 b7 bd e3 7d 6c 3d e8 35 46 3e
       -0.018395815 -0.089649 0.057737242 0.19356501
0000a0 ae 16 09 3e 4d 1f d6 3d dd 82 ef 3d 93 5b 8e be
       0.13387558 0.10455189 0.11694882 -0.2780424
0000b0 05 39 91 3b a2 a2 11 be 1f 7f cd bd 56 a2 97 3c
       0.004431846 -0.14222196 -0.10034012 0.018510025
0000c0 10 60 6d be 89 ed 29 3e b0 d0 70 bc ec 52 8b be
       -0.23181176 0.16594519 -0.0146981925 -0.27211702
0000d0 93 34 2c be 70 aa 33 be 2b 64 86 bd 4b 1a f9 3d
       -0.1681693 -0.17545485 -0.06562074 0.12163218
0000e0 d7 76 8e be d8 f1 1d be 30 a8 83 be 64 68 3d 3e
       -0.27825043 -0.15424287 -0.25714254 0.18496853
0000f0 79 54 05 3e 63 88 3a be ef 19 9a be f4 0d 08 be
       0.13020505 -0.1821609 -0.3009791 -0.13286573
000100 be 0e 63 be 51 05 89 bd 34 0e 52 3e 48 4a 8f be
       -0.22173592 -0.06690467 0.2051323 -0.2798636
000110 42 dd cb 3d 70 e9 eb 3c a5 b8 6d be 31 00 e4 3d
       0.09954311 0.028797835 -0.23214968 0.11132849
000120 4f 0f 36 3e 27 0b a7 bd b4 47 62 3e b8 30 69 bd
       0.17779277 -0.08156424 0.22097665 -0.056931227
000130 d2 e4 ea bd db 40 62 bc 91 bb a6 bd 92 cc 88 be
       -0.11469425 -0.013809408 -0.08141244 -0.26718575
000140 c3 88 f3 3d 8a de c9 3c 2f a4 65 be bf eb 93 be
       0.118913196 0.024642248 -0.22425912 -0.28890797
000150 2e 1d fe 3d df f7 0c 3e f9 64 6b be 0f 4e 6d 3e
       0.12407909 0.1376643 -0.22987737 0.23174308
000160 20 04 8d be 2a 41 02 3e bf 16 64 be 5c 71 39 3e
       -0.2754221 0.1272017 -0.22274302 0.1810965
000170 7f 44 bc 3d 39 94 75 3e 22 27 c2 3d 1e 26 2d be
       0.09192752 0.23982324 0.0948012 -0.16909072
000180 6c 0b a5 3c 48 9c d3 bd 0a 31 91 be 4e 5e a2 3d
       0.020147048 -0.10332543 -0.28357726 0.079281434
000190 7c 77 57 3c 82 c4 85 be 8f 2b 3c 3e 8b a9 3a 3e
       0.013151046 -0.26126486 0.18375991 0.18228738
0001a0 b1 a1 0c be e5 ef 85 be a5 6f f6 3d 13 16 8d bd
       -0.13733555 -0.26159588 0.12033013 -0.06888976
0001b0 dd ff 8a bd 84 54 5a 3e 85 9c 15 be 1c 71 36 bd
       -0.06787083 0.21321303 -0.14610489 -0.044541463
0001c0 4a 77 27 be c0 06 d7 3d ec e5 0c 3d 75 e8 dd bd
       -0.16354099 0.10499334 0.034398958 -0.10835353
0001d0 9d 92 59 3e ca a3 1d be fb 04 ba bc 2b 12 40 be
       0.21247335 -0.15394512 -0.022707453 -0.1875693
0001e0 82 f5 29 be d7 2b 44 be 70 b9 d7 bd ec e3 53 be
       -0.1659756 -0.19157349 -0.10533416 -0.20692414
0001f0 a7 a6 0a be bd 46 1f 3d c8 0e 28 3e 75 97 3c 3e
       -0.13540135 0.03888582 0.16411889 0.18417151

FeatureExtractor.LSTM.weight_hh_l0 f4 [64, 16]
000000 a9 ca c2 3d f7 b0 13 be 61 bc 35 3d ed 2b 67 be
       0.095113106 -0.14422975 0.044369105 -0.2257535
000010 9f 98 21 be bd df 14 be ab 9c 74 3e 09 59 54 3d
       -0.15780877 -0.14538474 0.23887889 0.051842723
000020 fc c5 41 3e ff be 1b be 67 51 ee 3d 40 58 8d 3d
       0.18923181 -0.15209578 0.1163662 0.06901598
000030 20 86 84 3e b1 3d 64 be 9e 7b 88 be 05 42 44 3d
       0.2588358 -0.22289158 -0.26656812 0.047914524
000040 a1 7e 2d be 5f 88 99 3d 0d f3 1f bc 8b 15 a1 3d
       -0.16942836 0.07496714 -0.009762538 0.07865437
000050 b4 98 c6 bd 10 3c 03 3e 6e a0 2f 3e 31 3c f8 3d
       -0.096970946 0.12815881 0.17151043 0.121208556
000060 2d 5a 84 be 30 e4 98 3e 80 b0 67 3c 24 2c 92 bc
       -0.2585005 0.29861593 0.014141202 -0.017843314
000070 96 7f 95 3e 6d 52 82 3d d7 a0 86 be ee 74 73 3e
       0.29198903 0.06363378 -0.26294586 0.23775074
000080 a1 5e bf 3d 9c 43 40 3d 7a 05 7d 3d d6 63 95 be
       0.09344221 0.046939477 0.0617728 -0.2917773
000090 0b 72 91 3e 1c 9f 4a 3e cb e1 b4 bc b1 c6 35 3e
       0.2840732 0.19787258 -0.022080323 0.17751576
0000a0 d8 78 54 3e dd 21 8a 3e 9d a1 95 be fd 82 21 bc
       0.20749223 0.2697896 -0.29224864 -0.00985789
0000b0 29 37 1c bd 3a 5e 50 be 26 31 45 be 4a 53 4d 3e
       -0.038138542 -0.20348445 -0.1925703 0.20051304
0000c0 70 81 24 bd b9 36 93 3d a6 33 5f 3d 02 71 02 3d
       -0.040162504 0.07188172 0.054492615 0.031846054
0000d0 b2 6d ea bc 3e f8 29 3e bb 33 26 be 7a de 0f 3e
       -0.02861676 0.16598603 -0.16230671 0.14049712
0000e0 36 30 6f be 23 45 4c be f3 3b 48 3e 9a f9 d4 bd
       -0.23358235 -0.19948249 0.19554119 -0.1039917
0000f0 9b df 07 3e 90 3c 5a be be 55 b9 bd 0e 35 85 3e
       0.13268892 -0.21312165 -0.09049557 0.2601704
000100 2f c8 2e 3e bb a7 78 3e ff b9 a1 3d a6 ad 55 be
       0.17068551 0.24282734 0.07896804 -0.20867023
000110 22 aa 23 3e 73 74 98 3d d9 ce 3f bd ea 15 14 3e
       0.1598287 0.07444086 -0.046828125 0.14461485
000120 9b 79 11 3e 46 bc 18 be c8 34 57 be 95 50 e9 3d
       0.14206545 -0.1491557 -0.21016228 0.11392323
000130 a9 1b 4a be f5 c8 0b 3e 1f 46 a5 bd 45 f8 04 3d
       -0.19737114 0.13650878 -0.08070015 0.03246333
000140 fc c6 a7 3d 51 f1 13 3e 70 5d 2d be 40 0c fa bc
       0.0819225 0.14447524 -0.16930175 -0.03052342
000150 ef 33 16 be d6 ba 53 3d 46 cf 86 be bb 78 8b 3e
       -0.14668249 0.051691853 -0.26330012 0.27240548
000160 e1 53 ff bd 10 78 72 3e 85 1c 86 be cb 27 12 3e
       -0.124671705 0.23678613 -0.26193634 0.14272992
000170 22 12 da bd d1 23 2f bc 86 95 5e be e8 72 61 bd
       -0.1064799 -0.010689692 -0.21736726 -0.055041224
000180 8a 82 5e 3d 5e 85 43 be 5d 21 29 be d3 1d 01 be
       0.05432371 -0.19093844 -0.16516633 -0.12609033
000190 9f 28 72 3d 9d 10 8f 3d 4e d9 b2 bd 48 ff 14 be
       0.05912077 0.069855906 -0.08732854 -0.14550507
0001a0 05 e1 29 3e 84 70 25 bd ec 01 18 3e 2f bb a0 3d
       0.16589744 -0.040390506 0.14844483 0.078482024
0001b0 60 5b 81 bd 15 98 0c 3e 5c e4 40 be 9c 3b c9 3d
       -0.063162565 0.1372989 -0.18837112 0.09825823
0001c0 74 ec 01 3d d5 1b 1e 3d 65 01 ee 3d 58 1b a4 ba
       0.03171964 0.03860076 0.1162136 -0.0012520356
0001d0 19 9b f6 3d ff 61 92 3e 25 b8 d7 bd 9d 16 0b bc
       0.12041301 0.2859039 -0.1053317 -0.008489278
0001e0 bd 1c 1f be 50 36 ee bc f0 bf 8f 3d ed e5 22 3e
       -0.15538307 -0.029078633 0.07019031 0.15908022
0001f0 1a b2 4a be 41 02 61 be 49 2e c9 bc b8 a4 3c 3e
       -0.19794503 -0.21973516 -0.024558203 0.1842221
000200 cd 6a d8 bd b1 69 f5 bc 77 83 a9 bd 5a 32 90 be
       -0.10567246 -0.029957624 -0.08277028 -0.28163415
000210 cc 69 ab 3d 31 f9 72 3e 62 a2 48 bb 77 bc e7 3c
       0.083697885 0.23727871 -0.0030614366 0.02828811
000220 0b 7f 31 3d 1c 91 89 bc 5a c1 6a be c8 e9 2f be
       0.04333405 -0.016792826 -0.2292532 -0.17179024
000230 8c 8d 78 3d ce 79 76 bd 2d d2 56 be 81 cb 0a be
       0.060681865 -0.060174756 -0.20978613 -0.13554193
000240 8d 92 ad bd ed 61 33 3d e3 17 55 be 1d 76 c9 bd
       -0.08475218 0.04379456 -0.20809893 -0.098369814
000250 ae 83 41 3d 5e 1d 0d 3e 8a a4 0e 3e 0a 79 86 bd
       0.04724472 0.13780734 0.13929954 -0.06566055
000260 03 38 3e be b4 69 dc 3d 20 2d 81 bd 35 91 1a be
       -0.18576054 0.10762349 -0.06307435 -0.15094455
000270 3b fc 52 3e cf 86 9f bd 3a 7c db bd 95 45 83 3e
       0.20604031 -0.077893846 -0.10717054 0.25639024
000280 17 33 15 bd b3 a0 72 3e ba e7 e6 bd 07 a0 5b bd
       -0.036425676 0.23694114 -0.11274667 -0.05361941
000290 cd 04 0f be 3e b9 83 3e e8 e3 ec 3d cd ce ec bd
       -0.13966675 0.25727266 0.11566907 -0.115628816
0002a0 64 62 55 bd a1 4b b4 bd b1 a0 a6 bc f5 fe 2e 3e
       -0.052095786 -0.088034876 -0.020340296 0.17089446
0002b0 44 93 40 be f8 cb 91 be 1e 59 2f 3d cf 3f 8a 3d
       -0.18806177 -0.28475928 0.0428096 0.06750452
0002c0 31 de 89 3d 00 58 e1 3d 51 f0 1e be ca e2 e2 bd
       0.06731833 0.11003113 -0.15521361 -0.11078413
0002d0 ad 24 05 be ce 67 23 3e 97 3c 55 bc e9 aa 85 3e
       -0.13002272 0.15957567 -0.013014934 0.26106957
0002e0 65 d4 17 bd 7c 67 b3 bd 4b 87 a0 3d 41 35 d7 bd
       -0.03706779 -0.087599725 0.07838305 -0.10508204
0002f0 85 6e 2e bd 22 6b 37 be 81 16 73 be 32 08 93 bd
       -0.04258587 -0.17911962 -0.23739053 -0.071792975
000300 e5 57 6c 3e ea 0e 20 3e 43 08 38 3e 20 20 3d bd
       0.23080404 0.1563069 0.17971902 -0.046173215
000310 17 b3 4c 3d 4b 22 5d 3e c6 83 63 be 53 e8 f8 bd
       0.04997548 0.21595113 -0.22218236 -0.12153687
000320 75 40 0d bd f5 c9 39 be ee a7 79 3d 0d 5d a6 bd
       -0.0344853 -0.18143447 0.060951166 -0.08123217
000330 29 2a 22 3e 5c f5 31 3e 1d 84 08 3d 21 9f e3 bd
       0.15836395 0.17378753 0.033329118 -0.11114336
000340 e7 be 0b be 63 56 93 3d 2b fa f2 3b 47 0e 59 be
       -0.13647042 0.07194211 0.0074150763 -0.21196853
000350 b5 eb 8b 3e d2 1a 03 be 19 bf 6c bd 49 74 b9 bc
       0.27328268 -0.128032 -0.057799432 -0.022638457
000360 06 18 2b be 95 e6 92 bc a5 2f 42 3e 83 2b e0 3d
       -0.16708383 -0.017932216 0.18963487 0.10945799
000370 81 e5 44 be 87 1d 9b bc 3d 4d 77 be 19 88 52 bd
       -0.19228174 -0.018934978 -0.24150558 -0.051399324
000380 9e 16 78 3e a0 d9 27 bd 73 36 32 bd a0 4d cc bd
       0.24227378 -0.040979028 -0.043508958 -0.09975743
000390 2e 2a c0 3c 3f 95 2c 3e e6 57 af bd bf 71 10 3e
       0.023457613 0.16853808 -0.08561687 0.1410589
0003a0 d5 f1 f8 3c 3a b3 62 3e be 59 19 be 98 6d 85 be
       0.030388752 0.22138682 -0.1497564 -0.26060176
0003b0 b2 cc 45 be ac 91 90 be e2 3b 78 bc e4 b7 28 3d
       -0.19316366 -0.2823614 -0.015150996 0.041190997
0003c0 a7 f8 34 3e b5 13 72 3e fb 49 3e bd c8 b8 92 3c
       0.17672978 0.2364033 -0.046457272 0.017910376
0003d0 05 14 43 be 3d e0 0c 3e f6 63 14 be 15 1f b2 bd
       -0.19050606 0.13757415 -0.14491257 -0.08697335
0003e0 cd 1a 53 3e f6 92 8c 3e 8e 77 90 bc d5 47 0c 3d
       0.20615692 0.27455872 -0.017635133 0.034248192
0003f0 e1 45 d0 bd 57 dd 3a 3d f5 39 14 3c aa 6e ef 3d
       -0.10169578 0.045621242 0.009047021 0.11691029

FeatureExtractor.LSTM.bias_ih_l0 f4 [64]
000000 61 fd ce 3c f4 07 2c 3e 9d 88 93 3e 1b ee 3b 3d
       0.025267305 0.16799909 0.28815165 0.045881372
000010 80 d9 59 bd f3 42 6e 3e 17 0b 23 3e 2a 9d 10 3d
       -0.05318594 0.23267727 0.15922199 0.035306133
000020 6b 99 f4 3c 14 5a 21 3e c3 5a d2 bd 19 35 1e 3e
       0.029858312 0.15757018 -0.10271218 0.15449943
000030 bc 4d 81 3e d9 fe 3b bc 6d 58 8c bd 70 4f 97 bd
       0.2525462 -0.011474335 -0.068528034 -0.073881984
000040 0e 9c aa bd 03 7d 97 3e 00 43 76 3d 6c 81 89 3e
       -0.08330546 0.29587564 0.06012249 0.26856554
000050 71 07 ad 3d eb 9e fd bd dc 8f 34 be 53 f6 ce 3a
       0.08448685 -0.12383827 -0.17633003 0.0015789963
000060 e9 13 69 bd b2 36 d3 bd 5a 95 0f be 33 32 84 3e
       -0.056903753 -0.10313167 -0.14021817 0.2581955
000070 76 e5 67 bd 0f 37 2d be 10 99 24 3d 35 aa 4a bd
       -0.056615315 -0.16915534 0.040185034 -0.04947873
000080 97 ba 52 3e f2 4f 0e be a8 13 81 be 13 3c 52 be
       0.20578991 -0.13897684 -0.2521031 -0.20530729
000090 c2 fd ab bc 34 9f 7e bc 83 0d dc bc ab 7c 2e bd
       -0.020995025 -0.015540887 -0.026861912 -0.04259936
0000a0 4a e6 4c bd f9 5c 79 bd 29 0c 02 be bf 3b 2f be
       -0.05002431 -0.06087968 -0.12699951 -0.17112635
0000b0 0e a6 57 3e 35 c3 3d be 80 ba 1c be 76 39 22 3d
       0.21059439 -0.18531497 -0.15305519 0.03960558
0000c0 de 24 4c 3e d7 4c 0b 3e 7e d7 9f bd 42 df 2c be
       0.19935939 0.13603531 -0.07804774 -0.16882041
0000d0 ff 32 41 be b2 8a e4 3d 8d 28 c1 3d 6b 98 f2 3d
       -0.1886711 0.111592665 0.094315626 0.11845478
0000e0 c5 2f 89 bc 4f 49 94 3e 24 9c 2d 3e a8 43 83 3d
       -0.016746411 0.2896218 0.16954094 0.06409389
0000f0 7a 72 8d 3e 5c 19 23 be cc 04 32 be 5c ce 26 bd
       0.276264 -0.15927643 -0.17384642 -0.040724143

FeatureExtractor.LSTM.bias_hh_l0 f4 [64]
000000 84 51 b0 3d 3b f7 91 3d 22 34 f6 bc d7 51 0d be
       0.08609298 0.071272336 -0.030054156 -0.1380075
000010 fd aa 5e 3e 51 ef 76 3e 8d f6 ae 3d 87 51 31 3e
       0.21744914 0.2411473 0.085431196 0.17316256
000020 66 f3 39 3d 65 7f 9a bd 5f 33 da bd 33 e9 2e 3e
       0.04539814 -0.0754383 -0.106543295 0.17081146
000030 f9 88 2e be ae e4 a9 bd 86 0f 95 3e 91 59 8c bd
       -0.17044438 -0.0829557 0.29113406 -0.06853021
000040 18 2f b6 3c 69 d9 80 3d ce ed d7 3d 3c 34 2a be
       0.022239253 0.06291468 0.105434045 -0.16621488
000050 56 b1 f6 bd bc e6 89 bc 4c 56 35 3e a5 71 37 be
       -0.12045543 -0.016833656 0.17708701 -0.17914446
000060 0d cf 1a be fc bd 39 be 96 94 ff 3d 04 f1 66 3e
       -0.15118046 -0.1813888 0.124795124 0.22552878
000070 43 58 78 3e ef fa 01 bd df e2 c2 3c cd 1b 95 3e
       0.24252419 -0.03173345 0.023789821 0.29122773
000080 f3 96 f0 3d 5f 7a 20 3d e6 f0 51 be 03 fc 30 be
       0.11747541 0.039179202 -0.20502052 -0.17283635
000090 02 09 23 bc 76 f6 d5 3d 71 9a cc 3d 8b 87 86 3e
       -0.009950878 0.10447399 0.09990395 0.26275286
0000a0 2d e7 c7 3c 53 70 37 bd 83 92 c5 bc cb 73 30 be
       0.024402225 -0.044784855 -0.024117714 -0.17231672
0000b0 7d 38 8a bd 95 5b 57 be 85 89 04 3d 38 2e 96 3e
       -0.067490555 -0.2103103 0.03235771 0.29332137
0000c0 03 1f 71 3d 17 ea 7f 3e 9a cd 91 3e d5 7a b8 bd
       0.058867466 0.24991642 0.28477174 -0.09007803
0000d0 01 20 19 be 2c 83 22 3d c8 ae ff 3b 79 eb 00 3e
       -0.14953615 0.039675876 0.007802818 0.12589826
0000e0 64 db f4 bd e8 f4 e2 3d a6 95 1f 3d 56 f9 79 3d
       -0.11955908 0.110818684 0.038961075 0.0610288
0000f0 f7 f9 8b 3e 7d 34 ca bd 8e 12 c2 3c 47 93 1a 3d
       0.27339146 -0.098732926 0.023690488 0.03773811

GlucoseModel.fc_layer1.weight f4 [16, 17]
000000 b5 77 07 3e c9 59 19 be 70 b7 04 3e 3c 3e 0d be
       0.13229258 -0.14975657 0.12960601 -0.13793272
000010 71 24 26 3e 10 7e b1 bd ef fe 3f 3c bc 54 61 3d
       0.16224839 -0.08666623 0.011718496 0.05501245
000020 01 2f 01 be 58 bc 35 3e 00 58 29 3e 64 05 17 be
       -0.12615587 0.17747629 0.16537476 -0.1474815
000030 5a 01 59 3e 11 3a 5e bd 65 48 d9 3d 82 38 23 3e
       0.21191922 -0.054254595 0.10609511 0.15939525
000040 d1 74 06 3e 26 96 27 3e eb d0 ec 3d 42 f7 f7 3d
       0.131305 0.16365871 0.115632854 0.121077076
000050 0f b4 c1 bd b9 1e 69 3e 34 36 9f 3d 49 87 a3 bd
       -0.094581716 0.22765626 0.0777401 -0.07984788
000060 83 79 57 bd 2d 86 15 3e e2 f4 d9 bd 9d 40 34 be
       -0.052606117 0.14601965 -0.10642411 -0.17602773
000070 8e b5 1f 3e aa 76 04 be a6 f8 4a 3d 2e 4a 0b be
       0.15596601 -0.12935892 0.049553536 -0.13602516
000080 d8 f2 d6 bc ab c1 32 be 4f 75 6f be c4 7e 13 3e
       -0.026238844 -0.17456691 -0.23384593 0.14403826
000090 da a2 00 3d 6c 7a ba 3d 86 65 bd 3d 09 48 d7 3d
       0.031405307 0.09105381 0.0924788 0.105117865
0000a0 0f c2 75 be ff ab f3 bd f0 da 55 be 34 a0 13 3d
       -0.23999809 -0.1189804 -0.208843 0.036041453
0000b0 d5 63 f5 bd 65 6a 9a 3d e0 54 6c be 2f af 7e 3d
       -0.11981932 0.075398244 -0.23079252 0.062178787
0000c0 5f 78 f6 bd 26 76 99 bd 55 05 c8 bd 66 ce 54 be
       -0.12034678 -0.07493238 -0.09766642 -0.2078186
0000d0 4b 99 93 3c cb 45 4a be dd 56 06 be 3a fe 5b 3e
       0.018017432 -0.19753186 -0.13119073 0.21483698
0000e0 94 7c 94 bd ba 52 b5 3d ea 6a 30 3e 85 f9 12 3b
       -0.07250324 0.088536695 0.17228284 0.0022426557
0000f0 83 da 28 3e 5e 76 6e 3e d5 d2 f7 bd 27 c7 e4 bd
       0.16489606 0.23287341 -0.1210076 -0.11170798
000100 1c cc ae 3d fd 17 17 be 00 13 4a bd 0a 42 1f be
       0.085350245 -0.14755245 -0.049334526 -0.15552536
000110 2c 1b 66 bd 98 0b 63 be c5 2d 87 3c 10 c5 55 3e
       -0.056178257 -0.22172391 0.016501317 0.20875955
000120 60 85 bc 3d 61 ec 23 3e 63 fa af bc da de 69 be
       0.09205127 0.1600814 -0.021481698 -0.22838917
000130 67 23 52 be 68 b0 6b 3d 7e 9d cd 3d df 38 61 3e
       -0.20521317 0.05754128 0.10039805 0.21994351
000140 b8 f4 19 be ea 42 44 3e be 71 5a 3d e3 b7 1a bc
       -0.15034759 0.1916615 0.05333113 -0.009443256
000150 a9 8c 54 be 7f 8e eb bd b1 d9 17 3e e9 b9 b5 bc
       -0.20756783 -0.11501788 0.14829136 -0.022183375
000160 f3 0d 17 3e f0 41 b7 3d 92 e1 59 be 39 c1 16 be
       0.14751415 0.089481235 -0.21277454 -0.14722146
000170 b9 aa 6a 3e 6a 92 63 3e e4 1e 69 3e cf f8 3e be
       0.22916688 0.22223821 0.2276569 -0.186496
000180 e2 ba b8 bd 59 1a 47 be 03 4a e2 3d d3 0f e9 bc
       -0.0902002 -0.19443645 0.11049273 -0.028449928
000190 96 35 2e 3e 92 11 43 3e 8a 46 1e 3e 70 db a5 bd
       0.17012629 0.19049671 0.15456596 -0.08098495
0001a0 5b 1c 72 3e f5 fd bd bd 93 61 2a 3d 17 0f 01 be
       0.23643629 -0.09276954 0.04159696 -0.12603413
0001b0 1d 83 2c be b2 12 67 3e 1b ca d0 bd ab 41 57 3c
       -0.16846891 0.22565725 -0.101947986 0.013138215
0001c0 a5 0d e0 bd ff fb b6 3c 97 61 f9 bd 66 7d c1 3d
       -0.109401025 0.022336958 -0.12176817 0.09447746
0001d0 03 f1 03 be 6e f3 47 3e 36 3f 11 3e a1 61 f3 3d
       -0.12884907 0.19526455 0.1418427 0.118838556
0001e0 cb 39 ff 3d 5e a8 21 bd 49 99 1f be b9 67 11 3e
       0.12462195 -0.039467208 -0.15585817 0.14199723
0001f0 6e 82 ca 3d c7 2a 73 3e f9 3a b5 3d 94 4a 16 3e
       0.09888159 0.23746787 0.08849139 0.14676887
000200 5c 0c 63 be a1 cc 39 bd 6e 34 33 3d e3 74 50 3e
       -0.22172683 -0.045361165 0.043751173 0.20357089
000210 3a 2a 40 be bc 90 79 bd 90 43 5e be a4 89 2e 3e
       -0.18766108 -0.060929045 -0.2170546 0.17044693
000220 98 98 a8 bd 51 db 84 3d 4c 80 48 be d7 0f 52 3e
       -0.0823223 0.06487144 -0.19580191 0.20513855
000230 cf 2e e9 3b 24 0a 05 be f3 22 e2 bd a2 a5 cc ba
       0.0071161757 -0.1299215 -0.11041822 -0.0015613327
000240 83 a1 8e bd 50 4b 42 3e e7 5f 27 3e 81 d5 c4 3c
       -0.069644 0.18974042 0.16345178 0.024027588
000250 4e ef 1a bb b6 67 6e 3e c9 5e 6d 3e 60 64 40 3d
       -0.0023641172 0.2328175 0.23180689 0.046970725
000260 20 3f 23 3e 7e c7 2a be ca c0 23 be e0 ff bf bd
       0.15942049 -0.16677663 -0.15991512 -0.09374976
000270 cd 7e 1a 3e 7c e1 3a 3d 28 1f 94 3d cd 39 89 3d
       0.15087433 0.045625195 0.07232505 0.06700478
000280 55 39 49 3e b7 67 51 be 93 54 48 be 62 47 2a bd
       0.19650777 -0.2044972 -0.19563513 -0.041571982
000290 f9 e9 55 3e fa 3f 17 be 6f 48 f3 bd 8c 17 c2 bb
       0.20890035 -0.14770499 -0.1187905 -0.005923217
0002a0 dc fc 2a be 61 df 5b be 65 d7 62 bc d5 19 55 3e
       -0.1669802 -0.21471931 -0.013845299 0.20810635
0002b0 26 be 99 bd ff a6 70 be fe 36 37 3e 1a f7 10 bc
       -0.07506971 -0.23501204 0.17892072 -0.008847976
0002c0 2b df 2d be da f7 d9 3d 22 ff 5c bd 17 9c ae bd
       -0.16979663 0.10642977 -0.05395425 -0.085258655
0002d0 85 5f 35 be 3a 32 fb 3d 9c cd 58 3c f3 c5 ff bd
       -0.17712219 0.12265439 0.013232615 -0.12488928
0002e0 92 b7 9d 3c c8 27 25 3d d0 9f 6d 3c fc 8b 8a 3d
       0.019252572 0.04032114 0.014503434 0.06764981
0002f0 f8 69 55 bd dd 13 65 3e 40 e9 eb 3c 15 59 59 3e
       -0.052103013 0.22370858 0.028797746 0.21225388
000300 8e 72 91 3d 80 2d 1f bc 26 99 fd 3c 96 55 8d 3d
       0.07101928 -0.009715438 0.030956816 0.0690109
000310 13 18 78 bc 18 c7 ae 3c c9 92 27 be b7 23 3e 3d
       -0.0151424585 0.02133517 -0.16364588 0.04642078
000320 df 67 98 bd 1d 3c fa 3d 33 22 f4 bd ce 1d 02 be
       -0.07441687 0.12218497 -0.119205855 -0.12706682
000330 cb 89 11 be 86 e7 28 3e d2 41 c2 bd 46 6b c4 bd
       -0.1421272 0.16494569 -0.094852105 -0.09590773
000340 c1 d0 c1 bd 87 a4 04 3e 6a f8 2f bd e3 96 07 3e
       -0.09463645 0.12953387 -0.042961515 0.13241152
000350 1f 97 16 3e f3 30 c2 3d 59 29 74 be ce a6 6a 3e
       0.14706086 0.094819926 -0.23843898 0.22915193
000360 00 eb 8e 3d 64 b2 da bd e9 98 8f 3d 9f 9d 59 3e
       0.069784164 -0.106785566 0.07011587 0.21251534
000370 31 29 41 3d c3 d3 3b 3e 1f 3a 67 bd c3 f0 35 be
       0.047158424 0.183425 -0.056451913 -0.17767625
000380 25 39 57 3e c3 74 4d bd c4 01 93 b9 60 58 38 3e
       0.21017893 -0.05016018 -0.0002803934 0.18002462
000390 0f 79 1d 3d 77 56 0d be 80 6f 86 bd 7b f2 0a 3e
       0.03844553 -0.13802515 -0.06564236 0.13569061
0003a0 f5 8c 7e bd 3f 05 3d 3e 42 2b 59 bd f9 c0 0a 3e
       -0.062146146 0.18459032 -0.05301977 0.13550176
0003b0 58 87 11 be d2 37 ef 3d 21 d8 69 be ee 31 c0 bc
       -0.14211786 0.11680569 -0.22836353 -0.023461308
0003c0 be 7e 8c bd 2d d8 56 3e fa ca 2d 3e 02 8f 0a 3e
       -0.06860112 0.20980902 0.1697196 0.13531116
0003d0 0c 32 51 be ef 04 d2 bc 3a 3a 66 3e 27 17 22 be
       -0.20429248 -0.025637118 0.22483149 -0.15829144
0003e0 5a f7 38 3d 5e 2e 5d bb b1 f0 be bc fb 03 0b 3c
       0.045157768 -0.003374956 -0.02330813 0.008484836
0003f0 c6 ed d0 bc 33 6b 43 3e 3b b5 23 be af af af bc
       -0.025504004 0.19083862 -0.15987103 -0.021446077

GlucoseModel.fc_layer1.bias f4 [16]
000000 4f 2b e0 bd 87 ec 5e 3e 84 16 2d be 52 70 fa 3d
       -0.109457605 0.21769916 -0.1690312 0.12228455
000010 1a 2a 8f 3d 40 d2 13 be 76 55 65 be 5f cf 0c 3e
       0.06990452 -0.14435673 -0.22395882 0.13750981
000020 cc 4c 10 3e 1b af f6 bd 45 98 2b 3e ce dc bd bd
       0.14091796 -0.120451175 0.16757305 -0.09270631
000030 f4 47 1d be 2e 6d b8 bd db 3f 6f 3d 6d 66 5a be
       -0.15359479 -0.090051994 0.058410507 -0.21328135

GlucoseModel.cgm_mu.weight f4 [1, 16]
000000 19 ef a8 bc 53 c6 e2 3b 4f 19 83 bc b1 59 d1 bc
       -0.020621823 0.0069206147 -0.016003279 -0.025555464
000010 aa 74 39 bb 64 1a 59 bc ed 1f 12 bd b2 72 46 3c
       -0.0028298297 -0.013250921 -0.035674978 0.012112306
000020 9b b3 fa 3c 69 81 04 bd 25 e1 ee 3c 92 31 03 bd
       0.03060322 -0.032349978 0.029160092 -0.032029696
000030 72 ca f4 3c 9c 48 97 bc 17 0a 16 bd 8b 38 c5 bc
       0.02988169 -0.01846724 -0.036630716 -0.024074813

GlucoseModel.cgm_sigma.weight f4 [1, 16]
000000 9f 26 1f bd f7 29 86 3c f9 8b 38 bd bf f8 10 3d
       -0.03885519 0.016377432 -0.045055363 0.035393473
000010 fc b2 d7 3c 43 78 50 3c 36 ba 43 bc 94 7d eb 3b
       0.026330464 0.012723985 -0.011946252 0.007186601
000020 cf 42 80 bc ca 15 0a bd cc 92 21 3d 23 14 7e bb
       -0.015656857 -0.033712186 0.039446637 -0.0038769327
000030 25 62 56 3c a0 c5 8f 3c 74 1f ae 3c 73 b6 21 bb
       0.013084923 0.01755029 0.021255232 -0.0024675399

ActionModule.fc_layer1.weight f4 [32, 16]
000000 23 2e 34 be e6 13 40 3d c1 fe 19 be 71 c1 ad bd
       -0.17595725 0.046893977 -0.15038587 -0.08484162
000010 78 90 5b 3e 80 a8 1c 3e d2 6a 03 3e 5e 9c 03 3d
       0.21441829 0.15298653 0.12833717 0.032131545
000020 e0 d1 d3 3c 36 04 54 be ce de 7d 3e a9 a7 43 be
       0.025856912 -0.20704731 0.24792024 -0.19106926
000030 0c 24 4e 3e 62 1f 83 bd aa c2 09 3e 17 9c 80 bd
       0.20130938 -0.0640247 0.13453165 -0.06279772
000040 c4 96 ab bd a8 de 9f 3d 00 51 89 3c a0 68 70 3e
       -0.08378366 0.0780614 0.016762257 0.23477411
000050 04 fe c5 3d 4a a5 48 be 20 5f bb 3c 28 e0 d2 3d
       0.0966759 -0.19594303 0.022872508 0.10296661
000060 84 8a 1b be 54 c8 56 be dc e0 27 be fa 56 1c be
       -0.15189558 -0.20974857 -0.16394371 -0.15267554
000070 7a 66 4b be f4 f6 19 3e 48 0b 7d bd f0 3e 10 3d
       -0.1986331 0.15035611 -0.061778337 0.035216272
000080 7e 31 0c 3e 37 75 82 bc 32 35 d0 3d 2f c2 a5 b6
       0.13690755 -0.015925033 0.10166396 -4.939989e-06
000090 f6 ea be bd 68 ef 15 3d b1 32 c9 3d 97 21 68 3e
       -0.09322159 0.03660527 0.09824122 0.22669064
0000a0 0f 7e 60 be 9e 8c 01 bd fd 0b 60 bb f4 0e 4a be
       -0.21923088 -0.031628244 -0.0034186833 -0.19732267
0000b0 aa 6b 33 3e 76 7f 6b bd 75 0b 21 be 96 18 3c be
       0.1752154 -0.057494603 -0.15727027 -0.18368754
0000c0 9b 15 1d 3e b0 ba 59 3e e6 e1 19 be 73 f1 0f 3e
       0.15340273 0.21262622 -0.1502758 0.1405695
0000d0 81 fe db bc b7 5c 84 bd 4d a7 24 bd 60 c2 a9 bd
       -0.026854755 -0.064629965 -0.040198613 -0.08289027
0000e0 00 8b 26 be 02 11 bd bd 84 1f c7 3d 79 b2 35 be
       -0.16263962 -0.092317596 0.09722808 -0.17743863
0000f0 86 7f 6b bd b7 6b 4f bd e7 db 1f be a7 db 88 3c
       -0.057494663 -0.050639834 -0.1561123 0.0167063
000100 9c 55 e2 3d b4 98 5d 3e 70 54 c2 3d d4 67 8d bd
       0.11051485 0.21640283 0.094887614 -0.06904569
000110 94 3f 50 be 00 49 51 3c dc 0e 49 3e 14 bc 08 3e
       -0.20336753 0.012773752 0.19634575 0.13352996
000120 8e 19 4f be 00 2c 28 bb 92 e5 28 3e 94 aa 6e 3e
       -0.20224592 -0.0025660992 0.16493824 0.23307258
000130 74 79 7f be 48 ba 76 3e c6 b5 44 be 6e 59 13 be
       -0.24948674 0.24094498 -0.19209966 -0.14389583
000140 82 c0 5d be 1c 9f 33 be bc fa f6 3d 98 d9 39 bd
       -0.21655467 -0.17541164 0.120595425 -0.04537353
000150 c2 83 71 be 1c 0a 85 3d 88 ae 88 bd 40 45 6b be
       -0.23585418 0.06496069 -0.06673914 -0.22975636
000160 ee ae 6d be 60 e5 7c 3e 54 7a 16 3e ce 52 47 3e
       -0.23211262 0.24696875 0.14695102 0.19465181
000170 20 af 12 3e d8 4a 93 bd 00 e9 e0 3b 0c ac 86 bd
       0.14324617 -0.0719201 0.0068637133 -0.06575784
000180 28 d5 fd bd ac 9e 84 3d d2 28 4c be 52 38 34 be
       -0.12394172 0.06475577 -0.19937447 -0.1759961
000190 ce c2 0b 3e c0 bb fd bd 20 a2 70 bc 30 d2 7c be
       0.13648531 -0.12389326 -0.014687091 -0.24689555
0001a0 28 96 ef bd a0 a7 df bd 62 55 75 3e 60 91 f4 3d
       -0.11698562 -0.10920644 0.23958352 0.119417906
0001b0 92 fd 6b be f0 ef 10 3e d4 11 bc 3d 60 18 12 3e
       -0.23045948 0.14154029 0.09183088 0.14267111
0001c0 00 5b 97 3c da ef 32 3e 9c ab ba 3d f8 dc 1e be
       0.01847601 0.17474309 0.09114763 -0.1551398
0001d0 b8 83 f0 bd 88 97 a1 bd 68 ef bc bd d4 3f fc bd
       -0.11743873 -0.078902304 -0.092253506 -0.12316862
0001e0 48 ff 01 3d cc ac 69 be a0 50 e7 3c 60 32 ad bc
       0.031737596 -0.22819823 0.028236687 -0.021142185
0001f0 c2 dd 6a be 60 84 cd bc 54 2e d4 bd 00 a5 92 bd
       -0.22936156 -0.025087535 -0.10360399 -0.071603775
000200 02 32 f5 bc 2d 0c dd bc ca 2e 0f be 35 95 f2 bd
       -0.029931072 -0.026983345 -0.13982692 -0.11844865
000210 dd 76 90 3d 95 f6 10 3e de c5 ab be b7 30 14 3e
       0.07053921 0.14156564 -0.33549398 0.14471708
000220 1c c9 18 3e 6a cc c7 bb 3b b5 60 be b6 db cb bb
       0.14920467 -0.006097366 -0.21944134 -0.00622126
000230 68 43 80 bd 07 6e c1 bc 02 7a 98 bd b9 4f 62 be
       -0.06262857 -0.023612035 -0.07445146 -0.22100724
000240 b7 9b 00 3e 30 64 89 3e 1d 42 33 bd af f1 c5 3d
       0.125594 0.2683425 -0.043764222 0.09665238
000250 3e 51 53 be d0 71 f1 bb 07 be 03 3e 9f 68 c8 3c
       -0.2063646 -0.007368304 0.12865458 0.02446395
000260 d4 96 03 3e f1 75 69 bd 96 6f 0a be 59 08 f0 bd
       0.12850505 -0.056997243 -0.13519129 -0.11720342
000270 70 12 cb 3d f8 07 27 be 77 59 c0 3a 46 2f 41 3d
       0.09915626 -0.16311634 0.00146751 0.047164224
000280 a4 89 29 be b0 e0 c7 3c 02 c6 4f be 30 bf 8b 3d
       -0.16556412 0.024399132 -0.20290378 0.068235755
000290 f8 91 15 be 40 5e 9e bc 6c 22 8c 3d 6c 38 48 3e
       -0.14606464 -0.019332051 0.06842503 0.19552773
0002a0 c4 82 2c be 10 9e 44 3d 30 86 5c bd de 13 50 3e
       -0.16846758 0.048002303 -0.05383891 0.20320079
0002b0 40 fd 12 bc 20 1c 3b 3d 3a 23 0a 3e 74 1e e6 3d
       -0.008971512 0.04568112 0.1349 0.11236277
0002c0 a0 e5 88 3e 97 04 12 be 62 c4 61 be 80 78 24 be
       0.2673769 -0.14259563 -0.2204757 -0.16061592
0002d0 ed 86 7c 3e e0 45 0a be 36 d4 1c be b2 11 24 bd
       0.24660845 -0.13503218 -0.15315327 -0.040055938
0002e0 a0 dc 8c be 5c f8 5c 3e d6 78 fe 3d 53 fd 56 be
       -0.27512074 0.21579117 0.124253914 -0.20995073
0002f0 a3 a1 0b be fc 7a 1c 3e f3 00 33 3e 4b 00 58 bd
       -0.13635878 0.1528129 0.17480831 -0.052734654
000300 92 c8 3e be 34 b3 77 3e 18 c2 0a be c0 7c e3 3d
       -0.18631199 0.24189454 -0.13550603 0.111077785
000310 20 04 c6 bd 2c b1 f8 bd c8 82 f4 3d be b0 50 be
       -0.096687555 -0.12143168 0.11939007 -0.20379922
000320 36 e2 13 3e 80 85 ba bd dc 71 66 be c0 2c b2 bb
       0.14441761 -0.09107494 -0.22504371 -0.0054374635
000330 10 37 e0 bd a0 69 10 3d 20 6b 77 bc c8 d0 6c 3e
       -0.10948002 0.03525698 -0.015101224 0.23126519
000340 47 20 19 3b 2c 68 5f be ce 13 34 3e 88 66 10 bd
       0.0023365186 -0.21817082 0.1758568 -0.03525403
000350 cb 22 09 3e f9 a0 a9 bd 11 d4 67 3e 05 d1 5a 3e
       0.13392179 -0.08282656 0.2263949 0.21368797
000360 b0 b0 3b 3e b2 b1 4d be cc b9 a0 3d 52 71 b8 bc
       0.1832912 -0.20087317 0.07847938 -0.022514973
000370 72 62 03 be 8e 96 28 3e 4e d8 64 3e 70 5f f2 bd
       -0.12830523 0.16463682 0.22348139 -0.118346095
000380 5b 73 bf 3c 56 f8 41 bd 7b 86 27 bd e0 af 8c be
       0.023370435 -0.047355972 -0.040899735 -0.27477932
000390 c3 eb d4 bc 4c 74 bb 3d c3 17 9e be 43 1a 75 3e
       -0.025991326 0.09153041 -0.30877504 0.239358
0003a0 e2 b2 24 3d db a3 00 be e3 8e 61 3e 3c a1 bd bd
       0.04020966 -0.12562506 0.22027163 -0.09259269
0003b0 f1 72 0b be 6b 6c ac 3c 12 77 17 be ad 74 6f be
       -0.13618065 0.021047791 -0.14791515 -0.23384352
0003c0 3e 8e 12 be fe 61 27 be e8 93 2d be 0c 71 d9 3d
       -0.14312074 -0.16345975 -0.16950953 0.10617265
0003d0 00 7e 39 bb c6 82 4f 3e 5a 0d 2b 3e 32 e5 3a 3e
       -0.0028303862 0.2026473 0.16704312 0.18251494
0003e0 60 1f a7 bc 28 7a 38 be c0 15 8e bd f4 f5 0a be
       -0.020400703 -0.18015349 -0.06937742 -0.13570386
0003f0 08 66 5f be c0 00 21 bc f8 86 34 3d 30 c0 a6 bd
       -0.21816266 -0.009826839 0.04407403 -0.081421256

ActionModule.fc_layer1.bias f4 [32]
000000 02 90 0a 3d ca 16 2c be 68 be 74 3e 34 a2 45 bd
       0.033828743 -0.16805568 0.23900759 -0.048250392
000010 ce 84 6b be 28 59 2c bd 28 c9 93 bd f6 5d 52 be
       -0.2299988 -0.042077214 -0.07216102 -0.20543656
000020 02 37 16 be 04 04 67 3e 10 a2 82 bd 78 60 80 3e
       -0.14669421 0.22560126 -0.06378567 0.250736
000030 d8 2c d0 bd db a6 e2 3d 2e 2a 0b 3d 32 1e 5c be
       -0.10164803 0.110669814 0.033975773 -0.21495894
000040 28 b0 c5 bd e3 d1 1c 3e 7c 0a 34 3e 30 f4 b0 3c
       -0.0965274 0.1531444 0.17582124 0.021600813
000050 65 30 71 bd d1 d4 34 bd 44 a1 fa bd 4e 0e d9 3b
       -0.058884043 -0.04414827 -0.1223779 0.0066240197
000060 87 ff 95 3e 55 65 60 3e 62 31 69 3e f4 bf 3f be
       0.29296514 0.21913655 0.22772744 -0.18725568
000070 f0 51 30 be 7b e0 f8 3d c7 0e a6 bd ec a6 6a 3e
       -0.17218757 0.12152191 -0.08108287 0.22915238

ActionModule.fc_layer2.weight f4 [32, 32]
000000 6f 5c 7e 3d c5 8d 88 bb e7 a1 3d 3e 78 f0 19 3e
       0.06209987 -0.004167291 0.18518792 0.15033138
000010 23 50 f6 bd 3f 9c b1 bc a5 32 02 be 26 0b 89 bc
       -0.120270036 -0.02168095 -0.12714632 -0.016728949
000020 dd 4d fe bd b3 4f b6 3d 54 c8 7d bd 70 2c 95 39
       -0.12417195 0.0890192 -0.061958626 0.00028452603
000030 68 00 1b be ba 25 e2 bd 9e cf b7 3a 7b 23 15 3d
       -0.15136874 -0.11042352 0.0014023667 0.03641079
000040 47 7f ec 3c 29 dd a4 3d 48 10 64 3e c4 cd 05 be
       0.028869284 0.080499955 0.22271836 -0.13066775
000050 b6 7b 47 3e 82 5c ec bd 0c 05 89 bc 66 8c 87 bd
       0.19480786 -0.11541082 -0.01672604 -0.06618576
000060 fb b5 61 3e 33 04 65 bd 79 a5 39 3e 86 89 05 be
       0.22042076 -0.055912208 0.18129529 -0.13040742
000070 bb 9b 4c 3d 75 05 0f 3e 03 81 05 be 59 42 f2 3d
       0.049953204 0.13966925 -0.13037495 0.11829061
000080 c8 17 88 bc cb 78 a2 bd 7c fa f8 3d b8 de 25 be
       -0.016612902 -0.07933196 0.12157151 -0.16198242
000090 29 ae 95 3c 6c a2 c4 3d 58 62 8d bd 40 ce 01 be
       0.018271523 0.09601292 -0.06903523 -0.12676334
0000a0 ca 3e 1a be 59 36 9d bd a2 c5 1c 3e 27 89 d4 3d
       -0.15063015 -0.076763816 0.15309766 0.10377722
0000b0 fd 86 f0 3d 49 ff 81 3b 8a 3e de bd a5 44 21 3e
       0.11744497 0.0039672 -0.10851772 0.15748842
0000c0 b5 93 91 3b ab b5 80 bd 83 16 d5 3d 08 9e 1f 3e
       0.004442657 -0.062846504 0.104046844 0.15587628
0000d0 05 6f ff 3d 67 f6 5b be da 63 cf 3d 9c 3d fa bd
       0.12472347 -0.21480714 0.10126467 -0.12218782
0000e0 c8 9e fa 3d 40 22 fa 3d f1 dd f9 3d 60 26 ac 3d
       0.12237316 0.12213564 0.12200535 0.08405757
0000f0 81 10 94 3c 46 5d 9e bd 95 47 00 3e ea eb fd bd
       0.018074276 -0.07732634 0.12527306 -0.12398513
000100 c2 8e e4 bd 9d 05 7c 3d 3f e7 e0 bd 54 a5 1d bd
       -0.111600414 0.06152879 -0.10981607 -0.038487747
000110 58 a3 99 bd 51 19 84 bd ad 09 2d bd 96 b3 e5 3d
       -0.075018585 -0.06450141 -0.042245556 0.11215894
000120 5a 9b 7c be 91 4b af 3d 7f b3 91 bd a8 a6 46 3e
       -0.24668637 0.08559335 -0.07114314 0.19399512
000130 c9 7b 8b bc c9 fe f1 bd 60 29 97 bd a4 81 be bd
       -0.017026799 -0.118161745 -0.073809385 -0.09302071
000140 29 0c 1a 3d f6 47 89 bc cc 8b 12 3e 9b 3c 54 bd
       0.037609253 -0.016757946 0.14311141 -0.05181561
000150 1c 45 3c 3e b0 df cc 3c 74 7b 02 3e 74 74 d6 bd
       0.18385738 0.025009006 0.12742406 -0.104714304
000160 94 08 25 bd 67 65 d1 bd 46 2a 53 3d 69 5c 80 3d
       -0.040291384 -0.10224419 0.051553987 0.06267626
000170 44 6f 62 3d bb 82 0e 3d e5 66 d6 3d 9e 4f 3d 3e
       0.055281892 0.034792643 0.10468844 0.18487403
000180 ee 89 0b 3d df 14 3b bc 60 2c 45 3d 66 19 6a 3d
       0.034067087 -0.01141855 0.048138022 0.057153128
000190 60 48 d3 3d 0e 66 05 be fb ec 13 3e 0a 76 85 bd
       0.10316539 -0.13027212 0.1444587 -0.06516655
0001a0 15 8a 29 bd ec f8 20 3d ed 19 8a 3b 71 11 d5 bd
       -0.04139145 0.03929989 0.0042145164 -0.10403717
0001b0 ce 13 6f 3c 61 c7 2b 3e cf 78 c7 bd 5c f0 d9 3c
       0.014592124 0.16775276 -0.09739839 0.02660387
0001c0 f8 45 f2 bd a8 85 2d 3e 75 04 fe bc d0 e7 99 3b
       -0.11829752 0.16945517 -0.031007985 0.0046968237
0001d0 4a 13 e8 3c 66 36 20 be dc 73 6f 3d 76 95 64 bd
       0.02832951 -0.15645751 0.0584601 -0.0558066
0001e0 dc 99 7d bc a7 87 85 3d d4 53 04 3d 0f 72 c7 3c
       -0.015478577 0.06520014 0.032306507 0.02434638
0001f0 a1 91 d5 3c f6 d9 f9 bd 40 a3 fb 3d ff aa 89 3d
       0.026070418 -0.12199776 0.12286997 0.06722068
000200 c8 f4 e5 3c 6f ba 28 3d 50 c2 3d 3e 7a 18 09 3c
       0.028070822 0.041193422 0.18531156 0.008367652
000210 27 d0 57 3d 7e 0b 86 bd da 2e 29 be 03 1f 37 3d
       0.052688744 -0.06545161 -0.16521779 0.04470731
000220 4e 3b 36 3d 77 aa 64 3c d7 96 26 3e 64 34 69 3d
       0.04449015 0.013956658 0.16268478 0.05693473
000230 42 f1 2c be 33 d4 1b 3e d7 f3 13 be b2 86 65 bd
       -0.16888908 0.15217666 -0.14448486 -0.05603666
000240 ff 55 cf 3d 30 a6 1e 3c 45 99 23 3e fc 74 fe bd
       0.10123824 0.009683177 0.15976436 -0.12424657
000250 49 61 0e 3d c6 7c eb 3d 5a 02 33 bc c6 0d 11 3b
       0.034760747 0.11498408 -0.010925854 0.0022133454
000260 27 a9 40 3e d1 c8 b4 3c 11 e1 3f ba da 8e a5 bd
       0.18814526 0.022068413 -0.0007319609 -0.080838874
000270 9d 1c ad bd 25 11 30 3d 20 b0 1a bd 1a fb 69 3e
       -0.08452723 0.0429851 -0.037765622 0.22849694
000280 7c 00 a2 bd 7a e3 01 3d 82 dc d3 bd 8a 6c e9 bd
       -0.07910249 0.03171108 -0.10344793 -0.11397655
000290 ad 30 a9 bc 32 7a 83 bc 18 04 0d be 9d 19 1d be
       -0.020653093 -0.016049478 -0.13771093 -0.15341802
0002a0 eb b8 5b be c4 c4 56 3e 2e 94 31 3d 5d 1d 29 3d
       -0.2145726 0.20973498 0.043354206 0.04128777
0002b0 a3 17 d4 3d 82 b2 09 be d8 b3 78 bd 31 d8 1f be
       0.10356071 -0.13447002 -0.060718387 -0.15609814
0002c0 35 40 06 be 92 65 a8 bd 91 24 0b 3e 07 08 14 3e
       -0.1311043 -0.08222498 0.13588168 0.14456187
0002d0 e0 98 e3 bd 5d c7 cb bd a7 e8 ae bb f6 34 71 3d
       -0.11113143 -0.09950135 -0.005337793 0.058888398
0002e0 22 9c f8 3d 04 64 e0 bd 3e ad a6 3b cd de 92 3d
       0.12139155 -0.109565765 0.00508657 0.07171402
0002f0 53 bb 2d be 54 0b c2 3d d6 f0 92 3d cb c7 36 3d
       -0.1696599 0.09474817 0.07174842 0.04462413
000300 b6 fe db 3c 88 83 33 3e 96 75 29 be 7d ce 93 bd
       0.026854854 0.17530644 -0.16548762 -0.07217119
000310 a6 04 09 bd a1 a1 91 3d c2 75 78 3c f6 02 5b bd
       -0.0334517 0.071109064 0.015164794 -0.05346962
000320 91 27 e7 3d fe b3 c6 bd 79 71 02 bd cb 47 28 3d
       0.112868436 -0.097022995 -0.031846497 0.041084092
000330 c3 34 c7 bd 2f 8f 1d bd 6c a3 13 be bf 20 9e bd
       -0.097268604 -0.03846663 -0.14417809 -0.077210896
000340 d7 d3 b4 3d aa cf c2 bd 0b 90 c1 bd 40 0e 3e 3d
       0.08829468 -0.09512265 -0.09451302 0.04640031
000350 77 22 c3 bd db df d2 3d 8f bd ec bd a1 a6 cf bd
       -0.09528058 0.10296603 -0.11559593 -0.10139204
000360 4a 53 62 bd 09 6d 6a bc 0f 06 c1 bd 5a 41 7f 3d
       -0.055255212 -0.014308223 -0.09424984 0.062318183
000370 8f 46 18 be 64 f2 d1 3d 57 1a 33 be 58 75 6a bc
       -0.14870666 0.102513105 -0.17490517 -0.0143102035
000380 a9 70 db bc c6 6a b5 3d 48 e6 fa 3d 12 61 97 bd
       -0.026787119 0.08858256 0.12250954 -0.073915616
000390 38 97 9a bc d4 79 e6 bc c6 bb 5c bd 67 69 bb 3d
       -0.018870935 -0.028134264 -0.053890012 0.09150963
0003a0 8c b8 2e be d8 b9 d2 3d f5 af 16 be 59 83 01 3e
       -0.17062587 0.10289353 -0.1471556 0.12647761
0003b0 d3 49 2a 3e b5 cc e1 bd f7 5e 73 3d 77 05 3c 3d
       0.16629724 -0.11025373 0.059416737 0.04590365
0003c0 df 48 f3 3d 7b 6c 0c be 49 a0 29 3e 14 44 a9 3d
       0.118791334 -0.13713257 0.1656505 0.08264938
0003d0 60 6a d1 3d 53 93 00 be 65 4b 08 be 0c a1 88 bd
       0.102253675 -0.125562 -0.1331001 -0.06671342
0003e0 f4 5b eb bd 05 8f e0 bd ab 73 f7 bd a7 ca 70 bc
       -0.11492148 -0.10964779 -0.12082609 -0.014696754
0003f0 70 cd b9 3d 46 d7 ea 3d d3 c1 9c 3d 3d f4 36 3e
       0.09072387 0.114668414 0.076541565 0.17866607

ActionModule.fc_layer2.bias f4 [32]
000000 15 1f a7 3d 03 56 24 be d0 83 01 3e 8e 3e 15 be
       0.08160225 -0.16048436 0.12647939 -0.14574644
000010 2c cd dd 3b 67 6b f9 3d 52 65 23 3d 9d 97 55 3c
       0.006768843 0.121786885 0.03989155 0.013036636
000020 a4 43 e7 bd bd a4 ba bd 6b 2f 40 3e 55 b5 52 3e
       -0.11292198 -0.091134526 0.18768089 0.20576985
000030 f4 5a 22 be dc 36 78 3c aa 99 91 3d b8 1c fc bd
       -0.15855008 0.015149798 0.07109387 -0.12310165
000040 da ca 32 be 35 35 2a be 13 e3 7e 3d 0a 6d 11 be
       -0.17460194 -0.1662186 0.062228274 -0.14201751
000050 7a 6c 45 bd b6 e5 a7 bd cd 5c a1 bd 6d e5 c3 bb
       -0.048199154 -0.08198111 -0.078790285 -0.0059782774
000060 28 f2 8a bd cd 50 8c 3c 29 52 2a be 0a 0c 22 be
       -0.06784469 0.017128373 -0.16632904 -0.15824905
000070 18 c5 ea bd c3 a8 32 3e 23 32 af bd ea 64 e6 3d
       -0.11463374 0.1744719 -0.08554485 0.112497166

ActionModule.fc_layer3.weight f4 [32, 32]
000000 43 e3 6a 3d 67 1d 10 be 34 bc 3e 3d 52 e7 6a bd
       0.05734564 -0.14073716 0.046566203 -0.05734951
000010 b5 c9 b8 3d 94 f6 e3 3d 19 17 0a 3c 19 4c 28 3e
       0.090228476 0.111310154 0.0084283585 0.16435279
000020 27 61 bf 3d 1b 19 b2 bd fa ab b4 3d d6 c4 48 3e
       0.09344702 -0.08696195 0.088218644 0.19606337
000030 ce b2 60 bd 27 05 d6 bd 3c d0 53 3e 8c 28 c4 3d
       -0.05485802 -0.104502015 0.20684904 0.09578046
000040 6f 0b f0 3d 3e 9b 34 bd 70 f3 e7 3d b3 dc 20 be
       0.11720931 -0.044093363 0.11325729 -0.1570919
000050 b9 71 a2 bd 43 53 21 be 5e 7b c2 bd 7b ed 7c 3d
       -0.07931847 -0.15754418 -0.09496187 0.061749917
000060 d1 b1 2c 3e 3f d6 6d 3e 0a 25 c3 bd 4d e1 23 be
       0.16864707 0.2322626 -0.09528549 -0.16003914
000070 30 78 ce 3c f4 d1 53 3c 57 f7 fd 3d cf b9 3e 3e
       0.025203794 0.012928475 0.12400692 0.18625568
000080 27 1c 9f bd 74 e6 b3 bd 11 a8 38 3e 3a 84 53 3d
       -0.077690415 -0.0878419 0.18032862 0.051639773
000090 0e 85 06 3e f6 70 69 3e c8 8e e1 bd 30 db 1d 3d
       0.13136694 0.22796997 -0.110135615 0.03853911
0000a0 d5 1d 2b be 61 53 01 3e e7 aa 17 bc 05 c5 b1 bd
       -0.16710599 0.12629463 -0.009257055 -0.086801566
0000b0 29 d9 4c bb ce 08 cf bd 9b 92 e4 3d 48 51 ea bc
       -0.0031257367 -0.10109101 0.11160775 -0.028603211
0000c0 95 b1 c0 bc 7a e9 3e 3d 50 73 a4 3d db ac 26 3e
       -0.023522178 0.04660938 0.080298066 0.16276877
0000d0 50 ed 22 be 46 7c a1 3d 73 7e 2c be 41 df be bd
       -0.1591084 0.078850314 -0.16845112 -0.09319926
0000e0 32 f3 de 3d b3 ad 13 3e a1 f2 30 3e c2 0d 91 bc
       0.108862296 0.1442173 0.17280056 -0.017706756
0000f0 a9 59 d4 3d f8 94 57 bd 6f 9a af 3d c0 05 40 3d
       0.10368664 -0.052632302 0.08574378 0.046880484
000100 14 a8 96 3d 8a 89 3a 3e c6 58 e3 bd 74 2c 60 bd
       0.07356277 0.1821653 -0.111009166 -0.054729894
000110 ab 6b 88 3d 70 5c b0 bd b6 4c aa 3d 92 cd 0f be
       0.06661161 -0.08611381 0.08315413 -0.14043263
000120 c8 04 d5 3b a8 22 01 bc fd 46 29 3e d0 b6 ab 3d
       0.006500814 -0.007881798 0.16530986 0.08384478
000130 d7 07 8c bc ff 0b 21 be dc dc 2e 3e ef 7f e5 bd
       -0.017093582 -0.15727232 0.17076439 -0.11206042
000140 00 21 2d 3e a7 c1 18 be 50 ca d4 3d 45 94 d9 bd
       0.1690712 -0.14917623 0.103901505 -0.10623983
000150 32 e2 b1 3d 62 b8 3e 3c 86 16 de 3d d8 91 8c bd
       0.086857215 0.01164064 0.1084414 -0.06863755
000160 70 63 cc bd 47 32 af bc 0b 30 23 bc 89 3b 1c 3e
       -0.09979904 -0.021386279 -0.009960185 0.15257086
000170 54 31 83 bd 14 12 4e 3e 7e 41 17 be d8 53 df 3d
       -0.06405893 0.20124084 -0.14771077 0.10904664
000180 69 c2 90 bd f0 b6 56 bd 5c 59 5b 3e e5 05 11 be
       -0.07068331 -0.052420557 0.21420807 -0.14162405
000190 66 dd 15 3d 3a 1c b7 bd a7 cb be 3d 31 46 0f 3e
       0.036588095 -0.08940931 0.09316187 0.1399162
0001a0 43 75 8c 3d 9c af eb 3c 0b 3f 82 bd ce ef 24 3e
       0.068583034 0.02877026 -0.06359681 0.16107103
0001b0 b7 aa 06 be a7 b0 ae 3d c0 98 48 3e a5 d2 9b 3d
       -0.1315106 0.085297875 0.1958952 0.07608537
0001c0 06 c8 d2 3a 59 44 39 3d 16 da 85 3c 49 1e 8f bd
       0.001608134 0.045231197 0.016339343 -0.06988198
0001d0 60 95 b9 3d 72 7b 4e 3d 40 a4 6f bd b4 f1 86 ba
       0.09061694 0.050410695 -0.05850625 -0.0010295422
0001e0 45 32 68 3d 1d 1e 5a 3e 29 b1 6e bc 15 e8 2b 3e
       0.056688566 0.2130055 -0.014568605 0.16787751
0001f0 c8 d4 09 3e a2 d0 56 3e 64 b4 e7 bd 28 9e 2d 3e
       0.13460076 0.20978025 -0.11313704 0.16954863
000200 f7 df 05 3d d0 e9 18 bd 47 fb b5 bd 67 07 c6 3c
       0.032684293 -0.037332356 -0.08885818 0.024173452
000210 78 66 17 3e a2 af 2a 3e 95 02 be bb 31 2a da 3d
       0.14785182 0.16668561 -0.0057986476 0.106525786
000220 a0 d3 12 3e 92 69 28 3e 7e 88 94 bc e8 7f 39 3c
       0.14338541 0.16446522 -0.01813149 0.011321999
000230 2e 36 ad 3c bb d9 48 be be 87 f4 bd d9 4c b4 3d
       0.021143999 -0.19614308 -0.11939953 0.0880372
000240 21 22 bb 3b 7e 83 5e 3d d7 19 21 3e b9 bc 17 be
       0.0057108556 0.05432462 0.15732513 -0.14818086
000250 9a 24 d5 bd d9 7f f6 bd 32 0d ed 3d 55 a3 18 be
       -0.10407372 -0.12036104 0.115747824 -0.14906056
000260 c2 ed 75 3d 74 ca 64 3e 55 e9 a9 bd bf f0 53 3c
       0.060041197 0.22342855 -0.08296458 0.012935816
000270 11 a8 05 be c7 f7 f8 3c f5 55 8b 3d a0 db bf 3d
       -0.13052393 0.030391587 0.068035044 0.09368062
000280 fb 50 1f 3e 64 64 c1 bd 05 0e 6e 3d cb de 22 bd
       0.15558235 -0.09442976 0.05811884 -0.039763253
000290 51 12 2b be 7e 09 a6 3d 3d 6d 76 3d 3a 8a 05 be
       -0.16706206 0.08107279 0.06016277 -0.1304101
0002a0 52 98 92 3c 8a 98 c7 bd 3c f3 33 bd 27 29 77 3c
       0.017894898 -0.097458914 -0.04393314 0.015085495
0002b0 9e c4 d7 bc 00 d7 10 bd b9 3e 0d 3e 50 aa 85 bd
       -0.026338872 -0.03536129 0.13793458 -0.06526625
0002c0 48 24 06 be 6a 02 ef 3d bf 43 2d 3d 1c 23 31 3b
       -0.13099778 0.11670382 0.042300936 0.0027028983
0002d0 81 60 01 bd 04 e2 81 3d a1 43 d2 bd e4 c9 97 bd
       -0.031586174 0.06341937 -0.102668054 -0.074115545
0002e0 b4 ff fb bd ea 67 28 be de fb 73 3d 63 9e cf 3d
       -0.12304631 -0.1644589 0.05956637 0.10137632
0002f0 02 6c db bd f5 40 d4 bd f6 96 1b 3e 46 e5 4f bc
       -0.1071396 -0.10363952 0.15194306 -0.01268894
000300 5b fd 54 bd 37 c3 1d be 42 2c 46 bc 1b e4 2f be
       -0.05199943 -0.154065 -0.012095513 -0.17176859
000310 bc 6c 36 3d ff 95 23 be 8d 01 33 be f4 9e 7b 3b
       0.04453729 -0.15975188 -0.1748106 0.0038394304
000320 ea a2 43 3d f4 29 18 3e 4b d2 0c 3d ed d0 ad 3d
       0.04776279 0.14859754 0.03438024 0.08487115
000330 f7 2b 00 3d 3a 9c a0 3d ca 54 da bd 1c bb 27 be
       0.03129193 0.07842298 -0.106607035 -0.1637997
000340 5a 9d 07 3e 5f 2c 28 be 3a 4d 70 3d 03 21 0f 3d
       0.13243619 -0.16423176 0.0586674 0.03494359
000350 9b 1c 0f be 94 e3 b5 bd 3d 86 70 3d 0c a5 2e 3e
       -0.13975756 -0.08881298 0.05872177 0.17055148
000360 41 7e 80 3c 51 3f 3c 3d 2e c4 56 bd 22 4b eb bd
       0.015685203 0.04595882 -0.052433185 -0.1148894
000370 ef 4a eb 3c 26 81 95 bd 34 da 8c bd e7 bb 48 bd
       0.028722255 -0.07300024 -0.068775564 -0.049007323
000380 cc d6 04 bd d3 bf f6 bd ad 32 29 be 54 16 c8 bc
       -0.03243141 -0.12048306 -0.16523238 -0.02442471
000390 38 64 7b bd 4f 5f d8 3d bf b7 03 3e f4 3d e9 bc
       -0.061374873 0.10565054 0.12863062 -0.028471924
0003a0 2e 29 69 3c 3c 17 0d bd be 0c 88 3d 40 f8 09 3c
       0.014231009 -0.034445986 0.066430554 0.008421004
0003b0 59 da 49 3d c9 3c 06 be 3d f0 0f 3e 8b c3 ba 3d
       0.0492805 -0.13109125 0.14056487 0.09119328
0003c0 b3 99 13 3e 6f a0 ff bd 38 07 1d bd f6 86 c1 3d
       0.144141 -0.12481772 -0.038336962 0.0944957
0003d0 7c 0d bc 3d 7a 1b 0d bd c2 5a cd 3d b6 8e 66 bd
       0.091822594 -0.03445003 0.10027076 -0.056288444
0003e0 66 9c e8 bd 71 fa 18 be 18 78 0f be ae 8b 0c be
       -0.11357956 -0.14939286 -0.14010656 -0.13725159
0003f0 67 af 14 3d e1 f5 41 3d a8 2d 0e 3d 9d aa ce 3b
       0.03630009 0.04735363 0.03471151 0.00630696

ActionModule.fc_layer3.bias f4 [32]
000000 b7 c3 b3 3d 1e 1b 1e 3e 92 b4 35 3e e6 d2 a1 3d
       0.08777564 0.15440032 0.17744663 0.07901554
000010 39 c1 98 3d 6c c8 fc bd 26 ec 19 be 79 5a 01 be
       0.07458729 -0.12342915 -0.1503149 -0.12632169
000020 9c 3d 31 be 91 90 0e 3d 6f 88 44 3e 0d 4a d4 3d
       -0.17308658 0.034805838 0.1919267 0.103656866
000030 a6 ba 13 3e 6f 2f 2e bb 00 87 40 3e f6 19 ba 3d
       0.1442667 -0.0026578566 0.18801498 0.09086983
000040 d4 96 e9 bd b3 3b 53 bd b7 e9 b4 bd b9 87 84 bd
       -0.11405721 -0.051570605 -0.0883364 -0.064711995
000050 63 ab fe bd 2e b5 27 3e d2 35 d0 bd 7b 6d 8d bd
       -0.12435033 0.16377708 -0.101665154 -0.06905647
000060 1f bc 89 bd 91 19 11 3e 82 82 6e bd 4d d3 ba 3d
       -0.067253344 0.14169909 -0.05822993 0.09122334
000070 0d 66 51 3e 25 b2 f4 3d 38 e5 57 3e 0e 51 2a 3e
       0.20449086 0.11948041 0.21083534 0.16632482

ActionModule.mu.weight f4 [1, 32]
000000 12 76 f5 bc 91 9b 12 bd 51 2f 93 bc 00 6d 1f bd
       -0.029963527 -0.03579289 -0.017966898 -0.03892231
000010 7c 18 0d 3c cb 35 e5 bc a8 61 fd bb f8 c5 ca bc
       0.008611795 -0.027979752 -0.007732589 -0.024752602
000020 8f bf cb 3c 56 2f e9 3c cc 34 0f bd 5a da 28 bd
       0.024871616 0.028464954 -0.03496246 -0.04122386
000030 5e 89 d1 bc 8b 81 41 bd 7d aa a1 3b 3c e0 03 3c
       -0.025578197 -0.047242682 0.004933654 0.008049067
000040 e0 60 a3 bc 56 4a 41 bb ef fd 76 3c 09 a6 9c bc
       -0.019943655 -0.002949377 0.015075191 -0.01912214
000050 2b 91 c9 38 d6 00 54 bb b6 ea 49 bc 84 70 c5 39
       9.6114665e-05 -0.003234913 -0.012324026 0.000376586
000060 b2 05 0b 3c 7c b6 d6 ba 58 28 b5 bc 52 5c 94 bb
       0.008485245 -0.0016381289 -0.022113964 -0.004527607
000070 e4 6a 99 bc 5c 4e 25 bd 48 12 1a bd 9a a3 e5 bc
       -0.018727727 -0.040357932 -0.03761509 -0.028032113

ActionModule.sigma.weight f4 [1, 32]
000000 1a 59 ef bd 86 e9 dc bd b2 f5 b9 bd 2f a1 c4 bd
       -0.11686917 -0.107867286 -0.09080066 -0.09601056
000010 bf e8 ef bd 1a 90 59 3b 66 33 fc 3b b2 28 14 3b
       -0.11714315 0.0033197463 0.007696557 0.0022607264
000020 b9 82 eb bc 0d 78 90 bd 29 bd 9c bd f3 c2 ea bd
       -0.028748857 -0.07054148 -0.07653267 -0.11462965
000030 72 3f db bd 4a 15 e1 bd c3 04 b0 bd de c4 fe 39
       -0.107054606 -0.10990389 -0.08594658 0.00048593333
000040 22 51 d1 bc 6c 5d bd bd af 70 ef bb 1e cd 0a 39
       -0.025551382 -0.092463344 -0.007307134 0.00013237118
000050 f8 35 78 3c 1f da 3c bc c1 da 7b 3c df c4 cd bc
       0.015149586 -0.0115266135 0.015371979 -0.02511829
000060 4b 48 bc bc ca 6b 0b bd 83 2a bc 3c 97 1e df bd
       -0.02298369 -0.034038343 0.02296949 -0.108945064
000070 b1 f9 e8 bd be 36 96 bd 5a 73 d6 bd 5c 1d 9f bd
       -0.1137575 -0.0733466 -0.1047122 -0.07769272
