models/patient7/ppo_model_for_patient_7_Actor.pth (torch, 23458 bytes, 16 tensors)

FeatureExtractor.LSTM.weight_ih_l0 f4 [64, 2]
0	0x3e380e09	0.17974104
1	0x3e30e08c	0.17273158
2	0x3baa93d9	0.005205613
3	0xbdd68b09	-0.104757376
4	0xbe9715d7	-0.2950885
5	0xbd3ad014	-0.045608595
6	0xbe566e4f	-0.20940517
7	0x3bfb6868	0.0076723583
8	0xbe196700	-0.14980698
9	0xbe45109b	-0.19244616
10	0xbda82f5a	-0.082121566
11	0xbe894d8e	-0.26816982
12	0x3ce00492	0.02734593
13	0x3cd0fabc	0.025510184
14	0x3e3fe538	0.18739784
15	0xbe2efdd3	-0.17089014
16	0xbe5ea52e	-0.21742699
17	0xbe8071ec	-0.25086915
18	0xbe30f15b	-0.1727957
19	0xbe6bc400	-0.23023987
20	0xbc964c13	-0.018346822
21	0x3dd9fde2	0.106441274
22	0xbe74f19d	-0.23920293
23	0xbe853491	-0.26016667
24	0x3e0c597d	0.13706012
25	0xbe33de0a	-0.1756517
26	0x3de5fc4b	0.11229762
27	0xbe01c1ed	-0.12671633
28	0x3ddcd2b1	0.10782374
29	0xbe753ea0	-0.23949671
30	0xbe143c3a	-0.144761
31	0xbd556c45	-0.052105207
32	0x3d6c81a7	0.057740834
33	0xbe818f31	-0.2530456
34	0x3ddb0d1e	0.10695861
35	0xbd9950d0	-0.07486117
36	0xbe5c43e8	-0.21510279
37	0xbe58e2f1	-0.21180321
38	0xbe02c924	-0.12772042
39	0xbe8e9f4d	-0.27855912
40	0xbe1e5a97	-0.15464245
41	0xbc83582b	-0.016033253
42	0x3e11687e	0.14200017
43	0xbd20c67f	-0.0392518
44	0xbe556681	-0.20839883
45	0x3c54675d	0.012964097
46	0x3de2ed50	0.1108042
47	0xbe239b3e	-0.15977189
48	0xbe8df04d	-0.27722397
49	0x3d754a8e	0.059885554
50	0xbe8170a0	-0.2528124
51	0x3e0027f7	0.12515245
52	0xbe09c765	-0.13454969
53	0xbcb3aefc	-0.021934025
54	0x3e71af49	0.23602022
55	0xbe2dd077	-0.16974054
56	0x3d99768c	0.07493314
57	0x3d81d08c	0.06338605
58	0xbe74984b	-0.2388622
59	0x3d9318e9	0.071824856
60	0x3e0e82bc	0.13917059
61	0xbe21471a	-0.1574978
62	0xbe342a9f	-0.17594384
63	0xbc06e206	-0.008232599
64	0xbe8b2d9d	-0.27183238
65	0xbe8302b5	-0.25588003
66	0xbd8d86f8	-0.06910509
67	0x3de6b7f8	0.11265558
68	0xbe915858	-0.28387713
69	0x3da265fc	0.07929608
70	0x3e5d5eb4	0.21618158
71	0xbd6c2b95	-0.05765875
72	0x3e11f287	0.14252673
73	0x3e491d2d	0.19640036
74	0x3d9c5a44	0.07634404
75	0xbde9b6d3	-0.11411824
76	0x3e6d495a	0.23172513
77	0x3ea2ed35	0.318216
78	0xbe537425	-0.20649774
79	0x3e4b3388	0.19843876
80	0x3e73116d	0.23737116
81	0x3e908f26	0.28234214
82	0xbe652f02	-0.22381213
83	0x3d6df183	0.05809165
84	0x3e02def2	0.1278036
85	0xbe0a38ac	-0.13498181
86	0xbe627a61	-0.22116996
87	0xbe822685	-0.25420013
88	0x3e305c34	0.17222673
89	0xbe4ea578	-0.20180309
90	0xbe858453	-0.26077518
91	0xbe80c1ea	-0.25147945
92	0xbe6038e8	-0.21896708
93	0x3d040e8f	0.032240447
94	0xbe25ae37	-0.16179739
95	0x3e42c69d	0.19021077
96	0x3e6f4dad	0.23369475
97	0x3d6df13f	0.0580914
98	0x3be1ff11	0.0068968614
99	0xbde3f58f	-0.11130821
100	0xbe57ca85	-0.21073349
101	0xbdab44d4	-0.08362737
102	0xbd0468e3	-0.03232659
103	0xbd7ff1a4	-0.062486306
104	0xbae17cd0	-0.0017203335
105	0x3db5ef15	0.08883492
106	0x3e097ff8	0.13427722
107	0x3dadb003	0.08480837
108	0x3e30a26a	0.17249456
109	0xbd705202	-0.05867196
110	0x3d9d09a1	0.07667852
111	0x3c755463	0.014973733
112	0x3de943c0	0.113898754
113	0x3cd61788	0.026134267
114	0x3e4e52d1	0.2014878
115	0x3ca602e4	0.02026505
116	0x3e1e4ee9	0.1545979
117	0x3cf75c34	0.030195333
118	0xbe12812c	-0.14307088
119	0x3d2775b6	0.040883742
120	0xbe92522f	-0.28578326
121	0xbe1ef81b	-0.15524332
122	0xbe5b73db	-0.21430914
123	0x3d3a2933	0.045449447
124	0x3e2f5f7e	0.17126271
125	0xbe1a2c43	-0.15055947
126	0x3e628013	0.22119169
127	0xbe816e35	-0.25279394

FeatureExtractor.LSTM.weight_hh_l0 f4 [64, 16]
0	0x3e49b37d	0.19697376
1	0x3bd4cf62	0.0064944485
2	0x3d87157d	0.065958954
3	0x3e3c3c0a	0.18382278
4	0xbe1746c0	-0.14773083
5	0x3db64a91	0.08900941
6	0xbe3a9400	-0.1822052
7	0xbe5f8b6a	-0.21830526
8	0x3d66148e	0.056171946
9	0xbe258cac	-0.16166943
10	0xbe1b6939	-0.15176858
11	0x3dba596b	0.090990864
12	0x3e2f1bcb	0.17100446
13	0xbdaf6e2d	-0.08565936
14	0xbe74b86f	-0.23898481
15	0xbd813951	-0.0630976
16	0x3e04bf12	0.12963513
17	0xbe3fdadc	-0.18735832
18	0xbd033613	-0.03203399
19	0x3dbf64ff	0.09345435
20	0xbe98694b	-0.29767832
21	0xbe851154	-0.25989783
22	0xbe0012af	-0.12507127
23	0x3e0310ef	0.12799428
24	0xbe8b862e	-0.27250808
25	0x3e305592	0.17220142
26	0x3e6bc5a6	0.23024616
27	0xbda106f7	-0.078626566
28	0x3de3ad93	0.11117091
29	0xbc8b4a7c	-0.01700329
30	0xbc995c1b	-0.018720677
31	0x3d468142	0.048463114
32	0x3e038373	0.12843113
33	0x3ccbcf31	0.02487907
34	0xbe5343e5	-0.20631368
35	0xbe43c25c	-0.19117111
36	0xbe8085bd	-0.25102034
37	0xbe06e28a	-0.13172355
38	0x3d7b9e3b	0.061430197
39	0x3e47d79d	0.19515844
40	0xbb2b7cfa	-0.002616702
41	0x3e75b3c5	0.23994358
42	0xbe1809a8	-0.14847434
43	0xbdd53f8b	-0.104125105
44	0xbdb1c1b6	-0.086795256
45	0xbe20d336	-0.1570557
46	0x3d6d0034	0.05786152
47	0xbe2a832a	-0.16651598
48	0x3e06ec6c	0.13176125
49	0x3db98bef	0.09059893
50	0xb99c1b44	-0.00029774953
51	0x3e09eeeb	0.13470046
52	0x3d98da87	0.07463556
53	0xbe1ed086	-0.15509233
54	0xbdbeeaa5	-0.09322099
55	0xbc42e7c3	-0.011896077
56	0x3deb75d5	0.11497084
57	0xbdea2e75	-0.11434642
58	0xbe289b35	-0.16465457
59	0x3bd9fa18	0.006652128
60	0xbde7c52d	-0.11316905
61	0x3e71a657	0.2359861
62	0x3d4f3eb9	0.050596926
63	0xbe1d889d	-0.15384145
64	0xbdcf8859	-0.10133428
65	0xbe60ec50	-0.21965146
66	0x3b55643e	0.003256097
67	0xbd103e62	-0.035215743
68	0x3e0fcde3	0.14043383
69	0xbd2f251e	-0.042760007
70	0xbe367cd6	-0.17821059
71	0x3dad8e5f	0.08474421
72	0xbe8f7d66	-0.2802536
73	0x3e83a0ff	0.25708768
74	0xbdbdac6e	-0.09261404
75	0x3e833c3f	0.25631902
76	0x3e832ca4	0.25619996
77	0x3ccbaf19	0.024863767
78	0xbe41c516	-0.18922839
79	0x3e2643ca	0.16236797
80	0x3e37b64a	0.17940632
81	0xbe0906d6	-0.13381514
82	0x3deae518	0.114694774
83	0x3de2b9bf	0.110705845
84	0xbe90b3e2	-0.2826224
85	0xbe36630b	-0.1781122
86	0x3e263250	0.1623013
87	0x3de87b38	0.11351627
88	0xbc41c7aa	-0.011827389
89	0x3e885f1f	0.26635072
90	0x3ea6a617	0.32548591
91	0xbe1a839b	-0.15089266
92	0xbdedd375	-0.11612598
93	0xbdc1b17c	-0.094576806
94	0x3df91df8	0.12163919
95	0x3db5c6f4	0.08875838
96	0xbd8258dd	-0.063646056
97	0x3ce8e0bd	0.028427476
98	0x3d637ba0	0.05553782
99	0x3e86409e	0.26221174
100	0xbe6185d2	-0.22023705
101	0xbe90106d	-0.28137532
102	0xbe205f75	-0.15661414
103	0x3df870ef	0.121309154
104	0xbd452eb6	-0.04814025
105	0x3e04d4af	0.12971757
106	0xbe0b7d1f	-0.13621949
107	0xbdc500a6	-0.09619264
108	0x3e029292	0.12751225
109	0xbd0ba311	-0.03409106
110	0xbde2bf20	-0.110716105
111	0xbd5df54e	-0.05418902
112	0xbdae12df	-0.08499693
113	0xbe3aeeab	-0.18255107
114	0xbe52681d	-0.20547529
115	0x3e9fe9b6	0.31232995
116	0x3e2d32e1	0.1691394
117	0xbd92d682	-0.0716982
118	0x3e4517de	0.19247386
119	0xbe54193c	-0.20712751
120	0xbe1cfe96	-0.15331492
121	0xbe2d5a3c	-0.16928953
122	0x3ca4de1c	0.020125441
123	0x3e62acad	0.22136183
124	0x3e567447	0.20942794
125	0xbe5a059e	-0.21291205
126	0xbe034871	-0.12820603
127	0xbe747530	-0.23872828
128	0x3d819c8b	0.06328686
129	0x3cd21861	0.02564639
130	0x3e2d6d8f	0.16936325
131	0x3eaeffc2	0.34179503
132	0xbbb16210	-0.0054133013
133	0x3e29f2a3	0.16596465
134	0xbe82a0b4	-0.25513232
135	0x3e4b0bd6	0.19828734
136	0xbc2bd316	-0.0104873385
137	0x3e812303	0.25222024
138	0x3d0f8aa0	0.035044312
139	0x3e2b28be	0.1671476
140	0xbbb799ee	-0.0056030666
141	0xbbc63714	-0.0060490463
142	0x3d11cf8c	0.035598323
143	0xbc819ed1	-0.0158228
144	0x3e4b1111	0.19830729
145	0x3e223bfb	0.15843193
146	0x3e303029	0.17205872
147	0x3dacb339	0.084326215
148	0x3ddab4d8	0.106790245
149	0xbdf97c97	-0.12181967
150	0x3d7b9e72	0.061430402
151	0xbe247d99	-0.16063537
152	0x3e0a5b1b	0.13511316
153	0x3e781870	0.24228072
154	0xbd35d099	-0.044388387
155	0xbe4fef91	-0.20306231
156	0x3d082de8	0.033246905
157	0xbd97540e	-0.07389079
158	0x3d9c2178	0.07623571
159	0xbe4ccba0	-0.19999552
160	0x3de52a4b	0.11189707
161	0x3e2a7cc0	0.16649151
162	0x3da3e6e5	0.08003024
163	0xbdd14f42	-0.10220195
164	0xbde88172	-0.11352815
165	0xbe5b370b	-0.21407716
166	0xbe8c4965	-0.27399746
167	0x3dba4331	0.09094847
168	0xbdf47475	-0.11936275
169	0xbd29569e	-0.04134237
170	0xbd256391	-0.040378157
171	0x3dd306c2	0.10304023
172	0x3deff625	0.1171687
173	0x3e881038	0.26574874
174	0xbd266438	-0.04062292
175	0xbe97fc1b	-0.2968453
176	0x3e32b293	0.17450933
177	0x3e18a898	0.14908063
178	0xbe17635f	-0.14784001
179	0x3e82ea2e	0.2556929
180	0x3c35ea4a	0.011103222
181	0xbd5ba504	-0.053624168
182	0x3dda9956	0.10673778
183	0xbe4fd436	-0.20295796
184	0xbe86545d	-0.2623624
185	0xbe3c35ce	-0.183799
186	0xbd4d739b	-0.050159078
187	0x3e18d9de	0.1492686
188	0x3e80471b	0.2505425
189	0xbdd01d2e	-0.101618156
190	0x3dd88a06	0.10573201
191	0x3c901097	0.017586036
192	0xbd487c22	-0.048946507
193	0xbe02c7e5	-0.12771566
194	0xbd815157	-0.063143425
195	0x3c594e35	0.013263275
196	0xbd85cfc4	-0.06533769
197	0xbe3b7851	-0.18307616
198	0xbe5ba3e7	-0.21449243
199	0xbe1bc95d	-0.15213533
200	0xbea2d6ce	-0.31804508
201	0xbe46d3a6	-0.19416675
202	0x3e6eafa2	0.23309186
203	0x3e504d0c	0.20341891
204	0x3e829671	0.25505403
205	0x3e9215ae	0.28532165
206	0xbe2ae230	-0.16687846
207	0x3dc9a9df	0.098468535
208	0x3e5a7295	0.21332772
209	0xbe7ab06a	-0.24481359
210	0xbd178104	-0.036988273
211	0x3e157aee	0.14597675
212	0xbde844ba	-0.113412336
213	0x3e1173cd	0.1420433
214	0x3e0b64a4	0.1361261
215	0xbe10630b	-0.14100282
216	0xbd02889b	-0.03186856
217	0xbe01223d	-0.12610717
218	0xbe2de8a9	-0.16983284
219	0xbe36750a	-0.17818084
220	0x3e497181	0.19672205
221	0xbdd7b860	-0.105332136
222	0xbd7d8bdc	-0.06190096
223	0xbe54fdca	-0.20799938
224	0x3e832143	0.25611314
225	0xbdfed692	-0.1244327
226	0xbe48b5df	-0.19600628
227	0x3e46f0cb	0.19427793
228	0x3d2c3097	0.042038526
229	0xbd941a96	-0.07231633
230	0x3e2971ff	0.16547392
231	0xbe777cc7	-0.24168693
232	0xbe81e5bf	-0.25370595
233	0x3dad98bd	0.08476398
234	0xbe120d81	-0.14262964
235	0x3e67af91	0.22625567
236	0xbe3d6607	-0.18495952
237	0x3d3a27b0	0.045448005
238	0xbe16cd7c	-0.14726824
239	0x3dd9c7ec	0.10633835
240	0xbe0b11ee	-0.13581058
241	0xbd0b4f24	-0.03401102
242	0xbda2a3e7	-0.07941418
243	0xbd5c4115	-0.053773005
244	0xbe5627b4	-0.20913583
245	0xbe351d23	-0.17686896
246	0xbe81463f	-0.25248906
247	0x3e48cf91	0.1961043
248	0xbe3ed7a9	-0.18636955
249	0xbcf5470b	-0.029941102
250	0xbe43763c	-0.19088072
251	0xbd9adfbf	-0.075622074
252	0xbd5ace47	-0.053419378
253	0xbe4cdf92	-0.2000716
254	0xbe55e0db	-0.20886557
255	0xbd4bba61	-0.04973829

FeatureExtractor.LSTM.bias_ih_l0 f4 [64]
0	0x3e365708	0.17806637
1	0x3e4a63f4	0.19764692
2	0x3dfb58b8	0.12272781
3	0x3e1f8d4b	0.15581243
4	0xbe09aeff	-0.13445662
5	0x3d92cfd4	0.07168546
6	0x3d9b03c8	0.075690806
7	0x3e5324bf	0.20619486
8	0x3de86094	0.11346546
9	0x3e3c912f	0.18414758
10	0x3e1afc7b	0.15135376
11	0x3d76eaf6	0.06028267
12	0x3def2d28	0.11678535
13	0x3de1ba33	0.11021843
14	0xbe3da570	-0.1852014
15	0xbdaa9bca	-0.08330496
16	0xbd0a3d4b	-0.03374986
17	0x3e857ebb	0.2607325
18	0xbe4861a6	-0.195685
19	0x3e7f8fe3	0.24957232
20	0x3e7939af	0.24338411
21	0xbd23913f	-0.03993344
22	0xbd93c68d	-0.07215605
23	0x3dce70fc	0.10080144
24	0xbd475768	-0.04866734
25	0xbe4aaa82	-0.19791606
26	0xbd80f82e	-0.062973365
27	0xbd8434e9	-0.06455404
28	0x3df203b8	0.118171155
29	0x3e55516e	0.20831844
30	0xbe254b12	-0.16141918
31	0xbc81ee8f	-0.015860824
32	0x3d86eeea	0.06588538
33	0xbe7aa7bf	-0.24478053
34	0xbd7441f2	-0.059633203
35	0x3e0f5c37	0.14000021
36	0xbe9ab802	-0.30218512
37	0x3c96a9de	0.018391546
38	0x3de410c9	0.11136014
39	0xbdb9ca7d	-0.09071825
40	0xbe700622	-0.2343984
41	0x3da09919	0.07841701
42	0x3e5c6173	0.21521549
43	0x3e88f9ab	0.26752982
44	0xbcd5e523	-0.026110237
45	0xbe6ccdfb	-0.2312545
46	0xbe244f4d	-0.16045876
47	0xbe5fcbae	-0.21855041
48	0x3e15fb92	0.14646748
49	0x3e4857e6	0.1956478
50	0xbd78945b	-0.060688358
51	0x3df964e8	0.121774495
52	0xbe0f5086	-0.13995561
53	0x3e879f63	0.2648879
54	0xbd1afcf9	-0.03783891
55	0x3e8ae029	0.27124146
56	0x3e2690e0	0.16266203
57	0xbcc93dec	-0.02456566
58	0xbde13437	-0.10996287
59	0x3df60c1a	0.12014027
60	0xbdf0b7df	-0.11753821
61	0xbd47e5f0	-0.04880327
62	0xbe4b7a09	-0.19870771
63	0xbd9e3689	-0.077252455

FeatureExtractor.LSTM.bias_hh_l0 f4 [64]
0	0x3d276530	0.040867984
1	0x3d98a246	0.07452826
2	0x3e868aa8	0.2627766
3	0xbe0436cc	-0.12911528
4	0x3dc8a397	0.09796827
5	0xbda1711b	-0.07882901
6	0xbd780bd5	-0.06055816
7	0x3e47358d	0.19454022
8	0xbd8fa168	-0.07013208
9	0xbd2aee2e	-0.041731052
10	0x3e143f95	0.1447738
11	0x3c925701	0.017863752
12	0x3dcd1a09	0.100147314
13	0xbd6cedb9	-0.057843897
14	0xbdc9aebf	-0.09847783
15	0xbd902e2e	-0.07040058
16	0xbe007b2b	-0.12546985
17	0x3e8bb9b3	0.27290115
18	0x3e386f52	0.18011215
19	0xbcfa758b	-0.030573627
20	0x3d8d56ad	0.06901298
21	0xbe0c9004	-0.13726813
22	0xb9ceab16	-0.0003941885
23	0x3e8cc167	0.27491304
24	0xbe035c92	-0.12828282
25	0x3e51f0ea	0.20502058
26	0x3e83f4bb	0.25772652
27	0xbcde8651	-0.027163656
28	0x3e82cb8f	0.25545928
29	0x3df47046	0.11935477
30	0xbe23d782	-0.16000178
31	0x3e31ab42	0.17350486
32	0x3e3235d2	0.17403343
33	0xbe8294cc	-0.25504148
34	0xbdb6910d	-0.08914385
35	0x3e4d5fab	0.20056026
36	0x3e17437d	0.14771838
37	0xbe8c907f	-0.27453992
38	0xbe306183	-0.17224698
39	0xbe825885	-0.2545816
40	0xbe1d0de3	-0.15337329
41	0xbd2bdc24	-0.04195799
42	0x3d9ab444	0.07553914
43	0x3d99252e	0.074777946
44	0xbdd37b3b	-0.10326239
45	0x3e405ac5	0.18784626
46	0xbe0c7b1c	-0.13718837
47	0x3c7adcf2	0.0153114665
48	0xbe33c6c2	-0.17556289
49	0x3e6e8b64	0.23295361
50	0x3e34abfa	0.17643729
51	0xbdb41433	-0.08792915
52	0x3e955058	0.2916286
53	0x3db262e6	0.0871027
54	0x3de90883	0.113785766
55	0x3d52a1d3	0.05142386
56	0x3e1168f0	0.14200187
57	0x3e38d038	0.18048179
58	0x3e4707bb	0.19436543
59	0x3e33bc87	0.17552386
60	0x3e632099	0.22180404
61	0x3e15d35c	0.14631408
62	0x3df8cdfd	0.12148664
63	0x3df6f403	0.1205826

GlucoseModel.fc_layer1.weight f4 [16, 17]
0	0xbe5159a8	-0.20444357
1	0x3e2ffced	0.17186327
2	0xbe55c1a7	-0.20874654
3	0x3e0e6522	0.13905767
4	0xbe5dc86c	-0.21658486
5	0xbe674c33	-0.22587661
6	0x3d364d38	0.044507235
7	0xbe549a40	-0.20761967
8	0xbe6d0716	-0.23147234
9	0xbd0b356d	-0.033986498
10	0xbde19a06	-0.11015706
11	0x3dbe756c	0.0929974
12	0x3e39ec12	0.1815646
13	0xbddc5406	-0.10758214
14	0xbdaa72a1	-0.08322645
15	0xbe10dd63	-0.14146952
16	0xbe6eb3e5	-0.23310812
17	0xbdab57b4	-0.083663374
18	0x3de53553	0.111918114
19	0xbe39e8ce	-0.18155214
20	0xbd77246b	-0.060337465
21	0xbd322ec4	-0.04350163
22	0x3c8babc1	0.017049672
23	0xbd901bfd	-0.07036588
24	0x3e6e3e25	0.23265894
25	0xbd00a83f	-0.031410452
26	0x3e5f1bad	0.21787901
27	0xbe2ebba0	-0.17063761
28	0xbe30f7ad	-0.17281981
29	0xbd890ca8	-0.06691867
30	0x3da6b1ee	0.08139406
31	0x3e502586	0.20326814
32	0x3dc80d52	0.09768166
33	0xbdb7f7ac	-0.089827865
34	0x3da3a926	0.07991247
35	0xbdcd3ce3	-0.10021379
36	0x3d9e9776	0.07743733
37	0xbe22aed4	-0.15887004
38	0x3e6a9013	0.22906522
39	0xbdda8977	-0.106707506
40	0x3e1b871e	0.15188262
41	0xbe15b8e2	-0.14621308
42	0xbe2f4272	-0.1711519
43	0xbdadba8c	-0.084828466
44	0xbe3a757d	-0.1820888
45	0x3d2d00cb	0.042237084
46	0xbda4965d	-0.08036492
47	0xbe6a6c91	-0.22892977
48	0xbe62ffe2	-0.22167924
49	0xbe1c672f	-0.15273736
50	0x3e12870d	0.1430933
51	0xbe4326b9	-0.1905774
52	0x3dcfd63d	0.101482846
53	0xbdc88b9f	-0.097922556
54	0xbdf359ed	-0.11882386
55	0xbda86ea6	-0.082242295
56	0xbe5c47fb	-0.21511833
57	0x3e70f5d4	0.23531276
58	0xbe4276ba	-0.18990603
59	0x3e21fb74	0.15818578
60	0x3e70e3d6	0.23524413
61	0xbdcf405a	-0.10119696
62	0x3e55b752	0.20870712
63	0xbe3390aa	-0.17535654
64	0x3d44326e	0.047899656
65	0xbdc2c32f	-0.095098846
66	0x3de822c3	0.11334755
67	0x3ca52bb9	0.02016245
68	0xbe63c687	-0.22243701
69	0x3de5dd76	0.11223881
70	0x3dc425b6	0.09577505
71	0x3ce4f430	0.027948469
72	0xbda57acd	-0.08080063
73	0xbdceff5e	-0.10107301
74	0xbe45b35f	-0.19306706
75	0x3c97abc5	0.018514523
76	0xbd8debd2	-0.06929745
77	0xbdf0543d	-0.11734817
78	0xbe655472	-0.22395495
79	0x3db6f506	0.08933453
80	0xbe053a7d	-0.13010593
81	0xbe52b0f7	-0.20575319
82	0x3cfbf9ce	0.030758765
83	0x3e49f4ab	0.1972224
84	0xbcdb13f0	-0.026742905
85	0x3d1be835	0.038063247
86	0xbca21ee1	-0.019790115
87	0xbd3264a4	-0.04355301
88	0x3e42d99e	0.19028327
89	0x3e005ed5	0.12536176
90	0xbe3ddc62	-0.185411
91	0x3e6f912e	0.23395225
92	0xbda89642	-0.082317844
93	0x3db4df24	0.08831623
94	0xbd8fb1be	-0.070163235
95	0x3b9a3319	0.0047057983
96	0x3db7471f	0.08949112
97	0xbdee506d	-0.11636434
98	0x3d75b421	0.059986237
99	0xbd2a073b	-0.0415108
100	0x3e3882f3	0.18018703
101	0x3e74d7b5	0.2391041
102	0xbe32ae76	-0.17449364
103	0x3de57f7b	0.112059556
104	0xbd1d3a7c	-0.038385853
105	0x3d9a80ec	0.07544121
106	0xbe2c19cf	-0.1680672
107	0xbd5eff09	-0.05444244
108	0x3da5b345	0.080908336
109	0x3e36f950	0.17868543
110	0x3c3a061d	0.011353997
111	0x3e57aa8f	0.21061157
112	0xbdd41cae	-0.10357033
113	0xbe046ad5	-0.12931378
114	0xbe514eed	-0.20440264
115	0x3d66b756	0.056327187
116	0x3dfd6190	0.12372124
117	0x3dde4f13	0.10854926
118	0x3e0c53b9	0.13703813
119	0x3e28093b	0.16409771
120	0x3d9e0642	0.07716037
121	0x3e2429ae	0.16031525
122	0x3ddd2207	0.10797506
123	0xbdff656f	-0.12470519
124	0xbe1f6aa5	-0.15568025
125	0x3dbd8c9a	0.09255333
126	0xbe5ee020	-0.21765184
127	0x3e1d582c	0.15365666
128	0x3e2e0bbe	0.16996667
129	0x3df96da4	0.121791154
130	0x3d723043	0.059128057
131	0x3e761d39	0.24034585
132	0x3e7267a4	0.23672348
133	0xbc96cfca	-0.018409628
134	0x3e71d4e6	0.2361637
135	0x3e21c781	0.15798761
136	0xbe034d43	-0.12822442
137	0xbe1987f1	-0.14993264
138	0x3db5b50f	0.08872425
139	0x3c2b6e37	0.010463289
140	0xbc7bcd9a	-0.015368843
141	0xbe4e6087	-0.2015401
142	0x3bd165f3	0.006390327
143	0xbc9b8dae	-0.018988457
144	0x3e2e9d76	0.17052254
145	0x3e4cb190	0.1998961
146	0xbd1a8969	-0.0377287
147	0xbe0f69b0	-0.1400516
148	0x3e27c2f5	0.16382964
149	0x3e1abac8	0.15110314
150	0xbdafa7a3	-0.08576896
151	0xbd502933	-0.05082054
152	0xbe3e0436	-0.18556294
153	0xbe2a6e6c	-0.16643685
154	0x3da8fa1c	0.082508296
155	0xbe076ebd	-0.13225837
156	0xbced4251	-0.028962286
157	0x3da8d097	0.0824291
158	0xbe61fe7c	-0.22069734
159	0x3e50ada7	0.20378743
160	0xbe400e12	-0.18755367
161	0xbdf4cb28	-0.119528115
162	0xbdae7b03	-0.085195564
163	0x3e679ce1	0.22618438
164	0xbc2f4708	-0.0106980875
165	0x3daa0e7e	0.083035454
166	0xbd32583d	-0.04354118
167	0xbdaafb7f	-0.0834875
168	0xbe67aae9	-0.22623791
169	0x3e72b8f9	0.23703374
170	0xbd8f213c	-0.06988761
171	0xbe66d191	-0.2254088
172	0x3e127c94	0.14305335
173	0xbe22c7c0	-0.15896511
174	0xbe079f49	-0.13244356
175	0xbdc89b2d	-0.097952224
176	0x3d0b5433	0.034015846
177	0x3e68f773	0.22750644
178	0xbe76aabc	-0.24088567
179	0xbe1da57f	-0.15395163
180	0xbe23a388	-0.15980351
181	0x3df99696	0.12186925
182	0xbe428dab	-0.18999355
183	0x3bbecc40	0.0058226883
184	0x3ce8aecf	0.028403668
185	0xbdcb36c5	-0.09922556
186	0x3e27147e	0.16316411
187	0xbc71e359	-0.014763677
188	0xbc5e2ef8	-0.013561003
189	0x3ca10c35	0.019659141
190	0xbdb32255	-0.08746783
191	0xbde39b0c	-0.11113557
192	0x3e7073ef	0.23481725
193	0x3d963ca2	0.073357835
194	0xbd86463d	-0.06556366
195	0x3e5dce21	0.21660663
196	0xbe6ee4e5	-0.23329504
197	0x3c8f45ff	0.017489431
198	0xbe50498a	-0.20340553
199	0xbd813731	-0.06309355
200	0x3d57bb64	0.052668944
201	0x3e5cc9ed	0.21561404
202	0xbe71e2ee	-0.23621723
203	0x3da7cbc6	0.081931636
204	0x3e63ce77	0.22246729
205	0xbe3d602a	-0.18493715
206	0x3cf3d0aa	0.029762585
207	0xbbe5e28a	-0.007015531
208	0x3e392064	0.18078762
209	0xbe075862	-0.13217309
210	0xbc81380a	-0.015773792
211	0xbde500e0	-0.111818075
212	0x3dece5de	0.11567281
213	0xbd55667b	-0.052099686
214	0xbe56c1c9	-0.2097236
215	0x3d02af5d	0.03190552
216	0xbdff89cd	-0.12477455
217	0xbe63a01a	-0.22229043
218	0xbe463997	-0.19357906
219	0xbe56cf8b	-0.20977609
220	0x3e0d77fb	0.138153
221	0xbe24b030	-0.16082835
222	0x3e62667d	0.22109409
223	0x3d8ba735	0.068190016
224	0xbd9dd396	-0.077063724
225	0x3daed1b4	0.085360914
226	0x3d55bb85	0.052180786
227	0x3e757b7f	0.23972891
228	0xbe4732e1	-0.19453003
229	0x3d7459e1	0.059656028
230	0xbe391696	-0.18075022
231	0x3c862a51	0.0163776
232	0xbe665ab2	-0.22495535
233	0x3e3078bb	0.17233555
234	0xbd36a4d6	-0.044590794
235	0x3e437f38	0.19091499
236	0x3e68a356	0.22718558
237	0x3d5c49c7	0.053781297
238	0x3e1ae83c	0.15127653
239	0xbc1815a3	-0.009282502
240	0x3e57bc70	0.21067977
241	0x3e5063fc	0.20350641
242	0x3e1c0531	0.15236355
243	0x3da07ce2	0.078363195
244	0x3e12fd5d	0.14354463
245	0x3d83f49b	0.06443139
246	0xbda4e40d	-0.0805131
247	0x3e68d820	0.22738695
248	0x3e2c1592	0.16805103
249	0x3e3a6481	0.18202402
250	0xbd278be9	-0.040904913
251	0xbe76d809	-0.24105848
252	0xbd291b5e	-0.041285865
253	0x3d2f86c9	0.04285315
254	0x3ce25d28	0.027632311
255	0xbe36d5c4	-0.17854983

GlucoseModel.fc_layer1.bias f4 [16]
0	0xbe598e8c	-0.21245784
1	0x3db47b15	0.088125385
2	0xbe636f3f	-0.22210406
3	0x3e4dbb5c	0.20091003
4	0xbe1213cf	-0.14265369
5	0xbe2700bf	-0.16308878
6	0x3dca192b	0.09868082
7	0x3e5320e5	0.20618017
8	0x3d8ee396	0.06977002
9	0xbe6b70a0	-0.22992182
10	0xbca26994	-0.019825734
11	0xbcff77e9	-0.031185107
12	0x3e2ccc73	0.16874866
13	0x3dcdc706	0.10047726
14	0x3d93dd14	0.07219902
15	0xbddd3285	-0.108006515

GlucoseModel.cgm_mu.weight f4 [1, 16]
0	0x3b2beb1b	0.0026232663
1	0x3d17749d	0.036976445
2	0xbcfc413e	-0.030792829
3	0x3be0db29	0.0068620634
4	0x3cec162d	0.028819168
5	0x3ce3ca86	0.027806532
6	0xbb69677d	-0.0035614662
7	0xbd0871c8	-0.033311635
8	0xbb22767b	-0.0024789858
9	0xbb9761d4	-0.0046198163
10	0xbcbc50e4	-0.02298779
11	0xbc8cb72b	-0.017177185
12	0x3cf64251	0.030060919
13	0x3d2748e9	0.040841017
14	0x3c8993c7	0.016794099
15	0x3d0de0d1	0.03463823

GlucoseModel.cgm_sigma.weight f4 [1, 16]
0	0x3d4b03b5	0.049564082
1	0xbba2a03a	-0.004962948
2	0xbca1d620	-0.019755423
3	0x3c97f010	0.018547088
4	0x3cc66ea9	0.024222689
5	0xbc7925ba	-0.015206749
6	0x3c552f52	0.01301177
7	0x3d367012	0.044540472
8	0x3d194243	0.037416708
9	0xbc0b7d0b	-0.008513699
10	0xbb4ae468	-0.0030958895
11	0xb9d1d4f4	-0.0004002225
12	0x3ce37861	0.027767362
13	0xbbbfea47	-0.0058567855
14	0x3d1fc1a0	0.039003015
15	0x3b0bdffc	0.0021343222

ActionModule.fc_layer1.weight f4 [32, 16]
0	0x3e2908ef	0.16507314
1	0x3d2fce8c	0.042921588
2	0x3e5f0193	0.21777944
3	0xbda3ed4d	-0.08004246
4	0xbd868d43	-0.06569912
5	0x3d50b467	0.050953295
6	0xbe85b701	-0.26116183
7	0xbdf7a8eb	-0.120927654
8	0xbe8861f2	-0.26637226
9	0x3e86ff25	0.26366535
10	0x3e547e69	0.20751347
11	0xbd242d13	-0.04008205
12	0x3e9ef28b	0.3104442
13	0xbd978eaa	-0.07400258
14	0x3e0ae452	0.1356366
15	0x3db2cd02	0.087305084
16	0xbd9d6735	-0.07685701
17	0xbdf7edd4	-0.12105909
18	0xbe4749ca	-0.19461742
19	0x3e5c7e89	0.21532644
20	0xbdc5390f	-0.09630024
21	0x3e83f67b	0.25773987
22	0x3e46afff	0.19403075
23	0xbe33e9ef	-0.17569707
24	0xbe3bd616	-0.18343386
25	0xbe524333	-0.20533447
26	0xbd7f0f01	-0.06227017
27	0x3e752a68	0.23941958
28	0xbdf558a9	-0.11979801
29	0xbe63ee8f	-0.22258972
30	0xbc365be0	-0.011130303
31	0x3dcbba44	0.09947637
32	0x3dd65a34	0.10466424
33	0xbe1c33ee	-0.15254185
34	0xbe639a00	-0.22226715
35	0x3e597614	0.2123645
36	0x398dac00	0.00027021766
37	0x3d1f1cf0	0.038845956
38	0x3e2debda	0.16984501
39	0xbc93fad0	-0.018063933
40	0x3e66e174	0.22546941
41	0x3d98bcc8	0.07457882
42	0xbda9dbfc	-0.08293912
43	0xbd68c8a8	-0.056831986
44	0x3d6fb9b8	0.058526725
45	0x3cf77a70	0.03020975
46	0x3e3b111a	0.18268242
47	0xbe2b27fc	-0.16714472
48	0xbe333690	-0.17501283
49	0xbe7913cd	-0.2432396
50	0x3e1c6e09	0.1527635
51	0xbce6fa99	-0.028195666
52	0xbda7c306	-0.08191495
53	0xbe480867	-0.19534455
54	0xbe0a324c	-0.13495749
55	0xbe58ba45	-0.21164806
56	0x3de41f94	0.111388355
57	0x3e7f705f	0.2494521
58	0x3e6f27d2	0.23355034
59	0xbdb50962	-0.0883968
60	0x3e48579b	0.19564669
61	0xbc8aef4d	-0.01695981
62	0x3e460ff2	0.1934202
63	0xbe572e14	-0.21013671
64	0x3dbfb3c7	0.09360462
65	0xbe449c31	-0.19200207
66	0x3e98818f	0.29786345
67	0x3e87fe8e	0.26561397
68	0xbe7b05cd	-0.24513932
69	0xbe8c4021	-0.27392676
70	0xbe96f4b9	-0.29483584
71	0x3d56c99f	0.052438375
72	0xbe6f3675	-0.23360617
73	0x3e12d722	0.14339879
74	0x3df861f2	0.121280566
75	0xbe0577dd	-0.13034005
76	0xbbd6fdb3	-0.006561005
77	0x3e92884b	0.28619608
78	0xbe0c954a	-0.13728824
79	0xbd8bb94e	-0.068224534
80	0xbe7133a0	-0.2355485
81	0xbe3851a9	-0.17999901
82	0x3d543a19	0.05181322
83	0x3e0446a8	0.12917578
84	0x3dcb37f2	0.0992278
85	0x3e174b77	0.14774881
86	0x3def46ca	0.11683424
87	0x3dedd073	0.11612024
88	0xbe6e0dd2	-0.2324746
89	0x3e5b7568	0.21431506
90	0x3e4972d0	0.19672704
91	0xbe26925c	-0.16266769
92	0x3e761f15	0.24035294
93	0x3e5b1f18	0.2139858
94	0x3dc1216e	0.09430204
95	0x3d260a15	0.04053696
96	0x3c3e9add	0.011633602
97	0x3e72f280	0.23725319
98	0x3e5d747f	0.21626471
99	0x3dfaebf1	0.122520335
100	0xbe071bf8	-0.13194263
101	0xbd6f8a74	-0.05848165
102	0xbd09c18a	-0.03363184
103	0x3d6187eb	0.055061262
104	0x3e771ba4	0.24131638
105	0xbe21cd08	-0.1580087
106	0xbc97ad78	-0.018515334
107	0xbe3d1564	-0.18465191
108	0x3dcc2c87	0.099694304
109	0x3dfefd66	0.12450676
110	0xbe4dc331	-0.20093991
111	0x3e11e7c4	0.14248568
112	0x3defd0e6	0.11709766
113	0xbe26f4c0	-0.16304302
114	0xbccc3c56	-0.024931114
115	0x3b7f3af3	0.0038945049
116	0x3e005350	0.12531781
117	0xbe158cb0	-0.1460445
118	0xbe861cc5	-0.26193824
119	0x3e12dcc3	0.14342026
120	0x3e1f1291	0.15534426
121	0x3e04961c	0.12947887
122	0xbd46bde9	-0.048520956
123	0x3cf8c2af	0.03036627
124	0x3d5e4575	0.054265458
125	0x3cfd7cf9	0.03094338
126	0x3961b9fc	0.00021526957
127	0xbdf829f9	-0.12117381
128	0xbde75e23	-0.11297252
129	0x3d996259	0.074894615
130	0x3e94651a	0.28983384
131	0x3e47f777	0.19527994
132	0x3e0800d7	0.1328157
133	0xbe908781	-0.2822838
134	0xbdf65d00	-0.12029457
135	0xbd22ee33	-0.039777946
136	0x3e486471	0.19569565
137	0xbe2908da	-0.16507283
138	0x3e3e512a	0.18585649
139	0xbc96efa9	-0.018424826
140	0xbe3264cd	-0.17421265
141	0x3c3b9097	0.011448047
142	0xbd574d24	-0.0525638
143	0xbd54988e	-0.0519033
144	0xbe1e0b50	-0.15434003
145	0xbe5c5458	-0.2151655
146	0xbe09760d	-0.13423939
147	0x3ca62e22	0.02028567
148	0x3d24da50	0.04024726
149	0x3e2d2c5d	0.16911454
150	0xbd144899	-0.036202047
151	0xbd870c3e	-0.06594132
152	0xbe289ddb	-0.16466467
153	0x3e313ce0	0.17308378
154	0x3e74e410	0.23915124
155	0x3e6b371a	0.22970238
156	0xbddd1c90	-0.107964635
157	0xbe3a88ab	-0.18216197
158	0xbd44c984	-0.048043743
159	0x3d6b03af	0.05737656
160	0xbe559c9c	-0.20860523
161	0x3e7bdab2	0.24595144
162	0xbe4234d0	-0.18965459
163	0x3d98cdd4	0.074611336
164	0x3e611086	0.2197896
165	0x3e694ede	0.22783992
166	0xbe51f598	-0.20503843
167	0x3e4df422	0.2011266
168	0x3e37a5ae	0.17934296
169	0x3ddda944	0.108233005
170	0xbdc9842c	-0.09839663
171	0x3da75764	0.08170965
172	0x3e0e0ebe	0.13872811
173	0x3e2961ba	0.16541186
174	0x3e7862c8	0.24256432
175	0xbe3b646e	-0.1830003
176	0xbe240d96	-0.16020808
177	0x3e21c066	0.1579605
178	0xbe03baa6	-0.1286417
179	0xbe0d77f4	-0.1381529
180	0xbda758d0	-0.081712365
181	0x3d7bd8e8	0.061486155
182	0xbd96605c	-0.07342598
183	0x3e126640	0.14296818
184	0xbe43e048	-0.19128525
185	0xbc926470	-0.017870158
186	0x3e7e4054	0.24829227
187	0x3e0d0022	0.13769582
188	0x3d240158	0.040040344
189	0xbd027868	-0.03185311
190	0x3e75cdaa	0.24004236
191	0x3e06f47e	0.13179204
192	0x3e8bcbe5	0.27303997
193	0xbe7d49b9	-0.24735154
194	0x3d92c1de	0.071658835
195	0x3e0339f7	0.1281508
196	0x3e23633b	0.15955822
197	0xbdb1ce37	-0.086819105
198	0xbd6e9d8e	-0.058255725
199	0xbd2a7a10	-0.041620314
200	0xbe290b67	-0.16508256
201	0x3da196db	0.078901015
202	0x3d925904	0.07145885
203	0x3cc97e4b	0.024596354
204	0x3dc7a65c	0.097485274
205	0x3d870aa7	0.06593829
206	0xbd44d8a8	-0.048058182
207	0xbe869c32	-0.26291043
208	0xbcd9ff59	-0.026611017
209	0x3e46cd3d	0.1941423
210	0x3e4d965d	0.2007689
211	0x3e3c0551	0.18361403
212	0xbe18f3f5	-0.14936812
213	0x3dc9eec5	0.09859995
214	0x3e5c02ed	0.21485491
215	0xbda7aeb0	-0.08187616
216	0x3dba0f2f	0.09084927
217	0xbe0af8c3	-0.13571458
218	0xbd91b306	-0.07114224
219	0xbe111190	-0.14166856
220	0xbd214179	-0.03936908
221	0x3e1b1a7b	0.1514682
222	0xbde00775	-0.10938922
223	0x3da5a113	0.08087363
224	0x3d03f0de	0.03221213
225	0xbe40cd7d	-0.18828388
226	0x3e297165	0.16547163
227	0xbe432bfb	-0.19059746
228	0xbdfd9d46	-0.12383513
229	0x3cb3d6fc	0.021953098
230	0x3df32e84	0.118741065
231	0x3e6ca758	0.23110712
232	0xbb1b63fc	-0.0023710718
233	0x3e59aea4	0.21258026
234	0xbd1062d7	-0.03525051
235	0x3a2f20ad	0.0006680589
236	0xbd8f66fc	-0.070020646
237	0xbe1abb30	-0.15110469
238	0xbd8d3be9	-0.068961926
239	0x3e08ee85	0.13372238
240	0xbe160dea	-0.14653745
241	0xbdd1ef60	-0.10250735
242	0xbdd816fc	-0.10551259
243	0xbc974f50	-0.018470436
244	0x3d15f338	0.036608905
245	0x3e4b2476	0.19838127
246	0x3e5fc8de	0.21853969
247	0x3cb448a0	0.022007287
248	0x3d586e28	0.05283943
249	0x3e144de8	0.14482844
250	0x3c598d40	0.0132783055
251	0x3e5103e0	0.20411634
252	0xbcf01cd0	-0.029310614
253	0x3d7ed2e0	0.062212825
254	0xbc8b6930	-0.01701793
255	0x3e6d84d0	0.23195195

ActionModule.fc_layer1.bias f4 [32]
0	0x3e9a6b75	0.30160108
1	0xbe0c6e91	-0.13714053
2	0xbe5e57ae	-0.21713135
3	0xbe5a1376	-0.21296486
4	0x3d1b90ff	0.037980076
5	0xbe7cdb2e	-0.24692985
6	0x3d1afb8a	0.037837543
7	0x3e255bc2	0.16148284
8	0x3e82e1dc	0.25562942
9	0x3e44f1c6	0.19232854
10	0xbe0e6472	-0.13905504
11	0xbdd35ba0	-0.103202105
12	0xbe451128	-0.19244826
13	0x3dad7486	0.08469491
14	0xbe17c99a	-0.14822999
15	0xbe0ed470	-0.13948226
16	0x3e3ebc56	0.18626532
17	0x3e93453c	0.2876376
18	0xbd5824ab	-0.052769344
19	0xbe105832	-0.14096144
20	0xbe0d586a	-0.13803259
21	0xbe32bb30	-0.17454219
22	0x3e30ebad	0.17277403
23	0x3db8f0d6	0.09030311
24	0xbd63505d	-0.055496562
25	0x3e33e51c	0.17567867
26	0x3d82cb4b	0.06386431
27	0x3e049f06	0.12951288
28	0x3e6f86b1	0.23391224
29	0xbde3f5a0	-0.111308336
30	0x3da8268d	0.08210478
31	0xbdf156fa	-0.117841676

ActionModule.fc_layer2.weight f4 [32, 32]
0	0x3d0b2c1a	0.033977605
1	0xbc62a8d7	-0.0138342
2	0xbde51537	-0.11185687
3	0x3daea4f9	0.0852756
4	0x3e0ebd76	0.13939461
5	0x3ddb064f	0.10694563
6	0x3e2e0748	0.16994965
7	0x3cf1edfd	0.029532427
8	0xbd5cc99d	-0.05390321
9	0xbdbb2a0c	-0.09138879
10	0xbdd62874	-0.104569346
11	0xbdf37220	-0.11887002
12	0xbc29f90b	-0.010374318
13	0xb9ef80fa	-0.00045681727
14	0xbdf4700a	-0.11935432
15	0xbdd81c33	-0.105522536
16	0xbb9aa2dd	-0.004719122
17	0xbd7c8953	-0.0616544
18	0x3d8e481d	0.06947348
19	0x3e31b23f	0.17353152
20	0x3d9982f9	0.07495684
21	0xbe2fe49c	-0.17177051
22	0x3c84af39	0.016196834
23	0xbcb1f5e0	-0.021723688
24	0x3db4d816	0.088302776
25	0xbdfb0a27	-0.12257796
26	0x3dbfde0e	0.093685254
27	0x3e082a3d	0.13297363
28	0x3e3b11e5	0.18268545
29	0xbe1cd034	-0.15313798
30	0xbe215bc6	-0.15757665
31	0x3d97b8f7	0.07408326
32	0x3cf5f228	0.030022696
33	0xbd19427b	-0.037416916
34	0xbe2fa477	-0.17152582
35	0x3dd0dbfa	0.10198207
36	0x3dd81fa3	0.10552909
37	0xbcb1ba7a	-0.021695364
38	0xbdaee852	-0.08540405
39	0xbb87bc77	-0.00414234
40	0xbda1a29b	-0.07892343
41	0xbd6eed4f	-0.058331784
42	0x3e05e60a	0.13076034
43	0x3e1ff189	0.15619482
44	0x3d06270c	0.03275208
45	0x3dc2a362	0.09503819
46	0x3cdd0f86	0.026984941
47	0xbde69954	-0.11259714
48	0x3d70e1cf	0.058809098
49	0xbc6e0fad	-0.014530105
50	0x3d5ec654	0.05438836
51	0x3d32304c	0.04350309
52	0xbe01c02e	-0.12670967
53	0x3e195dac	0.14977139
54	0xbe2db274	-0.16962606
55	0x3e32bd0b	0.17454927
56	0xbd9d7e28	-0.07690078
57	0xbd9ba46b	-0.075997196
58	0x3dfe0954	0.12404123
59	0x3dd1cff9	0.10244746
60	0xbe30927f	-0.17243384
61	0xbe2e1cc0	-0.17003155
62	0xbdf47a7c	-0.119374245
63	0xbe0af077	-0.13568293
64	0x3de474a4	0.1115506
65	0xbe19a28d	-0.15003414
66	0x3e27e938	0.1639756
67	0xbd478838	-0.048713893
68	0xbcb008fc	-0.02148866
69	0xbe2dc5fe	-0.1697006
70	0xbdc758b4	-0.09733716
71	0x3e2f7a09	0.17136396
72	0x3daeaef4	0.085294634
73	0x3e3a2dc7	0.18181525
74	0x3e1ef3c3	0.15522675
75	0xbce288ca	-0.027653117
76	0x3dd5c0db	0.10437175
77	0xbe1a4dda	-0.1506876
78	0xbe00ac09	-0.12565626
79	0xbc33a256	-0.010963997
80	0x3e3a5830	0.18197703
81	0xbddee6e7	-0.10883885
82	0x3e2d54ed	0.16926928
83	0x3cfc1455	0.030771414
84	0xbdb3b979	-0.087756105
85	0xbb5d3022	-0.0033750613
86	0xbd935733	-0.07194366
87	0x3e303afe	0.17210004
88	0xbe261247	-0.1621791
89	0x3e31df64	0.17370373
90	0xbce0fa55	-0.027463118
91	0xbe2a61d1	-0.16638876
92	0xbde0b5c8	-0.10972172
93	0xbdb9159f	-0.09037327
94	0x3dd03643	0.101665996
95	0xbd4113b8	-0.047137946
96	0xbe186b76	-0.14884743
97	0x3e07a1dc	0.13245338
98	0xbe0e6f05	-0.13909538
99	0xbe184036	-0.14868245
100	0xbb86ccef	-0.0041137855
101	0x3dfdd224	0.12393597
102	0x3ddf1bd2	0.10893978
103	0xbd17198c	-0.036889598
104	0x3d9dd21a	0.07706089
105	0x3bb57c73	0.005538517
106	0xbdceffeb	-0.10107406
107	0x3df857ce	0.121261224
108	0x3e166aad	0.14689131
109	0xbe2f4df2	-0.17119578
110	0x3df13f67	0.11779671
111	0xbdf6b1fe	-0.12045668
112	0x3c70106b	0.014652352
113	0x3e0e08da	0.13870564
114	0xbd57b942	-0.05266691
115	0x3e1a193d	0.1504869
116	0xbe2614d8	-0.16218889
117	0xbd89f596	-0.06736295
118	0x3dff795e	0.12474321
119	0x3d835f8e	0.0641471
120	0xbc41b8ef	-0.011823877
121	0x3ccaebe8	0.024770692
122	0xbcbee4e6	-0.023302507
123	0xbc2824dc	-0.010262694
124	0xbdd4c49a	-0.10389061
125	0xbcf79bec	-0.030225717
126	0xbdc3a375	-0.09552661
127	0x3cf2e194	0.02964858
128	0x3d8e4b0d	0.069479086
129	0xbe27f873	-0.1640337
130	0xbe07586a	-0.13217321
131	0xbd50cdce	-0.05097752
132	0x3e3a4229	0.181893
133	0x3c8a8d83	0.016913181
134	0x3e1d3486	0.15352067
135	0x3d65a7fc	0.056068406
136	0xbdd4a720	-0.10383439
137	0xbdcfb91b	-0.10142728
138	0x3b9ede4e	0.004848278
139	0x3c8ea452	0.017412338
140	0x3d5111a9	0.051042233
141	0xbd7d1d7b	-0.061795693
142	0xbd675502	-0.056477554
143	0xbdb5f432	-0.08884467
144	0x3e25cecf	0.16192172
145	0x3e50dc34	0.20396501
146	0x3e116148	0.14197266
147	0x3d0a69a7	0.033792164
148	0xbe082e63	-0.13298945
149	0xbd9e4de9	-0.07729704
150	0xbdc92ced	-0.09823022
151	0x3e26ccf5	0.16289122
152	0xbe3abe23	-0.18236594
153	0xbdf84927	-0.12123328
154	0x3dfd5766	0.123701856
155	0x3d588a5c	0.052866325
156	0x3e3e40ec	0.18579453
157	0xbd6f76a5	-0.058462758
158	0xbdd30e39	-0.10305447
159	0xbde93f66	-0.113890454
160	0x3d3b9876	0.045799695
161	0x3cc265a6	0.02373011
162	0xbd797d9e	-0.060910814
163	0x3e09435d	0.13404603
164	0x3daa510a	0.08316238
165	0xbe1401ee	-0.14453861
166	0xbc003a16	-0.007826349
167	0xbdd22964	-0.10261801
168	0xbdf97bac	-0.12181792
169	0xbd8609a0	-0.065448046
170	0xbe0d02b2	-0.1377056
171	0x3de50ea4	0.11184433
172	0xbdba9042	-0.09109546
173	0xbd97fb23	-0.074209474
174	0x3d8d08ed	0.06886468
175	0x3dfb8661	0.1228149
176	0x3e553c03	0.20823674
177	0x3c8b76ae	0.017024364
178	0xbc225e03	-0.009910109
179	0xbb82d71e	-0.003992929
180	0x3dceb33b	0.10092779
181	0xbe63be75	-0.22240622
182	0x3e2b81a1	0.16748668
183	0xbd46c60e	-0.048528723
184	0x3da5c7f4	0.08094779
185	0x3bfa51d7	0.0076391506
186	0xbd5dfcf4	-0.054196313
187	0x3d34cd61	0.044141177
188	0xbe128523	-0.143086
189	0x3dfc1fef	0.12310778
190	0x3e565a6b	0.20932929
191	0x3e0852ca	0.13312832
192	0xbd367d61	-0.044553164
193	0x3b49f885	0.0030818295
194	0x3db3670c	0.08759889
195	0xbe141ce2	-0.14464143
196	0xbdd979e6	-0.106189534
197	0xbe1408e8	-0.14456522
198	0xbcc62722	-0.024188582
199	0x3d02d531	0.031941596
200	0xbdcd2d17	-0.10018366
201	0xbca7b0e9	-0.0204701
202	0x3c800f1b	0.015632203
203	0xbd935b9e	-0.07195209
204	0xb98f515d	-0.00027335706
205	0x3dfc82d5	0.12329642
206	0x3e085c6b	0.13316505
207	0xbd349156	-0.044083916
208	0x3cdcb619	0.0269423
209	0x3e1aed8b	0.15129678
210	0xbd8dcffb	-0.06924435
211	0x3e2a775b	0.16647093
212	0x3df067b6	0.11738531
213	0x3dcd32dd	0.10019467
214	0x3e11c18b	0.14233987
215	0x3dc54310	0.09631932
216	0x3ca2bee8	0.019866422
217	0xbe34bad9	-0.17649402
218	0xbda1e5e0	-0.07905173
219	0x3cec29c8	0.028828517
220	0xbbec62bb	-0.007213918
221	0xbe23b675	-0.1598757
222	0xbe1444f1	-0.14479424
223	0x3e04b3b2	0.12959173
224	0xbe207518	-0.15669668
225	0x3df9b1f2	0.121921435
226	0x3d1b094e	0.03785067
227	0x3a30848b	0.00067336176
228	0x3cebe612	0.02879623
229	0x3dbe297b	0.092852555
230	0xbe2a5f8d	-0.16638012
231	0xbc0b46c7	-0.008500761
232	0xbd739216	-0.05946549
233	0xbdb07b1a	-0.0861723
234	0xbe2a4cd0	-0.16630864
235	0x3e1c9f82	0.15295222
236	0x3aa71e66	0.0012750148
237	0x3e0833b9	0.1330098
238	0xbe13044a	-0.14357105
239	0xbe15d5a6	-0.14632282
240	0xbe3afac4	-0.18259722
241	0x3d83fd24	0.06444767
242	0xbcffba78	-0.031216845
243	0xbcd80c64	-0.026373096
244	0x3e089965	0.13339765
245	0xbe30154b	-0.17195623
246	0xbe14ebb6	-0.14543042
247	0x3de29f52	0.11065544
248	0x3e0a307b	0.13495056
249	0xbccc4436	-0.02493487
250	0x3de1081a	0.109878734
251	0xbd5099fb	-0.050928097
252	0x3e0d97ca	0.13827434
253	0x3d52ce0f	0.051466044
254	0x3dc3240b	0.09528359
255	0x3a80f329	0.0009838092

ActionModule.fc_layer2.bias f4 [32]
0	0x3cb049fc	0.021519653
1	0xbdf97b16	-0.1218168
2	0x3d9d2e4e	0.076748475
3	0xbe1dd065	-0.15411527
4	0x3db43805	0.087997474
5	0x3da9524a	0.082676485
6	0x3d197744	0.037467256
7	0xbe0e7e01	-0.13915254
8	0xbda9bdeb	-0.08288177
9	0xbd509da7	-0.0509316
10	0x3e422055	0.18957646
11	0xbc8f56a5	-0.01749737
12	0x3dbf9f01	0.093564995
13	0xbc99efc0	-0.01879108
14	0xbd3489db	-0.04407678
15	0xbdab1770	-0.0835408
16	0x3e052dd1	0.13005759
17	0xbe1fc825	-0.15603693
18	0x3e5832fa	0.21113196
19	0x3e53d507	0.20686732
20	0x3d9519b5	0.07280294
21	0x3e3a023f	0.1816492
22	0x3e1a25c9	0.15053476
23	0x3b52a341	0.0032140764
24	0xbe2ed962	-0.17075112
25	0x3e2fa906	0.17154321
26	0xbb915f4b	-0.0044364086
27	0xbdee8bd1	-0.116477616
28	0xbd0eb0fb	-0.03483675
29	0x3e29f4be	0.16597268
30	0x3dc736bf	0.09727239
31	0x3dddbf63	0.1082752

ActionModule.fc_layer3.weight f4 [32, 32]
0	0xbe34feb9	-0.17675294
1	0x3d00f2e2	0.03148163
2	0xbe0ff607	-0.14058696
3	0x3e20eae1	0.15714599
4	0xbdcee2b3	-0.10101833
5	0xbdd1f5d2	-0.10251965
6	0xbddbe19e	-0.107363924
7	0x3dce0caf	0.10061013
8	0xbe35ecf0	-0.17766166
9	0xbd473edc	-0.04864393
10	0x3c0c01fd	0.008545396
11	0xbd67aae2	-0.05655945
12	0x3e2ec570	0.17067504
13	0x3e26389c	0.16232532
14	0x3e30d49e	0.17268607
15	0x3dd896ea	0.105756596
16	0x3dea8e01	0.11452866
17	0xbab77a46	-0.0013998232
18	0x3dca1570	0.0986737
19	0x3d0ef0c9	0.0348976
20	0xbd9dc60a	-0.077037886
21	0x3e1dfa5b	0.15427534
22	0xbe0cb3ca	-0.13740459
23	0xbc1520b2	-0.009102033
24	0x3e1cb39d	0.15302892
25	0xbe03f059	-0.12884654
26	0xbe0f90ba	-0.14020053
27	0xbdecc6e5	-0.115613736
28	0x3c8d82fb	0.01727437
29	0xbe03030b	-0.1279413
30	0x3e2859b9	0.16440476
31	0xbe33eedf	-0.17571591
32	0x3e032237	0.1280602
33	0xbc0c147a	-0.008549804
34	0xbe01b9ca	-0.12668529
35	0xbdd2c55f	-0.10291552
36	0xbe13a6ca	-0.14419094
37	0xbdaefa9e	-0.08543895
38	0x3ddc9017	0.107696705
39	0xbbb1c1db	-0.0054247207
40	0xbc847b3a	-0.01617204
41	0xbda6edec	-0.08150849
42	0xbd90977b	-0.070601426
43	0x3ddd1a8f	0.10796081
44	0x3e0eccb4	0.13945276
45	0xbdcb2477	-0.099190645
46	0x3e0bb369	0.13642658
47	0xbd9d1425	-0.07669858
48	0xbdaf8908	-0.085710585
49	0xbe1a1ae4	-0.1504932
50	0xbe105c05	-0.14097603
51	0xbe256e40	-0.16155338
52	0xbb1d9c38	-0.0024049412
53	0xbd10cc70	-0.035351217
54	0xbe0c3680	-0.13692665
55	0x3db1483c	0.08656356
56	0x3e2bda44	0.1678248
57	0xbdee6bab	-0.1164163
58	0x3d806ae3	0.06270387
59	0x3d62fbcd	0.055415917
60	0x3e0fa5e3	0.14028125
61	0xbe211131	-0.15729214
62	0xbd92de4b	-0.07171305
63	0xbe1f4456	-0.15553412
64	0xbe08f1de	-0.13373515
65	0x3dc4f3b2	0.09616794
66	0x3e34aefc	0.17644876
67	0xbe1ad77c	-0.15121263
68	0x3de59106	0.11209302
69	0xbdfef7ef	-0.12449633
70	0xbd0b3ecd	-0.03399544
71	0x3dfa9783	0.1223593
72	0xbd4ea1a4	-0.05044712
73	0xbe2fd5f7	-0.17171465
74	0xbdc6cd9d	-0.09707186
75	0x3b8ef4aa	0.0043626623
76	0xbd2b1d16	-0.041775785
77	0xbe31d160	-0.17365026
78	0xbdb2877b	-0.08717247
79	0x3e2ef53a	0.17085734
80	0x3e0479c5	0.12937076
81	0x3e1cac17	0.15300022
82	0x3d4368ab	0.04770724
83	0x3c55350b	0.013013135
84	0xbdd15cd3	-0.10222783
85	0xbdfb4b53	-0.12270226
86	0x3ba13ef3	0.004920834
87	0x3dc6b203	0.09701922
88	0x3e32e6f5	0.17470916
89	0x3d940626	0.07227735
90	0xbe1c94d8	-0.15291154
91	0xbdff203d	-0.12457321
92	0xbda0de43	-0.07854893
93	0xbe3183e7	-0.17335473
94	0x3e1a68ed	0.15079089
95	0xbe08f317	-0.13373981
96	0xbc50e1a4	-0.012749109
97	0xbda90670	-0.08253181
98	0xbbd6a1e7	-0.006550062
99	0x3de91aa7	0.11382037
100	0x3e681410	0.22663903
101	0x3e4df756	0.20113882
102	0x3e2f3a50	0.17112088
103	0x3e03172e	0.12801811
104	0xbe139425	-0.14411981
105	0x3c7d3436	0.015454343
106	0xbd88e075	-0.06683437
107	0xbd88e89b	-0.06684991
108	0xbcbfdde2	-0.023421232
109	0x3cde1564	0.02710981
110	0x3dcfe717	0.10151499
111	0xbd56629f	-0.052340146
112	0xbe1e74b1	-0.15474202
113	0x3dff1958	0.12456006
114	0x3c9ac7ad	0.018894041
115	0x3e4da78e	0.20083448
116	0x3ce5c608	0.02804853
117	0xbd98e2fa	-0.07465167
118	0x3cdba444	0.026811726
119	0xbe2de97f	-0.16983603
120	0xbd3c09bb	-0.045907717
121	0x3e35ce34	0.17754441
122	0xbd31a7be	-0.043372862
123	0x3df5510a	0.119783476
124	0x3d813913	0.06309714
125	0xbd7b3faa	-0.06134001
126	0xbe07a848	-0.13247788
127	0x3cf65fc0	0.030074954
128	0x3dea14bc	0.11429736
129	0x3da2bbe1	0.07945991
130	0xbda38064	-0.07983473
131	0x3e17fb04	0.14841849
132	0x3dd66426	0.104683205
133	0x3df55c02	0.1198044
134	0x3dec1d7a	0.1152906
135	0x3e155fa6	0.14587268
136	0x3d8185ed	0.063243724
137	0xbdb1b6e0	-0.08677459
138	0xbe012b61	-0.12614204
139	0x3ce6e41e	0.028184947
140	0x3d41dbbc	0.047328696
141	0x3da6604a	0.081238344
142	0x3daf114d	0.08548222
143	0xbe2e432e	-0.17017815
144	0xbc9fe045	-0.01951612
145	0x3d2cd729	0.04219738
146	0xbd822e90	-0.06356537
147	0x3d106d11	0.035260264
148	0xbde937a7	-0.11387568
149	0xbdbde449	-0.092720576
150	0xbdc79789	-0.097457
151	0xbdf2e106	-0.11859326
152	0x3df91461	0.1216209
153	0xbdf2465e	-0.11829828
154	0x3c40fb2a	0.011778632
155	0xbd380f52	-0.044936486
156	0xbe2f47cd	-0.17117234
157	0x3d8f3aca	0.06993635
158	0xbdb1fcc4	-0.08690789
159	0xbe10b5c8	-0.14131844
160	0xbe050076	-0.12988457
161	0x3e221baa	0.15830866
162	0x3e5ce542	0.2157183
163	0xbe1c40fb	-0.15259163
164	0x3e387191	0.18012072
165	0x3db7b926	0.08970861
166	0xbe1e18b1	-0.15439107
167	0x3e196039	0.14978112
168	0x3dd6df5d	0.10491822
169	0x3d1daa35	0.0384924
170	0x3c6b19e1	0.014349432
171	0xbe08aa30	-0.13346171
172	0x3cdb497e	0.026768442
173	0xbd4d17fc	-0.0500717
174	0xbdefb500	-0.11704445
175	0xbdff7090	-0.124726415
176	0xbbf856ba	-0.007578698
177	0xbd740bd8	-0.059581608
178	0x3e408f2c	0.18804616
179	0xbde40db1	-0.11135424
180	0x3df51df1	0.119686015
181	0xbdbe1047	-0.092804484
182	0xbde17adb	-0.11009761
183	0x3e33e3a6	0.1756731
184	0x3e0d99bc	0.13828176
185	0x3e5c68a8	0.21524298
186	0xbd87a9f1	-0.066242106
187	0x3d09409b	0.03350888
188	0xbde2d4ec	-0.11075768
189	0xbb139e97	-0.0022524947
190	0xbe17b853	-0.14816408
191	0xbdea3977	-0.11436742
192	0xbe475491	-0.19465853
193	0x3d899889	0.06718547
194	0xbde2fdb0	-0.11083543
195	0xbd7ac2e9	-0.061221037
196	0x3d8f4d8c	0.06997213
197	0x3d95be86	0.0731173
198	0x3d998c6a	0.07497485
199	0x3da4c097	0.08044546
200	0xbdd80c17	-0.10549181
201	0xbdce21aa	-0.10065015
202	0xbe26b6e9	-0.16280712
203	0x3c5e4e5a	0.013568485
204	0x3e063714	0.13106948
205	0x3d22628d	0.039644767
206	0x3e1db945	0.15402706
207	0xbd1a4574	-0.037663892
208	0x3e26b498	0.16279829
209	0xbde978c6	-0.11399989
210	0x3b7da867	0.0038705112
211	0x3ddb06c0	0.10694647
212	0xbdea277f	-0.114333145
213	0xbd4da911	-0.050210062
214	0xbd339173	-0.043839883
215	0xbd936b02	-0.071981445
216	0x3e16d3c9	0.14729227
217	0x3d86e2d0	0.0658623
218	0x3c77440e	0.015091909
219	0xbdc6143c	-0.09671828
220	0xbe0f4eea	-0.13994947
221	0xbcaea743	-0.021319991
222	0xbcc31b32	-0.023816679
223	0xbc4b4b17	-0.0124080395
224	0x3d4bce78	0.04975745
225	0xbc672ea0	-0.014110237
226	0x3c92f43c	0.017938726
227	0xbd1e1a2c	-0.03859918
228	0xbbcb823a	-0.0062105926
229	0xbcb9c304	-0.022675999
230	0x3d9c08de	0.07618879
231	0x3e31d8cc	0.17367858
232	0x3dab9d9a	0.083796695
233	0xbd3b938e	-0.045795016
234	0xbd716ffb	-0.058944684
235	0xbe19c5ad	-0.15016814
236	0xbe3e0793	-0.18557577
237	0xbcdd104b	-0.026985308
238	0xbd502434	-0.050815776
239	0x3d8d17ff	0.068893425
240	0xbd851ae1	-0.06499267
241	0x3d15ffc9	0.03662089
242	0x3dee29aa	0.116290405
243	0xbe2f2c17	-0.17106663
244	0xbe37453b	-0.17897503
245	0xbd367b27	-0.04455104
246	0xbe128bce	-0.14311144
247	0x3e186be0	0.14884901
248	0xbe23835d	-0.1596808
249	0xbdec0af1	-0.115255244
250	0xbd789642	-0.060690172
251	0xbc378b99	-0.011202716
252	0xbdc0896e	-0.09401213
253	0xbcf72664	-0.030169673
254	0x3e2a9e7a	0.16662017
255	0xbc52f029	-0.012874641

ActionModule.fc_layer3.bias f4 [32]
0	0x3d8be83b	0.06831404
1	0xbe1d3d79	-0.15355481
2	0xbc9e93b5	-0.019357542
3	0x3e03bb50	0.12864423
4	0xbdaace69	-0.08340151
5	0x3e32a974	0.17447454
6	0xbe2869b0	-0.16446567
7	0x3e0edfb6	0.13952526
8	0xbdd95fe4	-0.10613993
9	0x3e3857e3	0.18002276
10	0x3e65704b	0.22406118
11	0x3e5016c1	0.2032118
12	0xbe0a0983	-0.13480191
13	0x3c2f5821	0.010702164
14	0xbd11edc7	-0.035627153
15	0xbc9202b9	-0.017823564
16	0xbd1c678c	-0.038184687
17	0x3cc45806	0.023967754
18	0x3e0f02a3	0.1396585
19	0xbe0b6618	-0.13613164
20	0xbe166900	-0.14688492
21	0xbdd9deb4	-0.106381804
22	0x3dd42e59	0.103604026
23	0x3dd4c735	0.10389558
24	0x3c267fb0	0.010162279
25	0xbe0abc1d	-0.13548322
26	0xbe1ac7d2	-0.15115288
27	0xbd37faf8	-0.044917077
28	0x3e2941c8	0.16529
29	0x3d2d4c9a	0.04230938
30	0x3df2bffc	0.11853024
31	0x3b088a69	0.0020834452

ActionModule.mu.weight f4 [1, 32]
0	0x3cd00d65	0.025397012
1	0x3c89fcae	0.01684412
2	0xbb20c09e	-0.0024528871
3	0xbda2c29a	-0.079472736
4	0xbc4e971b	-0.012609269
5	0xbd1d6e77	-0.038435426
6	0xbad41c64	-0.0016182777
7	0x3c10662f	0.008813425
8	0x3c9198d3	0.017773068
9	0xbd505421	-0.05086148
10	0xbd88f8e4	-0.06688097
11	0xbd5e32c5	-0.054247636
12	0x3c421678	0.011846177
13	0x3c9312c8	0.017953292
14	0xbb44b0a5	-0.0030012515
15	0x3ca35f9d	0.019943053
16	0x3c32350b	0.010876904
17	0x3c83ab1d	0.016072804
18	0xbda0338a	-0.0782233
19	0x3c8af32a	0.016961653
20	0xbceaa932	-0.028645132
21	0xbccbfe69	-0.024901586
22	0x3c5afaed	0.013365489
23	0xbd99e971	-0.075152285
24	0xbc5b772f	-0.013395115
25	0x3c72aeb8	0.014812164
26	0x3b31659b	0.0027068618
27	0x3c7ca580	0.015420318
28	0xbd81020e	-0.0629922
29	0xbd83975f	-0.06425356
30	0xbd8966cb	-0.06709059
31	0xbae074ea	-0.0017124687

ActionModule.sigma.weight f4 [1, 32]
0	0x3c367d4d	0.0111382725
1	0xbc8afb71	-0.0169656
2	0x3ca97ef0	0.020690411
3	0xbda88efc	-0.08230397
4	0x3cea899d	0.028630072
5	0xbd100beb	-0.035167616
6	0xbc9fce20	-0.019507468
7	0xbcf3484c	-0.02969756
8	0xbc221dcb	-0.0098947985
9	0xbd290e75	-0.041273553
10	0xbd10b6ec	-0.035330698
11	0xbd976208	-0.07391745
12	0xbcc7051b	-0.024294427
13	0x3cde0427	0.02710159
14	0xbd00de2e	-0.031461887
15	0xbb25ed11	-0.0025318305
16	0x3b57742d	0.0032875643
17	0xbc2a1064	-0.010379884
18	0xbd49454f	-0.049138363
19	0xba934ed9	-0.0011238708
20	0x3cc1bff2	0.023651097
21	0xbbb5ad3b	-0.0055443323
22	0xbc67616f	-0.014122351
23	0xbd995a7e	-0.07487963
24	0x3cc20c0d	0.023687387
25	0x3c28fe83	0.010314587
26	0xbc6deae2	-0.014521332
27	0xbca6357b	-0.020289173
28	0xbd6bf87b	-0.057610016
29	0xbd53794e	-0.051629357
30	0xbda8471b	-0.08216687
31	0x3c7991ff	0.015232562
