models/patient7/ppo_model_for_patient_7_Critic.pth (torch, 22684 bytes, 15 tensors)

FeatureExtractor.LSTM.weight_ih_l0 f4 [64, 2]
000000 ee 5c e7 bd a3 df 0a be aa df 63 be a5 03 19 be
       -0.11297022 -0.13561873 -0.2225329 -0.14942797
000010 7c a5 b0 be 8b ca 9f be 5f ce 8f be 1e e7 5f be
       -0.34501255 -0.31209216 -0.28087136 -0.21865508
000020 f7 93 ee be 34 3c ae be 51 00 f0 bd d1 81 7f 3d
       -0.46597263 -0.34030306 -0.1171881 0.062379662
000030 e9 b3 8b be ba 2d a4 be 96 eb b7 be fd dd 31 3d
       -0.27285698 -0.32066137 -0.35921925 0.043424595
000040 4d d2 06 bf 75 f2 08 be d2 8e d9 be 04 9a 9a be
       -0.52664644 -0.1337374 -0.42491776 -0.3019563
000050 95 92 5b be 62 f0 6f 3c 3b c0 d6 be 36 c3 f2 3d
       -0.21442635 0.014644714 -0.41943535 0.1185364
000060 4b c6 5f be 11 a0 c5 bd 28 77 dc bd 52 bd d0 3d
       -0.21852987 -0.09649671 -0.10764915 0.1019236
000070 f8 72 b6 bc 92 d4 3a be f0 47 ef be 2e 3a 12 3e
       -0.022271618 -0.18245152 -0.4673457 0.14280006
000080 0f ed 9f bd b7 57 e1 3c ca ca ff bd ef 9d 16 3e
       -0.07808887 0.027507646 -0.12489851 0.14708684
000090 39 e5 af be 91 7e 24 be 41 d5 9e bd c9 15 20 be
       -0.3435457 -0.16063906 -0.07755519 -0.1563331
0000a0 c8 b1 88 be 00 41 69 bc 34 1f f1 be ff 41 cb bd
       -0.26698136 -0.014236689 -0.4709412 -0.09924697
0000b0 83 61 e4 be 86 15 7d be 7c 19 ab be eb dc 42 3d
       -0.44605646 -0.24715242 -0.3341788 0.047573965
0000c0 99 87 fa be 18 78 9a be d3 36 ee bd a2 a6 4d be
       -0.48931578 -0.3016975 -0.11631551 -0.20083097
0000d0 51 1c cb be 71 97 da 3d 6e 38 00 be a3 c0 8a be
       -0.3967004 0.106734164 -0.12521526 -0.27100095
0000e0 b1 c7 89 be 87 e9 5a bd 4f 05 ed be b5 73 19 be
       -0.26910165 -0.053445365 -0.46293113 -0.14985545
0000f0 49 58 fa be 35 af e8 3d 88 ba eb be ce e8 11 3e
       -0.4889548 0.11361543 -0.4604075 0.14248964
000100 d4 37 5d be 77 4e ad bd 20 37 2b 3d 73 23 4d 3d
       -0.21603328 -0.084622316 0.04180062 0.050082635
000110 ee 13 a0 be 6f 71 ab 3d 8f 47 de 3e c1 49 1d 3e
       -0.31265205 0.08371245 0.4341397 0.15360166
000120 bf b5 1f bf 2e c5 70 bd 37 26 14 be e2 e4 23 3d
       -0.623867 -0.058781795 -0.14467703 0.0400132
000130 a5 23 9e be a7 d0 12 3e 79 48 0c 3e 28 6a 02 3e
       -0.3088657 0.14337407 0.13699521 0.12735808
000140 62 1c 93 3e 4d 51 00 be f1 5e b6 3e 58 8c 86 be
       0.28732592 -0.12531014 0.3561931 -0.2627895
000150 83 d2 29 3c bd b1 01 be 67 fc db bd 21 8d 83 3e
       0.010365131 -0.12665458 -0.10741501 0.2569361
000160 cb 2b 2b be c0 57 c8 bd 9a 80 16 bd 82 46 8d 3e
       -0.16715924 -0.09782362 -0.036743738 0.27592856
000170 e1 1c 88 be 91 37 b6 be 10 6b ca 3e 85 8a 5d bc
       -0.26584533 -0.3558927 0.39534807 -0.013521795
000180 ba 1e e8 be a3 ed 03 3d e4 91 13 be 9f 92 98 be
       -0.45335943 0.03220905 -0.14411122 -0.29799363
000190 bb fc 30 be f6 26 85 bd c8 5f 3e bc 15 8f e0 bd
       -0.17283909 -0.06501572 -0.011619516 -0.10964791
0001a0 f1 02 0b be a8 34 c8 be 18 15 ab be 9e 21 9b 3d
       -0.13575341 -0.39102674 -0.3341453 0.07574771
0001b0 c6 c7 7a be f7 1f ec bd 5d ad 78 be 17 e7 3a be
       -0.2449027 -0.11529534 -0.24284883 -0.18252216
0001c0 9e 48 bf be fb c7 96 be bd ff 01 bf fb 07 05 be
       -0.3736009 -0.29449448 -0.5078085 -0.12991326
0001d0 74 09 0a bf fe ba cc bd b9 b9 88 be 84 0a 93 3d
       -0.53920674 -0.099966034 -0.26704195 0.0717974
0001e0 a7 bd f4 be 43 63 00 3e 7c 81 b8 be 26 4c 98 be
       -0.47800943 0.12537865 -0.3603629 -0.29745597
0001f0 eb 39 a2 bd f7 7a c2 bc 87 79 1e be 63 f0 09 bd
       -0.07921203 -0.023740275 -0.15476047 -0.033676516

FeatureExtractor.LSTM.weight_hh_l0 f4 [64, 16]
000000 cd 63 a8 bd 04 3a c6 bd 8a 85 ee 3c 7f 16 78 3c
       -0.082221605 -0.09679034 0.02911641 0.015142082
000010 5c 98 ac 3e ee 8b 33 bd ce 84 d2 3d e1 cf 02 3e
       0.3370999 -0.04383462 0.10279237 0.12774612
000020 5e 2e 78 be fa d3 6d 3e 46 15 4e 3e b5 15 29 be
       -0.24236438 0.23225394 0.20125303 -0.16512187
000030 36 46 63 3e 2a 70 a5 be a5 9d 4b 3e 00 77 85 3d
       0.22194752 -0.32312137 0.19884355 0.06516838
000040 b2 1e b7 bd b4 cf 93 3d d2 fd 9d 3e c5 2c 09 be
       -0.089414015 0.072173506 0.30857712 -0.13395984
000050 df ef 23 3e fa d4 58 bd ee 85 2f 3e 73 71 f3 bc
       0.16009472 -0.052937485 0.17140934 -0.029717183
000060 1f 8e c8 be 6a 82 1e be 4d 64 85 be 81 af 93 bc
       -0.3917093 -0.15479437 -0.26053086 -0.018028023
000070 88 18 79 3d a4 d5 8d be d7 43 28 3c 19 b7 8c be
       0.06081441 -0.27702057 0.0102700805 -0.27483442
000080 02 93 94 bd 6e bf ca 3d c0 24 27 3e 58 2e b7 bd
       -0.07254602 0.098997936 0.16322613 -0.08944386
000090 58 3d be 3e d4 38 c2 bd a2 52 d4 3e 02 76 74 be
       0.37156177 -0.09483495 0.41469294 -0.23873141
0000a0 a6 d0 b8 be 8b 11 c8 be 20 27 88 be 0a f9 82 3e
       -0.36096686 -0.39075884 -0.2659235 0.25580627
0000b0 26 b3 83 3e 97 1a ba bd eb 91 08 3e cb 15 c8 3b
       0.25722617 -0.09087103 0.13336913 0.0061061135
0000c0 96 f5 e9 3e 58 1a 0a 3d 5b 9f ad 3e b6 0b 7f bd
       0.4569518 0.03371653 0.3391064 -0.062267028
0000d0 86 48 35 3e 56 63 c9 3e 51 84 98 3d 57 74 98 bd
       0.17703447 0.393336 0.07447112 -0.07444065
0000e0 f5 94 26 3e de c7 19 3d 47 8c 73 be 9a 5e 86 3e
       0.1626776 0.037544124 -0.2378398 0.2624405
0000f0 3c 6f b4 3d 37 b5 ff bd 5c a1 13 3e fb 70 85 bd
       0.08810279 -0.12485736 0.14417022 -0.0651569
000100 9e 16 1b 3d c8 c9 44 bb da 71 41 be 89 74 d8 3d
       0.037863366 -0.0030027498 -0.18891087 0.10569102
000110 7d 33 0c be 3e 02 69 3e 93 f3 1a bd 55 68 69 be
       -0.13691516 0.22754762 -0.037829947 -0.22793706
000120 71 5b c5 bb f3 3d 1e be 5a a1 69 3e ba ec 83 be
       -0.0060228636 -0.15453319 0.22815457 -0.25766546
000130 5f 1e cb 3e a1 21 e4 be c2 71 00 3e d5 3c b7 3d
       0.3967161 -0.44556907 0.12543395 0.0894715
000140 27 6e 9c 3d be 95 ed bd f0 f6 83 3c 65 e7 b5 be
       0.076381974 -0.11600827 0.01610896 -0.35528103
000150 e0 7e 8a bd ad a2 62 3e a1 4e 91 3e 2c 6f 08 be
       -0.06762481 0.22132368 0.28380302 -0.13323659
000160 3a 88 ad 3c 80 dc 9f 3d c5 04 d6 3d 79 ca 82 3d
       0.021183122 0.07805729 0.104501285 0.06386275
000170 41 fa 5e 3e 18 96 ca bd ec c7 1d 3e bb a3 64 be
       0.21775152 -0.09891909 0.15408295 -0.22328083
000180 a9 8c aa 3d 28 c3 00 3e 0a 09 82 3e d7 00 91 bd
       0.0832761 0.12574446 0.2539752 -0.07080238
000190 c2 ce 33 3e 9f 83 8d bd 55 01 a0 3e bf 0f b8 3d
       0.1755934 -0.0690987 0.31251016 0.08987378
0001a0 68 56 da bd e1 7e 36 3d b7 2c 66 3d 5a 3a d3 bc
       -0.10661012 0.044554595 0.056194987 -0.02578466
0001b0 d7 e1 31 3e 83 6e a9 be 2e e5 b8 3c a8 43 a8 bc
       0.17371307 -0.33092126 0.022570219 -0.020540074
0001c0 68 43 8d 3e b5 60 22 3e 2a 2e ce 3d e9 19 99 3d
       0.2759049 0.15857203 0.10067399 0.07475645
0001d0 7e 1d 8b 3c b8 8c 1f 3e 52 72 33 3e a4 be 95 3c
       0.016981836 0.15581024 0.17524078 0.018279381
0001e0 e8 55 5c 3d 05 c4 f3 bd 26 51 ed bb e8 de 91 3e
       0.053792864 -0.11902622 -0.0072423397 0.28490376
0001f0 ab 87 81 bb cd f9 0b be 78 43 45 3d c9 e8 9b be
       -0.0039529405 -0.1366951 0.048160046 -0.30451038
000200 6b 28 81 3e 07 3f 0b 3e 27 e1 db 3c 22 67 51 be
       0.2522615 0.13598262 0.02684076 -0.20449498
000210 b3 58 c0 3e f1 d2 97 3e eb fb 4f bd a3 b2 1d 3d
       0.37567672 0.29653123 -0.050777357 0.03850044
000220 0b 93 65 be 7f 48 c1 be db a0 1e be e5 18 50 bd
       -0.22419374 -0.37750623 -0.15491049 -0.05080499
000230 8f c6 b2 3e 79 09 8e be 2a af 09 bd c2 d9 a4 be
       0.34917113 -0.27741602 -0.033614315 -0.32197386
000240 da 61 28 3e 4f 77 3b 3d 62 2d fd 3c c0 78 5a 3e
       0.16443577 0.04576808 0.03090543 0.21335125
000250 35 97 1e 3e d7 82 de 3c 88 8e 43 3d cc b2 fd 3d
       0.15487368 0.027161999 0.04774335 0.123876184
000260 7f 8a 2d 3e ca fd 8c be c9 22 77 3c 7f 7c 3e 3e
       0.16947363 -0.27537376 0.015083977 0.18602179
000270 2d fb 70 3d 0f 63 5c bd 39 f3 12 3e 26 b1 b7 bd
       0.05883329 -0.053805407 0.14350595 -0.08969335
000280 ef 34 58 bd c7 8c d3 3d a3 c6 6a 3e fc 54 02 bd
       -0.052784856 0.103295855 0.22927336 -0.03181933
000290 3b cd c0 3e 00 9c 07 3e da fc 9a bd 9d aa ba be
       0.37656578 0.13243103 -0.07567759 -0.36458293
0002a0 1e 98 97 3c e3 b4 dc bd 42 5a 37 be 5a 3d 71 bc
       0.018505152 -0.10776689 -0.17905524 -0.0147241
0002b0 a3 3a 99 3e 84 9e bf bd 44 cc af 3e e9 14 9b bd
       0.2992755 -0.09356406 0.3433553 -0.07572348
0002c0 59 85 29 3e 41 5b 8a 3e f5 b5 17 3d e2 b7 e7 be
       0.16554774 0.27022746 0.037038762 -0.4525748
0002d0 95 93 56 3e a9 8f 12 3e 28 21 b5 3c b4 f3 dd 3d
       0.20954736 0.14312615 0.022110537 0.10837498
0002e0 bc ec ae be 5e 1c 1d 3e 06 87 87 be b9 e4 46 be
       -0.3416499 0.15342852 -0.26470202 -0.19423188
0002f0 f2 1f 22 be c8 b0 2d 3d 65 39 49 3e d4 dd a2 3d
       -0.15832499 0.04240492 0.196508 0.079524666
000300 ea b6 28 3d b3 e9 7a be e8 09 07 be cc a7 74 bc
       0.041190065 -0.24503212 -0.13187373 -0.014932584
000310 e4 46 56 3e ae 10 20 be 28 bf 0e 3e e7 e5 25 3e
       0.2092548 -0.15631363 0.13940108 0.16200982
000320 55 95 80 3c 20 90 df ba 3c 2e 0a be d6 1a be bd
       0.015696207 -0.0017056502 -0.134942 -0.09282462
000330 94 91 28 3e e1 ec 8e be a7 e7 1c 3e ab 38 ad 3c
       0.16461784 -0.279151 0.15322743 0.021145185
000340 ed 30 bb bc 76 cf ef 3c 6b da 30 be ed 82 52 ba
       -0.022850478 0.02927373 -0.1727082 -0.0008030374
000350 63 48 99 3e 06 4a 84 3e a6 59 78 bd 23 56 3e 3c
       0.2993804 0.25837725 -0.06063237 0.011617216
000360 b6 d6 80 3d 36 12 bd 3d 95 11 6b 3d 89 5e fe bc
       0.06290953 0.09231989 0.057389814 -0.031050937
000370 3b 52 e9 3d f8 fb 95 bd 72 26 9b 3e b9 88 bc 3d
       0.11392637 -0.0732345 0.3030277 0.09205765
000380 d6 ff 20 3e 5a f0 2e 3e 67 42 90 bd a4 eb af be
       0.15722594 0.17083874 -0.07043915 -0.34359467
000390 e2 c0 a1 bc 2e 59 97 bd 25 d4 14 3e 83 cf 59 bd
       -0.019745294 -0.073900566 0.14534052 -0.053176414
0003a0 02 7d 68 3c 87 55 01 3e bf 99 13 3e c7 5a cd 3b
       0.01418996 0.12630282 0.14414118 0.006266925
0003b0 fe 79 71 3d b8 25 20 be e2 a8 a3 3c f4 84 a7 3d
       0.05895423 -0.15639389 0.01997799 0.08179656
0003c0 6c ad 7d bb 41 9b 4c be 1c 88 22 3e 5f 57 eb bd
       -0.0038708104 -0.199811 0.15872234 -0.11491274
0003d0 f8 2d b6 bd fc e7 ff bd 7e 62 e4 3d 78 ce 3a 3d
       -0.088954866 -0.124954194 0.111515984 0.04560706
0003e0 f8 24 97 bc 16 f1 59 3d 87 49 df 3d 47 6f 8f bd
       -0.018450245 0.053208433 0.10902696 -0.07003646
0003f0 a3 89 44 bc 9e 52 89 be 90 4b d8 3d 3d bc 5c bc
       -0.011995706 -0.26820844 0.105612874 -0.013472614

FeatureExtractor.LSTM.bias_ih_l0 f4 [64]
000000 34 01 e3 bd 80 1f 06 bc 72 6a 64 3e 59 00 6b 3e
       -0.11084214 -0.008186221 0.2230623 0.22949351
000010 27 cd 07 3e cd 5b de bd a5 ef 4d 3d c8 aa 82 3e
       0.13261853 -0.10857353 0.05027737 0.2552092
000020 ff e1 db 3d 67 4d 1f 3c 1d 2c eb 3d df 30 fa bd
       0.10736465 0.009723044 0.11483023 -0.12216353
000030 c9 13 d6 3d 7d e4 5e 3e f7 3f 84 3e 43 18 18 be
       0.104529925 0.21766849 0.2583005 -0.14853005
000040 9f e3 a0 3e 26 b6 6e bd d7 d0 19 3d 00 73 84 3d
       0.3142366 -0.05827918 0.03755268 0.06467247
000050 39 54 5a 3d 47 ee 05 be f9 68 f1 3d ea 37 8e 3d
       0.053302977 -0.13079177 0.117876 0.069442585
000060 fe 26 0f 3d c1 19 67 3e 22 d2 95 3d 7b fd 3a 3e
       0.034949295 0.22568418 0.0731547 0.18260758
000070 b1 f8 50 bb 43 ad ed bd 20 45 1d be fd fb b5 3d
       -0.0031886513 -0.11605313 -0.153584 0.088859536
000080 2b 3a c6 bd 93 72 6d bc 1e f6 12 3e 2c ca f2 3d
       -0.096790634 -0.014492649 0.14351699 0.118549675
000090 0c a8 5b 3d 26 12 98 3e aa 7d e2 3d 00 07 9e bb
       0.05362706 0.29701346 0.11059125 -0.004822612
0000a0 ba 61 bd 3c a1 d6 61 3d 66 51 8b bd 09 96 3c 3e
       0.023117889 0.055136327 -0.06802635 0.18416609
0000b0 69 36 86 3e fc 1a aa be 4f 3e 14 3e 14 bb b5 bd
       0.26213387 -0.33223712 0.14476894 -0.08873573
0000c0 8e 54 ad 3e 61 0d c2 bc df b0 c6 bd e4 7f a0 3e
       0.33853573 -0.02368802 -0.09701704 0.31347573
0000d0 9b e9 d7 3e 64 18 e0 3d 64 77 ce 3d d0 bf 03 be
       0.42170414 0.10942152 0.10081366 -0.1286614
0000e0 82 b1 af 3e 19 91 78 3e 24 4a f3 bd c4 6b 8a 3e
       0.34315115 0.242741 -0.118793756 0.27035344
0000f0 5d d2 80 bd dc e6 9c bd 19 4a d4 3e aa 35 3f 3e
       -0.062901236 -0.076612204 0.41462782 0.18672815

FeatureExtractor.LSTM.bias_hh_l0 f4 [64]
000000 4a 44 c0 3e 6f 59 31 be db dd 88 bd a6 ad 20 3e
       0.375521 -0.17319272 -0.066829406 0.15691242
000010 45 3f 91 3e 0f 2a 71 3d 5d b8 cc 3e e3 30 b3 bd
       0.28368583 0.058878 0.39984408 -0.08749559
000020 62 02 7e 3e 4e 74 e7 3d 9f 8b cd bd 09 5d a3 3e
       0.24805596 0.1130148 -0.10036396 0.31906918
000030 1e 65 27 3c 0d 13 80 bd d4 ae 5d bd 83 86 83 3e
       0.010216979 -0.06253634 -0.054121807 0.25688562
000040 e0 04 f4 bc f0 14 9d 3e e2 7f 3a 3c ae 90 0e 3e
       -0.02978748 0.30680037 0.011383029 0.13922378
000050 3e 67 d5 3c 56 df 8b 3e 43 7d 43 bc 84 e1 91 bd
       0.026050206 0.2731883 -0.01193172 -0.07123092
000060 51 d8 42 3e 2f aa af 3d 0e 98 cb 3e f9 0e 84 3e
       0.1902783 0.08577382 0.39764446 0.25792673
000070 e1 6d 0a 3e 5c 34 ef bd 41 fd 0c 3e 54 ea d2 3d
       0.13518478 -0.11679909 0.13768484 0.10298601
000080 c7 92 96 3e 35 c1 16 3e 70 3e 7f be b9 c2 35 3d
       0.29408857 0.1472214 -0.24926162 0.044375155
000090 33 ee 2b be 6a 46 9c 3e 27 da bd bd e2 cf fa 3d
       -0.16790085 0.30522472 -0.09270125 0.12246682
0000a0 8e de 25 be e0 bf 49 be aa ab 98 ba 7b 96 51 be
       -0.16198179 -0.19702101 -0.001164784 -0.2046756
0000b0 6c d1 8d 3e cc 30 1f be 84 44 2c 3d fa d5 b3 bc
       0.2769884 -0.15545958 0.04205753 -0.021952618
0000c0 c3 42 99 3e 47 c3 af bd b1 3f 2f 3e bc 39 dd 3e
       0.29933748 -0.08582168 0.1711414 0.4320811
0000d0 d0 93 db 3d e3 b2 cc bd 33 52 d8 3e b9 de 98 3d
       0.10721552 -0.099950574 0.42250213 0.07464356
0000e0 dc 5d 68 3e df 92 b1 3e 50 06 c5 bc 3a 3e d4 3d
       0.22692055 0.34682366 -0.024050862 0.10363431
0000f0 fa 8e 48 bd ee 32 42 3c 9e 89 0b 3d 8c 24 2f 3d
       -0.048964478 0.011852963 0.03406679 0.042759463

GlucoseModel.fc_layer1.weight f4 [16, 17]
000000 1d a0 c0 bd 39 9b d8 3d 8a 93 32 be 02 d1 95 3d
       -0.09405539 0.10576481 -0.17439094 0.07315256
000010 0f e5 43 bd 43 bc 30 bd 76 71 31 be f9 f1 5a be
       -0.04782587 -0.04314829 -0.17328438 -0.21381368
000020 0f 22 3b 3e 56 42 91 3d 8d 77 76 be 38 ea 90 bd
       0.18274711 0.07092731 -0.24069043 -0.07075924
000030 5d 79 2d 3e e0 58 5c bd 91 79 17 bc 6b b6 9d 3b
       0.16940828 -0.053795695 -0.009245292 0.0048130057
000040 6e ab ba 3d fd 99 62 3e 2a 27 3a be 8f 0f 0b 3d
       0.09114729 0.22129054 -0.18179002 0.033950385
000050 5b 66 46 3c 14 d5 46 be 03 e7 27 3d 58 4c eb 3d
       0.012109364 -0.1941722 0.040991794 0.11489171
000060 51 d7 a5 3d 71 8e 40 be da 46 3b 3e ed 87 0d 3e
       0.08097709 -0.18804337 0.18288746 0.13821383
000070 6b 1e 93 bd 03 e5 69 3d 57 30 4c 3e 42 09 4d be
       -0.07183536 0.05710317 0.19940315 -0.20023063
000080 55 eb 76 3d 7f d7 72 3e a5 58 25 be 67 7d b4 3d
       0.060283024 0.23715018 -0.16147096 0.08812981
000090 39 7f 0a 3e 86 0e 2e 3c 44 21 5c 3e b9 0d 90 bc
       0.13525094 0.01062358 0.21497065 -0.017584668
0000a0 74 00 0e 3d 72 b4 63 3e 7a 0c 85 bd 59 43 01 3d
       0.0346684 0.22236803 -0.0649652 0.03155837
0000b0 2a 02 cc 3d 21 a5 a0 3d 7c c0 08 be a0 a3 1d be
       0.0996135 0.07843996 -0.13354677 -0.15394449
0000c0 a6 be 6a be 9d 07 1d bd 22 bb 07 be d2 8c 25 be
       -0.22924289 -0.03833734 -0.13254979 -0.16167
0000d0 17 37 1d 3d 53 3c 28 3d 1f d5 1c be c5 6d b1 3d
       0.038382616 0.041073155 -0.15315674 0.08663515
0000e0 40 3f 38 be bf 0f 2b bd a9 d9 fd bc c5 fe 6e 3e
       -0.17992878 -0.041763064 -0.030987578 0.23339374
0000f0 cc 97 3f bd c7 41 b5 3d 5e 45 57 be cc 24 4b be
       -0.046775624 0.08850437 -0.21022555 -0.19838256
000100 72 0c 4b 3e eb 0d 04 3e 51 1f 33 3e a8 45 63 be
       0.19828966 0.12895934 0.17492415 -0.2219454
000110 4f 26 15 be dd cd 23 bd 0b 86 9b 3d dc 80 6d 3e
       -0.14565395 -0.03999125 0.07593926 0.23193687
000120 76 8f 4b be cd 7a f0 bd fe ef 4a be 46 d4 15 be
       -0.19878945 -0.117421724 -0.19818112 -0.14631757
000130 b6 6b 44 3e fc 29 82 3d ed bd 69 be 7b 6f 21 3e
       0.19181713 0.06355664 -0.22826357 0.15765183
000140 15 3b 9f bc 33 e8 24 3e c0 72 52 be 70 44 55 3d
       -0.019437352 0.16104202 -0.20551586 0.05206722
000150 3a b4 20 be 48 7c 50 be 11 be 26 3e 84 20 62 3e
       -0.15693751 -0.2035991 0.16283442 0.22082716
000160 9a 5c 43 bd c3 17 97 bd 68 1c 35 3e 2e a1 6d 3e
       -0.047695734 -0.07377579 0.17686617 0.23206016
000170 e4 cd 6c 3e f8 d1 36 be 54 89 30 be f8 50 ef bd
       0.23125416 -0.17853534 -0.17239887 -0.116853654
000180 9e fa 7d 3d 44 a0 93 bd 60 0f db bd be 08 38 3e
       0.062006585 -0.072083026 -0.10696292 0.17972085
000190 e9 5a 04 3e 41 a1 01 be 7d f2 44 3d 55 75 58 3e
       0.12925304 -0.1265917 0.048082817 0.21138509
0001a0 a9 72 b6 bc 50 53 02 3e 85 57 c0 3c 46 dc a9 bc
       -0.022271471 0.12727094 0.023479233 -0.020734917
0001b0 4a 04 ed 3c db 03 2f 3e c3 1e 46 3e b1 79 6b be
       0.02893271 0.17091314 0.19347672 -0.2299564
0001c0 79 ff 64 3e 1c a9 5e 3e 55 ef 55 3e 90 54 77 3e
       0.2236308 0.21744198 0.20892079 0.24153352
0001d0 2e 84 5d be 58 ea b8 3b 5e 76 5d 3e 9b de b6 bd
       -0.21632454 0.0056431703 0.21627185 -0.089291774
0001e0 d0 82 0e bc b5 b2 21 bd 08 16 9c bd e7 9a 92 3d
       -0.00869818 -0.03947707 -0.076213896 0.071584515
0001f0 a7 fc 6d 3e b8 74 50 bd 45 d7 21 bc e4 6a da bd
       0.2324091 -0.05089256 -0.009877984 -0.10664919
000200 9b 2e 56 be 90 2a c8 bc c8 bf d9 bc 36 90 41 bc
       -0.20916216 -0.024434358 -0.026580706 -0.011814168
000210 79 0a 3d be 40 8a b5 bc ed 6a 9a 3d 68 0a de 3d
       -0.18461026 -0.02216065 0.07539926 0.108418286
000220 62 f6 2f 3e 49 b5 74 3d fc 0f ac 3c 61 7c e3 3d
       0.17183831 0.0597432 0.021003716 0.11107708
000230 08 04 c3 bd 54 a0 3a 3e e6 6f 1a 3e e5 b3 c9 bc
       -0.09522253 0.18225223 0.15081748 -0.024621913
000240 9f fa 77 be 51 dc 70 3d 37 04 05 3d 37 ce 48 be
       -0.24216698 0.05880386 0.032474723 -0.19609915
000250 c2 50 3f 3e b2 d7 50 be 14 1d 9d 3c 2d b0 1f 3e
       0.1868315 -0.20394781 0.019178905 0.1559455
000260 10 41 4d 3e 1d 2d 1b be 87 90 62 3e 79 83 21 bc
       0.2004435 -0.15153928 0.22125445 -0.009858006
000270 27 0d 64 3e 69 7b 25 be 35 dd 33 bd fd dc ff bc
       0.22270642 -0.16160358 -0.04391213 -0.031233305
000280 18 7f a5 bb b3 30 b8 3d 49 03 67 be 89 e3 33 be
       -0.005050551 0.08993664 -0.22559847 -0.17567267
000290 be c5 5c 3e 29 a6 49 3d 6b 5a 5d bd 62 19 11 be
       0.21559808 0.04923073 -0.054041307 -0.14169839
0002a0 c2 1c c7 bd dd 6c 7a 3d 77 83 bc bd 24 b2 20 be
       -0.09722282 0.061138976 -0.092047624 -0.15692955
0002b0 c2 56 0c 3e d1 93 94 bd 88 86 6f be 2e 88 d9 bc
       0.1370497 -0.07254756 -0.23391163 -0.026554193
0002c0 53 69 06 3e 95 15 57 be 2c 12 d0 bd 31 95 04 3e
       0.13126116 -0.21004327 -0.10159716 0.12947537
0002d0 71 13 6c 3e 06 01 62 be 84 c3 6c 3e 91 1a 0b 3d
       0.23054291 -0.22070703 0.23121458 0.033960883
0002e0 0e a3 29 be fb d9 64 3e f3 c7 ee 3d ab 84 4b 3e
       -0.16566107 0.22348778 0.11659231 0.19874828
0002f0 f4 56 f8 bd a6 0e df bd 09 7e 5e bb a1 1b 8f bd
       -0.1212596 -0.10891466 -0.0033949635 -0.06987692
000300 96 6d 56 3e 25 5d 4d bd 95 c1 ac 3c b5 66 f3 bd
       0.20940241 -0.050137658 0.0210884 -0.11884824
000310 df 32 35 3e 4e e1 6e be 41 5b 3f 3e e2 95 1f 3d
       0.17695187 -0.23328134 0.18687154 0.0389613
000320 7c 51 11 3e 0b 4d 58 3e 1a 95 3e be 2b 55 fb 3d
       0.1419124 0.2112314 -0.18611565 0.12272104
000330 4f 76 a3 3c 5a c7 db bc 92 d3 53 bd d1 c3 58 be
       0.019953875 -0.026828457 -0.05171544 -0.21168448
000340 74 79 25 3e de da 74 3e 0b c4 05 be 60 b3 40 3e
       0.16159612 0.23911616 -0.13063066 0.18818426
000350 2b 19 63 3e a4 ab 17 be 71 75 5a bd 03 3f 92 3d
       0.2217757 -0.1481157 -0.053334657 0.07140925
000360 7a 89 14 be 32 54 f4 bd 02 71 1f 3e fc 87 dd bd
       -0.14505568 -0.119301215 0.15570453 -0.108169526
000370 79 31 46 3e 59 97 e7 39 19 a7 4e 3e 05 f3 5a 3e
       0.1935481 0.00044172516 0.2018093 0.21381767
000380 4c f1 67 3e d0 1e 2e be e4 ad 2e 3e 8f 3d 32 3c
       0.22650641 -0.17003942 0.17058522 0.0108789345
000390 9d f3 70 3e 3d 8d 14 3e a7 21 aa 3d 49 3e 96 bd
       0.23530431 0.14507003 0.083072 -0.07336099
0003a0 91 4d 56 be 0d ab 66 3e b4 22 1c be 7b aa 24 3e
       -0.20928027 0.22526188 -0.15247613 0.16080658
0003b0 ed ed 71 3d e4 d8 15 3d aa d6 56 3e 0d 78 61 be
       0.059064794 0.036583796 0.20980325 -0.22018452
0003c0 23 87 50 be 63 4d 3c be f3 65 a0 3d 92 51 00 be
       -0.2036405 -0.18388896 0.07831945 -0.12531117
0003d0 7a 42 6d 3e 38 4f 37 3e 5e c2 56 bd ef e8 09 3e
       0.2316989 0.17901313 -0.052431457 0.13467763
0003e0 28 b8 6a be 85 d0 1a be d1 a2 65 3e 6d 9e ad bd
       -0.22921813 -0.15118606 0.22425391 -0.08477483
0003f0 8a ef 5d be 08 70 25 3e 39 bf 4a be ca 25 28 be
       -0.21673408 0.16156018 -0.19799508 -0.16420665

GlucoseModel.fc_layer1.bias f4 [16]
000000 21 47 78 3e f5 00 5e 3e 62 ab bf 3b da b3 12 be
       0.24245884 0.21680053 0.005849288 -0.1432642
000010 68 51 d6 3d 29 63 87 3d 7a a9 46 be c2 be e7 3c
       0.10464746 0.0661071 -0.19400588 0.028289203
000020 02 b2 72 3e 19 f9 d0 bd 3d 22 40 be ac bd 0b bd
       0.23700717 -0.102037616 -0.18763061 -0.034116432
000030 d2 23 19 3e 52 3f ba bd 4b 78 30 bd 77 95 3c be
       0.1495507 -0.09094109 -0.04308347 -0.18416391

GlucoseModel.cgm_mu.weight f4 [1, 16]
000000 9b 74 ab 3c 26 aa a4 bc 7c 22 f4 3c 16 2b d3 3c
       0.020929625 -0.020100664 0.0298016 0.02577738
000010 38 b5 a6 bc 91 4f 15 3d be be b4 3c 85 09 df 3c
       -0.020350084 0.036452834 0.02206361 0.027226219
000020 fe 44 d2 bb 3b de 5a bc dd d1 af 3c 59 92 7e 3c
       -0.006416916 -0.013358648 0.021462375 0.015537822
000030 50 60 23 bd 58 c7 c9 3c df b4 5e 3c 83 63 15 bd
       -0.039886773 0.024631187 0.013592928 -0.036471855

GlucoseModel.cgm_sigma.weight f4 [1, 16]
000000 16 33 1d 3d e4 98 87 bc fb b6 c9 3c 93 c4 09 bd
       0.038378797 -0.016552396 0.024623385 -0.033634733
000010 20 69 a8 bc 61 82 16 3c e6 70 f2 3b ad ee e6 3c
       -0.02055794 0.009186358 0.0073987124 0.028189981
000020 77 63 00 3d 30 ea 14 bd b0 da 1e bd d9 68 cd 3b
       0.031344857 -0.03635615 -0.038782775 0.0062686023
000030 13 d1 bc bc 85 55 a1 3c 31 f9 a0 bc 07 68 22 3b
       -0.023048913 0.0196941 -0.019650074 0.0024781243

ValueModule.fc_layer1.weight f4 [32, 16]
000000 1a c3 5a 3e e8 c8 49 3e 3a 1f 92 bd 5c e0 a5 be
       0.21363488 0.19705546 -0.07134862 -0.32397735
000010 55 04 ef bd d5 7a 8f bd 4c de 9f 3e 86 61 92 3c
       -0.11670748 -0.0700585 0.31224287 0.017868768
000020 bc b1 99 be 45 f9 aa be c7 46 a2 bd 3e c8 f7 3d
       -0.30018413 -0.33393303 -0.07923656 0.1209874
000030 2c 56 5e 3e e8 2e 0b 3e 9f 32 4a 3e f5 8a 03 3e
       0.2171256 0.13592112 0.19745873 0.12845977
000040 b9 4d c9 3e 21 01 72 be 36 f7 9a bd 8e 47 01 3e
       0.3931711 -0.23633243 -0.07566683 0.12624952
000050 f7 3e 1d 3f 09 9f 5c 3d a4 eb 6d be eb cd 75 3e
       0.614242 0.053862605 -0.23234421 0.24004333
000060 59 b0 03 3e 43 3b 9a be 55 a4 ff 3e 93 c2 e4 be
       0.1286024 -0.30123338 0.49930063 -0.44679698
000070 86 0f 3c 3e 1e bb a3 be ab 06 ef 39 3d 16 e7 be
       0.18365297 -0.31978697 0.000455906 -0.45134154
000080 39 af bd 3e ad 8a 01 3e 47 3a 25 3e 8a 17 f6 be
       0.37047747 0.12650557 0.16135512 -0.48064834
000090 40 ef 41 3e 88 b0 ad 3e 59 ce 24 3e 77 3f 9a bd
       0.18938923 0.33923745 0.1609434 -0.07531636
0000a0 0b c6 15 bd 8c e4 a1 bd 30 c2 ef 3d cb f1 c3 ba
       -0.03656582 -0.0790492 0.1170696 -0.0014949379
0000b0 28 f5 b9 3e ce ef e1 bd 64 7a a4 3e b3 b9 e8 be
       0.36319852 -0.11032067 0.32124627 -0.45454177
0000c0 c5 ae ef 3e e7 c5 b5 be b8 f7 dc be 5a 44 3a be
       0.46813026 -0.3550255 -0.43157744 -0.18190137
0000d0 4d c1 91 3e a9 49 ca 3d a7 00 92 be 9b ac b9 3e
       0.2846779 0.09877331 -0.28516123 0.362645
0000e0 d8 17 76 3e 6a b2 6b be 45 7d ce 3e 8b 68 a1 be
       0.24032533 -0.23017278 0.40329948 -0.31525072
0000f0 e2 66 f9 3d ed 13 af be 1d 98 8e 3e dc be b2 bd
       0.121778265 -0.3419489 0.27850428 -0.0872781
000100 7c a6 0e 3e bc 07 6c bd 2d 2a 7a 3e 62 c8 c9 be
       0.13930696 -0.057624564 0.24430151 -0.39410692
000110 55 43 f0 3e 23 11 a7 3e a9 c0 3b bd 98 3a e7 bc
       0.4692637 0.32630262 -0.045838032 -0.028226182
000120 16 69 1f bb a0 7a 9a be cd 47 50 3e 68 a1 9c bd
       -0.002432411 -0.3017168 0.2033989 -0.07647973
000130 d6 a7 70 3e ec d2 a3 be 18 dd 79 3d 52 e2 89 be
       0.23501524 -0.31996858 0.061001867 -0.2693048
000140 34 54 89 3e eb a1 f8 3d 44 f9 82 3e ad d4 a9 be
       0.26822054 0.121402584 0.255808 -0.3317007
000150 79 a4 4e 3e e7 96 b6 3e e9 41 00 3d 9d 95 38 be
       0.20179929 0.35662004 0.031312857 -0.18025823
000160 76 27 48 3e eb 00 8f bd c4 43 b3 bd 91 8d 03 be
       0.19546303 -0.06982597 -0.0875316 -0.12846972
000170 35 8e 91 3e a6 2f 98 be b9 11 26 bd 46 58 a4 be
       0.28428808 -0.29723853 -0.040544245 -0.32098597
000180 92 e7 ae bd 7d 6e e1 3c ee b7 80 3e e4 db 6a be
       -0.08540262 0.027518505 0.25140327 -0.22935444
000190 75 67 97 3c 98 c2 66 3e 04 1f 9b bd af 13 b0 bd
       0.01848195 0.22535169 -0.07574275 -0.08597504
0001a0 d1 47 5b be 34 a4 9b be cd 25 93 be 70 dc 8f bd
       -0.21414115 -0.30398715 -0.28739777 -0.07024467
0001b0 e7 88 a9 3d d8 ea 98 3d 07 12 26 3e 0d 18 fc bd
       0.08278065 0.07466668 0.16217814 -0.12309275
0001c0 c3 ae 80 bd e6 e1 d5 bd f5 22 5b be a4 1b f7 bd
       -0.06283333 -0.10443477 -0.21400054 -0.12065819
0001d0 24 fe 0e be 8a af e4 3d 77 3e 34 3d 4f 2c c8 3d
       -0.13964134 0.11166294 0.044004884 0.09774076
0001e0 32 8b b8 3d f1 38 54 be 73 00 56 bc 6d ee a5 3d
       0.090109244 -0.20724846 -0.013061631 0.08102117
0001f0 5e 5f 61 3e 85 13 8a 3d 9d 36 4d be 48 b1 ea bd
       0.22009036 0.06742004 -0.20040365 -0.11459595
000200 68 b7 2e be 1c 96 96 bc 3e 20 6a be 90 db b8 3e
       -0.17062151 -0.018382125 -0.22863862 0.36105013
000210 22 8e 1a be 79 81 41 3e f1 9a 03 3e 33 3d 69 3d
       -0.15093282 0.18897046 0.12852074 0.05694313
000220 08 0f 22 3d ba 13 56 bd f0 ea 10 3e 59 05 a4 be
       0.039565116 -0.052264906 0.14152122 -0.3203533
000230 14 72 cd bd 4b 61 a9 bd ba 63 f6 3d 17 b7 3e be
       -0.10031524 -0.0827051 0.1203074 -0.1862453
000240 80 ad f5 3e 79 49 fe bd 02 32 98 bc cd b2 19 be
       0.47983932 -0.124163575 -0.018578533 -0.15009613
000250 c7 97 44 3e df 0d 4a 3e e9 e5 47 be f3 77 5b 3d
       0.19198523 0.19731854 -0.19521298 0.05358119
000260 8f 19 98 3e cd 8b 77 3d 10 69 02 3f ee bd b8 be
       0.29707 0.06043606 0.5094156 -0.36082405
000270 6c 59 f5 3d 64 e0 dc be ab 52 d9 3d 07 1d 95 be
       0.119799465 -0.43139946 0.10611471 -0.2912371
000280 b5 8f 89 3e d5 a6 01 3e a2 a2 7b 3e 4e 82 49 be
       0.26867452 0.12661298 0.24573758 -0.19678614
000290 75 b4 3d 3e 7d 47 5b 3e 53 f7 4c 3e fb 34 52 be
       0.1852587 0.2141399 0.20016222 -0.20528023
0002a0 a5 08 d4 3a d5 0a 5f bd 3a a8 e8 3d f2 e7 ec 3d
       0.0016176893 -0.05445369 0.11360212 0.115676776
0002b0 d7 8c 3e bd 7d 6a 98 bc c0 94 59 3d c8 4d 8f be
       -0.046521034 -0.018605465 0.053120375 -0.2798903
0002c0 c5 98 16 be 57 e6 91 3e fe b9 35 3d 27 a3 f9 3d
       -0.14706714 0.28496048 0.04436683 0.12189322
0002d0 07 f8 8d 3d 43 88 dc bc 48 2c 8c 3e fe 8b 20 3d
       0.06932073 -0.026920443 0.27377534 0.039196007
0002e0 3e af f2 bd 6d 78 a8 be 9c d5 c6 ba b3 e2 45 3e
       -0.11849831 -0.32904378 -0.0015169862 0.1932476
0002f0 39 aa 94 3d 21 96 ee 3d 1f f3 4f 3d ab f8 01 be
       0.0725903 0.116497286 0.050768968 -0.12692516
000300 ae f6 1d 3e b1 78 53 be 74 67 99 3c c5 53 ea 3d
       0.15426132 -0.20651509 0.018726088 0.11441759
000310 25 6e 46 be 8c 55 3e 3d 46 fd 83 3e 59 5e 1f 3e
       -0.19377954 0.046468303 0.2577917 0.15563335
000320 04 36 dc 3d 5a 08 1b be cb 0f 0c be bf fb 46 3d
       0.1075249 -0.15139905 -0.136779 0.048579928
000330 03 9f 83 be bc b0 38 3e 88 cd 6d 3e e1 5f 80 bb
       -0.25707254 0.18036169 0.23222935 -0.0039176797
000340 1e c0 30 be e9 2b 10 3d 2c 57 a1 3d 43 d7 3c 3e
       -0.17260787 0.035198126 0.07877955 0.18441491
000350 e1 be 32 bf 5a 7e 09 3e 62 cd a2 be 81 ec 99 bd
       -0.6982251 0.13427106 -0.3179732 -0.07515813
000360 3a c7 b5 3e d2 b5 05 3e ef 17 06 be a2 cd d1 bd
       0.3550356 0.1305764 -0.13095067 -0.102442995
000370 fb de 7c bc bd 9a d3 3d c7 59 ba bd 42 97 22 3e
       -0.015434022 0.10332248 -0.09099155 0.15878013
000380 40 60 09 3e 07 91 93 bd d2 0e e7 bd 1a e5 d1 be
       0.13415623 -0.07205396 -0.112821236 -0.40995103
000390 bb 11 8b 3e 09 5d 78 3e 68 62 ba 3c 9c 37 a0 be
       0.27161965 0.2425424 0.022752002 -0.31292427
0003a0 8f 9d 98 bd 60 f4 e0 be d2 59 c6 bd 34 82 11 be
       -0.07451927 -0.43936443 -0.096851006 -0.14209825
0003b0 ef b7 c0 3e 3d 4f 0f be ce 5f 43 3e 82 1b 6e be
       0.3764033 -0.13995071 0.19079515 -0.23252681
0003c0 7b 52 a0 bc e1 da af 3e 87 56 d2 bc bd 4c 6f be
       -0.01957058 0.3434668 -0.025676025 -0.23369117
0003d0 ab 81 d5 3c 2a 74 c6 3d e8 7d 3a bd 6b 89 f7 bd
       0.026062807 0.09690125 -0.04553023 -0.12086757
0003e0 37 66 65 be d9 f3 cb bc 16 cb 54 be bb 5c 77 bd
       -0.22402273 -0.024896549 -0.20780596 -0.06039117
0003f0 6a b9 ab 3d 5a ad 35 3e 32 6c 0e bd 89 d7 9b 3d
       0.08384974 0.1774191 -0.03477115 0.076094694

ValueModule.fc_layer1.bias f4 [32]
000000 49 2c 10 3d 4f e2 98 3d 6e 96 fa 3d 05 05 37 3d
       0.035198484 0.0746504 0.122357234 0.04468252
000010 96 de d6 3d 63 99 4d be 25 45 4a 3e 23 18 36 be
       0.10491674 -0.20078044 0.19752939 -0.17782645
000020 9f 47 f7 3c a4 ab d2 3d 38 b5 30 3e 35 f6 0b 3e
       0.030185519 0.10286644 0.1725663 0.1366814
000030 39 1d 66 be 47 5b 39 3e d2 fd 63 bd 27 8a ed 3d
       -0.22472085 0.18101226 -0.055661984 0.11598616
000040 43 0f 6f 3e 33 63 eb 3d dc 8b e5 3d 50 8e 9e bd
       0.23345666 0.1149353 0.11208317 -0.07741988
000050 c0 3a 81 3e ee c9 50 be 4d d5 eb 3c 19 cc 86 3e
       0.25240135 -0.2038953 0.028788233 0.2632759
000060 b0 1f 91 bd 3b 6c 7d be 6a c4 69 3e 31 12 8c 3d
       -0.07086122 -0.24748318 0.22828832 0.06839407
000070 9e 8c 1b be c5 57 42 3e a1 83 75 3c bc cc 72 3e
       -0.1519036 0.18978794 0.014984996 0.23710912

ValueModule.fc_layer2.weight f4 [32, 32]
000000 94 f8 42 3e 42 c2 84 be 9e 08 08 3e ce 73 3a bc
       0.19040138 -0.25929457 0.13284537 -0.011380149
000010 b0 98 4c 3e 9d 7e 5b 3e 98 7c 06 bc 97 c2 78 3d
       0.1998012 0.21435018 -0.008208416 0.06073245
000020 5e 4b 41 3e 7c 4b b2 bc 49 5e 3e 3e 70 24 93 3e
       0.18876407 -0.02176451 0.18590654 0.28738737
000030 1a d6 69 bd d4 01 b0 3e 4d 53 59 3e 3b 2f 84 3e
       -0.05708895 0.34376395 0.21223183 0.25817284
000040 d9 b1 85 3e ae 20 90 3e 41 5a 5b be 8c 11 1b 3e
       0.2611225 0.28149933 -0.21421148 0.15143412
000050 e3 2a 59 3e 94 41 ba 3d 2d ba 2a 3c 5e 72 82 3d
       0.21207766 0.09094539 0.010420364 0.0636947
000060 a8 29 b2 3d 45 e9 78 3d c3 23 04 3d 1f c9 00 3e
       0.086993515 0.06076934 0.032260668 0.12576722
000070 25 65 ab 3d f3 b2 a0 bd dd 6f 86 3e e2 1b 3d 3d
       0.08368901 -0.07846632 0.2625722 0.04616917
000080 1f a6 d3 3d 5d 27 2a 3d 0e fd 99 bc d2 76 0d be
       0.103344195 0.041541446 -0.018797424 -0.13814858
000090 3f 21 d4 bc 19 53 13 3e 16 be 8a 3e 03 32 16 be
       -0.02589476 0.14387168 0.2709815 -0.14667515
0000a0 a4 9d 91 3e 90 90 b8 3c d5 61 67 3e 32 f8 3e 3e
       0.28440583 0.02252987 0.22595914 0.18649366
0000b0 3c 10 1e 3e 2b 0c 8a 3e b4 87 76 bc c8 be d5 3d
       0.1543588 0.26962408 -0.015047003 0.10436779
0000c0 c4 2a 3b 3e 16 01 c5 3c 1d f9 ba bd 39 74 0b 3e
       0.18278033 0.02404837 -0.09129546 0.13618554
0000d0 5d b2 46 3d 7b 25 0e 3d 3d 56 5b 3e c8 d6 a8 bc
       0.048509944 0.034703713 0.21419616 -0.020610228
0000e0 83 c8 c5 3d 28 be b9 bd 62 58 b4 3d a2 8a 54 3e
       0.09657385 -0.090694726 0.0880592 0.20756009
0000f0 aa 7e c9 bd 0a 09 3d bd 06 88 7d 3d 88 03 ca 3d
       -0.098386124 -0.0461512 0.0618973 0.09863955
000100 98 df 8e bd 65 1c 7c 3e 78 94 52 3e 7d 03 b2 3e
       -0.06976241 0.24620207 0.20564449 0.34768286
000110 77 80 03 3e 4c 65 5f 3e 7b 43 65 3e 3c 24 c3 bc
       0.12841974 0.21815985 0.22389023 -0.023820989
000120 b8 f1 ff bd 23 fd ad 3e 24 17 93 bd 99 a1 60 3e
       -0.12497276 0.3398219 -0.07182148 0.21936645
000130 f3 e2 14 3e bf d3 cf be e4 be 80 3e 50 ad f3 3d
       0.145397 -0.40591237 0.25145638 0.11898291
000140 78 14 1b 3e 49 b7 2d 3d a2 53 6e 3d 7c af f4 bd
       0.15144527 0.042411122 0.058185227 -0.119475335
000150 1f 8a 67 3e f1 77 ec bb c5 c6 9a 3e a8 a7 ed 3d
       0.22611283 -0.0072164466 0.30229774 0.116042435
000160 77 a3 fe 3d bf f5 d1 3d 0f f7 c1 bd 14 12 ea bd
       0.12433522 0.102519505 -0.09470951 -0.114292294
000170 b6 ef 55 bd 9f b0 bc bd 5d ce 26 bd 2b 50 c3 3d
       -0.05223056 -0.09213375 -0.040724147 0.09536775
000180 c4 69 76 3d dd 1b f5 3c 72 19 0d bc 35 e5 03 3d
       0.06015946 0.029920513 -0.008612024 0.03220101
000190 10 13 2e be 62 57 d8 3c be 20 04 3d e9 9b c1 3d
       -0.1699946 0.026408855 0.032257788 0.094535656
0001a0 dd c9 df 3d 04 49 22 3c 35 66 96 3b 79 b7 8f bc
       0.10927174 0.009905104 0.0045898207 -0.017543541
0001b0 7e 88 32 3e 1d 89 c7 3e 04 83 54 be e4 95 30 3e
       0.1743488 0.38971797 -0.20753103 0.17244679
0001c0 48 fe 34 3e 53 fe 1a 3e d3 f9 73 3c b7 25 aa bd
       0.17675126 0.1513608 0.014891106 -0.08307975
0001d0 71 89 96 3d ef d3 0a 3e f4 cd 52 be 3e e7 8e 3e
       0.073504336 0.13557409 -0.20586377 0.279108
0001e0 07 80 98 3d 69 99 fa bd 98 32 5b 3e a2 e1 63 3d
       0.07446294 -0.12236292 0.21406019 0.055635102
0001f0 11 34 9f bd c5 dd b1 3c 09 55 c4 3c a0 59 6a 3e
       -0.07773603 0.021712193 0.02396633 0.22885752
000200 65 88 72 bc 0c 80 34 3e 6d d4 14 3e 23 31 8f 3e
       -0.014803027 0.17626971 0.14534159 0.27967176
000210 49 cf 57 3d 7a 53 4f 3e 47 99 c3 bd 4e 45 00 be
       0.052687917 0.20246688 -0.0955072 -0.12526438
000220 19 b1 5a be 83 55 27 3e 74 29 da 3d a8 04 d6 bc
       -0.2135662 0.16341214 0.10652438 -0.026125267
000230 00 e4 c5 3c fc 96 4a be e4 89 b8 3e 32 90 2e 3e
       0.02415657 -0.19784158 0.36042702 0.17047194
000240 4c 8a b7 3d 3a d8 11 3e c0 be a8 bc b7 c5 fd bd
       0.08961925 0.1424264 -0.02059877 -0.12391227
000250 51 51 4a 3e 7a 72 18 3e 86 a7 42 3e e7 80 8a 3e
       0.19757582 0.1488742 0.19009218 0.2705147
000260 9b e3 49 bd 56 d0 14 be 28 7b ae 3d 43 45 95 3d
       -0.049289327 -0.14532599 0.08519584 0.07288601
000270 18 2a 62 be 88 7d 78 bc bc 90 8b 3c 5c 46 79 bd
       -0.2208637 -0.015166648 0.017036788 -0.060858116
000280 4f 6b 27 3e 9f 04 68 be 6e 3b a3 bd 2a 13 04 3c
       0.16349529 -0.22658013 -0.0797032 0.00806121
000290 81 37 86 3c d4 71 49 3e 00 b1 ab bd e8 77 51 3d
       0.016383888 0.19672328 -0.083833694 0.051139742
0002a0 55 39 96 3e 1a 78 17 be d2 f8 80 3e 31 84 92 3e
       0.29340616 -0.14791909 0.25189835 0.2861648
0002b0 90 28 23 3e 4f 21 b5 3d 71 9a 1c bc f6 20 d7 bc
       0.15933442 0.08844244 -0.009558306 -0.026260834
0002c0 47 31 27 3e 2c 5c bd 3d 34 9b 48 be 0b 31 bb 3d
       0.16327392 0.09246096 -0.19590455 0.091402136
0002d0 7c d3 bb 3d 09 6b af 3d 29 8c 1f 3e d0 11 2c bc
       0.09171197 0.08565337 0.1558081 -0.010502294
0002e0 40 4d f4 bd fb a1 ec bd b2 bc 05 3e 56 b5 43 3e
       -0.11928797 -0.11554333 0.13060263 0.19112143
0002f0 70 a2 05 3e 2c 78 64 bd ed 50 3f 3e a2 bd 3d bd
       0.13050246 -0.055778667 0.18683214 -0.046323426
000300 f5 c8 28 3e 96 8d 24 3e b3 85 fa 3b cb e1 bf 3d
       0.16482909 0.16069636 0.0076453327 0.093692385
000310 4f bb 0a be 0f 48 1e 3e b0 9d 48 3e aa 4c f1 3d
       -0.13548015 0.15457176 0.19591403 0.11782201
000320 b5 38 c2 3d 24 49 5a 3d 74 ad 40 3e 6b 17 72 3e
       0.09483472 0.05329241 0.18816167 0.23641746
000330 2b ec d0 3d de fd 07 3e f5 55 45 3e db 42 1e bd
       0.102012955 0.13280436 0.19271071 -0.038637977
000340 50 ed d4 3d 82 c8 36 3e fb b8 34 be c2 f1 11 3e
       0.10396826 0.17849925 -0.1764869 0.1425238
000350 8c 54 58 3e d9 51 1d be c0 38 ba bd 8a 5e 01 3e
       0.21126002 -0.15363254 -0.090928555 0.1263372
000360 6c 87 00 3d 6f aa 9c bd 8c f5 93 3a 71 a9 8a bd
       0.03137915 -0.07649695 0.0011288389 -0.067706
000370 fb ac d1 bd 43 cc fc 3c 31 0d 3a 3e 12 87 bc 3d
       -0.102380715 0.030859118 0.18169095 0.0920545
000380 d9 21 0f be da c7 28 3c 66 22 27 bd bc ad c1 3c
       -0.13977756 0.010301555 -0.04080429 0.023642413
000390 bc c0 27 3d a2 eb 17 3e 79 62 68 bb 06 e6 5c bd
       0.04095529 0.1483598 -0.0035459085 -0.053930305
0003a0 bb 02 50 be 5d d5 01 3d 50 02 c8 bd 09 f0 b6 3d
       -0.20313542 0.03169762 -0.09766066 0.08932502
0003b0 3d fe d4 3d 53 c1 89 3d 08 8d 3f 3d 37 35 50 bd
       0.104000546 0.06726327 0.046765357 -0.050832
0003c0 89 6e 8d bd 9f 73 2e 3e 70 2d 62 bd b4 da 1a 3e
       -0.069058485 0.17036293 -0.055219114 0.15122491
0003d0 cd b8 8c bd b7 e3 c3 3d 94 b1 05 bc ca 19 42 be
       -0.068711855 0.095649175 -0.008160014 -0.1895515
0003e0 b7 6b 2e be fb 25 94 3c 4c 59 38 3d 10 c9 8b 3b
       -0.17033277 0.018084517 0.045007035 0.004265912
0003f0 83 4e e9 bc 51 48 e1 bb ec a5 86 3d 9c 83 f8 bd
       -0.02847982 -0.006875076 0.06574616 -0.121344775

ValueModule.fc_layer2.bias f4 [32]
000000 1e c9 60 3e 24 6d 1e 3e 6a c7 25 3e 8c 52 54 3d
       0.2195172 0.15471321 0.16189352 0.051836535
000010 24 87 a1 bd 53 55 0c 3e 4a c2 f3 bc 60 7e 10 bd
       -0.07887104 0.13704424 -0.02975573 -0.03527677
000020 11 82 3f 3d 55 3e 23 3e 44 30 0d be 67 de 1c 3e
       0.0467549 0.15941747 -0.13787943 0.15319215
000030 dd 32 fa bd c8 93 13 3e f2 fd 1b be 7c 3a 2d be
       -0.12216733 0.14411843 -0.15233591 -0.16916841
000040 0a ad 3b 3e 7f 72 3a bd 94 51 14 3e 8a 8b 0b 3d
       0.18327728 -0.04551935 0.14484245 0.03406862
000050 07 d4 32 3e ff 7d 1d 3e 29 4b 33 3e 28 57 f5 bd
       0.17463695 0.15380095 0.1750914 -0.11979514
000060 4c 81 a4 3c aa 4e 18 3d f9 b0 92 bd 52 42 d6 3d
       0.020081185 0.037184395 -0.07162661 0.10461868
000070 41 c4 e1 3d 8b 8f 64 bc a0 f0 2d be c0 9e 1b 3e
       0.110237606 -0.013950239 -0.16986322 0.15197277

ValueModule.fc_layer3.weight f4 [32, 32]
000000 e6 e7 b7 3c b4 1d 44 bc 71 cb 2b be 60 9d c6 bc
       0.022449445 -0.011969972 -0.16776825 -0.024244964
000010 08 e3 73 be 77 fd a8 3c 35 5c f0 3d 90 8a 0f 3d
       -0.23817074 0.020628674 0.11736337 0.035044253
000020 90 94 ff bd 2e 52 b0 be 83 89 0a bd 3a d9 84 3e
       -0.12479508 -0.34437698 -0.033822548 0.2594698
000030 f4 7e 48 bd 9f 39 4a 3e 41 b1 cd 3d 4b 6f 2c be
       -0.048949197 0.19748543 0.10043574 -0.1683933
000040 1f 22 aa bd 15 2d 96 3d 3d 71 38 3e ea 5d 04 be
       -0.08307289 0.073328175 0.18011947 -0.1292645
000050 14 00 a7 3d ea be c9 3d 85 50 a6 3d 16 85 25 be
       0.08154312 0.09850867 0.08120827 -0.1616405
000060 a8 b1 1b 3e 27 f6 c6 3d 1f 9e 01 3a 04 e8 35 3e
       0.15204489 0.097149186 0.00049445214 0.17764288
000070 b2 ce 3e 3e 26 78 74 3e 2a c3 4d bd df 52 6e 3e
       0.18633536 0.23873958 -0.05023495 0.232738
000080 c2 3b 8a 3d cc b6 a3 bd 6d e6 14 be 5c b6 d2 3d
       0.06749679 -0.0799385 -0.14541025 0.102886885
000090 2f 01 bf 3d 8a 78 f4 bc cb 67 11 3e 7c b1 e8 3c
       0.09326398 -0.029842634 0.1419975 0.028404944
0000a0 0e c3 1f 3e f8 12 0f be 36 23 85 bd ca b3 ab bd
       0.15601751 -0.1397208 -0.065008566 -0.083839014
0000b0 c9 f9 ed bd 78 de 0c be 5d f0 0d be 4b ac ae 3d
       -0.11619908 -0.1375674 -0.13861223 0.08528956
0000c0 b3 bf b7 3d 31 c7 17 3d 76 64 29 3e b5 cf 42 bd
       0.089721106 0.037055198 0.16542229 -0.047561366
0000d0 5d 7b 81 be 52 85 4e 3d e2 9a e7 3d bc 10 1a bd
       -0.2528943 0.050420113 0.113088384 -0.037613615
0000e0 4b 62 fe 3c 2e 54 10 3e cd 5f 7c be ef c9 25 bd
       0.03105273 0.14094612 -0.2464592 -0.040475782
0000f0 05 73 0b bd af a4 6a 3c dc 25 85 bd a5 6e dd 3d
       -0.034045238 0.01432149 -0.06501362 0.108121194
000100 25 cc 12 3e b7 d5 a1 bd 70 0a 5f be cf c4 2b 3e
       0.14335687 -0.07902091 -0.21781325 0.16774295
000110 b2 ba 76 be 5c 74 9e bd 7e db 4c 3e 71 59 16 be
       -0.24094656 -0.077370375 0.20005605 -0.14682557
000120 bb 03 98 3d 99 1b fe bd ed 95 30 3b a1 e2 ff bd
       0.074225865 -0.124076076 0.0026944831 -0.12494398
000130 0e 77 92 3d 5a 91 ef 3c cb 0b 57 3e 87 81 64 b9
       0.07151614 0.029244114 0.21000592 -0.00021792027
000140 c9 59 7b be 1f 85 b5 bc c9 63 d4 bc 73 de f6 3b
       -0.24545969 -0.022158204 -0.025926488 0.007533842
000150 bd f3 d1 bb a6 77 1a 3e 9c 62 9b 3c 49 49 72 bb
       -0.0064072297 0.15084705 0.018967919 -0.003696995
000160 19 92 36 3e 98 76 40 3e c7 8e b3 3d 2a 23 57 3e
       0.1782917 0.1879524 0.08767467 0.21009508
000170 a6 c3 32 3e 2f 64 1c bd 5d dd 57 3d 75 f5 8b bc
       0.17457446 -0.03818148 0.052701343 -0.017084816
000180 04 73 1c bd 1b 0f c1 3c 50 9d 6d 3d a0 13 a0 3e
       -0.038195625 0.023566773 0.058011353 0.31264973
000190 f0 1e bd 3d 3c 3b 39 3e b6 78 be 3d 06 2e c9 3d
       0.092344165 0.18089002 0.093003675 0.098232314
0001a0 68 aa b6 3d dd 67 95 bc 1c ca fb 3d cb 18 0f 3e
       0.08919221 -0.018238002 0.12294409 0.13974302
0001b0 c6 7f f5 3c 60 61 5a bd c3 d0 e5 bd b7 10 22 bd
       0.029968154 -0.05331552 -0.11221459 -0.03956672
0001c0 08 11 0a 3e 5c aa 40 be cf cd c7 bd 8b 50 89 3c
       0.1348306 -0.18814987 -0.09756052 0.016762039
0001d0 dc 38 d5 3d 1e c3 08 3e ff 5f c1 bd 0d d6 2d 3d
       0.10411236 0.13355681 -0.09442138 0.042440463
0001e0 ee 9b 1e bc f5 a4 87 3e 29 25 fe bc d5 5c 34 3d
       -0.009680731 0.2649304 -0.031023579 0.044033844
0001f0 d1 c1 ba 3d 81 4a 4a 3d 86 78 14 be ab ba 70 3d
       0.09118999 0.04938746 -0.14499101 0.05877177
000200 6f fa 0c 3e 1b fc 6d 3e 48 db 39 bc 8d 7b e8 3d
       0.13767408 0.23240702 -0.011343785 0.113516904
000210 c9 3c 12 3e 23 3f 45 3e f6 8d 23 3e 07 52 c5 3c
       0.14281 0.19262366 0.15972123 0.024086965
000220 59 86 34 be 56 23 f6 3c 89 f7 a2 bb d7 ea 97 3d
       -0.17629375 0.030046146 -0.004973356 0.07417839
000230 67 b3 3d 3e 95 0e 45 3e a8 0c 18 bd db 36 25 3e
       0.18525468 0.19243844 -0.037121445 0.16134207
000240 06 5e b6 3d c4 b2 b0 bd 2d cf 89 ba b9 44 d7 bd
       0.08904652 -0.08627847 -0.0010514014 -0.10511155
000250 20 6d 5b 3e b5 9f 91 3d 0a 6e 17 3e 69 ed ea 3d
       0.21428347 0.0711054 0.1478807 0.11471064
000260 1e 4f 11 3e 72 4f 45 3d 28 97 84 bd ac 73 55 3d
       0.14190337 0.048171468 -0.06474143 0.052112266
000270 75 46 7e bb 14 c3 e5 3d 2b 46 17 3d 84 7b bd 3c
       -0.003879932 0.11218849 0.03693215 0.023130186
000280 3f a6 80 3e 41 9c e1 3d c2 ec 94 bd 4e e7 a0 3e
       0.25126836 0.11016131 -0.072717205 0.3142647
000290 fc d8 35 3e 88 67 fb 3d 35 fc 26 3e 8f 7b 04 3e
       0.17758554 0.122756064 0.16307147 0.12937759
0002a0 be d3 18 be eb 03 b7 bd fd 47 2d be 4b 5f 00 bd
       -0.14924523 -0.08936294 -0.16921993 -0.03134088
0002b0 14 31 43 bd 12 98 de bc cd a7 2b 3e 80 b5 28 be
       -0.047654226 -0.027172122 0.1676323 -0.16475487
0002c0 df b6 20 be 98 1a ee 3d ab 55 78 3e 7f b0 35 be
       -0.1569476 0.11626166 0.2425143 -0.17743109
0002d0 5e 5a 94 3e 70 e1 10 3e 68 e7 1c 3e 14 eb a2 bd
       0.28975195 0.14148498 0.1532265 -0.07954994
0002e0 22 6d 39 bc e9 9a 05 bd fa c0 67 bd 4a 3f 16 bb
       -0.011317523 -0.032618437 -0.05658052 -0.0022925907
0002f0 58 14 84 3e 19 7f 1f 3e c4 51 50 3d 9c b2 39 3e
       0.2579677 0.15575828 0.050859228 0.1813454
000300 91 55 17 3e fe 99 07 3e a5 e2 1e be d6 af 84 3e
       0.14778735 0.13242337 -0.15516146 0.25915402
000310 e7 05 81 be 85 31 39 3e 9f dc dd bc 07 27 7a be
       -0.25199816 0.18085296 -0.02708274 -0.2442895
000320 70 c7 b7 bd 5b 89 50 be f3 b6 32 bd 4f f6 4f 3e
       -0.089735866 -0.20364897 -0.043631505 0.20308803
000330 9f 1f f4 bd 20 4c aa bd 1f 6f 50 3e 2f 39 d7 3d
       -0.11920094 -0.08315301 0.2035489 0.10508954
000340 db fd 82 be e0 2c 58 3e 4f 62 01 3d f3 76 53 be
       -0.255843 0.21110868 0.031587895 -0.20650844
000350 50 d4 fd 3d a0 ce 24 3e db 4e 0b 3e 05 21 f9 bd
       0.12394011 0.16094446 0.136043 -0.12164501
000360 64 76 fe bd d3 24 8e 3e d2 67 85 3d 10 a2 80 3d
       -0.12424925 0.2776247 0.06513943 0.06280911
000370 ac 04 0e bd 04 ae 3a 3e d1 d5 17 3e d3 af 89 bc
       -0.034672424 0.18230444 0.14827658 -0.016807472
000380 e9 01 6a 3e a1 33 ca 3c d3 ed 85 be 98 85 14 bd
       0.22852291 0.024682822 -0.26158008 -0.036260217
000390 15 91 6d be 42 2c 12 3d f8 61 22 3e 65 f3 94 bd
       -0.23199876 0.03568674 0.15857685 -0.07272986
0003a0 ed ab a6 3d 38 11 80 be ee 3e c4 3d f6 2b 2f 3d
       0.08138261 -0.25013137 0.095823154 0.042766534
0003b0 a6 8a 50 3e d2 29 bc bd a4 75 2c 3d 9c 7e 4b bd
       0.2036539 -0.09187664 0.04210438 -0.04968129
0003c0 dd e7 c2 bd 91 fb 03 bc 6a a6 73 bd e4 73 c3 bd
       -0.09516881 -0.008055584 -0.059484877 -0.09543589
0003d0 45 97 e8 3d 42 64 d5 3d 68 97 27 3e fe fa 06 be
       0.113569774 0.10419513 0.1636635 -0.13181683
0003e0 35 06 3b 3e f9 35 04 3e b5 85 60 bd 92 d1 87 3d
       0.18264087 0.12911214 -0.054815013 0.06631769
0003f0 80 af 74 bd d6 46 44 bd f3 03 34 3d 6e 84 48 3e
       -0.059737682 -0.047919117 0.04394908 0.19581768

ValueModule.fc_layer3.bias f4 [32]
000000 1b c4 83 3d 1d c7 9f bd 74 70 67 bd 99 32 e3 3d
       0.064338885 -0.0780165 -0.056503728 0.11093635
000010 82 6a 70 bd c5 4a 25 3e 40 1e 90 3b e0 2b 33 3e
       -0.058695324 0.16141804 0.0043981373 0.17497206
000020 f0 fe 27 3e 0d fd c6 3d b0 18 b6 bd 85 ff 57 3e
       0.16405845 0.09716234 -0.088914275 0.21093567
000030 2a e8 4f 3e eb 9f 2f 3e f4 1b 16 be 90 0c 0e bb
       0.20303407 0.17150848 -0.14659101 -0.0021674968
000040 9b df dc 3d d1 f0 98 3b 31 67 ad 3d 17 60 c9 3d
       0.10784837 0.0046673794 0.08466948 0.09832781
000050 e6 b8 08 be 21 69 27 be e0 10 57 3e 8b 70 cd 3d
       -0.13351783 -0.16348697 0.21002531 0.100312315
000060 90 2f 23 be 13 2a 33 3d 9c 34 ce 3d d0 a2 5f 3e
       -0.15936112 0.043741297 0.10068628 0.21839452
000070 18 c5 65 3e e7 90 d5 bd b8 27 e0 3d 6e 0d 1b 3d
       0.22438467 -0.104280286 0.10945076 0.037854604

ValueModule.value.weight f4 [1, 32]
000000 54 b6 c4 bd 3c 28 f8 3c 85 0b d5 bd 48 ab f3 bd
       -0.09605089 0.030292623 -0.10402588 -0.11897904
000010 a7 2e 91 bd c1 35 c1 bd 6d 1e b1 bd 97 58 cd bd
       -0.07088976 -0.09434081 -0.086483814 -0.10026663
000020 d3 56 c3 bd 6a 5a fb bd 8b c2 35 3c db ae c0 bd
       -0.09538045 -0.122731045 0.011093746 -0.09408351
000030 98 35 72 3e 54 4f 8a 3e de 38 d9 bd be f1 3f 3e
       0.23653257 0.27013648 -0.1060655 0.18744561
000040 4e 13 ad bc 18 f6 91 bd 73 87 d4 bd cd b0 ce bd
       -0.02112737 -0.07127017 -0.103773974 -0.10092316
000050 d7 6d 88 3c 25 a4 93 3c c6 13 d4 bd 4a 69 52 3e
       0.016653938 0.018022606 -0.10355334 0.20547977
000060 c7 80 d9 bc b8 01 51 3c 75 fa b8 bc 48 f2 c6 bd
       -0.026550664 0.012756757 -0.022580365 -0.0971418
000070 51 ed bf bd 86 67 31 3e 0c 4f 3e bd 8c 00 49 3e
       -0.093714364 0.17324647 -0.046462104 0.19629115
