models/patient2/srpo_model_for_patient_2_Actor.pth (torch, 24039 bytes, 12 tensors)

weight_ih_l0 f4 [64, 2]
000000 5f fa 3b be 94 cd 2f be 6d c3 9b be 78 03 1d be
       -0.18357228 -0.17168266 -0.30422536 -0.15333354
000010 da 7b 4e 3e 3c 4a 2b 3d 43 e0 cb 3d da 51 63 be
       0.20164433 0.041818842 0.09954884 -0.22199193
000020 17 29 4c b9 7b 05 8e bc 9c 67 9a be 22 70 db 3c
       -0.00019470263 -0.017336598 -0.30157173 0.026786868
000030 61 ff 2f 3e 5f ec 57 be 6e 74 38 3e dd d7 50 3d
       0.17187263 -0.21086262 0.18013164 0.050987113
000040 15 b7 f4 3c 56 79 a2 3d 6a 21 e1 bd dd 02 d4 3c
       0.029872457 0.07933299 -0.10992701 0.025880272
000050 a4 be 94 be c9 1b 12 bd 0a e7 09 bd 2a 99 28 3e
       -0.29051697 -0.03567103 -0.0336676 0.16464677
000060 1d 91 63 3e 81 13 19 be 5b 11 f5 3d 90 2f 17 3e
       0.22223325 -0.14948846 0.11966201 0.14764237
000070 76 7f 87 be 4d c6 a5 bd 32 cc 75 bb f7 f4 f6 3d
       -0.26464432 -0.080944635 -0.0037505743 0.12058442
000080 be 3a 0b be 2e 3f be bd c1 d9 e3 3c 13 d6 2b be
       -0.13596627 -0.09289394 0.027813794 -0.16780882
000090 61 b8 37 be a8 dd 68 3c a8 02 1e be 51 39 47 3e
       -0.17941429 0.014213003 -0.15430701 0.19455458
0000a0 c2 8d aa 3d d9 92 8c be b9 5f 71 3d 86 0a 1a 3e
       0.083278194 -0.27455786 0.05892918 0.15043077
0000b0 0f 72 5a 3d ce 25 f3 bd 5e 43 4a bd 9a 91 8a be
       0.05333143 -0.11872445 -0.049380653 -0.2706421
0000c0 48 13 81 be 2c a2 57 be 61 89 d9 bd f8 13 b3 bd
       -0.25210023 -0.21057957 -0.10621906 -0.08744043
0000d0 93 21 e6 bd ab 76 0c bd d9 d5 e4 bd 60 d9 36 3c
       -0.112368725 -0.034292858 -0.11173601 0.011160225
0000e0 f3 fa 81 bc cf ed 62 be ce 60 a1 3d c1 2c b0 be
       -0.015866732 -0.2216103 0.07879792 -0.34409145
0000f0 1b 2b a7 be 54 f8 8e 3d b5 cc 26 be 0c 67 87 be
       -0.32650074 0.069809586 -0.16289027 -0.26445806
000100 e2 0a 4a be 0a 81 0b 3e 30 de f7 bd 12 65 a3 be
       -0.19730714 0.13623443 -0.12102926 -0.31913048
000110 89 ba a5 bb cf 45 85 3e ea cf 62 3d bb b5 a1 bd
       -0.005057637 0.26029822 0.055374064 -0.078959905
000120 bb 0b 1f bd d0 54 9e 3e 51 2a 37 bd 25 2f 2c bd
       -0.038829546 0.30924082 -0.04471809 -0.042037148
000130 66 13 ae 3b f1 89 a5 3e 2b 01 aa 3c 1f ab f1 bd
       0.005312371 0.32331803 0.02075251 -0.11800217
000140 c1 18 63 3e 35 cd a6 bd cf e2 20 be d9 9a 8d 3e
       0.22177412 -0.08144609 -0.1571152 0.27657202
000150 67 4f ba be 66 44 7a be 4e ad 32 bd b8 4b 3c be
       -0.36388704 -0.24440154 -0.043622307 -0.1838826
000160 7f 17 ab 3c e0 5c 91 be 41 20 52 3e ef 33 9c be
       0.020885227 -0.2839117 0.20520116 -0.30508372
000170 ad be e3 3d 60 c9 92 bd da 57 27 3e 98 be 69 3e
       0.11120353 -0.071673155 0.16342106 0.22826612
000180 97 96 b9 3d fb 29 8c bd f8 b3 dd bd f0 84 bb 3d
       0.09061926 -0.06843945 -0.10825342 0.09156215
000190 8a 38 96 3d 20 53 3b 3c de ef 56 be 2e e5 4b be
       0.07335003 0.011433393 -0.2098994 -0.19911644
0001a0 14 2f e6 bd c2 bf a1 be fb 6c f9 3d 09 92 55 be
       -0.11239448 -0.31591612 0.121789895 -0.20856489
0001b0 21 d4 c2 3c 7c 69 cf bb 10 54 39 be 6c eb 2d be
       0.023782792 -0.0063297134 -0.18098474 -0.16984338
0001c0 70 bf f6 3d c9 d9 1e be 5e 78 ae 3d cd 4a a6 be
       0.120482326 -0.15512766 0.08519052 -0.32478943
0001d0 58 e4 92 be c7 9c 96 3d ed 1c 5c be 9a 8e 7f be
       -0.28689837 0.07354122 -0.2149541 -0.24956742
0001e0 83 3a ad be f7 f7 68 3c a4 43 a9 be fc f9 10 bd
       -0.33833703 0.014219276 -0.33059418 -0.035394654
0001f0 03 e1 5c bd 2b ee 0a bd 38 c1 64 bd 25 3a 3b be
       -0.053925525 -0.03391854 -0.05584833 -0.18283899

weight_hh_l0 f4 [64, 16]
000000 18 56 0f 3e a7 a2 71 3e 43 6a 81 3c e8 21 a0 bd
       0.13997686 0.23597203 0.01579774 -0.07818967
000010 5c 10 18 3e 4b 81 18 3e 4c 41 84 3d db f3 09 be
       0.1484999 0.14893071 0.06457767 -0.1347193
000020 7c 26 e3 bd 92 ac 45 be d6 3e 3c ba 4c 12 7c 3e
       -0.11091325 -0.19304112 -0.0007180994 0.24616355
000030 b8 fd 2f be b5 ec 91 3e 7a 71 60 3e 52 be 4c bd
       -0.1718663 0.28500906 0.21918288 -0.04998619
000040 47 9d 43 be 44 b6 29 3e 0c 1b 49 3d 63 ae 78 be
       -0.19102965 0.16573435 0.04909806 -0.24285273
000050 80 4d aa bd 70 02 a5 3d ce 89 57 be a7 85 e4 3d
       -0.08315563 0.080571055 -0.21048662 0.11158305
000060 7d a7 18 3e 11 47 86 bd 2b 0c e2 bd 13 ee 8e be
       0.14907642 -0.065565236 -0.11037477 -0.2791601
000070 da 6f fc bd 83 0d 40 3e 6b a9 36 3e c4 c9 86 bd
       -0.123260215 0.18755154 0.17838065 -0.065814525
000080 ba 1e 2c be c5 71 95 3e 28 a7 20 be 1a d4 4a 3e
       -0.16808596 0.29188362 -0.15688765 0.19807473
000090 42 76 ae bb 8e 54 25 be 86 e1 23 bc 73 d4 54 bc
       -0.005324156 -0.16145536 -0.010002499 -0.012990105
0000a0 d0 51 cb bd 4f f4 18 3e 65 ca c4 bd 03 fe bf bd
       -0.09927714 0.14936946 -0.09608916 -0.09374621
0000b0 9c a5 24 be f6 0c d7 3c b1 d5 54 3c fa 83 6c be
       -0.160788 0.026251297 0.012990401 -0.2309722
0000c0 97 c1 0f bc 3c dd 72 3d 0e 2c 19 be a4 73 a6 bd
       -0.008774183 0.059293017 -0.14958212 -0.081275254
0000d0 1d 36 1f be 87 51 12 3e a4 09 2c 3d 29 1c 79 bd
       -0.15547986 0.14288913 0.04200138 -0.06081787
0000e0 1c 9a 85 3e 1b a7 aa bd a9 75 e1 bd d5 4e 5d 3e
       0.2609414 -0.08332654 -0.1100877 0.21612103
0000f0 c0 a0 c8 37 78 49 6f bd f8 17 72 bd 99 45 e2 3d
       2.3916713e-05 -0.058419675 -0.05910489 0.11048431
000100 72 29 10 be fe 06 35 3e 94 d8 a3 3c b6 26 f2 bd
       -0.1407831 0.17678449 0.020000733 -0.1182379
000110 d5 bd e9 3d f5 1f 87 bd a7 ce 83 be e5 71 5e 3e
       0.11413161 -0.06597892 -0.257436 0.21723135
000120 19 c1 a0 3e a7 00 a7 be ff c3 c1 3d fd eb ce bd
       0.31397322 -0.32617685 0.094612114 -0.10103605
000130 35 ca 32 3e 4a 2a 48 3d 22 64 8b 3e 5d b2 79 be
       0.17459948 0.048868455 0.27224833 -0.24384446
000140 79 1d 20 be f8 0f 71 3e 14 d9 04 be d7 a8 15 be
       -0.15636243 0.23541248 -0.12973434 -0.14615189
000150 2d fa fd 3d 0f 43 1a be 10 5a 97 be 6a 2d 88 3e
       0.12401233 -0.15064643 -0.295609 0.26597148
000160 75 ab e3 bd 74 04 32 bd 8b f7 a6 bd a4 67 aa 3d
       -0.11116687 -0.043461278 -0.08152684 0.08320549
000170 f3 99 94 3e c2 d0 95 3e 1f 7f 81 3e 1a 7a 16 be
       0.29023704 0.29260832 0.25292298 -0.14695016
000180 f3 e7 09 3e d9 4c 29 3e d5 47 06 be c9 aa 8a 3d
       0.13467388 0.16533221 -0.13113339 0.06770856
000190 3c fe bf 3d cf 7c b0 bd 8d 4a 56 3d 72 c8 f6 bd
       0.09374663 -0.08617555 0.05231719 -0.12049951
0001a0 ba 44 9b 3e d8 5f 7d be 29 46 4f 3e 14 74 c0 3c
       0.30325872 -0.24743593 0.20241608 0.02349285
0001b0 60 7c 87 3e 75 20 87 3e 46 eb 27 3e ac d5 d2 3d
       0.26462078 0.2639195 0.16398343 0.10294661
0001c0 ed df 32 3c ff 33 50 bd c4 9c 1c be 09 0b 2e bd
       0.010917646 -0.050830837 -0.15294176 -0.042490993
0001d0 d0 c4 9f be d4 e5 ae 3d fd 41 ae 3d 75 aa f9 3d
       -0.31204844 0.0853993 0.0850868 0.12190715
0001e0 05 05 91 3d 30 a5 0e bd 2f f5 ed bd ed da 55 be
       0.070810355 -0.034825504 -0.11619031 -0.20884295
0001f0 1f 81 12 be 15 08 da 3d 95 93 90 bd bd 14 85 be
       -0.14307068 0.10646073 -0.07059399 -0.25992385
000200 bd 1f 03 3e cc 7e a5 3e 56 dd 1d be af c2 4a be
       0.12805076 0.323233 -0.15416464 -0.19800828
000210 01 d4 a9 3d 65 a3 67 3e 63 c6 bb 3c dc 5e b0 3d
       0.0829239 0.22620924 0.022921747 0.08611843
000220 08 fa f6 bd 09 64 bc bc f9 53 a7 3e fd 6e 76 be
       -0.120594084 -0.02299692 0.32681254 -0.24065776
000230 61 ba a3 3e cb 61 ee bd d9 04 89 3e 2e aa 3a be
       0.31978133 -0.11639746 0.2676151 -0.18228981
000240 0e c6 68 3e 6e 47 0e 3e 82 fb 42 bc 37 a6 29 be
       0.22731802 0.13894436 -0.011900784 -0.16567312
000250 f6 71 97 be bf 5e 82 3e e7 fe af be b7 30 e1 bc
       -0.29579133 0.2546291 -0.34374163 -0.02748905
000260 a1 fe fe 3d 1f 30 a2 be 25 9c ae bd 97 64 8d be
       0.1245091 -0.31677338 -0.08525876 -0.27615806
000270 b3 09 d8 3d fc 0f 93 3e 95 3b 32 3d 15 f4 b9 3d
       0.10548725 0.28723133 0.043513853 0.09079758
000280 d4 fd 53 bd e9 09 ff 3d 58 53 44 be 5a 8a c1 bd
       -0.05175574 0.12453062 -0.19172418 -0.094502166
000290 e6 87 fb 3d 87 24 5c 3d fd b4 8b 3d 02 1d ab 3e
       0.1228178 0.053745773 0.0682163 0.3342057
0002a0 39 39 5f 3e 46 d6 0e be 8d dc 27 be 92 d0 db bb
       0.21799172 -0.13948926 -0.16392727 -0.006708213
0002b0 1b 2b 16 3e 85 48 4c 3e c0 51 20 3e b9 92 b3 3d
       0.14664881 0.19949539 0.15656185 0.087682195
0002c0 19 ff 2f be 2c 8c 72 bd 63 6b 63 bd 21 d0 14 be
       -0.17187156 -0.05921571 -0.055522334 -0.1453252
0002d0 6f fc f4 bc 4b d6 d1 b9 18 bc ab bc 5e 3e 23 be
       -0.029905526 -0.00040023247 -0.020963714 -0.1594176
0002e0 cb 78 8b 3d 81 50 39 3e 42 8b 33 be 88 03 b7 3d
       0.06810149 0.18097116 -0.17533591 0.089362204
0002f0 98 cc 00 3d df 49 09 be 1f 92 32 be 71 a1 99 3c
       0.031445116 -0.13407086 -0.17438553 0.01875374
000300 50 22 4f be 75 46 cc 3c 28 7c 94 be 6c 19 31 bc
       -0.20227933 0.02493594 -0.29000974 -0.010809284
000310 27 cc 94 be 03 b5 1e 3e dc 0a f3 3d ed a3 09 be
       -0.29062006 0.15498738 0.11867306 -0.13441439
000320 5b 59 0a 3e 8f 85 cf 3c 16 8f dd bc 05 5e 67 be
       0.13510649 0.02533224 -0.027045768 -0.2259446
000330 9b f2 b0 3d 03 79 f0 3c 1b 62 2f 3e c9 5e 8e bd
       0.08640023 0.029354578 0.17127268 -0.069516726
000340 b2 93 50 3e a0 9f 62 3e 42 fd 1c bd 97 f8 95 be
       0.20368841 0.22131205 -0.038327463 -0.29291221
000350 fd 80 92 be 1c e7 15 3d e6 db 74 be 3d 58 30 bd
       -0.28614035 0.036597356 -0.2391201 -0.0430529
000360 d2 af 49 3b c4 a8 4e bc ec 9c 86 bd 02 3d e7 3d
       0.0030774963 -0.012613479 -0.06572899 0.11290933
000370 d8 9b b8 bd 52 7c 97 3e 63 05 12 bd 9f 2b 53 be
       -0.090141 0.29587036 -0.03564967 -0.20622109
000380 d4 ab ae bc f9 15 4e be bc e6 1d 3e 40 26 01 3e
       -0.021322168 -0.2012557 0.1542005 0.12612247
000390 ca 85 0f bd 5a 01 70 3e 8f 08 d7 3d aa 8b ce 3d
       -0.0350397 0.23438016 0.10499679 0.100852326
0003a0 b2 80 d3 3b 98 39 31 bd 3e 0c c9 3d ff 58 ce bd
       0.0064545507 -0.043267816 0.09816788 -0.100755684
0003b0 fc 4a cb 3a 2e 00 84 3e 35 87 e3 bc 4d de 2f bd
       0.0015510018 0.25781387 -0.027774433 -0.042936612
0003c0 6c 8a 0e be 57 55 2e 3e c5 25 79 3d 5a b1 4d be
       -0.13919991 0.17024742 0.060827035 -0.20087186
0003d0 57 18 1d 3e 12 d5 e1 3d 20 3a 45 be ea c4 4a 3e
       0.15341316 0.11026968 -0.19260454 0.19801679
0003e0 ad 71 de 3c b3 fe 5e bd 9c 9b 93 3e b8 90 48 3e
       0.027153814 -0.05444212 0.28829658 0.19586456
0003f0 86 97 10 3e 8e e2 f2 bc d2 a9 43 3e 4e cf 9b 3c
       0.14120302 -0.029649045 0.1910775 0.019019749

bias_ih_l0 f4 [64]
000000 51 b7 71 bd f3 2f 0b be b9 7b 53 3e a3 f1 06 3e
       -0.059012715 -0.1359251 0.20652665 0.13178115
000010 15 cc 9b 3c ce 8c b8 bd 4f 85 6b 3d db 1f 71 3e
       0.019018212 -0.09011231 0.05750018 0.23547308
000020 66 c8 a1 3d a6 41 e2 bd 4c 96 f6 3d 40 93 86 3d
       0.07899551 -0.11047678 0.120403856 0.065710545
000030 e1 d7 68 3e b3 0a 8f 3e e0 cb 3a be 8c 72 a9 3d
       0.22738601 0.2793785 -0.18241835 0.08273801
000040 71 c2 f9 bd 2b 6f a7 3e fe 6f 3e be 34 a6 6b bd
       -0.1219529 0.32702002 -0.18597409 -0.05753155
000050 30 d4 ad bd c0 55 7f 3e d0 ba 13 bd b5 97 ff 3c
       -0.08487737 0.24935055 -0.03606683 0.03120027
000060 3c fe 50 3e 64 f6 6e 3c 44 d9 db 3d 34 18 31 3d
       0.20409483 0.014585111 0.107347995 0.043235973
000070 c7 c1 3f 3e 0e 09 53 3e f9 d9 00 be f9 2b 9c bd
       0.18726264 0.20608923 -0.1258315 -0.076255746
000080 20 da 0a 3e ca 50 1a be 35 3f c3 bd df 61 fe bd
       0.1355977 -0.15069881 -0.0953354 -0.12421011
000090 3e be ab bd b0 f3 b0 3d 58 06 95 be 63 e7 44 3d
       -0.08385895 0.0864023 -0.29106402 0.04807223
0000a0 d7 67 59 3e 80 25 14 3d 9a 72 e3 bc 8d e7 8d bd
       0.21231018 0.036168575 -0.027764607 -0.069289304
0000b0 30 95 2e be 36 02 2c be 7c 47 0f be c2 f8 b8 bd
       -0.17049098 -0.16797718 -0.13992113 -0.09031822
0000c0 5c 15 3b 3e 41 f1 b0 3d d1 b2 c0 3c a4 28 0f be
       0.18269867 0.086397655 0.023522766 -0.13980347
0000d0 a2 cc 54 bd 72 79 56 3d 9f 14 a1 bd 94 57 93 3e
       -0.051952966 0.052361913 -0.07865261 0.28777754
0000e0 1e d2 a3 3e 78 5e 67 bd 46 46 60 3e bb a8 d2 bd
       0.31996244 -0.056486577 0.21901807 -0.10286089
0000f0 8a da 69 bd 9f d4 fe 3d 95 01 51 bd 13 6c 67 3e
       -0.05709318 0.12442898 -0.0510269 0.22599821

bias_hh_l0 f4 [64]
000000 ff 4d 08 bd fb 8e 9d 3e 7b 65 0c be 89 a2 ef 3d
       -0.033277508 0.30773148 -0.13710587 0.11700923
000010 0c ab 44 bd a2 9f 4c 3e e1 cb 90 3e de 4e 3c 3c
       -0.048014686 0.1998277 0.28280547 0.011493413
000020 5c c9 9c 3e fc 7a ec 3c a4 12 82 3e 5b 3e 38 be
       0.30622375 0.028867237 0.25404847 -0.17992537
000030 e3 24 b7 3d ea 8f a2 bd ac 38 42 3e bd da 10 be
       0.089425825 -0.07937606 0.18966931 -0.14145942
000040 46 52 4b 3e 41 30 5d bd 22 e0 33 3e f2 41 44 3d
       0.19855604 -0.054001097 0.17565969 0.047914453
000050 9e 4b 5e bd 87 98 03 3e ad 53 bb bd 63 4a df 3d
       -0.054271333 0.12851153 -0.09146819 0.1090286
000060 8f b1 39 3e a8 4b 09 3e 7d f8 52 3d 98 db 68 3c
       0.1813414 0.13407767 0.05150651 0.0142125115
000070 ac f6 2f be 39 bc 1e 3b 55 a7 2c 3c 51 af d2 3d
       -0.17183942 0.0024221076 0.010537942 0.10287345
000080 02 97 74 3d 26 c0 e6 3c 85 c1 a6 bd f1 98 2f be
       0.059714325 0.028167795 -0.0814238 -0.17148186
000090 91 53 de bc 66 eb 53 3e a0 dd 04 3e 81 08 2d 3e
       -0.027139457 0.20695266 0.12975168 0.16897775
0000a0 4e c6 24 3e 64 01 13 3d 25 13 4a bc f0 bc 7f be
       0.16091272 0.035889998 -0.012333666 -0.24974418
0000b0 1c c0 73 3e 6c 4f 02 3e 6c e6 79 3e 1a b7 f5 bd
       0.23803753 0.1272561 0.24404305 -0.119978145
0000c0 55 94 f6 3c b0 ab 67 bd f0 1e c2 3d 3d 01 dc bd
       0.030100027 -0.05656022 0.09478557 -0.10742424
0000d0 28 ad e9 3d 88 ec b1 3d 35 b1 40 bd 9a e2 3c 3e
       0.1140998 0.08687693 -0.047043998 0.18445817
0000e0 ba 03 e9 bd d8 4a 11 be 85 1e 8f 3e 21 73 66 3d
       -0.11377664 -0.14188707 0.27952972 0.05626214
0000f0 e4 61 31 be 14 e8 e9 bb 0e b1 05 be 67 12 4a 3e
       -0.17322499 -0.0071382616 -0.13055822 0.19733582

weight f4 [32, 16]
000000 b8 ed 91 3e cc d5 ef bd 10 8a e4 3d 51 13 82 bd
       0.28501678 -0.117107004 0.11159146 -0.063513406
000010 af 2c 4c be 0f dd 13 3e 86 c3 63 be a1 4c 00 3e
       -0.1993892 0.14439796 -0.22242555 0.12529232
000020 09 62 1e 3d d4 1e 00 be ba 6e 9d 3e 58 59 bf 3d
       0.038667712 -0.1251176 0.3074854 0.09343213
000030 16 46 2c 3e 26 13 c2 3d 01 47 40 3e 90 89 29 bd
       0.1682361 0.094763085 0.18777086 -0.041390955
000040 1a 74 d5 3d 4d 96 45 3e 5b 3d 74 3e a7 33 3e be
       0.10422535 0.19295616 0.2385153 -0.18574391
000050 5d 02 51 be d3 94 47 be 70 e3 0c be 1a 07 8b 3e
       -0.20411058 -0.19490366 -0.13758636 0.27153856
000060 a6 f8 52 be 6c 1d 8b be 18 e4 23 3e 20 11 35 3e
       -0.20602664 -0.27170885 0.1600498 0.17682314
000070 9a 1b 36 3e 3d ca 63 bd 5c 47 c1 bd d8 ea 98 3c
       0.17783967 -0.05561279 -0.09437439 0.01866667
000080 08 38 b8 3d d0 04 74 3e 60 88 23 3d 38 3a 4e 3d
       0.08995062 0.23829961 0.03992498 0.05034849
000090 30 af b2 3d 80 88 09 bd da 0e 23 3e a0 ca 5a bd
       0.087248206 -0.033577442 0.15923634 -0.053415895
0000a0 9a e4 00 3e 7c f1 0a be d0 d3 5f be 88 e0 45 3d
       0.12587205 -0.13568681 -0.21858144 0.048309833
0000b0 e0 d5 d2 3c c0 ce 8b 3b 1a bc 7d be b8 50 30 3e
       0.02573675 0.00426659 -0.24778786 0.17218292
0000c0 1a 85 4e be 60 5b df 3c 5a 3a 24 3e 7e 49 6a be
       -0.20167962 0.02726525 0.16037884 -0.22879598
0000d0 f4 4c 46 3e 38 25 cb 3d da 52 58 3e dc 6c 65 3e
       0.19365293 0.09919208 0.21125355 0.22404808
0000e0 9c 84 b2 3d 00 4f 64 be e0 73 5c bc 1c a3 4c 3e
       0.087166995 -0.22295761 -0.013455361 0.19984096
0000f0 12 8c 26 be 18 0c 4b bd 34 b9 4a be dc 77 f7 3d
       -0.1626437 -0.04957208 -0.19797212 0.12083408
000100 4f ad 55 3e d9 ed a8 3b 13 2d b6 bb f8 48 79 3d
       0.20866893 0.005155307 -0.0055595725 0.060860604
000110 6e f1 8c be 51 af 40 3e 37 a8 75 be e6 13 1e 3e
       -0.27527946 0.18816878 -0.2398995 0.15437278
000120 f7 81 9c 3d 86 5e 63 bc ec 8d e2 3d 12 f9 12 3d
       0.07641976 -0.013877517 0.11062226 0.035882063
000130 3b 05 17 3e 80 f5 a7 3e 56 e4 14 3e 46 2b 02 3e
       0.14748089 0.3280449 0.14540228 0.1271182
000140 30 dd 5a be 67 a0 f9 bc dd 5f 7a 3c c6 ce 5e 3e
       -0.21373439 -0.030471994 0.015281645 0.21758565
000150 cd 78 24 3e e4 18 6f 3d bf 04 c9 bd ed 77 59 bd
       0.16061707 0.058373347 -0.09815358 -0.053092886
000160 28 bc b2 3d 45 b7 55 bd 04 36 1d be ce 23 6f be
       0.08727294 -0.052176733 -0.15352637 -0.23353502
000170 cc 02 32 3e c5 34 cb 3d a0 54 d0 3d 98 88 c3 3d
       0.1738388 0.09922174 0.10172391 0.095475376
000180 94 be 44 be 62 75 7b bc 29 ce 83 3d 43 88 41 3e
       -0.19213325 -0.01534781 0.06435806 0.18899636
000190 1d dc 7c bd 0b bd 0c 3e 0a 28 6a be d5 27 8e 3d
       -0.061733354 0.13743989 -0.22866836 0.06941191
0001a0 30 e1 54 bd b0 78 45 3e 35 61 77 3e 00 27 25 3e
       -0.051972568 0.1928432 0.24158175 0.16128159
0001b0 39 12 8a bd 0c a1 77 be 09 0c 92 be b2 07 86 3d
       -0.06741757 -0.24182528 -0.28524807 0.065444365
0001c0 ab 7c d0 3d 43 6d 85 bd 14 b9 6d be 31 ec f4 3d
       0.101800285 -0.06514981 -0.23215133 0.119591124
0001d0 93 cf 7a be 6e 10 13 3c 25 cc 29 be 9f da 2f be
       -0.24493246 0.008976085 -0.16581781 -0.17173241
0001e0 30 36 ca bd bd ee a3 bd bf d4 38 3e 32 bd 11 be
       -0.09873617 -0.0800452 0.18049906 -0.14232329
0001f0 5f 86 3b 3e 26 ae 1d be 66 88 9c 3d 16 7d 48 3e
       0.18312977 -0.15398464 0.076432034 0.19578966
000200 d3 6a 0e 3d 36 75 f6 3d 20 32 e0 bd 56 50 65 3e
       0.034769844 0.12034075 -0.109470606 0.22393927
000210 5d 43 0b bc c2 72 23 3e e1 a7 0f 3c 0a 2e 27 3e
       -0.008499947 0.15961745 0.008768053 0.16326156
000220 6f 38 8d 3d 6b 73 7b bd ef f3 54 be 77 43 65 be
       0.068955295 -0.061389368 -0.20796178 -0.22389017
000230 0b fa 6b be c6 24 23 be 70 9b 26 3d 7e f3 8d 3d
       -0.23044603 -0.15931997 0.04067558 0.06931208
000240 c6 b3 58 3e 2e 08 23 be a6 5e 7d be a8 bc e6 3d
       0.21162328 -0.15921089 -0.24743137 0.11266452
000250 08 4c 6e 3e 60 2b 15 bc c2 46 53 3e 16 55 43 3e
       0.23271191 -0.00910458 0.2063246 0.19075426
000260 74 8b 4d be 14 df 58 3e 64 c2 c1 3d ac e2 1f 3e
       -0.20072728 0.21178848 0.09460905 0.15613812
000270 26 61 22 be 8c 89 04 3e 38 15 27 be c4 f1 58 3e
       -0.15857372 0.12943095 -0.16316688 0.21185976
000280 1d 17 07 be 9a 34 5e 3e db 8d 78 be 77 27 91 bd
       -0.13192411 0.21699753 -0.24272864 -0.070876054
000290 86 ef 59 3e 06 cd c4 3c 89 4d b4 3d 5b d0 05 be
       0.21282777 0.024023544 0.08803851 -0.13067763
0002a0 b5 c2 8e 3e 9f 8c 56 be 1e 32 e8 3d a9 85 e9 3d
       0.27882925 -0.2095208 0.11337684 0.11402447
0002b0 f3 bd 87 3e f3 9b 85 3e 86 f0 0f 3d 28 fb f1 bd
       0.26512107 0.26095542 0.03514149 -0.118154824
0002c0 ae 59 1e 3e a0 93 cd bd 5e 8b 3e 3e 10 99 2d 3e
       0.15463898 -0.10037923 0.18607852 0.1695292
0002d0 70 b3 1a 3e 70 a8 d9 bd ac b6 c7 bd 10 a6 92 3d
       0.15107512 -0.1062783 -0.09751639 0.0716058
0002e0 c8 4e 1a be 90 08 b2 3c 7a 37 1a be 40 ba f7 bc
       -0.15069115 0.021732599 -0.15060225 -0.030240178
0002f0 56 0e 2e be d2 67 37 be 40 b8 06 be 14 21 4e 3e
       -0.16997656 -0.17910698 -0.13156223 0.20129806
000300 ab 72 66 3c ab 49 10 be ba 8e 13 3e ca 4b 10 3e
       0.014065425 -0.14090602 0.14409915 0.14091411
000310 b9 41 51 3d b9 03 cc bd 09 72 f6 bd 67 a9 21 be
       0.05108807 -0.099616475 -0.12033469 -0.15787278
000320 32 2d 75 bd b7 62 62 3e d3 1e 3f 3e 35 1c 94 3a
       -0.059857555 0.22107969 0.18664102 0.001129991
000330 9f 7c 7d be 4e 82 55 bd 4b 19 7b be 98 c1 7d 3e
       -0.2475457 -0.05212622 -0.24521367 0.24780881
000340 de 27 6f 3e e1 75 e5 3d a9 1c 13 be a9 6c 5e 3d
       0.23355052 0.11204124 -0.14366402 0.054302845
000350 08 64 a2 be f8 c1 e9 3d cf 56 01 be aa 1d 54 3e
       -0.31716943 0.1141395 -0.12630771 0.20714441
000360 a5 06 8a 3d d1 44 7b bc ca 22 43 3e 10 4d f7 3d
       0.067395486 -0.015336231 0.1905624 0.120752454
000370 e5 6d f7 3d 4a d4 83 3e c0 64 96 3c 0d 6b 3f 3e
       0.120815076 0.257479 0.018358588 0.1869318
000380 70 0c e6 bd 94 89 f2 bd 06 ae 57 3e dc f0 c6 3d
       -0.11232841 -0.11842647 0.21062478 0.09713909
000390 6c e9 59 be fa 8f 12 be 68 4f d9 bd e0 9e 3d 3c
       -0.2128045 -0.14312735 -0.10610849 0.011573523
0003a0 b6 75 08 be 40 71 6e 3c a4 5d 57 be 90 f6 d9 3c
       -0.13326153 0.014553368 -0.21031815 0.026606828
0003b0 78 4a 15 be 5c 00 0c be b8 79 5d be aa e6 2e be
       -0.14579189 -0.13672012 -0.21628463 -0.17080179
0003c0 40 e7 39 3d f0 72 e3 3d 8c 9a 9b 3d 60 90 38 3e
       0.045386553 0.11105907 0.07597837 0.18023825
0003d0 c0 0e 17 3d c0 84 61 3e 04 c2 00 3e cc 0b 0f 3e
       0.0368793 0.22023296 0.12574011 0.13969344
0003e0 a8 3b fa 3d 18 aa 44 3d 30 b5 bb bc c4 10 f6 bd
       0.1221841 0.048013777 -0.022913545 -0.120149165
0003f0 58 93 cf bd 8c 2a f6 3d e4 f4 88 bd c8 03 fe 3d
       -0.101355255 0.12019834 -0.06687334 0.12403065

bias f4 [32]
000000 1c 44 33 3e ff 39 21 3e 3c 3d d0 bd 6a 69 32 be
       0.1750645 0.1574478 -0.101679295 -0.17423025
000010 5f c9 24 3d 51 fa 31 be 11 d6 c4 3d 7b 13 42 3e
       0.040231105 -0.17380644 0.096111424 0.18952744
000020 99 46 37 bd 54 2f f0 bd 6f 93 e1 bd 7a e2 2f be
       -0.04474506 -0.11727777 -0.11014449 -0.17176238
000030 00 ed 4e 3e 12 f8 92 3e 42 35 00 be 2a 6c 32 be
       0.20207596 0.28704888 -0.12520316 -0.17424074
000040 23 5a 05 be 28 55 fe bd c2 13 07 be 4a ab 3f be
       -0.13022666 -0.12418586 -0.13191131 -0.18717685
000050 42 38 4c be f5 c4 8f 3d 58 97 e8 bd 56 97 23 be
       -0.19943336 0.070199884 -0.113569915 -0.15975699
000060 1f 85 a2 3d 71 1b 28 3d 8f 96 17 3e b0 3e 75 bd
       0.07935547 0.041041795 0.14803527 -0.059874237
000070 0f e6 41 3e ac b7 01 3e c7 b0 61 3e e5 fe bc 3d
       0.18935417 0.12667722 0.22040091 0.09228305

weight f4 [32, 32]
000000 b7 bc 32 3e 45 8b 88 bd 3a a3 d1 3d 5b 8e 40 bd
       0.17454801 -0.066671886 0.10236211 -0.04701076
000010 68 26 01 3e b0 64 2a be 63 ff 76 bd b3 3c b7 3d
       0.12612307 -0.16639972 -0.06030215 0.08947124
000020 c9 80 28 bd ca d8 4f bd d5 f9 c5 bd 96 33 b1 3d
       -0.041138444 -0.050743856 -0.09666792 0.08652417
000030 0b 85 9c 3c f5 fc 25 be 87 1c b9 bb 3c be d2 3d
       0.019106409 -0.16209777 -0.0056491527 0.102901906
000040 c2 15 1a be 3a bc 2c 3e f0 89 07 be 80 87 cc 3d
       -0.15047362 0.16868678 -0.13236213 0.09986782
000050 88 94 32 3e 4e 97 dc bd dd eb 1c be f6 79 94 bd
       0.17439473 -0.107710466 -0.1532435 -0.07249825
000060 ad 8a 75 3d 0f 7b 8b 3d 01 58 19 3c 48 0a 28 be
       0.059946705 0.06810581 0.009359361 -0.16410172
000070 36 03 51 bc 13 af 07 be 07 b2 54 3d 6f 6d 6a 3d
       -0.012757113 -0.1325038 0.051927593 0.05723327
000080 ad 48 93 bd a7 ea 2d 3d 70 a8 58 bd 6d e8 9e 3d
       -0.07191596 0.04246011 -0.05289501 0.077591754
000090 72 de 13 3e 4d f1 b7 bc 42 d2 9b bd 46 c0 f0 3d
       0.14440325 -0.022453928 -0.07608463 0.11755423
0000a0 2d 67 56 bd 95 19 cf 3c 09 40 af 3b 93 ce 1e 3e
       -0.05234449 0.025280753 0.0053482098 0.1550849
0000b0 47 85 2c be 1d 26 d7 3d 1c f3 14 be a3 8a 4a bc
       -0.16847716 0.105053164 -0.14545864 -0.012362155
0000c0 30 f0 01 3e 66 e1 81 bc d6 71 19 3e 74 3d f8 3d
       0.1268928 -0.015854549 0.14984831 0.12121096
0000d0 43 2b d7 3c 44 79 0a 3e 92 48 1b 3d b8 f7 2f 3e
       0.026265746 0.13522822 0.037911005 0.17184341
0000e0 90 6e 5b 3e dd 75 1d 3e 0d 66 a7 3c eb 6b 98 3d
       0.21428895 0.15376993 0.020434404 0.07442459
0000f0 37 bf 52 3e bf 87 1b 3e 13 a0 b6 3d 17 bc 83 bd
       0.20580755 0.15188502 0.089172505 -0.0643236
000100 36 9b 28 3b 43 90 c6 bc 18 a4 8f 3d 9b 52 d5 bd
       0.0025727279 -0.024238711 0.0701372 -0.10416146
000110 fd 34 71 3d ba 86 14 3e 64 9b 58 be 5d 98 ac bd
       0.058888424 0.14504519 -0.21153027 -0.084274985
000120 9f 1c 83 be bc fe e1 bd 31 71 a9 bc fa 47 d1 3c
       -0.25607774 -0.11034915 -0.020683857 0.025547016
000130 af 48 f0 3b fb 49 6e bd 09 95 13 3e cd 0e 98 3c
       0.0073328833 -0.058176022 0.14412321 0.018561745
000140 fc 6a 77 bd d3 a4 ae bd 0b 88 1d 3e c9 76 2b 3e
       -0.060404763 -0.085275315 0.15383928 0.16744532
000150 38 c8 94 bc 7b 70 c7 bc f6 a7 21 be 9a 11 e1 3d
       -0.018161878 -0.024345627 -0.15786728 0.10989685
000160 04 fd 50 3e 04 07 1c 3e 3f 7f 80 bc df fc c5 3d
       0.20409018 0.15237051 -0.015685676 0.09667372
000170 a0 5a 8d 3d af b2 54 bd d8 de 87 3d d8 01 6f 3e
       0.06902051 -0.05192822 0.06634301 0.23340547
000180 9e c4 5f 3e f5 93 97 bb 72 ee 68 bd cb f2 a2 bc
       0.21852347 -0.004625792 -0.056868024 -0.019891163
000190 69 e5 73 3e 02 52 03 bd 3a dd c1 3d c3 64 5e 3d
       0.23817982 -0.03206063 0.09466024 0.054295313
0001a0 49 d7 c7 bd 7e af ba 3c b9 ba 0a 3e 78 5f c4 bd
       -0.09757859 0.02278876 0.13547792 -0.09588522
0001b0 ef ad 9b bd d0 46 2b 3d cd 8f f3 bd 91 78 0a 3d
       -0.076015346 0.04181558 -0.11892662 0.033806387
0001c0 93 07 4d be 8e 02 fe bc 16 f2 3d 3d 4f 71 f1 bc
       -0.2002242 -0.031007078 0.04637345 -0.029472975
0001d0 67 a6 ed 3d 00 14 c8 3d 82 59 99 bc 80 f1 a4 3c
       0.11604004 0.0976944 -0.018719438 0.020134687
0001e0 d2 44 1c 3e 6e 29 d6 bd 90 8c 2d 3e 3f 2f ce 3d
       0.15260628 -0.10457121 0.16948152 0.10067605
0001f0 4f 78 7d bd de 23 20 3e 74 43 6c 3e 74 c9 1a 3e
       -0.061882313 0.15638682 0.23072606 0.15115911
000200 36 0d 1b 3e 52 ef 5b 3e cf a1 08 3d 88 96 16 3d
       0.15141758 0.21478012 0.033357438 0.03676465
000210 6b e7 46 3e 23 2e c3 3d b0 3b 53 be e8 9e fe 3d
       0.19424216 0.09530284 -0.20628238 0.12432653
000220 d7 26 fb bd 0f 2a 59 3c 71 9a a9 bc dd b4 e8 bd
       -0.122632675 0.013254656 -0.020703526 -0.11362622
000230 4b 56 1b be 71 12 68 3e ef 9f 21 be 2e 59 05 3e
       -0.15169637 0.22663285 -0.15783666 0.130223
000240 f5 81 5b be d6 b6 a3 bc b5 fd a7 3d 46 46 6b 3d
       -0.21436293 -0.019984644 0.08202688 0.057440065
000250 b1 c1 fe 3d 52 f8 c7 3d 67 d5 c6 bd 62 0d 99 bd
       0.124392875 0.0976416 -0.09708672 -0.07473256
000260 80 ee a1 3d ba ff 23 be da be 49 3e 9f 44 20 3e
       0.079068184 -0.1601552 0.1970171 0.15651177
000270 6f 44 45 3e 95 79 b3 3d cb d7 74 bd 73 37 b6 bc
       0.19264387 0.08763424 -0.05977611 -0.022243237
000280 7b 39 ed 3d b2 13 22 3e 7a a8 9a 3d bf ae 86 3d
       0.11583229 0.15827826 0.075516656 0.06576299
000290 f6 8c ce bd b8 a5 d6 3d 5a 13 d8 3d 12 8b c5 bb
       -0.1008548 0.10480827 0.10550566 -0.0060285414
0002a0 c3 d1 c3 3c e8 3b b9 3c 06 b6 ba 3d 5c 35 a9 39
       0.023903733 0.022611573 0.091167495 0.00032273948
0002b0 b0 97 19 3e 73 a7 d6 3d 82 fb ea bd 85 67 1e be
       0.1499927 0.10481157 -0.114737526 -0.15469177
0002c0 76 86 8f bd 1a 5a 16 3e ef 27 33 be 60 44 12 be
       -0.07008068 0.14682809 -0.17495702 -0.14283895
0002d0 e8 de 95 3c 08 6c 2c be ab 61 0f 3d e6 9a 70 3d
       0.018294767 -0.16838086 0.035005253 0.058741473
0002e0 6d e7 00 bc 98 64 01 3c c5 b0 2c ba 6e a0 38 3c
       -0.007867676 0.007897519 -0.000658762 0.011268718
0002f0 9e b1 2e bc b0 0f d3 bd dc cf ae 3d ee c5 b0 bd
       -0.010662464 -0.103057265 0.0853574 -0.08631502
000300 ef 5b 1e 3d 83 86 f5 bd 54 c3 34 be 2e 84 23 3e
       0.038661893 -0.11988547 -0.17652637 0.15968391
000310 af e4 ce 3c fc 7d 14 be 65 5b e5 bd f3 2a d2 bd
       0.02525553 -0.14501184 -0.11199073 -0.10262098
000320 4a 8c 21 bc 55 e7 af bd 90 17 6a bd 42 99 0c 3d
       -0.009860108 -0.08589045 -0.057151377 0.034325846
000330 d5 10 0a be f8 ab c8 3c 90 0c dd 3c 7f a1 22 3e
       -0.13482983 0.024496064 0.02698353 0.15881918
000340 1a 25 9e bd 1c 31 8b bd 28 08 6b bc ec 93 20 be
       -0.0772192 -0.06796476 -0.014345206 -0.15681428
000350 ff 08 93 bd d1 92 49 bd 0f da 26 3e 5c 64 c9 3d
       -0.0717945 -0.04921228 0.1629412 0.09833595
000360 b1 f2 85 bd 30 3d 0f 3d a9 f8 2e be ed bb 7e bd
       -0.0654043 0.034970462 -0.17087044 -0.06219094
000370 0f e5 0c 3e a3 4b 0b bd 30 25 15 be ac 2d 9e 3d
       0.13759254 -0.03400768 -0.14564967 0.07723555
000380 de 78 87 bd dd b8 89 bd 3d 13 32 3e 36 96 4b 3d
       -0.066148505 -0.06724713 0.17390151 0.0497038
000390 e0 95 23 be df 6c 1a 3e 7c 62 e8 bc 7c a5 0f 3e
       -0.15975142 0.15080594 -0.028367274 0.14027971
0003a0 41 eb 55 bd 3f 94 2d 3d 02 d6 1c 3d 65 fe ed bd
       -0.05222631 0.042377707 0.03829003 -0.116207875
0003b0 97 22 ad bd f7 4b 71 bd 06 7f f2 ba 07 58 29 3e
       -0.08453863 -0.058910336 -0.0018500991 0.16537486
0003c0 73 70 f9 bd 31 81 b3 bc 25 93 f8 3d 1c 53 29 3e
       -0.12179651 -0.02191219 0.121374406 0.1653561
0003d0 9d 17 65 3d 5f 16 1d 3e 08 4a cd bd 7b 05 0f bd
       0.055930723 0.15340565 -0.10023886 -0.034917336
0003e0 0f 2d 17 3d 6d 9c 2b 3e fe 58 90 3d a7 de ed 3d
       0.036908206 0.1675889 0.07048224 0.11614733
0003f0 f3 d4 b5 bd 8d ca 08 be 14 99 dd 3d a6 30 ae 3d
       -0.088785075 -0.13358517 0.10820213 0.08505373

bias f4 [32]
000000 65 52 12 be c2 cb 82 3d 64 ca 5a 3e 20 d2 07 3e
       -0.14289244 0.0638652 0.21366268 0.1326375
000010 c7 63 e7 bc 61 b8 ce bd c9 8b 4a bc 8d 2c e5 bd
       -0.02824582 -0.10093761 -0.012362429 -0.11190138
000020 85 c1 3f 3e 70 15 4a 3e 46 64 9e bd 9c 64 f5 3d
       0.18726166 0.1973474 -0.077339694 0.1198208
000030 1f c8 0b be c2 55 54 3e d2 cb 07 3d aa 48 1b 3e
       -0.13650559 0.20735839 0.033153363 0.15164438
000040 9c 73 3f 3e a6 eb 14 3e d9 5e 11 3e fe 04 d7 bc
       0.18696445 0.14543018 0.14196338 -0.026247498
000050 77 8f 2d 3d 7a 17 be 3d 1a 14 1a be b2 97 19 be
       0.042373147 0.092818215 -0.1504673 -0.14999273
000060 ba a3 2b be a6 b4 42 3e 27 3b 0d 3e e1 de 20 be
       -0.16761675 0.19014224 0.13792096 -0.15710022
000070 51 11 07 3c a0 63 91 bd 6f c3 1b 3d 39 47 67 3d
       0.008243875 -0.0709908 0.038028177 0.056464408

weight f4 [32, 32]
000000 5e 1f 11 3e 00 0f 4e be 96 a8 4f bd fc 5b 0f 3e
       0.14172122 -0.2012291 -0.050697885 0.13999933
000010 33 6f e3 bc 25 a6 24 be d2 df 06 3e cf 56 11 bc
       -0.027762985 -0.16079004 0.13171318 -0.008870794
000020 d7 4d 08 be 69 14 60 bd e0 bc cc 3b cd 34 c3 3d
       -0.13310944 -0.054706965 0.0062481016 0.09531555
000030 4d 9b 1b bc 5f a9 02 be 53 be 97 bc b4 94 08 be
       -0.009497476 -0.12759922 -0.01852337 -0.13337976
000040 f0 5f a0 bc 96 83 f7 3d 79 c0 35 be 77 1e f5 bd
       -0.019576997 0.12085645 -0.17749204 -0.11968701
000050 f6 ee cc 3d cd 98 40 bd b4 d8 03 3e d4 3c 2a 3e
       0.10006516 -0.047020722 0.12875634 0.16624767
000060 c8 77 30 3e 2b 0a 40 be 18 b8 24 3d a3 f3 d1 bd
       0.17233193 -0.18753879 0.040214628 -0.10251548
000070 34 fd 19 be 0b f0 0c be 4c d8 2f be 35 4b 32 bd
       -0.15037996 -0.13763444 -0.17172354 -0.043528754
000080 45 fc f2 bc 72 bd 3e bd 63 30 dc bd a2 17 a8 3d
       -0.029661307 -0.046567388 -0.107514165 0.082076326
000090 16 8b f3 bd 96 e1 9f 3c f8 b2 de bd a0 9d d1 3b
       -0.11891763 0.019516747 -0.10873979 0.006396964
0000a0 16 45 21 bd a6 c5 d3 3c 6f 05 98 3d 0e 41 96 3d
       -0.039372526 0.025851082 0.074229114 0.07336627
0000b0 a6 82 6e 3d 4d 62 c3 bd 75 e2 ef bb d4 de 97 3d
       0.058230065 -0.09540234 -0.007320697 0.07415548
0000c0 f8 36 26 bc 82 40 14 be 24 e4 66 3e 47 a6 14 3e
       -0.0101449415 -0.14477733 0.22547966 0.14516555
0000d0 e0 d0 05 be 26 1e 89 bd de bf 08 be 6f fa c0 bc
       -0.1306796 -0.066952035 -0.13354442 -0.023556916
0000e0 e1 1c c0 3d dd 45 8f bd 2a 30 27 3e 0b 87 c5 bd
       0.09380508 -0.06995747 0.16326967 -0.09644898
0000f0 b2 c7 e2 bd 40 58 a8 3c 23 05 cd 3d ce df 7c bc
       -0.11073245 0.020549893 0.100107454 -0.015434219
000100 c0 df 25 3e f4 eb cd 3d 35 49 3f 3e a8 a0 5f 3d
       0.16198635 0.1005477 0.1868027 0.054596573
000110 df 06 be 3d 44 fd 13 be 17 77 66 3d ee 96 85 3d
       0.09278654 -0.14452082 0.056265917 0.06522928
000120 c2 c2 77 bd f6 2b 66 3e 53 1c 23 be 06 de b0 bc
       -0.06048847 0.22477707 -0.15928774 -0.021590244
000130 a1 89 27 be 68 40 fa 3b a0 a1 e0 bd 2c f9 b7 3c
       -0.16361095 0.0076370724 -0.109683275 0.022457682
000140 fd a1 2c 3e f4 ad b0 3c da ed 8d 3d d7 e9 17 3e
       0.16858669 0.021567322 0.06930132 0.14835297
000150 9d 26 3a be fc 16 02 3e a3 6e 4f bd 02 d0 16 3e
       -0.18178792 0.1270408 -0.05064262 0.14727786
000160 32 6f d8 bd 9b bf b8 bc cc 18 69 3e 25 d3 24 bc
       -0.10568084 -0.022552302 0.22763366 -0.010060106
000170 5a 38 09 3e 45 76 11 be d0 77 dd bb b1 a4 d1 3d
       0.13400403 -0.14205272 -0.0067586675 0.102364905
000180 76 d6 be 3d a9 a0 8a bd a4 89 e6 3d 48 a2 df 3c
       0.09318249 -0.06768925 0.112567216 0.027299061
000190 0b c7 fe bd 93 bb c1 bd 17 99 28 3e c4 97 03 be
       -0.12440308 -0.09459605 0.16464649 -0.12850863
0001a0 d7 26 f5 bd a2 be 23 3e 75 df 3f bd a3 13 7e bd
       -0.11970299 0.1599069 -0.046843965 -0.062030446
0001b0 72 cc 45 bc 79 50 0b 3e 7b 62 da 3d 99 56 6c bd
       -0.012072669 0.13604917 0.10663315 -0.057699773
0001c0 28 3b 6f bd a4 a0 1d bc 48 a7 e4 bd 4b 5b 37 bd
       -0.058406025 -0.009620819 -0.11164719 -0.044764798
0001d0 5a b8 02 3e 23 b7 4b bd c8 f9 00 be 08 9b 9e 3d
       0.12765637 -0.0497352 -0.12595284 0.077444136
0001e0 08 e7 20 be 9a 65 20 3d 92 3e 19 be 05 96 1d be
       -0.15713131 0.039159395 -0.14965275 -0.15389259
0001f0 4c ab a8 bc 41 c9 5c bd 19 60 d5 bd b1 84 18 3d
       -0.020589493 -0.05390287 -0.1041872 0.03723592
000200 c1 11 4c bd 14 3d 62 3e 1e c7 e1 3c 47 33 ce 3d
       -0.04982162 0.22093612 0.027560767 0.10068374
000210 15 b3 11 3e b7 58 06 3e 23 c9 a9 3d a1 42 5e 3d
       0.1422847 0.1311978 0.08290317 0.05426276
000220 1d 54 93 bc fa ee fc 3d 13 9a bf bd 40 09 52 3e
       -0.017984444 0.12350269 -0.09355559 0.20511341
000230 6d 2d 07 3e 35 a3 e3 bd 28 54 30 3e 6d ff 34 3e
       0.13200922 -0.11115114 0.17219603 0.17675562
000240 d8 f6 4f 3e e0 45 02 be 08 f6 12 3e 61 dd b5 bd
       0.20309007 -0.12721968 0.14351666 -0.08880115
000250 4a 0e 83 bd a5 18 76 bc 26 de 02 3e dd e0 c1 bd
       -0.0639921 -0.015020524 0.12780055 -0.094667174
000260 84 04 be 3d 4c b8 2f 3e 2e 80 f6 bc d2 22 db bd
       0.09278205 0.17160147 -0.030090418 -0.10700001
000270 28 45 18 be 23 11 74 3d c5 89 c6 3d 25 b9 1d be
       -0.14870131 0.059586655 0.09694246 -0.15402658
000280 40 a9 48 3d ac 20 00 be a0 f0 25 3e ad 5c bd bd
       0.048989534 -0.12512463 0.16205072 -0.09246192
000290 0a 24 1c 3d fa 9f 4b 3d 50 ca 32 bb c9 d6 c3 3d
       0.038120307 0.049713112 -0.0027281232 0.095624514
0002a0 78 61 1b be ca c7 55 bd 75 4a 28 be e8 20 c9 3c
       -0.151739 -0.052192487 -0.16434653 0.024551824
0002b0 e1 0f 1d 3e a1 c9 c1 bd be 96 98 3c b6 d4 a3 bc
       0.15338089 -0.09462286 0.018626567 -0.01999889
0002c0 03 27 1a 3e 39 4b 6b bd e4 53 10 be 32 0e 08 be
       0.15053944 -0.057444785 -0.14094502 -0.13286665
0002d0 88 5e a0 3c ba b3 d2 bd 2c 3d 23 bd 3c 6b c4 3d
       0.019576326 -0.10288186 -0.03985326 0.09590766
0002e0 dc 05 d2 3d e9 24 16 bc 4e 83 c3 bd 8e 11 c2 bd
       0.10255024 -0.0091640735 -0.09546529 -0.094760045
0002f0 cd 68 de 3d 29 e9 c7 3c 89 e2 36 bd 0a bb 22 bd
       0.10859833 0.024403172 -0.044649635 -0.039729156
000300 84 fa c1 3d 74 3c 8c bd 53 33 3d 3e b8 2b 9b 3d
       0.0947161 -0.06847468 0.1847661 0.07576698
000310 2f 72 cb 3c 48 dc 01 be 4e 51 37 3d 8d 8d 1c bd
       0.02483472 -0.12681687 0.044755273 -0.03822093
000320 39 45 56 3e 83 2d 1e 3e 9e 2a 69 3d 32 04 b6 3c
       0.20924844 0.15447049 0.05692541 0.022218797
000330 99 f2 b6 bd 9e 1f 02 3e fb e6 a4 3b d0 4c 4c 3e
       -0.089329906 0.12707373 0.005032418 0.19951177
000340 c6 c9 01 be e6 4f 05 bc 75 e3 73 3d 6b e8 cc 3d
       -0.12674627 -0.008136725 0.05954309 0.10005268
000350 30 eb bd 3c 3b 43 d8 bc c3 10 5e bd 15 47 47 3d
       0.023183435 -0.026399245 -0.054215204 0.048651773
000360 a1 45 91 3d 6e 82 89 3d 19 85 54 bd ec a1 a9 bd
       0.07093359 0.067143306 -0.051884744 -0.08282837
000370 0c 5d 2b bd 19 14 31 3e 3e da 87 3d 6e 6c 29 3e
       -0.041836783 0.17292823 0.06633423 0.16545269
000380 83 4a df bd df ef ad bc 89 46 1c 3e 89 77 82 3e
       -0.10902884 -0.021232544 0.15261282 0.25481823
000390 fa e5 28 3e a8 b5 c8 3d b0 6a 7c 3c d3 cc b4 bc
       0.16493979 0.09800273 0.015406296 -0.022070324
0003a0 d3 6b 22 3e aa 87 f3 3d dd 03 ea bd 85 03 a8 bd
       0.15861444 0.1189111 -0.11426518 -0.08203796
0003b0 7a 31 a6 3d a7 fb 63 3e aa 62 15 3e 01 d4 6d bd
       0.08114906 0.22263967 0.14588419 -0.05806351
0003c0 bd 1d 55 3e 56 c4 31 bd 83 51 3b bd d1 9b 10 3e
       0.20812126 -0.04340013 -0.045732033 0.14121939
0003d0 90 f8 05 be 06 03 f8 bd ce c1 f9 3c 89 ab db 3d
       -0.130831 -0.12109952 0.030487921 0.10726077
0003e0 2d 02 ee 3d b9 38 55 bd b4 ad 5d bc f6 e6 10 3e
       0.11621509 -0.052056048 -0.013530184 0.14150605
0003f0 d9 14 12 3e f8 7b 98 bd 3c ae 67 3e 20 95 dd bd
       0.14265765 -0.0744552 0.22625059 -0.10819459

bias f4 [32]
000000 0a 03 0a 3e c6 6f 4f 3e ae a1 10 3e cb 39 89 bd
       0.13477722 0.20257482 0.14124176 -0.06700476
000010 1e a4 38 3e ce fd 64 3c 87 fb 42 3e aa 0b bd 3d
       0.18031356 0.013976527 0.19041263 0.0923074
000020 a0 14 1c 3e 09 c7 49 3d cf 8d 0c be 08 c2 d7 3d
       0.15242243 0.04926208 -0.1372597 0.105350554
000030 aa be a6 bc 08 7e 4c 3d 2e b0 8c 3d f6 7e e9 bc
       -0.020354588 0.04992488 0.06869541 -0.028502923
000040 21 cf 77 3d 51 7f 32 be 8f ff 96 3b 57 36 f2 3d
       0.060500268 -0.1743138 0.0046081017 0.11826771
000050 a2 e9 6b 3d 74 5d fb 3d 16 49 22 be 47 6d c8 3d
       0.057595856 0.12273684 -0.15848193 0.09786468
000060 c6 ba f2 bb 30 bc f6 3c 02 ba 28 be 83 66 bf bd
       -0.007407519 0.030119032 -0.16477206 -0.093457244
000070 27 e1 00 3e f1 79 1b 3e c4 42 af 3d 61 a3 46 3e
       0.12585889 0.15183236 0.085576564 0.19398262

weight f4 [1, 32]
000000 3b 38 19 3c 81 5b 52 bd ac 16 0a bd 4c d5 be bb
       0.009351785 -0.051356796 -0.033713028 -0.005823767
000010 99 ef 10 bd 23 57 bc 3c 92 6d 9d bc 4c b9 38 bd
       -0.035384748 0.022990769 -0.019217286 -0.045098588
000020 ce 96 6b bd 9f f8 7f bd f0 0b c1 bc 48 e4 fc 3a
       -0.057516865 -0.062492963 -0.023565263 0.0019294107
000030 3c 3b ab bc e7 54 80 3b a0 69 2d bd 5c 17 d6 3a
       -0.020902269 0.003916371 -0.04233706 0.0016333866
000040 40 28 00 bd ba 87 6d 3c e2 e0 f0 3b f2 18 31 3b
       -0.031288385 0.014497692 0.007351027 0.0027022925
000050 d5 07 27 bb f2 16 52 bd c3 cb 53 3c 77 11 cf bc
       -0.0025486846 -0.051291414 0.012926999 -0.025276883
000060 8b 79 d6 3c 22 17 bc 3a 5b 67 91 3c 55 9f bb 3b
       0.026181003 0.0014350156 0.017749479 0.005725781
000070 e8 5a 6c bd b4 71 0b bc 24 90 c2 3b d2 cb c5 3b
       -0.057703882 -0.008510996 0.005937593 0.00603626

weight f4 [1, 32]
000000 e7 cb 78 ba e7 14 99 bd 03 cc 9d bd 80 aa de bc
       -0.0009490833 -0.0747469 -0.07704928 -0.02718091
000010 3c b1 a8 bd fb 05 5a 3c 95 3c 9c bd 11 22 06 be
       -0.0823693 0.01330709 -0.076287426 -0.13098933
000020 2d 9d bc bd 45 11 bc bd be 07 cd 3c 6a 19 93 bd
       -0.092096664 -0.091829814 0.025028106 -0.07182582
000030 81 0e ab bc 6d ea 8a bd 4c dc 03 be b8 dd 03 bc
       -0.02088094 -0.067829944 -0.12877005 -0.008048467
000040 98 27 d3 bd e5 61 b2 bb 68 72 82 bc 99 a4 07 3c
       -0.10310286 -0.005443799 -0.015923694 0.008278989
000050 11 a8 02 be 4d 2d d2 bd 13 ac 9d bc 5a fd 07 be
       -0.12759425 -0.10262547 -0.01924709 -0.1328024
000060 0f b3 15 3c 2c d0 92 bd 0b 77 c3 3c f6 87 7b bc
       0.009136929 -0.07168612 0.023860475 -0.01535224
000070 5c f0 c0 bd b8 3e e5 bd 72 7e e1 bd 24 61 c1 bd
       -0.09420845 -0.11193603 -0.11010446 -0.09442356
