models/patient6/srpo_model_for_patient_6_Actor.pth (torch, 24039 bytes, 12 tensors)

weight_ih_l0 f4 [64, 2]
000000 c0 4b 7d 3d 59 2d 2d 3e fa 46 50 bd 01 73 a8 3d
       0.06183982 0.1691183 -0.05084894 0.0822506
000010 4b 31 64 bc 9a 20 82 be 50 d5 9f 3d 69 e8 1e 3e
       -0.013927768 -0.25415498 0.07804358 0.15518345
000020 82 5a 47 3d 81 a4 4a be c9 4c 29 be 05 42 c7 bd
       0.0486703 -0.19789316 -0.16533197 -0.09729389
000030 1e 8d 67 3d 46 97 95 bd 43 ee a6 be 60 8c 16 be
       0.056531064 -0.07304244 -0.32603654 -0.14701986
000040 38 40 40 3e 42 de 9c bd f4 8b b0 be 94 f6 0a 3d
       0.18774498 -0.0765958 -0.34481776 0.03392656
000050 9d 52 6d be de fd 0b bd 8e d5 1a be 99 82 ed 3c
       -0.23176046 -0.034177653 -0.15120527 0.028992938
000060 d6 c2 9b bd 10 02 a4 bd cd e4 07 be 14 4d b9 bb
       -0.076055214 -0.08008206 -0.13270874 -0.0056549404
000070 73 ea a4 3d 64 7c ea bd 66 50 26 3e 73 77 1a be
       0.0805253 -0.11449507 0.16241607 -0.15084629
000080 65 24 12 3e fb 3c de 3d 98 dd 1e 3d 91 2a a2 bd
       0.14271696 0.10851475 0.038785547 -0.07918275
000090 d7 21 23 bd 9d c1 39 3e 7a bb 3e bc 14 2d 24 3e
       -0.039827194 0.18140264 -0.011641378 0.16032821
0000a0 24 d1 c6 3d 1d cd 9a be 58 a9 b0 bc 09 80 f8 bc
       0.09707859 -0.30234614 -0.021565124 -0.03033449
0000b0 88 dd 7e bb 82 e6 10 3e ea 67 4b be de a9 08 bd
       -0.0038889367 0.14150432 -0.19863859 -0.033365123
0000c0 0c 84 e9 3c 11 4d 5a be 46 d8 a1 bd a3 8c 37 bd
       0.028505348 -0.21318461 -0.07902579 -0.044811856
0000d0 92 9b 9e be 91 ba 82 be 9e ed 18 3e 73 a7 b1 3d
       -0.30978066 -0.25532964 0.14934394 0.086745165
0000e0 6c 1c d2 3d 94 02 05 3e f3 d9 88 3c f3 9f 94 be
       0.10259327 0.12989265 0.016705489 -0.29028282
0000f0 88 92 7f 3d 71 08 66 be f4 b3 e4 3d ad 1a 3d 3e
       0.062395602 -0.22464158 0.11167136 0.18467207
000100 f6 ee dc 3d 52 de 5b 3d c2 9d 6e be 39 7a 16 be
       0.10787766 0.053678818 -0.23302367 -0.14695062
000110 4b 72 b8 be 86 f7 ac bd 83 cb 25 3d 48 f5 86 3d
       -0.360247 -0.08445649 0.040477287 0.065897524
000120 b8 18 37 3e 4e 11 fa bc f2 6b 74 be 96 03 3f 3e
       0.17880523 -0.03052583 -0.23869303 0.18653712
000130 81 4d f9 3d 5d 2f 66 3b db 2a 6f 3e 61 81 e6 3c
       0.12172986 0.0035123446 0.23356192 0.028137865
000140 ae 71 2a be 52 cc 67 be f4 8a a1 be 70 d5 2a 3d
       -0.16644928 -0.22636536 -0.31551325 0.041707456
000150 c9 19 03 3e 79 fe 86 3e 33 f6 41 be 4c 94 64 be
       0.12802805 0.26366022 -0.18941574 -0.22322196
000160 51 f5 83 be 8d a7 6c be d1 cc 1f 3e 70 56 84 bc
       -0.257731 -0.2311079 0.15605475 -0.016154498
000170 75 35 4e 3e 62 91 82 3e 8b 6e 89 3e bb 8a 16 3e
       0.2013758 0.25501543 0.2684215 0.14701359
000180 d8 8b 81 be 80 e6 7b be 13 ca b3 bd 42 74 3b 3e
       -0.25302005 -0.24599648 -0.08778777 0.18306068
000190 de 25 39 3c a5 dc db 3d bd 63 f2 bd c2 3b 5c be
       0.011300532 0.10735444 -0.1183543 -0.21507171
0001a0 fa f6 03 3e 6e d4 71 3d e6 5a 26 be 0f eb 84 be
       0.12887183 0.05904048 -0.16245613 -0.25960585
0001b0 30 2e 11 be 18 6d 89 bd 86 5d 78 bd 9b 37 93 3b
       -0.14177775 -0.06710261 -0.060636066 0.0044927127
0001c0 09 5d a3 be 15 73 5b be 61 04 a1 be 83 7d 91 be
       -0.31906918 -0.21430619 -0.31448653 -0.2841607
0001d0 28 e5 af be 33 5c 5c be 2a 1a 01 3e 66 f8 44 be
       -0.3435452 -0.21519546 0.12607637 -0.19235381
0001e0 71 0e ad be 30 38 82 bd 39 fe 81 be 7e 19 50 3d
       -0.3380008 -0.06358373 -0.2538927 0.05080556
0001f0 cf 16 fd bc c6 98 b2 3c f5 dd ba 3d 4a 40 b9 bd
       -0.030894665 0.021801364 0.09124366 -0.09045465

weight_hh_l0 f4 [64, 16]
000000 36 e5 95 be 2a 27 f2 3c d2 69 74 bd ad 17 8b be
       -0.29276437 0.02955969 -0.05967123 -0.271665
000010 40 ab ad bd b1 33 1a be 66 62 24 3e bf 2e 97 be
       -0.08479929 -0.15058781 0.16053161 -0.29527852
000020 a0 49 36 be 23 8b 4a 3d 38 80 bc bd 95 eb 5d bd
       -0.17801523 0.049449097 -0.09204143 -0.054179747
000030 ec dc 81 3e 63 b4 a9 3c b3 af 53 be ca 05 41 3e
       0.25363863 0.020715898 -0.20672493 0.18849865
000040 bb 15 76 be ec cf 3c 3d c6 c8 11 3e 09 66 0a 3e
       -0.24031727 0.046096727 0.14236745 0.13515486
000050 55 01 65 be 74 5e 0f 3d 42 11 84 3e ab 44 2a be
       -0.2236379 0.035002187 0.25794417 -0.16627757
000060 b7 47 56 3e 76 bc 18 be 5c 4a 83 3d d8 50 9b 3d
       0.20925795 -0.14915642 0.06410667 0.07583779
000070 25 c7 34 be bf 87 e3 bd 65 26 47 be 1f c0 ad bd
       -0.17654093 -0.11109876 -0.1944824 -0.0848391
000080 b3 b1 45 be ba b0 0d 3e d8 ef 04 bd 18 e0 61 bd
       -0.19306068 0.13836947 -0.032455295 -0.055145353
000090 5d f8 92 3d d6 e2 29 be 20 52 ee bd f8 cb 25 3e
       0.07176278 -0.16590437 -0.11636758 0.16191089
0000a0 25 a2 6c bd 31 25 c5 bd c2 21 55 bd 5d f8 6a 3e
       -0.05777182 -0.09626234 -0.052034147 0.22946306
0000b0 9d 3d 02 bd 57 62 16 3d 96 ab c4 bd cf b9 9d bc
       -0.03179704 0.036714878 -0.0960304 -0.01925364
0000c0 7a 23 84 be ca 04 68 3e b9 39 ef bd 12 8b 2e 3e
       -0.25808316 0.22658077 -0.116809316 0.17045239
0000d0 d5 90 c9 bd af 5e f7 bd b0 cb c3 3d f0 86 ef 3d
       -0.09842078 -0.12078606 0.09560335 0.11695659
0000e0 1b 26 d4 bd ff 38 2b 3e 97 39 aa bd f0 88 3f 3e
       -0.103588305 0.16720961 -0.08311766 0.18704581
0000f0 39 9b 4f be e6 78 18 3e 08 d5 94 bd 5e bc b7 bd
       -0.20274056 0.14889869 -0.07267195 -0.08971475
000100 eb 1e 1f 3e 89 8f 29 be 63 a3 20 be f9 8e 21 3d
       0.15539138 -0.1655866 -0.15687327 0.03944299
000110 25 49 50 be 86 ce 19 3e 62 7d 81 3c 0f c0 c3 bd
       -0.20340402 0.15020189 0.015806857 -0.09558117
000120 d5 08 6a 3e 58 70 81 bd 9d d1 b8 bd 9d d3 c6 3d
       0.22854932 -0.06320256 -0.090243556 0.09708331
000130 67 4d 57 3d 79 49 17 be 73 07 94 be 1e cc 30 bd
       0.05256405 -0.14774121 -0.28911933 -0.04316341
000140 c7 aa 17 be 63 61 8a bb ee e7 0a 3e 63 be cb 3d
       -0.1481124 -0.004223035 0.13565037 0.09948423
000150 01 34 49 bb bc 39 fb 3d 96 c3 b4 3d c6 0c 30 3e
       -0.0030701163 0.12266871 0.088263676 0.17192373
000160 f1 42 fc 3d 4b d1 de bd 96 27 4b bd c5 43 1c 3e
       0.123174556 -0.10879763 -0.0495983 0.15260227
000170 8f 7f 0f be 71 b2 1a be 39 99 e9 bd 91 c1 1d bc
       -0.14013503 -0.15107132 -0.11406178 -0.009628669
000180 2f e5 9b 39 08 d9 e5 3d 0d 16 b2 3d b7 ea fd 3d
       0.0002973466 0.11223036 0.08695612 0.12398284
000190 34 e6 13 3d c3 2e 74 3e 77 23 85 3e 12 0a 4e be
       0.03610821 0.23845963 0.2600362 -0.20121029
0001a0 b5 75 3c 3d c8 9e 4a 3e 18 fa 12 3e 00 20 d2 bd
       0.04601069 0.19787133 0.14353216 -0.1026001
0001b0 d7 87 f3 3c 94 3b 81 3c de 48 06 be 54 82 f5 3d
       0.02972786 0.01577548 -0.13113734 0.11987749
0001c0 46 83 e3 bd a9 bc ac bd c7 51 92 3d 1d 88 46 be
       -0.11109023 -0.084344216 0.07144504 -0.1938786
0001d0 03 f4 26 3d 02 aa 0b 3d fe c3 ad bd ec 35 df 3d
       0.04076005 0.03409768 -0.08484648 0.10898957
0001e0 9b af c9 bd ea 17 2c 3e e1 56 24 be 7f 4f 0e 3e
       -0.09847947 0.16805997 -0.16048767 0.13897513
0001f0 0f 61 fb bc 34 6f 0a be 51 77 67 bd cc 58 54 3e
       -0.03068593 -0.13518983 -0.056510273 0.20736998
000200 6d 84 a8 3d d0 cf 49 bd e0 c4 58 3d 54 b1 c5 bd
       0.08228383 -0.04927045 0.05292213 -0.09652963
000210 86 e0 90 3d e4 b0 ab bd 43 26 85 3e e7 7a 66 bd
       0.070740744 -0.083833486 0.26005754 -0.056269553
000220 ff 09 0a 3e 7f d6 75 3e cf 48 17 3e 8f 6b 9b bd
       0.13480376 0.24007605 0.14773868 -0.075888745
000230 43 e1 1b bd e5 1a 4e be 43 e7 9d bc 5a 5a 8f bd
       -0.038056623 -0.20127447 -0.019275313 -0.06999655
000240 a7 00 ad bd bc df 1b be db 10 21 3e 53 eb 46 be
       -0.0844739 -0.15222067 0.15729086 -0.19425707
000250 a1 d5 8d be ee a3 05 ba 9b 54 c2 3d c0 a7 8f be
       -0.27702048 -0.0005097975 0.094887935 -0.2805767
000260 27 ce 54 be 0d 18 83 bd d9 f1 9c 3d 46 df 4a 3e
       -0.20781766 -0.06401072 0.07663316 0.19811735
000270 9d 51 97 3e 90 7c 16 be cf c0 2f be 69 96 f1 bd
       0.29554453 -0.14695954 -0.17163394 -0.117962666
000280 35 73 59 3d 40 a2 35 bd 55 f9 0e bd 5b a0 21 be
       0.053088386 -0.044344187 -0.03490575 -0.15783827
000290 c6 76 97 bd 0e 3a 2b be d7 22 7e bd ad dc 00 be
       -0.07395701 -0.16721365 -0.062044945 -0.12584181
0002a0 be 07 f0 bc 49 0d 31 bd 20 95 0e 3d e4 e7 80 3d
       -0.029300567 -0.04322556 0.034810185 0.062942296
0002b0 1e f4 25 3e 2d cc 80 3d 71 6c 7e bc da 66 b4 3d
       0.16206405 0.062889434 -0.015528784 0.0880868
0002c0 e2 3c 21 3e 0e 5d b0 3d 79 b4 85 3d 09 d9 05 bd
       0.15745881 0.08611499 0.06528563 -0.032677684
0002d0 2f 90 3d 3e ac 00 85 3d 7b fd d7 3d 0e 98 da bd
       0.18512033 0.06494269 0.105463944 -0.106735334
0002e0 47 d2 1b be d2 2b 39 bb 47 92 5e be c4 28 3d be
       -0.15216933 -0.0028254879 -0.21735488 -0.18472582
0002f0 1b 9f 80 bc cd 02 22 bd ec 27 ad bc 02 44 5f be
       -0.015700867 -0.039553452 -0.0211372 -0.21803287
000300 9e 14 55 bb 46 be 33 bd f8 9f 57 bd 58 fe 58 be
       -0.003251351 -0.04388263 -0.052642792 -0.21190774
000310 6d d7 46 be af 97 1f 3e f6 f9 e0 bd 56 5a 89 be
       -0.19418116 0.15585206 -0.10985176 -0.26826733
000320 25 f8 59 3e 84 a5 8d 3e 88 35 27 be 1b 4b 5e 3e
       0.21286066 0.2766534 -0.16329014 0.21708338
000330 c2 5d cd 3d 22 f7 94 be 98 f0 88 3d fa 4e 05 3e
       0.100276485 -0.29094797 0.066865146 0.13018408
000340 41 ab 0b be c4 c3 8a 3e 73 a4 dc 3c ee 83 09 3e
       -0.13639547 0.27102482 0.026933884 0.13429233
000350 79 50 03 be 58 a3 95 3e d8 8e ee 3d b2 72 62 be
       -0.12823667 0.29226184 0.11648339 -0.22114065
000360 47 1b 89 3e 24 ba a0 3c 46 73 d1 3d 2f 9f 2d be
       0.26778623 0.019620009 0.10227065 -0.16955255
000370 7a 4f 2d be 56 b0 28 3d 8e e9 99 3d 26 35 28 3e
       -0.16924849 0.041183792 0.0751525 0.16426525
000380 98 34 89 bc f2 53 9b 3e 8d 05 a5 3e 81 5f 41 bd
       -0.016748711 0.30337483 0.32230797 -0.04721022
000390 22 60 e0 3c e4 49 c5 bd 8b 04 12 3e ae 8a fc bd
       0.02738959 -0.09633234 0.14259546 -0.123311386
0003a0 d4 b7 d2 bd b7 89 e7 bd 53 c2 f4 bc c1 7d 93 3e
       -0.10288969 -0.11305564 -0.029877817 0.2880688
0003b0 5f b7 12 3e d5 1c 04 be d0 67 2b 3e 47 6b 25 be
       0.14327763 -0.12901624 0.1673882 -0.16154204
0003c0 21 5b 67 bd 55 25 88 3e 87 8f 7e 3e 91 0c 77 3e
       -0.05648339 0.26590982 0.24859439 0.24125887
0003d0 b2 04 a7 3d c7 67 2f be 88 41 2a be 1b 15 03 be
       0.081551924 -0.17129432 -0.1662656 -0.1280102
0003e0 56 02 d8 bd e8 8f 82 bd dd ad 1b 3e 96 3d 29 3e
       -0.105473205 -0.06375104 0.15203042 0.165274
0003f0 5f b0 2a 3d 1c 1e 81 be 22 d7 3f 3e ea 34 2d 3d
       0.041672107 -0.25218284 0.1873441 0.04228679

bias_ih_l0 f4 [64]
000000 bb ed 47 be 39 b9 ce 3d 29 13 2f bd 93 f4 ff bd
       -0.1952428 0.10093922 -0.042742882 -0.12497821
000010 32 ff 21 be cf 23 3f 3e b6 c3 ca 3c 26 e7 1c bc
       -0.15820006 0.18666004 0.024751525 -0.009576594
000020 89 d1 71 be 9f 2c 6a 3e 4f 21 1b 3e c7 bf 3d 3d
       -0.23615088 0.22868584 0.15149425 0.04632547
000030 10 05 9f ba c7 32 b9 bd 13 ad 2a bb 77 fc 01 3e
       -0.0012132246 -0.09042888 -0.0026043102 0.12693964
000040 0a 0f 60 3e a8 52 34 be 9f 90 0f 3e 3c 63 95 bb
       0.21880737 -0.17609656 0.14020012 -0.004558949
000050 f7 9c c0 bd 76 b9 bb 3c 6d d4 d3 3d 43 ff 48 3e
       -0.09404939 0.022915583 0.103432514 0.19628625
000060 72 d7 49 3e ff fc 68 3e 7d f6 39 3e a7 bd 65 3e
       0.19711092 0.2275276 0.18160434 0.22435628
000070 54 05 27 be 6f 5a f3 3d ea 1d 85 3e c9 f7 99 bd
       -0.16310626 0.11882483 0.25999385 -0.075179644
000080 31 92 30 bd 1e 72 10 be 55 bd 0c b9 d7 47 b2 3d
       -0.04310817 -0.14106032 -0.00013421972 0.087051086
000090 c3 ec ce 3c 62 d0 e6 3d 67 45 43 be 81 44 19 3e
       0.025259381 0.112702146 -0.19069444 0.14967538
0000a0 85 da 96 3d eb 6c 5a 3e 53 71 13 3e 89 a2 b5 3d
       0.07365898 0.21330611 0.14398699 0.08868892
0000b0 59 80 6d 3e e2 a9 89 be a7 8f 1c 3e 31 f4 3f bd
       0.23193492 -0.26887423 0.15289174 -0.04686374
0000c0 86 57 17 3e 78 a8 fa bb 55 2b a3 bd c2 f1 a8 3c
       0.14779481 -0.0076494776 -0.07967249 0.020623092
0000d0 41 f6 7d 3e eb 41 83 3e 5d c1 50 3e 86 e7 b0 bd
       0.2480097 0.2563623 0.20386262 -0.086379096
0000e0 2c 7b cc bd 04 53 84 3e 51 f0 43 3e 30 a7 61 bd
       -0.09984431 0.25844586 0.19134642 -0.055091083
0000f0 aa 65 8c b9 9c dd 15 3e 3b 29 8a 3d d5 c6 c4 3d
       -0.00026778626 0.14635319 0.06746145 0.09608237

bias_hh_l0 f4 [64]
000000 19 cc 08 be b9 41 37 3b 34 e9 81 3c 19 53 36 3d
       -0.13359107 0.0027962758 0.01585827 0.04451284
000010 9c 93 ed 3c 1f 59 56 be 9c d6 20 be 3c c6 96 bd
       0.02900105 -0.20932434 -0.15706867 -0.07362029
000020 34 39 36 bb 57 9c 42 be d9 c6 7f 3e 21 e7 a4 bd
       -0.0027805092 -0.19004951 0.24978198 -0.08051897
000030 c9 5b 93 bd b3 f6 10 3d 2a d6 62 3e 01 c3 30 bd
       -0.07195241 0.03539152 0.2215201 -0.04315472
000040 44 9c 3c 3e e0 23 22 3e dd 62 40 3e b0 9b f3 3d
       0.18418986 0.15833998 0.18787713 0.118949294
000050 97 dc 16 bd fa 93 31 be 1f b9 92 bd 8b 30 e4 3d
       -0.036831465 -0.17341605 -0.07164215 0.11142071
000060 2a 36 6a 3e 67 23 14 be 45 70 d8 3c a9 43 2f be
       0.22872224 -0.1446663 0.026420722 -0.17115654
000070 b8 a8 9d 3e 2c 48 6b 3e 53 13 1a be 55 4d f0 3d
       0.30792785 0.2297675 -0.15046434 0.117335
000080 43 e2 4e be 9f f9 18 3e c5 cc 13 3e c1 66 22 3e
       -0.202035 0.14938973 0.14433582 0.1585951
000090 88 04 cf bd 47 dd 11 3e 4a 8d 38 3e 52 7e eb bd
       -0.10108286 0.14244567 0.18022648 -0.11498703
0000a0 67 03 19 3e 19 cc 77 3e c2 9e c8 3d a0 da 79 3e
       0.14942704 0.24198951 0.09795906 0.24399805
0000b0 1f fd 45 be 98 b4 2b be 1b e1 76 be 36 da 1c be
       -0.1933484 -0.1676811 -0.24109308 -0.15317616
0000c0 f7 93 e2 3d f1 fc 2a be 1d 45 ef bd fa 75 06 3e
       0.11063378 -0.16698052 -0.11683104 0.13130942
0000d0 b4 16 8f 3d 17 54 58 3d 65 33 8f 3c 72 b2 90 bd
       0.06986752 0.05281457 0.017480562 -0.07065286
0000e0 47 9c ef bc f5 7c 5f bd 00 ee f7 bd ab 4a 17 be
       -0.029249324 -0.054562528 -0.12105942 -0.14774577
0000f0 f4 18 28 3c cc cd 5b 3e 13 c7 c5 bc 3b 53 ea 3c
       0.010259856 0.21465224 -0.024142778 0.02860414

weight f4 [32, 16]
000000 9e c1 60 bb f2 94 b0 3d 74 f0 02 be 5e 91 96 bc
       -0.0034295092 0.08622159 -0.12787038 -0.018379863
000010 24 aa 25 3e 69 56 cb 3d ac 36 25 bd 35 11 75 bd
       0.16178185 0.09928591 -0.040335342 -0.059830863
000020 f0 65 c9 bd 43 21 75 3d 3f d6 38 be 7f 5b 2e bd
       -0.09833896 0.059846174 -0.18050478 -0.042567726
000030 1c 42 15 3e 8c 5c bb bd 30 da 1f be 61 f6 42 3e
       0.14576 -0.09148511 -0.15610576 0.19039299
000040 2c a0 e0 3d f1 25 48 be 5a cb bd bd 0d 14 1e 3e
       0.1096805 -0.19545723 -0.09267302 0.15437336
000050 d5 1d 64 3e 39 62 5f 3c 78 85 02 3e fd 4a 81 3e
       0.22277005 0.013634258 0.12746227 0.25252524
000060 54 17 45 be 4a b2 aa bd ae 19 39 3e e6 bc eb 3d
       -0.1924718 -0.08334787 0.18076202 0.11510639
000070 6d 39 72 3e 48 de fa 3d 4b bf 83 3c 64 40 02 3e
       0.23654719 0.12249428 0.016082427 0.12719876
000080 2d 9d 9b bd 17 21 36 3c d8 60 29 bd 2f 70 27 be
       -0.07598338 0.011116288 -0.041352123 -0.16351388
000090 ee d4 9b be 5e 00 c2 bb 1d 10 82 bc 05 03 0e be
       -0.3043589 -0.005920454 -0.015876824 -0.1386834
0000a0 da 9b 00 3e 17 bf 13 be c7 ec f4 bd af a2 17 3e
       0.12559453 -0.14428364 -0.11959224 0.14808153
0000b0 e1 c7 98 3e 91 4e 60 bd 08 0e fd bd d8 f8 64 be
       0.29839996 -0.054762427 -0.12356192 -0.22360551
0000c0 fc 2b 87 3d 25 50 9d bd 1b f3 32 3e 52 47 ee bc
       0.06600186 -0.07681302 0.1747555 -0.029086743
0000d0 6e 01 a2 bd c4 b9 82 3d 62 7c e0 bd 19 e1 d0 3d
       -0.07910429 0.06383088 -0.10961224 0.10199184
0000e0 8a 67 40 be 19 c7 13 3e 49 51 33 be 56 53 4d 3e
       -0.18789497 0.14431418 -0.17511477 0.20051321
0000f0 13 2e c9 bc 24 7b 5e 3e f0 9e ec bd 75 4e 27 bd
       -0.024558103 0.21726662 -0.115537524 -0.040846307
000100 69 84 89 bd 97 40 30 be 7e e4 bc bd bc 57 40 bd
       -0.06714708 -0.17212139 -0.09223269 -0.04695867
000110 ee b6 9b be 1c 71 a4 3e ba 59 63 3e 24 4d 2d be
       -0.30413002 0.32117546 0.22202197 -0.16923958
000120 01 b6 65 3e 72 a1 c6 3c 34 9f 42 3d fb 29 28 3e
       0.2243271 0.024246905 0.04751511 0.16422264
000130 0b 8d 4f 3e 4f 12 26 be f0 2a 06 3d cb d4 10 be
       0.20268647 -0.16217922 0.032755792 -0.14143674
000140 c2 78 98 be 6c 8c 97 3d d1 52 05 3e 58 6d 3d bd
       -0.2977963 0.0739983 0.13019873 -0.046246856
000150 83 7a 9a be d9 51 8a 3e 17 f7 8d bd 66 d5 f9 bd
       -0.30171594 0.2701557 -0.06931894 -0.12198906
000160 13 1d 37 3e 72 e4 77 bd cf 05 48 be 7c df 3d be
       0.17882185 -0.060520597 -0.19533466 -0.18542284
000170 06 45 78 3e 50 ec 9d be 9c 22 11 3d 2f 07 f4 3d
       0.2424508 -0.30844355 0.035433397 0.11915433
000180 3c bf 29 be d8 5c 5f bd d0 ab 2c 3d 7a e7 59 3e
       -0.16576856 -0.054531902 0.04215604 0.21279708
000190 0c 5a a9 3d e8 99 cb bd 2c df e0 bd b0 7d 38 3e
       0.08269128 -0.09941465 -0.10980067 0.18016696
0001a0 2e ed 10 3e 92 59 28 3e 38 f6 86 3d e4 ad 43 be
       0.14152977 0.16440418 0.06589931 -0.19109303
0001b0 08 df 5c 3e 70 fa 32 3e 00 dc 65 3b a6 ed 6d 3e
       0.21569455 0.17478347 0.0035073757 0.23235187
0001c0 5c 6c 35 3e f4 bd ea 3c 9d db 24 be 98 dc 5e bd
       0.17717117 0.02865503 -0.16099401 -0.054409593
0001d0 bc ca ab 3d f2 b0 a8 3d 4f 95 2e 3c e3 b0 8a 3d
       0.08388278 0.08236875 0.010655715 0.0677202
0001e0 54 d4 0c 3e eb 24 38 3e 55 7d 66 bd 51 b2 58 3d
       0.13752872 0.17982833 -0.05627187 0.05290443
0001f0 73 83 c2 bd 4f 44 3c 3e e2 12 99 3d 38 a3 3e 3e
       -0.09497728 0.18385433 0.07474305 0.1861695
000200 b6 3b 0b 3e 45 35 51 3d 9c 2e 91 3e d3 8f 69 be
       0.13596997 0.051076192 0.28355873 -0.22808771
000210 4b ef 36 3d 72 e1 5e bd 4c 01 1c 3e 2c 57 17 be
       0.0446618 -0.05441422 0.1523487 -0.14779347
000220 44 d8 e3 bd b8 a9 f4 3d 85 5f 93 be 08 57 95 3e
       -0.11125234 0.11946434 -0.28783813 0.29167962
000230 aa 56 fd bd d8 0a 66 bd 3f 95 2a 3d 3b 71 92 be
       -0.123700455 -0.056162685 0.04164624 -0.28602013
000240 f6 7e 09 be 26 66 3c 3e 09 fa 22 3e 10 07 64 be
       -0.13427338 0.18398342 0.15915693 -0.22268319
000250 4d ef 23 3d fd 11 07 3e 57 3b 6c 3e eb 86 6e be
       0.040023137 0.13190456 0.23069511 -0.23293655
000260 f5 7c 33 3e 5d 60 63 3e cb 75 47 be 74 82 f5 3c
       0.17528136 0.22204728 -0.19478528 0.029969431
000270 b6 a5 2e 3e c1 0a 16 be 2b da a9 3d bb 8a 21 3e
       0.17055401 -0.1465254 0.08293565 0.15775578
000280 a3 76 89 3d 2e 9c cd bd c5 49 8f bd 7c 17 61 bd
       0.06712081 -0.100395545 -0.06996492 -0.054954037
000290 8c 22 4e be 2f ea 8a 3e 70 80 46 3e 1d e6 09 3e
       -0.20130366 0.27131793 0.19384933 0.13466688
0002a0 f7 11 6e 3c be e5 10 3e ba 02 37 be b7 25 78 3e
       0.01453065 0.1415014 -0.17872134 0.24233137
0002b0 60 43 4a 3e 25 a4 3e be 99 ab af bd 04 3c 15 bd
       0.19752264 -0.18617304 -0.085776515 -0.03643419
0002c0 96 b5 28 3e 06 cb 60 3e 80 d1 8c bd 8c e3 b6 3d
       0.1647552 0.21952447 -0.068758965 0.0893012
0002d0 10 83 23 3e 80 6a 7e 3b 80 1e ae bb 8c 70 6b be
       0.15967965 0.0038820803 -0.0053136945 -0.22992152
0002e0 42 4b 61 3e f0 e3 35 bd 6c b2 cd 3d 44 40 b3 bd
       0.22001365 -0.04440683 0.10043797 -0.08752492
0002f0 14 5a de 3d 90 1a 2d 3d 54 f3 4b 3e 28 b6 27 be
       0.10857025 0.04226166 0.19917041 -0.16378081
000300 69 aa 76 be dd fe 57 3e ea 6d 61 3e d7 4c be 3d
       -0.24088444 0.21093316 0.22014585 0.09292
000310 64 b7 88 be 56 07 49 be 18 b3 b0 bc 32 bc 5f be
       -0.26702416 -0.19631705 -0.021569774 -0.21849135
000320 61 eb 00 3e 20 a4 bd bd d5 f9 25 be af 4e 62 3e
       0.1258979 -0.0925982 -0.16208585 0.22100328
000330 01 c1 65 3e c5 fb 91 bd 4e 05 2d be 69 b0 44 3e
       0.22436906 -0.07128099 -0.16896555 0.1920792
000340 28 69 19 be 46 c1 96 bd e1 a7 9a 3d ea a3 e3 3d
       -0.1498152 -0.07361083 0.075515516 0.111152485
000350 7b ce 22 3e d0 4a f0 bc 11 b7 26 bc ab 47 1b 3e
       0.15899079 -0.029332548 -0.010175482 0.15164058
000360 29 14 34 3d 1b b1 78 3e d1 98 d6 3d 13 8e 68 3e
       0.04396454 0.2428631 0.10478366 0.22710447
000370 69 1c d6 3d 5b 55 0f 3e ae 20 f3 bd 6b 95 8a 3d
       0.104546376 0.13997404 -0.118714675 0.067667805
000380 96 d5 88 be 46 ce 9a 3e aa 4d 67 3d 4a f7 ae 3d
       -0.26725453 0.302355 0.05647055 0.085432604
000390 f5 fd 47 be 07 03 2e 3e a3 d9 34 3e 17 90 2d be
       -0.1953047 0.16993342 0.17661147 -0.16949497
0003a0 7e 90 0f be 3d 94 5e 3e 94 4c 16 3d dc 97 92 3e
       -0.14019963 0.21736236 0.036694124 0.28631485
0003b0 ad c2 38 3e a4 2f 41 be e2 ec 50 be b6 b2 31 3d
       0.18043013 -0.1886583 -0.20402864 0.043383323
0003c0 ec b4 ac bc a4 89 e3 3d a4 f4 03 3e 53 10 24 3e
       -0.021082364 0.11110237 0.12886292 0.16021852
0003d0 12 ce 0e bd 55 50 54 3e 71 72 f6 3d 20 cf d2 bd
       -0.034864493 0.20733769 0.12033547 -0.10293412
0003e0 2f d7 73 be 72 85 6f bd 9e 76 98 3d 05 1a c3 bd
       -0.23812555 -0.058476873 0.074444994 -0.09526447
0003f0 ce 51 a3 bd 34 66 99 bd 61 b1 f5 bd 6d ec d2 bd
       -0.079745874 -0.07490197 -0.11996723 -0.10299001

bias f4 [32]
000000 b2 ab 84 be 71 9f 43 3e 18 65 5e 3e 27 7f 1c be
       -0.25912243 0.19103791 0.21718252 -0.1528288
000010 dd 3d 20 3e 96 32 02 3d 50 60 bc bd 3f 5a 7c 3d
       0.15648599 0.031786524 -0.09198058 0.061609503
000020 31 01 54 3e 8e 16 d4 3d c7 f1 fa 3c ce 11 11 be
       0.2070358 0.103558645 0.030632867 -0.14166948
000030 26 ea e5 bd 76 a1 ce 3d cd d6 b0 3d 57 61 44 be
       -0.11226301 0.1008939 0.0863472 -0.19177757
000040 0c fe d0 bd 5e b0 14 3e 88 72 44 3e 2f 34 79 be
       -0.102047056 0.14520404 0.19184315 -0.24336313
000050 d7 25 44 3e 54 6f 3a 3c 88 9c 41 bd 16 0d 37 bc
       0.1915506 0.011379082 -0.04726842 -0.0111725535
000060 b4 a2 24 be c8 8b 7d 3d 52 50 89 3d 15 70 30 3e
       -0.16077691 0.061900884 0.06704773 0.17230256
000070 0c 29 63 be 9c 23 b2 bd e4 2a be 3d 1c 96 5f 3e
       -0.22183627 -0.08698198 0.092855245 0.21834606

weight f4 [32, 32]
000000 a0 80 98 3d 50 89 1b 3e 86 78 f2 3c 53 6d 8b 3d
       0.07446408 0.151891 0.029598486 0.06807961
000010 f8 1b 45 bd a0 a9 3c 3e b5 db 60 bd e4 91 b6 3b
       -0.048122376 0.18424082 -0.05489703 0.0055715907
000020 d0 88 05 3e fc 5a 40 3e 42 c9 3e bd 80 c5 57 bc
       0.13040471 0.18784708 -0.046578653 -0.013169646
000030 8c 2e be 3d cb fd de bd 40 7b d4 3d f3 d5 12 be
       0.09286222 -0.10888251 0.103750706 -0.14339428
000040 9d eb 23 3e ee 72 95 bd bb ac 33 3e 6e 48 35 3e
       0.16007848 -0.07297312 0.1754636 0.17703411
000050 30 fe 6d 3e fd 33 b2 bd d4 14 7a 3c 65 42 a5 bd
       0.23241496 -0.08701322 0.015263755 -0.080693044
000060 05 78 b8 3d 9e c3 a1 3c 6a 56 73 bd f3 7e 8f 3d
       0.09007267 0.019746598 -0.059408583 0.070066355
000070 35 28 e1 bd 7d 93 a8 bd 20 5e 2d bd 88 e7 da bd
       -0.10993997 -0.08231256 -0.042326093 -0.10688692
000080 54 6b 13 be 26 1b 46 be 59 a6 07 bc ed e6 43 3d
       -0.14396411 -0.19346294 -0.008279406 0.04782765
000090 92 01 ef 3d c4 3c 45 3d 4e 58 eb 3d 5b d6 aa 3c
       0.116702214 0.048153654 0.11491452 0.020854166
0000a0 72 cc 0c be e9 f4 0f be 0e 03 15 3e b9 21 bd 3d
       -0.13749865 -0.1405827 0.14551947 0.09234948
0000b0 05 d7 e3 bc f9 36 35 3e bb 45 22 bb 60 73 bc 3d
       -0.02781249 0.17696752 -0.00247608 0.092016935
0000c0 59 fd 13 be b6 f2 ff ba 03 d9 e9 3d 47 be 01 3e
       -0.14452113 -0.001952729 0.11418345 0.12670241
0000d0 5c 40 c5 bd 36 a0 8b bc 6c 29 02 3e 87 9b 17 3e
       -0.09631416 -0.017044168 0.12711114 0.14805423
0000e0 4a d1 92 3c 0d b9 1e bc 04 5d 06 be b7 43 3d 3e
       0.017922062 -0.009687674 -0.1312142 0.18482862
0000f0 1f f3 2b bd d2 71 0d 3e 5d 2a 1c 3e 2e 54 96 3d
       -0.041979905 0.1381295 0.15250535 0.07340275
000100 4c c2 0b be 4a b1 31 be b8 97 76 bd 9f 1b 23 be
       -0.13648337 -0.17352787 -0.060203284 -0.15928505
000110 8b a9 2e be 3f 3d b2 3d de 35 ef bd 66 53 5a bc
       -0.17056863 0.08703088 -0.11680196 -0.013325548
000120 db 9e 98 bc e9 75 8c 3d 49 b5 a9 3c ae 44 52 3c
       -0.018630436 0.06858427 0.020716326 0.012833757
000130 91 90 da bc aa b3 69 3d 9f ff 30 bd 4e 03 4d 3d
       -0.026680263 0.057056107 -0.04321253 0.05005198
000140 74 36 b6 3d 19 72 34 bc 9e a0 19 3e 52 78 2b be
       0.08897105 -0.011013531 0.15002677 -0.16745117
000150 a0 cb 1d bd 76 5a a5 bc 74 78 27 3e a4 bd ff bd
       -0.03852427 -0.020184737 0.16354543 -0.12487343
000160 de 01 0c be ad 47 9b bd af fa 0c be 1e 57 bf 3d
       -0.13672587 -0.075820304 -0.13767503 0.09342788
000170 d0 1f b2 bc 2b 87 27 3e 73 2f b5 3d 88 95 d5 3d
       -0.021743685 0.16360156 0.08846941 0.104289114
000180 1c 84 27 3e 5c e3 25 3e ae e0 81 3d 80 aa b7 bd
       0.1635899 0.16200012 0.063416824 -0.08968067
000190 b3 fb 69 3d d9 ec dd 3c 89 d3 8b 3d f0 90 6f bd
       0.057124805 0.027090477 0.068274565 -0.058487833
0001a0 c5 cd 41 bd eb 10 fa 3d 2b c1 71 bc 8b 36 2b bd
       -0.047315378 0.12210258 -0.0147555275 -0.041800063
0001b0 d3 e9 f1 bc 7b 73 d2 bd aa af fe 3b 45 92 d9 bd
       -0.029530441 -0.102759324 0.0077724056 -0.10623602
0001c0 22 b3 7a 3c 1b e5 45 bc 6f 8d f6 bd 18 29 07 be
       0.015301498 -0.012078549 -0.12038695 -0.1319927
0001d0 54 03 3b bd 90 37 c6 3d e1 d6 f7 bc 33 b6 be bd
       -0.04565747 0.096785665 -0.03025383 -0.093120955
0001e0 d7 34 08 be da b8 cc bc 9a 0e be ba f4 92 cd bc
       -0.13301407 -0.024990488 -0.0014500201 -0.025094487
0001f0 ca 22 12 3d 9f 4e af 3d a5 8c 3a bd f4 90 2d 3e
       0.03567771 0.08559918 -0.045544285 0.16949826
000200 7a a8 1a be 5d 0c 00 bd 9a dc b8 bd 9c 6a 04 3c
       -0.15103331 -0.03126179 -0.090264514 0.008082058
000210 b6 d6 2e 3e a3 1b 88 bd 04 0f d2 bd a0 d7 67 3c
       0.17074093 -0.06645896 -0.1025677 0.01415053
000220 cd 1a db bd 91 14 c5 bd 85 6f cb bc 30 91 08 3e
       -0.10698471 -0.09623063 -0.02483345 0.13336635
000230 06 14 b0 3d 87 a6 15 be fe ba 27 bd e5 88 2b 3e
       0.08597569 -0.14614306 -0.040949814 0.1675144
000240 76 be 27 be 7d 49 c1 3d 34 f6 1c be fd 15 f6 3d
       -0.16381249 0.09437845 -0.15328294 0.12015913
000250 a0 6d 2c 3d 65 8f d1 bd 12 a1 eb bd 68 88 4a 3d
       0.042096734 -0.102324285 -0.11505331 0.049446493
000260 39 de 21 bb 23 33 06 bd 21 33 92 bd 6f a6 0b 3c
       -0.0024699105 -0.03276361 -0.07138658 0.008523568
000270 59 ec 2c be 04 6b e3 bc 5a a4 c5 3d 71 f8 ac bc
       -0.16887034 -0.02776099 0.09650488 -0.02111456
000280 cb c3 37 be 8b 14 11 3d 96 6b 5f 3e 8d 93 b7 3d
       -0.17945783 0.035419982 0.21818385 0.0896369
000290 36 23 58 3e f9 59 56 3d ab ff ef 3d d7 3f 01 3e
       0.21107182 0.0523319 0.11718687 0.12622009
0002a0 4e 83 6b 3d 96 15 10 3e 24 01 03 3e 48 35 b4 bc
       0.05749827 0.14070734 0.12793404 -0.021998063
0002b0 ea 81 02 3e 46 af fb bc 4e ed 3f 3d 56 b3 99 bd
       0.12744871 -0.030723225 0.04685717 -0.07504909
0002c0 98 a1 f1 bd 8b 96 0a 3e 3f 70 51 3e 7f 2b 66 3d
       -0.117984 0.1353399 0.20452975 0.056193825
0002d0 bc 45 74 3e 1c 63 e1 bc 14 2d 0a be 5b 3d 65 3d
       0.23854727 -0.02751308 -0.13493758 0.055966716
0002e0 32 d1 9d 3d d3 56 1a be cc 77 0e be 22 6b de 3d
       0.077059165 -0.15072183 -0.13912886 0.10860278
0002f0 ff 67 62 3d 7e 50 1d 3e 15 59 a3 bd 08 4b 17 bd
       0.05527496 0.15362737 -0.079759754 -0.03693679
000300 68 38 7c 3c b8 b3 16 be 18 68 6d 3e 37 a4 ad bd
       0.015394308 -0.14716995 0.2318424 -0.08478587
000310 56 db 46 3e be 26 31 bd dc 9f d7 bd 3d 37 99 bd
       0.19419608 -0.043249838 -0.10528538 -0.07481239
000320 da 5b b8 3d 1c 0f 65 3e b6 37 3f bc f2 a3 12 bc
       0.09001894 0.22369045 -0.011670997 -0.00895022
000330 d2 7d ee 3c bb b3 3c 3c 78 9a a4 3d df 81 cf 3c
       0.02911273 0.01151746 0.08037275 0.025330482
000340 f2 64 0c bd 03 06 e3 3d 32 03 d4 3d 4a 9f 59 bd
       -0.034275956 0.11085131 0.10352172 -0.053130426
000350 d2 b6 be bc 59 4f 04 be d5 bd e0 bd 29 23 3b 3e
       -0.023280535 -0.12920894 -0.109737076 0.18275131
000360 0c 62 21 be 0b f7 e4 bd 1c cc 07 be 3e 77 48 3e
       -0.15760058 -0.11179932 -0.13261455 0.19576737
000370 0e c6 ff bd 41 2f 34 3e e2 f9 b1 3c d7 2d 43 3e
       -0.12488948 0.17596151 0.021725599 0.19060455
000380 1f 24 28 be 75 64 c8 bd 48 56 34 be 01 ec 15 be
       -0.16420029 -0.09784786 -0.17611039 -0.1464081
000390 63 17 54 bd 34 61 39 3c b8 ee bf bd 64 05 f3 3d
       -0.051780116 0.011314679 -0.09371704 0.118662626
0003a0 29 4f a5 3d cf 0e 69 3d 9c bf 35 3d ad c7 25 3e
       0.08071739 0.05689889 0.044372186 0.16189452
0003b0 fb 4b 1f 3e 55 f1 fd 3c 03 ec 9f 3c 31 19 29 3e
       0.15556328 0.030998865 0.019521719 0.16513516
0003c0 e0 86 c1 bd d2 f9 2c be 0d 8b dd bd 15 58 ac 3b
       -0.094495535 -0.16892174 -0.108175375 0.0052595236
0003d0 3f 0e 1b bd 1d 60 0c be c4 06 0a be 9b 35 6d 3d
       -0.037855383 -0.1370854 -0.13479143 0.05791245
0003e0 13 5f 43 3c e8 6e 0a 3e 8d ed 15 3e 46 81 00 3e
       0.011924523 0.1351887 0.146414 0.12549314
0003f0 0d f1 43 bd 2a c8 81 bc 61 7c 35 3b 9b bf 37 be
       -0.047837306 -0.015842516 0.0027692544 -0.17944185

bias f4 [32]
000000 7a 2e 2d 3e 73 01 18 3e b0 72 03 be 95 5a b4 bd
       0.1691226 0.14844303 -0.12836719 -0.0880634
000010 8e d1 12 be 60 64 3c 3e dd 51 a4 3d e4 9f 1a bc
       -0.14337751 0.18397665 0.08023427 -0.009437535
000020 53 9b 21 be 66 fb fd bd 4b 11 1b 3e d2 28 5b bd
       -0.15781908 -0.12401466 0.15143315 -0.053505726
000030 6f 2b 61 bd 3b 0c 08 be 77 a7 64 3d 60 b3 49 3e
       -0.054973062 -0.13285916 0.05582377 0.19697332
000040 a6 27 1b 3e 41 1b c2 bd cb 1b 4d 3e fe d8 9a bd
       0.15151843 -0.094778545 0.20030133 -0.07560919
000050 3a 27 ec bd f1 05 60 3e 99 0b e4 bd d2 94 f9 3d
       -0.115309194 0.21877266 -0.111350246 0.12186588
000060 8c 38 12 3e 34 30 05 3a e0 cb fb bd 46 0f d3 3d
       0.14279383 0.000508073 -0.122947454 0.103056476
000070 22 f3 a4 bd 01 b1 f9 bd 90 a6 75 bb 4f c0 ea bd
       -0.080541864 -0.12191964 -0.0037483312 -0.11462461

weight f4 [32, 32]
000000 61 19 f0 bd 28 d5 ab bc 17 2b a4 bd 4e 8c 87 bd
       -0.11723591 -0.020975664 -0.08016031 -0.06618558
000010 95 53 34 be eb b7 32 be fc 20 e9 bd 93 35 12 3e
       -0.17610009 -0.17452972 -0.113832444 0.1427825
000020 1b c9 0e be 74 94 33 be 90 c1 aa bc 1b 35 66 3a
       -0.13943903 -0.17537099 -0.02084425 0.0008781717
000030 82 4f c5 bc 43 a4 7e bd 76 be 1f 3d d6 db 2a bd
       -0.024085764 -0.06216837 0.038999997 -0.04171356
000040 93 02 ee 3d d5 7b 28 be 67 39 36 bd 26 cc 06 be
       0.11621585 -0.16453488 -0.044488337 -0.13163814
000050 28 6e 93 bd 7a 60 23 3e 95 fa 20 3d 0b 15 92 bd
       -0.07198745 0.15954772 0.039301474 -0.0713292
000060 ba 18 07 3e e7 74 af 3d ed 30 04 3e 12 a9 0e 3d
       0.13193026 0.08567219 0.12909289 0.034829207
000070 59 86 cf b9 1c a4 8a bd 09 58 80 3d f4 d7 21 3e
       -0.00039582214 -0.06769583 0.062667914 0.15805036
000080 ec 4b 11 bd 2e 35 d2 bd ad 99 c3 3d 06 40 f9 bd
       -0.035472795 -0.102640495 0.09550796 -0.121704146
000090 2f 01 7e 3c ff 53 34 3c 1c e7 45 3e 06 ea c4 bd
       0.015503212 0.011006354 0.19326442 -0.09614949
0000a0 76 05 1c be 68 14 84 3c be 9c 95 bc 2f 5c 60 bd
       -0.15236458 0.016123012 -0.018263217 -0.054775413
0000b0 bf 6b e9 bb b5 91 ea 3d f3 88 03 3c 44 5f 3b 3d
       -0.00712344 0.11453573 0.008028257 0.04574515
0000c0 ef 0c 5d 3e a4 28 da bd 47 25 46 3c b1 06 fd bc
       0.21586965 -0.10652283 0.012093849 -0.03088698
0000d0 3a e9 05 bd 18 1f 7a 3e 2e 56 e0 3d e8 18 2b 3e
       -0.032693125 0.24425924 0.109539375 0.1670872
0000e0 55 09 0e 3e 58 f7 9f 3d 94 10 f7 bb 46 ee e7 bc
       0.13870747 0.07810849 -0.007539818 -0.02831186
0000f0 a6 e5 f1 3d 06 1d 1a 3b 2f a3 85 bb 04 88 19 be
       0.1181138 0.0023515834 -0.004078291 -0.14993292
000100 50 21 97 bd 7a 0f 9e 39 ac 1c 91 3d d4 4d e5 3d
       -0.07379401 0.0003014764 0.07085547 0.11196485
000110 b6 6e c1 3d 4e dd 95 3d a8 dd 46 bd 3f 3e 2f 3e
       0.094449446 0.07317601 -0.04855123 0.17113589
000120 12 16 be bd bf 1f 3f bd 05 24 10 be 9a 33 12 3d
       -0.09281553 -0.046661135 -0.1407624 0.035693742
000130 75 21 24 3e 48 76 29 bd 3f 2d 99 bd bf df 10 3e
       0.16028388 -0.041372567 -0.07479333 0.14147852
000140 2c 57 c2 bd 11 61 b4 3d 58 fb 2b be fd 1a 10 be
       -0.09489283 0.088075764 -0.16795099 -0.14072795
000150 59 3d 62 3d f0 17 73 3c ad 3c 9a 3d 27 50 2b bd
       0.055234287 0.01483725 0.07531104 -0.041824486
000160 04 26 02 3e aa a4 ec 3c 6c 5d cd 3d f5 46 2c bd
       0.12709814 0.028887112 0.100275844 -0.042059857
000170 e1 85 a1 bc 34 f8 b1 3d b1 55 d7 3c 05 6c 1c 3e
       -0.019717159 0.08689919 0.026285978 0.15275581
000180 86 44 69 3e 07 98 6b 3e a6 a2 bb 3d 09 42 17 3e
       0.22780046 0.23007213 0.09161882 0.14771284
000190 ea 6e 3c 3c 53 9d 12 3d 39 2d 87 3e 11 6c ca bd
       0.011501053 0.035794567 0.2640169 -0.09883893
0001a0 78 21 26 bd 87 c8 c7 bb 51 2f b9 bb e5 94 b8 3c
       -0.040559262 -0.006096903 -0.0056513925 0.022531936
0001b0 78 46 09 3d a5 91 3d 3d 58 b4 12 be 12 47 4f bd
       0.03351447 0.046281476 -0.14326608 -0.050604887
0001c0 bc f0 7b 3e 81 6e 94 3c 00 f9 ee 3d 40 b5 b1 3d
       0.24603552 0.018119099 0.11668587 0.08677149
0001d0 24 5c 9a 3d 95 0f 00 3e 93 d5 56 3e 35 01 0f bd
       0.07537106 0.12505944 0.2097991 -0.03491326
0001e0 d2 ab 82 bd 01 10 0c be 8f 17 c9 3d 5c c5 20 3e
       -0.063804284 -0.1367798 0.098189466 0.15700287
0001f0 af 00 1c be 24 13 6b bd 90 8e c8 3c 97 19 cc bd
       -0.15234636 -0.0573913 0.024482042 -0.099658184
000200 c1 f0 cf 3d 4c 35 21 be 72 21 84 3d 6f b3 21 3e
       0.10153342 -0.15742987 0.06451692 0.15791105
000210 9e 0f 10 3d ff 3a 04 be 29 de 9a 3d 32 90 ce bd
       0.035171144 -0.1291313 0.07561905 -0.10086097
000220 1e 34 97 bd 7d 41 f1 3d 33 cd 77 3c f5 12 94 3d
       -0.073829874 0.11780069 0.015124607 0.07230178
000230 8a d5 dc 3d 67 21 e3 bd f8 9e ef 3d d8 5b 12 3e
       0.10782917 -0.11090355 0.11700243 0.14292848
000240 79 ea 78 3d 06 af 6d bd ab 76 90 bd 65 e4 ad bc
       0.060770486 -0.058028243 -0.07053884 -0.021227071
000250 9f d7 4a 3d d8 cd d9 bc e8 1a 2a be 40 12 e6 bd
       0.04952204 -0.026587412 -0.16611826 -0.1123395
000260 e5 23 d5 ba 97 f7 32 be 6b 3f f8 bd c2 14 b1 bd
       -0.0016261308 -0.1747726 -0.12121471 -0.08646537
000270 bb bb 5c ba bf f8 35 bd 28 de a1 3d 6f 19 1c 3a
       -0.0008420308 -0.044426676 0.07903701 0.00059547176
000280 e0 55 0b be 09 2e 14 be c6 3f 14 3e 80 a4 20 3e
       -0.13606977 -0.14470686 0.14477453 0.15687752
000290 22 6d 26 be 01 56 23 be 98 19 b4 3d 78 c4 84 bd
       -0.16252568 -0.15950777 0.08793944 -0.06482786
0002a0 39 24 01 bd d9 23 0f 3e e7 7d 2d be c9 68 8f bd
       -0.031528685 0.13978519 -0.16942559 -0.07002408
0002b0 e8 98 a1 bd 79 14 f6 bd bd f9 ea bd 70 76 14 bd
       -0.07890493 -0.120156236 -0.11473415 -0.036245763
0002c0 18 7e 1a 3d 49 63 1d be 37 77 b9 3c 48 0e 22 3e
       0.03771791 -0.15369906 0.022639854 0.1582576
0002d0 40 09 88 bd 7e 3d e2 3d 18 d0 0b 3e 5a 6d 2e bd
       -0.06642389 0.11046885 0.136536 -0.042584755
0002e0 21 ee ca 3d 50 60 a6 3d b3 80 1f 3d da f3 a4 3d
       0.09908701 0.08123839 0.038941097 0.080543235
0002f0 0d cf 93 3c c4 60 17 3d a2 cd c8 3d ac 27 e4 bd
       0.018043065 0.036957517 0.09804846 -0.11140379
000300 f5 46 8b bd 54 4e d1 3d 6d c7 27 be dc 5e 0f 3e
       -0.06800643 0.10220018 -0.16384669 0.1400103
000310 b4 78 a9 bd 07 95 d2 3d 43 43 dc bd 9d 4b 93 bd
       -0.082749754 0.10282331 -0.10755017 -0.071921565
000320 2e 38 af 3d 98 7b 27 be 41 6e b1 bd e3 7e a3 bc
       0.08555637 -0.16355741 -0.086636074 -0.019957965
000330 53 13 22 3d a1 7c a4 3d e4 f6 8e 3d 47 d6 6e 3d
       0.03956921 0.080315836 0.069806844 0.05830982
000340 ee e2 98 bd 7c e3 c9 bd 72 4f 98 bd 8a a1 a2 bd
       -0.074651584 -0.09857842 -0.07437028 -0.079409674
000350 eb c8 3e 3a a4 f4 8d 3d eb 23 1b 3d 56 c8 d3 3d
       0.0007277864 0.06931427 0.03787605 0.103409454
000360 0a 3e 3f 3e 8b eb f1 bc 82 67 a3 3d ba f9 df bd
       0.1867601 -0.029531261 0.07978727 -0.109363034
000370 e1 91 4b bd 42 86 83 bc f4 e0 28 3e 10 73 18 3e
       -0.049699668 -0.01605523 0.16492063 0.14887643
000380 49 b8 af 3c 37 b0 5c bd 91 18 4f bc d5 4d 02 3e
       0.021450179 -0.05387899 -0.012640134 0.12725003
000390 43 ea a6 bd 93 97 af bd f8 03 13 3d 8f 9e 7d bc
       -0.081501506 -0.08573832 0.035892457 -0.015479698
0003a0 d5 df 93 bd cd 9d c4 3b ba 05 7e bd bf 25 84 bd
       -0.07220427 0.0060002566 -0.06201718 -0.06452512
0003b0 bb 6c 3f 3d cf 57 b2 3d 88 9a 5e bc 0d 87 ce 3d
       0.046734553 0.087081544 -0.013586648 0.10084353
0003c0 d7 3d c6 3d 35 39 2d bd 07 33 aa bd f6 38 c7 bd
       0.09679764 -0.042290885 -0.08310514 -0.09727661
0003d0 5c 02 0a be 70 74 27 3e d0 1a 15 be e7 da 8e bd
       -0.13477463 0.16353011 -0.1456101 -0.06975346
0003e0 8c ee d5 3d 9b f3 2e be e3 88 14 3d 93 7b f5 3d
       0.1044589 -0.17085116 0.036263358 0.119864605
0003f0 ef 5e e2 bb 86 20 01 be f2 3d f7 bd 5a 02 21 3e
       -0.0069082896 -0.12610063 -0.12072362 0.15723553

bias f4 [32]
000000 42 97 82 bc ab 5b e2 3d ea d9 8c bd c7 9e 78 3e
       -0.015941266 0.110526405 -0.06877501 0.24279319
000010 af 78 09 bd 57 6a 01 3d 1c 5a 23 3c 33 06 23 be
       -0.03356236 0.031595554 0.009970214 -0.15920334
000020 28 14 b2 3b fb 87 0c bd d6 1f 58 bc 2e 6f 13 3e
       0.0054345317 -0.03430937 -0.013191184 0.1439788
000030 87 68 67 3e b7 12 4b 3e 7a e7 f4 bd 0b 54 d4 3d
       0.22598468 0.19831358 -0.11958213 0.103675924
000040 fb 3c 0c 3e bc 12 1a be 7e b7 0b bc a1 22 ef bd
       0.13695137 -0.15046209 -0.008527635 -0.11676527
000050 a5 6c 35 3e ac 21 fd bd 7a f1 bf 3d 41 41 08 be
       0.17717226 -0.12359938 0.0937223 -0.13306142
000060 20 ea e1 3d 40 55 55 3e fc 13 51 bd b6 80 63 3e
       0.11030984 0.20833302 -0.05104445 0.22217068
000070 c7 cd da 3d eb e8 4d 3e 14 ba 11 bd 6f 8a 05 3e
       0.1068378 0.20108382 -0.03557785 0.1304109

weight f4 [1, 32]
000000 32 90 d6 3a 57 be 0a bd c5 f5 b0 3b 82 f0 71 bc
       0.0016369878 -0.03387293 0.0054003918 -0.014766814
000010 e9 d5 1f bb 9a 74 f4 3a cd 55 cc 3b 5a c5 b4 bc
       -0.0024388975 0.0018650473 0.006235814 -0.02206676
000020 e9 b9 9b bb 03 ec 80 bc ff 91 f9 3b a4 82 0d 3c
       -0.004752387 -0.01573754 0.007616281 0.008637104
000030 0e e6 99 3c 79 8d 55 bc e0 cf e1 bc e3 cb 33 bd
       0.018786456 -0.013034218 -0.027564943 -0.043895613
000040 88 e9 ef 3c b6 11 de 3c fb e7 63 bc 26 41 cb bc
       0.029286161 0.027108055 -0.013910289 -0.024811339
000050 2c 72 0a bd 01 3a 35 bb 7d a8 35 bd e5 d3 b4 3b
       -0.03380029 -0.0027652981 -0.044350136 0.005518424
000060 64 de 68 3c a6 c2 06 3c 38 ca b8 3b 7e c5 8c 3c
       0.014213178 0.008225119 0.0056393407 0.017184015
000070 df e9 e3 bc 2e c0 15 bd d8 d9 b8 3c 67 68 c9 bc
       -0.02782148 -0.03656023 0.022564813 -0.024585916

weight f4 [1, 32]
000000 44 e5 83 bc 49 3f 2e be dc e5 49 bb 97 10 09 be
       -0.016100533 -0.17016329 -0.0030807173 -0.13385235
000010 40 b1 35 3c ca 01 aa bc af 7f 38 3c cb f5 eb 3c
       0.011089623 -0.020752806 0.011260911 0.028803727
000020 e9 53 b5 3a fa 19 fc 3b c2 9f 5c bb 1b 88 21 bd
       0.0013834211 0.0076935263 -0.003366456 -0.03943644
000030 76 7a f7 bd f7 90 f2 bd ad 26 4d 3c 1f 31 0b be
       -0.120839044 -0.11844056 0.012521428 -0.13592957
000040 6a 9c 54 bb 78 1b 8a bc b4 3b c0 bc bb 83 f5 3c
       -0.0032441863 -0.016858801 -0.023465969 0.02997004
000050 d3 c4 f1 bd 71 3f cb bc 66 5b f3 bd c9 25 81 bc
       -0.11805119 -0.024810525 -0.11882667 -0.015765088
000060 e1 cc 51 bc 7e 0f f0 bd be 25 ce bc fa dd dc bd
       -0.012805195 -0.11721705 -0.025164481 -0.10784526
000070 c6 8a e3 bd de 2f d5 bd 72 b6 8f bc df aa fd bd
       -0.11110453 -0.104095206 -0.017543051 -0.12386107
