models/patient4/ppo_model_for_patient_4_Critic.pth (torch, 22684 bytes, 15 tensors)

FeatureExtractor.LSTM.weight_ih_l0 f4 [64, 2]
00000000: fdad 04be e009 36be 963f c0bd 915c 14be
00000010: 9cdf a5be a361 a83d e186 80be a4eb 513d
00000020: d1e3 f9be 067a 0c3d fa0c fdbe 8086 133e
00000030: a823 85be f307 77bd 21a4 2c3d af8b 303d
00000040: 33a6 113d 387b a6bd d3f3 59be 3dd1 a7bd
00000050: 5e59 9cbe 8f1d 17bd d4db ccbe 970d 893e
00000060: 49a9 f2bd 41b3 91be b512 aebe d794 3d3e
00000070: fd09 0bbe 9a54 533c 17f8 63be a5fe 5bbe
00000080: 5ba6 0dbf 8fb6 7cbe 8b99 02bc 9962 153e
00000090: 3e6a 0ebf a3f5 44bd 3764 babd cf09 41bd
000000a0: 9527 6cbe 876d 563e 52f5 01bf b98d 1e3d
000000b0: 090a cbbe b3a8 f33d 87f7 35bd 7ea1 b3be
000000c0: b98d 9ebd 2397 a0bb e015 843c 6d23 be3d
000000d0: b760 883c 8d3a 37bc 6c7c cabe 0cab 433e
000000e0: b305 aebe 6c2f 25be fca7 dfbe 0a37 cabd
000000f0: 465d dfbe be09 6a3d f998 77bd 4182 efbd
00000100: f957 95be 6b8c 193e 9b26 7abd 394b a4bd
00000110: e211 b83e d106 62be 5b76 723e aec2 00be
00000120: 774b 6dbe b49c 60bd ff17 b73e d794 6a3e
00000130: 5351 b73e 0126 2f3e 284b 453e e8e6 96be
00000140: 16f7 133e aa84 bc3c 08df 16be c7fc 11be
00000150: da2a 6f3e 4ead 833e f595 69bd 587e 5fbc
00000160: f955 9a3e 98d1 28be d0da 413e 304b 20be
00000170: 7dfc b93e 0c0b 903e c50e b83e c349 363e
00000180: 2fc8 6fbe a535 683d cb36 b2be 9d44 7abe
00000190: 678c ddbe 40dd e7bc 931f 96be a839 fb3c
000001a0: 2cb0 89be b454 36be d68e 74be 9b57 ccbd
000001b0: 7e21 ccbe de9e 0abe 6912 9bbe d4b9 a4be
000001c0: 27c4 ecbe 3325 62be bf7d d83d ecc4 c5be
000001d0: 9cd2 e7be a66b 22bd 3190 10be 3988 7ebb
000001e0: f9b3 edbd 2002 31bd 4107 53be e57a 64bb
000001f0: b760 2f3c 7804 efbd 9e7c b5bd 37e7 debc
-0.12956996 -0.17777205 -0.09387128 -0.14488436 -0.32397163 0.08221748 -0.25102904 0.051250115
-0.48806623 0.034296058 -0.49423963 0.14406776 -0.26003766 -0.060310315 0.042148713 0.043101963
0.03555889 -0.08128971 -0.21284418 -0.08194206 -0.30536932 -0.036893424 -0.40011466 0.2676818
-0.11848695 -0.28457072 -0.33998647 0.18513809 -0.13578029 0.012898589 -0.22262608 -0.21483858
-0.55331963 -0.24679016 -0.007971178 0.14588393 -0.5563086 -0.04808582 -0.09101146 -0.047128495
-0.23061974 0.20940219 -0.50764954 0.038709376 -0.39656094 0.11897411 -0.044425514 -0.35084146
-0.07741875 -0.0049008294 0.016123712 0.09284101 0.01664768 -0.011183393 -0.3954805 0.19108218
-0.33988723 -0.16131371 -0.4368285 -0.09873779 -0.4362585 0.057138197 -0.06044862 -0.11694766
-0.2916868 0.14994971 -0.061071973 -0.0802216 0.35951144 -0.22072913 0.23677962 -0.12574264
-0.23173319 -0.054836944 0.35760495 0.2290834 0.35804233 0.17104341 0.19266951 -0.29473042
0.14449725 0.023012478 -0.14733517 -0.14256583 0.2335619 0.25718158 -0.057027776 -0.013640963
0.30143717 -0.16486204 0.18931127 -0.15653682 0.36325446 0.28133428 0.35948768 0.17801575
-0.23416208 0.056691784 -0.3480743 -0.24440236 -0.4327118 -0.028303742 -0.29320964 0.030667141
-0.2689222 -0.17805749 -0.23882613 -0.09977647 -0.39869303 -0.13537166 -0.30287483 -0.32173026
-0.46243402 -0.22084503 0.10570859 -0.38626802 -0.4527787 -0.039653443 -0.14117505 -0.003883852
-0.11606593 -0.043214917 -0.20608236 -0.003486329 0.010704211 -0.11670774 -0.088616595 -0.027209861

FeatureExtractor.LSTM.weight_hh_l0 f4 [64, 16]
00000000: 1d0f c03e 49a3 9a3c 88dd cfbe c1a8 2fbe
00000010: 711b 11bd dc28 5abe b386 b3be af49 25be
00000020: d490 d9bd d047 6e3e d2b5 60be 43e3 693b
00000030: 47c4 d3be 7e2f cebe b175 5abe cdd2 a1bd
00000040: c9c3 8a3d ade8 043e 345e 8cbd 01c0 5e3c
00000050: a8e2 373e 3fa7 24bd 3fed 0f3d bc3f 48be
00000060: 34b3 3fbe 3c7a 2e3e 40e2 85be 07cd 0a3e
00000070: bb26 76be a32f 43be 835f 1c3e 5062 8bbe
00000080: 80ed 1d3e e808 ba3d daed 41be 8c80 a3be
00000090: c1ad 433e 2ed2 cabe 9fbd babe 79d4 2ebd
000000a0: 64cd bebe 50e7 af3e b1f0 72be c53f ef3d
000000b0: 81a5 183d 9e07 42be 83a0 73be bd64 abbe
000000c0: f317 823c b6a3 9abe 8895 b3be 4520 a0be
000000d0: 10e8 823d afc1 06bd d1af 96be d3f6 d0bb
000000e0: 79ea 80be 2cb6 ab3c 9324 0bbe 1ac0 fabc
000000f0: 49d5 bbbe 7564 42be 2b57 023e a51e bebd
00000100: 73d6 1e3e e039 f3bd d43e b5be 3fc6 01be
00000110: 694d 5e3e 956a 3cbe 1cc3 1f3e f962 b7be
00000120: 0150 4c3a 97c6 123e 38bd 0a3e 1d19 45be
00000130: 41d4 b7bd ec08 6bbd 9af3 41be 0a73 71be
00000140: 9e78 a73d 1294 93bc a2d9 dbbd c179 85be
00000150: f077 25be 275b 91be ae13 dd3d e8a8 dfbd
00000160: 019e ee3d 040f 77bb 2755 65be 5f61 153e
00000170: 17e8 573d 9edb 31be 7de6 65be 7323 cdbd
00000180: 4515 30bd f334 72bd 3296 b0be 7eb5 a53d
00000190: f102 a0bd c8f6 073e 4581 dd3d 70c6 90be
000001a0: 4e47 b9bc 1eb7 ee3c 41a7 ad3d fc03 e8bd
000001b0: 19eb 39be 1365 99be 790f 7dbe 96ac 78be
000001c0: 6c89 25be 8b8b 943d 9f69 64bd d4d9 5abe
000001d0: e8e7 a03e 9789 9dbe 6118 49be 17bc e4bc
000001e0: aebb c63d 0c30 8ebc e1cf 3dbd b331 a43e
000001f0: a6ac 1bbe 225b 7e3d 49cf b8be 510e a53d
00000200: 46f5 333e ac24 b03d 8cdf d2be 5872 13be
00000210: 7fdf 003e 52d8 c5be 12e6 adbe 4123 b6bd
00000220: f088 16be dff5 9e3d f012 2dbe b8e1 d43c
00000230: 2be3 d8be b3ff 38bd eec2 20be b25d 5ebe
00000240: a288 763e 0ce9 96be 2c62 1fbe 4c1a 82be
00000250: 2610 b03e b487 afbe 2574 38bd aec2 523e
00000260: 3be7 28be e11e 2c3e c96c 363d d695 ffbd
00000270: b0ba a13a 0d68 233e 3bb6 55be ea4b 283d
00000280: 07c2 18be 3533 aebd dd33 60be 7a99 ec3d
00000290: e0a0 333e 8af4 97be 7992 9bbe dd03 31bd
000002a0: 5589 aabe db18 9fbd 3910 a3be 0894 d4bd
000002b0: 456b 4abc bfac c9bd 683f 7dbc e156 8fbe
000002c0: 1ef3 643e 82e2 5abe cdb4 063d 6aa3 8cbe
000002d0: 8f0a e6b9 78c0 b8bd 56de c9bd 1dbf 8ebe
000002e0: 18dc 48be 03c8 4e3e d0b9 083e 25d0 70be
000002f0: 9ac7 70be 7b92 2dbe 18ec cbbc 8df4 5e3e
00000300: 55e1 d5bc c4b6 7bbe 2900 71be ab0f 8ebe
00000310: e6c5 093e 1895 99be 74b1 c3be 62cb c8bc
00000320: 2024 5a3d 21ab f93d 217c d7be 04ad da3d
00000330: 78f9 343b 8e86 babe 9eaa e8bd e4c1 f1bd
00000340: ddf8 8e3e 3ecc aabe c56d a9be 2a81 cb3d
00000350: 4b94 213e 68a4 2bbe 384d 99ba d20f 14be
00000360: 9f21 8bbe 6128 64bc dd0a 84bd a831 413e
00000370: ec75 7fbe 91d5 953c f130 b9bd a561 72be
00000380: fc3b 4e3e 5918 093b 9f6c 2e3d 500b a5be
00000390: 3fcc 543d 156d acbd 04ed 4dbd acbf 5a3e
000003a0: 2a8a 33bd 3d55 6d3d e8df 2abe c87b b43e
000003b0: 6394 9abe ef77 a7bd 6f87 2ebe 512b 43be
000003c0: 823f 9dbd 2d92 80be 56c8 fb3c 825b 32be
000003d0: 74e3 43bd b1b8 3cbe 1093 4abe 5d5b 8c3d
000003e0: 4e67 7ebe 9488 5d3d d426 20be 4e96 8e3e
000003f0: 61c7 bdbe 0f8e 86bd a8a7 7cbe 0417 2fbe
0.3751153 0.018876689 -0.40598702 -0.17154218 -0.03542656 -0.21304649 -0.35063705 -0.1614139
-0.10623327 0.23269582 -0.21944359 0.0035688437 -0.41360685 -0.4027061 -0.21333958 -0.07901535
0.06775624 0.12979384 -0.06853905 0.013595582 0.17957556 -0.04019856 0.035138365 -0.19555563
-0.18720704 0.17038816 -0.26149178 0.13554774 -0.24038212 -0.1906114 0.1527081 -0.27223444
0.1542263 0.0908373 -0.1893839 -0.3193401 0.1910925 -0.3961348 -0.36472794 -0.0426831
-0.37266076 0.34356165 -0.23724629 0.11682085 0.03726721 -0.18948218 -0.23791699 -0.33475295
0.01588056 -0.30203027 -0.3507502 -0.3127462 0.06391919 -0.032899555 -0.29431012 -0.00637708
-0.25178888 0.02096089 -0.1358817 -0.03060918 -0.3668616 -0.18983634 0.12728564 -0.09283189
0.15511493 -0.11876273 -0.35399497 -0.12673281 0.21709217 -0.18400033 0.15601772 -0.35817698
0.0007793904 0.14333569 0.13548744 -0.19247861 -0.08976031 -0.057381555 -0.18940583 -0.2357904
0.08177303 -0.018014941 -0.107348695 -0.26069453 -0.16159034 -0.28389856 0.10794769 -0.10920888
0.116512306 -0.003769816 -0.22395764 0.14587925 0.052711572 -0.17368934 -0.22451206 -0.10016527
-0.042989034 -0.059132528 -0.3448959 0.080912575 -0.07813061 0.13277733 0.10815672 -0.28276396
-0.022617009 0.029140051 0.08479167 -0.11328885 -0.18156089 -0.29959926 -0.24712934 -0.24284586
-0.16165704 0.07253178 -0.05576479 -0.21372157 0.3142693 -0.30769035 -0.19638206 -0.02792172
0.09703766 -0.017356895 -0.046340827 0.32069167 -0.15202579 0.06209863 -0.36095646 0.08059371
0.17574033 0.086007446 -0.41186178 -0.14399087 0.12585257 -0.38641602 -0.33964592 -0.08893443
-0.14700675 0.0776174 -0.16901755 0.025986537 -0.42360815 -0.04516573 -0.1569936 -0.2171543
0.24075559 -0.29474676 -0.15564793 -0.25410688 0.3438732 -0.3428322 -0.04503264 0.20582077
-0.16494457 0.16808654 0.04453734 -0.12479751 0.0012338962 0.15957661 -0.20870297 0.041088022
-0.14917766 -0.08505861 -0.21894784 0.11552711 0.17541838 -0.29678756 -0.30385187 -0.043216575
-0.333079 -0.07768413 -0.31848314 -0.10379797 -0.012354677 -0.09847402 -0.015457012 -0.2799597
0.22358367 -0.21375468 0.03288727 -0.27468425 -0.00043876885 -0.090210855 -0.0985686 -0.27880183
-0.19615209 0.20193486 0.13352132 -0.23516901 -0.23513642 -0.16950409 -0.024892852 0.21772976
-0.026108423 -0.24581438 -0.23535217 -0.2774633 0.13454399 -0.29996562 -0.38221323 -0.024511043
0.053257108 0.121908434 -0.4208689 0.10677531 0.0027614515 -0.36430782 -0.11360668 -0.1180456
0.27924243 -0.3335895 -0.3309156 0.099367455 0.15779226 -0.16761935 -0.0011695987 -0.1445916
-0.27174088 -0.013925643 -0.064473845 0.18866599 -0.24947327 0.018290313 -0.09042538 -0.23670061
0.2014007 0.0020919053 0.042584058 -0.32235193 0.051952597 -0.08419243 -0.050274864 0.2136218
-0.043832935 0.057942618 -0.16686976 0.35250688 -0.30191335 -0.081771724 -0.17043851 -0.19059493
-0.07678129 -0.25111523 0.030735176 -0.1741772 -0.047824338 -0.18429829 -0.19782662 0.06853364
-0.24844095 0.05408533 -0.15639812 0.27849048 -0.37066177 -0.06570064 -0.24673331 -0.17098624

FeatureExtractor.LSTM.bias_ih_l0 f4 [64]
00000000: 7ba5 ccbd a96c 21be 419b b43e adda 383d
00000010: c064 3cbe f71a 303e d7e3 043e de1e 9b3e
00000020: 3041 7f3e 0259 c5bd 74d6 313c 953c a1bd
00000030: 7688 f53d ae1e 643d 0993 9e3e 70a8 223e
00000040: 90ce a73d 9b15 993e 21fb ed3c 94d0 b6bd
00000050: 53a3 3a3e 906c d8bd ec30 94bd c73b c43e
00000060: 4b19 a63e e2f0 01be d345 9e3e aae4 17be
00000070: bf7e 293e f877 d23d 2f15 f3bc 4bc9 723e
00000080: 605f e8bd 2cbe 5bbe 485d 18bd f3e2 51be
00000090: 350e 623e 2d56 17be f912 123e a5c7 17bd
000000a0: bd47 14be 2a68 ee3c e4ca 80be 5398 2d3e
000000b0: dd34 2ebe ffde 3bbd 4faf 62bd c461 a8be
000000c0: 56b7 713e 69a4 b0bd 0928 ae3e 9556 373e
000000d0: d8f2 763d 8663 7f3e e4a1 3e3e a6d3 f43d
000000e0: e084 c13c 4b53 d33e 9a31 afbd 510b a13d
000000f0: 97ca 6b3e 4854 8b3a 594c b63e d352 853e
-0.099925004 -0.15764107 0.352747 0.04513042 -0.18397808 0.17197786 0.12977539 0.30296987
0.24927211 -0.096361175 0.010854352 -0.07872883 0.119889185 0.05569332 0.30971554 0.15884566
0.081936955 0.29899296 0.029050412 -0.08926502 0.18226366 -0.10567582 -0.072358936 0.38326856
0.32441172 -0.12689546 0.30912647 -0.14833322 0.16552256 0.102767885 -0.029673187 0.237096
-0.11346316 -0.21459264 -0.037198335 -0.2049673 0.22075732 -0.14778967 0.1426505 -0.03705563
-0.14480491 0.029102404 -0.25154793 0.16952638 -0.17012353 -0.045866963 -0.05534297 -0.3288709
0.23605093 -0.08625109 0.3401492 0.17904122 0.060290188 0.24940309 0.18616444 0.11954431
0.02362293 0.41274485 -0.085543826 0.078634866 0.230265 0.0010629976 0.35605124 0.26039752

FeatureExtractor.LSTM.bias_hh_l0 f4 [64]
00000000: f24f 703d d5cc a63e 0556 c43e 58da 41bd
00000010: a327 313e 58c3 edbc 94fc 013e a656 a33c
00000020: 1403 7a3e 700b d73d ae83 28be 4b61 5e3e
00000030: 565d 593e 56fb 903e 22e6 ac3d 0ecf ce3e
00000040: 6a56 9d3c 4246 813e 7f57 69bd e95b 03be
00000050: 0581 44be 0b77 35bd 151b da3d 2765 963e
00000060: 6d9a be3e 4675 34bd a599 803e 6aaf 35be
00000070: c784 bc3d f27e 683c 2881 b03e ca69 c43e
00000080: bd08 c63d d4f6 843d 3490 2abe 03b0 febd
00000090: 0791 073e 2dda 0ebe ac4f 2ebe 1220 8e3d
000000a0: 6ec2 99be 327f fcbd bedb 4bbe a337 18bc
000000b0: 6c53 77be 6f0d 6f3c b1a4 42bc 5483 1f3c
000000c0: dc85 e4bc 1406 69bd 1399 a0bc 966d 963e
000000d0: d86a 5a3e 1df3 f13c bcab 973e 8e3c 343e
000000e0: 0664 423c d91b 583e 7902 893d 35ff 1dbe
000000f0: 0872 173c cf4f 3b3e 83c6 933c 3162 ce3e
0.05866999 0.3257815 0.38346878 -0.04732737 0.17300276 -0.029023811 0.12694007 0.019938778
0.24415237 0.105002284 -0.16456482 0.21716802 0.21227011 0.28316754 0.08442332 0.40392345
0.019206244 0.25248915 -0.05696821 -0.1282803 -0.19189842 -0.04430298 0.10649697 0.29374048
0.37227193 -0.044057153 0.2511722 -0.17742696 0.09205013 0.014190422 0.34473538 0.3836196
0.096696354 0.06492391 -0.16656572 -0.12435915 0.13238917 -0.13950415 -0.1702258 0.06939711
-0.3003115 -0.12328948 -0.19908044 -0.009290609 -0.24152917 0.014590605 -0.011880086 0.009735901
-0.02789586 -0.056890562 -0.019604241 0.29380482 0.2132982 0.02953487 0.2962321 0.17601225
0.011864668 0.21104373 0.06689925 -0.15429385 0.009243496 0.18292163 0.018038994 0.4030929

GlucoseModel.fc_layer1.weight f4 [16, 17]
00000000: d04b 2bbe 3de3 1c3e d1a2 9e3d 29d0 70bd
00000010: 2a12 a9bd 511e 3d3e dca2 373e a818 26be
00000020: 318b 2d3c 9a53 363e 5d95 b9bd aeea 42be
00000030: 87e2 2cbe 77d0 33be 2afa 173e a3a4 56be
00000040: fb36 91bd 381d 263e 4b51 89bc 54c6 13be
00000050: 21a3 9b3d 8d32 9abd 5e18 87bb 06da 47be
00000060: ccb6 e43d af58 48be 5745 4abe e16b 553c
00000070: dd3e e8bd 3f1b 22be b68e bc3d bb26 07be
00000080: 65d8 26be 8a6c 4c3e c1f7 63be 7b97 c7bd
00000090: 17c8 d8bc fa1f d2bb 536d 193e 2061 98bd
000000a0: 33bc 693e d90d 1c3e a104 4a3e 281f 42be
000000b0: ca82 47be d17c e0bd f52f 2f3d 8f71 0bbe
000000c0: 697f 3a3e 7ede a7bd 659b fcbd 09f9 213e
000000d0: 2fd2 17bd 8e97 473e 1330 d2bd 4d3c 6fbe
000000e0: eba9 733e 0204 9cbd fd2b 243e 57ba 2bbd
000000f0: e92a ddbc cb25 11be 2f22 00be 90b8 de3d
00000100: f829 93bc 0af1 35be a047 623e 06b1 be3c
00000110: 0733 d33d 452c 943d 65c6 6fbe 77a1 163d
00000120: acac 59be 513d 3f3e 6f07 bdbd c9f0 033d
00000130: d43d 08be a7b1 3c3e 6196 b13d 550c 093e
00000140: bd70 ef3d 2e9c dbbc 001d c33c e2d7 86bd
00000150: 5149 443d 0992 03be 8d6c 993d 3b26 47be
00000160: 2d2a 72be 1e21 4dbe 1c14 2cbe 0715 6cbe
00000170: 9427 333d 7ad7 aabd 9e4f 0cbe abad 213e
00000180: 38c8 39be cb80 56be 77a2 d13c e95a 393e
00000190: 13ae 4d3e 4ab2 86bd 05a2 333e d67c 6fbe
000001a0: 4557 32bd d4a9 073e d852 00bd 34c2 2cbe
000001b0: 25fa 713c 0da0 3dbd d467 eb3d 6d55 6a3e
000001c0: d88a 303e 8aa4 d1bd efdd 33be 53e2 733e
000001d0: 4166 86bd 927e b73d 764a 2ebd 69ee d93d
000001e0: 363d 1d3e 920e c2bd 45ea 8abb 6a47 59be
000001f0: 0623 cdbc fddf 75be 9cc8 cbbd cac6 a6bd
00000200: 004f a83d 1eac 7fbb d246 05be e3d3 773e
00000210: 6150 703e 357c 5e3e 010a 24be 9720 2dbe
00000220: ad86 ff3d 2716 a43d 1542 fbbd 69a9 e0bd
00000230: d313 103e 82de 4ebe 92da 9a3d 9bf4 f73d
00000240: f001 a73b aab0 20be 082e 51be 592b 5bbe
00000250: 1001 55be 8bf5 03be 35b6 06be ce8b 0c3e
00000260: c013 f9bd 8290 c7bd 3437 46be ba4a ddbd
00000270: aef0 d1bc 3975 bebd b756 8f3d 4648 2dbe
00000280: 6d69 bbbc 6834 143e 0d08 363e 394b 3d3d
00000290: d7ee 36bd 4bf0 703d d874 d73c abfb 77bd
000002a0: ad05 90bd 2432 573e 07c2 26bd 16c0 96bd
000002b0: 92a5 d53d b64f eb3d eb3f 55be dec6 cf3d
000002c0: 2d4f df3d 99c1 36be f6e9 54be 1bb0 623d
000002d0: aa3c 2ebd 23f6 4d3e cebe ca3d 8020 263d
000002e0: 2f1b bebd c384 84bd 81ea 60bd 52ea 47bd
000002f0: 18ef e43c e851 b53d d431 53bd 07b6 213e
00000300: aba5 62be e105 4c3e 7073 58be 6b3b 593e
00000310: d34a 64be 0a56 d03d a4b9 62be a462 743d
00000320: 4064 62bd a110 813b 9cc6 f8bd 3e60 a63d
00000330: 030e 03be 8e41 703e b6ab 0ebe 56b3 d93d
00000340: c622 9ebc c5af e6bd ff4f f83d 89e7 0cbe
00000350: c271 00be 33de 24bd e8bd 3bbe e15c 113d
00000360: 7b30 65be 6290 5cbd b94f 88bc 77b4 90bd
00000370: 7c67 3bbe a9a3 9b3d aad7 dbbd c5f4 40be
00000380: 6347 d23d 7930 fe3d 2435 6e3e bfe2 713e
00000390: 299c d0bd 0382 ab3d 6895 103e 4fa7 253e
000003a0: d339 21be 772e 3abd 444e 11bd e011 99bd
000003b0: f96e fa3d ac7b 6e3d 8bfd e8bd f4e0 a63b
000003c0: 36f6 6f3d 21ac 4ebe 2dac ebbd c635 20bd
000003d0: 3151 78bc 3a2a 1fbc f2c2 66bd 24de 6a3e
000003e0: 9814 5ebe c92a a43d 718d d03d 0ad3 5f3e
000003f0: 8707 023c 1d9e 1b3e 67e0 3e3e f75d 37be
-0.16728139 0.1532106 0.077458985 -0.058792267 -0.08255418 0.18468596 0.1793322 -0.16220343
0.010592268 0.17805329 -0.09061692 -0.19034836 -0.16883288 -0.17559992 0.14841524 -0.20961241
-0.07090565 0.16222084 -0.016762396 -0.14431125 0.07599474 -0.07529173 -0.004122778 -0.19516763
0.11167678 -0.1956508 -0.19753014 0.013026209 -0.11340115 -0.15830706 0.092069075 -0.13198368
-0.16293485 0.1996328 -0.2226248 -0.097456895 -0.026462598 -0.0064125033 0.1498311 -0.074404
0.22825699 0.15239657 0.19728328 -0.18957198 -0.19483486 -0.10961307 0.042770345 -0.13617538
0.18212666 -0.08196734 -0.12334327 0.15817656 -0.03706568 0.19491407 -0.10263076 -0.23362847
0.23795287 -0.07617952 0.16032405 -0.041925754 -0.026998 -0.14174573 -0.1251304 0.10875046
-0.017964348 -0.1776773 0.22097635 0.02327777 0.10312467 0.07235006 -0.23415525 0.03677508
-0.21257275 0.18675734 -0.092299335 0.032212052 -0.13304836 0.18427144 0.086712606 0.1338361
0.11691425 -0.02680787 0.02381754 -0.06584145 0.047921482 -0.12848677 0.074914075 -0.19448178
-0.23648901 -0.20032164 -0.16804546 -0.23054896 0.043738917 -0.0834188 -0.13702247 0.15788905
-0.18142784 -0.20947568 0.025590165 0.18101086 0.20085935 -0.06576975 0.17542274 -0.23387465
-0.043540258 0.13248378 -0.031329006 -0.16870958 0.014769112 -0.046295214 0.11494413 0.2288415
0.17240465 -0.102364615 -0.1756513 0.23816805 -0.06562472 0.08959688 -0.04255148 0.10641176
0.15355381 -0.09475435 -0.004239353 -0.21218649 -0.025041115 -0.24011226 -0.099503726 -0.08143385
0.08218193 -0.0039012502 -0.13015297 0.24201922 0.23468162 0.21727069 -0.16019441 -0.16906963
0.12476859 0.08012038 -0.122684635 -0.109698124 0.14070062 -0.20202067 0.0756122 0.12107202
0.0050966665 -0.15692392 -0.20427716 -0.21403255 -0.20801187 -0.12886636 -0.13155444 0.13725206
-0.1216197 -0.097443596 -0.19356996 -0.108052686 -0.02562746 -0.09299702 0.069989614 -0.16922101
-0.02287742 0.14473116 0.17776509 0.046214316 -0.04466137 0.05882291 0.026300833 -0.060542744
-0.070323326 0.21015221 -0.040712383 -0.07360856 0.10431971 0.11489813 -0.20825164 0.10145353
0.109037735 -0.17847289 -0.20792374 0.05534373 -0.042538323 0.20113425 0.09899674 0.04055834
-0.092825286 -0.06470635 -0.05491114 -0.04880745 0.02794604 0.08853513 -0.05156119 0.15792094
-0.2213351 0.19924118 -0.21137786 0.21214072 -0.22294168 0.10172661 -0.22141129 0.059664384
-0.055271387 0.00393875 -0.12147257 0.081238255 -0.12798314 0.23462507 -0.1393269 0.10629909
-0.01930369 -0.11263994 0.12124633 -0.13760199 -0.12543395 -0.04025097 -0.18334162 0.035488967
-0.22381775 -0.05384863 -0.016639577 -0.07065671 -0.18301195 0.07599575 -0.10734494 -0.18843372
0.10267522 0.12411589 0.23262459 0.23621653 -0.10186035 0.08374407 0.14119494 0.16177104
-0.15744714 -0.04545447 -0.03547503 -0.074741125 0.122281976 0.05822341 -0.113764845 0.0050927345
0.058584414 -0.2018285 -0.11507449 -0.039113782 -0.015156076 -0.009714657 -0.056338258 0.22936302
-0.21687543 0.08015973 0.10183228 0.21857849 0.007936365 0.15197034 0.1864029 -0.17906938

GlucoseModel.fc_layer1.bias f4 [16]
00000000: a583 303e ddfc df3d fbd9 f9bc b5e0 1e3d
00000010: cbda 4f3e 849e e83d bb59 773e dafa 243d
00000020: 274c 383d ab2a d0bd 97dc 9dbd 016f 433e
00000030: 3816 51bd 5474 6c3e 9d43 a43c 484f 783d
0.17237718 0.10936902 -0.030499449 0.038788516 0.20298307 0.113583595 0.24155323 0.040278293
0.0449945 -0.10164388 -0.0770809 0.19085313 -0.05104658 0.2309125 0.020051772 0.060622483

GlucoseModel.cgm_mu.weight f4 [1, 16]
00000000: 105f e83b 8bf3 d23c 8217 09bd 7fbd f53c
00000010: 7529 653c a16c 203d 77a7 0b3d 16b7 11ba
00000020: f7dc 1e3c e033 013d 7abc 23bd fe38 3f3c
00000030: da50 b33b 230f b3bc 08e4 fb3c fcf8 21bc
0.0070914105 0.025750896 -0.033469684 0.029997585 0.013986935 0.039166097 0.034095254 -0.0005558593
0.009696237 0.031543612 -0.039974667 0.011671303 0.0054722847 -0.021857804 0.030748382 -0.009886023

GlucoseModel.cgm_sigma.weight f4 [1, 16]
00000000: 4026 6c3c 3d28 f23c 8f4f a3bc 3716 b13b
00000010: 4395 b13c 7e03 0e3d 9ac2 ffbc 47b0 8bbc
00000020: 093a a5bc ea81 fb3c 7e26 e3bc e9e8 0dbd
00000030: 63d4 acbc 4e8a 32bc d744 20bd f872 423c
0.014413416 0.029560203 -0.019935397 0.0054042595 0.021677619 0.0346713 -0.031220723 -0.017051829
-0.020169275 0.030701596 -0.027728315 -0.03464595 -0.021097368 -0.010897232 -0.03912815 0.011868231

ValueModule.fc_layer1.weight f4 [32, 16]
00000000: 3396 ea3d 2afd 12be 3954 ccbd 6184 67be
00000010: b25c 303e 4eba 8d3d 2e17 e53d 8510 7d3e
00000020: 3b8f b9bd ae6e a13e f195 0c3e 81f1 9a3e
00000030: 802a a4bd 08d6 9cbe 0551 37be 15b9 a4be
00000040: 2876 b43d 37b9 a1be 4dfd 0bbe 0d68 aabe
00000050: 6a3e 483d 8447 a13d 5700 aebd 199a 9f3d
00000060: aa44 96be a4a8 553e a29e 76bd 1b27 bc3d
00000070: b399 9cbe 5b14 33be 6a3c 36bd bce2 9d3d
00000080: e4af a23d 9273 543e f2ce 653e 64a9 f13d
00000090: b4dc 2d3e 5494 623e 00e2 813b 64ed 34be
000000a0: 649a 313e c093 50be 089a 9f3d ea0c 7fbe
000000b0: 9e6c 663e 3874 57bd 800b fc3d bc32 d3bd
000000c0: 9658 28be 52f3 c03e caca 60be a0db eb3e
000000d0: 29ab 0dbc 3d2c c3be 4010 51be 7cbc be3e
000000e0: c32d 9c3c f962 00be e753 31bd 4a9c 2abe
000000f0: 2323 4dbd 7a02 4c3e e1ec 95be 9c16 b33d
00000100: a6c1 6cbe 335f 363e 5f0e c8bd 3664 8b3e
00000110: 8038 d8bb fd84 3dbe 0fc8 c63d a699 df3d
00000120: 6a0a 83be f01f 4bbe d88f acbe ed54 c93d
00000130: 097e c13c 6a6f e43d 3ef8 8fbe 418f 12be
00000140: 8062 83bb 8c00 573e 1094 96bd ee56 08be
00000150: 601d 44bc 92c0 083e be02 093e 3033 96bc
00000160: 7485 0b3e 6801 293d 2420 873d 00a3 d53b
00000170: 34a2 043e b078 febc 84d5 ce3d f08d a83c
00000180: 2028 843e 0484 9fbe 9c7d 1abe 02a8 483d
00000190: 146b a33e ca9c b53d cefd 643d 4f8d 5cbe
000001a0: afe8 80ba 6392 853e 5cd2 0e3e cf0b 523c
000001b0: 06f5 28be b6c1 a7be ec1e 3ebe 3b17 09be
000001c0: e59f 763d 6860 363e 6217 d3be 4a69 1fbe
000001d0: c616 bd3c 16e5 c4be 24ea ddbd 1bc6 0b3e
000001e0: c39f abbe b4ce 4a3e 990a b4be 6431 cd3d
000001f0: 9979 03be fe5c bdbd e7a4 37be 4225 b8be
00000200: 8caa 693e 8629 7cbe 1e3f 0a3e c814 493d
00000210: c88e e7bd ec11 4dbe ee5d 3bbe 942d 313e
00000220: faf4 723e 7015 6a3e 4c7f 443e 1a83 33be
00000230: 4cea 813d c041 823c f834 bb3d 4c0e df3d
00000240: 1033 94bc bff7 90be c8f6 99be 714e b03d
00000250: 077b bb3d 8ad6 903d 48eb 65bd c2d8 de3d
00000260: 2aeb cebe a698 6dbc da4b a33d d57b 373d
00000270: 87e2 60be 8940 a2be 8ee6 8ebe bb04 84bd
00000280: 3453 26bc 02f5 03be 6b78 d2be bd66 60bd
00000290: a76c 70bd 8fa7 5abe 216a e93c fae9 05be
000002a0: e8fd fb3b cf33 a73e 67b2 b0be c70e d93d
000002b0: a3df 64be 7109 80be 7605 8bbe cd3f 923d
000002c0: 8ce8 e03e fd60 20be 750e 4fbe 7395 adbe
000002d0: 7d5e 0fbe 684e 46be 1719 64bd 2336 be3c
000002e0: a724 26be f22c b13d 16ce 1a3b 7ada 8f3e
000002f0: d645 263e d4f8 a4be ab53 193e f60f b7bd
00000300: 2dff febe be1c 8b3e 349c 9cbe 5153 a13e
00000310: 88cb 483c c0cb 21be 9888 dc3d b08a eb3e
00000320: 6cc3 c1be 9f21 b2be 5192 40be 6538 6bbd
00000330: c875 0ebe 113d 613e d25f aabc 2fdf b9be
00000340: ba27 483e ea0f 16be 9098 a23c 0043 ec3a
00000350: 8e9e 2dbe 0ab6 783e 90a8 8bbc 4840 49be
00000360: 5469 2cbe 4067 dd3d c819 9abd 3a11 48be
00000370: b41c 2f3e 64d6 9ebd 3216 52be 84d1 7a3e
00000380: 837c f9bd 0156 50bd 68c1 44be 4758 4bbe
00000390: 84e7 a73e 5587 d0bd 7430 a2be 728d 35be
000003a0: 4c27 d5be b7f1 6d3d 6653 c3bd 1a92 853e
000003b0: 142a 4fbe c7fc 75bd f927 bebe f9d0 47be
000003c0: 054a 2c3e 6d5e 43bd 755d 19be d0f0 c7bd
000003d0: 3b73 4f3e 15f4 96be b6da 01be b1e7 a33d
000003e0: 4585 bcbd 70c2 ae3e 58f7 f4bd 2568 953d
000003f0: 7e6a f13d b877 9f3d 8479 733d 7c6e 82bd
0.114544295 -0.14354387 -0.09977002 -0.22609092 0.1722286 0.069203004 0.11186062 0.24713333
-0.09060522 0.31529754 0.13729073 0.30262378 -0.08015919 -0.30632043 -0.17902 -0.32172456
0.08811599 -0.3158662 -0.13670845 -0.3328251 0.048887648 0.07874969 -0.084961586 0.07793064
-0.29349262 0.20865113 -0.060209878 0.09187146 -0.30586013 -0.17488234 -0.04449121 0.07709262
0.07943705 0.20747212 0.22442225 0.11799887 0.16978723 0.22126895 0.003963709 -0.17668682
0.17344052 -0.20368862 0.07793051 -0.2490727 0.22502372 -0.05260107 0.12306881 -0.10312411
-0.16440043 0.3768564 -0.21952358 0.46065998 -0.008646765 -0.3811969 -0.20416355 0.37253177
0.01906479 -0.12537755 -0.043292906 -0.16661182 -0.050082337 0.1992282 -0.29282287 0.08744547
-0.23120746 0.17809753 -0.09768366 0.27224892 -0.006598532 -0.18507762 0.09706127 0.10917978
-0.25593883 -0.19836402 -0.33703494 0.098306514 0.023619669 0.11154063 -0.2811908 -0.1431246
-0.004009545 0.20996302 -0.073524594 -0.13314411 -0.011969894 0.1335471 0.13379952 -0.018334955
0.13625127 0.041261107 0.06597927 0.0065196753 0.129525 -0.031063408 0.100993186 0.020575494
0.25811863 -0.31155407 -0.15086979 0.04898835 0.31917632 0.08867796 0.05590611 -0.2153828
-0.000983497 0.26088247 0.13947433 0.012820198 -0.16499719 -0.32764977 -0.18566483 -0.13387768
0.06021108 0.17810214 -0.41228777 -0.15567508 0.023082148 -0.3845603 -0.108356744 0.1364979
-0.33520326 0.19805413 -0.35164335 0.10019186 -0.12839355 -0.092462525 -0.17933999 -0.35965925
0.22818965 -0.24625215 0.1350064 0.049092084 -0.1130653 -0.20026368 -0.1829755 0.17302543
0.23726264 0.2285974 0.19189185 -0.1753048 0.06343517 0.015900493 0.09140962 0.10891399
-0.018090755 -0.28314015 -0.30071092 0.086087115 0.09154325 0.0707217 -0.056132585 0.10881187
-0.4041379 -0.014501726 0.07973452 0.04479583 -0.21961413 -0.3168986 -0.27910274 -0.06446215
-0.010151673 -0.12886432 -0.41107497 -0.05478548 -0.05869737 -0.21352981 0.028492989 -0.13077536
0.00769018 0.32656714 -0.3451111 0.10598522 -0.22350936 -0.25007203 -0.27152604 0.07141075
0.4392742 -0.15661998 -0.20220359 -0.33903083 -0.14000888 -0.19365847 -0.05568799 0.023219174
-0.1622492 0.08651151 0.0023621372 0.28096372 0.16237578 -0.3222109 0.14973323 -0.08938591
-0.4980406 0.27170366 -0.30587924 0.31508878 0.012255557 -0.1580038 0.10768241 0.46004248
-0.37844408 -0.34791276 -0.18805815 -0.05742683 -0.13912117 0.21995951 -0.020797644 -0.36303088
0.19546404 -0.14654508 0.019848138 0.0018025339 -0.16955015 0.24288192 -0.01704815 -0.19653428
-0.16837054 0.10810709 -0.07524449 -0.19537821 0.17100793 -0.077557355 -0.2051628 0.24493986
-0.12181952 -0.05086327 -0.19214404 -0.19857894 0.3279382 -0.101820625 -0.31677592 -0.17729738
-0.41631544 0.058091845 -0.09537391 0.2608803 -0.20230895 -0.06005552 -0.37139872 -0.1951331
0.16825111 -0.047697473 -0.14977057 -0.09762728 0.202588 -0.29483095 -0.12681088 0.08003176
-0.09205107 0.3413272 -0.119612396 0.072952546 0.1178789 0.077865064 0.05944206 -0.063687295

ValueModule.fc_layer1.bias f4 [32]
00000000: 6ac1 2fbe c535 22bb e076 f2bd 6755 59bd
00000010: 024a cbbd 5e50 5bbe 85c0 8e3e dbdb 4e3e
00000020: 9447 77be 9199 1a3e f579 423d 00be f93d
00000030: b6c7 b13e de18 63be d794 9a3e 704b 88bd
00000040: f00a 8ebc 36c1 8ebd 36be 433e 61e0 993e
00000050: b01b d83d c7c6 ff3d 9459 49be 08fa 6ebe
00000060: b859 023e 9b5a 33be 4c80 b03d 8b66 d23d
00000070: 7fad 573e 172e 183e 6ee0 503e ea29 bb3e
-0.17163625 -0.0024751287 -0.1183908 -0.05305996 -0.09926225 -0.21417376 0.27881256 0.20201056
-0.24148399 0.15097643 0.04747959 0.12194443 0.3472268 -0.22177455 0.3019168 -0.066550136
-0.0173392 -0.06970446 0.19115528 0.30054 0.10552156 0.12489086 -0.19663078 -0.23337567
0.12729537 -0.17515032 0.08618221 0.10273465 0.21062277 0.14861332 0.20398113 0.36555415

ValueModule.fc_layer2.weight f4 [32, 32]
00000000: eb81 0ebe e0a5 17be 0fde 27bc e775 d83d
00000010: 449f 333d 238b c5bd 77b7 ed3c 8ba8 1ebd
00000020: 92af ea3d f317 963d 50aa 9cbd fd33 2e3e
00000030: 3cde 2cbe 1aae fd3a 07e0 11be fbc3 023e
00000040: 0c6d 073d c20e 83bc 0618 0dbe 6ae1 743d
00000050: e783 0f3e 3dc6 1b3e 753c 4a3d 9e4e 64bc
00000060: 7688 1e3d d8fd 363d 0051 2dbe 3029 833c
00000070: b6ad debd fc7c 7cbc 95ff 143e b970 0ebd
00000080: 4dd3 803e d13e 9a3e 3c14 60bd 8f37 8c3e
00000090: 9b82 623e d243 243e 7b50 893e 88aa 9f3e
000000a0: eee4 6f3d 689d 313e d528 263e 63a0 ad3d
000000b0: 24d2 563d bd73 0dbe a8cf 773d ae79 133e
000000c0: 1c88 053e e09f 763e a321 283e 7a98 b03d
000000d0: 9294 e83d c77d c63d bde6 e7bc 3449 26be
000000e0: 52b1 843d 9c23 423e 0cd9 e73d 362f c03c
000000f0: 4b91 343e 41f0 57bd 06d4 853e eccc 06bd
00000100: 8ba0 87bd 853e 563c 5d9c 313e 25b2 463e
00000110: b5ba 633e a153 e33d c57f 913b 4c0d 583e
00000120: 6b7a 0d3e 9356 803e bc60 563d 2c38 ecbd
00000130: 5416 a83e e86c f8bd f321 ba3e fef7 823d
00000140: 68b7 e1bd 7204 f0bd 9440 bbbb 931c be3e
00000150: 409f 083e 985d 82be 8ced e93d 02f4 a23d
00000160: 3e0a c6be 1f47 733e f764 013d e63f 133e
00000170: 5fb5 aa3d 2e98 1c3e 3218 f83d d872 963e
00000180: 3c55 0fbe 71fc 303e c21c 2ebe c40b 1cbe
00000190: dacd a5bb c771 13bd dd85 22be eea1 1abe
000001a0: 941a e8bd ea19 cbbc debd 1d3e 705c 293e
000001b0: 897c d73c 6639 253e 41ed 20be be95 bd3d
000001c0: 2ad9 07be c987 dbbc 8ca6 20bd f0b9 ac3d
000001d0: bb53 323e 6478 103e 43c5 63bc 5a35 22bd
000001e0: 56a8 f8bd c38e 9b3d f0c9 8c3a df36 233d
000001f0: 0120 59bd c405 b1ba 2eac 31be 0906 f8bc
00000200: c4f1 d43d b077 b33c 67dc abbd f1f2 323e
00000210: 2233 ce3d 398c 273e 6186 2cbe 6841 04be
00000220: e42c 0cbe 762e 103e edc2 07be 9b52 77bd
00000230: 2be0 f1bd c13e 983d 74a9 04be 5c00 01be
00000240: a582 623b 378c ea3d a3e5 b0bd c8bc 81bd
00000250: 00bc eabd e25f 73bd bcf9 2b3e e231 083e
00000260: df79 92bc 6c45 2a3e e1e2 05bb c906 c1bc
00000270: 3daa 6fb9 ed40 aebd 4b66 8cbd b549 7a3d
00000280: 699b 973c fec7 03be 8378 903d ea1c e53c
00000290: 9fe7 c4bd ff07 ec3d 2b90 8e3c 1df6 cbbd
000002a0: 1927 7b3c fef7 fdbb 5a72 c8bd 5d1c 803c
000002b0: 24ba a33d 25e3 af3c 85b5 133e 4653 25be
000002c0: d642 153e 7a8e 36bd 2e98 6cbd bb46 073c
000002d0: 1040 acbb cbf5 1b3e 2817 abbd 9c34 bebb
000002e0: 6a8f 06bb 7b2d 0e3e a211 1bbe bb3b 243e
000002f0: 0a56 dabd 5631 ae3c 2a77 3ebc b3ad 10be
00000300: 3661 22bc 6322 323e 41fe 733d 9395 7c3e
00000310: 3bdd 373e 88a7 54bd d0d0 0bbc 3683 823c
00000320: 8252 143d 0cb5 c43c 7321 673e fb88 97bc
00000330: 2de5 df3e ed2f 1c3e ee0e 193d 22cd 333e
00000340: 2583 f4bd bd71 723e 5213 95bd adab 973e
00000350: 4781 33bd f7da d9bc 7df2 0bbe 6f8a f53b
00000360: 35d8 30bc 5751 f83d c5d5 2d3e b6a5 863e
00000370: 5f05 2b3e 751a 09bd 0608 433e 57dc 893e
00000380: 9b3a b03d d1b4 6cbd d59f 02bd f8af 85bc
00000390: af3a 1cbe 5b73 303e fb88 acbd 1d77 8c3d
000003a0: 1be8 fbbd 15a4 fabd 3961 a5bc 1939 c4bd
000003b0: 31ec f53b a608 ec3d be23 01be 48d1 c6bd
000003c0: 3ab4 6fbc dfa1 adbd 1ff2 c9bc cf8b 0ebe
000003d0: 7f96 aebd 0390 923d 36fd f23d 94eb 033e
000003e0: 7fa4 f73d c620 09be 8127 6d3d 824f c3bd
000003f0: 8b1a 90bd 4a3a d93d 0678 babd 14e5 e53d
-0.13916747 -0.1480937 -0.010245814 0.10569363 0.04385306 -0.09645679 0.029018147 -0.038734954
0.11459269 0.07328787 -0.07649672 0.1701202 -0.1688165 0.0019354254 -0.14245616 0.12770073
0.03306298 -0.015998248 -0.13778695 0.059785284 0.1401516 0.1521234 0.049374063 -0.013934759
0.038704358 0.044675678 -0.1692543 0.01601085 -0.108729765 -0.015410658 0.14550622 -0.03477547
0.2516121 0.3012605 -0.054706797 0.27386138 0.22120135 0.16041496 0.26819214 0.31184793
0.058567934 0.17345202 0.16226514 0.08477857 0.0524465 -0.13813682 0.06050077 0.14401886
0.13040203 0.24084425 0.16419081 0.086228326 0.113564625 0.09691959 -0.028308267 -0.16238862
0.06479134 0.18958896 0.11320695 0.023460012 0.1763355 -0.05271936 0.26138324 -0.032910272
-0.06622418 0.013076429 0.17344804 0.19403894 0.22239192 0.11099935 0.00444028 0.21098822
0.1381623 0.2506605 0.052338347 -0.115341514 0.32829535 -0.12130147 0.36354026 0.06394957
-0.1102131 -0.11719598 -0.0057144854 0.37131175 0.13341999 -0.2546203 0.114222616 0.07956697
-0.3867969 0.237576 0.03159043 0.14379844 0.08335375 0.15292427 0.1211399 0.29384494
-0.13997358 0.17283799 -0.17003158 -0.15238863 -0.00505994 -0.03599718 -0.15871377 -0.15100834
-0.113331944 -0.02479263 0.1540446 0.16539168 0.0263045 0.16135177 -0.15715505 0.09257077
-0.13266435 -0.026798146 -0.03922133 0.08433902 0.17414753 0.14108425 -0.013902011 -0.03960166
-0.121414825 0.07595589 0.0010741334 0.03984725 -0.053009037 -0.0013505747 -0.17350838 -0.030276315
0.10397676 0.021907657 -0.08391648 0.17475487 0.100683466 0.16362084 -0.16848136 -0.12915576
-0.13689 0.14080223 -0.13257952 -0.060381513 -0.11810335 0.07433844 -0.12955266 -0.12597793
0.0034562733 0.11452525 -0.0863755 -0.06334835 -0.114616394 -0.059417613 0.16794485 0.13300279
-0.017880378 0.16628045 -0.002042942 -0.023562806 -0.00022856235 -0.08508477 -0.06855448 0.06110545
0.018506723 -0.1286926 0.07054236 0.027967889 -0.09614491 0.11524963 0.017402729 -0.09959052
0.015329146 -0.0077505102 -0.09787436 0.015638525 0.07994488 0.021470616 0.14424713 -0.16145048
0.14576277 -0.04456947 -0.057762317 0.00825661 -0.0052566603 0.15230481 -0.08354026 -0.0058046114
-0.0020532259 0.13884537 -0.15143445 0.1603841 -0.10660942 0.02126376 -0.011625091 -0.14128761
-0.009910872 0.1739593 0.059568647 0.24666433 0.17955486 -0.051917583 -0.0085336715 0.015931707
0.036211498 0.024012111 0.22571354 -0.018497935 0.43729535 0.15252657 0.037367754 0.1755872
-0.11939076 0.236762 -0.07279076 0.29623166 -0.04382446 -0.026593668 -0.1366672 0.007493309
-0.010793735 0.12124889 0.16976078 0.26298302 0.16701268 -0.033472497 0.1904603 0.26925918
0.08604928 -0.057789627 -0.03189071 -0.01631926 -0.15256761 0.17231505 -0.084245645 0.068586566
-0.1230013 -0.122383274 -0.020187961 -0.09581203 0.007504963 0.11525087 -0.12611291 -0.09707886
-0.014630372 -0.0847814 -0.024651585 -0.1392052 -0.085247986 0.07156374 0.118647024 0.12882835
0.12091922 -0.13391408 0.057899002 -0.09536649 -0.07036313 0.10606821 -0.09104924 0.11225334

ValueModule.fc_layer2.bias f4 [32]
00000000: 8b0b 8bbd 88c9 79bd 5cb1 5e3e 1043 33be
00000010: be5e 8d3c 17d6 08bd 85e8 a53e d287 a7bd
00000020: 1300 e4bd 4f27 63be d7a3 18be 0a9a 663e
00000030: ab25 93bd 8c80 eebd 972a 683e cc22 343e
00000040: 9a6a 643e 6462 7c3d 5b83 50bd 1950 68bd
00000050: 584b 04be 40fd ecbd fdb6 3c3e 99c4 023e
00000060: 3227 16bd 30f2 4d3e 5cca a23e 74fa b33d
00000070: ec3f e53d 368c 293e dc43 673d b40e 253e
-0.06789311 -0.06098321 0.21747345 -0.17506051 0.01725709 -0.033407297 0.3240396 -0.081802025
-0.11132827 -0.22182964 -0.1490625 0.22519699 -0.07184919 -0.11645612 0.22672497 0.17591399
0.2230629 0.06161727 -0.05090652 -0.056717012 -0.12919366 -0.11571741 0.1842918 0.12770309
-0.036658473 0.20111918 0.31795013 0.087880045 0.11193833 0.16557392 0.0564612 0.1611889

ValueModule.fc_layer3.weight f4 [32, 32]
00000000: 2d42 943c bc47 8d3e dbb0 b8bd 88ce 76bd
00000010: f7af 9fbb 1e12 57bd 57da 5fbd fec3 05be
00000020: 1188 82bd d3f0 883e e733 273e d42c 7e3b
00000030: 80f7 533e 2b61 023e d77b 873d e74a 443e
00000040: 1684 84be 13a5 70bb 8e00 2cbe 842e 1abe
00000050: da1d 0a3e f579 e13d f5d2 853e c23e 2cbd
00000060: c000 0bbc 227e fcbc 31ef 43be 3ee5 973e
00000070: d9e1 673e f94b ad3c 3031 16bd ecef cb3c
00000080: 850e 253e 46ea 363e 163c ca3d 022a 5f3d
00000090: 3a3c b7bc 67b3 15be 0a84 08be 347b 1f3e
000000a0: b85c dfbd 9f79 823e 6f86 323e 2881 01be
000000b0: f1ac 3d3e 5d52 383c 6e8d de3c 77eb 233e
000000c0: ce4d 36be 9ae2 333e 4f74 21be 10ec ce3d
000000d0: e14d dc3d f041 11bc 68c8 9c3d aa07 843e
000000e0: d617 1dbe 54d0 883c f7d5 223d 2923 873e
000000f0: 87e3 943e 9dcb 523d 2adb 22be 8233 fcbd
00000100: ffdb 27be 605a 22bd 2487 15be 6e3d 743d
00000110: 9f5b 0fbe a5f4 623d b04d e33d 8148 38be
00000120: e983 c1bd 1e20 f83d 06d2 12be d24d 55be
00000130: 4271 d0bd 0c33 89bd adc2 d23c 5b4a 5a3d
00000140: 0d95 05be d9cd 80bd a44d 1c3e b99e 21be
00000150: cfd5 003d 5096 1ebe e5f2 91bd 224c c3bd
00000160: cc81 d53d 4057 3839 b27c 643d 79cb 0dbe
00000170: d6e9 2f3d a889 7f3d 758b ba3d d5ba 02bc
00000180: 8134 13bd 6af2 9a3d 524d da3e 739b e6bd
00000190: 55e6 acbd 9b82 d43d ca77 b43e d9a8 eabd
000001a0: b37f 5b3d 938a 29bd cbd4 2d3c 70d7 a53e
000001b0: d613 f2bc db28 27be 906b b43e 3c34 b4bd
000001c0: d588 9d3d b06b 013d 6a1e 483c 24ff 85bd
000001d0: 87cb 1d3e c34f 313e cef9 b73d 08ff 043e
000001e0: fb15 5c3e 4c05 833e e124 113e 63f3 0c3e
000001f0: f3d9 b13d b651 5c3d 4bb7 1c3e 64eb 8f3e
00000200: d4cf 86bd 7b1a d93d 113f c1bd b1f6 35bc
00000210: 08fc 14be 10a1 7dbd adda 25be 99cb 093d
00000220: 496a 8bbc 6c46 a53e 40b2 e0bd 3e4a 0fbe
00000230: bdf3 7c3e 003b 25be 5adb f3bb 00b6 37bd
00000240: db54 00bd dacd 213e 1117 ba3c 883f fa3d
00000250: e2a9 913e 8900 c43d eb15 8d3d 6a96 3d3e
00000260: d4fb da3c 5978 4e3c 21b8 bdbd ea3f 85bc
00000270: 327a 8e3d 4f0e 5a3e 208a cf3d 4a85 e4bc
00000280: b9c4 d4bd 2c2d 3a3c e192 183e e8be 213e
00000290: 540f dcbd 8b97 b7bd 4423 eab8 2b8c fd3d
000002a0: 687e d0bc c8f0 153e 5ef6 1a3d 1a3d 02be
000002b0: b451 d2bd 1a41 b0bc 715f 14bd b5b0 26bc
000002c0: 04d6 c5bc 1a9b 103e f085 d13d c266 c03d
000002d0: e679 ea3d 470e 433e fcdb 283e 2991 bb3d
000002e0: 8f72 95bd 644d c4bb da7f 60be 3bb1 c03d
000002f0: 53d4 8c3d e921 fbbd 4d22 43bd d156 00be
00000300: b3eb b53d 582f 1f3e 4ab0 1abe 7aa8 d33d
00000310: 0b5b fc3c e441 123e 2846 04be efbf 4fbd
00000320: b41d 2fbe 0765 6f3d 49df c73d e58a 82bd
00000330: 4794 613e 2ec4 ffbd f02d 03be 4aff 933e
00000340: 9e02 4bbe 8073 cc3d 7bcd 913d 1463 203e
00000350: 4ae1 953e 02f1 d5bb 3a36 743d bb32 623e
00000360: 55ff 16bd d9ed 203e 7e9b 17be 6e04 973e
00000370: 7289 6e3e 52ea e13d b568 0abd 5508 833c
00000380: 89a9 28be 0395 10be 225b 99bd 8231 ee3d
00000390: 9344 de3c 30f1 02be 0b10 103e 24d4 1cbe
000003a0: c4a0 1dbe 85bc ad3d 62d1 93bd d4eb bfbd
000003b0: 99c4 e3bd c9e0 ae3c 65eb 073d 936b 153e
000003c0: ec67 633c e93c e33d f6f5 31be 60e6 d0bd
000003d0: 0fa3 243e a4c1 f3bd 9da9 cf3d e2aa 20be
000003e0: 5d91 2dbe 0066 02be e4d9 253e 90fc 363d
000003f0: e8f8 23be 1361 86bd ae17 99bd 0504 be3d
0.018097961 0.2759379 -0.090181075 -0.060255557 -0.0048732716 -0.052507512 -0.054651584 -0.13063046
-0.06373609 0.26746234 0.16328393 0.0038784044 0.20699883 0.12732379 0.066154175 0.19169198
-0.25882024 -0.0036719486 -0.16797087 -0.15056807 0.1348795 0.110095896 0.2613751 -0.042052038
-0.0084840655 -0.030821864 -0.19134213 0.29667085 0.22644748 0.02115439 -0.036668003 0.024894677
0.1611882 0.17862806 0.09874742 0.05448342 -0.022367585 -0.14619218 -0.13331619 0.15574342
-0.109063566 0.25483415 0.17434095 -0.12646925 0.18523003 0.011250106 0.027167048 0.16007791
-0.17803118 0.1756691 -0.15767024 0.10103619 0.10757042 -0.008865818 0.07655412 0.25787097
-0.15341124 0.016700901 0.039754834 0.26394013 0.2907984 0.051463712 -0.15903917 -0.12314512
-0.16392516 -0.03963697 -0.14602333 0.059628896 -0.13999794 0.055409092 0.11098802 -0.17996408
-0.09448988 0.12115501 -0.1433793 -0.20830467 -0.10177852 -0.066991895 0.025727594 0.053293567
-0.1304514 -0.06289262 0.15263993 -0.15783204 0.031453904 -0.15487027 -0.071264066 -0.095360056
0.104251474 0.0001758011 0.05578298 -0.1384715 0.042947613 0.06238714 0.091086306 -0.007979115
-0.035938744 0.07565768 0.42637116 -0.11260118 -0.0844237 0.103764735 0.35247642 -0.114579864
0.05358858 -0.04139192 0.010609816 0.32390928 -0.029550474 -0.16324179 0.35238314 -0.087990254
0.07692114 0.03159684 0.0122142825 -0.06542805 0.15409671 0.17315583 0.08983193 0.12987912
0.2149276 0.2558998 0.14174224 0.1376472 0.08684149 0.053788863 0.15304296 0.28109276
-0.06582609 0.10600754 -0.09435857 -0.011106179 -0.14549267 -0.06192118 -0.161967 0.03364143
-0.017018454 0.3228029 -0.109714985 -0.13993165 0.24702354 -0.16135788 -0.00744192 -0.044851303
-0.031330924 0.15801182 0.022716077 0.12219149 0.28449923 0.095704146 0.06888946 0.1851441
0.02673141 0.012601935 -0.092636354 -0.016265828 0.06956901 0.21294521 0.10133767 -0.027895588
-0.10389084 0.011363309 0.1489978 0.15795481 -0.10745111 -0.089644514 -0.00011164558 0.123802505
-0.0254509 0.14642632 0.03783261 -0.12718621 -0.1026949 -0.021515418 -0.036223833 -0.010173966
-0.024149902 0.14121667 0.10230625 0.093945995 0.114490315 0.19048415 0.16490167 0.091585465
-0.07297241 -0.005990671 -0.21923772 0.09408804 0.06876435 -0.12262327 -0.047640134 -0.12533118
0.08882847 0.15545404 -0.15106311 0.10334869 0.030805131 0.14282948 -0.12917387 -0.05072015
-0.17101175 0.058445957 0.09759385 -0.06374148 0.2202922 -0.1248859 -0.12810493 0.28905708
-0.19825217 0.099829674 0.071192704 0.15662795 0.29273444 -0.0065289745 0.059622027 0.22089665
-0.036864597 0.15715732 -0.1480541 0.29495567 0.23294619 0.11031021 -0.033791263 0.015995184
-0.16470923 -0.14119343 -0.07488085 0.116305366 0.027132308 -0.12787318 0.1406862 -0.153153
-0.15393358 0.08483223 -0.07217671 -0.093711525 -0.111214824 0.02134742 0.033183474 0.14591818
0.013879757 0.11095602 -0.17378983 -0.102001905 0.16077827 -0.119021684 0.10139773 -0.15690187
-0.16949983 -0.12734222 0.161964 0.044674456 -0.16012919 -0.06561484 -0.0747522 0.092781104

ValueModule.fc_layer3.bias f4 [32]
00000000: 1441 843c 6a58 713d fb60 f23d 2318 263e
00000010: 7f34 3a3e c655 40be 8d8c 233e 1f54 6fbd
00000020: 2116 afbd c6d6 7e3d b915 0f3e 3029 2a3d
00000030: 9b74 9c3d a000 06be 8534 75bc 031f 07bd
00000040: 501e 2c3e 3679 2a3e 6ba4 993c a2f5 a9bd
00000050: 1a48 bd3d 16e2 493e cf9d 983e 3420 05bb
00000060: f5f7 2f3e eec3 4e3e 9c34 e8bd f493 203e
00000070: 36ea dd3d 36c9 903d afa7 1bbe b920 94bb
0.016144313 0.05892221 0.11834904 0.16220145 0.18184088 -0.1878272 0.15971585 -0.058429834
-0.08549143 0.062216543 0.1397313 0.041543186 0.07639428 -0.13086176 -0.014966135 -0.03298856
0.16808438 0.16647801 0.018755158 -0.08298804 0.09242268 0.19715151 0.29807898 -0.0020313384
0.17184432 0.20191929 -0.113381594 0.1568144 0.10835688 0.07069628 -0.15200685 -0.0045205024

ValueModule.value.weight f4 [1, 32]
00000000: ee95 0cbe a61c 02be 2fee f9bc 5cf6 433e
00000010: 76bd 07be 85bb 99bd 056f cdbd fdd6 abbc
00000020: 717f fdbd 965c efbd 96d9 52bd 8758 fcbd
00000030: 6b09 04be 8316 8cbb 73e4 c0bc cb96 d43d
00000040: 9658 03be 811e 8b3e 82f6 f0bd 9f1c b23d
00000050: c8c9 b53b 6047 f6bd 36e8 843e bfc6 f1bd
00000060: 47ce e1bd eaa6 6d3e 5440 a0bc 9582 03be
00000070: 5628 fdbd b0fa 1dbe 300c 04be 6163 eabb
-0.13729069 -0.12706241 -0.030509083 0.19136947 -0.13255867 -0.0750647 -0.10030941 -0.020976538
-0.12377823 -0.11687581 -0.051477037 -0.12321573 -0.12894218 -0.0042751445 -0.023546433 0.10380324
-0.12826762 0.2717171 -0.11765768 0.08696865 0.005547736 -0.120253325 0.25958413 -0.11805486
-0.110256724 0.23208204 -0.019561924 -0.12842782 -0.12361209 -0.15427661 -0.12895274 -0.00715296
