models/patient4/srpo_model_for_patient_4_Actor.pth (torch, 24039 bytes, 12 tensors)

weight_ih_l0 f4 [64, 2]
0	0xbe5a1968	-0.21298754
1	0x3dd0911f	0.1018393
2	0xbc86a338	-0.01643525
3	0x3e27efbf	0.1640005
4	0x3d8b041d	0.06787894
5	0x3e620b1e	0.22074553
6	0x3e0e78a1	0.13913204
7	0xbac7ea54	-0.001525233
8	0x3e01ed69	0.12688221
9	0x3e2283ee	0.1587064
10	0xbe712b3f	-0.23551653
11	0xbde93132	-0.113863364
12	0xbe49524a	-0.19660297
13	0xbca617fa	-0.020275105
14	0xbdc81a3a	-0.09770627
15	0x3dbb9c06	0.091606185
16	0xbd30c269	-0.043154154
17	0xbe077a7b	-0.13230316
18	0x3d889583	0.06669142
19	0x3e0b68a1	0.13614132
20	0xbdf9d0b1	-0.12198008
21	0xbe751e50	-0.23937345
22	0xbe908e21	-0.28233436
23	0xbe7b84d0	-0.24562383
24	0xbd924b75	-0.071432985
25	0x3d5d1720	0.05397713
26	0xbe8ea349	-0.27858952
27	0xbe60b03f	-0.21942233
28	0xbe580a13	-0.21097593
29	0xbe0d7018	-0.13812292
30	0xbd758ba5	-0.05994763
31	0xbdf009bf	-0.11720609
32	0xbdd263d8	-0.1027295
33	0x3da9686c	0.0827187
34	0xbdb58229	-0.08862717
35	0xbb0df3e0	-0.0021660253
36	0xbe17dac5	-0.14829548
37	0x3dcb9b5f	0.09941744
38	0x3db3e392	0.0878364
39	0x3d39f033	0.045395087
40	0xbdc2e731	-0.095167525
41	0xbe7927da	-0.24331608
42	0x3d15df6f	0.036590036
43	0xbc9bd5f3	-0.019022917
44	0xbe746c14	-0.23869354
45	0x3e22988c	0.15878505
46	0xbd9ed980	-0.077563286
47	0xbdffec76	-0.12496273
48	0xbc6e9636	-0.01456218
49	0x3e3d00c9	0.18457331
50	0xbe1df1ad	-0.15424223
51	0x3dd2fc63	0.10302045
52	0xbb915244	-0.0044348557
53	0x3d2a3c26	0.04156127
54	0x3e244a77	0.16044031
55	0xbe8a98b7	-0.27069637
56	0x3dff0ae3	0.12453248
57	0x3df41f78	0.11920065
58	0xbe4f4f99	-0.20245208
59	0x3e08dfcb	0.1336662
60	0xbe4674b2	-0.19380453
61	0xbdf031ae	-0.11728226
62	0xbd9c5731	-0.07633818
63	0xbe607ec0	-0.21923351
64	0x3eae2edc	0.34020126
65	0x3d779395	0.06044348
66	0x3e948679	0.29008844
67	0x3ddc9778	0.10771078
68	0x3e55665c	0.20839828
69	0xbcfce6e9	-0.030871825
70	0x3e6be967	0.23038255
71	0x3e40faee	0.18845722
72	0x3e85dade	0.26143545
73	0xbdb4a16f	-0.088198535
74	0xbe4508e4	-0.19241673
75	0x3e5a3929	0.21310867
76	0xbd80b3dc	-0.062843055
77	0x3d1a03af	0.03760117
78	0x3e22c291	0.15894534
79	0xbe550c10	-0.20805383
80	0xbe5ecf21	-0.21758701
81	0x3e16d1ca	0.14728466
82	0xbc150012	-0.009094255
83	0x3e074094	0.13208228
84	0x3deaeb00	0.11470604
85	0xbe106fb4	-0.14105111
86	0xbe0e9bde	-0.13926646
87	0xbe795cf7	-0.2435187
88	0x3d7ffbdc	0.06249605
89	0xbe51fcad	-0.20506544
90	0x3eaec1e5	0.34132305
91	0x3e9640c6	0.29346293
92	0xbcecc1d4	-0.028901018
93	0x3e4d13c1	0.20027067
94	0x3d314373	0.043277215
95	0x3e761385	0.24030884
96	0x3d8ad757	0.06779354
97	0xbd864de6	-0.06557827
98	0x3dba76fe	0.09104727
99	0x3d5d83ca	0.054080762
100	0x3d9cd5bf	0.07657956
101	0x3d943d95	0.07238308
102	0xbe6aa2c9	-0.2291366
103	0xbd769eac	-0.060209915
104	0x3dd66d20	0.10470033
105	0xbe084261	-0.13306572
106	0xbea86666	-0.32890624
107	0xbdfa4ac0	-0.12221289
108	0xbeae3881	-0.34027484
109	0xbe7e8b7d	-0.24857898
110	0x3decc471	0.11560906
111	0x3bd79450	0.0065789595
112	0xbe9b137a	-0.30288297
113	0xbe159126	-0.14606151
114	0xbbf4b556	-0.007467906
115	0x3d62e737	0.055396285
116	0x3e1e964c	0.15487021
117	0xbb7137d4	-0.0036806958
118	0xbe9dd597	-0.3082702
119	0xbe479cdc	-0.19493431
120	0xbe512e16	-0.20427737
121	0x3e34f085	0.17669876
122	0xbb9558de	-0.004557713
123	0xbddacbc1	-0.10683394
124	0xbe1ff166	-0.1561943
125	0x3ccd702c	0.025077902
126	0x3e1420c5	0.14465626
127	0xbb0a4378	-0.0021097343

weight_hh_l0 f4 [64, 16]
0	0xbe45b0ae	-0.19305679
1	0xbe851dd1	-0.2599931
2	0xbe0b9313	-0.13630323
3	0xbdb1dbf7	-0.08684533
4	0xbe1635fb	-0.1466903
5	0x3e0e8867	0.13919221
6	0x3dfa23ed	0.122138835
7	0x3e89250c	0.26786077
8	0x3d79e393	0.061008047
9	0xbd8ff1ff	-0.07028579
10	0xbdd9476c	-0.10609326
11	0x3c5ae0b9	0.013359242
12	0x3e897946	0.26850337
13	0xbdda615f	-0.10663103
14	0xbae9f256	-0.0017848711
15	0xbc416a42	-0.011805119
16	0x3b873319	0.0041259644
17	0xbe0ba058	-0.13635385
18	0x3df50cab	0.11965307
19	0x3e31c9b4	0.173621
20	0xbe218926	-0.15774974
21	0xbe3b1119	-0.18268241
22	0x3e53f297	0.2069801
23	0x3e54ba40	0.20774174
24	0xbd0c20ad	-0.03421085
25	0xbdc49655	-0.09598986
26	0x3e0ce916	0.1376079
27	0xbb26201e	-0.0025348733
28	0xbdfd54d5	-0.12369696
29	0xbce44c0a	-0.02786829
30	0xbe8bcd65	-0.2730514
31	0x3a3ed67b	0.0007279885
32	0x3e8369f9	0.25666788
33	0xbdf6b64e	-0.120464906
34	0xbe410bef	-0.18852209
35	0xbe60cf2b	-0.21954028
36	0x3e2593da	0.16169682
37	0xbdeffc8f	-0.117180936
38	0xbda13aba	-0.07872529
39	0xbd89d4ef	-0.06730067
40	0xbe44bb7e	-0.19212148
41	0xbe4016ea	-0.18758741
42	0x3c4ca45c	0.012490358
43	0xbd8673ab	-0.06565031
44	0xbe0b4a3a	-0.13602534
45	0x3d7e2c3d	0.062053908
46	0x3d6b4150	0.057435334
47	0xbd90199d	-0.07036135
48	0x3d5a6b78	0.053325146
49	0x3c19888b	0.009370933
50	0xbd7ce109	-0.061738048
51	0xbdde1a9a	-0.108449176
52	0x3db2e644	0.08735326
53	0xbe6ccdb6	-0.23125347
54	0xbe1e0a1f	-0.15433548
55	0x3d0a9220	0.033830762
56	0xbe42b15c	-0.1901297
57	0x3e009d0f	0.12559913
58	0xbd7ce361	-0.061740283
59	0x3e394671	0.18093278
60	0x3d846202	0.06464006
61	0xbe6896b9	-0.22713746
62	0x3dcdf400	0.10056305
63	0xbdd125cf	-0.102122895
64	0x3d6e0348	0.058108598
65	0xbe8d3e4a	-0.27586585
66	0x3e6ba3dd	0.23011728
67	0xbe961820	-0.2931528
68	0xbda11b58	-0.078665435
69	0x3bcae024	0.0061912704
70	0x39098127	0.00013113451
71	0x3de1f7e3	0.11033609
72	0x3e79d734	0.243985
73	0xbe6b9d59	-0.23009242
74	0xbda97b6a	-0.082754925
75	0x3d8636be	0.0655341
76	0xbe1e5604	-0.154625
77	0xbcfcc398	-0.030854985
78	0xbe1eb03a	-0.15496913
79	0x3cf0d700	0.029399395
80	0x3d718857	0.058967914
81	0x3d8ad786	0.06779389
82	0x3ddea65e	0.10871576
83	0xbd29414c	-0.041322038
84	0xbe397b24	-0.1811338
85	0xbe1669c1	-0.1468878
86	0x3e58e7f2	0.2118223
87	0xbd145b0a	-0.036219634
88	0xbe15ebb1	-0.1464069
89	0x3dd24074	0.102662
90	0xbc8bc00c	-0.017059349
91	0xbe29071c	-0.16506618
92	0x3e45766b	0.19283454
93	0xbe85a0a4	-0.26099122
94	0x3df73404	0.12070468
95	0xbe9dc788	-0.30816293
96	0xbe5cd402	-0.2156525
97	0x3d2613fc	0.040546402
98	0xbcddd6f3	-0.027080035
99	0xbd4ccbd6	-0.04999908
100	0xbdc717a9	-0.0972131
101	0x3e1149cf	0.14188312
102	0x3e5ad68e	0.21370909
103	0x3e449b1c	0.19199795
104	0x3dad3b5a	0.08458586
105	0xbe1ee575	-0.15517218
106	0x3e345cff	0.176136
107	0x3e8e252a	0.2776273
108	0xbdfe8bee	-0.12429033
109	0xbe3af780	-0.18258476
110	0xbdcdad3f	-0.1004281
111	0xbb259611	-0.0025266449
112	0x3e7ef837	0.24899374
113	0x3e27716d	0.16351862
114	0x3df4de32	0.11956443
115	0xbe46713a	-0.1937913
116	0x3c7930f2	0.015209423
117	0x3e68370e	0.22677252
118	0xbe543018	-0.20721471
119	0x3e42ecbe	0.19035622
120	0x3e28bc34	0.16478044
121	0x3da9670d	0.082716085
122	0x3d64b6b1	0.05583829
123	0xbdedd00f	-0.1161195
124	0x3c84fe87	0.01623465
125	0x3ce7a94e	0.028278973
126	0xbe3d22ca	-0.18470302
127	0xbe3b623b	-0.1829919
128	0xbe7dce8a	-0.2478582
129	0xbe39400c	-0.18090838
130	0xbd9a8929	-0.075456925
131	0x3e5202fd	0.20508952
132	0x3d351624	0.044210568
133	0x3e1563e2	0.14588884
134	0x3e59157e	0.21199605
135	0x3e0c2c05	0.13688667
136	0x3e8c23e5	0.27371135
137	0x3e2bd63c	0.16780943
138	0x3e1ab4d1	0.15108038
139	0xbd8131e6	-0.063083455
140	0x3e869556	0.2628581
141	0xbe83cbd0	-0.25741434
142	0x3e433c78	0.19066036
143	0xbcddff90	-0.0270994
144	0xb9f111e0	-0.0004598042
145	0xbd30fca9	-0.043209706
146	0xbe1c25af	-0.1524875
147	0x3db61bbf	0.08892011
148	0x3d0d2b9a	0.03446541
149	0x3e07ea05	0.13272865
150	0xbe4e1bc4	-0.20127779
151	0x3e5a756d	0.21333857
152	0x3dc6afbf	0.0970149
153	0xbd80065f	-0.06251215
154	0x3bddc36b	0.0067676804
155	0xbd044b65	-0.032298464
156	0x3e39319b	0.18085329
157	0x3cddfdbd	0.02709853
158	0xbd78c349	-0.060733113
159	0xbe84f50a	-0.259682
160	0x3b900138	0.0043946765
161	0xbe615f3e	-0.22008988
162	0xbdc38486	-0.09546761
163	0xbde96cee	-0.1139773
164	0xbdca73aa	-0.098853424
165	0x3e59ca57	0.21268593
166	0xbe5517c7	-0.20809852
167	0xbd933de2	-0.071895376
168	0xbe2069ad	-0.15665312
169	0x3cae5e1d	0.021285111
170	0x3dea85de	0.114513144
171	0xbe291d4c	-0.16515082
172	0xbd9af8c3	-0.07566979
173	0x3af1dc3f	0.0018452479
174	0xbd6e1d3b	-0.058133345
175	0x3d45d9e0	0.048303485
176	0x3daae985	0.083453216
177	0x3d9e9ad2	0.077443734
178	0xbd876e59	-0.06612844
179	0xbd9557a2	-0.07292105
180	0x3de9f0f8	0.11422914
181	0x3c2ac4e3	0.010422918
182	0x3db3ec2f	0.08785283
183	0xbcde0143	-0.027100211
184	0x3d816c6d	0.06319509
185	0xbda89f7b	-0.082335435
186	0xbe34d06e	-0.17657635
187	0xbd728c1c	-0.05921565
188	0x3e0b8ee7	0.13628732
189	0x3c007156	0.007839521
190	0xbe9fabdf	-0.31185815
191	0x3e0e0ab5	0.13871272
192	0xbda2ed72	-0.07955445
193	0xbe13a927	-0.14419995
194	0xbd91dc7e	-0.07122134
195	0xbe1ba860	-0.15200949
196	0xbe6fd011	-0.23419215
197	0x3e16ae1b	0.14714853
198	0x3d9259fc	0.071460694
199	0x3d2b056e	0.041753225
200	0x3e7cd046	0.24688825
201	0xbe2f0579	-0.17091931
202	0x3e28f2ee	0.1649892
203	0xbe6a7ebc	-0.22899908
204	0xbc2c2f3d	-0.010509309
205	0xbd1212bd	-0.0356624
206	0x3b808dad	0.003923139
207	0x3e5cfcb3	0.21580772
208	0x3e14dc45	0.14537151
209	0xbd5d8b1f	-0.054087754
210	0x3d5fd720	0.05464852
211	0xbb7776e8	-0.0037760083
212	0xbd51b803	-0.051200878
213	0x3dd3123a	0.10306211
214	0x3d664746	0.056220315
215	0xbdf70323	-0.12061145
216	0xbd050c9e	-0.032482736
217	0xbe786653	-0.24257784
218	0x3dfe919c	0.124301165
219	0x3e6e1a49	0.23252214
220	0x3e61e22d	0.22058935
221	0x3d6912f5	0.056902844
222	0x3e02d147	0.12775145
223	0xbdc17712	-0.09446539
224	0x3d30b24a	0.04313878
225	0xbe8528bf	-0.2600765
226	0x3d900ff3	0.07034292
227	0x3dac5b42	0.084158435
228	0xbe7c6d2a	-0.24651018
229	0xbd2c2b65	-0.04203357
230	0x3e8c9e9f	0.27464768
231	0x3e2840d1	0.16430975
232	0x3e0e6236	0.13904652
233	0xbe7cfe33	-0.24706344
234	0xbe1250c2	-0.14288619
235	0x3e0860c6	0.13318166
236	0x3e02a271	0.12757279
237	0xbe949698	-0.29021144
238	0xbea0eb02	-0.31429297
239	0xbe3358ac	-0.17514294
240	0xbdd78adc	-0.10524532
241	0xbdf84721	-0.12122942
242	0xbe59c2dd	-0.2126574
243	0xbe49be6f	-0.19701551
244	0xbe6d1400	-0.2315216
245	0x3cd93e2c	0.026518904
246	0x3e73430a	0.23756042
247	0x3ead2e24	0.33824265
248	0xbe1f491d	-0.15555234
249	0xbe59f2d4	-0.21284038
250	0xbddddf66	-0.108336255
251	0xbdf0fe42	-0.11767246
252	0x3d978c98	0.07399863
253	0xbc8e6e4b	-0.017386576
254	0x3de4712d	0.11154399
255	0xbe80365b	-0.2504147

bias_ih_l0 f4 [64]
0	0x3e9000b9	0.2812555
1	0x3e125c9e	0.14293143
2	0x3d29d823	0.04146589
3	0x3e59df50	0.21276593
4	0x3e8037cf	0.2504258
5	0xbe1fcf50	-0.15606427
6	0x3db52fc8	0.08847004
7	0x3e0f542d	0.13996954
8	0x3df94682	0.121716514
9	0xbe137e3f	-0.14403628
10	0x3e7632e5	0.24042852
11	0x3e288f0e	0.16460821
12	0xbe07cfbf	-0.13262843
13	0x3e273b7e	0.16331288
14	0x3d263c43	0.040584814
15	0x3df79e31	0.120907195
16	0x3e693df1	0.22777535
17	0x3e3597e6	0.17733726
18	0x3e39f3dd	0.18159433
19	0x3cb8d0d1	0.022560509
20	0x3d773158	0.060349792
21	0xbc371e26	-0.011176622
22	0xbe0482e6	-0.12940559
23	0xbe10b0bf	-0.14129923
24	0x3cfcc5c3	0.030856019
25	0xbdbbaf30	-0.09164274
26	0x3e4bd69d	0.19906087
27	0x3d907ffa	0.070556596
28	0xbe6b3dcf	-0.22972797
29	0x3dac4bb9	0.084128805
30	0x3da4c220	0.08044839
31	0x3e9f27db	0.31085095
32	0xbe55feb7	-0.20897947
33	0xbe5046af	-0.20339464
34	0x3e06191e	0.13095519
35	0x3d8f78c5	0.07005457
36	0xbe2b0f79	-0.16705121
37	0xbe6a1a34	-0.22861558
38	0x3e95f5c5	0.2928907
39	0x3e139f6d	0.14416285
40	0xbdc9a415	-0.09845749
41	0xbd5f7383	-0.05455352
42	0x3de3509e	0.11099361
43	0x3e2817e2	0.1641536
44	0x3e24e76f	0.1610391
45	0x3e08c2de	0.13355586
46	0xbd2a58eb	-0.041588705
47	0xbadde9ff	-0.0016930698
48	0xbdc80c89	-0.09768016
49	0xba3f739d	-0.00073032995
50	0x3c9d5340	0.019204736
51	0xbdeae73c	-0.11469886
52	0x3e84503a	0.25842458
53	0x3e55cda2	0.20879224
54	0x3d84e346	0.064886615
55	0xbe777b73	-0.24168186
56	0x3e81fd02	0.25388342
57	0x3e1c617d	0.15271564
58	0xbd99956c	-0.07499203
59	0x3e4f0a9c	0.20218891
60	0xbe405585	-0.18782623
61	0x3e73c3a3	0.23805098
62	0xbe246cd1	-0.16057135
63	0x3e3dc698	0.18532789

bias_hh_l0 f4 [64]
0	0x3e8be38f	0.2732205
1	0x3e262398	0.16224515
2	0x3e6b9f18	0.23009908
3	0xbe087698	-0.1332649
4	0xbe1b597f	-0.15170859
5	0x3e7b0b60	0.24516058
6	0x3e08afec	0.13348359
7	0xbe812da3	-0.2523013
8	0x3e1a388e	0.15060636
9	0xbe2e5ff9	-0.17028798
10	0x3d6d2995	0.057900984
11	0x3d5f3aab	0.05449931
12	0x3d8f78ba	0.07005449
13	0x3e4b836c	0.19874352
14	0x3e12392a	0.14279619
15	0x3e386bdf	0.180099
16	0xbe1e00db	-0.15430014
17	0x3e48c1f6	0.1960524
18	0xbcc76b66	-0.024343204
19	0xbdc3de9e	-0.09563945
20	0xbd8781d6	-0.06616561
21	0xbd65f53b	-0.056142073
22	0x3e12f9ee	0.14353153
23	0xbd625c93	-0.055264067
24	0xbe275112	-0.1633952
25	0xbdf69b60	-0.12041354
26	0xbe41753d	-0.18892379
27	0xbe3dc784	-0.1853314
28	0xbdfc5c36	-0.12322275
29	0x3e59afeb	0.21258514
30	0xbdac3b4e	-0.08409749
31	0x3dd5b405	0.104347266
32	0xbdf6e712	-0.12055792
33	0xbe46059f	-0.19338082
34	0xbcef7836	-0.029232126
35	0xbe517412	-0.20454434
36	0xbcc5ed0e	-0.024160888
37	0xbdf78b37	-0.120871
38	0x3e9eb49a	0.30997163
39	0x3c90d92b	0.017681679
40	0x3e91c9c9	0.28474262
41	0xbb95bfe4	-0.0045699943
42	0xbe030d36	-0.12798008
43	0x3b5df5a0	0.0033868328
44	0xbd49aa19	-0.049234483
45	0xbe5f515c	-0.2180838
46	0xbe640442	-0.22267249
47	0xbd7ed43c	-0.06221412
48	0x3d004f48	0.03132561
49	0x3dddca64	0.108296186
50	0xbd9f6ca0	-0.077843904
51	0xbdf8af7e	-0.121428475
52	0xbe3367d0	-0.1752007
53	0x3e626b32	0.22111204
54	0x3e74fb89	0.23924078
55	0xbe7830de	-0.24237391
56	0x3e5adb01	0.21372606
57	0x3e847c33	0.25876006
58	0xbd0448c8	-0.032295972
59	0x3e5dee56	0.21672949
60	0x3c403778	0.011731975
61	0x3e085447	0.133134
62	0xbe2cb2b7	-0.1686505
63	0x3db9a96e	0.09065519

weight f4 [32, 16]
0	0x3e2ed03f	0.17071627
1	0x3e2b607f	0.16736029
2	0x3e5b8155	0.21436055
3	0x3e71dd24	0.23619515
4	0xbda3f3e3	-0.08005502
5	0xbe2a0019	-0.166016
6	0x3e254b07	0.16141902
7	0xbd26a5fd	-0.040685643
8	0x3e23e5cc	0.1600563
9	0x3d8856a6	0.06657152
10	0xbe1d53c9	-0.15363993
11	0xbdccf150	-0.10006964
12	0xbdd6999f	-0.1047852
13	0xbe1fef11	-0.1561854
14	0x3d07ee40	0.033186197
15	0x3d358247	0.044313695
16	0xbe3828bb	-0.17984287
17	0x3cc700cd	0.024292374
18	0x3da52070	0.080628276
19	0x3e3a063b	0.18166439
20	0x3e22b035	0.1588753
21	0xbd7ac0b9	-0.06121895
22	0xbd93a44b	-0.07209071
23	0xbe5fb8c7	-0.2184783
24	0xbe4fdf41	-0.20300008
25	0xbe377ae0	-0.17917967
26	0xbe7eb320	-0.24873018
27	0x3e8dfa31	0.27729943
28	0x3e7da8c0	0.24771404
29	0xbd7173c1	-0.058948282
30	0xbe5e3f67	-0.21703874
31	0xbe9a536f	-0.3014178
32	0xbe2f6fa4	-0.17132431
33	0x3db30c82	0.0874262
34	0xbdbdd898	-0.092698276
35	0x3df9031d	0.12158797
36	0xbc8f3762	-0.017482463
37	0x3e0f3724	0.13985878
38	0x3e2f33c1	0.17109586
39	0x3caa5e7d	0.020797009
40	0x3dd22e3a	0.10262723
41	0xbe3033d6	-0.17207274
42	0xbd8448e8	-0.06459218
43	0xbde70e4b	-0.11282023
44	0x3d24131f	0.040057298
45	0xbe23d04b	-0.15997426
46	0xbe376a5e	-0.1791167
47	0xbe683dc1	-0.22679807
48	0xbdb2438e	-0.08704291
49	0xbdc566e2	-0.09638764
50	0x3e61a3d2	0.22035149
51	0xbbead8fc	-0.00716698
52	0x3e46996a	0.1939446
53	0xbea05306	-0.31313342
54	0x3da2b799	0.07945175
55	0xbe2b485e	-0.16726825
56	0x3e6e95de	0.23299357
57	0x3d8cd28a	0.06876095
58	0xbe8b817d	-0.2724723
59	0x3e42cab9	0.19022645
60	0x3e2b6d71	0.16740967
61	0xbd14f542	-0.03636671
62	0xbe714e9a	-0.2356514
63	0xbe82ac78	-0.25522208
64	0xbe59346c	-0.21211404
65	0xbe4eff3f	-0.20214556
66	0xbe4ae70d	-0.19814701
67	0xbe5d0e97	-0.21587597
68	0x3e0231a7	0.12714253
69	0x3e3f8b83	0.18705563
70	0xbdf09581	-0.117472656
71	0x3e39e167	0.1815239
72	0xbdb197a3	-0.086715005
73	0x3d163d8d	0.036679793
74	0x3e480d34	0.19536287
75	0xbdbc7cf3	-0.0920352
76	0x3d157123	0.03648485
77	0x3e3d6350	0.18494916
78	0xbdd03c24	-0.10167721
79	0x3e350af0	0.17679954
80	0xbdcb4a9d	-0.09926341
81	0x3e034182	0.12817958
82	0x3e3d7f0f	0.185055
83	0xbe9423c1	-0.28933528
84	0xbcc8eea3	-0.024527853
85	0xbdc8eda7	-0.098109536
86	0x3e47b346	0.19501981
87	0xbdf609f1	-0.12013615
88	0x3e680281	0.22657205
89	0x3dc5f4d9	0.096658416
90	0xbdaed8c4	-0.085374385
91	0x3e391bf8	0.18077075
92	0xbdbd6746	-0.092482135
93	0x3e29c2c3	0.16578202
94	0xbe4054dc	-0.18782371
95	0xbde18f5e	-0.11013673
96	0xbe0c6959	-0.13712062
97	0x3e21a290	0.15784669
98	0x3e3c13c6	0.18366918
99	0x3dcc78bf	0.09983968
100	0x3d1a20e8	0.037629038
101	0xbd91a721	-0.071119554
102	0xbd2a815c	-0.041627273
103	0x3e6fe9f0	0.23429084
104	0xbe716cff	-0.23576735
105	0xbdf13c42	-0.117790714
106	0x3e60082e	0.2187812
107	0x3dccb9c0	0.099963665
108	0x3e77a24c	0.24183005
109	0xbe2bef23	-0.16790442
110	0xbe61a11b	-0.22034113
111	0xbddf54cf	-0.10904848
112	0xbd55affb	-0.05216978
113	0x3da56524	0.08075932
114	0x3e30f9e6	0.17282829
115	0xbd301f29	-0.042998467
116	0x3e80ec28	0.25180173
117	0xbd2a14e4	-0.04152383
118	0x3d8c3f26	0.06847982
119	0xbc4531b8	-0.01203578
120	0x3e081f19	0.13293113
121	0x3e4af9c5	0.19821842
122	0xbe7300eb	-0.23730819
123	0xbdd04fb5	-0.10171453
124	0x3dc72e58	0.09725636
125	0x3dbbb01c	0.091644496
126	0x3e378114	0.17920333
127	0xbd8e6c36	-0.06954233
128	0xbd16c03d	-0.036804426
129	0x3a97e580	0.0011588782
130	0xbe0cd793	-0.1375411
131	0x3e5c6933	0.21524505
132	0xbd03f6e8	-0.03221789
133	0xbcbcdc8b	-0.023054382
134	0xbe5bfe71	-0.2148378
135	0xbdd76828	-0.10517913
136	0x3e33f031	0.17572095
137	0x3d719165	0.05897655
138	0xbe380d94	-0.1797393
139	0xbd9672c9	-0.07346112
140	0xbe161b7b	-0.1465892
141	0xbe0c6c47	-0.1371318
142	0xbe48f705	-0.1962548
143	0x3e6c2602	0.23061374
144	0xbe568a8b	-0.20951287
145	0xbe41606c	-0.18884438
146	0xbe774583	-0.2414761
147	0xbd81427a	-0.063115075
148	0xbe8b8b0b	-0.2725452
149	0xbe8bc4d8	-0.27298617
150	0xbd9cc4c7	-0.0765472
151	0x3e542ef3	0.20721035
152	0x3e6ef8d5	0.2333711
153	0xbe92f074	-0.28699076
154	0xbe2151d1	-0.15753867
155	0x3cfc752c	0.03081759
156	0x3da11ec1	0.07867194
157	0x3de6d157	0.11270397
158	0xbe55797d	-0.20847125
159	0x3e2115a0	0.15730906
160	0xbe22d325	-0.15900858
161	0x3e15fa03	0.14646153
162	0x3e6bccf0	0.23027396
163	0xbc947a5c	-0.018124752
164	0xbdc4d68a	-0.096112326
165	0x3e6a8461	0.22902061
166	0xbddc8720	-0.107679605
167	0x3e39d1aa	0.18146387
168	0x3d813bb4	0.063102156
169	0xbe0386b9	-0.12844361
170	0xbdc42bac	-0.09578642
171	0x3e3d5806	0.1849061
172	0x3d834213	0.06409087
173	0xbd85a6e7	-0.06525975
174	0x3e362acf	0.17789768
175	0x3e186c81	0.14885141
176	0xbe0f7f2b	-0.14013354
177	0xbdd135fd	-0.102153756
178	0xbe08e749	-0.13369478
179	0xbe8514be	-0.25992388
180	0x3e439d0a	0.19102874
181	0x3d101780	0.03517866
182	0x3e5209d8	0.20511568
183	0xbe3f16c7	-0.18661033
184	0x3e54e152	0.20789078
185	0x3e249788	0.1607343
186	0x3e45fc3b	0.193345
187	0x3dc363f5	0.0954055
188	0x3e172a7b	0.14762299
189	0xbe26f1ef	-0.16303228
190	0x3dc36327	0.09540396
191	0xbe32efa2	-0.17474225
192	0xbe3d94d2	-0.18513802
193	0xbdc34411	-0.09534467
194	0x3ce5863a	0.028018106
195	0x3e09aa64	0.13443905
196	0x3dd9cc26	0.10634641
197	0xbda88f3e	-0.08230446
198	0xbe7783e7	-0.2417141
199	0x3e1b9429	0.15193237
200	0xbc198764	-0.009370659
201	0x3e6e1efd	0.23254009
202	0xbdb6fceb	-0.08934959
203	0x3e23f829	0.16012634
204	0xbe8c44b2	-0.2739616
205	0x3e7d1e0f	0.24718498
206	0xbe263958	-0.16232812
207	0x3db10a96	0.08644597
208	0x3dabff1c	0.083982676
209	0x3e04169c	0.1289925
210	0xbdc49be0	-0.09600043
211	0xbdcfcc0d	-0.101463415
212	0x3e840729	0.25786713
213	0x3d95425d	0.072880484
214	0x3e40ec24	0.1884008
215	0xbccadc62	-0.02476329
216	0x3d04ba21	0.03240407
217	0xbcc081ec	-0.023499452
218	0x3e85b504	0.26114666
219	0x3df540cd	0.119752504
220	0x3d82465a	0.06361075
221	0x3da48cff	0.08034705
222	0x3e6d71c8	0.23187935
223	0x3e58b4b7	0.21162687
224	0xbe4bca0a	-0.1990129
225	0x3b763801	0.0037570002
226	0xbe695e0c	-0.22789782
227	0x3e51e1b9	0.20496263
228	0xbe515464	-0.20442349
229	0xbe6b55f3	-0.22982006
230	0xbe6d4fd5	-0.23174985
231	0xbe4f3541	-0.20235159
232	0x3e52e81e	0.20596358
233	0xbce1cac7	-0.027562512
234	0x3da8c7b1	0.08241213
235	0xbe657059	-0.22406138
236	0x3dd3b37d	0.10336969
237	0x3deffd3b	0.11718222
238	0xbd8cb116	-0.06869714
239	0x3e60eea9	0.21966042
240	0x3c7c098a	0.015383134
241	0xbe1a2e22	-0.15056661
242	0x3e444888	0.19168293
243	0xbe5228bc	-0.20523351
244	0x3d6c27e4	0.05765523
245	0x3ddc82c9	0.10767133
246	0x3d43b1c0	0.047776937
247	0x3e261838	0.16220176
248	0xbdcf05ac	-0.10108504
249	0x3e187989	0.14890112
250	0xbd74b9d4	-0.059747532
251	0xbe447c36	-0.19188008
252	0xbddec8be	-0.10878132
253	0xbe67a386	-0.22620973
254	0xbd9bb290	-0.076024175
255	0x3dae54fd	0.08512304

bias f4 [32]
0	0xbe0889a3	-0.13333754
1	0x3e85da36	0.26143044
2	0x3e18e49a	0.14930955
3	0x3de7f501	0.11326028
4	0x3da0adf3	0.07845678
5	0x3e11b7fe	0.14230344
6	0xbde0767e	-0.109601006
7	0xbcc8363e	-0.024439927
8	0xbb41936e	-0.0029537338
9	0x3e5bd567	0.21468125
10	0x3e07da44	0.13266855
11	0x3c3d6c82	0.011561515
12	0x3e2ac61b	0.16677134
13	0x3e2a562e	0.16634437
14	0x3b9977ae	0.0046834564
15	0x3e0fd2d8	0.14045274
16	0xbdbf7ab4	-0.09349576
17	0x3df1a718	0.11799449
18	0x3d0866d2	0.033301182
19	0x3e461206	0.19342813
20	0x3e249ebb	0.16076176
21	0xbdc0df74	-0.0941762
22	0xbe1d0f32	-0.15337828
23	0x3cd4ee7a	0.02599262
24	0x3e9a5a6d	0.30147114
25	0x3d113d0d	0.035458613
26	0xbe3976cf	-0.18111728
27	0x3d79b61a	0.06096468
28	0xbdd74b70	-0.105124354
29	0x3e69b16e	0.2282159
30	0x3dfd1581	0.12357617
31	0x3bbf53c4	0.005838843

weight f4 [32, 32]
0	0x3dedac1e	0.116050944
1	0x3cad1e1b	0.02113252
2	0x3dd6f3f2	0.104957476
3	0x3c7ec8df	0.015550821
4	0xbe2a2d19	-0.16618766
5	0x3e1e78e0	0.15475798
6	0x3d186c17	0.037212458
7	0x3d2fb9b6	0.042901717
8	0x3d51fe09	0.051267657
9	0x3d2edc28	0.042690426
10	0xbe0d01d7	-0.13770233
11	0xbe2e4092	-0.17016819
12	0xbd8c2dde	-0.06844686
13	0xbcc5ec72	-0.024160597
14	0xbdae9846	-0.085251376
15	0x3e024768	0.12722552
16	0x3d908478	0.070565164
17	0x3d5727d7	0.05252823
18	0x3e08cc85	0.13359268
19	0xbde85cf3	-0.11345854
20	0x3de03a1f	0.10948586
21	0xbe1fb982	-0.1559811
22	0xbda995ed	-0.08280549
23	0xbd1a019b	-0.037599187
24	0x3c524ba9	0.012835422
25	0xbd82dd7e	-0.063899025
26	0xbdc8e4fb	-0.098092996
27	0x3dca28bb	0.0987105
28	0x3e32f504	0.17476279
29	0xbd9515b5	-0.07279531
30	0x3d530c1e	0.051525228
31	0x3d17b0ce	0.03703385
32	0xbd2ecffd	-0.04267882
33	0xbc9b05d8	-0.018923685
34	0x3dbb31f7	0.091403894
35	0x3c9d422b	0.01919659
36	0x3d4abe99	0.049498174
37	0x3da100f3	0.07861509
38	0xbdf5885c	-0.11988899
39	0x3e2050f5	0.15655883
40	0xbcb10fa7	-0.021613909
41	0xbcbd4a87	-0.023106826
42	0xbd75777a	-0.059928395
43	0x3e411362	0.1885505
44	0xbcbc6a3f	-0.02299988
45	0xbdf9ffd5	-0.12206999
46	0x3e34ae5f	0.17644642
47	0x3c827ea2	0.015929524
48	0xbe2c9571	-0.16853882
49	0x3de9bcb2	0.11412944
50	0x3d1c5baa	0.038173355
51	0x3cd67ea6	0.026183438
52	0xbdb93f10	-0.09045231
53	0xbd87dae4	-0.06633547
54	0x3e08f5a1	0.1337495
55	0xbdaeb783	-0.08531096
56	0xbdab6cd6	-0.08370368
57	0xbbb8849b	-0.005631042
58	0xbc6e359e	-0.0145391505
59	0x3c963b07	0.018338693
60	0x3e22bfa2	0.15893415
61	0xbd90818b	-0.07055958
62	0x3e1fd4d9	0.15608539
63	0x3cd594b4	0.026071884
64	0xbbcee613	-0.006314048
65	0x3da31233	0.079624556
66	0xbdbcb7eb	-0.09214767
67	0x3d601114	0.054703787
68	0xbe1d0208	-0.15332806
69	0x3cd2b803	0.02572251
70	0xbc1e0817	-0.009645483
71	0xbd5fa9c1	-0.05460525
72	0xbe0bd44b	-0.13655202
73	0xbda2e4c4	-0.0795379
74	0x3ab8bc56	0.0014094214
75	0xbbeebf87	-0.0072860154
76	0xbd74c69f	-0.059759732
77	0xbc5467aa	-0.012964169
78	0x3e025ac1	0.12729932
79	0x3da53ebc	0.08068606
80	0xbdbb2928	-0.09138709
81	0x3d053fed	0.032531668
82	0x3cb7bbe5	0.022428462
83	0x3e161bea	0.14659086
84	0x3db990a8	0.09060794
85	0x3dbe3343	0.09287121
86	0x3d9136e7	0.0709055
87	0x3dfabe8f	0.122433774
88	0x3e00e9c7	0.12589179
89	0xbd5cb03b	-0.053879004
90	0xbc6a165d	-0.014287558
91	0x3e5ff37a	0.21870223
92	0x3c0387b8	0.008027963
93	0x3e4fe863	0.20303492
94	0x3e599c8b	0.21251123
95	0xbd8f22fd	-0.06989095
96	0x3e016447	0.12635909
97	0x3d241a13	0.04006393
98	0xbde70df5	-0.11281959
99	0xbd5a48fd	-0.053292263
100	0x3e07ba0a	0.13254562
101	0x3d8b70de	0.06808637
102	0xbcfbf01b	-0.03075414
103	0x3d70e0aa	0.058808006
104	0x3db718ac	0.08940253
105	0x3df041c4	0.11731294
106	0x3da8106c	0.08206257
107	0x3d6d5b8c	0.057948634
108	0x3dd5cc4f	0.104393594
109	0xbdfd4ea5	-0.12368516
110	0xbcf4f2c9	-0.029900925
111	0xbd0e1978	-0.034692258
112	0x3e0b4921	0.13602115
113	0xbe210fbb	-0.15728657
114	0x3da1614a	0.078798845
115	0xbd86cc1b	-0.06581899
116	0xbdae6f5e	-0.08517335
117	0x3e2963cf	0.1654198
118	0xbd8ccad3	-0.06874623
119	0xbdc30d5c	-0.095240325
120	0xbddb0ebc	-0.1069617
121	0x3e13daeb	0.1443898
122	0x3e009a48	0.12558854
123	0xbd009b97	-0.031398382
124	0xbd2a0dea	-0.041517176
125	0x3e266322	0.16248754
126	0x3dd61105	0.10452465
127	0xbe027628	-0.12740386
128	0x3db78a51	0.08961929
129	0x3d95ae53	0.0730864
130	0x3db800ca	0.089845255
131	0x3dd72601	0.105052955
132	0x3dc5bcbf	0.09655141
133	0xbe1a976c	-0.15096825
134	0x3caa8bbc	0.020818584
135	0xbc2d174a	-0.010564635
136	0x3e27f6a8	0.16402686
137	0xbd563fd2	-0.052306958
138	0x3cf2a809	0.029621141
139	0x3d378d1a	0.0448123
140	0x3d00b98a	0.031426944
141	0xbe0d1a8a	-0.13779655
142	0xbdb53270	-0.08847511
143	0xbd2b7552	-0.041859932
144	0xbd6701a9	-0.056398068
145	0xbe1b4479	-0.15162839
146	0xbc71683f	-0.014734327
147	0xbcd459ed	-0.025921786
148	0x3a63e48d	0.00086934195
149	0xbe12f9c9	-0.14353098
150	0xbd8265ed	-0.06367097
151	0xbdaac124	-0.0833762
152	0x3dea918d	0.11453543
153	0xbd8126d5	-0.06306235
154	0xbe2a04a6	-0.16603336
155	0x3db71085	0.08938698
156	0x3e1fa4c4	0.15590197
157	0x3dc85b32	0.09783019
158	0xbc895904	-0.016766079
159	0xbe2ccf66	-0.16875991
160	0xbd687278	-0.05674979
161	0xbd9e2734	-0.07722321
162	0x3be1eef7	0.006894942
163	0x3ded447a	0.115853265
164	0x3e0dd1a5	0.13849504
165	0x3daa6cb8	0.08321518
166	0x3e01a931	0.12662198
167	0xbe117c36	-0.14207539
168	0xbe15f0dc	-0.14642662
169	0x3e542de0	0.20720625
170	0xbd90088e	-0.07032882
171	0x3e0bf56e	0.13667843
172	0x3e3b0b3d	0.18266006
173	0x3deab9fb	0.11461254
174	0xbd0a8fe2	-0.033828624
175	0xbd1a9f26	-0.037749432
176	0x3d50a514	0.05093868
177	0x3de3ed74	0.11129275
178	0x3e00710e	0.12543127
179	0x3ddd13ac	0.10794768
180	0xbc89144d	-0.016733313
181	0xbde7c160	-0.1131618
182	0x3e202f04	0.15642935
183	0x3d7a09fa	0.06104467
184	0x3dbaf7a3	0.09129264
185	0x3d0a93d6	0.033832394
186	0x3dbb87e8	0.091567814
187	0x3e0a136f	0.13483976
188	0x3c8f7786	0.017513048
189	0x3e4b9bba	0.19883624
190	0xbc2d3ae9	-0.010573127
191	0x3e3b5d79	0.18297376
192	0x3d628908	0.055306464
193	0x3d8177f2	0.06321706
194	0x3e0b9e97	0.13634716
195	0xbe0a7356	-0.1352056
196	0x3d9b8a11	0.075946935
197	0x3d946eed	0.0724772
198	0xbd8461dc	-0.06463978
199	0xbe1fa23b	-0.1558923
200	0x3dd40c38	0.10353893
201	0x3e28ae83	0.16472821
202	0x3d935cd6	0.071954414
203	0xbceb5d9d	-0.028731162
204	0xbd119fa0	-0.03555262
205	0x3c11a2e3	0.008888933
206	0xbe2b0ea2	-0.167048
207	0x3df36c7f	0.11885928
208	0xbd3a0ac2	-0.045420416
209	0xbdb2b6b0	-0.08726251
210	0x3d17b357	0.037036266
211	0xbe1785dd	-0.14797159
212	0xbdab168c	-0.0835391
213	0xbdc43749	-0.09580857
214	0xbd358f4d	-0.044326115
215	0xbe0744d6	-0.13209853
216	0x3e2b1b26	0.16709575
217	0xbd2aad78	-0.04166934
218	0x3dc9fcc3	0.098626636
219	0xbcd574f5	-0.026056746
220	0x3da09b8a	0.07842167
221	0x3d6e3a8f	0.058161315
222	0x3e0d573f	0.13802813
223	0xbe2d6b2a	-0.16935411
224	0xbdda43f1	-0.1065749
225	0x3dda40fb	0.10656925
226	0xbd93f816	-0.07225053
227	0x3e02042d	0.12696905
228	0xbe1a3c3e	-0.15062043
229	0xbd97c6fb	-0.074109994
230	0x3e129d84	0.143179
231	0xbd052242	-0.032503374
232	0x3c995128	0.018715456
233	0xbd9c9f01	-0.07647515
234	0xbda6fc72	-0.08153619
235	0xbd9f7d27	-0.07787543
236	0x3d722c79	0.059124444
237	0xbd098706	-0.033576034
238	0x3e186592	0.14882496
239	0x3d405e18	0.046964735
240	0xbe07e8a1	-0.13272335
241	0xbbb46d1c	-0.005506171
242	0x3e0aa317	0.13538776
243	0x3d2f6604	0.0428219
244	0x3d79377e	0.060843937
245	0x3e168cab	0.14702098
246	0xbd41a19f	-0.047273275
247	0x3d99275d	0.07478211
248	0x3cea3f22	0.028594557
249	0x3df81257	0.12112873
250	0xbd93183f	-0.07182359
251	0xbd48197e	-0.048852436
252	0x3db0b333	0.086279295
253	0xbd868be9	-0.065696545
254	0x3c9d879e	0.019229706
255	0xbc509085	-0.012729769

bias f4 [32]
0	0xbe14ffe1	-0.14550735
1	0x3e507ade	0.2035937
2	0x3e1744c6	0.14772329
3	0xbd739088	-0.059464008
4	0xbde339f1	-0.11095036
5	0x3e40fb58	0.1884588
6	0xbdb3940e	-0.087684736
7	0x3bedc7f4	0.0072565023
8	0xbb12eff5	-0.0022420858
9	0xbe0ac711	-0.135525
10	0x3dd8ab9b	0.10579606
11	0xbdfe98ce	-0.12431489
12	0x3dbb51e7	0.09146481
13	0xbd99d973	-0.07512178
14	0x3cbc7efd	0.023009771
15	0x3db35d59	0.08758039
16	0x3e166a49	0.14688982
17	0x3e04fd0a	0.12987152
18	0x3cdab254	0.026696362
19	0xbcff1467	-0.031137658
20	0x3e029935	0.12753756
21	0xbe2e4604	-0.17018896
22	0x3e32aae0	0.17447996
23	0x3c2c9680	0.010533929
24	0xbe35e440	-0.17762852
25	0xbe0be5cc	-0.1366188
26	0x3d8494bf	0.064736836
27	0x3e4b2dd6	0.19841704
28	0xbe3456dd	-0.1761126
29	0x3e5b27b9	0.21401872
30	0x3db53902	0.08848764
31	0xbd9080b7	-0.070558004

weight f4 [32, 32]
0	0x3c61e019	0.013786339
1	0xbdb2a58e	-0.08722983
2	0x3dcf77a4	0.101302415
3	0xbdc00640	-0.09376192
4	0xbe089f82	-0.13342097
5	0xbdeb48e7	-0.114885144
6	0x3e1e3e69	0.15453495
7	0x3df66d86	0.12032609
8	0x3cda75ea	0.026667554
9	0x3dd7a477	0.10529416
10	0xbd3d831b	-0.04626761
11	0x3df915c3	0.12162354
12	0xbe288789	-0.16457953
13	0x3d884ec2	0.06655647
14	0xbe31264b	-0.17299764
15	0x3e1ba13b	0.15198223
16	0x3dbc7f49	0.09203965
17	0xb90fa735	-0.00013699832
18	0xbddb6adf	-0.107137434
19	0x3dc40cc2	0.09572746
20	0xbd9ff9bc	-0.07811305
21	0x3e03efd8	0.12884462
22	0xbe1bb996	-0.15207514
23	0x3d96f6b3	0.07371273
24	0xbd0c0004	-0.034179702
25	0x3d8cd335	0.06876222
26	0xbe22bd24	-0.15892464
27	0x3c8cd8b3	0.017193174
28	0x3d28e2b2	0.04123182
29	0xbdcb1abb	-0.09917208
30	0x3d0cb1be	0.034349196
31	0x3e0b438d	0.13599987
32	0xbdfea500	-0.12433815
33	0xbd4fa2ac	-0.050692245
34	0x3c7ee925	0.015558516
35	0xbe22a3a9	-0.15882744
36	0x3df8c6dd	0.12147305
37	0xbd0ab373	-0.033862542
38	0x3e2d1df6	0.1690596
39	0x3d908463	0.07056501
40	0x3e083c47	0.13304244
41	0x3de129e0	0.10994315
42	0xbe0b6830	-0.13613963
43	0xbda3c7cc	-0.079970926
44	0xbd2cc4f4	-0.042180017
45	0x3db6e6b0	0.08930719
46	0x3d28eb5c	0.04124008
47	0xbcebff07	-0.02880813
48	0x3e0423c2	0.12904266
49	0x3d9f9abe	0.077931866
50	0x3e047457	0.12935005
51	0xbd9e8b52	-0.07741417
52	0x3daeb1f1	0.085300334
53	0x3dcc10a4	0.099641114
54	0x3cc22d1c	0.02370315
55	0xbdd0bed8	-0.101926506
56	0x3d47b711	0.04875857
57	0x3adb4a9f	0.0016730613
58	0x3de0c49a	0.10974999
59	0xbd5c9c69	-0.0538601
60	0xbbdf4426	-0.006813544
61	0xbde3688b	-0.11103924
62	0x3d310fd8	0.043228
63	0x3b9851c4	0.004648419
64	0xbd601e6a	-0.054716505
65	0x3e3a1235	0.18171008
66	0xbdee2273	-0.116276644
67	0x3dff1e0e	0.12456904
68	0x3dbc0522	0.091806665
69	0x3e426ee4	0.18987614
70	0x3e041786	0.12899598
71	0xbdf3d5c2	-0.119060054
72	0xbca40f01	-0.020026686
73	0x3c8d5b40	0.017255425
74	0xbd80d8cf	-0.06291353
75	0xbca3c468	-0.019991115
76	0xbb8c56cc	-0.004282808
77	0x3cb2251e	0.021746214
78	0x3d73077b	0.059333306
79	0xbd08d1d9	-0.03340325
80	0xbd7a82ad	-0.06115978
81	0x3e37adb2	0.17937353
82	0x3d05587c	0.03255509
83	0xbe1940d8	-0.14966142
84	0xbd857a79	-0.065175004
85	0xbd81bfa1	-0.063353784
86	0x3d686dab	0.056745213
87	0xbaffa390	-0.0019503701
88	0xbe243dc8	-0.16039193
89	0xbd24993e	-0.040185206
90	0x3c35b198	0.011089705
91	0x3e65bd19	0.22435416
92	0x3df6b5d9	0.120464034
93	0x3dc9b305	0.098485984
94	0x3e239bb5	0.15977366
95	0x3dbe6c63	0.09298017
96	0xbe1a5c1c	-0.150742
97	0x3cd7bec9	0.02633609
98	0x3d1744b9	0.036930773
99	0x3e2c0c8a	0.16801658
100	0x3d69a7cc	0.05704479
101	0xbdaa1ba8	-0.08306056
102	0x3e0cd8ba	0.1375455
103	0xbd9ad9ee	-0.07561098
104	0xbe2252c9	-0.15851893
105	0x3dd896d9	0.10575647
106	0x3b931953	0.004489103
107	0x3daa4e80	0.08315754
108	0xbe137ed2	-0.14403847
109	0xbd44f11c	-0.048081502
110	0xbe1647fc	-0.14675897
111	0xbddcfa1f	-0.10789894
112	0x3dfaa97f	0.1223936
113	0xbda67a30	-0.08128774
114	0x3ce64077	0.028106911
115	0x3e005e90	0.12536073
116	0x3de182b7	0.1101126
117	0xbb98409c	-0.004646374
118	0x3d3785e0	0.044805408
119	0x3c72f9e2	0.0148300845
120	0xbe074daa	-0.1321322
121	0xbb33d1b6	-0.002743823
122	0x3e1281f1	0.14307381
123	0xbe1e944f	-0.15486263
124	0xbdcd08b1	-0.100114234
125	0x3b2609f5	0.0025335525
126	0x3cda6563	0.026659673
127	0x3dd91df9	0.1060142
128	0xbbb5d1b3	-0.0055486797
129	0xbe143ca3	-0.14476256
130	0x3ce00384	0.027345426
131	0x3dbfb360	0.09360385
132	0x3e18a6e8	0.1490742
133	0x3e00f4aa	0.12593332
134	0x3e2ed255	0.17072423
135	0x3de21274	0.11038676
136	0xbcc70229	-0.024293022
137	0xbc9a1829	-0.018810349
138	0x3e4f7c76	0.20262322
139	0xbdb51969	-0.08842737
140	0xbd955b5a	-0.072928146
141	0x3df094db	0.11747142
142	0x3e1a28d3	0.15054636
143	0x3d35f6ef	0.044424947
144	0x3e323347	0.17402373
145	0x3e26703b	0.1625375
146	0xbd1480e3	-0.03625573
147	0x3e051a22	0.1299825
148	0x3e537d6f	0.20653318
149	0xbd8a614e	-0.06756841
150	0x3e0e0bee	0.13871738
151	0x3dcd63de	0.10028814
152	0xbc12510a	-0.008930454
153	0x3df2bb2c	0.118521065
154	0xbc8e4188	-0.017365232
155	0x3e0928c2	0.13394454
156	0xbd8b294c	-0.06794986
157	0x3d9699b3	0.073535345
158	0x3da3e3a4	0.080024034
159	0xbcaeaa61	-0.021321477
160	0xbe3322dd	-0.17493768
161	0x3d49c188	0.04925683
162	0x3cdf4c47	0.027258052
163	0xbc0d586c	-0.008627038
164	0x3e238a03	0.15970616
165	0x3d4ceef8	0.050032586
166	0x3d075458	0.03303942
167	0xbcd3431b	-0.025788834
168	0x3d9c18bf	0.076219074
169	0xbdd6f6af	-0.1049627
170	0xbe10cf30	-0.14141536
171	0xbdbc0347	-0.091803126
172	0xbd8d1aaf	-0.06889855
173	0xbe091e40	-0.13390446
174	0xbdc6f070	-0.097138286
175	0x3e2e3f35	0.17016299
176	0xbdda1ce5	-0.106500424
177	0x3d436a31	0.047708694
178	0xbd70ffc0	-0.058837652
179	0x3dd1054f	0.10206091
180	0xbe19ab6f	-0.15006803
181	0xbe1f6c44	-0.15568644
182	0xbe004bdf	-0.12528943
183	0xbdb6173b	-0.088911496
184	0x3e266836	0.16250691
185	0x3c7e08b3	0.015505004
186	0xbe044452	-0.12916687
187	0x3c7ee770	0.015558109
188	0xbd19c90e	-0.037545256
189	0x3d7a9d25	0.06118502
190	0xbce03f4e	-0.027373936
191	0xbda9f861	-0.08299328
192	0x3decdea8	0.11565906
193	0x3b2f0fab	0.002671222
194	0x3ca9e983	0.02074123
195	0xbc0de535	-0.008660604
196	0xbe097e55	-0.13427098
197	0xbb724f70	-0.0036973618
198	0xbd1b0a40	-0.037851572
199	0xbe1c6e82	-0.1527653
200	0x3d1132a9	0.035448704
201	0x3df5d9d4	0.12004438
202	0xbd3389e1	-0.043832663
203	0x3d36a73f	0.044593092
204	0xbddd005a	-0.10791083
205	0x3bbb0c90	0.0057082847
206	0xbda66304	-0.081243545
207	0x3e123bd4	0.14280635
208	0x3d1cdcc4	0.038296476
209	0x3de650c3	0.11245873
210	0xbe28c9cf	-0.16483234
211	0xbe1efe41	-0.15526678
212	0x3e44a4f3	0.19203548
213	0xbddb1a63	-0.10698392
214	0x3d937828	0.07200652
215	0xbce89edd	-0.028396064
216	0xbe245351	-0.16047408
217	0x3dc645d6	0.09681289
218	0x3d9c6c72	0.07637872
219	0x3e18cf16	0.14922747
220	0x3e1b20fd	0.15149303
221	0x3dc313e5	0.09525279
222	0x3d2dbf84	0.04241897
223	0xbe1ce602	-0.15322116
224	0xbe22effe	-0.15911862
225	0x3de5726b	0.11203464
226	0x3d310d9c	0.04322587
227	0xbdd8a420	-0.10578179
228	0x3d587746	0.052848123
229	0x3e3b99be	0.18320367
230	0x3dac253b	0.08405539
231	0x3d6104a1	0.054936055
232	0xbd198d64	-0.037488356
233	0x3deb624d	0.11493359
234	0x3e692c26	0.22770748
235	0x3dc6e88f	0.09712326
236	0x3d86d290	0.0658313
237	0xbd3368d7	-0.043801155
238	0x3dfe04b3	0.1240324
239	0xbe2a70a3	-0.1664453
240	0x3e5f2ecc	0.21795195
241	0xbda6ceae	-0.0814489
242	0x3d2dbeda	0.04241834
243	0xbd95ab22	-0.073080316
244	0xbda8fa83	-0.08250906
245	0x3d3f019b	0.04663239
246	0x3ca7d7fb	0.02048873
247	0x3db0868b	0.08619412
248	0x3d207d9c	0.03918229
249	0x3df63040	0.12020922
250	0xbe25608d	-0.16150112
251	0x3de224e3	0.11042192
252	0xbde7d200	-0.11319351
253	0xbdd758d8	-0.105149925
254	0xbd867693	-0.06565585
255	0x3e2a1ce0	0.16612577

bias f4 [32]
0	0x3d581135	0.052750785
1	0xba6db1f0	-0.0009067347
2	0x3d8d92c9	0.06912763
3	0xbce2a9e3	-0.027668899
4	0x3da2fbe3	0.079582
5	0xbde88514	-0.11353508
6	0x3dfdc079	0.12390227
7	0x3e47db5f	0.19517277
8	0x3dc45ef0	0.095884204
9	0x3bb73182	0.0055906186
10	0x3c9378c3	0.01800192
11	0x3d094f9e	0.033523194
12	0xbdabb05e	-0.08383249
13	0x3d97e319	0.07416362
14	0x3dc81a5c	0.09770653
15	0x3e77ac88	0.24186909
16	0xbd1bae6a	-0.03800813
17	0x3e4d05ef	0.20021795
18	0x3e439115	0.19098313
19	0x3daee1d9	0.08539171
20	0xbe0cb2b0	-0.13740039
21	0xbd54f3c6	-0.051990293
22	0x3da65571	0.081217654
23	0xbd8be9da	-0.06831713
24	0x3d545c88	0.051846057
25	0xbda71b9e	-0.081595644
26	0xbe169643	-0.14705758
27	0x3b0972b2	0.0020972905
28	0xbde8b73a	-0.11363073
29	0x3cfb2c9c	0.03066092
30	0x3e3eef52	0.18645981
31	0x3d8cb4a8	0.06870395

weight f4 [1, 32]
0	0x3ca698b6	0.02033649
1	0x3c6c7515	0.014432211
2	0xbd268982	-0.04065848
3	0x3ccc1ebc	0.024916999
4	0xbd314c9d	-0.043285955
5	0xb98c8ad3	-0.00026806313
6	0xbd532e12	-0.051557608
7	0xbd561e60	-0.05227506
8	0xbc3f414e	-0.011673285
9	0xbc82a82f	-0.015949337
10	0xbd27716a	-0.040879644
11	0xbd6190c3	-0.055069696
12	0x3c92ddd5	0.017928043
13	0xbd63070c	-0.055426642
14	0xbd497665	-0.049185175
15	0xbd1f13c5	-0.038837213
16	0xbb40966e	-0.0029386538
17	0xbd592a3d	-0.053018797
18	0xbcd82db6	-0.026388984
19	0x3bc5e120	0.0060388
20	0xbce8147f	-0.028330086
21	0x3bee39db	0.0072700805
22	0x3c81f4b3	0.015863752
23	0xbc96183f	-0.018322108
24	0x3c714d63	0.014727923
25	0x3c8eb150	0.017418534
26	0xbcb1b9f5	-0.021695117
27	0x3c0071b2	0.007839607
28	0xbb267eca	-0.0025405162
29	0xbd79719e	-0.06089937
30	0xbbe3e91a	-0.006955278
31	0xbd2c86b5	-0.042120654

weight f4 [1, 32]
0	0x3cacd277	0.021096451
1	0xbc92a250	-0.017899662
2	0xbda30300	-0.079595566
3	0xbb7ba4a6	-0.0038397699
4	0xbd8549aa	-0.06508191
5	0x3c1015cb	0.008794258
6	0xbd9ea523	-0.07746341
7	0xbdb53c96	-0.088494465
8	0xbd944be6	-0.07241039
9	0x3b8ab0e1	0.0042325114
10	0xbe04a626	-0.12954006
11	0xbe05c588	-0.13063633
12	0xbdc0101e	-0.09378074
13	0xbdbff598	-0.09373015
14	0xbded7779	-0.11595053
15	0xbdf90e82	-0.1216097
16	0xbcb70ffb	-0.022346487
17	0xbdaeee04	-0.08541492
18	0xbda33893	-0.07969775
19	0xbcd55fd1	-0.026046665
20	0x3cd94f0a	0.026526947
21	0x3be35ca4	0.006938534
22	0xbc4f6930	-0.012659356
23	0x3c80ffc9	0.015746968
24	0xbc935cff	-0.01798868
25	0x3adc681b	0.0016815694
26	0xbcf6af4f	-0.03011289
27	0x3c7da3fc	0.015480991
28	0xbbfb19bb	-0.0076629794
29	0xbdac5636	-0.08414881
30	0xbdb0bb07	-0.08629423
31	0xbd93a858	-0.072098434
